models/cvae_L16_H128_B0.100_LR5e-04.pt (torch, 227101 bytes, 13 tensors)

encoder.0.weight f4 [128, 46]
000000 5b e9 da bd 69 aa 9e 3c 8d 1f 1e 3d 2f 8d 90 3d
       -0.1068904 0.019368367 0.038604308 0.07058179
000010 0f df 83 bd 9e b9 dd 3d 67 e0 3c bd ad e1 0b bb
       -0.064390294 0.10826419 -0.046112444 -0.002134423
000020 1c cf 63 bd 3f 61 01 bd bd 74 80 3c ac 31 b8 3b
       -0.055617437 -0.03158688 0.015680665 0.0056211557
000030 34 bf d9 3d d4 30 8c bc 4d ff 7f 3d 80 af da 3c
       0.10632172 -0.017113127 0.062499333 0.026695013
000040 8a 82 7c bd 71 12 38 bc 94 b6 e6 3b ab 6b 8f bc
       -0.06164793 -0.0112348655 0.007040808 -0.017507395
000050 cf 27 80 3d 04 f8 bd 3d c9 00 9d bd 59 7d cd 3d
       0.06257593 0.09275821 -0.076661654 0.10033674
000060 e5 2a 88 3c 80 6f 45 bd 69 87 15 3d 8b 7d b8 bd
       0.016622016 -0.048202038 0.03650609 -0.090083204
000070 74 f0 0b 3e 75 14 ff 3b 12 31 08 3d 25 52 23 3b
       0.13665944 0.007784421 0.033249922 0.0024920788
000080 c1 01 ea bc c8 31 f8 3b e5 73 54 bd 6c 5a 3f bd
       -0.02856529 0.0075742938 -0.05186834 -0.046717092
000090 23 11 9f 3b d0 b7 06 3b 8b 64 f1 3b 84 cc a2 bc
       0.004854338 0.0020556338 0.007366722 -0.019872911
0000a0 dd 03 d6 3c 40 0e a5 3d b6 3d 96 3d 51 c9 d5 bc
       0.026124889 0.080593586 0.07335989 -0.026096972
0000b0 5a 5e f5 3c 4d 97 6d bc 0b a1 42 3e 28 8e 81 3c
       0.029952217 -0.014501405 0.19006746 0.015814856
0000c0 14 0b b7 ba 39 f4 4a be 30 60 a7 bc b1 bd 8e bc
       -0.0013965094 -0.19819726 -0.020431608 -0.017424436
0000d0 ef 6d 25 bd 88 3a cb 3d 1d 61 31 bb 46 14 75 3c
       -0.040388044 0.09923273 -0.002706594 0.014958447
0000e0 79 06 cc 3d db 4c 0c 3d b0 23 e9 3d 91 a0 6c 3d
       0.09962172 0.034252983 0.1138376 0.057770316
0000f0 18 1d ed 3b 66 32 65 bd e5 b7 90 3c c9 c5 19 3d
       0.0072361343 -0.055956267 0.017665813 0.03754214
000100 3f 6e 66 3d 7a 93 be bd 4e 10 29 bd 2a 40 c8 bd
       0.056257483 -0.09305473 -0.041275315 -0.09777863
000110 a5 87 56 bd 80 4f e8 bd bc f1 b2 3d 4a 4d 0a 3e
       -0.052375454 -0.113432884 0.087375134 0.13506046
000120 b7 c9 81 bd f1 11 43 bc d8 c4 e8 3c c8 7f fd bb
       -0.06337302 -0.011906133 0.028414175 -0.00773618
000130 5f 75 9d bb 90 84 80 bc f8 d5 d7 bd 16 53 55 3d
       -0.0048052515 -0.01568821 -0.10538858 0.05208119
000140 ec bf c5 3c 18 47 c3 3c 18 ab 1a 3d e4 c3 93 3b
       0.024139367 0.023837611 0.037760824 0.004509436
000150 e2 c0 7e 3d 46 97 3a bd af a7 7b 3d a4 09 04 bc
       0.062195666 -0.04555442 0.061439212 -0.008058939
000160 42 66 34 bd 85 b1 d9 3c 58 eb bf bd 06 10 e6 bc
       -0.044042833 0.026573906 -0.0937106 -0.028083812
000170 e8 eb 52 be 3d 0a e6 3c c5 8c e6 3c d2 c2 38 3e
       -0.20597804 0.028081054 0.028143296 0.18043068
000180 8a 90 78 3d 79 39 9d 3c b7 0a 5b 3c 73 81 82 bd
       0.06068472 0.019192444 0.013369254 -0.06372347
000190 7f ee 12 bd c3 8a 3d 3d 1e df 87 bd 65 47 97 bd
       -0.03587198 0.04627491 -0.06634353 -0.07386664
0001a0 88 fe 25 be 2e 91 62 b9 b6 fd dd bd d1 fb a2 3c
       -0.16210377 -0.00021607123 -0.10839407 0.019895466
0001b0 4d f5 33 bd 77 bb dc bd 64 1c 2d bd 43 4a d6 bc
       -0.04393511 -0.107779436 -0.042263404 -0.026158458
0001c0 b9 3a dd bc 78 a5 91 3d a4 86 cc bd 9f c8 b6 bc
       -0.02700554 0.07111639 -0.09986618 -0.02231246
0001d0 fd 9f 2b 3e 95 a4 37 3c 91 e1 00 3e fc f9 5a 3d
       0.1676025 0.011208673 0.12586047 0.05346106
0001e0 d7 c2 89 bc cc 99 eb bb 9f 3b 26 3d 56 f1 85 3c
       -0.01681654 -0.007189965 0.040584203 0.01635043
0001f0 fc 6c 89 3d 24 c8 67 3d 53 2d be 3d 40 5e 8d 3c
       0.0671024 0.056587353 0.09285989 0.017256856
000200 f0 83 b2 3a c8 ed 85 3c 13 2b 1d 82 5b 27 1a 3d
       0.0013619643 0.016348734 -1.15469e-37 0.03763519
000210 48 12 74 3d 7e bd 8c 3d c8 b5 af 3d 39 48 08 3e
       0.059587747 0.0687208 0.08579594 0.13308801
000220 81 4b 97 3c 4a c1 85 3c 0d 1f b7 3d f7 46 90 3d
       0.01846862 0.016327519 0.08941469 0.070447855
000230 af 02 7b 3d 79 6e 97 be 90 ad c9 ba 66 ef c6 3d
       0.061281856 -0.2957647 -0.0015386809 0.097136304
000240 ea e2 6d bd f7 ad 71 3a bf bd 6b 3c c7 9c b0 bd
       -0.05807773 0.0009219343 0.014388501 -0.08623653
000250 a2 d2 e6 ba 75 58 44 bd 6b 95 d4 3c 9e bb 07 3d
       -0.0017610381 -0.04793592 0.025950154 0.03313791
000260 86 1f 11 bd b0 e6 8b bb bb 0b ca 3a 55 0d 2e 3c
       -0.035430454 -0.0042694435 0.0015414873 0.010623296
000270 c9 ec c0 3d ab 23 62 3c 45 24 a1 bd ff 3a 22 bd
       0.09420163 0.013802449 -0.07868246 -0.039607044
000280 4a ee d3 bd 1e 79 5f 3d 00 be c1 bd de 9a 8f bd
       -0.103481844 0.054558866 -0.09460068 -0.070119604
000290 1c 62 97 3c c1 23 64 3d 74 e1 40 bd d8 fc c3 bc
       0.0184794 0.05569816 -0.04709001 -0.023924276
0002a0 34 ba 30 3d a9 27 4a 3c 1b 71 25 bd 7e 74 3b 3d
       0.043146327 0.012338557 -0.04039107 0.045765392
0002b0 d3 c3 b1 bb aa d5 d5 3c 76 54 75 bb a9 27 4a 3c
       -0.0054249554 0.02610286 -0.0037434376 0.012338557
0002c0 f7 9a d7 3c e4 f3 2b 3b e5 36 37 bc cd cc d0 3d
       0.02631901 0.00262379 -0.0111825215 0.10195313
0002d0 3e 61 a2 3c f8 4f 6a bd 20 e7 2f 3d 69 9f f0 3c
       0.01982176 -0.05720517 0.042945027 0.029372888
0002e0 b7 ea ad 3c fe 09 e2 3c ca eb 85 3c 89 a6 20 3d
       0.021230085 0.027592655 0.016347785 0.03922132
0002f0 39 da c3 bc fa 50 6a bb 4e 3c 2e 3d 1e ce b1 bc
       -0.023907768 -0.0035753832 0.04253798 -0.02170473
000300 7c a8 eb bb cc a4 df bc 55 94 ea 3c 27 bc 54 3b
       -0.0071917158 -0.027300261 0.028635183 0.003246078
000310 76 dc d4 3c 02 ed 80 bc 7a e6 a5 3b 4c af e4 3c
       0.02598403 -0.015738014 0.0050628753 0.02791562
000320 3d 36 9e bc 07 37 f3 bb 7a 62 91 bc 6f 13 8d bb
       -0.019312972 -0.0074223313 -0.017747153 -0.004305295
000330 3c 59 29 3c 01 2d 68 bd 90 56 32 bd 63 1f bb 3d
       0.010336217 -0.056683544 -0.043539584 0.09136846
000340 ae 48 d9 bd b9 46 5f 3d 8b 38 87 3e 85 32 c4 bd
       -0.10609566 0.054510806 0.26410326 -0.09579948
000350 36 6e 93 3d b4 c1 8d 3c 5f ee 79 3c f5 54 d3 3a
       0.071987554 0.017304279 0.015254586 0.0016123342
000360 3d 20 a1 3c 0d 3e 04 3d 5c 87 01 3d 30 c8 4c bb
       0.019668693 0.03228574 0.03162323 -0.003124725
000370 28 7e 45 3c 3b 12 d3 3a a3 41 63 3b ac 97 a9 3c
       0.012054004 0.0016103456 0.0034676574 0.020702206
000380 b2 b9 bc 3b 78 39 99 bc ef de 69 3d 41 77 77 bc
       0.0057594413 -0.018704161 0.05709737 -0.015104116
000390 3e 75 7e 3c a9 ab 2b 3b 2f 0c 3f be cd c6 5c bc
       0.015530882 0.0026194847 -0.18656991 -0.013475132
0003a0 0b 9d 27 bb 32 1b 0e 3e 72 9a 27 3d 19 7d d9 3c
       -0.0025575783 0.13877562 0.040918775 0.026548909
0003b0 b7 ed 59 3c 1e f6 c6 bd 5a 67 2b bb 72 99 05 3d
       0.013301305 -0.09714912 -0.0026154132 0.03261704
0003c0 eb 0f 84 bd 9f e6 31 3d 8b 08 de 3d 1c 80 87 bb
       -0.064483486 0.043432828 0.10841473 -0.004135145
0003d0 ef bd 7e bc db 15 80 bd 3d 5a 8c 3d 92 65 19 bd
       -0.015548213 -0.062541686 0.06853149 -0.03745038
0003e0 0a 12 01 bc 47 33 07 3e 6e 25 cf 3c 83 8d b4 bd
       -0.007877836 0.13203155 0.025286403 -0.08816054
0003f0 3e 6a c4 3d 08 d2 e4 3b 31 78 34 bd a3 22 1a 3c
       0.095905766 0.0069830455 -0.044059936 0.009407672

encoder.0.bias f4 [128]
000000 f4 f2 9a bd 46 c2 89 bd 6d fe 2c 3e 55 0b 99 bd
       -0.07565871 -0.06726508 0.1689393 -0.074728645
000010 e2 43 e0 3d 51 a7 04 3d 7f 1e 43 3e 4f ef 20 bd
       0.109504476 0.032386128 0.19054602 -0.039290722
000020 45 b4 89 3d 5e a9 ee bb fb aa 3c bd 7b 26 ab 3c
       0.06723837 -0.0072833737 -0.046061497 0.020892372
000030 ed 6a 3f 3d 78 09 1c 3d cb 74 60 3d 57 1d 51 bd
       0.04673283 0.038094968 0.054798882 -0.05105337
000040 47 e7 bf bd 32 af 9f bd 38 5c ed bc df de 56 3d
       -0.093702845 -0.07797088 -0.028974637 0.05245864
000050 c9 38 84 bd 46 c7 8c bd be 5c 51 3c 3d 8a a1 3d
       -0.064561434 -0.06873946 0.012778459 0.07887695
000060 36 c3 01 be 72 b2 ee 3d 55 8d 8b bd 40 dd b2 3d
       -0.12672123 0.116551295 -0.06814066 0.08733606
000070 26 6c 39 3e 16 05 64 bd b4 ce 9b 3c d5 0b e8 3d
       0.18107662 -0.055668913 0.019019462 0.11330382
000080 33 1a 32 bd 69 7f 3b bb d5 6c 90 bc 70 20 0d 3e
       -0.043482017 -0.0028609878 -0.01763002 0.13781905
000090 6f 47 df bc 01 c4 2b 3c 05 a5 ca bd 9a 05 a5 3c
       -0.027255742 0.010483743 -0.09894756 0.020144273
0000a0 83 e6 02 bd cd 43 b8 3d f5 28 27 3e 6c 73 a2 bc
       -0.031958114 0.08997307 0.16324218 -0.019830428
0000b0 f5 82 5a 3d cb ff 5e bc 93 55 fb 3c b6 c6 93 bd
       0.053347547 -0.0136107905 0.030680453 -0.072156355
0000c0 8f 75 3c bd ec fe a8 bd b1 30 8c 3d e9 b3 28 3d
       -0.04601055 -0.082517475 0.06845225 0.0411872
0000d0 bb 5e 84 3b 3f 65 f1 bc 8d 2f f1 3d 98 4f 3e 3d
       0.004039613 -0.029467223 0.11776648 0.046462625
0000e0 c8 84 a4 3d 76 1b a9 3d 62 f6 e7 3c b8 57 f9 3d
       0.080331385 0.08257191 0.028315727 0.12174934
0000f0 fd f2 25 bd da 44 25 3e 67 bd 18 3b d0 5e 21 3e
       -0.040514935 0.16139546 0.0023306252 0.15758824
000100 c3 78 16 3e 90 20 08 3e 6f d1 1b 3d c9 0e a4 bd
       0.14694504 0.13293672 0.03804153 -0.080106325
000110 83 fe af 3c ab c3 40 3e 2d 0b 71 3d 12 ce 9a bd
       0.021483665 0.18824641 0.05884855 -0.07558836
000120 77 8d ec bc f8 65 1d 3d 38 86 fe bd a3 01 87 bc
       -0.02887605 0.038427323 -0.12427944 -0.016480273
000130 ae 90 09 3d 6e 41 b1 bb ba de 1a 3e 52 e9 da 3d
       0.033585243 -0.005409411 0.15124026 0.106890336
000140 5f c7 35 bd 13 3d 48 bd e3 03 cf 3b 8d f6 1b 3c
       -0.04437959 -0.04888637 0.006317602 0.0095192315
000150 5f a2 0d 3e d5 8b 14 bd 76 39 80 bd bb 43 6e 3d
       0.13831471 -0.036266167 -0.0626096 0.05817006
000160 34 b5 ae bc e2 6c 86 3d 0a a3 cb bd ca 02 4b 3d
       -0.021326639 0.065637365 -0.099432066 0.049563207
000170 16 93 4f bd 70 fa ca bc 4f c3 08 bb d7 de b5 bd
       -0.05067738 -0.024777621 -0.0020868366 -0.08880394
000180 f4 9f 0a 3d 9d 53 c6 3c 6a 7e 1b 3e b3 74 b9 3b
       0.03384395 0.024209792 0.15184942 0.0056596636
000190 b5 fc ab bd db 15 21 3e 3f 71 85 3d 9d 46 af 3d
       -0.083978094 0.15730993 0.065157406 0.0855839
0001a0 7a 5c 4e bc a2 05 8e bd 64 3a 8c bc 87 5a 3d 3d
       -0.01259529 -0.06934668 -0.017117687 0.04622891
0001b0 90 2e 3c bd 74 42 08 3d bb 23 cb 3d d2 2b c8 3c
       -0.045942843 0.0332665 0.099189244 0.024434958
0001c0 32 8a b2 bd a6 7c 19 bc bd e5 94 bd ef c1 54 bd
       -0.08717765 -0.009368097 -0.072703816 -0.051942762
0001d0 7e 4b da 3b 14 33 26 bd d1 22 68 bd 17 84 37 3b
       0.0066618314 -0.040576056 -0.05667383 0.0028002316
0001e0 96 d0 e8 bc 29 8e 25 3e 91 82 3d bd 73 4b 0d bd
       -0.028419774 0.16167511 -0.046267096 -0.034495782
0001f0 8c 77 10 be 4e fe 33 3d 3f b7 e2 bd 3c 6d ca bc
       -0.14108104 0.043943696 -0.11070108 -0.02471029

encoder.2.weight f4 [128, 128]
000000 3a 3f 04 bb 0a 40 98 3c 2d 55 99 3d 9b 39 5a bd
       -0.0020179288 0.018585224 0.07486949 -0.053277593
000010 1e 9d 8e bb c6 a4 ed bb ab b0 cd 3d eb 7a 72 3b
       -0.004352226 -0.0072523085 0.10043462 0.0036999534
000020 f6 fa 05 bd 7e 79 bb bd a5 54 39 3c 30 41 92 bc
       -0.032710038 -0.09154032 0.011311685 -0.01785335
000030 8a b7 87 bd 42 ea 00 bd db 89 38 bd 4c 51 78 3d
       -0.06626804 -0.031473406 -0.045053344 0.060624406
000040 42 c3 98 bc 8a bb 6d bd f0 ca 58 3d 23 4a af 3c
       -0.018647794 -0.05804018 0.05292791 0.021397656
000050 b3 70 c7 3b 8d e3 22 bb 30 a3 3d bb 21 cc d1 bc
       0.006086433 -0.002485487 -0.0028936379 -0.025610032
000060 e9 55 4d bd 74 32 86 3c 67 72 b7 3d e7 8e 86 3c
       -0.05013076 0.01638148 0.089573674 0.016425563
000070 ba 86 05 3d 37 68 86 3c bb d9 da 3c 28 ba 71 bd
       0.03259919 0.016407115 0.02671515 -0.059015423
000080 7d 76 f8 bc 14 bb d1 bd 8f cb c0 bc f7 b7 df 3c
       -0.030329937 -0.102407604 -0.023534564 0.027309401
000090 5b c6 6f 3d 26 e5 ef 3b a5 1c fd 3c 0e 4a a7 bd
       0.058538776 0.007321018 0.030897448 -0.08168422
0000a0 a0 41 4e be a4 de f6 3c 02 32 b5 bd bf 0b 29 be
       -0.20142221 0.03013546 -0.08847429 -0.16508387
0000b0 59 73 8d bc 09 19 b3 3d b1 0a b4 bd 0c 81 a1 bd
       -0.017266916 0.087450095 -0.08791102 -0.07885942
0000c0 65 5d ec bd 63 dd 5f 3c f9 1c 22 3d d9 cc 6e bd
       -0.11541251 0.013663623 0.03957841 -0.058300827
0000d0 28 7a 93 3c c6 d0 ad 3c 53 52 e0 bc de 85 0e 3d
       0.018002585 0.021217715 -0.027383005 0.034795634
0000e0 6e 38 94 3c cb 02 b3 bb db c0 f5 3c 9e 78 ee bc
       0.018093314 -0.0054629794 0.029999187 -0.02911025
0000f0 6d 4e dd 3d c1 3b 43 3d ae 2a fc 3c ef e2 9c bc
       0.10805974 0.047664408 0.03078207 -0.01915118
000100 53 66 ce bb ca 3a 06 3d c4 1e c5 3c 43 b5 c4 3c
       -0.006298819 0.03277091 0.024062522 0.024012214
000110 be ad d7 bd 9d 81 95 3d ca 5a db 3d f1 d5 df bd
       -0.105311856 0.073001124 0.10710676 -0.10929478
000120 fe e9 46 be 14 c0 4b ba c7 c5 b0 bd d7 ec b3 3d
       -0.19425198 -0.00077724573 -0.08631473 0.08785408
000130 6a b5 94 3d 9e 51 fd bc 8a eb 83 3d de 94 a8 3d
       0.072611645 -0.030922707 0.0644141 0.08231519
000140 8a cb 6a 3c 59 8c ca 3c 1c 88 14 3d e0 59 46 bc
       0.014330754 0.024725126 0.036262617 -0.012106389
000150 ce 31 24 3d 87 29 90 3d 81 9c b3 bd aa ed a9 bd
       0.04008656 0.07039171 -0.08770085 -0.08297284
000160 95 f5 7d 3d f7 62 b1 bd 1a d9 df bd 2e 17 b2 3c
       0.062001783 -0.08661454 -0.10930081 0.021739569
000170 a8 e3 b2 bb 03 d2 bc 3c 6b 2e ae 3d 14 e2 1f bd
       -0.0054592676 0.02304936 0.08504947 -0.039033964
000180 5e 65 a3 bd e2 61 0e bc 18 b6 30 3d 41 96 10 3d
       -0.07978319 -0.008690329 0.043142408 0.035299543
000190 25 25 b9 bc 97 b6 59 3d c9 39 31 3b fb 4e 15 3d
       -0.02260072 0.053152647 0.00270425 0.036452275
0001a0 dd e0 5a 3d 53 ee 06 bd 01 8f 61 3d e7 bc de 3b
       0.053437103 -0.032942127 0.05506802 0.0067974213
0001b0 e4 93 4b bc 42 82 04 3c 6a ec b3 3c 37 12 ac 3d
       -0.012425397 0.0080876965 0.021963317 0.08401912
0001c0 eb 4c 69 bc 87 97 86 3d 30 d8 76 3c a9 b3 9a 3d
       -0.01423953 0.0657187 0.015066192 0.07553799
0001d0 ae 98 d8 bd b9 16 d6 bd 09 93 b9 3c 3b 23 e2 3d
       -0.10575996 -0.10453553 0.02265312 0.11041876
0001e0 69 9f 5c 3c 02 e2 d4 bd 98 fc 3a bd 64 34 ae bd
       0.013465741 -0.1039467 -0.04565105 -0.085060865
0001f0 e7 89 d5 bc 96 86 e5 3c 3d d9 15 3d 10 fe fa 3c
       -0.026066734 0.028018277 0.036584128 0.030638725
000200 09 5b d3 3c 85 fe cb 3c c6 7c 8b bd 23 e9 3c 3d
       0.025800245 0.024901638 -0.06810908 0.046120774
000210 1d 91 18 3b db f1 23 bb d9 15 40 3d ce 29 61 bc
       0.0023279854 -0.0025015983 0.046895836 -0.013742877
000220 e3 f1 2f bc 0c e0 a2 3d 46 3a 65 bd 91 2c e3 bc
       -0.010738823 0.0795289 -0.055963777 -0.027731212
000230 eb 99 14 bd b9 bc 96 3c 07 18 9d 3c 92 4f 99 bc
       -0.0362796 0.018400537 0.019176496 -0.0187147
000240 75 38 82 bd e0 87 85 3c 70 3d a2 3c 1a 18 21 bd
       -0.063584246 0.016300142 0.019804686 -0.039329626
000250 d9 3c 5e ba 55 08 1e bd 0c 3e 67 bd cf 6d 41 3c
       -0.0008477695 -0.038582165 -0.056455657 0.011805966
000260 16 e3 4f bd eb 12 e9 3d 03 a2 06 3d 96 56 3d bd
       -0.050753675 0.113805614 0.03286935 -0.046225153
000270 7f 4e 06 bd ca 02 2a 3d 88 4a 73 3d 08 86 78 3d
       -0.032789703 0.041506566 0.05939725 0.060674697
000280 b6 d8 4b 3c 33 dc 01 bd 35 02 b0 3d 48 40 9d 3d
       0.012441805 -0.03170414 0.08594171 0.07678276
000290 b1 56 f8 3c d9 c8 b5 3b 13 5c e2 bc 4d d6 05 3d
       0.030314775 0.0055476245 -0.027631795 0.032675076
0002a0 92 78 75 3d 92 91 82 3b 69 de 48 3c 16 19 10 3b
       0.059929438 0.0039846385 0.012260058 0.0021987609
0002b0 58 06 c1 bb 82 69 1e bc b4 d5 c3 b9 db 3b c5 3b
       -0.005890649 -0.00966871 -0.0003735252 0.006019098
0002c0 eb 18 8c 3c b7 f9 8b 3c 56 32 28 3d 70 27 b3 3d
       0.017101726 0.017086847 0.04106363 0.087477565
0002d0 55 18 a0 3d b7 4f 28 bd 69 2e fb bc 6d e1 7c bc
       0.07817141 -0.041091647 -0.030661779 -0.015434605
0002e0 1e 9c 11 bc 03 78 84 3c 7d aa 43 bc 9d 94 16 bc
       -0.008887319 0.016170507 -0.011942503 -0.009190706
0002f0 8c cb 3a bd 5c 9c 1b bd 1e 31 15 bd 4d 0e 4b bc
       -0.045604274 -0.037990913 -0.036423795 -0.012393546
000300 ff ba 68 bd ba 24 62 bc 18 5f 5e 3d ac 09 6e 3d
       -0.05681896 -0.013802702 0.054289907 0.058114693
000310 7b ae bc bb 7c af 24 3d 4b 0c 58 bd 3d 60 19 bd
       -0.0057581044 0.040206417 -0.0527461 -0.037445296
000320 06 48 8b 3c 43 0f 65 3d e5 1e a5 3c eb f0 ac 3d
       0.017002117 0.055922758 0.020156333 0.08444389
000330 02 60 01 bd 6c 4b 1f bd dd 94 83 bc e4 cf 44 3d
       -0.0315857 -0.038890287 -0.016062194 0.048049822
000340 68 8b e4 bc b1 45 b7 bb d3 77 08 bd 31 59 c7 bc
       -0.027898505 -0.0055930247 -0.0333174 -0.024334522
000350 9d 7c 5a 3b 1b 71 92 3d 7d 4c 63 bd 08 f4 be 3b
       0.0033338435 0.071504794 -0.055492867 0.0058274306
000360 07 33 68 3d ce 83 e8 3d c3 28 b9 3c 8f 23 6e bc
       0.05668929 0.11353265 0.022602445 -0.014534845
000370 25 cf d6 bc 39 3a 99 3d 06 9a 1b bd c5 f7 1b 3d
       -0.026221821 0.07481808 -0.037988685 0.03807809
000380 f4 38 d3 bc 8b f9 1c bc df 2d 8c 3d 3c 6c 1c bd
       -0.025783993 -0.00958098 0.06844687 -0.038189158
000390 8a 46 15 3b 31 46 c6 3c c2 08 7f 3d 6f 41 a8 3c
       0.002277764 0.024203392 0.06226421 0.020539014
0003a0 f4 e6 3d 3d 92 54 9b bc 65 ce 58 3d f4 b4 bb bb
       0.046362832 -0.018961225 0.05293121 -0.0057283584
0003b0 12 d1 6c 3d 9c cf 6a 3d d5 46 3d bd 6c ac 96 3d
       0.057816572 0.057326898 -0.04621013 0.073571056
0003c0 07 99 1b 3d f1 44 2f bd 4f bd 05 bc 2c 49 84 3c
       0.037987735 -0.042790357 -0.0081628105 0.016148172
0003d0 32 bd 49 3d ac 76 51 3d 5f 00 08 bb c5 b7 c2 bd
       0.049252696 0.051138565 -0.0020752174 -0.095077075
0003e0 e6 a6 90 3d 69 32 e5 3c 27 20 84 3d 29 d4 42 3d
       0.07063083 0.027978139 0.06451445 0.047565613
0003f0 fc 89 87 3d d2 fe c7 bc f9 4b 94 bb 05 0b b1 3c
       0.06618115 -0.0244135 -0.004525658 0.0216117

encoder.2.bias f4 [128]
000000 a3 d0 36 3c 7f ca ae 3d ca 8d 6e 3d 28 76 3d bd
       0.011158141 0.08534717 0.05824069 -0.04625526
000010 9d fd e3 3c 47 19 49 bd b7 3b ed 3b 3b 1e 36 3d
       0.027830893 -0.049096372 0.0072397846 0.044462424
000020 79 eb dc 3c 3f a8 d2 bc bb c1 d7 bc 4c e0 04 3d
       0.02696775 -0.025714992 -0.026337495 0.03244047
000030 b2 2f d7 3d 89 48 97 bd 10 b5 28 bc 21 1a 95 3d
       0.10507144 -0.07386882 -0.010297075 0.07280374
000040 81 8b e5 bc c1 8b 41 3d 38 7d 83 3d 42 2c ca 3d
       -0.028020622 0.04725242 0.06420368 0.09871723
000050 cf fa 1d 3c ac 38 69 3d b8 fa 78 bd 3b 89 d9 3d
       0.009642317 0.056938812 -0.06078598 0.10621878
000060 01 ca fd 3b 6e be e3 3d 6c bf 81 3d 42 d3 bc 3d
       0.007745028 0.11120306 0.06335339 0.09219982
000070 da 55 8f b9 69 6d 06 3d 01 81 c9 bc 26 38 5f bd
       -0.0002733905 0.032819185 -0.024597647 -0.054496907
000080 52 4e b9 3d 10 8a 8a 3d 04 06 d6 3d 96 24 31 3b
       0.090481415 0.067646146 0.10450366 0.0027029864
000090 12 8b 5b 3d bb 5f e8 3c b7 59 ce bc 8d d5 d4 3d
       0.053599425 0.02836596 -0.025189264 0.10392294
0000a0 4d 58 ed 3d 18 86 4a 3d 92 e9 90 bc 05 48 ce bc
       0.11589108 0.049444288 -0.0176895 -0.025180826
0000b0 78 cf a3 bc 76 2b b7 3d bc 53 be 3c 50 f3 84 3d
       -0.01999639 0.089438364 0.023233287 0.06491721
0000c0 52 28 4b 3d 44 43 a6 3d 30 d6 8d 3d 6b 99 0d 3d
       0.049599 0.08118299 0.06925619 0.03457014
0000d0 4b 15 8d 3c f2 38 91 3d 45 db d4 3c 34 b8 cf 3d
       0.017222067 0.070909396 0.025983462 0.10142556
0000e0 b4 22 1f bc 26 fd bb 3d 46 c9 88 3c 5b 26 8e 3c
       -0.009712864 0.091791436 0.016697537 0.017352274
0000f0 f4 7a ac bd 17 ac 75 3d bb 3c 39 bc 71 38 a9 3d
       -0.08421889 0.05997857 -0.011305983 0.082627185
000100 61 b7 eb 3d ad 77 8a bc 63 e2 3e 3d b5 29 aa ba
       0.11509586 -0.016902769 0.046602618 -0.00129824
000110 6a a9 63 3c 7c 10 c9 3d 71 03 0b 3d 04 81 13 bc
       0.013895372 0.09817597 0.03393883 -0.009002928
000120 ec d2 b1 3d c5 f8 56 bb 62 0c 6e 3b 1d 51 89 3c
       0.08682808 -0.0032802087 0.0036323299 0.01676231
000130 39 05 b6 3c 46 b1 6e bd 68 cb b7 3d 3d 5c da bd
       0.022219287 -0.05827453 0.089743435 -0.10662124
000140 09 32 44 3d c9 f3 1a 3d af eb d8 bb d9 fc 08 bb
       0.04789928 0.037830148 -0.0066198925 -0.0020902662
000150 30 7a 2b bc 5e a5 a9 3d d4 ab 64 3d 91 dd a1 bc
       -0.0104661435 0.082834944 0.05582793 -0.019758971
000160 72 ab de 3d d7 9e 5b 3d 2f 17 cb 3b 46 a1 b7 bc
       0.10872544 0.05361828 0.006197832 -0.022415768
000170 5b 5d fc 3c db b9 ee bc d8 aa 9a 3d 57 3f b4 3d
       0.030806234 -0.029141357 0.07552117 0.088011436
000180 16 3d cf 3c c1 c3 b0 3d bb 5a e6 3b 54 33 88 3b
       0.025297683 0.08631087 0.007029859 0.0041565094
000190 fd c0 3d bc 12 6c 95 3d f2 4d 63 3c b7 97 8d 3d
       -0.0115816565 0.072960034 0.013873564 0.06913703
0001a0 91 6b 90 3d 7e c5 09 3b 97 fd 3b 3d cf 18 7e 3d
       0.07051767 0.0021022256 0.04589614 0.062035378
0001b0 af 74 60 3d 29 23 07 bd db 08 d8 3d 55 f0 6e bd
       0.05479878 -0.032992516 0.10548564 -0.058334667
0001c0 14 46 44 bd b6 a1 3a 3c 8e c5 1a 3c 6d 7f 34 bd
       -0.047918394 0.011391094 0.009446515 -0.044066835
0001d0 16 cd 00 3d 39 8e c1 3d 8e 0d 27 3d 27 a8 29 3d
       0.031445585 0.09450955 0.04078441 0.04142013
0001e0 79 65 54 3d 6b 6c 3d 3d f7 73 ab 3d 8b b6 9f 3d
       0.051854584 0.046245974 0.08371728 0.07798489
0001f0 b6 9f 3b 3e 43 de d5 3d 9e ca 1e 3d 13 04 1f 3d
       0.18322644 0.10442784 0.03876745 0.038822245

fc_mu.weight f4 [16, 128]
000000 07 5c 46 b9 65 ac 6b 3b c4 f5 d7 ba c5 7c 0f bb
       -0.00018917034 0.003596091 -0.0016476442 -0.0021894437
000010 35 cc 89 3b 9a 37 8b 3a ba 25 20 3b 89 d6 16 bc
       0.0042052516 0.0010621429 0.002443655 -0.009206423
000020 e0 31 41 39 cb 6b 23 3b fe 27 92 bb 5a ec a6 ba
       0.00018424494 0.0024936076 -0.004460334 -0.0012735233
000030 5b b5 29 3c 63 dd 9e ba d5 ec 01 bb e4 d6 72 ba
       0.01035818 -0.0012120422 -0.0019825 -0.00092635886
000040 f4 9a a5 3b 92 cb 00 bc 34 8d 2d bb 66 b4 4b 3a
       0.0050538722 -0.007861035 -0.0026481869 0.0007770717
000050 ba 95 18 3b a0 fe b6 3b cd f8 11 3b ba 5b ab b9
       0.0023282603 0.005584553 0.002227354 -0.00032684003
000060 1c e0 f0 bc 78 cc 4b bb ad a2 2a 3b 52 ef 11 39
       -0.029403739 -0.0031097215 0.0026036904 0.00013917431
000070 9d 7b 13 bb 43 74 df 3a d1 77 3d 3a e3 81 34 ba
       -0.00225041 0.0017048198 0.0007227632 -0.00068858097
000080 45 03 26 3c 02 2e 46 3b d3 b2 a1 ba 95 6b 90 ba
       0.010132615 0.0030239825 -0.0012336619 -0.001101839
000090 d7 e0 a7 3b e1 f8 1d 3b be 7a fd b9 8d ad cc bb
       0.0051232385 0.0024104642 -0.0004834737 -0.006246275
0000a0 fd 8e 58 bc 14 b9 ac 3b a9 63 bc 3b cf fa e8 bb
       -0.013217685 0.0052710865 0.005749185 -0.007109977
0000b0 e3 47 9f bb 32 19 16 3c a7 ec 06 3c 00 ad 2b 3a
       -0.0048608645 0.0091612805 0.008235133 0.00065489113
0000c0 e3 59 43 3a c3 b9 62 3c 6f df 08 3b 62 19 ab b9
       0.0007452054 0.013838234 0.002088513 -0.00032634573
0000d0 d6 f2 0f 3c 47 da bb 38 da dc 48 bc 95 c5 3a 3b
       0.008785924 8.957512e-05 -0.012259686 0.0028499116
0000e0 4e 82 cc ba 8e 25 38 3b 06 6d c8 bb f9 f1 0e bb
       -0.0015602799 0.0028098556 -0.006116512 -0.0021811707
0000f0 d6 98 3e bb 8f 2d 62 3a ff 5f 10 3c 1e 9c 9c ba
       -0.0029082797 0.00086280046 0.00881195 -0.0011948382
000100 1a 99 9f bb 91 a5 84 3b d6 25 44 bc 5d 80 4c 3c
       -0.004870546 0.0040480574 -0.011971911 0.012481776
000110 bc fc 9f 38 dd 86 d4 ba 59 31 b7 bb e2 29 9e bb
       7.628786e-05 -0.0016214509 -0.0055905995 -0.00482677
000120 24 ab 06 bb 91 0e 4a 3b 8d 73 cb 3b 69 a4 8c ba
       -0.0020548785 0.0030831436 0.006208843 -0.001073015
000130 7f 07 c2 3b 68 58 90 3b c4 09 ce bb 5b 4b 4f bb
       0.0059213038 0.00440507 -0.0062877852 -0.0031630609
000140 27 ea f8 bb e4 db 5d 3b 90 31 7c 35 ac 29 bf bb
       -0.0075962725 0.003385299 9.394944e-07 -0.005833825
000150 39 04 e8 b9 c7 dd ad bb c6 15 0f bc b2 74 5f 3b
       -0.00044253634 -0.005305979 -0.008733219 0.0034096655
000160 48 8a 14 3c c1 a2 39 bb 24 19 39 3c db 18 88 3b
       0.009066172 -0.0028325769 0.011297498 0.0041533536
000170 ce 0c 1e 3a 87 86 1d ba 29 58 c6 3a 1d c2 6f bb
       0.000602913 -0.0006009121 0.0015132475 -0.0036584206
000180 d3 d2 fc 3b 36 3e 57 bb b7 72 da ba e1 58 76 3a
       0.007715562 -0.0032843477 -0.0016666268 0.0009397399
000190 48 2b a1 3a 3d 22 f6 3b ef 36 21 bc 27 a8 e4 3a
       0.0012296224 0.0075114057 -0.009839757 0.0017445133
0001a0 25 6d 3c bb 81 d3 0a 3b bc f4 91 bb 62 dc 70 3b
       -0.0028751579 0.0021183195 -0.0044542234 0.0036752452
0001b0 2c 3a 07 3a 0f 72 8e 3c 8c 3e 87 3b ec b2 ec 3b
       0.00051585096 0.017388372 0.004127329 0.0072234776
0001c0 33 4b cd ba 1d 81 44 3b 6a 7b 22 bb 5a e1 a0 3b
       -0.001566267 0.0029984184 -0.0024792799 0.0049096765
0001d0 ae e4 2f 3b cd a5 12 3b 49 f3 6c bb 5c 88 08 bc
       0.0026839185 0.0022376657 -0.0036155751 -0.008333292
0001e0 fc 2c 93 3a 87 6a 3e 3c a2 8e e1 3a 71 99 78 3c
       0.0011228616 0.011622078 0.0017208646 0.015173302
0001f0 96 a2 92 3c 5a 10 86 ba fd c8 99 3b cf 99 2f 3b
       0.017899793 -0.0010228262 0.004693149 0.0026794558
000200 f8 ba f5 b8 a1 72 48 bb d6 26 e5 b9 89 80 a7 ba
       -0.00011717336 -0.0030585902 -0.0004370722 -0.0012779395
000210 65 98 03 3b c2 a2 16 3a e6 a3 2d ba 67 0d 9a 3b
       0.0020079848 0.00057462987 -0.0006623849 0.0047013047
000220 4b f4 13 ba 07 dd 02 3b 3a 53 be b9 60 79 8f ba
       -0.00056440075 0.0019968168 -0.00036301633 -0.0010946207
000230 1e a4 f1 3b fc 3a b2 ba 2d 63 25 ba b5 1c 25 bb
       0.0073743006 -0.0013597901 -0.0006309029 -0.0025194113
000240 59 df a3 ba d0 27 96 bb 45 26 74 3a a7 85 26 bb
       -0.0012502476 -0.0045823827 0.0009313564 -0.0025409253
000250 a3 55 84 3b 1e 1d e2 3a a1 9c da b9 52 b9 56 3a
       0.004038529 0.0017251109 -0.00041696898 0.0008191067
000260 df 5b 79 bc df f3 98 3b 77 e2 d2 ba be bd 18 bb
       -0.015219658 0.0046677436 -0.001608922 -0.0023306455
000270 62 90 20 ba fc a5 73 3a b4 22 56 b9 7f f5 05 3b
       -0.00061250303 0.0009294448 -0.00020421558 0.0020440517
000280 01 0e b9 3b ab 03 8e 3a 99 9c 45 bb 47 ed dc ba
       0.0056474213 0.0010834833 -0.0030153154 -0.0016855382
000290 06 86 87 ba 5f 29 32 bb ae 41 21 3b f2 ac a9 3a
       -0.0010339625 -0.0027185304 0.0024605799 0.0012945218
0002a0 39 c4 1d bc 13 f4 b7 ba 08 91 61 3b 3c 44 10 bc
       -0.009629303 -0.0014034532 0.003441872 -0.008805331
0002b0 05 42 96 bb ec 0e aa ba ce e4 51 3b fd 1b c1 b9
       -0.004585507 -0.0012974418 0.0032027247 -0.00036832682
0002c0 01 9b 23 3c 03 94 1f 3b a7 b9 15 3b 33 8d 36 ba
       0.009985686 0.0024349696 0.0022846253 -0.00069637893
0002d0 5d 83 a0 bb 1d 1c 5e 39 1b b4 b1 ba 13 6e f7 3b
       -0.004898472 0.00021182043 -0.0013557704 0.0075509637
0002e0 a4 6c c1 ba 28 79 18 3c 55 8b 5d 3b f4 de 03 3a
       -0.0014757109 0.00930623 0.0033804972 0.0005030476
0002f0 63 cb 65 3a 3f 41 0e bc 6d bf a9 bb 76 7a 36 bb
       0.0008765964 -0.008682548 -0.0051802904 -0.0027843989
000300 ca 2d 16 bb 10 2d 06 3a 50 eb 51 3c ec 43 4b 3b
       -0.0022915476 0.0005118409 0.0128124505 0.0031015826
000310 83 19 92 39 96 81 da bb 17 43 87 3b e1 a7 2a bb
       0.00027866298 -0.00666828 0.004127871 -0.0026040005
000320 6a 64 3e 3a 63 b9 ed 3a e6 05 40 3a 7e 5a a5 ba
       0.00072628877 0.0018136915 0.00073250977 -0.001261547
000330 97 05 e0 bb e8 6d 11 39 e1 71 cb bb f4 a8 4b 3a
       -0.006836604 0.00013869221 -0.006208644 0.00077690114
000340 56 11 be 3a f3 b3 89 3b fe e9 17 34 0d 30 5c bc
       0.0014501016 0.00420236 1.4148097e-07 -0.013439191
000350 b9 59 bf bb c6 cf c5 3b 26 e3 1d bb af 00 74 3a
       -0.005839553 0.0060367314 -0.002409169 0.0009307963
000360 5d 7e 8e 3b 4a ab 0d bc 92 65 42 3b 4c 5d aa 3a
       0.00434856 -0.0086467955 0.0029662591 0.0012997775
000370 ee bc 19 39 72 bf e4 ba bf 80 bc 3a 8d a8 80 3b
       0.00014661599 -0.0017452075 0.0014381631 0.003926343
000380 49 26 d6 3b ab de 8c bb 54 e8 01 bb d7 fa 1b 3a
       0.0065353257 -0.004299005 -0.0019822316 0.0005950159
000390 11 0f 07 3b 08 5d 46 bb 05 26 e7 3b a6 d5 6e 3b
       0.0020608346 -0.0030267853 0.007054093 0.0036443262
0003a0 92 a8 b9 3a 3d 39 97 3b f7 03 a7 3b 6c 4f 9a 3b
       0.0014164618 0.0046149776 0.005096908 0.004709175
0003b0 c9 95 86 3a 94 79 ec bb 99 ba 20 bc 13 d8 2f bb
       0.0010268028 -0.0072166417 -0.009810113 -0.002683167
0003c0 27 5e 0a b8 a8 b0 1f 38 64 11 c9 ba 8d f5 46 bb
       -3.298945e-05 3.8073078e-05 -0.0015340266 -0.0030358762
0003d0 0c f8 46 ba ad 14 96 bb 97 96 29 ba 94 dc 52 3b
       -0.00075900625 -0.0045801015 -0.0006469278 0.0032174932
0003e0 0d d3 1e 3b 54 3a 53 bb 17 bc dc b9 f6 40 e4 ba
       0.0024234683 -0.0032230811 -0.00042101808 -0.0017414379
0003f0 79 55 3c bb 78 8e d9 3a f1 94 f8 3b 66 3b 5a ba
       -0.002873747 0.0016598245 0.0075861146 -0.0008324891

fc_mu.bias f4 [16]
000000 57 e0 eb bc d5 9e 4c 3c 75 35 13 bd e0 9d d3 bb
       -0.028793497 0.01248904 -0.035939652 -0.006458029
000010 06 b1 9a 3c 95 c1 0f bc b5 60 ff 3b 08 e3 6c bc
       0.01888324 -0.008774181 0.007793511 -0.014458425
000020 3f c5 ad 3c 39 a6 31 3c 79 37 68 3c 21 4e 8c bc
       0.021212218 0.010842853 0.014173382 -0.017127099
000030 8f a2 9a 3c d6 6b ef bc f8 ec be 3c 4c f1 63 3c
       0.018876342 -0.029226225 0.023306355 0.01391251

fc_logvar.weight f4 [16, 128]
000000 36 d0 c0 39 0b 6b 3e 3a ca dc 92 b9 1e bd 81 b9
       0.00036776223 0.00072638755 -0.0002801179 -0.000247457
000010 06 a2 07 3a 72 e6 1e 3a 56 37 00 3a dc bd 46 b9
       0.00051739847 0.00060615607 0.0004891058 -0.0001895348
000020 f2 75 8f b8 9f 44 bf 39 eb aa dc 37 8c 4f a0 b8
       -6.8407404e-05 0.00036481486 2.6305634e-05 -7.644211e-05
000030 b6 a5 d2 39 d0 84 38 b9 6f ed dd b8 10 6c fc b8
       0.00040177786 -0.00017597084 -0.00010582327 -0.000120364246
000040 d6 1b f6 b9 1e d9 85 3a 98 de 57 38 9e 1a 51 b7
       -0.00046941516 0.0010211801 5.14673e-05 -1.2463568e-05
000050 4b ed b6 39 4c ff 87 39 63 0d ae 39 7a 64 ca b8
       0.00034890542 0.00025939418 0.0003319784 -9.650826e-05
000060 80 b2 37 39 36 42 ab 39 c2 01 ba 39 67 ad 24 38
       0.00017518736 0.00032664993 0.00035477994 3.926214e-05
000070 20 f9 dc b9 07 24 1b ba 60 ce 2f 35 03 d4 b1 b9
       -0.00042147283 -0.0005918149 6.5492895e-07 -0.00033918032
000080 fc fd d8 37 fd ee de 39 e6 17 38 39 1c e1 65 ba
       2.5867477e-05 0.000425212 0.0001755651 -0.00087692006
000090 18 b3 78 b8 89 99 bd 39 26 65 a3 b8 fc 60 ff b8
       -5.92946e-05 0.00036163282 -7.791286e-05 -0.00012177412
0000a0 03 06 4a ba 14 13 00 39 64 72 99 b7 7a 10 0a 37
       -0.00077065843 0.00012214138 -1.8292289e-05 8.229277e-06
0000b0 9a ff d4 b8 b5 d7 8b 39 d2 9d 36 39 5e 04 a0 b9
       -0.00010156557 0.0002667286 0.00017415665 -0.00030520832
0000c0 4f 96 c9 39 b8 72 c2 38 dc 34 f7 b9 84 95 64 3a
       0.00038449696 9.272009e-05 -0.00047150895 0.00087197893
0000d0 90 dc 56 b9 bc 55 9b 39 12 12 1d 3a 5c 69 bc b9
       -0.00020490796 0.0002962778 0.00059917674 -0.00035936653
0000e0 f4 bb 9e 3a 93 18 69 3a c4 ff 7d b9 e0 39 13 b9
       0.0012110458 0.00088919065 -0.0002422324 -0.00014040573
0000f0 9c da 9f b9 ac 33 f4 39 60 43 30 ba ce fb f7 b8
       -0.0003048972 0.00046577805 -0.0006723907 -0.0001182478
000100 a7 46 ec b8 fa e5 1e 3a 00 c3 a5 b6 37 49 0f 39
       -0.00011266517 0.0006061491 -4.940084e-06 0.00013664817
000110 44 9f 75 b9 f1 d2 62 b9 17 8d 8c 39 3e 79 02 ba
       -0.00023424352 -0.00021631621 0.00026808 -0.0004977173
000120 50 cd ff b9 9c 6f b7 39 79 fb 1a ba 88 e5 49 3a
       -0.0004879036 0.00034987635 -0.0005912106 0.00077017443
000130 00 33 f1 b9 9c cc 9e b9 c8 bd 6e 39 34 03 ca b9
       -0.000460051 -0.00030288554 0.00022768148 -0.0003853083
000140 b1 00 9e 38 70 15 f8 36 b9 89 ba b5 f2 e8 b2 b9
       7.534156e-05 7.3934716e-06 -1.3898162e-06 -0.00034124363
000150 86 81 d8 39 04 00 d9 38 8e 15 da b8 81 bc 05 ba
       0.00041295233 0.00010347369 -0.00010399065 -0.00051016366
000160 67 3b 9c 39 ca 43 e3 b9 0c 9c 89 b9 de 25 e3 39
       0.00029798897 -0.0004334732 -0.0002624694 0.00043325027
000170 fd ca 87 b9 30 61 97 ba 54 e6 10 3a 98 d2 2d 38
       -0.00025900445 -0.001154935 0.00055274856 4.1442545e-05
000180 f8 84 9c b8 ea 96 50 39 9c ed d2 38 51 58 1a b8
       -7.463427e-05 0.00019892646 0.000100578385 -3.6798712e-05
000190 23 c9 0b 38 fb 50 fd 38 06 16 20 ba 1c 04 16 b9
       3.3327506e-05 0.00012079064 -0.00061067974 -0.00014306646
0001a0 05 ff 9a 38 6c 0e dd b9 a4 0c dd 39 7c 56 7e 37
       7.390793e-05 -0.0004216315 0.00042161823 1.5159716e-05
0001b0 72 4c 82 39 81 09 8a 3a 4b 59 98 3a 2a f9 48 b9
       0.00024852488 0.0010531397 0.0011623291 -0.00019166307
0001c0 4a 4e cf 39 c2 87 da b9 86 5e 1a 39 7a c5 4f b9
       0.00039540447 -0.00041681348 0.00014721797 -0.00019814624
0001d0 5f 79 f3 b9 1d c3 0e 3a 9f 81 4e 38 dc 37 ba 39
       -0.00046439 0.0005445944 4.9234946e-05 0.00035518303
0001e0 15 de 24 3a 20 ed 14 3a 3c 8d 08 3a 90 a4 16 39
       0.00062891963 0.00056810863 0.0005209034 0.00014366419
0001f0 e4 f3 4d b9 b4 fe 96 37 f4 65 b8 39 47 2a 00 3a
       -0.0001964118 1.7999999e-05 0.00035171176 0.00048891123
000200 44 0b b3 b9 06 24 9a b8 ab cb 66 39 42 c1 04 37
       -0.00034149934 -7.350002e-05 0.00022010382 7.912809e-06
000210 c2 98 a7 b9 b8 44 e4 39 78 1a 06 39 ee 46 8b b9
       -0.00031966536 0.00043538748 0.00012789096 -0.00026564993
000220 ef ab 86 39 19 51 8f b9 de c8 1e 38 af 47 dd 39
       0.00025686572 -0.00027335508 3.7857208e-05 0.00042205813
000230 e2 84 9b b9 e5 80 2a 3a 4b 7f 88 b9 1e 9e fb b8
       -0.0002966291 0.0006504192 -0.00026034782 -0.00011998064
000240 1a a2 0d b8 e6 b3 0b 39 7a de 2c 3a b3 c7 1f 39
       -3.376799e-05 0.0001332309 0.0006594431 0.00015237815
000250 7c 48 89 b9 9e b3 2f 38 3e 7f 6c 39 4e ba ab b9
       -0.0002618468 4.1890533e-05 0.00022554115 -0.0003275447
000260 6c 80 f5 39 52 d7 04 b9 5c 67 95 39 06 51 94 39
       0.00046825723 -0.00012668714 0.00028496503 0.00028289127
000270 a0 ca 52 b8 67 b4 1a ba 7d 37 6a 38 56 ae 3a b9
       -5.025661e-05 -0.0005901516 5.5841625e-05 -0.00017803287
000280 e5 fe 51 39 39 38 6c 39 fa f1 ad 39 56 c3 8a ba
       0.00020026749 0.00022527658 0.00033177418 -0.0010586779
000290 e4 78 ab 39 04 7f f9 b7 fc f1 90 37 36 1c bf 38
       0.00032705732 -2.974226e-05 1.727882e-05 9.1128444e-05
0002a0 f4 9b 11 ba fb 70 44 b9 16 db f3 b9 7a 5e c6 39
       -0.000555455 -0.00018734105 -0.00046511804 0.00037835893
0002b0 59 e8 9d b9 3a 77 8a 38 a8 64 24 b9 a3 5c b4 b8
       -0.00030118486 6.6025605e-05 -0.00015677756 -8.600324e-05
0002c0 e2 dc 19 b8 6b 51 1b b8 d7 1f 8b 39 07 25 27 3a
       -3.6683756e-05 -3.7030706e-05 0.00026535869 0.0006376062
0002d0 92 92 1c b8 67 96 76 39 ca 49 08 39 17 23 f1 b9
       -3.7329803e-05 0.00023516417 0.00012997459 -0.00045993246
0002e0 23 ed dd 39 cb eb b7 39 dd a5 e6 b9 09 58 2c ba
       0.00042329085 0.0003508016 -0.00043992596 -0.00065743976
0002f0 9f 8b a3 b9 3e 11 cd 39 65 6f e1 38 4a 8c 43 b9
       -0.00031193809 0.00039113493 0.00010749585 -0.00018648911
000300 76 d3 a4 b9 42 c3 a9 38 d1 f2 99 b9 fa b5 40 38
       -0.00031438068 8.0949176e-05 -0.00029363346 4.5945846e-05
000310 b9 83 4f ba ff 24 28 ba e0 61 b7 b9 ff 96 f1 b9
       -0.00079160515 -0.0006414204 -0.00034977403 -0.00046079603
000320 e6 8d ed 38 2f fa 16 3a e0 f0 11 ba ff c3 83 39
       0.00011327471 0.0005759326 -0.0005567204 0.00025132296
000330 8d a7 90 b9 7f 50 0c ba 5a 84 e4 b9 e9 9d 1d ba
       -0.00027590655 -0.0005352571 -0.00043586158 -0.0006012605
000340 49 52 d7 b8 f0 48 1a ba 4c 66 02 b6 cd 52 94 b9
       -0.00010267326 -0.00058855023 -1.9431054e-06 -0.0002829045
000350 16 b7 0b 39 70 8f 45 b8 91 8b 0c 39 15 80 be b9
       0.00013324278 -4.7102047e-05 0.00013403433 -0.00036335053
000360 90 b7 ac b9 3b 76 d5 b8 fd de 1a ba bb 44 98 39
       -0.0003294316 -0.000101786536 -0.00059078616 0.00029042907
000370 ae 98 81 ba ee f0 16 ba f2 75 a8 b9 12 87 78 b9
       -0.0009887421 -0.0005757947 -0.00032131333 -0.0002370144
000380 ac de 5a 39 9b 3c a7 39 a8 74 e3 37 dc e9 7c 39
       0.00020873052 0.00031897877 2.7114831e-05 0.00024119712
000390 24 e3 9e b7 a0 ec af 39 45 b7 3c b9 4c f6 07 37
       -1.8940838e-05 0.000335549 -0.0001799735 8.1039725e-06
0003a0 5e 03 a9 b8 de dd 97 b9 e6 ae af 3a c2 23 33 38
       -8.059175e-05 -0.00028966268 0.0013403564 4.2710228e-05
0003b0 86 9a d2 b9 4d 0e a3 38 12 e2 90 b8 3c 08 21 ba
       -0.0004016945 7.7751094e-05 -6.908564e-05 -0.00061428896
0003c0 38 89 50 3a ec 4a 4a b8 02 eb b5 b8 6c c3 9b b7
       0.00079550175 -4.823033e-05 -8.674526e-05 -1.856844e-05
0003d0 89 1c 49 ba ef 1f d8 b6 55 d2 27 39 44 5e 33 ba
       -0.00076717936 -6.441019e-06 0.00016004716 -0.0006842355
0003e0 8e 94 52 b9 cc dc 9e 39 ad 47 ba b9 03 ca 24 ba
       -0.00020082502 0.00030300615 -0.00035530087 -0.00062862056
0003f0 be 41 01 ba ff 75 4d ba bc 73 07 b9 f7 f0 8a 39
       -0.0004930756 -0.0007837712 -0.00012917718 0.00026500944

fc_logvar.bias f4 [16]
000000 3b f0 6d bb 22 99 93 3a a2 dc 22 be ff 88 00 3b
       -0.0036306519 0.0011260847 -0.15904477 0.0019612906
000010 2b e4 ad bb 78 c4 f1 38 05 c2 21 3a 20 16 29 3b
       -0.0053067408 0.00011528371 0.0006170574 0.002580054
000020 c1 fd f2 ba c7 4e 10 bb 76 f2 34 3a 2c be 69 3a
       -0.0018538759 -0.0022019611 0.00069025846 0.00089165824
000030 1a 42 07 3a 16 3d 0a bb b2 d5 41 bb 28 b5 12 b9
       0.0005159691 -0.002109354 -0.0029576835 -0.00013991131

decoder.0.weight f4 [128, 61]
000000 37 d8 1b bc dd 2e 81 3b eb 59 e5 bd ad d7 78 bb
       -0.009511999 0.003942354 -0.11198791 -0.003797035
000010 97 a6 49 bb d4 46 77 bc 0b 45 15 bc 69 74 f0 3b
       -0.0030769461 -0.01509257 -0.009110699 0.007338096
000020 f4 ae c5 3b ea ce b8 3c cb 53 0b 3c 18 04 84 3a
       0.006032819 0.022559602 0.0085038645 0.0010072021
000030 41 ab 1c 3c 04 96 28 bc b7 c5 ba bb e0 2e ce bb
       0.0095623145 -0.010289673 -0.005699839 -0.006292209
000040 1d 4f 0d bd 36 65 ab 3b d9 1b 69 be 2d 74 ce 3c
       -0.034499276 0.005230571 -0.2276453 0.025201881
000050 41 5c e2 bb bd fc 02 bd 38 6c e9 bc 2c c3 9e bc
       -0.00690797 -0.03197931 -0.028493986 -0.019380175
000060 fb 36 bf bb 0e 2a c9 3c cf 85 3d bd e8 c6 3c bd
       -0.0058354116 0.024556186 -0.046270188 -0.04608813
000070 f4 cf 65 3d fe e0 53 bd 21 c8 a8 bc 6d b2 f2 b9
       0.056106523 -0.05172824 -0.020603241 -0.00046290774
000080 a1 08 4f bd ed 53 79 ba f9 1d fe 3c 33 d7 17 3d
       -0.05054534 -0.0009511102 0.031020151 0.037070464
000090 47 80 a7 3d cc 7d f2 3c 76 de 95 bd a9 ee 2f bd
       0.08178764 0.029601 -0.07317822 -0.042952213
0000a0 9f ca 31 bd 05 cd f7 bc c2 45 9e bd 7d 51 c0 3d
       -0.043406125 -0.030249128 -0.07728149 0.09390543
0000b0 5a 6d 05 3c 23 df 7f bb dd 99 a2 bb cd ca cd 3c
       0.008143747 -0.0039042912 -0.0049621896 0.025121117
0000c0 32 40 53 bd ef 15 49 3c 4e 6d 05 3c ab c1 89 01
       -0.051574893 0.012273296 0.008143736 5.060375e-38
0000d0 bb aa a2 bb ff a8 10 bb b3 90 cc 3b 4f ed 64 3c
       -0.0049642003 -0.0022073386 0.0062428354 0.013972594
0000e0 6a d9 84 bc 61 ba c5 bd 94 59 a5 bb 58 6d 05 3c
       -0.016216952 -0.096546896 -0.005046079 0.008143745
0000f0 48 fd 08 bc 6c d7 ff b9 3a 88 92 bb d7 5d ab bd
       -0.008361168 -0.00048797892 -0.004471806 -0.08367508
000100 f9 b6 f9 3a 87 81 3e bb fa 4e 08 3b 62 73 f1 3a
       0.0019051722 -0.0029068904 0.0020799027 0.0018421228
000110 84 20 27 bb ea ef 91 3a a1 f1 0c 3a 6c 9f 95 b9
       -0.0025501559 0.0011134122 0.00053765817 -0.00028538273
000120 23 70 59 3a 55 1c 12 bb 99 d0 ca 3a e0 e8 43 ba
       0.0008294603 -0.002229472 0.0015473544 -0.0007473361
000130 e2 94 82 3a 59 17 13 bc 11 25 01 bc af b8 c4 be
       0.0009962583 -0.0089777345 -0.0078823725 -0.38422152
000140 85 35 d9 bc 53 c2 9b bd a7 9e 61 3d 80 5d 4f 3d
       -0.026514778 -0.07605424 0.055082943 0.050626278
000150 1a 1c af bd 0d e3 a1 bc 97 31 3a bd f1 37 c8 bd
       -0.08550282 -0.019761587 -0.04545745 -0.09776295
000160 88 3e 83 bb f0 ca d2 bd 85 af 54 bd 91 e9 fc 3b
       -0.004005257 -0.102926135 -0.0519252 0.007718273
000170 62 48 e1 3c a3 dd 71 3d 4d c3 55 3d ef d5 07 3d
       0.027500335 0.05904926 0.052188206 0.033163007
000180 76 fc d8 3a 10 1a 58 3d 31 cf 15 3d d0 0e 77 bc
       0.0016554731 0.05275923 0.036574546 -0.015079215
000190 f6 ef 9e 3d 84 77 c4 3d 69 7b c1 bc 2a 4f 49 3d
       0.07760613 0.09593108 -0.023618417 0.049147762
0001a0 ca d2 22 3e 5c 92 6f bc 18 1f de bc 93 02 4f 3d
       0.15900722 -0.014622297 -0.027114436 0.050539564
0001b0 c8 8d 91 bd 72 df 82 bd 72 45 59 3b 7e fc 00 bc
       -0.07107121 -0.06390275 0.0033152965 -0.007872699
0001c0 80 19 89 80 a9 43 18 3d e4 b2 9d bc 28 91 99 3d
       -1.259061e-38 0.0371739 -0.01925034 0.074983895
0001d0 3d f0 8c 3d be 34 f6 3d 23 50 78 3d 65 42 f3 3c
       0.06881759 0.120217785 0.0606233 0.029694745
0001e0 2d 1d 9e 3c 06 82 fd 3c 93 48 13 bb c8 f9 7b bb
       0.019301021 0.03094579 -0.0022473678 -0.0038448442
0001f0 3b c1 9b 3e 06 dd 81 3a d1 65 bb bb 47 61 90 bb
       0.3042086 0.0009907789 -0.0057189246 -0.0044061276
000200 1f 39 90 3b 9b cb 8a 3b 4e 18 20 bb ae 5c a1 bb
       0.0044013406 0.0042356974 -0.002442855 -0.0049243784
000210 2e e3 d7 3b ca 77 08 bc 3d f7 53 3b 36 2c 6b 3c
       0.006588361 -0.008329341 0.003234341 0.014353802
000220 76 2d e2 3b c9 b1 a5 bb 2c 1d 91 ba 7a 89 af bc
       0.006902392 -0.005056594 -0.0011071316 -0.021427859
000230 da 3b 16 3e eb 19 b2 3c bf 2f 5e bc eb 10 83 3d
       0.14671269 0.021740874 -0.013561188 0.06399711
000240 cb 8a c0 3c 41 8f 15 3d 71 93 3d bd 8f 45 19 3d
       0.023503682 0.03651357 -0.04628319 0.037419852
000250 b3 b8 4e bd 9b ae 9a 3d 5a b7 8d bc d8 33 9d bc
       -0.05046911 0.075528346 -0.017299343 -0.01918976
000260 70 0e f6 3c f6 ae a0 ba fb 02 0d 3d 21 14 01 3c
       0.030036181 -0.0012259174 0.03442667 0.007878334
000270 d4 23 40 3d 6e 71 f5 3a 22 e9 f5 3d 76 3e 8f bc
       0.04690917 0.0018725821 0.12007357 -0.017485838
000280 36 ac a2 bd a5 74 53 3d 15 56 9d 3c a9 ab b5 3d
       -0.07943003 0.051624913 0.019206086 0.08870632
000290 2f 6d 9b 3a eb cb 26 bd 2f 46 6b bd 56 4d a4 bb
       0.0011858101 -0.040721815 -0.05743998 -0.005014102
0002a0 81 f3 7b 3c d1 6e 1a bb 54 22 94 3d 74 4c e5 bb
       0.01537788 -0.0023564587 0.0723311 -0.0069976393
0002b0 1c 28 9d bd 91 d2 d3 bb c6 7c 81 3b 31 ea 18 3d
       -0.07673666 -0.0064643105 0.0039516417 0.037332717
0002c0 28 c4 35 3d a2 24 12 3d b5 23 9a bb ec 65 c9 3d
       0.044376522 0.035679467 -0.0047039636 0.09833893
0002d0 13 5d a2 3d 85 48 71 3d d1 aa 7a bd 12 15 a9 bb
       0.07927909 0.05890705 -0.06119806 -0.0051599825
0002e0 9a d7 e9 3a eb cc 9b 3e 01 4d f6 b9 40 c3 b7 ba
       0.0017840744 0.30429778 -0.0004697815 -0.0014019981
0002f0 10 e7 0d 3b 2a 63 48 bb ea fe 43 3b 2c 48 c6 39
       0.0021652617 -0.0030576685 0.002990658 0.00037819275
000300 52 31 e2 3a ea f5 68 3b ed 69 1c 3b 32 6d 96 3a
       0.001725713 0.0035546967 0.0023866848 0.0011476635
000310 68 30 bc 3b d7 14 79 b9 e1 c6 73 bb 77 1a 40 bc
       0.005743075 -0.00023754254 -0.0037197398 -0.01172506
000320 fc 78 c1 3c a5 17 89 3c e2 bf c6 bc 18 4d 4a 3d
       0.02361726 0.016734907 -0.024261419 0.04938993
000330 bb a2 d3 bc fd 89 84 3d 63 f3 82 bc e4 0e 72 bd
       -0.025834432 0.06471632 -0.015985196 -0.059096232
000340 e8 58 c6 3d ac f5 40 bd a7 73 a8 3d 9d df 90 bd
       0.09684926 -0.04710929 0.08225184 -0.07073901
000350 86 3b a5 bc 57 ee 85 bb b2 33 45 bc 16 b6 be bc
       -0.020169985 -0.00408725 -0.012036251 -0.023280185
000360 f0 8e 12 bd 74 9f d1 3c fc 06 04 3c a9 b5 09 bd
       -0.035780847 0.025588728 0.008058306 -0.03362051
000370 5a 4b 02 3d 1f 76 60 3d e9 04 ca bc 59 49 5a bd
       0.031810142 0.05480015 -0.024660544 -0.053292606
000380 be 0a ab 3d 79 c0 0c be 19 f6 9f bc 68 c8 9e bd
       0.08351658 -0.13745297 -0.019526528 -0.07753068
000390 af 41 5d ba fb 47 bb 3c 27 72 95 bd 3a ec 10 bd
       -0.00084402686 0.022861471 -0.072971635 -0.035381533
0003a0 4f c7 93 bd 15 1b 6c bd 05 4e 9d b9 b7 a4 57 3b
       -0.072157495 -0.057643015 -0.00030003503 0.0032904574
0003b0 8a ca d0 bb 41 1b bd 3b c9 a8 ff 3b b9 87 3c bd
       -0.006371801 0.005771071 0.007802103 -0.046027873
0003c0 15 cf c6 bc 7c 27 e4 bc d8 11 c5 3d e4 71 9d bc
       -0.024268666 -0.027850859 0.09622544 -0.019219346
0003d0 91 85 11 bb 93 63 98 bc d9 1a 74 3d 54 0a 0d bc
       -0.0022204856 -0.018602168 0.059595916 -0.008608419
0003e0 dd 18 f9 ba 44 8d e6 3b 79 fa 5a 3c dd ff 2a bb
       -0.0019004602 0.007035883 0.013365381 -0.0026092448
0003f0 65 9f 38 bb a4 82 7b 3a 50 e3 92 3b 97 86 50 bc
       -0.0028171178 0.0009594357 0.004482664 -0.012727401

decoder.0.bias f4 [128]
000000 58 75 5f bd 87 26 b3 bd c5 ca ad 3b 14 25 1e 3d
       -0.054555267 -0.08747583 0.005303713 0.03860958
000010 b5 90 95 bd 3a da d4 bb a5 a5 17 3d 04 a2 76 bc
       -0.07302991 -0.006495741 0.037023205 -0.015053276
000020 c5 ed 67 bd 15 63 92 3c 54 d4 b2 bd 88 ae a3 bd
       -0.05662324 0.017869512 -0.087319046 -0.079922736
000030 83 26 92 bd 93 a0 40 bd eb ab b8 3c 05 26 34 bd
       -0.07136252 -0.047028136 0.022542914 -0.04398157
000040 4d 99 89 3d fc 6c 0d 3e 08 5a 72 3c bb 41 a8 3b
       0.06718693 0.13811105 0.014791973 0.005134789
000050 15 fb 4a be 31 8e 9a bd 2b d7 ea bc 43 92 c9 3d
       -0.19822343 -0.07546652 -0.028667053 0.0984235
000060 89 c8 9f 3d ad 2e bf bd 97 93 e8 bb 8f 3e f7 3c
       0.07801921 -0.093350746 -0.007097672 0.030181197
000070 59 b7 47 3d 46 59 95 3d 4f 16 65 bc 29 04 73 bc
       0.04875884 0.07292418 -0.01398237 -0.014832535
000080 8b bd 21 be bc c0 cb 3d 24 61 d0 bc d6 40 3b 3e
       -0.15794961 0.099488705 -0.025436945 0.18286452
000090 f6 e2 53 3d 1f 9a b7 bd 8a f4 ac 3d bc 6e ab bd
       0.05173012 -0.08964943 0.084450796 -0.0837073
0000a0 ab 0f 98 3d 1d f8 11 be b1 1e a6 bc 9d f7 f6 bc
       0.074248634 -0.14254804 -0.020278307 -0.030147368
0000b0 09 e9 1b bd 97 b6 a4 3d 54 ab d2 bc cf 21 a6 3d
       -0.038064037 0.08042639 -0.025716461 0.08111917
0000c0 4e 85 7f bd 61 84 4c bd 44 b5 18 3e 02 3b f1 3b
       -0.06238299 -0.049930934 0.14912897 0.0073617706
0000d0 db 83 3e bd 72 da 75 3d b4 9d 88 3c 40 63 31 3e
       -0.046512466 0.06002278 0.016676761 0.17323017
0000e0 19 b7 ff 3c 08 43 fe bc 44 3a 39 3d e8 95 2f bd
       0.031215237 -0.031037822 0.045221582 -0.04286757
0000f0 7d 72 21 bd b7 a5 8c bd 9b ba 98 3d 14 33 26 bd
       -0.039415825 -0.06867545 0.07457467 -0.040576056
000100 d6 41 e5 3c 0e 6f 8a bc 28 41 99 3d 01 5f e4 3d
       0.027985495 -0.016898658 0.07483131 0.11150933
000110 ba 74 13 bd 78 b9 1e 3e ef 30 73 3b 52 b5 82 bd
       -0.03599999 0.15500438 0.0037108024 -0.0638224
000120 4d 83 7c bc 1b af f3 3d 4a 91 e4 3d 9e c2 e5 3d
       -0.015412164 0.11898633 0.11160524 0.11218761
000130 d6 d7 36 3d bb 91 f9 bd 42 bc 92 bd eb 8f 6d 3d
       0.04463943 -0.12185999 -0.071648136 0.05799858
000140 6b 26 11 3d 31 f8 7e bd dc 86 47 3c da 19 ee 3d
       0.03543703 -0.062248413 0.012178149 0.116260245
000150 0e 8c a1 3d ed 27 cd 3d 06 9a e2 3d 5c d0 9f 3d
       0.078880414 0.10017381 0.11064534 0.07803413
000160 15 12 93 3d 08 f3 ee 3c 35 4c 12 3d d8 91 3b 3d
       0.07181183 0.02916862 0.035717208 0.045793384
000170 56 18 ff 3d a1 1c 47 3c 7d 20 e2 bd f7 cf e7 bc
       0.124558136 0.012152822 -0.11041353 -0.028297408
000180 e8 1f 7a bd a9 25 30 3d 0c 02 55 3d 26 c1 b2 3c
       -0.061065584 0.043004666 0.052003905 0.021820616
000190 c9 54 1a bd 2c dd 6e 3d 4a f8 57 3d 13 f3 e6 bd
       -0.037678514 0.058316395 0.05272702 -0.112768315
0001a0 1c 6e d7 3c aa 2a da bc fa a0 86 3d e4 2a a5 3c
       0.026297621 -0.026631672 0.065736726 0.020162053
0001b0 b2 aa 5c bb 60 e6 f3 bb 7a 9d 8a bd 59 50 1f bd
       -0.0033671078 -0.0074432343 -0.067683175 -0.038894985
0001c0 5c 7b 0f bd 22 fd 38 3d c8 20 6c 3d 28 ce 9c 3d
       -0.035029754 0.04516328 0.05764845 0.07656509
0001d0 54 d0 98 b9 61 62 82 3d 80 e8 95 bc 66 e8 24 be
       -0.00029146916 0.063664205 -0.018299341 -0.16104278
0001e0 80 d5 98 bd ba 77 0e 3d b2 9c 87 bd d0 25 b9 bd
       -0.07462597 0.03478215 -0.06621684 -0.09040415
0001f0 27 2b 9f bd f5 2f a6 bd 35 fd 89 3d d7 7b df bc
       -0.077719025 -0.08114616 0.067377485 -0.027280731
