models/cvae_L16_H256_B1.000_LR5e-04.pt (torch, 694173 bytes, 13 tensors)

encoder.0.weight f4 [256, 46]
0	0xbdb8ff16	-0.09033029
1	0xbd676538	-0.056493014
2	0x3c8a1abb	0.01685845
3	0xbead837f	-0.33889386
4	0x3b9d2583	0.0047957315
5	0x3cde96da	0.027171541
6	0x3d13b78b	0.036063712
7	0x3d65a845	0.056068677
8	0xbd81cfc7	-0.063384585
9	0x3d527bde	0.05138766
10	0x3c097e3f	0.008391916
11	0xbd2edeee	-0.04269307
12	0x3cddf078	0.027092203
13	0xbd519225	-0.051164765
14	0x3dab02b5	0.08350126
15	0xbc9900aa	-0.018677074
16	0x3beff799	0.007323217
17	0xbd15981d	-0.03652202
18	0xbd552bd5	-0.052043755
19	0xbd89ee51	-0.06734908
20	0x3d173429	0.03691498
21	0xbb897926	-0.00419535
22	0x3dcd9a1a	0.10039158
23	0xbd92baa1	-0.07164503
24	0x3d86d58f	0.06583702
25	0xbd6b92e4	-0.057513133
26	0x3dadb5c2	0.08481933
27	0xbd6314f3	-0.0554399
28	0xbcac649b	-0.021044066
29	0xbdaecda2	-0.08535315
30	0x3c0b9cd1	0.008521275
31	0xbbddd4a0	-0.0067697316
32	0x3d1ff441	0.039051298
33	0x3c998091	0.018738063
34	0xbdd9ed3a	-0.106409505
35	0xbd7b2ffb	-0.061325055
36	0x3c7a2894	0.015268464
37	0xbc826fa6	-0.015922379
38	0xbc8f6452	-0.017503891
39	0xbd51d277	-0.051226106
40	0xbce37d69	-0.027769761
41	0x3d1aec8a	0.037823237
42	0x3ce64e87	0.028113617
43	0x3d1a10e7	0.037613776
44	0x3d03aee6	0.032149218
45	0xbd904682	-0.07044698
46	0xbe1a9c11	-0.15098597
47	0xbd15aabe	-0.036539786
48	0xbddfcc72	-0.10927667
49	0x3e5d4b30	0.21610713
50	0xbd71951a	-0.058980085
51	0xbd066a60	-0.03281629
52	0x3dc52006	0.096252486
53	0xbc8ee9bc	-0.017445438
54	0xbd41507b	-0.047195893
55	0x3ddda0f9	0.10821719
56	0x3d558b90	0.05213505
57	0xbe13d508	-0.14436734
58	0x3dc0fdf4	0.09423438
59	0xbd98b960	-0.074572325
60	0xbd6d1a43	-0.057886373
61	0xbd095f38	-0.033538073
62	0x3c67c675	0.014146437
63	0xbd48b15a	-0.04899726
64	0x3d5a2c26	0.05326476
65	0xbccb8f07	-0.024848474
66	0x3a68d115	0.00088812533
67	0xbdee916c	-0.11648831
68	0x3da89690	0.082318425
69	0x3cd6c679	0.026217686
70	0x3d6ca62f	0.057775673
71	0x3cae97f7	0.021312697
72	0xbc803d48	-0.015654221
73	0xbdb28bac	-0.087180465
74	0xbd926b5a	-0.07149382
75	0xbda61bef	-0.08110797
76	0xbaeb33e2	-0.001794454
77	0xbd610f59	-0.054946277
78	0x3e1b6445	0.15174969
79	0xbd6b6a01	-0.05747414
80	0x3da4ff76	0.08056538
81	0x3d944982	0.07240583
82	0x3b00e56d	0.0019667998
83	0xbc9f9d13	-0.019484079
84	0xbd089722	-0.033347256
85	0xbca78731	-0.020450206
86	0x3dc095f4	0.09403601
87	0x3e20e8e3	0.15713839
88	0xbd02b435	-0.03191014
89	0xbddf56a5	-0.10905198
90	0x3d68aefb	0.0568075
91	0x3ca0d73c	0.019633882
92	0x3e4507ac	0.19241208
93	0x3db61a63	0.088917516
94	0xbc187f13	-0.009307641
95	0x3d990276	0.074711725
96	0xbd9331d9	-0.07187242
97	0x3d0549a7	0.032540943
98	0x3dd0d7ff	0.10197448
99	0x3ca47ae8	0.020078138
100	0x3d0a506b	0.0337681
101	0xbe041247	-0.12897597
102	0x3dc3ca3b	0.09560057
103	0x3d0abcaf	0.03387135
104	0xbdb77089	-0.08957011
105	0x3dab85f5	0.0837516
106	0xbe1b15b8	-0.15145004
107	0x3df1e66b	0.11811527
108	0x3b380acd	0.002808261
109	0xbd4a0547	-0.04932144
110	0xbdb02021	-0.08599878
111	0xbd24a50c	-0.040196463
112	0xbd9ade35	-0.07561914
113	0x3d115508	0.035481483
114	0x3c5219fb	0.012823577
115	0xbd88ef6e	-0.066862926
116	0xbd8a87e2	-0.06764199
117	0xbd1f49f5	-0.03888889
118	0xbe221698	-0.15828931
119	0xbdcf445d	-0.10120461
120	0x3dc83dcd	0.097774126
121	0xbc42024d	-0.011841369
122	0xbd16bd05	-0.036801357
123	0x3bd15baf	0.0063891034
124	0x3d8e1f81	0.06939603
125	0xbe02b191	-0.12763049
126	0xbdb6f675	-0.08933727
127	0x3d95a43e	0.07306717
128	0xbcc0bcbc	-0.023527496
129	0x3bb7fd9c	0.0056149494
130	0xbd99c632	-0.07508506
131	0xbd2e665b	-0.042578083
132	0xbdb2596e	-0.087084636
133	0x3b7ec143	0.0038872517
134	0x3d394fb7	0.045242038
135	0x3c57852c	0.013154309
136	0x3d6ee879	0.058327172
137	0xbc3a1413	-0.011357325
138	0x3e5fd63a	0.21859065
139	0xbd4c1d85	-0.04983284
140	0x3cc142e1	0.02359146
141	0x3dee9267	0.11649018
142	0xbc53a2ff	-0.012917279
143	0xbd83433a	-0.06409307
144	0xbbc5be31	-0.0060346355
145	0x3d69f388	0.057117015
146	0xbdd8ee8f	-0.105923764
147	0xbd4817f6	-0.048850976
148	0x3d3bc3fb	0.0458412
149	0x3d9bead5	0.0761315
150	0x3d0d80d9	0.034546707
151	0x3cc69c83	0.024244552
152	0xbbaeaabf	-0.005330413
153	0x3b8573d0	0.004072644
154	0xbd9962cf	-0.07489549
155	0x3dc41c13	0.09575667
156	0xbba45afe	-0.00501573
157	0x3dc4593a	0.09587331
158	0xbbb60198	-0.005554389
159	0xbe032b79	-0.12809552
160	0x3dd46db6	0.10372488
161	0x3dd9150b	0.10599717
162	0xbdf08316	-0.11743753
163	0x3dd84d8b	0.10561665
164	0xbe3fa8a0	-0.18716669
165	0xbda4aab4	-0.080403715
166	0xbda2e96d	-0.07954679
167	0x3d9654fa	0.07340427
168	0xbbd72922	-0.0065661827
169	0x3d3f0b45	0.046641607
170	0xbd73fd05	-0.05956747
171	0x3dc3d71f	0.095625155
172	0xbd90cd2a	-0.07070382
173	0xbd66234d	-0.05618601
174	0x3d791d70	0.06081909
175	0x3d3f0a13	0.046640467
176	0xbc8a5b1d	-0.01688915
177	0xbce6fcff	-0.02819681
178	0xbccb2ebc	-0.024802558
179	0x3df6a477	0.12043088
180	0x3dd043e9	0.10169203
181	0xbda3effd	-0.080047585
182	0x3d657258	0.05601725
183	0x3d9a3f81	0.07531644
184	0xbe452411	-0.1925204
185	0x3dce7823	0.10081508
186	0xbdc5222c	-0.096256584
187	0x3da665fb	0.0812492
188	0xbccdb839	-0.025112258
189	0x3df2c9b3	0.11854877
190	0x3da50dfa	0.080593064
191	0x3d865470	0.06559074
192	0xbd3c2f04	-0.045943275
193	0xba36ff7e	-0.00069808203
194	0xbc9a623c	-0.01884567
195	0x3c70c74f	0.014695956
196	0xbdb3e98d	-0.08784781
197	0xbcbd0986	-0.02307583
198	0xbae04fb3	-0.0017113596
199	0xbcf0537b	-0.029336682
200	0xbd553d4e	-0.052060418
201	0xbd7c73a1	-0.06163371
202	0xbddd2266	-0.107975766
203	0x3dceb7ce	0.10093652
204	0x3cce955b	0.025217703
205	0xbd137313	-0.035998415
206	0x3db90e89	0.090359755
207	0x3dd1a064	0.1023567
208	0xbd9f2131	-0.07770003
209	0x3b97a642	0.004627974
210	0x3e7447aa	0.23855463
211	0xbd421ca1	-0.047390584
212	0xbe03ab5e	-0.1285834
213	0xbcf9f20d	-0.030510927
214	0x3c55197e	0.013006566
215	0xbc8ba0b6	-0.017044406
216	0x3d96b980	0.073596
217	0x3df12e72	0.11776437
218	0xbc31570c	-0.010823976
219	0x3dbd8d63	0.09255483
220	0xbb6b56d1	-0.00359099
221	0xbd7fc96f	-0.06244796
222	0x3c5a7e15	0.013335724
223	0xbb9a3377	-0.004705842
224	0x3c89d6bc	0.016826026
225	0xbda0dc3a	-0.07854505
226	0xbc3e0a47	-0.01159913
227	0x3ca681fc	0.020325653
228	0x3d3ab80d	0.04558568
229	0xbdaa9989	-0.08330066
230	0x3e120ab3	0.14261894
231	0x3dbda0b8	0.0925917
232	0xbd0c32ae	-0.03422802
233	0xbd50f6c9	-0.051016603
234	0xbda0fb84	-0.07860473
235	0xbc89eb88	-0.016835943
236	0xbda478aa	-0.08030827
237	0xbcff7f01	-0.03118849
238	0x3d7bc14e	0.061463647
239	0xbd6af21f	-0.05735981
240	0x3e07df87	0.13268863
241	0xbd13e75f	-0.036109325
242	0xbd69b719	-0.05705938
243	0xbd9c5fee	-0.07635485
244	0x3d03af9c	0.032149896
245	0xbd2d0599	-0.042241666
246	0xbb480339	-0.00305195
247	0x3d87eddd	0.06637166
248	0x3d4f4088	0.05059865
249	0x3dce08a0	0.10060239
250	0x3c8b55c0	0.017008662
251	0x3dc86f3c	0.09786841
252	0xbe18b87c	-0.14914125
253	0x3da0df9f	0.07855152
254	0x3dcf0540	0.10108423
255	0xbd81989e	-0.063279375

encoder.0.bias f4 [256]
0	0xbe0b839e	-0.13624427
1	0x3e144ad2	0.14481667
2	0x3d21c3c3	0.039493334
3	0xbdce5976	-0.10075657
4	0xbde4b5c7	-0.11167484
5	0x3dfc4323	0.12317493
6	0xbdcd3c7f	-0.10021304
7	0xbcc4e978	-0.024037108
8	0xbd6fa1a1	-0.05850375
9	0x3dad1e4e	0.08453046
10	0xbd756c7a	-0.059917904
11	0xbdc8f74d	-0.09812794
12	0x3db96b66	0.09053688
13	0xbca617be	-0.020274993
14	0xbdc3cc68	-0.09560472
15	0x3ca32d95	0.019919196
16	0x3ddadf98	0.106871784
17	0xbc8fd5d8	-0.017558023
18	0xbd0d9128	-0.03456226
19	0x3da831f3	0.08212652
20	0xbc22fac6	-0.009947484
21	0x394981b5	0.00019217173
22	0x3e3322ae	0.17493698
23	0xbda6a584	-0.08137038
24	0x3dccd247	0.10001045
25	0x3d45790f	0.048211154
26	0x3d70112c	0.058610126
27	0x3de240f5	0.11047546
28	0x3d885706	0.066572234
29	0x3cbddc30	0.023176283
30	0x3d80aee3	0.06283357
31	0xbddfaa18	-0.10921115
32	0xbd86c146	-0.06579833
33	0xbdb60b2b	-0.08888849
34	0xbca39a9d	-0.019971186
35	0x3dc20e22	0.09475352
36	0xbe1a6ca9	-0.15080513
37	0xbd91a3c2	-0.071113124
38	0x3d948d15	0.07253472
39	0x3e1d9f96	0.15392908
40	0x3d5fe4aa	0.05466143
41	0x3db55429	0.08853943
42	0xbd19b974	-0.037530378
43	0xbcb5705b	-0.022148302
44	0x3db84a59	0.08998556
45	0xbca7d6ca	-0.020488162
46	0x3d0882a7	0.033327725
47	0xbdf1ac2e	-0.11800419
48	0xbdb9232d	-0.090399124
49	0x3c2db7e8	0.010602929
50	0x3e04863c	0.12941831
51	0xbd4eeb51	-0.050517384
52	0x3d8ba6c5	0.06818918
53	0x3d065436	0.032795154
54	0xbd1beeaf	-0.038069423
55	0xbd1b7bf6	-0.037960015
56	0xbdb56c5e	-0.0885856
57	0xbd5b1313	-0.053484987
58	0x396f6c01	0.00022833051
59	0x3d36abf8	0.044597596
60	0xbc899ffc	-0.01679992
61	0x3dd30c1c	0.10305044
62	0x3c0bffad	0.008544845
63	0x3de00d43	0.109400295
64	0x3db9891e	0.09059356
65	0xbe09f6df	-0.1347308
66	0xbd6333a1	-0.05546916
67	0x3e054f93	0.13018636
68	0xbd71bbc9	-0.059016977
69	0xbcb65e67	-0.022261811
70	0x3dd27756	0.10276668
71	0x3d85b349	0.065283366
72	0xbc06048d	-0.008179796
73	0xbbd73ea8	-0.0065687485
74	0xbddd5931	-0.108080275
75	0xbc33b54a	-0.010968516
76	0xbd1e4c70	-0.038647115
77	0x3e0452f4	0.12922269
78	0xbc1024e8	-0.008797862
79	0xbe2fcf1a	-0.17168847
80	0x3e343db1	0.17601658
81	0xbda88577	-0.082285814
82	0xbcc2d803	-0.023784643
83	0xbd058626	-0.032598637
84	0xbd991b7e	-0.07475947
85	0xbdaf568f	-0.085614316
86	0x3bd87913	0.00660623
87	0xbdae48f6	-0.0851001
88	0x3e2c7791	0.16842486
89	0x3e309685	0.17244919
90	0xbdf8bddd	-0.121455885
91	0x3dd21a99	0.10258979
92	0x3dd1754c	0.10227451
93	0x3d98b3fd	0.07456205
94	0x3d90b671	0.07066048
95	0x3d82bc4e	0.063835725
96	0x3d8847c2	0.06654312
97	0x3d55de7b	0.052214127
98	0xbd75837a	-0.05993984
99	0xbd0e0076	-0.03466841
100	0x3da4ba5e	0.08043359
101	0x3d9db49f	0.07700466
102	0xbda7fd4a	-0.08202608
103	0xbde4490a	-0.111467436
104	0x3dd512ce	0.10403977
105	0x3da4608d	0.08026228
106	0xbe01039b	-0.12599032
107	0x3e010ebe	0.1260328
108	0xbdf94700	-0.12171745
109	0xbdfc4e00	-0.12319565
110	0x3e3374a6	0.17524967
111	0xbdab1f59	-0.083555885
112	0x3da1b388	0.07895571
113	0x3d878444	0.066170245
114	0xbda29a75	-0.079396166
115	0xbd7bde6c	-0.061491415
116	0xbc502b67	-0.01270566
117	0xbd816ebe	-0.063199505
118	0xbc7d14a2	-0.015446814
119	0x3c825bd9	0.015912937
120	0xbd5922d3	-0.053011727
121	0x3d67cd2a	0.056592144
122	0xbd27f836	-0.041008197
123	0xbdac3a76	-0.08409588
124	0xbe0f269e	-0.13979575
125	0xbe152680	-0.14565468
126	0x3e3fd2f6	0.18732819
127	0x3d9d2305	0.07672695
128	0xbdd5adc5	-0.104335345
129	0xbd6b21c1	-0.057405237
130	0x3d9060af	0.07049691
131	0x3e03f3c4	0.12885958
132	0x3d15bb2e	0.03655546
133	0x3df7c598	0.12098235
134	0x3da64c3a	0.08120008
135	0x3d8ff6ed	0.07029519
136	0x3cfa30f2	0.030540917
137	0xbc97ea8b	-0.018544456
138	0xbda0b981	-0.07847882
139	0xbd5c8b66	-0.05384388
140	0x3da2d20e	0.07950221
141	0x3d32465e	0.04352414
142	0x3dfd2935	0.12361375
143	0x3d5ab266	0.05339279
144	0x3ca3ee62	0.02001113
145	0xbd8cd316	-0.06876199
146	0xbda6f523	-0.08152225
147	0x3db3a72a	0.087721184
148	0xbdb2e47a	-0.08734985
149	0xbd147e3b	-0.036253195
150	0x3e26d9cb	0.16294019
151	0x3d117762	0.035514243
152	0x3d8b9b97	0.06816786
153	0x3e0d27b7	0.13784681
154	0x3c904c28	0.01761444
155	0xbd695477	-0.056965318
156	0x3e07db07	0.13267146
157	0xbe2fe115	-0.17175706
158	0x3ca58685	0.020205745
159	0xbd222f63	-0.039595973
160	0x3ca527fb	0.020160666
161	0x3d767973	0.060174417
162	0x3dc83f62	0.09777714
163	0xbc1b1468	-0.009465314
164	0x3db1d292	0.08682741
165	0x3dbac01a	0.09118672
166	0xbdc0196b	-0.09379848
167	0xbddb3309	-0.107030936
168	0xbc67a474	-0.01413833
169	0x3d47370d	0.048636485
170	0xbd7da415	-0.06192406
171	0xbd22e18b	-0.039765876
172	0x3d210fea	0.039321817
173	0xbdeeabe2	-0.11653878
174	0xbcee288a	-0.029072065
175	0x3d995881	0.07487584
176	0x3d847b55	0.06468836
177	0xbc7898e6	-0.015173173
178	0xbd42ad16	-0.04752835
179	0xbdfda485	-0.12384895
180	0x3c468312	0.012116211
181	0xba7978ae	-0.0009516579
182	0xbd87d244	-0.06631902
183	0xbbb5145f	-0.00552611
184	0x3d4e8193	0.05041654
185	0x3da3cb1f	0.07997727
186	0xbd1fc411	-0.039005343
187	0xbdc2dd07	-0.09514814
188	0xbda77ce5	-0.081781186
189	0x3cc3bb05	0.023892889
190	0xbda5ea12	-0.08101286
191	0xbcbb2220	-0.02284342
192	0xbc06eb44	-0.008234803
193	0xbdb6cbfc	-0.08925626
194	0xbd70d4fb	-0.058796864
195	0xbde24b3e	-0.110495076
196	0xbd56f334	-0.05247803
197	0x3d9cbac1	0.07652808
198	0xbdde62e0	-0.10858703
199	0x3d9bb535	0.07602922
200	0x3db37058	0.08761662
201	0x3dbb3208	0.09140402
202	0x3d4969da	0.049173214
203	0x3d45494d	0.04816561
204	0x3c520fae	0.012821121
205	0xbbde3aaf	-0.006781898
206	0x3d484aca	0.04889945
207	0xbdd07bf5	-0.10179893
208	0xbda50957	-0.08058422
209	0xbde011db	-0.10940906
210	0x3df8fe78	0.12157911
211	0x3e13f989	0.14450659
212	0xbddb922a	-0.10721238
213	0x3d220623	0.039556634
214	0xbdc1d17e	-0.094637856
215	0xbcfc9b3c	-0.03083574
216	0x3d2445dd	0.04010569
217	0x3dcde255	0.10052935
218	0x3e0cb80c	0.13742083
219	0xbd8148ba	-0.063126996
220	0xbd8a09b8	-0.06740135
221	0xbe053cea	-0.13011518
222	0x3de1bcd3	0.110223435
223	0x3dfbda25	0.12297467
224	0x3c390aba	0.011294061
225	0x3e32936d	0.17439051
226	0x3e1a248b	0.15053003
227	0x3defe88b	0.11714276
228	0x3dce7a0a	0.10081871
229	0x3cd0d3f1	0.025491687
230	0x3cd2ddd8	0.025740549
231	0xbdc16d9f	-0.09444737
232	0x3df798f3	0.120897196
233	0x3e2d8710	0.16946054
234	0xbb9c893a	-0.004777101
235	0xbc7202ae	-0.014771147
236	0xbdd4e731	-0.10395659
237	0xbdd1ecbf	-0.10250234
238	0x3d85bf2c	0.06530604
239	0xbda1a8d5	-0.0789353
240	0x3c78308c	0.015148293
241	0x3d708766	0.058722876
242	0xbd2e3748	-0.04253319
243	0xbcc69d7a	-0.024245013
244	0x3d2a3810	0.04155737
245	0x3c1f91a3	0.009739312
246	0x3d9f8f23	0.07790973
247	0xbdb989d6	-0.09059493
248	0x3d318c9f	0.043346997
249	0xbd5a67e0	-0.05332172
250	0x3d613e0b	0.05499081
251	0xbd36130f	-0.04445177
252	0x3c14e2dc	0.009087291
253	0x3c218fa0	0.009860903
254	0x3daf7aaf	0.08568322
255	0x3e12e066	0.14343414

encoder.2.weight f4 [256, 256]
0	0x824e8b50	-1.517447e-37
1	0x8000f7f3	-8.8947e-41
2	0x824fa2bf	-1.5254664e-37
3	0x80b27f45	-1.6392374e-38
4	0x0279f8b0	1.8365001e-37
5	0x823cb710	-1.3864595e-37
6	0x82631983	-1.6684648e-37
7	0x8247d1f7	-1.4680468e-37
8	0x811c30c4	-2.8687662e-38
9	0x8247200a	-1.4629406e-37
10	0x8162e2f3	-4.1672472e-38
11	0x01e151e9	8.276948e-38
12	0x82382b12	-1.3530546e-37
13	0x009fb546	1.4666873e-38
14	0x00f9a5fc	2.2926583e-38
15	0x82595bec	-1.5969022e-37
16	0x8240fce9	-1.4178514e-37
17	0x80d12405	-1.920654e-38
18	0x825fa46a	-1.6430637e-37
19	0x022731e2	1.2283538e-37
20	0x02f4696c	3.5913087e-37
21	0x823c081c	-1.3814386e-37
22	0x82f9ad9e	-3.6686913e-37
23	0x81bf51f3	-7.027991e-38
24	0x823a1f50	-1.3674108e-37
25	0x82555fba	-1.5676241e-37
26	0x80b4d608	-1.6607169e-38
27	0x830b7fc3	-4.099509e-37
28	0x82553a0c	-1.5665427e-37
29	0x81d432e2	-7.7949514e-38
30	0x8231385c	-1.3020081e-37
31	0x024ea2d7	1.5181223e-37
32	0x826d1ab8	-1.7419678e-37
33	0x814f5430	-3.8080297e-38
34	0x01554cda	3.917706e-38
35	0x0230e869	1.2997136e-37
36	0x00274267	3.605405e-39
37	0x825bcc2d	-1.6148175e-37
38	0x823da6f2	-1.3933438e-37
39	0x8228f6bf	-1.2413503e-37
40	0x822a414e	-1.2508369e-37
41	0x82362449	-1.3381662e-37
42	0x801a7f54	-2.4334e-39
43	0x82859b32	-1.9631671e-37
44	0x81951ec2	-5.477809e-38
45	0x0228b33d	1.239413e-37
46	0x0239ea7c	1.3658947e-37
47	0x01651716	4.207722e-38
48	0x811d5e62	-2.8904062e-38
49	0x824d3d94	-1.5078693e-37
50	0x8306a03d	-3.9563005e-37
51	0x824c7171	-1.5020109e-37
52	0x824d253b	-1.5071706e-37
53	0x8243a680	-1.437412e-37
54	0x823949da	-1.3612848e-37
55	0x824c0f7e	-1.4991999e-37
56	0x825da670	-1.6284281e-37
57	0x818dcd32	-5.208966e-38
58	0x82600534	-1.6458414e-37
59	0x8111fcbc	-2.6813622e-38
60	0x8167de4f	-4.2587498e-38
61	0x82347621	-1.3258213e-37
62	0x824246da	-1.4273202e-37
63	0x811086d0	-2.6545346e-38
64	0x82286816	-1.2372562e-37
65	0x824b4f23	-1.4936796e-37
66	0x01ab96b3	6.303172e-38
67	0x023dae66	1.3935577e-37
68	0x823f052c	-1.4033948e-37
69	0x825e5d0c	-1.6336687e-37
70	0x81afd055	-6.458379e-38
71	0x0263d2c4	1.6737813e-37
72	0x827577da	-1.8034153e-37
73	0x8237c6eb	-1.3501803e-37
74	0x80bcf9dc	-1.7354706e-38
75	0x01643d66	4.1921037e-38
76	0x819a5e10	-5.670564e-38
77	0x8229d73d	-1.2477929e-37
78	0x813f31a9	-3.511679e-38
79	0x8307d7e4	-3.9920765e-37
80	0x822de560	-1.277586e-37
81	0x82724835	-1.7800074e-37
82	0x0281d1c5	1.9075248e-37
83	0x8232021e	-1.3077982e-37
84	0x81a7fd04	-6.170917e-38
85	0x81f09f46	-8.839062e-38
86	0x0252e6cc	1.5494599e-37
87	0x02811ec2	1.89725e-37
88	0x82434e96	-1.434889e-37
89	0x824c623b	-1.5015744e-37
90	0x825ce677	-1.6229187e-37
91	0x8272b3fc	-1.7831005e-37
92	0x80872bcd	-1.2413505e-38
93	0x8249f0a8	-1.4836213e-37
94	0x8247fd0d	-1.4692833e-37
95	0x82835096	-1.9294974e-37
96	0x8258c614	-1.5926019e-37
97	0x823a2ee6	-1.3678581e-37
98	0x81492360	-3.694325e-38
99	0x82484acb	-1.4715144e-37
100	0x822fb4bb	-1.2908837e-37
101	0x825932af	-1.5957188e-37
102	0x0075434c	1.0768895e-38
103	0x019fcdbf	5.8702607e-38
104	0x8235304b	-1.3311639e-37
105	0x827f11ef	-1.8739588e-37
106	0x0281a4c5	1.904942e-37
107	0x8254616b	-1.5603258e-37
108	0x00e22dc5	2.0771241e-38
109	0x013a17f5	3.4179993e-38
110	0x8237f824	-1.351593e-37
111	0x8269dd8c	-1.7181717e-37
112	0x82449342	-1.4442067e-37
113	0x822f7eb5	-1.2893333e-37
114	0x81d765db	-7.912468e-38
115	0x02209f71	1.1800701e-37
116	0x815ffe20	-4.1140957e-38
117	0x82355e10	-1.3324774e-37
118	0x8232c476	-1.3133756e-37
119	0x8269c70b	-1.7175259e-37
120	0x01049f9a	2.435908e-38
121	0x81687e46	-4.2702267e-38
122	0x0282b979	1.920824e-37
123	0x82595206	-1.5966182e-37
124	0x01ede646	8.7390477e-38
125	0x8100f35c	-2.368449e-38
126	0x81b215e3	-6.541828e-38
127	0x8235b853	-1.3350678e-37
128	0x025b96ac	1.613282e-37
129	0x82455a20	-1.4499139e-37
130	0x028225e3	1.912353e-37
131	0x8305199c	-3.9114585e-37
132	0x813aac8a	-3.4286595e-38
133	0x830c0480	-4.114747e-37
134	0x0302ebc1	3.84742e-37
135	0x825bfd7d	-1.6162326e-37
136	0x82449562	-1.4442677e-37
137	0x8174a758	-4.4935785e-38
138	0x00b8b273	1.6961747e-38
139	0x810e07f0	-2.6086976e-38
140	0x8240b46d	-1.4157712e-37
141	0x825d7dc3	-1.6272608e-37
142	0x82628298	-1.6641336e-37
143	0x81db847d	-8.0638006e-38
144	0x82330cea	-1.3154549e-37
145	0x81c4acf8	-7.2247227e-38
146	0x815c876c	-4.050478e-38
147	0x01db53ec	8.0568317e-38
148	0x0039e037	5.315056e-39
149	0x010e2b6f	2.6112443e-38
150	0x0241d47f	1.4240384e-37
151	0x8243158f	-1.4332524e-37
152	0x822f3792	-1.2872917e-37
153	0x8262d51a	-1.6665015e-37
154	0x824b54c5	-1.4938412e-37
155	0x82767018	-1.8105395e-37
156	0x8307a7f2	-3.9865726e-37
157	0x8231cd46	-1.3062817e-37
158	0x823f7b00	-1.4067763e-37
159	0x8224e296	-1.2113844e-37
160	0x819a00e2	-5.657193e-38
161	0x02798423	1.8331552e-37
162	0x82365d9e	-1.3398115e-37
163	0x8155e606	-3.9286955e-38
164	0x812717d0	-3.069014e-38
165	0x822d37a2	-1.2725999e-37
166	0x82489c76	-1.4738581e-37
167	0x027a4893	1.8387927e-37
168	0x82016e11	-9.509011e-38
169	0x8107d3fb	-2.4947672e-38
170	0x01fb4e26	9.2314976e-38
171	0x827629d5	-1.8085231e-37
172	0x82553e16	-1.5666586e-37
173	0x01ebf9a4	8.6683583e-38
174	0x816a1373	-4.2992966e-38
175	0x82390532	-1.3593144e-37
176	0x825bb57e	-1.6141665e-37
177	0x804139ec	-5.990086e-39
178	0x018b6a75	5.1213294e-38
179	0x81676006	-4.2496893e-38
180	0x839ac00a	-9.0953965e-37
181	0x821df931	-1.1606053e-37
182	0x026cce28	1.7397706e-37
183	0x82583a45	-1.5885896e-37
184	0x82452922	-1.4485079e-37
185	0x027b3ebf	1.8458575e-37
186	0x02553884	1.5664988e-37
187	0x8257b7ca	-1.584845e-37
188	0x823e10ac	-1.396378e-37
189	0x8113fb34	-2.7179865e-38
190	0x81b69e69	-6.708355e-38
191	0x8261f784	-1.6601423e-37
192	0x819ddfae	-5.7993656e-38
193	0x8237aaca	-1.3493731e-37
194	0x824532fb	-1.4487905e-37
195	0x820ed0f8	-1.0492483e-37
196	0x82698ef6	-1.7159164e-37
197	0x8252cbe4	-1.5486877e-37
198	0x027987fa	1.8332654e-37
199	0x8248e2f5	-1.4758813e-37
200	0x82347dea	-1.3260447e-37
201	0x830da8ce	-4.1629954e-37
202	0x819210b6	-5.365591e-38
203	0x824e3d82	-1.5152142e-37
204	0x80779918	-1.0983344e-38
205	0x815cc450	-4.0548466e-38
206	0x8229baae	-1.2469734e-37
207	0x00e31621	2.0854596e-38
208	0x00d30f17	1.9382703e-38
209	0x81aef29a	-6.426562e-38
210	0x8239e667	-1.3657776e-37
211	0x823cbce3	-1.3866266e-37
212	0x0062a3cf	9.058642e-39
213	0x0149ce2c	3.706579e-38
214	0x813a96b8	-3.427094e-38
215	0x82401495	-1.4111839e-37
216	0x8301cabc	-3.814242e-37
217	0x81ae85c7	-6.4109466e-38
218	0x8246fe04	-1.4619642e-37
219	0x025a31c4	1.6030393e-37
220	0x027813d6	1.8225855e-37
221	0x81195016	-2.815912e-38
222	0x815ae68e	-4.020569e-38
223	0x0067a8ad	9.519566e-39
224	0x824ca6cc	-1.5035421e-37
225	0x8242e50e	-1.4318604e-37
226	0x830a941e	-4.0724585e-37
227	0x823c57d6	-1.3837266e-37
228	0x82647dfe	-1.6786952e-37
229	0x8225bd27	-1.217657e-37
230	0x02585318	1.589302e-37
231	0x81a46c40	-6.0399417e-38
232	0x823a06d7	-1.3667085e-37
233	0x82265cf9	-1.2222436e-37
234	0x82483370	-1.4708441e-37
235	0x8273294f	-1.7864675e-37
236	0x01eddab4	8.7373874e-38
237	0x8243463d	-1.4346495e-37
238	0x811c32ee	-2.8689215e-38
239	0x02846e1c	1.9458856e-37
240	0x830936c6	-4.032356e-37
241	0x822852a2	-1.2366405e-37
242	0x00dcc5f1	2.0274817e-38
243	0x82386442	-1.3546958e-37
244	0x823b7583	-1.3772314e-37
245	0x82370e3e	-1.3448804e-37
246	0x0234dcc1	1.3287665e-37
247	0x82486250	-1.4721894e-37
248	0x81925ec1	-5.3767895e-38
249	0x0271d614	1.7767321e-37
250	0x823fe846	-1.4099123e-37
251	0x027615d7	1.8079493e-37
252	0x8257345b	-1.5810731e-37
253	0x81df3fd1	-8.2008835e-38
254	0x01611150	4.1338394e-38
255	0x823a558b	-1.3689671e-37

encoder.2.bias f4 [256]
0	0x8b17a0de	-2.9202565e-32
1	0xbc8a88cf	-0.016910939
2	0x3d648eea	0.055800356
3	0x3d417738	0.047232836
4	0x3d879b65	0.06621436
5	0x3c1a7a37	0.009428552
6	0x3cdf3c5b	0.02725046
7	0x3bd9545a	0.00663237
8	0x3ca982c1	0.020692231
9	0x3d85e3d8	0.06537598
10	0xbbc920ad	-0.0061379285
11	0x3c6a0a5a	0.014284695
12	0x3d1c2e77	0.03813025
13	0x3d2c8a57	0.04212412
14	0x3ce69fc0	0.028152347
15	0x3c0b1ac7	0.008490271
16	0xb3f61cde	-1.14605186e-07
17	0xbc81aa7d	-0.015828365
18	0xb7d247fd	-2.5067473e-05
19	0xb93d9eac	-0.00018083554
20	0x3d8ce88e	0.06880294
21	0xbcc23df9	-0.023711191
22	0x3d650e6b	0.055921953
23	0xbdc659b7	-0.096850805
24	0x3c61f648	0.013791628
25	0x830040f2	-3.7690373e-37
26	0x3ca0dfa6	0.019637894
27	0x3bd12606	0.0063827066
28	0xbc0b7981	-0.0085128555
29	0x3c36a8b9	0.011148625
30	0x3d1a141b	0.03761683
31	0xbb6cfa46	-0.0036159917
32	0xbc98548e	-0.018595006
33	0xba090f23	-0.0005228391
34	0x3d7c1578	0.06154391
35	0x3d89e2d6	0.06732719
36	0xba3139ab	-0.00067606074
37	0xbcbd03cf	-0.023073105
38	0xbc447234	-0.011990119
39	0xab428f04	-6.912112e-13
40	0xbd38babc	-0.04509996
41	0xbd928e02	-0.07155992
42	0x3c36fc36	0.01116853
43	0xba015e22	-0.00049349864
44	0xbc635747	-0.013875789
45	0x3d4fcb77	0.05073115
46	0x3d2e0e50	0.04249412
47	0x3d875c6a	0.066094235
48	0x3d420b35	0.04737397
49	0x3d88eddf	0.06685995
50	0x3cfb78cf	0.030697254
51	0xbd983b79	-0.074332185
52	0x822a87b2	-1.252857e-37
53	0x3c8fae8b	0.017539283
54	0x39d40a94	0.00040443672
55	0xbc9fb10c	-0.019493602
56	0x3d8eeb57	0.06978481
57	0xa8dd2170	-2.455043e-14
58	0x3d71b2c1	0.059008364
59	0xb2b38904	-2.090065e-08
60	0x3d5da003	0.054107677
61	0xb618cf7b	-2.2770535e-06
62	0xbc2aeca4	-0.010432396
63	0x3d7450d7	0.059647407
64	0x3b4ebedc	0.0031546867
65	0x3cb039b2	0.021511886
66	0xb915989e	-0.00014266602
67	0x39de31ca	0.00042380235
68	0x3d7912ee	0.06080907
69	0x3da5f544	0.08103421
70	0x3d201010	0.03907782
71	0x3c82193f	0.015881179
72	0xbd17b5d4	-0.03703864
73	0xbd03d56c	-0.032185957
74	0x3d17813e	0.03698849
75	0xba8b8061	-0.0010643118
76	0x3d6ec035	0.05828877
77	0xbc3b80a1	-0.011444242
78	0x3d889b79	0.06670279
79	0xbc8ea867	-0.017414285
80	0x3d8e4949	0.06947572
81	0x3bca1e95	0.0061681964
82	0xbb70774d	-0.0036692203
83	0x3ca5733d	0.020196551
84	0x3ce1c71c	0.027560763
85	0xbb453f77	-0.0030097642
86	0x91db5749	-3.4605901e-28
87	0xbbc02533	-0.0058638095
88	0xac01b5c0	-1.8432894e-12
89	0x9232d459	-5.6428635e-28
90	0x3d15f097	0.036606397
91	0xbd10e724	-0.035376683
92	0x3d7d626f	0.06186145
93	0x3da6754d	0.08127842
94	0x3d5196ff	0.05116939
95	0x3722a6cd	9.694789e-06
96	0x39fd3419	0.00048294736
97	0x3b1e56b3	0.0024160563
98	0x3d14978c	0.03627734
99	0x3c0de87f	0.008661388
100	0x3d7d4d56	0.06184133
101	0xb9d9a513	-0.00041512455
102	0xa6c840e6	-1.3895379e-15
103	0x3cdea3a2	0.027177636
104	0x3aebf88e	0.0018003152
105	0x3d6a584f	0.057213124
106	0x3c95e21f	0.0182963
107	0x3d9ba49b	0.075997554
108	0x3e04a041	0.12951757
109	0xb838c1e1	-4.4049582e-05
110	0x3b4b9628	0.0031064842
111	0xbc6fc9fa	-0.014635557
112	0xbc213aa7	-0.009840644
113	0x3c9f0352	0.019410763
114	0x3d98c390	0.074591756
115	0xbccb28bb	-0.024799695
116	0xbda1b8d6	-0.07896583
117	0x3da53dd2	0.08068432
118	0x3c775703	0.015096429
119	0x3ba33363	0.004980491
120	0xbcd6d381	-0.0262239
121	0x3d03a25d	0.032137264
122	0x3d809af6	0.062795565
123	0x3d747d09	0.059689555
124	0x3c8521c8	0.01625146
125	0xbe44394c	-0.19162482
126	0x3d57fb60	0.052729964
127	0x3db3118c	0.08743581
128	0xbc0e5a38	-0.008688502
129	0x3cf56c5a	0.029958893
130	0x3cb3d5ff	0.021952627
131	0xbda611b5	-0.08108846
132	0x39c14736	0.00036864885
133	0x3d645736	0.055747233
134	0xbbbb271c	-0.0057114493
135	0xbbbe478e	-0.00580687
136	0x3d23dba9	0.040004406
137	0x3b172ab4	0.0023066225
138	0x3d785386	0.06062653
139	0xbcfefb76	-0.031125765
140	0xb85b2084	-5.224395e-05
141	0x3b231014	0.002488141
142	0xba6a48b9	-0.0008937228
143	0xbc7f018d	-0.015564335
144	0x3ccd148d	0.025034213
145	0xbc1a9fc6	-0.009437507
146	0xbc291a8d	-0.010321272
147	0x3cf9b39c	0.030481152
148	0xb82d74a8	-4.135506e-05
149	0x3d344521	0.04401124
150	0x3ddb1ee3	0.106992505
151	0x3cbc7667	0.023005677
152	0x3d3b448c	0.04571967
153	0x3d696a25	0.056985993
154	0x3d5ca8a0	0.05387175
155	0x3d8156e4	0.06315401
156	0x3d274f94	0.040847376
157	0xa27c37b1	-3.4181851e-18
158	0x3d21e0a1	0.039520863
159	0xa6b0995b	-1.225402e-15
160	0x3ce49cb9	0.027906762
161	0x8245edae	-1.4541485e-37
162	0xbb54148b	-0.0032360877
163	0x8261c182	-1.6585923e-37
164	0x3d001cb5	0.031277377
165	0xbc0a2ef0	-0.008434042
166	0x3da05a80	0.078297615
167	0xbd2a0fd1	-0.04151899
168	0xbab9ecd2	-0.0014184958
169	0xbd4587a7	-0.04822507
170	0x3d66779c	0.056266412
171	0x3c113848	0.008863516
172	0xbbabb73e	-0.00524035
173	0x3d56c161	0.052430514
174	0x3d886ce8	0.06661397
175	0xbb178e0d	-0.002312544
176	0xbca034f0	-0.019556493
177	0xae808e26	-5.846017e-11
178	0xa80791fa	-7.525659e-15
179	0xa902200d	-2.8893598e-14
180	0xbd57dca9	-0.052700672
181	0xb88fba26	-6.853444e-05
182	0x3d274532	0.040837474
183	0xbbdc2433	-0.0067181825
184	0x3b3f6833	0.0029206395
185	0x3d0b7644	0.034048334
186	0xbd2905ef	-0.041265424
187	0x3cd1f2c7	0.02562846
188	0xbcef0bf9	-0.029180514
189	0xbc52bff3	-0.012863147
190	0xbcd6e2dd	-0.026231224
191	0xbbdedda9	-0.0068013263
192	0xbcde0a01	-0.02710438
193	0xba49f243	-0.00077036413
194	0x3d469600	0.048482895
195	0x3d355dbf	0.044278856
196	0x3be52075	0.0069923946
197	0x3cb3321f	0.021874486
198	0x3d0efc45	0.03490855
199	0xbb3b2310	-0.0028554834
200	0xbce28ef0	-0.027656049
201	0x3c1c1f6d	0.009528977
202	0xbcc104e1	-0.023561897
203	0x3c964013	0.0183411
204	0x3d166fec	0.03672783
205	0xbdd8ca32	-0.10585441
206	0x3d602244	0.05472018
207	0x3cc8b6e7	0.024501277
208	0x3d765b93	0.060145926
209	0x3c456bf2	0.012049662
210	0x3b9d9a7a	0.004809675
211	0xbd25fd4a	-0.04052476
212	0xbc10e5d5	-0.008843859
213	0x3c8075ba	0.015681136
214	0x8383f190	-7.754948e-37
215	0xbc0838ad	-0.008314294
216	0xb1b1f6d6	-5.17944e-09
217	0xbafc9988	-0.001927183
218	0x3d6b0704	0.057379737
219	0x3bcdbb93	0.006278464
220	0x3d84d1fa	0.06485362
221	0xbc488f6d	-0.012241227
222	0xbba6df2b	-0.0050925217
223	0x3d8b943d	0.068153836
224	0xbdb1885c	-0.086685866
225	0x3caf55fc	0.021403305
226	0x3d37b35b	0.04484878
227	0xbcd67506	-0.026178848
228	0xbdd2d31f	-0.102941744
229	0xbc89f8eb	-0.016842326
230	0x3cd07bf5	0.025449732
231	0x3d5e1d4f	0.05422717
232	0x3ccdd824	0.025127478
233	0xbd13c043	-0.036072027
234	0xb9124441	-0.00013949072
235	0xbc20d938	-0.009817414
236	0xbc4499e1	-0.011999578
237	0x3ccca130	0.024979204
238	0x3af073e8	0.001834509
239	0x3baa8f9c	0.005205108
240	0x3db1cdd2	0.08681835
241	0x3d06d16f	0.032914575
242	0xbc20d923	-0.009817394
243	0x3d9b094c	0.075701326
244	0x3da22fa6	0.079192445
245	0x3bd3e4f6	0.0064665033
246	0xbb14aa77	-0.0022684613
247	0x3da1a17e	0.0789213
248	0x3d2a3799	0.04155693
249	0x3ae12652	0.0017177558
250	0x3d7f8e7b	0.06239174
251	0x3a0f63a1	0.0005469863
252	0x9a2c009c	-3.556926e-23
253	0xbd1106b1	-0.035406772
254	0x3cf8ebb0	0.030385822
255	0x3d5951eb	0.05305664

fc_mu.weight f4 [16, 256]
0	0x01c73f5b	7.3191966e-38
1	0xb9fe985d	-0.00048560175
2	0xbc13eeb7	-0.009029082
3	0xbca8f8dd	-0.02062648
4	0xba9d0937	-0.0011980896
5	0x3b233689	0.0024904332
6	0x3b4f6fbd	0.0031652295
7	0xbc7e0be4	-0.015505765
8	0xbc0f8953	-0.008760768
9	0xb8f76960	-0.000117975054
10	0xbb3726d6	-0.0027946732
11	0xba886939	-0.0010407335
12	0xbc284e77	-0.010272614
13	0x3b6d2c1a	0.0036189617
14	0x3bc42ca2	0.005986766
15	0xbb99e260	-0.0046961755
16	0x0390f1f0	8.5191055e-37
17	0xbad5fddd	-0.0016326268
18	0xb862fcb6	-5.4117954e-05
19	0xb625afe0	-2.4689289e-06
20	0x3b8a88ce	0.004227734
21	0xbc22d124	-0.009937558
22	0x3b52e24f	0.0032178347
23	0x39f8b8b7	0.0004743987
24	0x3bcb8355	0.0062107244
25	0x030757dc	3.977379e-37
26	0x3b12415c	0.002231679
27	0xbc335bdb	-0.010947193
28	0xbb8570ae	-0.0040722704
29	0xbbd4783d	-0.00648406
30	0xbb322599	-0.0027183054
31	0x3befe1a9	0.007320602
32	0xbae43aa4	-0.0017412496
33	0xb2f1b31e	-2.8137546e-08
34	0xbb337173	-0.0027380853
35	0x3bc18250	0.005905427
36	0x3c9685ef	0.018374411
37	0xbc3c29c5	-0.011484568
38	0xbbf351f1	-0.0074255397
39	0x03883f56	8.007903e-37
40	0xbb307da2	-0.0026930352
41	0xbb58d2fb	-0.0033084739
42	0xb8256ded	-3.9441442e-05
43	0x32728f07	1.4118775e-08
44	0x3c346648	0.011010714
45	0xbc3cc8d4	-0.0115224905
46	0x3a7acda6	0.0009567387
47	0x3ba7cff0	0.0051212236
48	0xbc158f73	-0.009128439
49	0xbaba109a	-0.0014195621
50	0xba9d8c21	-0.0012019911
51	0xbb150f4f	-0.002274472
52	0x8123cfbb	-3.008741e-38
53	0xbc78419f	-0.015152364
54	0xbb6b590d	-0.0035911233
55	0xbb97cc17	-0.0046324837
56	0xba8ec7d2	-0.0010893291
57	0x1d510c04	2.7667132e-21
58	0x3c9a71f0	0.018853158
59	0x0ccac761	3.1243025e-31
60	0xbad9b63f	-0.00166101
61	0x27942d3e	4.1127304e-15
62	0xbbcb5f24	-0.00620641
63	0x3cb39eab	0.021926245
64	0xbb968dcc	-0.00459454
65	0x3b979ba3	0.0046267076
66	0xb33fb515	-4.4635346e-08
67	0x3b162e5d	0.0022915818
68	0x3c57c1fd	0.013168809
69	0x3c04d0ad	0.008106393
70	0xbb83de6f	-0.004024319
71	0x3bb53b50	0.0055307522
72	0x3b6ef0a1	0.0036459344
73	0xbb568cc8	-0.003273772
74	0x3bd0d508	0.0063730516
75	0x3c10c8b0	0.00883691
76	0x3c870c2b	0.016485294
77	0x3c14d7ed	0.009084684
78	0xbad2db73	-0.001608713
79	0x3b50d083	0.0031862564
80	0xbc1b4b71	-0.009478436
81	0xbb18510a	-0.0023241662
82	0x3b14f36e	0.0022728103
83	0xbcccca8e	-0.02499893
84	0xbbd8e3c0	-0.006618947
85	0x3ba29361	0.0049614166
86	0x85ea6c03	-2.2044931e-35
87	0x3aed2496	0.0018092568
88	0x818b4faa	-5.117485e-38
89	0x06d1dc46	7.8940725e-35
90	0xbb18e1d9	-0.0023327975
91	0xbb0fc035	-0.0021934633
92	0x3bff5b95	0.0077929
93	0xbb54ff30	-0.0032500736
94	0x3c20d62e	0.009816689
95	0x350ee180	5.322727e-07
96	0x3b9917e6	0.0046720384
97	0x3c7b525e	0.015339462
98	0x3c1688a9	0.009187856
99	0xbc0602c4	-0.00817937
100	0xbb34f0fe	-0.0027609463
101	0x373898c0	1.10028195e-05
102	0x10cebf7c	8.15477e-29
103	0x3bbca650	0.0057571307
104	0x3acac041	0.0015468673
105	0xbb7e6218	-0.0038815793
106	0xbba12ffd	-0.0049190507
107	0x3cccbd11	0.024992498
108	0x3b93deb1	0.004512631
109	0x2e55b2e6	4.8589487e-11
110	0x3b049ac0	0.002023384
111	0xbcb31cdf	-0.021864353
112	0xbb4b71ca	-0.0031043165
113	0xbc45cba9	-0.012072482
114	0xbba08a48	-0.004899297
115	0xb8e5636a	-0.00010938088
116	0x3b7fa749	0.0039009622
117	0xbc3913ab	-0.011296193
118	0x3c36a59b	0.011147882
119	0xbc449413	-0.011998194
120	0x3a94a4f5	0.0011340665
121	0x3a68e8d8	0.0008884794
122	0xbbbb84d7	-0.005722623
123	0x3c9d70b5	0.019218782
124	0xbc52c995	-0.012865444
125	0x3bc02078	0.0058632456
126	0x3c3f6908	0.011682756
127	0x3ca23375	0.019799927
128	0xbc55b181	-0.0130428085
129	0xbb0ffaad	-0.0021969483
130	0x3c04b403	0.008099559
131	0xbb7d1602	-0.0038617854
132	0x37a9a3e3	2.0222686e-05
133	0xbc09eaf4	-0.008417834
134	0x3a92507c	0.0011162902
135	0x33b8da76	8.6079055e-08
136	0x39ef4380	0.00045635924
137	0xbb0d037d	-0.0021516972
138	0x3bab9e21	0.0052373563
139	0x3a7f0ea8	0.0009729662
140	0x838ea70f	-8.384365e-37
141	0x3b95a01d	0.004566206
142	0xa4bfb788	-8.314396e-17
143	0x3a9eadcc	0.0012106239
144	0xbbba5556	-0.0056864424
145	0xbc2f4983	-0.010698679
146	0xbbe761aa	-0.007061203
147	0xbbe9b41d	-0.007132067
148	0x9cff3ce1	-1.6890221e-21
149	0xbba4bc53	-0.005027333
150	0x3b38a071	0.0028171802
151	0x3b3bda1e	0.0028663944
152	0x3c248820	0.01004222
153	0x3ca7e4cf	0.020494847
154	0x3c05ee9e	0.008174567
155	0xba8b4aed	-0.0010627188
156	0xbbba792f	-0.0056907157
157	0x20b90815	3.1345567e-19
158	0x3c2d68d2	0.010584073
159	0x841dca29	-1.8548089e-36
160	0x3b441576	0.0029920018
161	0x812865ca	-3.0929757e-38
162	0xbc2515a4	-0.01007596
163	0x0091216a	1.3328134e-38
164	0x3a1f9ed5	0.00060890365
165	0x344cd0c5	1.907493e-07
166	0xbbc6184a	-0.006045376
167	0xb84283c1	-4.637591e-05
168	0xb1901b53	-4.194058e-09
169	0x3b49d459	0.0030796735
170	0x3c4ecdac	0.012622278
171	0xbc0c884f	-0.00857742
172	0x3af033e4	0.0018326011
173	0xbb39085f	-0.002823375
174	0x3b710911	0.0036779086
175	0x3b56a613	0.0032752797
176	0xba523693	-0.00080189965
177	0xae58cb8e	-4.9293507e-11
178	0x2bcea5c7	1.4683193e-12
179	0x8390f4f7	-8.5198005e-37
180	0xbb15805b	-0.0022812102
181	0xb685038f	-3.964123e-06
182	0x3b6ddf48	0.0036296416
183	0x3c47682f	0.012170835
184	0x3bc9142e	0.006136439
185	0x3c31a684	0.010842923
186	0xbb3a77f0	-0.0028452836
187	0xbc092dba	-0.0083727185
188	0xbb06de15	-0.0020579149
189	0xb7486b04	-1.19458455e-05
190	0x3a7c9b06	0.00096361374
191	0xb5842949	-9.846782e-07
192	0xbb940c84	-0.0045180935
193	0x39d02d96	0.00039706816
194	0xbb64d202	-0.0034915213
195	0xbae4fb67	-0.0017469943
196	0x38e50a5f	0.00010921503
197	0xbc7b0207	-0.015320308
198	0xba921151	-0.0011144077
199	0x3285cc4c	1.5576141e-08
200	0x3bf87147	0.007581863
201	0xba6c80f8	-0.00090219034
202	0xbb154a14	-0.002277975
203	0x3b5fde48	0.003415959
204	0xba09d585	-0.0005257952
205	0x3b5b586d	0.0033469454
206	0x3b7749e6	0.0037733256
207	0x3b702129	0.0036640859
208	0xbb223d1d	-0.0024755665
209	0x3b38371b	0.0028109017
210	0x3b1ac562	0.0023616184
211	0x39fbd3e0	0.0004803231
212	0x3bfd8d9c	0.0077378284
213	0xbc01c162	-0.007919641
214	0x02677a73	1.7006341e-37
215	0xb78b22e8	-1.6586346e-05
216	0x88ce8e98	-1.2431698e-33
217	0x3c209623	0.00980142
218	0x3bc3a758	0.0059708767
219	0x3a47ba13	0.0007618975
220	0x3b227c17	0.0024793202
221	0x3cbe5245	0.023232589
222	0xbccc0722	-0.024905745
223	0xbca950b3	-0.020668363
224	0x3b64decb	0.0034922834
225	0x3ca7202d	0.020401085
226	0xbc00f4ae	-0.007870836
227	0xbc154a4a	-0.00911195
228	0xbb80af81	-0.0039271717
229	0x3be9bf26	0.0071333824
230	0x3b0d554d	0.0021565736
231	0x3a8a93b7	0.0010572587
232	0xbc3baff0	-0.011455521
233	0x399b2be6	0.0002959661
234	0x36f08cbe	7.168942e-06
235	0x39c58381	0.00037672746
236	0x3c2d6343	0.010582748
237	0xbc04e01a	-0.008110071
238	0xba0038b7	-0.00048912637
239	0x386ca0f7	5.6416695e-05
240	0x39ab8e85	0.00032721847
241	0xbba8300f	-0.005132682
242	0x3bec9c7e	0.0072208038
243	0xbadc8f0f	-0.0016827303
244	0x3b3b6b07	0.0028597729
245	0x3aa05daa	0.0012234945
246	0xbbac7d8e	-0.0052639907
247	0x396ffef2	0.0002288779
248	0xbb6ec6c6	-0.0036434396
249	0xb39da3a8	-7.340651e-08
250	0x3b8eb29c	0.004354788
251	0x339ce766	7.306407e-08
252	0x869abaf4	-5.8203065e-35
253	0x3ab351db	0.0013681011
254	0xbc0c5117	-0.008564255
255	0x3b4b5134	0.0031023743

fc_mu.bias f4 [16]
0	0x3accf89b	0.0015638055
1	0xbc1d9f4c	-0.009620499
2	0xbbb7ccd9	-0.0056091365
3	0x3c633ba9	0.013869205
4	0x3ce89f79	0.028396355
5	0xbc1e19ab	-0.009649674
6	0xbce8812a	-0.028381903
7	0xbccd2ab2	-0.025044773
8	0xbcdf1f1e	-0.027236518
9	0x3d04f792	0.032462664
10	0xbcbdcf99	-0.02317028
11	0x3c5f24ba	0.013619596
12	0x3cc0a1b1	0.0235146
13	0xbc4ee0c5	-0.012626831
14	0x3ca836b2	0.020533893
15	0x3d0f4496	0.034977518

fc_logvar.weight f4 [16, 256]
0	0x808ad5df	-1.2750021e-38
1	0x3983ce64	0.0002514004
2	0xbb657d2c	-0.0035017235
3	0xbb03f7a3	-0.0020136617
4	0x3b28ccec	0.0025756909
5	0xbb58fb3f	-0.0033108739
6	0x3a283790	0.0006416971
7	0x3c175e50	0.009238794
8	0xbace2eaf	-0.0015730466
9	0x391f596e	0.00015196737
10	0xba6f1102	-0.0009119661
11	0x3ae34e76	0.0017342109
12	0x3a34f60d	0.00069031195
13	0xbc0db0ae	-0.008648081
14	0x3b11b5e4	0.002223366
15	0xb9a86f01	-0.0003212616
16	0x024f17bb	1.5214768e-37
17	0x39a4dc6f	0.00031444753
18	0xb24b482c	-1.1832565e-08
19	0x2f19222b	1.3927408e-10
20	0xbb2069bb	-0.0024477083
21	0x3b95e7ac	0.0045747366
22	0xba13224f	-0.00056127174
23	0x3b4f336d	0.0031616346
24	0xbb7bb037	-0.0038404593
25	0x815824a6	-3.9699228e-38
26	0xba0ccb92	-0.00053709105
27	0x3b24f56d	0.00251707
28	0xba99511b	-0.0011697145
29	0xbba38f75	-0.0049914666
30	0x3aeb69aa	0.0017960567
31	0x3bd46eb9	0.0064829257
32	0x3b3ce7e7	0.0028824748
33	0x27b8c86a	5.128755e-15
34	0x3ac599a7	0.0015075699
35	0x3b15bb4f	0.002284724
36	0x3b913f48	0.0044325925
37	0xbbde9369	-0.006792475
38	0x3a8f61e8	0.0010939213
39	0x02375ce3	1.3471374e-37
40	0xba174f5f	-0.000577202
41	0xb9196728	-0.00014629646
42	0x3a6714c4	0.0008815045
43	0x28f38a27	2.7038334e-14
44	0x3b1e1e15	0.0024126817
45	0xbb1afcb2	-0.0023649153
46	0xba33bb96	-0.00068562606
47	0xbaa3a3e0	-0.0012484752
48	0xbbb84e05	-0.005624535
49	0xb989cce4	-0.00026283332
50	0x3a93ddc4	0.0011281301
51	0xb9ea875d	-0.00044732812
52	0x00e5d400	2.110638e-38
53	0xbacdd275	-0.001570298
54	0xbba2b892	-0.00496585
55	0xbb86c186	-0.0041124253
56	0x3c1c536f	0.0095413765
57	0x838f726c	-8.431055e-37
58	0xbba4528c	-0.005014723
59	0x82fe20ba	-3.734073e-37
60	0x3b300b39	0.0026862158
61	0x8b3c022f	-3.6209126e-32
62	0x3b161abf	0.0022904126
63	0x3bac074e	0.005249894
64	0xbb435b20	-0.0029808953
65	0x3a798456	0.0009518316
66	0x23a77321	1.8154935e-17
67	0xbb51dcf5	-0.003202257
68	0x3a975329	0.0011545169
69	0x3bf92ab7	0.007603969
70	0xb977ed81	-0.00023644233
71	0xb9ba83de	-0.00035574933
72	0x3a21308f	0.00061488984
73	0x3aec2604	0.0018016701
74	0x3b1e7cd9	0.0024183302
75	0xbbbcf72c	-0.00576677
76	0x3ba2a6a4	0.0049637128
77	0x3ab600c3	0.0013885725
78	0x3bfbfb94	0.0076899026
79	0x3ae60b28	0.0017550932
80	0xbbb0078d	-0.005371994
81	0xba33aa12	-0.00068536506
82	0xbafeca1a	-0.0019438893
83	0x3b11263d	0.0022148036
84	0xbc93044f	-0.01794639
85	0xbb890125	-0.0041810446
86	0x03856f50	7.8425935e-37
87	0xb9826740	-0.0002487246
88	0x82232738	-1.1986604e-37
89	0x8231bea7	-1.3058621e-37
90	0x3c42e138	0.011894517
91	0x3a9fa546	0.0012179993
92	0x3a9fe4aa	0.0012198885
93	0x3a78fb48	0.0009497893
94	0xbc04cc56	-0.008105358
95	0xb0b92616	-1.3471346e-09
96	0x3b158f54	0.0022821026
97	0xbc204ae0	-0.009783477
98	0xbafc04d6	-0.0019227515
99	0xbbc1d48a	-0.005915229
100	0x3a81c52a	0.0009900678
101	0xaf0d2e0c	-1.2840234e-10
102	0x03053999	3.9151306e-37
103	0x3b46651c	0.0030272668
104	0xbb608a70	-0.0034262203
105	0x3b0be04f	0.0021343415
106	0xbb1b9409	-0.002373936
107	0xbb87a1df	-0.0041391696
108	0xbaf32bb0	-0.0018552449
109	0x9901bd27	-6.707343e-24
110	0xbaa3705e	-0.0012469401
111	0xbbf21a5c	-0.007388396
112	0x3afc5e0a	0.00192541
113	0x3bb86d45	0.0056282603
114	0x3b4560d3	0.0030117526
115	0x39583733	0.00020619929
116	0xbb8b35d3	-0.0042483597
117	0xbc9e4f5d	-0.019324953
118	0xbb607298	-0.003424799
119	0x3a438399	0.0007458269
120	0xba97aba5	-0.001157154
121	0xba016826	-0.0004936479
122	0xbb3633e3	-0.0027801923
123	0xbc3548ee	-0.011064751
124	0xbb0475a1	-0.0020211714
125	0x3b1b6208	0.0023709554
126	0x3a8fde79	0.0010976336
127	0x3b3d44bf	0.0028880087
128	0xbc1deb27	-0.009638584
129	0xbb0aa5aa	-0.0021155872
130	0x3b19ca45	0.002346651
131	0xbb8b2216	-0.0042460067
132	0x34b0a9ce	3.2906104e-07
133	0x3b412a68	0.002947474
134	0xbadf72db	-0.0017047779
135	0x327c651c	1.469132e-08
136	0x3adab5e2	0.0016686285
137	0x3b12cca2	0.0022399803
138	0x3ba8dede	0.005153521
139	0x35f00b3e	1.7884665e-06
140	0x0236ff33	1.3444487e-37
141	0xbb16cd2b	-0.0023010473
142	0x85bf16e1	-1.7969958e-35
143	0xb981f526	-0.00024787447
144	0xbb01ecd3	-0.0019824996
145	0x3c1d546a	0.009602645
146	0xbb4dd03c	-0.0031404635
147	0x3b2e0eaa	0.0026559033
148	0x83914953	-8.5391685e-37
149	0x3bd9b55a	0.0066439332
150	0x38b4cb18	8.620898e-05
151	0x3a3bd2d9	0.00071649026
152	0x3c126e3c	0.008937415
153	0x3b69738f	0.0035621857
154	0x3b9ab89d	0.0047217146
155	0xbaf152e9	-0.001841155
156	0x3b2c78aa	0.0026317039
157	0x039bec73	9.164367e-37
158	0xbac7ef5c	-0.001525383
159	0x030f39df	4.2090356e-37
160	0xbaf4f39e	-0.0018688326
161	0x8102dd75	-2.4036117e-38
162	0xb98a9ef1	-0.00026439832
163	0x00676f86	9.499063e-39
164	0xba5aba3f	-0.0008343793
165	0xabcf7a48	-1.4742174e-12
166	0xba89e8fc	-0.0010521705
167	0xbab2b2bc	-0.0013633589
168	0x2e1360d3	3.3509927e-11
169	0x3a207f67	0.00061225
170	0xba8dfe91	-0.0010833313
171	0xbb8d6361	-0.0043148254
172	0xb8b07e82	-8.415898e-05
173	0x3a8c929c	0.0010724845
174	0x3b7ba25f	0.0038396341
175	0x399b1a13	0.0002958333
176	0x3a1dcb66	0.00060193834
177	0x0a995631	1.4765786e-32
178	0x8bb61fe8	-7.015186e-32
179	0x822a410a	-1.2508293e-37
180	0x3a6564a7	0.0008750655
181	0x261d5ae1	5.459348e-16
182	0xbabb1134	-0.0014272095
183	0x3c1b3507	0.009473092
184	0x3b38dcac	0.0028207703
185	0x3c1ec214	0.0096898265
186	0xba117daa	-0.00055500364
187	0xbabe8a97	-0.0014537153
188	0x3ba0cfd4	0.0049075875
189	0x366a640f	3.492696e-06
190	0xb9d1ea1b	-0.0004003801
191	0xadde81f5	-2.529619e-11
192	0x3b00d0ab	0.0019655626
193	0xb63f71a9	-2.8527377e-06
194	0xba5a054e	-0.00083168305
195	0xba8278a2	-0.0009954164
196	0xb9090ee9	-0.00013070893
197	0x3b537a1f	0.0032268835
198	0xba49da47	-0.00077000674
199	0x8e8f6097	-3.5345234e-30
200	0xba6779d5	-0.0008830105
201	0xbad30a9c	-0.0016101184
202	0xbb0d8bfe	-0.0021598334
203	0x392ffa7c	0.00016782613
204	0xbab97c9f	-0.001415152
205	0x3bac56ab	0.005259355
206	0xb907545b	-0.00012906028
207	0xba6ce32f	-0.00090365385
208	0xbac247de	-0.0014822443
209	0xbb13ad91	-0.0022533874
210	0xbb35231b	-0.0027639333
211	0x3a36da2b	0.00069752586
212	0x38ccdfc1	9.7691554e-05
213	0xbb45589b	-0.0030112627
214	0x813f70fc	-3.5162222e-38
215	0xb4ffab5c	-4.7622132e-07
216	0x038e0ec3	8.349399e-37
217	0xbb7f74b8	-0.0038979482
218	0x3be1a14e	0.006885684
219	0x3b363583	0.0027802892
220	0xbbf195f0	-0.0073726103
221	0x3b178d1f	0.0023124886
222	0xbbe8e44b	-0.007107293
223	0x3b1be582	0.002378792
224	0xba3625e5	-0.0006948396
225	0x39c6d02a	0.00037920597
226	0x3c14ec56	0.00908955
227	0x3addd0c9	0.0016923185
228	0xbb01b685	-0.0019792628
229	0x3c3f2e33	0.01166873
230	0xb8ce7685	-9.8449214e-05
231	0xbc18c4f0	-0.009324297
232	0x3bc29982	0.0059387097
233	0x399f264b	0.00030355374
234	0x29e1ae6a	1.0022263e-13
235	0xb93a87d9	-0.0001778895
236	0xbb3f8dc7	-0.0029228793
237	0x3b0429ac	0.002016644
238	0xbb4c4f5f	-0.0031175239
239	0xb7f61762	-2.9336374e-05
240	0xbb17c8b7	-0.0023160407
241	0xb7c96f85	-2.4012998e-05
242	0x3ae9d56d	0.0017840095
243	0x3a833e1b	0.0010013016
244	0xbb2c5965	-0.00262984
245	0xb886155f	-6.3935986e-05
246	0x3c32cac6	0.010912603
247	0xbacfc92a	-0.0015852798
248	0xba2b2aed	-0.0006529529
249	0x3111e28d	2.1229056e-09
250	0xb9dd41fe	-0.00042201573
251	0xa6ac9c96	-1.197734e-15
252	0x82233904	-1.1991711e-37
253	0x3b95fccb	0.0045772544
254	0x3a1d4fe1	0.00060009776
255	0x3b5a1471	0.0033276344

fc_logvar.bias f4 [16]
0	0x3c5e35ea	0.013562659
1	0x3a878c44	0.0010341485
2	0x3c02ad31	0.007975862
3	0xbbb57806	-0.0055379895
4	0xbc9e3047	-0.01931013
5	0x3ca1f90b	0.019772073
6	0x3c4f9e51	0.012672023
7	0x3c4380c8	0.011932559
8	0x3bff0035	0.007782007
9	0xbc81939d	-0.015817458
10	0x3b865d35	0.0041004666
11	0x3c25bf40	0.010116398
12	0x3c1c3642	0.00953442
13	0xbc6ab6f8	-0.01432585
14	0xbe18338c	-0.14863414
15	0xbb2fb9c6	-0.002681361

decoder.0.weight f4 [256, 61]
0	0x3cf3cf30	0.02976188
1	0x3cfc55ee	0.030802693
2	0x3d3eacbe	0.04655146
3	0xbc2af1b5	-0.010433604
4	0x3c54b6cf	0.012983038
5	0xbd727855	-0.05919679
6	0xbc8962f5	-0.01677082
7	0x3d08a60e	0.033361487
8	0x3d29f9fe	0.041498177
9	0xbce23477	-0.027612908
10	0xbbe7e8e5	-0.0070773237
11	0xbc176a7e	-0.009241698
12	0xbcaf5219	-0.021401452
13	0xbca12120	-0.019669116
14	0xbd3465fb	-0.04404257
15	0xba89fed3	-0.0010528214
16	0x3d21a26d	0.039461542
17	0x3d2999f2	0.04140658
18	0xbe9e1266	-0.30873412
19	0xbd770f8e	-0.06031757
20	0xbd2b9be6	-0.041896723
21	0x3d48475a	0.04889617
22	0xbdc410a9	-0.0957349
23	0x3d3182ef	0.04333776
24	0x3c1703ee	0.0092172455
25	0x3d8580dc	0.065187186
26	0xbd56e8a6	-0.052467965
27	0x3be6f1a9	0.007047851
28	0x3d0b2f87	0.033980872
29	0xbdb1cd2e	-0.08681713
30	0xbade9be9	-0.0016983721
31	0xbd441045	-0.04786708
32	0x3ce1c9c9	0.027562039
33	0x3b321365	0.0027172205
34	0x3d1d9354	0.03847058
35	0xbd352ef5	-0.044234235
36	0x3da5f9b6	0.08104269
37	0x3c460b27	0.01208762
38	0xbd8213cf	-0.063514344
39	0x3d3378a0	0.04381621
40	0x3d2acd1e	0.04169952
41	0xbc65ae95	-0.014018674
42	0x3dbe3221	0.09286905
43	0x3cb38d86	0.02191807
44	0xbd1a8550	-0.037724793
45	0xbd4d0ee4	-0.05006303
46	0x3c8b965b	0.017039469
47	0xbd9e8e43	-0.07741978
48	0xbd5bd739	-0.05367205
49	0x3dd62605	0.104564704
50	0x3cef2927	0.029194428
51	0x3cc3a53d	0.023882503
52	0x3d519760	0.051169753
53	0xbd29cd8e	-0.041455798
54	0x3c85a298	0.016312882
55	0xbcdff3e1	-0.02733797
56	0xbdb8a877	-0.09016507
57	0xbdab4dd4	-0.08364454
58	0xbdd69a39	-0.104786344
59	0x3dd28ec3	0.10281136
60	0x3db3a029	0.087707825
61	0x3c0052bc	0.007832225
62	0xbc9bfd61	-0.019041719
63	0xbd3d9dd2	-0.046293087
64	0x3d02a12b	0.031891983
65	0xba2b990d	-0.00065459387
66	0x3b90577a	0.0044049593
67	0x3cba6f1e	0.022758063
68	0x3c930f54	0.017951645
69	0x3c256c29	0.010096588
70	0xbd2cbd98	-0.042173
71	0xbd3406cc	-0.043951795
72	0xbc3ff82c	-0.011716884
73	0xbcd7eb20	-0.026357234
74	0x3c86f631	0.016474815
75	0x3d6f28e6	0.058388613
76	0xbcea6512	-0.028612647
77	0x3d530bab	0.0515248
78	0x3c1af392	0.009457486
79	0x3c0f1e90	0.008735314
80	0x3d7d5525	0.06184878
81	0xbd65e0c1	-0.056122545
82	0xbd052b12	-0.03251178
83	0x3c5c5c8d	0.0134498
84	0x3cc9ad66	0.024618816
85	0x3b1ca2e7	0.0023900808
86	0xbb802ea9	-0.0039118123
87	0x3cc7d05c	0.024391346
88	0xbb3089ab	-0.0026937525
89	0xbc64ca4b	-0.013964246
90	0x3cccf90f	0.025021104
91	0xbbb8146f	-0.0056176702
92	0x3988c56a	0.00026087026
93	0x3d34b326	0.04411616
94	0x3db15b54	0.086599976
95	0x3d58c65b	0.05292354
96	0xbc2746fa	-0.010209793
97	0xbd670f23	-0.05641092
98	0xbd3ebd56	-0.046567284
99	0x3d8112ef	0.063024394
100	0xbdd3ea8e	-0.10347472
101	0x3d6b8558	0.057500213
102	0xbc49c343	-0.01231462
103	0x3d0be818	0.03415689
104	0xbdf093ec	-0.11746964
105	0x3c2573ab	0.010098378
106	0xbbb640aa	-0.005561908
107	0xb2f11b63	-2.8068547e-08
108	0x3c844724	0.016147204
109	0xbd2e1efa	-0.04251001
110	0xbdb82b14	-0.089925915
111	0x3cad168a	0.021128912
112	0x38539196	5.0441908e-05
113	0xb2f0d069	-2.8034451e-08
114	0xbbaca1eb	-0.0052683256
115	0xbd9395d4	-0.07206312
116	0xbd1b23c8	-0.03787592
117	0xbd759604	-0.05995752
118	0xbd1066f9	-0.035254452
119	0x3d16cb81	0.03681517
120	0x3c851055	0.01624314
121	0xbb710302	-0.0036775474
122	0xbb58475e	-0.0033001523
123	0x3c900160	0.01757878
124	0x3b0f8c13	0.002190356
125	0x3c124ea3	0.008929881
126	0x3cbc8e6d	0.023017133
127	0xbcecd1a6	-0.028908562
128	0x3c96f10b	0.018425485
129	0x3bbf336a	0.0058349865
130	0x3cfcb058	0.030845806
131	0xbb0389eb	-0.002007122
132	0x3d05b49f	0.032642957
133	0xbbf21fde	-0.007389053
134	0x3a834467	0.0010014892
135	0xbbdf79ce	-0.00681994
136	0xbb59b900	-0.003322184
137	0xbcc17e27	-0.023619724
138	0xbdadb10d	-0.084810354
139	0xbdf8087e	-0.12110995
140	0xbea1d56f	-0.3160815
141	0x3d78aaf0	0.060709894
142	0xbd93f314	-0.07224098
143	0x3d83857e	0.06421946
144	0x3c1b7d10	0.009490266
145	0x3d916b3a	0.0710053
146	0xbd1c14f5	-0.038105924
147	0xbd9683d5	-0.07349364
148	0xbdcd5a94	-0.10027042
149	0xbda69a97	-0.081349544
150	0xbc0d1992	-0.0086120535
151	0x3d93c687	0.072156005
152	0xbcf8b9a3	-0.030361956
153	0xbd7fd825	-0.06246199
154	0xbd75310a	-0.05986122
155	0x3d8455bc	0.06461665
156	0xbccc7675	-0.024958828
157	0x3dbb8001	0.09155274
158	0x3dd6dff8	0.104919374
159	0xbce7a354	-0.028276123
160	0xbd950532	-0.072763816
161	0x3d9cdecc	0.07659683
162	0xbd76d31a	-0.060259916
163	0x3cd04678	0.025424227
164	0x3d5ec3fb	0.05438612
165	0xbddd29f4	-0.107990175
166	0x3c4a01ed	0.012329561
167	0x3ccf32a3	0.0252927
168	0x3ccd4e1c	0.02506166
169	0x3d2eb7be	0.0426557
170	0x3deeabd5	0.11653868
171	0x3cba0efa	0.02271222
172	0x3c4a01ed	0.012329561
173	0x011ca920	2.8774016e-38
174	0xbc0c024b	-0.008545469
175	0xbb084891	-0.0020795206
176	0x3d846a31	0.06465567
177	0xbcc6a589	-0.024248855
178	0xbd4e6c54	-0.05039628
179	0x3cbba3ce	0.022905257
180	0xbd584c3b	-0.052807074
181	0x026d3758	1.7427893e-37
182	0xbb9b7396	-0.0047440035
183	0xbc81726a	-0.015801627
184	0xbc8b2e1f	-0.016989766
185	0xbd035fbf	-0.032073732
186	0xbced64f6	-0.028978806
187	0x3b984a75	0.004647548
188	0xbd08b6c1	-0.033377413
189	0xbc98e2f7	-0.018662913
190	0x3cdf3c34	0.027250387
191	0x3adfebd1	0.0017083829
192	0xbce78405	-0.028261194
193	0xbc3f991f	-0.011694222
194	0xbd2cfa3d	-0.042230833
195	0x3c7effe3	0.015563938
196	0xbc96d9e0	-0.018414438
197	0x3e23ab76	0.15983376
198	0xbc203c27	-0.009779966
199	0x3d4d2a81	0.050089363
200	0xbdf2b179	-0.118502565
201	0x3d139cc9	0.036038194
202	0xbd567dce	-0.05236607
203	0x3cc81a7c	0.024426691
204	0xbd223097	-0.03959712
205	0xbca79f9e	-0.020461854
206	0x3c2db3f5	0.010601987
207	0x3dee9a15	0.116504826
208	0xbd32b948	-0.04363373
209	0xbd8da5bf	-0.06916379
210	0x3d8d032b	0.0688537
211	0xbd7a6cad	-0.061138798
212	0xbcf870d6	-0.030327242
213	0x3daf79c4	0.08568147
214	0x3d574839	0.05255911
215	0xbd9470c1	-0.072480686
216	0x3d533a61	0.051569346
217	0x3d12744c	0.03575544
218	0x3c1dd5ca	0.009633491
219	0x3df16a29	0.117878266
220	0xbd983c31	-0.074333556
221	0x3b862add	0.004094465
222	0x3c2c3f1d	0.010513094
223	0x3ce7db05	0.028302679
224	0x3e13c365	0.14430006
225	0xbe1a36eb	-0.15060012
226	0x3d1b1e3f	0.03787064
227	0x3d79bd57	0.060971584
228	0xbc63a452	-0.0138941575
229	0x3c89a5f6	0.01680277
230	0xbe000745	-0.12502773
231	0x3c84c925	0.016209194
232	0x3cf0c49c	0.029390626
233	0xbd8b3c8c	-0.06798658
234	0x3b92daf1	0.0044816663
235	0x3d0142b7	0.031557765
236	0xbc328c8e	-0.010897769
237	0x3ac9acdd	0.00153866
238	0xbd8fbbca	-0.0701824
239	0xbdde07c4	-0.10841325
240	0x3da1a18e	0.07892142
241	0xbd9f1b68	-0.07768899
242	0x3c197919	0.009367251
243	0x3aa7c7ee	0.0012800673
244	0x3bf05b60	0.0073351115
245	0xbce93e58	-0.02847211
246	0xbc20a3ec	-0.009804707
247	0xbd783b7e	-0.06060361
248	0x3bf96385	0.0076107406
249	0x3d2ce82a	0.042213596
250	0xbd445bfa	-0.04793928
251	0xbc08dcf3	-0.00835346
252	0x3d0c2cb3	0.034222316
253	0xbcfbc384	-0.030732878
254	0xbcee8065	-0.029113958
255	0x3be3ac92	0.006948062
