models/cvae_L32_H256_B1.000_LR5e-04.pt (torch, 743517 bytes, 13 tensors)

encoder.0.weight f4 [256, 46]
00000000: aaab e2bd f2fe 9b3d 2909 823d 9643 063e
00000010: c327 e0bc 7020 c9bc e183 b4bd 3165 cebd
00000020: bde1 a43d a35e 363d 464b c8bd 3009 ba3d
00000030: ce37 7a3d eb0e 96bd 7d69 e33d 6b14 003d
00000040: dc5d fabc c4c7 d43c ecb8 173d 7303 1abd
00000050: fead 98bd a0f8 c2bc 6de7 f93d 987e 13bd
00000060: ffd2 183e ccc1 04bd 039f fb3a 18dc c63d
00000070: de0c 8dbd 52db 96bc f877 23bc c145 0bb9
00000080: 4e29 8abd e8a9 a4bd 856f 863d 57d2 3e3d
00000090: 6903 713a b245 0bb9 873d d6bc 8d0f 85bc
000000a0: abdf b43c 7fb0 e53c 3b2e 0bbe 979f 2fbd
000000b0: 2ccf 49bc 7806 68bc 4baf c6bc 9f11 cd3d
000000c0: 896f 1a3d f272 a8be c100 54bc 7558 dc3d
000000d0: 7462 babd 18b7 34bd 151f 3d3c 2138 263d
000000e0: 315d 0c3c eb1e 79bc 438e a0bd 5e39 a03d
000000f0: 882e 55bd a6ed 1d3d a753 5bbd 11ef 31bd
00000100: 1f66 45bd 4768 13bc d688 153c 68c8 bdbc
00000110: 8ceb f63d 2e59 debc 857f edbd 4aba 15bd
00000120: b344 4e3d ae0b aa3d 2a81 f23d fae6 beba
00000130: d2b4 6b3c 544c 1102 7b06 833d 6952 033d
00000140: 82e7 dd3d f77c 963c 28ea 28bc 48cc 3500
00000150: 0bed 44bc df75 83bd 2346 3d3c 23d9 dcbc
00000160: 1a2d b13d dc9b b83b 20c1 943d cfd3 cb3c
00000170: 3a47 afbd 0cec 503d 1b4d 20bd 3d09 1c3d
00000180: fa8a b0bb 64d2 dfbc a71c b9bc f462 86bd
00000190: 29fe 563c 09d9 9c3c 5043 ed3c a006 94bc
000001a0: 8815 17bd 4e31 89bc 66b6 433c 9244 b33d
000001b0: a265 2abc 3b02 ecbc ea54 53bd 6510 1abd
000001c0: bf5c 26bd 7384 933d 3b36 b0bc e6f8 06bd
000001d0: bb4f 9c3d 9457 ecbc c7cb bfba b516 e93c
000001e0: cc23 39bb e887 c33a 42e8 49b8 f79d 8900
000001f0: 634a 82bc 4d61 3bbd 8970 40bd 28d3 4f3a
00000200: a66c 1e3a 48b4 2e01 c8e7 49b8 33d9 92bc
00000210: 9f61 01bc 1eda 51bd 74b4 07bc 5fb2 98bb
00000220: 1a13 563b 8bfc 1fba 2120 ffbd 68bf 83bd
00000230: d0a9 85bb 0c17 ea3d a823 10bd b7b8 f7bc
00000240: 162a 04bc 84b1 a23d 1c5f 7a3d 01d2 513c
00000250: f517 d2bd bcc8 2d3d fc40 78bc 2663 203c
00000260: 4972 31bd 8ec5 073d ff62 8b3d 2b9d fdbc
00000270: 7036 ac3d 7e15 a6bb a496 9cbd 57d9 5abc
00000280: 616c 06be bfa4 c13d a0be bb3d a53f c33c
00000290: 6233 e0bc 89d3 4f3d 0902 64bd f654 c5bc
000002a0: 7ed7 ec3a 9b31 533a d51e acbd 189c 8abd
000002b0: eeed 7ebc abc8 c03b 6ada b5b8 ab31 533a
000002c0: 7ad7 ec3a b9ac b13d 818b 433c c672 1fbc
000002d0: 8597 9b3c f0c9 b43d 3846 12bc 15dc 043b
000002e0: 82b4 b93d 2cb5 2bbd 4ef3 abbd 0869 45be
000002f0: 1123 553d fb19 e8bd 1325 c239 026c c73d
00000300: 7dab 563d a4fd 07be 5a35 523d 1c8c 37bd
00000310: 583f c93c cfa6 f3bc 0a04 173d e1cf 033d
00000320: 65ee 8ebc f447 53bc d4fc acbc bff1 5c3d
00000330: 8649 823d 3de8 a8bd b117 c9bd 5b35 ca3c
00000340: 91c1 9d3d 8287 6dbd 75bc a03d 348c c33b
00000350: 6780 823d d15c 1bbb 34b8 d6aa fe97 1aba
00000360: c01b a13d 6952 2dbd 5edf c6bc a91d f03a
00000370: f74f d93a fba1 edba bd92 deaa c238 d13d
00000380: 7d58 833d 66e5 72bd f4aa acbc fc5e b53d
00000390: dfdf 803a f959 2fbb a809 9c3d 4418 8a3d
000003a0: 23d5 933d de86 f83d ea70 84bc 66fc 9abd
000003b0: 2643 d3bc 8dc7 6bbd 2ffd 173d a29c 3e3d
000003c0: fb02 5739 a69f bb3c c830 813d 92d6 5bbc
000003d0: a9d0 63bd 3dce 9cbc d642 adbb a187 afba
000003e0: edeb 49bd be75 d93c 443d a73b 4488 f03a
000003f0: 2b7e bb3c f8c7 393d ca6a 8c3c 9ca3 213e
-0.110678986 0.07616986 0.063494034 0.1311172 -0.02736271 -0.0245516 -0.088142164 -0.100778945
0.08050869 0.044523846 -0.09779982 0.090837836 0.061088376 -0.07327064 0.11104105 0.031269472
-0.030562334 0.025974162 0.03704159 -0.037600946 -0.074550614 -0.023800194 0.12202344 -0.0360094
0.14924239 -0.03241138 0.001919717 0.09709948 -0.0688722 -0.018415127 -0.009977333 -0.00013282058
-0.067461595 -0.080402195 0.065642394 0.046587314 0.00091939286 -0.00013282037 -0.026152385 -0.016242767
0.02207931 0.028038261 -0.13591854 -0.042876806 -0.01231746 -0.0141616985 -0.024253508 0.100131266
0.037704024 -0.32900196 -0.012939633 0.10759059 -0.0910081 -0.044119924 0.011543055 0.040580872
0.00856714 -0.015205125 -0.07839634 0.07823442 -0.05204633 0.038556717 -0.053546574 -0.043440882
-0.048193093 -0.00899703 0.0091268625 -0.02316685 0.12056646 -0.027142134 -0.11596588 -0.036554612
0.050358485 0.08303009 0.11841042 -0.0014564686 0.014386373 1.0674823e-37 0.063977204 0.032061014
0.10835172 0.018370135 -0.010309733 4.940564e-39 -0.012019406 -0.064189665 0.011552366 -0.026959008
0.086511806 0.0056338143 0.07263398 0.024881272 -0.08558507 0.05100636 -0.039136034 0.038094748
-0.005387661 -0.027322002 -0.02259667 -0.065618426 0.01312212 0.01914646 0.028962761 -0.018069565
-0.03688577 -0.016747143 0.011945343 0.08753313 -0.010400208 -0.028809657 -0.051594652 -0.03761329
-0.040615793 0.07202997 -0.021510234 -0.03295221 0.07632395 -0.028850354 -0.0014632874 0.02845321
-0.0028250096 0.0014917823 -4.813844e-05 1.263813e-38 -0.015904611 -0.04574709 -0.046982322 0.0007927888
0.00060434116 3.2088098e-38 -4.8137998e-05 -0.017925834 -0.00789681 -0.051233403 -0.0082827695 -0.0046599354
0.0032665194 -0.00061030005 -0.124573 -0.06432992 -0.004079081 0.11430177 -0.035190254 -0.030239446
-0.008066675 0.07944015 0.06112586 0.0128064165 -0.10258476 0.042427763 -0.015152212 0.009789264
-0.04332188 0.033147387 0.068059914 -0.030958733 0.08408821 -0.00506848 -0.0764592 -0.013357482
-0.13127281 0.09455251 0.09167218 0.023834059 -0.027368251 0.050738845 -0.055666003 -0.024088364
0.0018069593 0.0008056403 -0.08404318 -0.06768054 -0.015559657 0.0058832965 -8.671435e-05 0.00080564123
0.0018069588 0.08675522 0.011935116 -0.009731954 0.018993149 0.08827579 -0.008927874 0.002027278
0.09067632 -0.041920826 -0.08396016 -0.19278347 0.052035395 -0.113330804 0.00037030186 0.09737398
0.052409638 -0.1328035 0.05132041 -0.044811353 0.024566337 -0.029742626 0.036869086 0.03218067
-0.01744766 -0.012895573 -0.021116652 0.053941485 0.0636168 -0.08247421 -0.09818972 0.024683645
0.077029355 -0.05799056 0.07848445 0.0059676412 0.06372147 -0.0023706446 -3.8141853e-13 -0.00058972824
0.07866621 -0.04231492 -0.024276432 0.0018319386 0.0016579618 -0.0018129939 -3.9536942e-13 0.10215904
0.06413362 -0.059300803 -0.02107761 0.088560075 0.0009832344 -0.0026756509 0.07619029 0.067429096
0.07218387 0.12135099 -0.016167123 -0.075676724 -0.025788855 -0.057563353 0.03710669 0.046536095
0.00020505108 0.022903275 0.063081324 -0.013417857 -0.055618916 -0.01914131 -0.0052875085 -0.0013391861
-0.049297262 0.026545402 0.005103739 0.0018351157 0.02288731 0.04535672 0.017140765 0.15785068

encoder.0.bias f4 [256]
00000000: f6c0 aebd f598 933c d14b bdbd 0c87 0bbe
00000010: e6a9 c7bd 85e9 173e d012 49bc a160 c03d
00000020: 08ac 1ebe cfe5 b3bd 2eb2 053c fd08 14be
00000030: 8dc5 003e ba5a 5a3d 92ad bd3d 8c51 16bd
00000040: 9d15 803a b225 9dbd aaf2 e9bd 3d9d 3a3d
00000050: 4355 563d 2faf 043e 300b 47bd 7816 edbb
00000060: e06d dbbc c419 ba3d aa34 523d 1958 8c3d
00000070: 8034 633d ab13 0a3e 53b0 5f3d d9da a7bd
00000080: a04b 47bd a183 4cbc c62f 22bd 45c8 0a3e
00000090: 74eb 14be f20f ac3c 6a87 85bd 5649 933d
000000a0: 6e45 423d f1e1 dfbd 4941 ef3c 8af5 683d
000000b0: eeef 3d3d 4476 e3bd b72f a13d b819 ef3d
000000c0: 89f6 0d3e a0ca a03d 4681 1d39 39cb 07be
000000d0: d4fe 4e3d 65e7 bc3c 3fe8 6c3c 9e31 87bc
000000e0: bafc 9d3d d8e4 05be df5d 5d3c 213e 073e
000000f0: d971 bd3d 2647 c5bc 4bb0 cf3d b6fa cdbd
00000100: 59fc c83d 78e5 f63d a8ce 9bbd fba1 31bd
00000110: 495c 133e 7c3c ef3c 4b8a 7dbd 771d 183e
00000120: 1f84 bfbd 0a4a 25bd 4897 34bd d580 04be
00000130: 129a fdbd 5893 523d 0944 8c3d f15b 273d
00000140: 0e74 4b3d a84a bebc 46e4 533e 9eff fc3d
00000150: 615f eabd fde4 72bd 2311 f6bd 30bb 9c3c
00000160: ea24 a5bd 7ffc 30bd c657 0b39 2c99 68bd
00000170: 6677 cbbd 02ce af3b a00c b73d 45b5 0f3d
00000180: 9033 dcbd 9d79 8f3d e7d8 8dbc 63dd c33d
00000190: d406 cb3d a651 74bc 6544 4f3d b105 373d
000001a0: 8760 c8bd c412 8cbd e6ea 98bd 8e42 5f3d
000001b0: 7e00 f4bd 2d45 ee3d 46bb dc3b 421e 89bc
000001c0: 077a 31bd d4eb 8f3d 621a 14bc d03a d6bd
000001d0: 8399 7abd 6aeb 093e 2757 143d 35cf 073e
000001e0: f566 063e e484 9abd adb3 b9bd 1270 10be
000001f0: e9ef b23c a9d1 6cbc 9d89 b43c 92bc 0fbd
00000200: f0a0 22bd 0f2b 563c 05e3 0bbe 6062 5c3c
00000210: 4458 a2bc 7379 dabd c291 91bd 9061 5ebd
00000220: 0c66 503d fc45 16bd ad34 cebd dc0a ee3d
00000230: e2a4 87bd 1375 dd3c dfc9 203d c0cb 91bd
00000240: 0a8f a73d a575 a83d 7c48 91bd 648d c8bd
00000250: b769 f53b 655e c6bd 2084 0cbc 322d 943d
00000260: 606d d1bd ff78 37bd 2e07 9dbc ca4e 963d
00000270: 0831 b4bd 93cf 233e c7f0 5abd c319 513d
00000280: cd9f 9e3d 9cb3 c2bc 107c c7bd 55eb 6d3d
00000290: ccc7 abbd 153b af3c 800a 373d 5175 afbd
000002a0: 0596 83bd f9f1 85bd 31d0 a83b 418f 223d
000002b0: e541 33be 3a13 c23c db89 dabd ba9f d43d
000002c0: 74ee 413e f1a8 be3c a11b aabc 4491 1cbd
000002d0: adc1 88bd 762a a43b ebe9 36bd 93eb d43d
000002e0: 4b00 ef3b a54e c03d 0efb 8a3d afcb 22bb
000002f0: 48ba 273e 79da 0ebd 9da0 debc 6452 253d
00000300: a197 903b 0870 5bbd 86f9 c33d 96a0 c1bd
00000310: 2de6 c1bc 0375 86bd a7c6 483e 364a c53d
00000320: 1956 0dbc aa57 653c b1b7 443d f922 00bd
00000330: 3168 053d c67b b9bc 5896 00bd ebbb 0fbd
00000340: dbcb 12bd 0fed 563d 76eb b0bb 67af a13d
00000350: 6dcf ec3d 1558 cdbd d74d 04be 688a cb3b
00000360: fbd8 8f3d 42eb e23d 212b 443d a99f 773d
00000370: d09b 6a3d bc11 a8bd 482b 0a3d b8dc babd
00000380: 1b5d 163d 4132 c03d feed 123e df73 debc
00000390: 5dc0 99bc 1ae9 06bd df33 013e 1e91 8a3c
000003a0: 1b42 c3bd de68 523c d089 0ebd 63a9 103e
000003b0: fbf4 14be f0c9 293d f902 37bb 4d0b 023e
000003c0: 37d7 7ebd e5ef f8bd d53c 9bbd 113a 2abd
000003d0: 9cda 2abd f65a f1bd 4f20 06be 9f8f 883c
000003e0: f723 17bc 856f 85bb 48bc 82bc d552 91bd
000003f0: 5327 5ebd 4ccf a23b 6fae e83c 4a58 fbbd
-0.08532898 0.018017272 -0.092429765 -0.13625735 -0.097492024 0.14835174 -0.012272552 0.093934305
-0.15495312 -0.08784067 0.008160157 -0.14456554 0.1257536 0.05330918 0.092616215 -0.036698863
0.0009772066 -0.076732054 -0.114232376 0.04556011 0.052327406 0.12957452 -0.048594654 -0.0072353445
-0.02678579 0.09086946 0.051319756 0.06852741 0.05546999 0.13484065 0.054611515 -0.08196039
-0.048656106 -0.012482555 -0.03959634 0.1355296 -0.14542943 0.021003697 -0.06519969 0.07191722
0.047429495 -0.10931767 0.029205935 0.05687479 0.046371393 -0.11106542 0.07870429 0.11674827
0.13863577 0.07851148 0.00015020845 -0.13261117 0.05053599 0.023059556 0.014459669 -0.016503152
0.077142194 -0.13075578 0.01351115 0.13207294 0.0925023 -0.024081778 0.10141047 -0.10057585
0.098137565 0.120554864 -0.07607776 -0.043367367 0.14390673 0.029203646 -0.061899465 0.1485499
-0.09351372 -0.040353812 -0.044089586 -0.1293977 -0.12382902 0.05141005 0.06848914 0.040859167
0.049671225 -0.023228958 0.20692548 0.123534426 -0.11443973 -0.05930041 -0.12014987 0.019132227
-0.080636814 -0.04320955 0.00013288771 -0.0567867 -0.09934883 0.005365134 0.08937955 0.03508498
-0.10752022 0.07005618 -0.017315341 0.095637105 0.09913412 -0.014912045 0.050602335 0.044683162
-0.09784036 -0.06839517 -0.07466678 0.05450683 -0.119141564 0.11634288 0.006736192 -0.01673806
-0.043329265 0.070274025 -0.009039493 -0.10460436 -0.061181556 0.1346871 0.036215927 0.13262637
0.13125212 -0.07544878 -0.090674736 -0.14105251 0.021842914 -0.014454284 0.022038275 -0.035091944
-0.039704263 0.013071789 -0.1366082 0.013451189 -0.019817479 -0.10667696 -0.07107879 -0.05429226
0.05087857 -0.036687836 -0.10068641 0.11623165 -0.06623246 0.027033364 0.03925502 -0.0711894
0.081815794 0.08225564 -0.070939034 -0.09792593 0.007489409 -0.09685973 -0.008576423 0.07235183
-0.1022594 -0.044793125 -0.019168463 0.073392466 -0.087984145 0.15997152 -0.05345228 0.05104996
0.07745323 -0.023767285 -0.0974046 0.05808576 -0.083877176 0.021390477 0.044687748 -0.08567298
-0.06425098 -0.06540293 0.0051517715 0.0396874 -0.17505606 0.023690809 -0.10670825 0.10382028
0.18938619 0.023273917 -0.020765128 -0.038224474 -0.06677566 0.0050099446 -0.044656675 0.10396495
0.007293736 0.0939 0.06786166 -0.0024840643 0.16379654 -0.03487632 -0.027176196 0.040361777
0.004412607 -0.05357364 0.09569077 -0.094544575 -0.023669327 -0.06565287 0.1960703 0.09633295
-0.008626484 0.0139979515 0.048026744 -0.031283353 0.032570068 -0.022642028 -0.03139338 -0.035091322
-0.035838943 0.05247217 -0.005399163 0.078947835 0.11563001 -0.10026566 -0.12920319 0.0062115677
0.070238076 0.11080028 0.047892693 0.060455 0.0572775 -0.082065076 0.033732682 -0.0912413
0.036709886 0.09384585 0.143486 -0.027154861 -0.018768484 -0.032937147 0.12617444 0.0169149
-0.09534093 0.012842385 -0.034799397 0.14127116 -0.14546578 0.04145235 -0.0027925356 0.12699623
-0.062216964 -0.12155131 -0.07579962 -0.041559283 -0.04171239 -0.117849275 -0.13098262 0.016670046
-0.009224883 -0.004072132 -0.01595892 -0.07095877 -0.05423672 0.0049685594 0.028403489 -0.12272699

encoder.2.weight f4 [256, 256]
00000000: d09f d4bc 2db1 c1bb ca66 ae3b a639 44bd
00000010: 32b1 4a3d 7dd1 643d 7a0f 783d 4e6d f33c
00000020: 9f44 fb3b e4bd 8fbc ebd7 463d 3962 1dbd
00000030: 73aa 66bd b7e0 89bc 8ab0 3a3d b458 223d
00000040: 6bf3 323d fe68 bf3b f2fc 933c 0028 083d
00000050: 5900 4e3d 8166 953d 20b9 85b8 f0ca dd3c
00000060: 0232 80bc bf51 2e3d 1c05 d5bc 50f5 c33c
00000070: 39c3 4f3d 0261 e03c fcc0 99bb 066b 7cbc
00000080: 2d38 9a3c 76a6 22bd 59e5 963c 6db6 493d
00000090: 6893 fabc 1a51 053c 9f37 173d 0fbb 063d
000000a0: 10ec 323c 55c7 9abc f553 0e3d a7db 6bbd
000000b0: d47d 183d 2a56 de3c b8cc d43c 3739 d23b
000000c0: 9ef9 293c 10ca 933d 098a 893c b4e6 243d
000000d0: 3c22 a13c 4e22 cdbc 89ad 043d 2a18 c0bc
000000e0: 1357 103b 32bd 0ebb 30e6 d03c 09f0 263d
000000f0: 8a54 25bd 6b87 40bb b7dd 003c eed0 8d3c
00000100: 24cd 813d 84fb 863d b92e 92bc 0320 263b
00000110: d15a 8e3d 45c3 00bd ca9c 093d ba7a dc3c
00000120: 6a35 923b fbd4 073d 15e4 d5bc 358c 383d
00000130: 87d6 183c cd83 22bd 0afe 13bd dc85 233c
00000140: 8c94 043d 3ad8 e4bc a296 e53b c61f 77bd
00000150: dc63 c03c 97cd 293d 71be acbc 9e2c 693d
00000160: 22bc 0b3c 4ccb efbc ab06 91bc b1c6 2fbd
00000170: a36f 513d 8f3a 95bb e14b 403c b713 633d
00000180: 5f11 453d 04c6 143d 1d5e 283d 3927 97bc
00000190: 3950 5839 db14 acbc 3b0b 8fbc 568f 1e3d
000001a0: e517 f3bc 30af a13b b5e9 d73c b312 c13c
000001b0: f21d b4bc 6584 2d3d 5e64 a43c 057d 3b3d
000001c0: 96a1 883c 9517 9b3d 6584 ebbc e446 2fbc
000001d0: e9f5 253c a1d1 ad3c 32b3 a5bb d571 5e3d
000001e0: c4fe 6c3c a5dd a83b 021d 7b3d 8c08 033d
000001f0: 18d4 7e3b 6f5d c8bc d4c6 0a3d 00da 2a3d
00000200: f291 463d b663 4cbc a2c8 88ba 4b21 483d
00000210: bd6e 403a 5fed f83c b95d 023d b513 433d
00000220: 946c 21bc 7db6 743d eb4b 68bc 024e 613b
00000230: 6fcb 103d 53d3 ad3b ce12 363c 1932 68ba
00000240: 5fac 613c 396e 3f3d 8487 1ebc e569 d7bb
00000250: 9c8e f53c fbab 033d 15e7 14bd 8904 06bd
00000260: 852a ed3c b412 da3b adf5 26bd 40e1 c33b
00000270: 161c 303c 39ce 433d ab11 123d 79da 50bd
00000280: ee30 85bd 9d78 d7bb 9f86 f23c 40b7 80bc
00000290: 37f5 c0bc 67da fdbb f284 843d f58e 313c
000002a0: 005c 28bd 29bd c1bb 0bd1 313b 3c0a 2cbc
000002b0: 297d 9dbc 44f9 723c 85c1 7d3c 7dff 02bd
000002c0: 673c 313d 72ec f4b9 bef1 873c dd4c 4bbc
000002d0: 4470 71bd 2ce2 28bd 6dbd e6bc 5685 c93c
000002e0: 2afe 33bc e638 9f3b 1c8f 59bd 92e8 45bd
000002f0: e0f1 8d3d a2da 913c b171 5b3c cb9f afbc
00000300: 854e 0cbd d1fd 453c 7962 043d a871 ccbc
00000310: 1dea d5bc 1f62 743d 8241 abbc bf45 92bc
00000320: 9d6f 2ebd e0a5 813d 07c4 c8bc bbe0 10bd
00000330: 874b 42bc 0b67 883c 6cae 9b3d 864f 01bc
00000340: 4295 f03c 5b05 36bd 8852 533d 6658 72bc
00000350: fba5 663d 24df 0ebd 06bd a4ba a94f bfbb
00000360: dfb8 033c 849a 643c e323 dd3c 017c 35bd
00000370: e6e0 05bd 8957 8c3c a27c d5bc 78af 1d3d
00000380: 4fba 433c e147 f23c 7aef 0abb fa37 55bd
00000390: a754 cabc 3442 f83c ed47 903c 9015 df3c
000003a0: 8d7a 4a3d 9721 bebb 387a e1bc b393 3ebc
000003b0: 46cf 113c 4462 6a3d 5460 563d 22ed 56bc
000003c0: b5fb a8bc 33a0 08bd ef9e 2d3d 2c87 973c
000003d0: d834 05bc c4ad 153d 1270 f23b 59db 7a3d
000003e0: d95a 91bc cc8e 7f38 10c7 14bb 4339 1a3d
000003f0: 951d fa3b 0127 b4bc f4dc a1bc 1ef0 1ebd
-0.02595511 -0.0059110136 0.005322312 -0.04790654 0.049485393 0.055863846 0.060561635 0.029715206
0.0076680924 -0.017546602 0.04854576 -0.03842375 -0.056314897 -0.016830785 0.045578517 0.039635375
0.043689173 0.0058413735 0.01806495 0.033241272 0.0502933 0.07294942 -6.3764164e-05 0.027074307
-0.015648846 0.042558428 -0.026003413 0.023920685 0.05072329 0.027390007 -0.004692195 -0.015406376
0.018825615 -0.03970953 0.018419908 0.04924624 -0.030587867 0.008137012 0.03691828 0.032893237
0.0109205395 -0.018893877 0.034748036 -0.057582524 0.037229374 0.027140696 0.025976524 0.006415512
0.010374455 0.07216275 0.016789453 0.04025908 0.019669645 -0.025040772 0.03239206 -0.023449022
0.0022024557 -0.002178025 0.025500387 0.04075626 -0.040363826 -0.002937759 0.007865361 0.01731154
0.063379556 0.065909415 -0.017844545 0.002534867 0.069509156 -0.031436224 0.03359679 0.02691399
0.004461934 0.0331621 -0.026109735 0.045055587 0.009328491 -0.039676476 -0.036130942 0.009980645
0.032368228 -0.027935136 0.007006482 -0.060333036 0.023485117 0.04145583 -0.021086903 0.056927316
0.008528741 -0.029271744 -0.017703375 -0.042914096 0.051131856 -0.0045541 0.011736841 0.055438723
0.04811227 0.036321655 0.04110538 -0.01845132 0.0002062925 -0.021006038 -0.01746141 0.038710915
-0.02967448 0.004934214 0.026356557 0.023568487 -0.021986935 0.04236259 0.02006739 0.045773525
0.016678613 0.07572857 -0.028749654 -0.010698054 0.01012943 0.021218123 -0.005056762 0.054307777
0.014465038 0.005153375 0.06130696 0.031990573 0.0038883742 -0.024458615 0.033881024 0.041711807
0.048479028 -0.012474945 -0.001043577 0.048859876 0.000734072 0.030386625 0.031827662 0.047626216
-0.009852547 0.059744347 -0.0141782565 0.0034378772 0.03535026 0.005304733 0.011112882 -0.0008857563
0.013774007 0.046735976 -0.009675864 -0.006573903 0.029975228 0.032146435 -0.03635319 -0.03271917
0.028950939 0.0066550616 -0.04076164 0.0059777796 0.010748884 0.04780409 0.03566138 -0.0509896
-0.06503473 -0.0065756575 0.029605208 -0.01571238 -0.023554428 -0.007746983 0.0647067 0.010837306
-0.041103363 -0.005912442 0.0027132656 -0.010500487 -0.01922472 0.014829937 0.015488033 -0.031981934
0.043270495 -0.00046715472 0.016594764 -0.012408462 -0.058944955 -0.04123132 -0.028166497 0.024599712
-0.01098589 0.0048590777 -0.053114995 -0.0483175 0.069308996 0.017804448 0.013393805 -0.0214385
-0.03425457 0.01208444 0.032320473 -0.02495654 -0.02611261 0.059663888 -0.02090526 -0.017855523
-0.04258691 0.06330466 -0.024507536 -0.03537057 -0.011858827 0.016650697 0.07601628 -0.007892495
0.029368047 -0.0444387 0.05159238 -0.014791584 0.056310635 -0.034880772 -0.001256854 -0.0058383537
0.008039682 0.013952855 0.026994651 -0.044307712 -0.032685183 0.017131584 -0.026060406 0.03849742
0.011946275 0.02957529 -0.0021199868 -0.052055337 -0.024698569 0.030305006 0.017612422 0.027231961
0.04943328 -0.005802344 -0.027524099 -0.011631894 0.0088995155 0.05722262 0.05233796 -0.01311806
-0.020627836 -0.033355903 0.0423879 0.018497072 -0.008130275 0.03654267 0.0073986137 0.061244342
-0.017743515 6.0929728e-05 -0.0022701658 0.037652265 0.007632921 -0.021991255 -0.019758679 -0.038803212

encoder.2.bias f4 [256]
00000000: b499 be3b c4e2 953c 4b5c 773d 8cd4 ab3c
00000010: f9b6 c0ba e5e9 a0bb fc5d 063d 38f9 283d
00000020: d1d4 8c3d 5d69 0b3d 7e51 613d d6be abbc
00000030: aef2 f93b 9186 243c b03b 50b5 c005 a2bd
00000040: b86b d43b 3781 9d3c cee6 7cbd 1f07 4c3c
00000050: 6118 b0a2 4a37 483c e4cc 7b82 75f5 b43c
00000060: 9039 ccab ce34 343d f028 943d 2c78 0bbc
00000070: 5918 eebc 6672 c599 a5d0 0cba da8e 633d
00000080: cd84 36b6 c291 f13c 7cb3 9b3b 824c 5b3d
00000090: a86a 5e3c 2c27 b53b b735 413d db8e 803d
000000a0: f926 afbd 8b95 9a3c 373b 3a3c 5a57 3dbb
000000b0: f90f 9a3c d17f 813c 4663 42b5 28c2 3fbc
000000c0: 4ead 693c a309 ed3c 72e9 903d 194d a7b5
000000d0: b4e3 1b3d 12f3 993d 7df3 7482 8af2 043c
000000e0: 8b3b 3e3d e47e 14bd a7ea 05a1 524a 273d
000000f0: 3dd1 833d 15d4 943d 8fd7 78b5 52d8 1ebc
00000100: e14d 6cbc b2e0 ab3c 4d6c e13d 8cc3 5889
00000110: 05ee 8a3d 1589 4ebb 6e42 443d 1f99 a93b
00000120: 0b51 c43d 7873 9dbb ef52 763d ee41 dabc
00000130: a316 adbc 7ae4 2c96 46a2 8db7 978e 983d
00000140: 4864 fc3c dc8f 9b3d 8f40 7bac a59e 29bc
00000150: dcd9 dcbc 68c2 0f85 173d 3c3d 82aa d13b
00000160: 7bdf 93bc a2e6 873d 857a 673d a9b5 54bb
00000170: 00d8 8e3c 8f00 b4bc 76db de3c 6368 98bd
00000180: 43ea e93c 6f75 2384 a8de 2cbc 47c3 6dbb
00000190: 7b79 a33c a981 1ebc af0a 4b90 2667 a6bb
000001a0: 904b 5e3d 8c07 06ba ef92 cabb 0233 b0bc
000001b0: e3c4 bc3c 84bd d1bc 7a20 d0bd a1fc 8d3d
000001c0: 0af5 693d caad a23c bd4f 5e3c 7c3a 4fbb
000001d0: 13ed 83bc 66ca 0a3d cf8e 0f3c f8b9 ed3c
000001e0: 183e 313d 0ec1 8bbc 89c7 253c 14c1 a9bc
000001f0: 7fd3 8b3d cbc2 0239 d0d7 aa3d b859 973c
00000200: a955 b33d 15f1 1283 437a 103d f928 dbbc
00000210: 7ca7 513d 4efa b0bd f915 cc3d a8e3 b93d
00000220: 0280 50bd 3397 893b 3b2a c63d eed9 51a4
00000230: 0ed6 0a3d a27d 5bb7 c3aa c83d 03f0 d1bc
00000240: ef4e 503d abf0 013c 60e1 26b7 aac1 03be
00000250: f73a 803a 9802 2284 523b cbb1 142f d2a2
00000260: ba30 a4bc 9b56 beb9 e6c2 483d 9fd3 cd3c
00000270: 532c b7bc e538 843b 501b f2bd 01ba 083c
00000280: a21d 043d 3cb4 4d3d cc69 fb3c d0d2 1d3c
00000290: e2ab 909d cbd9 6abc c0a5 d93c affc 9f3d
000002a0: 13bb cbbc c387 fcbc cf3f e4ba 8886 463d
000002b0: 0080 09bd bcc0 023d fa4f e9ba 5faa 273d
000002c0: 2de0 8eb6 9373 e23c 3748 c53b 0dbf 413d
000002d0: a190 eb3c b6e4 8abd 2315 793d 5488 353c
000002e0: ac16 4b3d d5f1 fdb3 4d75 b1ba 4a6b 0d3d
000002f0: 06c2 0b3d 6855 823d 0548 99bc 6ce1 2d3c
00000300: dd98 163d 8172 74b9 8ee4 a43c 336b f23c
00000310: cd40 af3c cd9a 823d da80 ea3b 9246 09b6
00000320: 6e24 85bc 0d4f 473d 3afc 719d 829e 9e3c
00000330: 0341 fc3b 6493 95b5 e644 b5bc accd c23d
00000340: 7cf9 e7bc 964c b63d e5ca 95bc 5357 ceb4
00000350: 1ae4 0f3d be53 2abc 1fbf 8e3d aaf2 1abc
00000360: 8625 a9bc 5e3d 313d 68dd 8b3c 549a b33c
00000370: 97c6 cd9b aa89 14be cada bdbc 4f90 86ba
00000380: db5d a5bc a2d1 d03a d23b abbc b3ff aebc
00000390: ed8b 59bc c141 bf3a a30c 19bd 1c8c a43d
000003a0: 0776 503d b3f1 8f83 d4e0 3cbd 41fb 49bb
000003b0: a3b0 963d c1ab a2bb c749 873d ad5c 793d
000003c0: 04c3 f9bc 5c72 6a3d a8ab 893c 2f3d 243d
000003d0: 8db4 3a3d 0b82 c6ba d2c7 b1bc 2feb eb3c
000003e0: a95b 8ebc d4f8 0e3d a56a 45bd afa8 63bc
000003f0: 02ea baa6 7d82 5dbc 8f90 f4b6 acd2 27bd
0.0058166627 0.018296607 0.06039075 0.020975374 -0.0014702968 -0.004910695 0.032804474 0.0412533
0.06876529 0.03403603 0.055009358 -0.020965021 0.0076278066 0.010041849 -7.7572895e-07 -0.07911253
0.0064825676 0.019226654 -0.06174355 0.01245287 -4.7730708e-18 0.012220213 -1.8499368e-37 0.0220897
-1.4511049e-12 0.04399567 0.07234371 -0.008512538 -0.029064344 -2.0415528e-23 -0.00053716666 0.055556156
-2.7197414e-06 0.029488448 0.004751621 0.05353976 0.0135752335 0.0055283513 0.047170367 0.062772475
-0.08552355 0.018870136 0.011366657 -0.0028891177 0.018806444 0.015808018 -7.2415094e-07 -0.011704005
0.01426251 0.02893526 0.07075776 -1.2464908e-06 0.03805895 0.07517065 -1.7996167e-37 0.008114466
0.046443503 -0.036253825 -4.5372713e-19 0.04084236 0.064363934 0.07267014 -9.270088e-07 -0.0096951295
-0.014422865 0.020981167 0.11006985 -2.6092e-33 0.0678368 -0.0031514813 0.047914915 0.005175724
0.0958577 -0.0048050247 0.060137685 -0.026642766 -0.021128958 -1.3966144e-25 -1.6884074e-05 0.07449072
0.030809537 0.075957984 -3.5705083e-12 -0.010352765 -0.026959352 -6.7595345e-36 0.045956697 0.0063985
-0.0180509 0.066357866 0.056513328 -0.003245691 0.017436981 -0.021972923 0.027204257 -0.07441785
0.028554088 -1.921448e-36 -0.010551132 -0.0036279724 0.019955387 -0.009674468 -4.004292e-29 -0.005078214
0.05427128 -0.0005112819 -0.0061820666 -0.021508697 0.023043102 -0.025603063 -0.101624444 0.06932951
0.057118453 0.01985826 0.013568816 -0.0031620553 -0.016104257 0.03388443 0.008762076 0.02901934
0.043272108 -0.01705983 0.010118374 -0.02072195 0.06827449 0.00012470332 0.08341944 0.018475398
0.08756573 -4.3182292e-37 0.035272848 -0.026752936 0.051185116 -0.08641492 0.099651285 0.09076625
-0.050903328 0.0041989326 0.096760236 -4.5504244e-17 0.033895545 -1.3082668e-05 0.09798195 -0.025627142
0.050856527 0.007930915 -9.946845e-06 -0.12866846 0.0009783198 -1.90442e-36 -5.9148215e-09 -5.697046e-18
-0.020042766 -0.0003630415 0.049013995 0.025125323 -0.022360003 0.0040351027 -0.11821616 0.008345128
0.032254823 0.050220713 0.030690096 0.009632781 -3.8294205e-21 -0.014334152 0.026568294 0.078118674
-0.024869477 -0.030826455 -0.0017414036 0.048468143 -0.033569336 0.031922087 -0.0017800324 0.040933963
-4.2580273e-06 0.027643 0.0060205716 0.04730134 0.028755488 -0.067819044 0.060811173 0.011079866
0.04958217 -1.18252196e-07 -0.0013538987 0.034526147 0.034120582 0.06363946 -0.0187111 0.010612827
0.036766876 -0.0002331231 0.020128515 0.029592132 0.021393204 0.06377182 0.0071564736 -2.0455668e-06
-0.016252723 0.048659373 -3.2026482e-21 0.019362692 0.0076981797 -1.1144261e-06 -0.02212758 0.09511885
-0.028317206 0.08901326 -0.018285224 -3.8434027e-07 0.035129644 -0.010395942 0.06970047 -0.00945727
-0.020647775 0.043271415 0.017073348 0.021924175 -3.404274e-22 -0.1450564 -0.023175616 -0.0010266396
-0.020186355 0.0015931616 -0.020902548 -0.021362161 -0.01327799 0.001459174 -0.037365567 0.08034536
0.05089381 -8.460276e-37 -0.04611285 -0.0030819925 0.073579095 -0.0049643223 0.06605869 0.060879398
-0.030488499 0.057237968 0.016805485 0.04009741 0.045582343 -0.0015144957 -0.021701727 0.028798668
-0.017377691 0.03490527 -0.048197407 -0.013895198 -1.2969771e-15 -0.01351988 -7.2885955e-06 -0.040972397

fc_mu.weight f4 [32, 256]
00000000: 0b3a a6ba cb02 a53a 5ec3 c03b eb20 06bc
00000010: 45dd 7abc a631 213d 70b8 80bc 6b9c abbb
00000020: 6cb8 c7bb 18dc 183b 6a61 febc 5d53 213a
00000030: c453 3d3c 8365 a43a 7f21 3f36 0707 283b
00000040: 49cd 09b8 c705 afba 96e4 cd3b 85b7 663b
00000050: b7de b722 5b51 793b 82aa 0401 a76a afba
00000060: ca97 d902 ba23 f9bb 178f b1bc 447a 8d3b
00000070: 2783 03bb 68e2 3983 8540 3d3c c9e9 b9ba
00000080: cdef 1cb2 73d8 1bbc 0bac 2f38 e968 a33b
00000090: 542b 133a 53e5 55b9 9335 80bc 94f2 12bc
000000a0: 48c5 08bb 528b 29bc cb53 723a cd20 eeb2
000000b0: 04b2 7eba fd3e cc3b ed7c 4cb1 f18b c73a
000000c0: 0977 5d3c e469 cd3c 7a08 e03a 2010 4c31
000000d0: 3403 1fbc 587a 933b 1066 2e81 9f0a 6cbc
000000e0: cf20 03bc 44c7 853b 0ae5 8c03 e68d 543b
000000f0: 1059 7b3b c8c3 2ebc abec caab d1ff 3e3b
00000100: 40ba dbbc 7bce 56bc 1c80 953c 64dd 2882
00000110: 7cfc 2c3a 0034 fe38 6005 b83a 7bf7 5339
00000120: 7f56 eabc 3049 693a 2275 a3bc 79d8 8d3c
00000130: d686 57ba eddb f202 3bd2 4035 0acd 693b
00000140: 81d4 26bb 92fb 57bc 0a9a 0283 c9e3 9233
00000150: cb44 76bb 0af5 f282 753f 9dbb c8f8 b739
00000160: 6607 b53c 8b93 ab3b 6537 8a3b 9d29 af3c
00000170: 7b22 5cba adc5 b6bc 1850 dfbb 6073 3fbb
00000180: 6dac 543c 872d ed80 ea72 073c be05 15bd
00000190: 6254 5c3a 77cd 14bb a868 4c02 994f e9ba
000001a0: ff27 ecbc 9bd6 12b2 ab7e aaba 8cf9 c93b
000001b0: 4bc7 183a 960b 30bb dcc7 573c 5f37 3dbc
000001c0: 7b62 cabb 55c9 26bc be1f 603b aa39 ba39
000001d0: d2ba 24bc d7a7 70bc 0fe7 623c 3c1f 06bc
000001e0: 1ac3 f23b 1ca0 fcba bf64 adbb dd96 963a
000001f0: c65d 57bc d912 cb38 2162 efbc 82e9 193a
00000200: 41d6 ab3a 24f7 1882 845e afba bcbb d639
00000210: ef71 cf3b 2518 233a fac4 da3c 08c8 6cbb
00000220: 21e9 0cba f1cd f539 d233 843b a37e 0822
00000230: 3479 a1ba be71 dab3 f0a8 4fbc 9421 d9bc
00000240: 881a 003c 7872 9dbb 23d6 1536 04d9 893b
00000250: 9dca cdb8 ea12 8002 2a66 3c2f 5000 8e03
00000260: e5be a43b a472 6aaf d307 cc3b 5588 89ba
00000270: 2076 d93a f823 2fbb 1f94 5dba 416b 133b
00000280: eb62 563c b23b 0ebc c084 4838 018c ca3c
00000290: 75a3 8e83 64e7 8bba 72b9 f43b 35ad 373b
000002a0: c8da b43c c29e 04bc ce2f 29bb 56e7 803c
000002b0: ce76 b1bb ec02 9bbc f3e0 6bbb 4df0 e43a
000002c0: 2304 3a34 52dc b8b8 a883 b13a 9ac4 b93c
000002d0: 0033 a6bb 202a 5f36 50d2 ccbc b9c5 16bc
000002e0: a89b d53b a3f4 36b1 003c aebb 2669 d43b
000002f0: 3dbb 253b a56f b13b ac84 633b 3184 f6b9
00000300: 2192 b93b 2f27 9e39 0267 683c d1c9 c13a
00000310: 8990 dc3a 6da3 f43b 0810 703c 1b2a bc33
00000320: a998 303a beed d53a 4f1b 0303 f26c 19bb
00000330: ca2c a4bb d0b0 b72b b86c f8bb 6f83 d53b
00000340: 74d1 a53c 343f c93b be31 2ebc ec5d 51b3
00000350: 0c64 963a 7ce2 eeba d2ad d83c 4079 20b4
00000360: bb03 6b3c 6c70 f03a d0d0 7b3a b8d4 d63b
00000370: 74e8 5316 7090 fabb ced0 52bc e4f4 7ab9
00000380: c7b0 a43b 38dd 473b 1598 b3bb 96ae aabb
00000390: 66d9 413a 4cea 0d3c d712 24bc 752e 783c
000003a0: a0bc 77bb 5408 8e81 efa3 1ebb 5b59 b436
000003b0: c1fe 993a 3890 1837 988d 6ebc 914a 0b3d
000003c0: 6878 293b b96c d73a c176 d53b 30dd a9bb
000003d0: 9fe4 043d 2fc7 803a c2de 5dbc fccc 93bb
000003e0: 763e 0c3b 1a93 b2bc 3c10 e93b 964a 063c
000003f0: 0428 f182 b910 bcb9 1e16 87a2 890f bc3b
-0.0012682093 0.0012589333 0.0058826646 -0.008186559 -0.015311544 0.03935399 -0.015712947 -0.0052371523
-0.006094983 0.0023324545 -0.03105231 0.00061540847 0.011555616 0.001254246 2.8480715e-06 0.0025638954
-3.2854532e-05 -0.0013353162 0.006283353 0.00352046 4.9838058e-18 0.0038042876 2.4366904e-38 -0.0013383225
3.1972407e-37 -0.007603136 -0.021674676 0.0043175537 -0.0020067187 -5.4626515e-37 0.011551027 -0.0014184053
-9.1349195e-09 -0.009512055 4.188348e-05 0.0049868715 0.00056140614 -0.00020398693 -0.015650546 -0.008968968
-0.0020869542 -0.010348158 0.00092440535 -2.7721763e-08 -0.00097158574 0.0062330947 -2.975692e-09 0.0015224201
0.01351715 0.025074907 0.001709237 2.9695073e-09 -0.0097053535 0.0045006685 -3.203198e-38 -0.014406829
-0.008003428 0.004082592 8.281045e-37 0.003243321 0.0038352646 -0.010666795 -1.4418652e-12 0.0029144178
-0.02682221 -0.013110752 0.018249564 -1.2406227e-37 0.00065989024 0.000121213496 0.0014039688 0.00020214722
-0.028605698 0.00088991504 -0.019953314 0.017315136 -0.0008221691 3.5684935e-37 7.18315e-07 0.0035675191
-0.0025456252 -0.013182538 -3.8380395e-37 6.840089e-08 -0.0037577625 -3.569935e-37 -0.0047988244 0.00035089836
0.022098254 0.0052360944 0.0042180293 0.021382147 -0.0008397472 -0.022311056 -0.006814968 -0.0029213056
0.012980563 -2.1781345e-38 0.008267144 -0.03638243 0.0008404908 -0.0022705474 1.5017588e-37 -0.0017800211
-0.028827665 -8.547114e-09 -0.0013007721 0.0061637815 0.0005828037 -0.0026862375 0.013170209 -0.011548846
-0.0061762906 -0.010179837 0.0034198607 0.00035519648 -0.010054307 -0.014688454 0.013849034 -0.008186158
0.007408512 -0.001927379 -0.005291551 0.0011489053 -0.013144916 9.683305e-05 -0.029221596 0.0005871282
0.0013110117 -1.1238122e-37 -0.0013379608 0.00040957134 0.0063307206 0.00062215544 0.026705254 -0.003612997
-0.0005375315 0.0004688348 0.004034498 1.8498478e-18 -0.0012319447 -1.0172106e-07 -0.012674555 -0.02650527
0.007818826 -0.0048049055 2.2327374e-06 0.0042067785 -9.8129014e-05 1.8818766e-37 1.7134796e-10 8.346082e-37
0.005027639 -2.1322905e-10 0.0062265187 -0.0010492901 0.001659099 -0.002672432 -0.0008452553 0.0022494348
0.013085107 -0.008681225 4.780735e-05 0.024724962 -8.383538e-37 -0.0010673818 0.007468396 0.0028026823
0.02207698 -0.008094491 -0.0025815847 0.01573531 -0.005415774 -0.018922292 -0.0035992234 0.0017466635
1.7324105e-07 -8.8148416e-05 0.0013543265 0.022676755 -0.0050719976 3.325411e-06 -0.025002629 -0.009202414
0.0065188 -2.6623546e-09 -0.005317211 0.0064822612 0.0025288605 0.0054149204 0.003471653 -0.00047019267
0.005663172 0.00030165302 0.014184715 0.0014784877 0.0016827743 0.007465771 0.01465226 8.762091e-08
0.00067366153 0.0016321463 3.852879e-37 -0.0023410884 -0.005010222 1.3052007e-12 -0.0075813197 0.0065159122
0.020241477 0.0061415676 -0.010631977 -4.8747026e-08 0.0011473908 -0.0018225457 0.026450071 -1.4945272e-07
0.014344151 0.0018344051 0.00096060056 0.00655612 1.7117794e-25 -0.007646613 -0.012867166 -0.00023933087
0.0050259563 0.0030496847 -0.005480776 -0.0052088005 0.00073947606 0.008661818 -0.010014257 0.015147795
-0.0037801638 -5.217451e-38 -0.0024206599 5.3748204e-06 0.0011748896 9.093485e-06 -0.014560126 0.03400666
0.0025859121 0.00164356 0.0065144007 -0.0051838383 0.032444593 0.0009824986 -0.013541879 -0.00451052
0.0021399534 -0.02179866 0.007112531 0.008196494 -3.5434735e-37 -0.00035870614 -3.661524e-18 0.0057391566

fc_mu.bias f4 [32]
00000000: 5ccd 11bc 8a98 69bb 5422 a6bc f0b3 183c
00000010: b498 aabc bd42 aa3c 112c 48bc ec81 4f3c
00000020: 91b4 0fbc a072 3f3c 1be6 c13b c322 ae3c
00000030: 72e8 71bd 5b9a 813c 1bf6 a2bb 66a0 c23b
00000040: 6f73 bebc e693 d8bc 152f cebc 2a34 0cbc
00000050: 2e81 8cba b0a0 003c ec0b bc3b 684d 50bc
00000060: 4255 cebc 3cc9 723c f7f7 a0ba 2419 043b
00000070: 9adf cebc 5106 04bd f891 8ebb a33c 8f3c
-0.008899059 -0.00356439 -0.02028004 0.009320244 -0.020824768 0.020783776 -0.0122175375 0.012665253
-0.008771078 0.011685044 0.0059173233 0.02125681 -0.059059568 0.015820673 -0.0049731857 0.005939531
-0.023248402 -0.026437711 -0.025168935 -0.008557359 -0.0010719651 0.007850811 0.005738726 -0.012713768
-0.025187138 0.014818486 -0.001228093 0.0020156587 -0.025253106 -0.032232586 -0.004350897 0.017484969

fc_logvar.weight f4 [32, 256]
00000000: 1d3b 8fb9 f206 3fb7 96ad 39ba 49cf 6e3a
00000010: 773b b03a 7610 92ba 6c24 25ba a405 05bb
00000020: c690 183b 225c c4ba 9269 1a3c e89f e1ba
00000030: 4c90 f43a 2fd6 89b9 c217 69ae 75de 9eb9
00000040: 41ab 14b5 c6ab 1bb8 87e0 9eba 277b 80b9
00000050: b080 9183 eaec b9ba a80b 4301 552b 663a
00000060: a4a4 9882 199d 2c3b 67a6 21bb 56e1 543b
00000070: 8a28 c7ba a878 9482 1a41 6eba 620e ecba
00000080: 7a59 6e98 baad 9cba dc29 66b3 4ce6 94bb
00000090: cd18 c038 fabf 803a c821 4f3b 0ceb 1fbb
000000a0: a391 3b3a e0cc 3a3a 04d0 10b9 1558 541e
000000b0: 923d 81b8 eaa6 b4bb 2250 5796 5ccc b2b8
000000c0: 404b 773b 4898 66ba 675e ec3a 234e 9892
000000d0: 0d6b 8dba f11b 143a 70ea 1d82 3377 d9ba
000000e0: 9d5e ea3a 5a49 54ba 0090 7581 7543 013a
000000f0: 9c06 cd3a 8a18 ab3a ddd3 aa0f ab49 ecb9
00000100: 9238 183b 17a9 293b 9552 ebba b81f 2882
00000110: a17d 253b 594f 0132 1844 073b fba4 54b5
00000120: 2d52 77bb 2ef6 8dba e98e 92ba 6cc5 403b
00000130: 4566 e4b9 66ca 4f81 8f17 77b4 634b f438
00000140: dce9 2f3a d76e 063b c549 7101 b57b 81ab
00000150: 52ce 9d39 b43c a082 6425 b2ba bc3c 16b7
00000160: 4ac1 25bb 66c1 77bb add5 173b 4466 61ba
00000170: bd90 76ba 0aff 023a 0ac4 123b be5b bd3a
00000180: fb3c cb3a 6242 d480 6d06 5338 af20 1f3b
00000190: 3095 6eba 7cb6 a139 be4c 1d01 2bbd 213b
000001a0: 5763 c73a 3508 1cad 7503 7aba 2fe0 aaba
000001b0: 5904 9bba bc97 8fba 536e abba b3ba 1936
000001c0: 484a 0a3b 0f40 cc3a 9dfa 3dba f381 78b0
000001d0: a972 8c3a e5dc a5bb 83de d9b9 e87f 273a
000001e0: 4a37 4abb ac70 23ba 3e6f a03a 214d f9b9
000001f0: 8e1b 3b3b c30b 76b3 8778 a83b faad fa39
00000200: 6579 8f3a fed0 b401 a8f9 f6ba 7aa3 15ba
00000210: a10d 97ba 2958 c5b9 3177 c2b9 e5bc 073b
00000220: 3859 8d3a 5a79 e639 8e04 b63a c41e f982
00000230: d229 02bb 371c 259d 3b10 823b 3b9a 0b3b
00000240: 0a95 1abc 536d 93bb 8606 021e c999 e939
00000250: 4d8a e3b1 c46b 8e01 924b 341a f3ad 5d82
00000260: a5bb 28bb 9e71 2983 eb1d cdba b231 143a
00000270: 603e 883a 72bf ceba a385 91ba 667b 12b7
00000280: fb59 263b 6d51 0bbb acb7 f939 45e2 bf39
00000290: ef58 3882 333c 9cb9 e085 28ba 803d eb39
000002a0: d761 953a b41f c7b9 bbbe 6236 dcb9 c2b9
000002b0: c846 74bb 4bcd baba 586a 1538 9774 5abb
000002c0: f2ef 67a0 af61 6cb8 41ea c6b7 666b 053b
000002d0: 529a 333b 4f31 f93a 6948 623b 5de0 26bb
000002e0: a54c 93ba 6a69 cd17 c94d 603a 5530 04bb
000002f0: e826 5fbb 5b4c 92ba f8dd 033a bdbd f6ba
00000300: 1c28 473b 9090 f32d 691c 263b f162 7bba
00000310: 7208 49b9 6d2c a1b9 37c8 b5ba f61e 0fa0
00000320: b1e6 133b 30df 123b 2629 6b82 ceb7 b439
00000330: a30b c1ba 564e 1a10 fa50 a1ba 5dda a1ba
00000340: b0af 00bb 9375 4fb9 c7d0 103b 77d8 42a1
00000350: 499b bdbb 0656 5abb 67fb 7338 f1f6 afbb
00000360: 37a3 e4ba b4ad 223b cbf9 00ba 1f21 4a3b
00000370: ae96 e202 7ba7 f73a 32e6 563b 16a6 522f
00000380: b1ea 013b ab0f 4b3a 5f41 4eba 9f5c c639
00000390: 5265 683b 4657 9a3a 465f a539 dd3e 53ba
000003a0: a804 603b a2d9 1681 ca81 abba f476 d32b
000003b0: e1c6 673b 6740 b42e a1db 0f3a d82e 593b
000003c0: 8810 2aba 661e 9b3b 1441 21b9 60ad 11ba
000003d0: d74c caba a8a8 f0ba 7d04 4a3a b856 373b
000003e0: d424 5ebb 0299 a23b 19fb 593a 2325 6bbb
000003f0: 2a45 0702 03dd 4cba 4fae 8e83 de77 83ba
-0.00027319128 -1.1386104e-05 -0.0007083056 0.00091098674 0.0013445456 -0.0011143822 -0.0006299678 -0.0020297552
0.002327965 -0.0014981071 0.009424584 -0.0017213793 0.0018658726 -0.00026290255 -5.2999168e-11 -0.00030301852
-5.5383504e-07 -3.7114856e-05 -0.0012121358 -0.00024505818 -8.551879e-37 -0.0014184986 3.5824206e-38 0.00087802607
-2.2428892e-37 0.0026338755 -0.0024665834 0.0032482943 -0.0015194577 -2.1815899e-37 -0.00090886804 -0.0018009658
-3.0805953e-24 -0.001195363 -5.358912e-08 -0.004544055 9.159893e-05 0.0009822838 0.0031605829 -0.0024401573
0.00071551854 0.00071258657 -0.00013810402 1.12414015e-20 -6.162668e-05 -0.005513062 -1.7392847e-25 -8.525766e-05
0.0037734061 -0.00087964954 0.0018033505 -9.611811e-28 -0.001078935 0.00056499155 -1.1601819e-37 -0.001659131
0.001788098 -0.00080980884 -4.5102708e-38 0.00049310114 0.0015642229 0.0013053578 1.6844901e-29 -0.00045068315
0.0023227078 0.002588814 -0.0017953689 -1.2351794e-37 0.0025251883 7.52683e-09 0.0020639952 -7.921623e-07
-0.003773819 -0.0010830814 -0.0011181507 0.0029414548 -0.00043563746 -3.816511e-38 -2.3012238e-07 0.000116488685
0.0006710568 0.0020512843 4.4317636e-38 -9.200337e-13 0.00030099094 -2.354473e-37 -0.0013591466 -8.9548375e-06
-0.0025292211 -0.0037804483 0.0023168132 -0.00085983076 -0.0009405723 0.000499711 0.002239468 0.0014446897
0.0015505844 -1.9492939e-38 5.0312305e-05 0.0024280956 -0.000910121 0.00030844274 2.8891406e-38 0.0024679403
0.0015212101 -8.869396e-12 -0.00095372583 -0.0013036783 -0.0011826857 -0.0010955255 -0.0013079144 2.290745e-06
0.0021101404 0.0015583056 -0.0007247122 -9.0406543e-10 0.0010715324 -0.005061733 -0.0004155525 0.0006389604
-0.0030855709 -0.0006234746 0.0012240184 -0.00047550446 0.002855036 -5.7287036e-08 0.005141321 0.00047813338
0.0010946213 6.6421446e-38 -0.0018842714 -0.0005708259 -0.0011524447 -0.00037640453 -0.00037091368 0.0020711955
0.0010784036 0.00043959433 0.0013886855 -3.660492e-37 -0.0019861353 -2.1852155e-21 0.00396922 0.0021301645
-0.009434948 -0.0044991164 6.883492e-21 0.00044555802 -6.6222925e-09 5.23172e-38 3.7284173e-23 -1.6286437e-37
-0.002574661 -4.9795062e-37 -0.0015649175 0.0005653157 0.0010394566 -0.0015773608 -0.0011102449 -8.731009e-06
0.0025383222 -0.002125825 0.00047629827 0.00036598943 -1.3543708e-37 -0.0002979949 -0.00064286403 0.00044868514
0.0011396956 -0.00037979858 3.3787644e-06 -0.0003714104 -0.0037273634 -0.0014251856 3.562341e-05 -0.0033333653
-1.9645852e-19 -5.635776e-05 -2.3712522e-05 0.0020358204 0.0027405214 0.0019011887 0.0034528023 -0.002546332
-0.0011238052 1.3274425e-24 0.0008556513 -0.002017041 -0.003405029 -0.0011161672 0.00050303293 -0.0018824857
0.0030388897 2.76901e-11 0.0025346524 -0.00095896336 -0.00019172 -0.00030741413 -0.0013868873 -1.2122815e-19
0.0022567923 0.0022410862 -1.7276882e-37 0.0003446922 -0.00147282 3.0431493e-29 -0.0012307458 -0.0012348403
-0.0019635968 -0.00019784858 0.0022097097 -6.6016246e-19 -0.0057863337 -0.0033315434 5.816985e-05 -0.005370014
-0.0017443661 0.0024822773 -0.00049200346 0.0030842496 3.3294201e-37 0.0018894518 0.0032791016 1.9158394e-10
0.0019823725 0.000774617 -0.00078680174 0.0003783451 0.0035460782 0.0011775277 0.00031542237 -0.00080583786
0.0034182463 -2.7706793e-38 -0.0013084945 1.5025468e-12 0.0035366344 8.1968925e-11 0.00054877443 0.0033139493
-0.00064874487 0.0047338484 -0.000153784 -0.0005557146 -0.0015434277 -0.001836081 0.0007706357 0.0027975272
-0.0033896463 0.0049620876 0.00083153095 -0.003588029 9.938083e-38 -0.0007814916 -8.386029e-37 -0.001003023

fc_logvar.bias f4 [32]
00000000: 71fd d9bb 0fe5 933b 7f3a 65bb 6c3f aebb
00000010: c8de 023c 1692 573a 6a7e 8c3b e759 c8b9
00000020: bfed 54bc 32c4 0b38 8187 a4bb eae8 4b3c
00000030: f4b7 2ebe 8496 6abc a4a6 8a3b 2a77 1f3c
00000040: fe74 973b f2f9 893b a3a5 89bb d4ac 013c
00000050: 540e 783c 40de 303a 593c 4e3c 04e2 693b
00000060: 9221 e2bb d53b 01bc 5d12 0abc 839b 283c
00000070: 8254 943c 799d 363b ad58 40bb d66d 593c
-0.006652527 0.00451339 -0.0034977493 -0.005317619 0.0079876855 0.00082233676 0.0042875307 -0.00038213955
-0.012996136 3.3322904e-05 -0.005021036 0.012445668 -0.1706236 -0.014318112 0.004231291 0.009733001
0.004622101 0.004210704 -0.0042006536 0.007914741 0.015140135 0.0006746985 0.01258763 0.0035687694
-0.0069009745 -0.0078878 -0.00842723 0.010290983 0.018106703 0.0027864857 -0.002934973 0.013270816

decoder.0.weight f4 [256, 77]
00000000: a0a1 be3a 4b85 343c fed8 cf3b 2569 183c
00000010: c35f 91bc 3e46 c23c c278 103b 8fb7 823c
00000020: 2c85 afbc 55b0 b3bc 2840 b43c b402 16bc
00000030: a10a 913e 2137 bf3c 6812 a3ba 261f 8ebc
00000040: d74f 11b8 22d1 723c 0bc8 af3c 5705 823c
00000050: 5647 983c 00c2 d13c 49a2 ae3c 39aa 02bd
00000060: 9462 10bd e854 113c b6c0 e63c 11cd 21bd
00000070: a71e aabc b1dd c0bc 3430 08bc f778 5abd
00000080: cce0 3839 e1ab 013d c4ed 913d 9d25 ecbc
00000090: 6c2f 77bd 86d8 4f3d 42ae 5e3c ef23 21bd
000000a0: f87d cb3b 7791 e5bb 8f27 213d 0622 91bc
000000b0: a4b7 87bd 02c9 063d cfe6 833d 5f00 95bd
000000c0: ef05 3abc 3623 ebbb 9688 38bd c567 133c
000000d0: e24c 0a3c 42d8 9d3c a557 5cbd 8f10 70bd
000000e0: 4ad8 52bd d6d3 0d3e 09c4 febd c580 733d
000000f0: 25c5 ba3c 0c7c 913c bce6 cdbb dcbd 7d3d
00000100: 8e49 ac3d 2216 133d f5c8 19bc 9722 4d3c
00000110: 9ed3 6bbb b7ae b539 ddcf 11bd 545f cdbb
00000120: d5cb 69bd 1f87 a03d b88a 69bd 1cc2 e5bb
00000130: 990d aeba 980b 303d 2665 d23c 9527 e33b
00000140: 2713 013c 9a29 4abd 651f 4e3c bdad b0ba
00000150: f6b2 2a3d 9017 163d 0e5c dabb 4331 a53c
00000160: c1af a53c b8d6 4b3d 3230 063b 98ab 063d
00000170: 93ad f03c be83 a93b 3748 55bd c358 b33a
00000180: 29c6 ecbc 6b30 06bd 9a84 79bc 1450 8f3d
00000190: 0d5b d2bc ec27 6b3c d9c9 e1bb 0f88 85bd
000001a0: 35a9 943c be60 f63a 479d 5bbc e310 95bc
000001b0: fb41 80bb 530a 343c 8c42 043c e792 c2bd
000001c0: f6ba 1c3d 6ac5 1cbd 3def 5abd 94de 43bd
000001d0: cb98 253d fa31 09bd 3416 83bc fcac 503c
000001e0: d322 5fbd 9a53 fd3c ccef f13c a484 dcbc
000001f0: f3f2 dcbc 3634 f53c ed61 f3bc bbcc 903c
00000200: 4433 123d 2037 013d f216 25bc 119d 293c
00000210: ad02 183d 4c83 8dbd 3d25 1bbc 325a dfbd
00000220: 7ce2 a6bd 4ba4 0bbb fe5e 3ebb 5555 7082
00000230: ac74 a83b d18d b1bc 0da2 1fbd 4dd2 32bb
00000240: bfe7 7e3a 5af7 7882 0695 40bb 9f4c afbc
00000250: f897 b0ba fb05 1bbd 057b e53b 977b 1ebd
00000260: 882c 16bb 9ef2 41bb e301 ccbb c5be 743c
00000270: 5f72 c5bc 92db 623d 3420 c3bc 89e4 b23a
00000280: d456 57bd 9b65 c5bc 99bf 1fbd f2d9 a4bc
00000290: ec87 943b 35e9 7abc f5f8 083d e0eb 5d3c
000002a0: 3d3c 4cbd 925d 1b3c b517 303d 7015 e6bb
000002b0: ac2d ebba 263f 93bc 25b3 6ebc 3c4d aa3c
000002c0: e8fe 08bd 3327 85bc 59f1 4d3d fd12 24bc
000002d0: 3843 543c 4506 f73c 25a1 5bbc df4e c93c
000002e0: f64b fb3c 3dbb 283c bdb4 fabc 63fe 45bc
000002f0: 3c0b 703e 01c3 8bbd 971e 50bd 5184 95bd
00000300: c400 a1bd d4b6 8e3d f7d5 a1bd f9f5 5f3c
00000310: 899c 89bd 1aab 85bc d38b b03d 7a89 fa3c
00000320: e648 763d 3144 f33c a24f 823d 3cc9 e73c
00000330: 9d4f a7bd 1048 83bd 6e40 31bc c70f 03bc
00000340: ee4d 613d 9b65 053d da70 93bd 733b 883d
00000350: 9ac3 273d ee1f 153e ee8e 183d 3f34 dbbc
00000360: dd77 313b 7720 5dbd ff63 6b3c 1dd1 093e
00000370: 92c5 243d 0b14 083b e277 313b d262 b9bb
00000380: ed7d 413c 107f 9e3c c478 5b3c 9742 17bc
00000390: 75e2 04bd dee4 053d d2b3 8e3c 30b3 fe3c
000003a0: cb59 90bc c3eb e6bc 9e60 7b3c dd29 df3c
000003b0: 52fd 8ebc 45b8 783c 3459 5abd b1c1 ed3c
000003c0: 3855 1bbd 726a acbc bab6 0ebc 47e4 8cbc
000003d0: fed8 c7bc 0c7a 7abc 654a 293d 7d9c 13bc
000003e0: 8d1a 17bd 443b cabc f614 64bb 9191 acbc
000003f0: 6756 e4bc 9baa 1c3d 6551 b2bb b0ec 48bc
0.0014544018 0.011018108 0.006343006 0.009302412 -0.017745858 0.023715135 0.0022044634 0.015956668
-0.021425806 -0.021934668 0.022003248 -0.009155918 0.28328422 0.023341717 -0.0012441399 -0.017348837
-3.464505e-05 0.014820369 0.021457693 0.015871687 0.018588703 0.025605202 0.021317618 -0.03190062
-0.03525026 0.008870341 0.028168064 -0.039502207 -0.02076657 -0.02354321 -0.008312274 -0.053338017
0.00017631351 0.031658057 0.07125428 -0.02882653 -0.06034796 0.050743602 0.013591351 -0.03934091
0.006210085 -0.007005866 0.039344367 -0.017716419 -0.066268235 0.03290654 0.064405076 -0.072754614
-0.011353954 -0.0071758283 -0.045052134 0.008996909 0.008441182 0.019268159 -0.05379452 -0.05860954
-0.0514758 0.1385034 -0.124397345 0.059448976 0.022799084 0.017759345 -0.006283609 0.061948642
0.08412467 0.03590978 -0.009386291 0.012520454 -0.0035984288 0.00034653183 -0.035598624 -0.0062674675
-0.057079155 0.07838272 -0.057017058 -0.007011665 -0.0013279199 0.042979807 0.025682997 0.006932209
0.007878101 -0.04935608 0.012580727 -0.0013479512 0.041674577 0.036643565 -0.006663806 0.020165091
0.020225408 0.04976532 0.0020475504 0.03287849 0.029379642 0.0051731756 -0.052070823 0.0013683069
-0.028903084 -0.03276102 -0.015229369 0.069976956 -0.025678182 0.01435278 -0.006890517 -0.06520092
0.01814709 0.0018797142 -0.013404197 -0.018196529 -0.0039141155 0.01098879 0.008072507 -0.09500676
0.038264237 -0.038274206 -0.05345081 -0.04781969 0.040428918 -0.033494927 -0.016001798 0.012736555
-0.05447657 0.030923653 0.02953329 -0.026918717 -0.026971316 0.029932123 -0.02970978 0.017675748
0.035693422 0.031546712 -0.010076271 0.010352389 0.037111927 -0.069098085 -0.0094693275 -0.10905875
-0.08148667 -0.0021307643 -0.002904832 -1.7656904e-37 0.0051408615 -0.021674069 -0.038972903 -0.0027285994
0.0009723864 -1.8291149e-37 -0.00293857 -0.02139884 -0.0013473025 -0.0378475 0.0070031905 -0.038692083
-0.0022914726 -0.0029594074 -0.006225811 0.014938061 -0.024102388 0.05538518 -0.023819067 0.0013648431
-0.05257304 -0.0240963 -0.03900108 -0.020123456 0.0045328047 -0.01531439 0.03344055 0.0135450065
-0.049862135 0.009482758 0.04299136 -0.0070215985 -0.0017942688 -0.017974447 -0.014569079 0.020788781
-0.033446223 -0.016254043 0.050278995 -0.010014293 0.012955479 0.030154357 -0.013405119 0.024573741
0.03067587 0.010298547 -0.03060376 -0.012084576 0.23441786 -0.068243034 -0.050810423 -0.07300628
-0.07861474 0.069684654 -0.07902139 0.013669484 -0.0671931 -0.01631694 0.08620419 0.030583132
0.060128115 0.029695602 0.06362845 0.028294198 -0.08169482 -0.06410229 -0.010818584 -0.007999367
0.05500596 0.0325676 -0.07199259 0.06651964 0.040958025 0.14562961 0.037245683 -0.026758311
0.00270795 -0.05398604 0.014367103 0.13458677 0.04022748 0.00207639 0.0027079512 -0.0056575323
0.011809808 0.019347697 0.013395492 -0.009232185 -0.03244253 0.032688968 0.01741973 0.031091303
-0.017620942 -0.028188592 0.01534286 0.027241642 -0.017454777 0.015180652 -0.053307727 0.029023023
-0.037923068 -0.02104685 -0.008710558 -0.017198695 -0.024395462 -0.015287887 0.041330714 -0.009009478
-0.036890555 -0.024686463 -0.0034802533 -0.021065505 -0.027873231 0.03824864 -0.005441832 -0.012263462
