models/cvae_L4_H64_B0.100_LR1e-03.pt (torch, 82677 bytes, 13 tensors)

encoder.0.weight f4 [64, 46]
00000000: 4da5 0ebe 28b8 843d 430e 553d 34d2 c3bd
00000010: 3f8e abbd 113b fa3d 2834 143c 9c2d c23a
00000020: c8a2 aa3d de52 7cbd 1538 c0ba 4211 1e3d
00000030: 5871 abbc 54b7 5a3c e46b 08bd 1d1a 07bc
00000040: 1226 893c 057a 0b3d aded e3bc a4c9 d8bc
00000050: fca8 30bd 56b0 35bd 46a5 c63d 1bc3 983c
00000060: f5df afbc 02d6 1b3e 9763 873e 1c35 fb3b
00000070: 710f 413d 0eaf 3c3d d7f5 b73b 9d4b c3bc
00000080: c862 293d f3df cb3d 44eb 013d 054e 20bd
00000090: 26c4 993d ef13 b8bc 0533 b73c 51b3 2cbd
000000a0: e89d dcba 9708 003e 18a0 463d 9751 bf3d
000000b0: 6726 5a3d 290d e4bc ad89 603e 20e3 b93c
000000c0: 150b ab3c b107 15be 6d69 23bd ff41 52bc
000000d0: 0db6 cebb b953 7e3d 705e 05bd 7b53 c2bb
000000e0: ef0e f5bc 4154 c53b f6dd 893c f21d a83b
000000f0: f4d1 8238 be28 3d3c f43a ce3b 6e79 a0bc
00000100: bfca ef3b 56fb 68bd 3654 913b 71fd bf3b
00000110: e1d3 4d3c 5426 fbbb 86d9 e0bd a309 b33e
00000120: 4192 1f3f a856 42be ba16 a03d 8323 cd3d
00000130: ea42 033d 6c15 a23c ce5b c63d 5b5c f93d
00000140: 4ac8 1a3e 80cf 933d 8d81 953d 6315 a23c
00000150: 3fc1 6c3d 654c 20bc fc2d 1cbd 960f 143e
00000160: a467 833c e2ca ee3c 97b9 ba3d 631e 133d
00000170: f689 13be f642 09bc 874d df3d abe5 9a3d
00000180: 5b7c c5bd 9c4d 503d a4ff 5fbd 8c86 af3d
00000190: b139 2dbd 2a96 e93d 17fa 52bd 0d4d 3fbb
000001a0: b44d c53c cf09 eabc ac6b 5abd 75e9 ffbb
000001b0: 0b11 8f3c ca00 2ebb 55d9 cb3c cce4 fd3c
000001c0: 224c 1e3d d49c e03d 1cf1 b5bd fdbf a33d
000001d0: a748 7dbd 6059 57bc 921c 8e3d 883f bbbc
000001e0: 3802 983c 481c d9bc b1a6 8dbb 4461 b881
000001f0: 77c2 413d 36fd 3bbc 4028 5ebc 3184 513d
00000200: 6d62 363c 2bc6 9d81 a2c9 4681 5660 f3bc
00000210: 6ee0 b13d fe77 ae3d 1d1e 8c3d f396 433d
00000220: a796 a8bc 944b 8081 5c4f 90be bd9c 9b3d
00000230: 912b 0abc 0151 993e 678a f43c a17a a8bd
00000240: 58c2 36be c80a cabc d88e 493d 46d6 c13d
00000250: 18f0 c3bd f57d c4ba 56f5 e23d b39d 48be
00000260: 9fe5 9dbc 71cf 61bd c39b 503d c336 d03a
00000270: 3d78 243c 1237 eb3d d0bf c73c eeac 5dbd
00000280: 0d55 b23d e6f4 7fbd 2b90 853e 6c64 1c3d
00000290: a673 403e 827a 563e 3083 883e 16f0 37bc
000002a0: 9741 b180 7aa7 33bb 0e9d 5b3e 3d0d 16bd
000002b0: e218 8c3d 1daa e53d d6f2 3e3d 7aa7 33bb
000002c0: 19be 4201 5139 533d 7a43 873c 9f28 1a3e
000002d0: c84c 063e de5c 4a3d 1fe8 233e 7aa7 33bb
000002e0: 25c6 87bd 0495 2b3c 1de2 2abc 1d6e db3d
000002f0: b3c8 9a3c bec6 7e3d 1ee3 48bd 12c7 c2bc
00000300: 8f82 43ba 846d 273d 3fec 50bd d44b 303d
00000310: 793c 34bb cecb 4dbd 535b 543d 4282 863d
00000320: 5290 8ebd 38b4 9d3c 6955 74bb 0ed2 10bd
00000330: 1f74 74bd e77f 9f3a 340d 103d 3d76 093d
00000340: cd0c cabc b57f 02bc ca03 653d eacb 203d
00000350: cf04 94bd 3153 2bbd 0ceb 063b d26c c63a
00000360: 3b9d 83bd 30e3 bf3c 8a11 94bd 82c8 c7bb
00000370: 6fe8 03bc 096d c63a ea4b 3c3b 1ad8 bebc
00000380: 9406 8abc 4df2 5c3d 81dc 68bb 4689 a03c
00000390: 91b5 0bbd 3212 413a 35a5 38bd bfc2 80bc
000003a0: 1b88 6a3c f629 25bf c4c6 123d 0221 c43d
000003b0: 8ed0 98bd e7fa 82bd 7300 933d 148d 933d
000003c0: 3565 4abd ce82 973b 0091 a43c 3754 2d3d
000003d0: c972 80bb 875e 633b a097 a43c e115 8b3d
000003e0: 7f0f 473c 4687 72bd c662 a2bd 276a b6bc
000003f0: 43ea 383c 46c4 3c3d 0785 44bd b135 46be
-0.13930245 0.064804375 0.052015554 -0.095615774 -0.08376741 0.12218297 0.009045638 0.0014814618
0.08331829 -0.061602466 -0.0014665151 0.038590677 -0.02092807 0.013349373 -0.033306018 -0.008245972
0.016741786 0.034051914 -0.027823294 -0.026463337 -0.043129906 -0.04435762 0.09699492 0.018647721
-0.021469096 0.15218356 0.2644317 0.0076662432 0.047133867 0.046065383 0.005614023 -0.023839766
0.04135397 0.09954824 0.031718507 -0.039136905 0.075081155 -0.022470443 0.022363195 -0.042163197
-0.0016831728 0.12503277 0.04849252 0.09341734 0.05325928 -0.027838307 0.21927519 0.02269131
0.020879308 -0.14553715 -0.039895464 -0.0128331175 -0.0063083232 0.062091563 -0.032560766 -0.005930362
-0.029914347 0.0060220067 0.016829472 0.005130523 6.23799e-05 0.011545358 0.006293649 -0.019589152
0.0073178704 -0.056880318 0.0044350876 0.00585907 0.012562723 -0.007664481 -0.10978989 0.3496829
0.6233254 -0.18978369 0.07816835 0.10016539 0.032046236 0.019785605 0.09685479 0.121758185
0.15115467 0.07217312 0.073001005 0.019785589 0.05780148 -0.009783839 -0.03812979 0.1445907
0.01604063 0.029149476 0.0911743 0.03591765 -0.14408097 -0.008377781 0.10903459 0.07563337
-0.096428595 0.050855264 -0.054687157 0.08570585 -0.042291347 0.11405595 -0.051508036 -0.0029190213
0.024084903 -0.02856913 -0.05332534 -0.0078098127 0.017464181 -0.0026550763 0.024883905 0.030992888
0.038646825 0.109674126 -0.088838786 0.07995603 -0.061836865 -0.013143867 0.06939043 -0.022857442
0.018555745 -0.026502743 -0.0043228497 -6.7730494e-38 0.047304597 -0.011473944 -0.013559401 0.05115146
0.011131865 -5.795705e-38 -3.651152e-38 -0.029709022 0.08685385 0.085189804 0.06841681 0.04775138
-0.02057965 -4.7128223e-38 -0.28185546 0.07598255 -0.008433239 0.29944614 0.029851152 -0.082265146
-0.17847574 -0.024663344 0.049208492 0.094646975 -0.095672786 -0.0014991151 0.1108195 -0.19591407
-0.019274531 -0.055129472 0.050929796 0.0015885461 0.010038433 0.11485113 0.024383456 -0.054119997
0.087076284 -0.062489413 0.26086554 0.038181707 0.18794116 0.2094517 0.26662588 -0.011226675
-1.6278412e-38 -0.0027413056 0.2144663 -0.03663372 0.068406835 0.11214087 0.046618305 -0.0027413056
3.576856e-38 0.051568333 0.016511668 0.15054558 0.13115227 0.04940497 0.16006516 -0.0027413056
-0.0662959 0.01047254 -0.010429886 0.10714362 0.018894529 0.062201254 -0.04904472 -0.023776565
-0.00074581144 0.040875927 -0.05100655 0.043041065 -0.0027501865 -0.05024319 0.051844906 0.065678135
-0.06961121 0.019250974 -0.0037282354 -0.035356574 -0.059681054 0.0012168855 0.03516884 0.033560026
-0.024664307 -0.007965018 0.055911817 0.039256968 -0.0722748 -0.041827384 0.0020586876 0.0015138632
-0.06426474 0.023423761 -0.07229908 -0.0060969004 -0.008051022 0.0015138696 0.0028731772 -0.023296405
-0.01684884 0.053942014 -0.0035531821 0.019596707 -0.034108702 0.0007365077 -0.04507943 -0.015717862
0.014314677 -0.6451715 0.03583409 0.09576608 -0.07461654 -0.06395512 0.0717782 0.07204643
-0.049412925 0.0046237474 0.020088673 0.04231664 -0.0039199335 0.0034693794 0.020091832 0.067912824
0.012149691 -0.059211038 -0.07928996 -0.022267414 0.011286321 0.04608562 -0.047978427 -0.19356419

encoder.0.bias f4 [64]
00000000: ba29 f13d 48c4 f43d 7ce2 8cbd e2cb c73d
00000010: 16e5 893d 8890 aabd 36d5 16bc c43d 223e
00000020: af0e 74bc 2aec 8b3d c54c f23d 8ee6 c33c
00000030: eb74 423e a49a 023e 1181 6b3e e1df 4abd
00000040: f750 073e 8d67 0cbe f1be cd3c ca78 8fbd
00000050: 7243 943c 2a1e 84bb 9f92 cebc 8b7f f73c
00000060: 2393 8abd cee4 28be 41e0 563e 8f58 1f3e
00000070: 812c 09bc 3fd4 a13d e841 01bc af8a 21bd
00000080: af63 1b3c fee6 da3d f440 d63d 5288 d7bd
00000090: 83bd ccbd 7eff 213c da6c 4b3e ab91 2f3c
000000a0: 21ec d83d be81 943d bd67 0a3e dab8 1abd
000000b0: 3c4b db3c 901c 853d 2c9d 513e ce21 26be
000000c0: 4455 80be e9b4 783d 20e0 9a3d 194e 413e
000000d0: 1a46 be3d 0922 5dbd 31dc 9b3d ac99 be3d
000000e0: 56aa 0bbd 1e8f 8cbd 4917 163e 22bb 723d
000000f0: 77fe 3b3e 3a3b f8bd d2d7 f43d 5991 b4b9
0.11775537 0.119515 -0.06879136 0.097556844 0.06733148 -0.083283484 -0.009206107 0.15843874
-0.014896079 0.06832154 0.11831049 0.023913648 0.18989913 0.12754303 0.22998454 -0.049529914
0.1321448 -0.13711376 0.025115462 -0.070054606 0.018098567 -0.004031916 -0.025216399 0.030212184
-0.06766345 -0.16493532 0.20983984 0.15561126 -0.008372427 0.07901811 -0.007889248 -0.0394389
0.009484216 0.106885895 0.104616076 -0.10524048 -0.09997084 0.009887574 0.19865742 0.010715882
0.10591913 0.07251309 0.13516136 -0.037773944 0.026769273 0.064995885 0.20470113 -0.16223833
-0.25065053 0.060719404 0.0756228 0.18877448 0.092907146 -0.053987537 0.076103576 0.09306654
-0.034097992 -0.06863235 0.1465732 0.059260495 0.1835879 -0.121206716 0.11955227 -0.00034440568

encoder.2.weight f4 [64, 64]
00000000: 2384 ba3d 9e33 883d 3db5 833c d647 793c
00000010: e3ec 60bd e3df 30bd eabf f63d cee1 35bd
00000020: 0933 733c a6e0 003e 783a fd3c 37f5 adbc
00000030: bb5e be3d 0065 91bd 6594 0abd 60aa b03d
00000040: e5ef 753d 2a6f 6d3d aac7 18bd 9f21 acbd
00000050: 34bf 5b3b b2db a6bd 711c d73c 729b 693c
00000060: 84bb 1c3c d20e c4bd 89e4 5b3d 5758 203d
00000070: deaa a63d 1d27 fe3c 528f 703d fddc 243d
00000080: d58b a3bd 2e79 aa3d 2375 5cba 3519 33bd
00000090: f902 863d d14b 343d 3b47 7abd 1e35 4bbd
000000a0: 1fc5 d63d 28f4 3abd e825 e7bd 0c51 913c
000000b0: f480 9d3d 4628 b13c a7e8 fb3d 215d 443d
000000c0: 2d80 ae3d 5a13 b2bd 89bf af3c 8f34 753d
000000d0: ff6b 01be 59e1 4a3d 3c8c cd3d bc99 873d
000000e0: 8c6a 3a3d a434 743d 4013 923c 137a 123d
000000f0: 9219 573d e33b 7d3c 0139 58bd f475 c83a
00000100: 417f 813d 52dc b73d 463c 8e3c 1654 4e3d
00000110: 0deb 0bbd 6771 36bd 9529 7bbd 9415 813d
00000120: 5004 b93b 14cb 223d bbcd fe3c a2c7 84bd
00000130: e9a4 50bd faa1 44bd d0b7 643d 912a 243c
00000140: 2f7c f6bc a7ef 733d d14c a03c 4892 12bc
00000150: 737e b53c 35ea b1bc 473c 4dbd c96d 00bb
00000160: 5495 4bbd babb 9cbd 4137 c03c 20fa 913d
00000170: c1eb 61bd e3d9 efbc a719 92bc 9554 5cbd
00000180: 06d2 553c 090d 13bd aa01 ab3b 3be6 03be
00000190: 54a1 c73b b7c6 0e3d 6909 d73c 4f87 cbbc
000001a0: 1f3f be3c 0121 20bb 3b2b 0ebd 2495 15bd
000001b0: f917 253d d9d3 0b3d 57f7 243e c2a0 9fbd
000001c0: 7f37 16be 0b84 113c 6a64 063c a079 ce3d
000001d0: ad25 69bc 191d e6bc cc1c 4a3b 13f6 2bbd
000001e0: 8664 30bd 1ed6 01bd 194b 39bc 59ac d83c
000001f0: f34b 72bd 5cdd 5ebd 7c62 5dbd ae51 6abd
00000200: 97c1 7e3d 27c0 9d3c 898f c53d 80df 1b3e
00000210: dc38 273c cdb9 903d f3e1 3dbc d403 01bd
00000220: 5a64 4f3d e04a 063c cf5c a7bb d233 b2bd
00000230: c30e 71bd 6cc6 203d 4991 483d 2d5a b63d
00000240: bba5 42bd f1ec 66bd 1d30 873d 38be 853d
00000250: f944 f63c c236 603d 88ba 63bd 0761 0dbd
00000260: 8068 a5bd 3973 eebd 57c1 e2bc ef53 a1bd
00000270: 39a6 61bc e1a9 9b3d b680 1c3e a018 ccbc
00000280: e915 a93d eed2 d53c 5b69 d73d e433 0fbe
00000290: ecf2 853d b023 003e 92e5 46bb 6578 d43d
000002a0: e7eb b33d 3366 543d 4bd4 923c 0f59 e13c
000002b0: e572 ee3d c92e c43d b9c2 2cbd 7821 af3d
000002c0: 1b3b d2bd 4054 a13d 2972 d73d eab5 3a3d
000002d0: 2417 84bd 3dca 283e 8b5c 973d 58b2 4bbd
000002e0: 1b00 22bd 555e f03c 36eb 083e 87d3 db3d
000002f0: 85fd 983d 3774 d1bc 7543 1d3d bddf 613d
00000300: 52e4 9e3d 7fbd aa3c 2f24 ed3c 6ab2 353d
00000310: 21d1 043d ef99 c0bd f630 74bd b6a6 4e3d
00000320: b657 613c c5f9 dfbb 05d8 a3bc b4db a63c
00000330: c2c7 373d 1f54 4a3d 97e0 acbd 4f48 c2bd
00000340: b8d3 fdbd 2305 31bd b844 f63d 1ec8 90bc
00000350: de42 fe3b 08f2 52bc 460b fcbb 2c7f 93bc
00000360: 8a9a 583d 1160 06bd 2ec5 2bbd f9f3 8bbd
00000370: 4cc6 0a3c 4380 c8bb 8070 9cbd 88de 3dbc
00000380: 08d3 14be 53fd ce3d 77a7 81bd 10d8 0dbd
00000390: c003 c5bd 4f68 17bc 9e37 10bd 2b3d bebd
000003a0: dfbd e6bb 97cc debc 0e9b 86bd 24d6 e0bb
000003b0: f6b4 e03c 84af 3b3d a24b b43d d1e1 073d
000003c0: 8474 9bb8 8961 25bd cd31 bd3d 90bb 093e
000003d0: c596 b1bd 91f5 bcbc 9a10 ac3c 7d72 2b3d
000003e0: 7b65 263d b762 bf3d d065 973d 1631 b5bb
000003f0: 4a92 313d f108 c13c ca44 743d 1dcb 78bd
0.09107234 0.0665047 0.016077632 0.015214881 -0.054913413 -0.043182265 0.120483235 -0.044404797
0.014843711 0.12585697 0.03091167 -0.021235092 0.09295412 -0.07099342 -0.033832926 0.086262465
0.060043234 0.057967342 -0.03729979 -0.0840485 0.0033530714 -0.08147372 0.02625868 0.014258252
0.009566192 -0.09573139 0.053684745 0.039146747 0.08138059 0.03102451 0.05873043 0.040249813
-0.07985655 0.083238944 -0.0008409789 -0.04372521 0.06543536 0.044017617 -0.061103087 -0.049611203
0.104868166 -0.045643 -0.11286527 0.017738841 0.076906115 0.02162565 0.12300234 0.047940377
0.08520541 -0.08695097 0.021453636 0.059864577 -0.12638853 0.049531315 0.10036513 0.066211194
0.045511767 0.059620515 0.017831445 0.03576095 0.05251462 0.015456173 -0.05278874 0.0015293942
0.063231 0.0897757 0.017362725 0.05037316 -0.03415971 -0.044541743 -0.061318953 0.06302944
0.005646266 0.03974445 0.03110396 -0.064833894 -0.05093852 -0.048006035 0.05583936 0.010019914
-0.030088512 0.059554722 0.019567879 -0.008946009 0.022155022 -0.021718124 -0.050106313 -0.0019596687
-0.049702957 -0.076529935 0.023463847 0.07127786 -0.055156473 -0.029278701 -0.017834498 -0.0537916
0.013050562 -0.035901103 0.005218704 -0.12880795 0.00609223 0.034857478 0.026249604 -0.024844794
0.023223458 -0.0024433734 -0.034709197 -0.036519185 0.040306065 0.03413758 0.16109978 -0.07794334
-0.14669608 0.008881579 0.0082026515 0.10081792 -0.014230174 -0.028090047 0.0030839918 -0.04198272
-0.043064617 -0.03169834 -0.011309409 0.02644937 -0.059154462 -0.054410324 -0.054049 -0.057206802
0.06219634 0.019256664 0.09646518 0.15221977 0.010206427 0.07066689 -0.011589515 -0.03149779
0.050632812 0.0081965625 -0.005107499 -0.0870129 -0.05885197 0.03925173 0.04896668 0.089039184
-0.047521334 -0.05637831 0.06600974 0.06530422 0.030062186 0.05473972 -0.055597812 -0.03451636
-0.080765724 -0.11643071 -0.027680082 -0.07877337 -0.013772541 0.07600761 0.15283474 -0.024914086
0.08256132 0.026101556 0.10518142 -0.13984638 0.06540474 0.12513614 -0.0030349237 0.10374526
0.08785229 0.051855277 0.017923495 0.027508287 0.11643008 0.09579236 -0.04217789 0.085513055
-0.1026518 0.078773975 0.10519821 0.045583643 -0.06449726 0.16483398 0.07390698 -0.04973063
-0.03955088 0.029341856 0.13370976 0.10733705 0.0747023 -0.02556811 0.03839441 0.055145014
0.077583924 0.020842312 0.028947918 0.044359602 0.032426003 -0.094043605 -0.059617005 0.050451957
0.013753822 -0.006835195 -0.020000467 0.020368434 0.04486824 0.04939663 -0.084412746 -0.09486448
-0.12393898 -0.04321779 0.12024826 -0.017673548 0.007759436 -0.012875088 -0.0076917736 -0.018004976
0.052881755 -0.03280646 -0.041936092 -0.068336435 0.008470129 -0.0061188056 -0.07638645 -0.0115887
-0.14533627 0.101069115 -0.063307695 -0.03462988 -0.09619856 -0.009241178 -0.03520929 -0.092890106
-0.0070416774 -0.027197165 -0.06572543 -0.006861465 0.027430039 0.04582168 0.08803488 0.03317434
-7.412679e-05 -0.04037622 0.09238014 0.13450456 -0.08671335 -0.023066314 0.02100401 0.04185723
0.040624123 0.09345 0.07392466 -0.005529533 0.043352403 0.023563834 0.059635915 -0.06074058

encoder.2.bias f4 [64]
00000000: 1ae6 0a3d 975b 5a3e 54b2 fdbc 811d 0a3e
00000010: 7b51 ba3a 6fd5 663d 7d2c c83d 56c2 753d
00000020: 1507 c93d 14da 813d f417 bfbc f8ee 5d3e
00000030: 0c4c 49be 50c3 823d 6c46 073e b409 aebc
00000040: 6737 d18c 9223 2ab5 d05f 233e 8aef c13d
00000050: 543b c7bc 7aac 253e 62f9 b8bc 5206 993d
00000060: d278 063e 9274 333c 387d 6dbc 1255 f23d
00000070: a209 0b3c 8710 863d 463a 1c3e dab6 be3d
00000080: 6f31 d73d 7ebb 5e3d eb2a c53d dcc5 b93c
00000090: 9974 ea3c 4c82 4dbc e807 e53d a850 88bb
000000a0: 6678 593d af28 f63d e068 d03d f8bb 77a4
000000b0: 42b5 6c3d 0632 163e 417c c13d 9bda 01bc
000000c0: 81e4 373c 3001 1d3e 39b0 a73d 0cc4 653d
000000d0: 150d 003e 0a75 763c f8ab 563d 7f41 efbc
000000e0: e14d df3d 61c3 163e 56e2 2d3e a8c3 7e3d
000000f0: 9075 ecbc 2e98 bebb 191a e13d 3e36 ab3c
0.03391085 0.21324001 -0.030968823 0.13487817 0.0014214957 0.05635589 0.097741105 0.059999786
0.09815804 0.06340423 -0.023326851 0.2167319 -0.19657916 0.06384909 0.13210458 -0.021244861
-3.2234893e-31 -6.3381697e-07 0.15954518 0.094695166 -0.024320282 0.16179076 -0.022579852 0.07471909
0.13132027 0.0109530855 -0.0144951865 0.11832632 0.008486183 0.06546121 0.15256605 0.0931222
0.105074756 0.054378025 0.096273266 0.022677355 0.028620051 -0.012543272 0.111831486 -0.0041600056
0.053093337 0.120194785 0.10176253 -5.3718803e-17 0.05779005 0.1466752 0.09447528 -0.007925655
0.011223913 0.15332484 0.08187909 0.056095168 0.1250499 0.015042553 0.052410096 -0.029206036
0.10903526 0.14722969 0.16980872 0.06219831 -0.028864652 -0.005816481 0.10991306 0.020899888

fc_mu.weight f4 [4, 64]
00000000: a7b7 3cbc ade7 4239 4554 133c 86d3 8ebc
00000010: 6e5d 90bb 153c 5abc 0683 35bb b02e 49bc
00000020: b6a0 96bc c1a5 c33b d17e b73b dd5b 83bb
00000030: 5636 40bb 641b 94bc 26fc 033d 4797 fe3a
00000040: 806a be00 b4c6 d5b3 f939 883c 1e7a b83b
00000050: 86c5 a2bb 88df eabc 9109 7ebb 9f1e 493b
00000060: 249c 0c3b 78d0 4ab8 ae0d ed3b f1ad e2b9
00000070: 24ce 953c 81e7 ec3c cbab 81bb 9a3b 25bd
00000080: 374b 59bc 69fd 133c 34c8 863c e5f6 8a3c
00000090: 3d2a d53c 3aae 513c 235d 0dbb e6f7 113c
000000a0: 4293 5cbc e258 633c 892a 4f3c 553a 9900
000000b0: 19fe d2bc b61e 98bc 69a8 7abb 8361 c3ba
000000c0: b8d6 103d a4b0 5abd 2f7d dcbb 2b19 0dbb
000000d0: 7075 2a3a d134 403c c209 0f3c 9e71 1ebd
000000e0: c817 12bc 50ca 723c 5d26 f63a 2c25 10bd
000000f0: 4a9e 0b3c 9f19 f4bc 3314 853c f87c 51bb
00000100: 7d5b 69bb 1c79 e1bc 9f9b d33b 90b3 1fbd
00000110: 5fd6 5abb 89b9 113c 456a a4bb 310f e3bb
00000120: 7b38 28bd c8df f63c 0441 b83b 8c8a 97bd
00000130: 1a85 31bc 4b77 4f3a 638a babc 185f 3e3d
00000140: 16bc 6882 ea08 1433 fecd 0c3d 6891 6cbc
00000150: c731 e93b 167a 8dbc 8a55 3f3b 573a 703b
00000160: 0664 87bb 97bd 6b3b ae89 153c 1d3f b9bb
00000170: 6cc3 17bd ab21 ecbb fcb4 8fba ad59 3d3b
00000180: 4148 563d 1372 23bc 212f 033d a8a5 1f3c
00000190: 4041 de3a b4ba 3b3b 2220 80bc 2e7d 013c
000001a0: 475f 1a3c 966c b4bb b885 813d 65c0 2d80
000001b0: 1234 0dbd 7fb5 13bd f9ed 933a 563a 8ebc
000001c0: 9f1b 873c aaf5 89bc 11b9 fbbb 2581 a43c
000001d0: bf45 0b3d d12b a5bc 2c8b c03b 09ab 08bd
000001e0: 9ade c2bc 8447 173d ce54 6e3c f3d2 8d3c
000001f0: 203a 1a3d 3253 37bd 7574 bebd 9d14 323c
00000200: 2c31 6cbc 7c92 e0ba 54bf fbba 8a61 52bc
00000210: f298 043c d7ba d8bb c1d8 03bb d7ef 133c
00000220: 976b 51bc 176f 093c 7f73 283c c53a 03bd
00000230: 6e32 44bc 74f4 f5bb 379e d4bb b092 b5ba
00000240: 899b 0680 11d0 1234 ed71 8e3c fb98 19bc
00000250: 8929 2dbb 5c00 c8bc 53eb 73bb 219d 363a
00000260: 072d b8b9 b7da e737 4a7a 09bc f6d5 64bb
00000270: a526 38bc fc8e 08bc d4f0 f7ba 4972 c2ba
00000280: c719 21bc 223d db3b 2aca 483c b67b 7b3c
00000290: 3a7a 15bc ea41 383c 054f 1d3b cfd7 28bc
000002a0: ef3d c13b 6691 4d3b 3ee8 58bc aaed 8381
000002b0: 9863 c6ba a93a 95bc f0ce d53a 0a06 a2b9
000002c0: 6363 2a3c bd40 51bc dd79 b6bb ded8 0fbc
000002d0: 29de 4e3b 4573 b93b d3d4 183c 7ad4 d1ba
000002e0: fc20 4b3c cf0a 1c3c dc61 1fbb 1450 f93c
000002f0: 11f1 1a3c aa2d bcbc 73c7 e9bb 044c 813b
00000300: f527 c8bd 921b e53b 8750 02be be60 86bd
00000310: 1396 0f3e 27c6 8dbd 22ce f1bb 708f 0e3e
00000320: ff30 ea3d ebd9 20bd 74ec 2b3e 635f a8bb
00000330: 5cea 35be 861f 9fbe 3286 0c3e 7da7 303e
00000340: 0618 7202 9fff 2536 a9ba fb3d 9a29 93bc
00000350: d787 a2bb 34ab 0b3e 95c6 66bc 3a11 85be
00000360: a7cc bc3d 9ac7 b039 4862 b2be d921 56be
00000370: d1a6 6f3d d509 37be 5e6e 91be 873e b1bd
00000380: 31f3 e33b 031a c9be 0d49 b9ba e7e5 133e
00000390: 641f e9be 6509 d3bd a67b 103b 899b 18bf
000003a0: 2bc8 99be a4dd 9ebd e73d 153d 9de3 d2b6
000003b0: b282 f03c e8bf f23d 396d f5bd c3e4 63ba
000003c0: b01c 0b3e 86d7 d33c 9491 77be 1451 cebd
000003d0: ae83 8bbe 4834 093e a54b c5bd 5664 963d
000003e0: 45e7 a7bc 6bd0 43bd 202a 64bc d6fa bbbd
000003f0: ed95 f43d 3fab 023e 4ab0 3fbc 1453 4cbd
-0.0115183955 0.00018587588 0.008992259 -0.017434847 -0.004405669 -0.013319989 -0.0027696504 -0.012279198
-0.01838718 0.005970687 0.0055998345 -0.0040087537 -0.0029329262 -0.018079467 0.03222289 0.0019423746
1.7486949e-38 -9.954729e-08 0.016629206 0.005629792 -0.0049673943 -0.028671041 -0.0038763026 0.0030688418
0.0021455372 -4.8354705e-05 0.0072342968 -0.00043235676 0.018286772 0.028918983 -0.003957247 -0.040340044
-0.0132625615 0.009032586 0.016452886 0.016963432 0.026021117 0.0127978865 -0.0021570406 0.008909201
-0.013462843 0.013876172 0.0126444185 1.4071757e-38 -0.025755929 -0.018569332 -0.0038247353 -0.001490638
0.03536102 -0.053391114 -0.0067287902 -0.0021529894 0.0006502485 0.011731342 0.008730354 -0.038682573
-0.008916803 0.014818743 0.0018779744 -0.0351917 0.008521626 -0.029797373 0.016244983 -0.0031965356
-0.003560751 -0.02752357 0.0064577605 -0.038989604 -0.0033391935 0.008894333 -0.005017551 -0.006929301
-0.04106949 0.030136004 0.005622985 -0.073994726 -0.010834957 0.00079141994 -0.022771066 0.046477407
-1.7098646e-37 3.4467043e-08 0.034376137 -0.014438964 0.0071165296 -0.01727013 0.0029195272 0.0036655867
-0.004131797 0.0035971159 0.009127064 -0.0056532756 -0.037051603 -0.007206162 -0.0010963972 0.0028892562
0.052315 -0.009975928 0.032027368 0.009744085 0.0016956702 0.002864522 -0.015640322 0.00790338
0.00942213 -0.0055061085 0.06324333 -4.201615e-39 -0.034473486 -0.03606176 0.0011286131 -0.017361801
0.016492663 -0.016840775 -0.0076819737 0.020081112 0.034002062 -0.020162495 0.0058759656 -0.033366237
-0.023787785 0.036933437 0.014546586 0.017312502 0.03765309 -0.044757076 -0.09299556 0.010869172
-0.01441602 -0.00171335 -0.00192068 -0.012840638 0.008093106 -0.00661407 -0.002011821 0.00902935
-0.012781999 0.008388302 0.010281443 -0.03203847 -0.011974914 -0.0075059477 -0.0064885872 -0.001385292
-6.06808e-40 1.3673004e-07 0.017388308 -0.009374852 -0.0026422462 -0.024414234 -0.0037219122 0.0006966163
-0.00035128763 2.7639193e-05 -0.008390972 -0.003491757 -0.011239682 -0.008334871 -0.0018916377 -0.0014835085
-0.009832806 0.006690637 0.012255231 0.015349319 -0.009123379 0.011246184 0.0024003398 -0.010305359
0.0058972756 0.0031367182 -0.013238965 -4.846283e-38 -0.0015135882 -0.018216448 0.0016312283 -0.00030903547
0.010399672 -0.012771782 -0.0055687265 -0.0087797325 0.0031565523 0.005659493 0.009328085 -0.0016008758
0.012398001 0.009524061 -0.0024319803 0.030433692 0.009456889 -0.022970993 -0.007134372 0.0039458293
-0.09773246 0.006991812 -0.12726031 -0.06561421 0.14022093 -0.0692256 -0.0073793093 0.13921905
0.114351265 -0.039270323 0.16789418 -0.005138324 -0.17765182 -0.31078738 0.13723066 0.17251392
1.7786246e-37 2.4735707e-06 0.12291462 -0.017964173 -0.004960041 0.13639528 -0.014085432 -0.25989705
0.09218722 0.0003371805 -0.34840608 -0.2091135 0.058508698 -0.17874844 -0.28404516 -0.08654504
0.006956481 -0.39277658 -0.0014136151 0.1444317 -0.45531762 -0.10304526 0.0022046356 -0.5961233
-0.3003553 -0.07757118 0.036435988 -6.2849854e-06 0.029359195 0.118530095 -0.11983723 -0.0008693451
0.13585162 0.025859606 -0.24176627 -0.10074058 -0.272489 0.1339885 -0.09633569 0.07343356
-0.02049602 -0.047806185 -0.013926059 -0.091787025 0.119426586 0.12760638 -0.011699745 -0.049883917

fc_mu.bias f4 [4]
00000000: 250c 313c 785e 5f3d 46ae ea3c a0e7 0e3e
0.010806118 0.05453345 0.028647553 0.13955545

fc_logvar.weight f4 [4, 64]
00000000: ac05 6b3a f100 ce38 ca51 f4b9 5f24 6a3a
00000010: b905 05ba 71db d63a 464c 563a 282c 99ba
00000020: be80 493a fc3f 94ba 0ca7 b73a 8403 a3ba
00000030: 167e 24ba 652a 27b9 596b e9ba 4741 84ba
00000040: 3ec5 2780 f63e 4c31 0b81 a53a 01f8 863a
00000050: c9ec 81b9 b603 4bb9 7a08 d3b9 e0c3 c2b9
00000060: 34e9 4cba 9d08 cbb5 f965 093a 2878 2aba
00000070: 40b7 a5b9 e571 8739 6b11 1139 90dd 4cba
00000080: 676e 963a be2e cb39 3968 87ba c48f c2ba
00000090: 4b6b bc3a 2f4a 0139 4fda b139 3fa2 e4b9
000000a0: 4163 22ba 575b 5eba 89dd 8c3b fa54 b001
000000b0: a50d 21ba 37b0 10bb 8a60 0339 286a a7b7
000000c0: e6ae 86ba 3fcb f0ba c5a5 3639 17ce 0bb8
000000d0: 6a78 f4ba 281d 913a 0b66 06ba 16ca 12bb
000000e0: cbfc 0ab9 89e9 36bb ced5 2d39 c2b1 d3b9
000000f0: 92e6 1c3a af6c 6c3b cf2d 3ebb f104 023b
00000100: 3a47 91bb 0c15 463b 43d8 08bb 55b4 36bb
00000110: d63b c6ba b367 de3a 75fa 13b9 de41 593b
00000120: c8e3 57bb eab2 a6ba 2271 843b bd21 9ebb
00000130: 5b42 1fbb 5c1b de39 65c5 e5bb 548a 49bb
00000140: dd9a 9381 855b 1db3 afcc ad3b 248b d6bb
00000150: 6afd 0039 0682 c2ba 931d abba c534 e239
00000160: 0c3b 27bb 6d31 0cb7 b257 333a c1bf 6bb9
00000170: f72c a5bb b4e0 99ba 34fe caba 52c3 8e3b
00000180: 7abf 18bb 4793 033a 5586 2abb 4f6a 27bc
00000190: bd57 53bc 818d 31bb 7f55 23ba 98d1 e4ba
000001a0: 0733 a839 d1a4 2dbb 155d d63b ac83 7001
000001b0: b072 ff3b 3a77 bfbb 5a0a dd3a 818e 79b8
000001c0: d250 8b3a f56f 1b3b 68aa 5eb7 f342 3d3b
000001d0: 2420 bb3b f283 8e3b ee96 7a39 0635 023c
000001e0: 3972 303a 0b9c f13a 89ca 59ba ce2e ba3c
000001f0: 69f4 d73b 4e2e 62bb 6209 0bbc eea4 7039
00000200: 793d 37ba 5086 e63a 6ce3 0fba c640 9d3a
00000210: a6c2 993a d02b 693a 0682 90b9 0c28 b33a
00000220: 042c e039 7bbc 1a3a 2ff1 963a 9300 df3a
00000230: 3304 adb9 9ae0 0b39 2a41 a7b9 5bfa 20ba
00000240: 20f1 5c01 842b 8b32 8f95 a539 582a 0f3a
00000250: f000 9e37 5cc3 3f3a b38d 683a c922 55ba
00000260: ec78 32ba d9f9 ec33 b35f 3439 d26d e1b9
00000270: d0f3 0dba 3f71 2fba 1c62 9fb9 89b6 b239
00000280: 2961 74ba 3553 6839 83e1 c138 5ec6 00bb
00000290: b434 c83a 220a 4a37 c76e 65ba 6f88 cfba
000002a0: dfd7 43ba b828 c93a b2ec 3fbb 379c bb81
000002b0: c5fb 543a c385 12ba 2e07 6b38 d428 0fb7
000002c0: 2f59 cc3a 1ebc 0f39 971d 84ba b3b8 43ba
000002d0: d779 1cba a90f 0d3a 457b dc38 dcd7 8a38
000002e0: 9880 1a38 6260 8639 fa11 0eb8 8894 adba
000002f0: f405 093b f950 063b 9d56 9bba a7fd d0b8
00000300: 7e29 22bd 4cf8 7fbe c6aa 2bbe 36ce 4f3d
00000310: 8c97 abbe 04f6 fdbd 1cb8 0abe 9c5b 1abe
00000320: 9072 36bd cb4d f8bd 9bde 76bd 2457 8cbe
00000330: 3802 843f 308e cabe 5c36 d6bd 3057 aebd
00000340: 308e 0c01 b37e 1335 2a3e 42be 7f77 113f
00000350: 8441 abbd b39b 27be ddf4 21bd de50 8b3e
00000360: d42a e9be 79dc 2cba 5396 a1be 1194 52be
00000370: 5750 ccbd ba52 063d 24c1 a2be e61a 58be
00000380: 0cb6 93bd c820 acbe 8a1d f3bd 972f 65be
00000390: 70be 193f 6627 62be b359 f3be 6f86 393e
000003a0: a8f9 c13c 3bc7 4abe 7537 83be 6c41 2902
000003b0: 6aff dcbd 0125 8ebd cf88 8c3c b9b0 d9bb
000003c0: 94c8 b6be af37 50be 984b d53d 196f 12be
000003d0: 8e5a 6ebd 8b98 51be 6f7e 62be e46a 3abe
000003e0: 2f38 16bf 25d8 52be 333a 8bbf dbbe c93e
000003f0: ad6f 16be 00d2 4abe c492 26be 0363 4bbe
0.0008965384 9.823021e-05 -0.00046600244 0.00089318113 -0.00050744 0.0016392303 0.0008174818 -0.0011686133
0.00076867256 -0.0011310573 0.0014011576 -0.0012436961 -0.0006274892 -0.00015942154 -0.0017808481 -0.0010090255
-3.652342e-39 2.9721696e-09 0.0012626959 0.00102973 -0.00024781216 -0.00019360971 -0.00040251372 -0.00037148502
-0.00078167324 -1.5127185e-06 0.00052413304 -0.000650289 -0.00031607784 0.00025834065 0.00013834766 -0.0007814998
0.0011476994 0.00038754003 -0.0010330743 -0.0014843871 0.0014375238 0.00012330034 0.00033922723 -0.00043608432
-0.00061945996 -0.00084822386 0.00429887 6.4774125e-38 -0.0006143696 -0.0022077688 0.00012529097 -1.9957384e-05
-0.0010275512 -0.0018371119 0.00017418627 -3.333212e-05 -0.0018651609 0.0011071311 -0.00051269 -0.0022398285
-0.00013254878 -0.0027910194 0.00016578214 -0.00040377496 0.00059852854 0.0036075523 -0.0029019003 0.001983937
-0.0044335397 0.0030224947 -0.0020880855 -0.0027878482 -0.0015124034 0.0016968161 -0.00014112315 0.0033150832
-0.0032942165 -0.0012718115 0.004041807 -0.0048257993 -0.0024301026 0.00042363524 -0.0070120567 -0.0030752616
-5.422149e-38 -3.6637648e-08 0.005303941 -0.0065473486 0.00012301435 -0.0014839775 -0.0013055078 0.00043145395
-0.0025517372 -8.356158e-06 0.0006841376 -0.0002248278 -0.0050407606 -0.001173994 -0.0015487135 0.00435678
-0.0023307488 0.00050191995 -0.002602001 -0.010218217 -0.012899336 -0.00270924 -0.00062306965 -0.0017457483
0.00032081475 -0.0026495943 0.006541858 4.4175508e-38 0.0077956542 -0.0058430703 0.0016864047 -5.9498943e-05
0.0010628945 0.0023717855 -1.3271907e-05 0.0028879016 0.0057106186 0.004349225 0.00023898084 0.007947212
0.00067308877 0.0018433345 -0.0008308073 0.022727396 0.0065904153 -0.0034512463 -0.008486124 0.00022949625
-0.0006990056 0.0017587636 -0.00054889056 0.0011997453 0.0011730983 0.0008894773 -0.00027562695 0.0013668551
0.00042757404 0.00059027196 0.001151597 0.0017013721 -0.0003300026 0.00013339744 -0.00031901273 -0.00061408215
4.0580617e-38 1.6201518e-08 0.00031582682 0.0005461327 1.8835504e-05 0.00073151826 0.00088712125 -0.00081304886
-0.000680818 1.10350534e-07 0.00017201788 -0.00042997167 -0.0005415054 -0.0006692595 -0.0003039994 0.00034086805
-0.00093223393 0.00022156241 9.244962e-05 -0.0019649486 0.0015274496 1.20424975e-05 -0.0008752164 -0.0015833507
-0.0007470827 0.0015347218 -0.0029285369 -6.891711e-38 0.0008124675 -0.000558939 5.6035053e-05 -8.53297e-06
0.0015590544 0.00013707622 -0.0010079619 -0.0007466182 -0.0005969083 0.00053810567 0.00010513378 6.62056e-05
3.6836223e-05 0.00025630282 -3.387218e-05 -0.0013243118 0.002090809 0.002049504 -0.0011851374 -9.965459e-05
-0.03959035 -0.24997061 -0.16764364 0.050733767 -0.3351406 -0.124004394 -0.13546795 -0.15074009
-0.04454285 -0.12124213 -0.060270887 -0.27410233 1.0313177 -0.39561605 -0.10459587 -0.085127234
2.5815953e-38 5.494614e-07 -0.18969026 0.5682296 -0.083621055 -0.16367988 -0.03954016 0.27210134
-0.45540488 -0.0006594132 -0.3156 -0.20564295 -0.09976261 0.032793738 -0.3178798 -0.21104011
-0.07212457 -0.3361876 -0.118708685 -0.22381435 0.6005621 -0.22085342 -0.47529373 0.18117689
0.023678616 -0.19802563 -0.25628248 1.2434934e-37 -0.10790904 -0.06940652 0.01715508 -0.0066433814
-0.35699904 -0.20333742 0.10414809 -0.14300193 -0.05819183 -0.20468347 -0.22118543 -0.18204838
-0.5867948 -0.20590265 -1.0877136 0.39403424 -0.14691038 -0.19806671 -0.16266924 -0.19861989

fc_logvar.bias f4 [4]
00000000: 67c0 393b 5eb7 bcba b7c0 2ebb 6389 44be
0.002834344 -0.0014397909 -0.002666516 -0.19193034

decoder.0.weight f4 [64, 49]
00000000: 1def 5dbb e0b6 05bb 5f7a 8f3a dec8 a8bd
00000010: 2d03 e5bd be28 383d 5d9d 95be dc33 d63d
00000020: fa5f 97bd 1628 78bb 1b3f 93bd 4b04 983d
00000030: b6cd a5bd 560f 173c 4854 f1bc fc38 eebd
00000040: c096 3d3d 3255 a93d 1f4d 71bd d634 4d3d
00000050: 75b5 893c 951b 873d 44b7 1ebd 2ea6 283a
00000060: 23af 00bd 9ebb a63c a89a 883d 0e16 cfbc
00000070: 8b1e c93d 0b18 75bd a12a 3ebd eb34 a5bd
00000080: 64c7 4dba 6336 853c ea38 26b8 4557 fcbc
00000090: 957d 893d c2ad acbd 4ffe 1d39 980b 0481
000000a0: ac9e 70b8 eadf 69bd 6e20 adbb 03e6 833c
000000b0: a72e d13c 8415 64bd b52b e0bb ae69 d825
000000c0: 5782 45ba fa78 423b e546 ebba 2736 0cbb
000000d0: 060b ee3e 4c7b 043d b193 343d 18ba f5bc
000000e0: 8fa5 99bb 2f03 62bd b658 dc3b c359 31bc
000000f0: 3974 333d 46ec 0b3d 6d31 72bd 4fdd 133c
00000100: 0200 223d 2b5f 53bd 81eb 61bb 4f85 13bc
00000110: b8c3 5a3c a93b e9bb 0608 233c a394 4cbc
00000120: dd5a 463c 561f 4b3d 0c46 11bd b4f9 7a3d
00000130: 9795 00bd a4c0 1d3d 6a83 3c3e c69a 0fbe
00000140: 2ea3 f7bd badb 03be f3db 653d 805b 17bc
00000150: 6636 b0bd bcc8 92bc 73fa 39bd fa11 893d
00000160: 03de aabb 72eb b53b 63a6 193b ed90 06bd
00000170: aebf 143b 330f e0bc 7752 0fbd 9879 2cbb
00000180: acec 16bd 521d 7c3d b261 133b d0db 043c
00000190: 7694 463a 8832 83be 3409 92bc 7583 0a3c
000001a0: 4640 483e c181 e7bc 841b d13d f96d debb
000001b0: dbdc 6a3c 8e9f 9e3b c042 e2bc 9582 0f3d
000001c0: c65f 5e3d 5da9 c5bb 1fec 593d 3aec e1bc
000001d0: ca3f 9d3c 9462 8cbb e170 91bc eb5f 4d3c
000001e0: f286 fd3c dca6 5abc 783b 95bc 2c4a 8cbd
000001f0: 98fe 6d3d 46c9 6b3e 2a4d cbbe 8407 b9bd
00000200: 1f60 d3bc c906 683d 4433 863d e916 3b3d
00000210: 79e2 30bd 123c 4e3d 5867 c9bd 57b0 95bc
00000220: 59be 73bc 92af 12bd 5f8c dabc e8d3 0a3b
00000230: 6d7e 96bd a2a0 70bd 68da f8bc a5e6 d43b
00000240: 7a5c 16bd 5928 44bd 49b6 173d 13b0 afba
00000250: e67e 52bb 349d b93a 59a1 1bbd da69 eb3b
00000260: 0426 693c 80fb fabe ea10 103c 3b7f 033b
00000270: 8e4f d6bc a853 61bd 5012 b1bc b066 343d
00000280: 8ae6 283d 4ce2 6fbd b903 113e 5736 8b3d
00000290: c86d 34bd 183c d13c 390f 65bd 6b3c 62bb
000002a0: b7b0 afbc 91a4 5bbc 0401 67bc a0d4 16bd
000002b0: 53c7 efbd b60c e23d 13a0 bcbc f0a2 5ebd
000002c0: fc84 bb3b 1863 d2bc 8c33 ce3d fea7 d8bb
000002d0: 412b 4a3c 1eae 9f3a d6b3 a1bd ce53 763d
000002e0: 5747 56bd f1f4 973d 7511 133d b10a 3abb
000002f0: 85d3 46bd b9ae ae3d 60e7 863d fb5a c6bc
00000300: 9452 8a3d b5f5 983d 3326 95bd 5c08 5f3c
00000310: 554f ee39 8904 2e3a 06a1 473a 70a8 08bd
00000320: 1fc2 5cbc d822 933c c450 11bf 2986 123d
00000330: 2f99 97bd ab9d c4bd 4325 933c 625c 93bc
00000340: 905a d13d 3361 94bd 2972 1b3d 53a7 e63d
00000350: 2191 9e3c cb55 2c3d de88 20bb 4983 e93c
00000360: ee24 843d 74f9 db3c b622 2bbd 8c69 a0bd
00000370: e0a8 a03d a004 94bc b528 f1bc 24c1 003d
00000380: 94c8 94bd dede fcbd 5afa ebbb fe70 9d3d
00000390: 9edd 343c ff0c 0ebc 2adc 193d 9e25 c23d
000003a0: 2d79 1d3e 59ae 8a3b 9df9 0fbd 4f00 ca3c
000003b0: 082b 1a3d ea09 253e 86dd fabd ab04 49bd
000003c0: aa0d b4bd ad3f 41bd 6bbd ee3c e199 1fbc
000003d0: 202e 1f3e 7116 a9ba cb06 f3ba 7c50 8bbb
000003e0: 8ce1 a93c 3a58 76bd a16b bd3c 6173 00bf
000003f0: 5551 683d 8acc bd3d b6dd 613d cd31 a93d
-0.0033864446 -0.0020403191 0.0010946504 -0.082414374 -0.11182246 0.04496073 -0.2922162 0.1045911
-0.07391353 -0.003786569 -0.07189771 0.07422694 -0.08095877 0.009219965 -0.029459134 -0.11631963
0.046286345 0.08268203 -0.05891144 0.050099216 0.016810158 0.06597058 -0.038748994 0.0006433454
-0.031417023 0.020353135 0.06670123 -0.025279071 0.09820279 -0.059837382 -0.046427373 -0.08066734
-0.0007849841 0.016261285 -3.963049e-05 -0.030803332 0.06713406 -0.08431579 0.00015067424 -2.425289e-38
-5.7368234e-05 -0.057098307 -0.005283407 0.01610089 0.02553494 -0.05568458 -0.006841148 3.7541638e-16
-0.0007534376 0.0029674158 -0.0017950205 -0.0021394582 0.46492785 0.032344148 0.044086162 -0.029995963
-0.0046889256 -0.055178817 0.0067244424 -0.0108246235 0.04381201 0.034160875 -0.059129167 0.009024932
0.03955079 -0.05160443 -0.0034472647 -0.009003951 0.013352327 -0.0071177077 0.009950643 -0.01248661
0.012106624 0.04959043 -0.035467193 0.06127329 -0.03139266 0.038513795 0.18409505 -0.14023885
-0.12091671 -0.12876788 0.056117963 -0.009238124 -0.08604126 -0.017917983 -0.045404863 0.06692882
-0.005214454 0.005551749 0.0023445121 -0.032853056 0.0022697258 -0.027350998 -0.034990754 -0.0026317593
-0.0368468 0.0615514 0.002248865 0.008109048 0.0007575223 -0.2562449 -0.017826654 0.008454193
0.19555768 -0.028260114 0.10210326 -0.006788012 0.014334883 0.0048407977 -0.02761972 0.035036642
0.054290555 -0.0060321526 0.0532037 -0.027578462 0.019195456 -0.0042842124 -0.01775402 0.012535076
0.030948136 -0.013345446 -0.018216833 -0.06850085 0.058104128 0.23025998 -0.3970731 -0.090346366
-0.02580267 0.056647096 0.06552747 0.045676146 -0.04318473 0.050350256 -0.098341644 -0.018272562
-0.014876925 -0.03581197 -0.026678262 0.0021183435 -0.073483326 -0.05874694 -0.030377582 0.0064972215
-0.036709286 -0.04789004 0.037039075 -0.0013403915 -0.0032119094 0.001416123 -0.03799567 0.0071842493
0.014230255 -0.49020004 0.008793095 0.002006485 -0.026160982 -0.05501142 -0.021615177 0.044043243
0.041235484 -0.058565423 0.14161576 0.06797474 -0.044050008 0.02554135 -0.05592272 -0.0034520875
-0.021446569 -0.013405935 -0.014099363 -0.03682387 -0.1170794 0.11037581 -0.023025548 -0.054354608
0.00572264 -0.025682017 0.100684255 -0.006611823 0.012339414 0.0012182628 -0.07895629 0.060138516
-0.05231413 0.07419766 0.03590532 -0.002838772 -0.048541564 0.085294195 0.065871 -0.024213305
0.06754032 0.0746874 -0.072826765 0.013612833 0.00045454004 0.0006638249 0.0007615242 -0.03336376
-0.013474016 0.01796095 -0.56763864 0.035772476 -0.07402264 -0.09600385 0.017962104 -0.017988387
0.102223516 -0.07245102 0.03795067 0.11262383 0.019356312 0.042074006 -0.0024495642 0.028504984
0.06452356 0.026852347 -0.04178115 -0.078326315 0.0784471 -0.018068612 -0.029438356 0.031434193
-0.0726482 -0.12347196 -0.007201475 0.07687567 0.011039166 -0.008670091 0.03756348 0.09479831
0.15378256 0.0042322096 -0.03515016 0.02465835 0.037638694 0.16117063 -0.122492835 -0.049076717
-0.08791669 -0.047179867 0.029143056 -0.009741277 0.15544939 -0.0012900365 -0.0018541453 -0.004251538
0.020737432 -0.060142733 0.02312261 -0.50176054 0.05671819 0.09267528 0.05514308 0.08261452

decoder.0.bias f4 [64]
00000000: 0ba3 d4bd 697a f7bd 4b5a d83b 7c02 f2bd
00000010: 8646 c0bd ca78 a6bb 427b 04be cab0 6c3d
00000020: ae6a 783d 96ff 62bc 29d0 52be b8f4 82bd
00000030: 6a19 053d 45e2 30be 07ad 413d 1363 3d3e
00000040: 01c5 273e a20d 033d e149 3abe 0330 983c
00000050: 37a4 003d 0ab0 d63c e075 063d 0a1d 67be
00000060: b36c 3a3e f557 48bd 5456 6abd f975 9fbd
00000070: 6f1c 5cbd e532 91bd 9da4 9fbd 7e53 17bd
00000080: cceb 603b efc9 c93d 15a7 283e c957 cbbc
00000090: c00a 9b3d 5a2f b33d 2642 b8bc d96c dd3c
000000a0: 60f2 0e3e 7e71 4f3d 4e7c 83bd 6a59 c7ba
000000b0: 91e1 1c3e 9f91 46bd 52e4 483e 8933 ea3d
000000c0: 2146 ba3d 6f00 01bd 0f5d e3bd d099 f9bd
000000d0: d4d5 ab3d 2f82 9bbc 8242 2f3d 53a7 b1bd
000000e0: eae3 fcbc c6ac acbd f804 44ba 75b8 203e
000000f0: ce58 823c 5bb4 3abd baa8 0a3e f3b1 86bd
-0.103826605 -0.12083895 0.0066025606 -0.1181688 -0.09388451 -0.005080317 -0.12937644 0.057785787
0.060648613 -0.013854882 -0.2058722 -0.06394333 0.03249494 -0.17273815 0.047284152 0.18494825
0.16383745 0.031995423 -0.18192245 0.018577581 0.031406607 0.026206989 0.032827258 -0.22569671
0.18205528 -0.048912007 -0.057211235 -0.077861734 -0.053738054 -0.070897855 -0.07795069 -0.03694486
0.0034320233 0.09852969 0.16469987 -0.024822133 0.0757041 0.08749266 -0.02249248 0.027029442
0.13959646 0.050645344 -0.064201936 -0.0015209143 0.15320422 -0.04847872 0.19618347 0.11435611
0.09095407 -0.031494554 -0.11101734 -0.121875405 0.08390394 -0.018982975 0.042788036 -0.08674493
-0.030870397 -0.084313914 -0.0007477547 0.15695365 0.015911486 -0.045582157 0.13540927 -0.0657691

decoder.2.weight f4 [64, 64]
00000000: e304 92bd c7e7 b33d 68ea ed3d 0014 ed3a
00000010: d925 fabd b7a6 bebd ed58 ce3b 560e e23c
00000020: 9dc1 c83d 1c43 413c c74b e4bc bc45 4fbd
00000030: 117d 803d 7ef3 3ebd 3b50 893d 5e33 9f3d
00000040: 3a94 973d 1005 3dbd 8624 adbd c9fa 533c
00000050: bfc0 213d fcad 6d3d ec3f acbd 1377 633d
00000060: 01cc 82bd ec56 a0b9 21fe c6bd fd8e 73bb
00000070: 934d 0b3d dbfe f6bc e146 613c a5cb 7cbd
00000080: 519f a3bd a864 ffbc 26c1 093e 20b2 263b
00000090: 503a 5bbc 9ef3 e6bd 815c d93c 6441 46bb
000000a0: 5f29 953b d3f6 4cbd 2015 c83d 40fb 9ebd
000000b0: a15f bf3d 7570 35bd 4531 84bc 6899 0b3d
000000c0: 6806 cd3d 7911 acbc c953 6a3d 103e 803d
000000d0: 20e7 a7bc 76f7 c43c 9b9a 0bbb 50b6 abbd
000000e0: f5dd d03d 2703 f13b 0aaf f0bc 029c abbc
000000f0: 08ea 633c f7b9 febd 1ebe 303d 1630 b2bd
00000100: 75e7 10bd ef2a a7bc 0b86 f83c 575f 16bc
00000110: 1ab8 49bc 9728 3c3a b8df bbbc e689 0fbc
00000120: bd15 82bd 6daf 1ebc 5bcb afba 29df 4cbd
00000130: 36b6 b3b9 c4cf 14bd e7de d63c 8d7e e83d
00000140: 1359 feba 71bd 8bbc fb9e b739 f54d 02bc
00000150: 2c85 2b3d fc4a b93d e0ab 4dbd 7fcb e8ba
00000160: 18fe 20bd ec06 c9bc f396 823d e334 273d
00000170: f50e 5bbd 0a47 c5bd 38f4 00bb ef42 583d
00000180: 6e91 65bd a334 3bbd 8975 e6bd adfa f23c
00000190: 91a8 b83c 9fe7 e63b d72a d03b 6d79 88bd
000001a0: 6ecb 1dbd 16e2 25bd 86a6 1b3d 5763 7ebd
000001b0: 9e64 12bd c78e 683c 5e54 713d f73c 8abd
000001c0: 3504 613d d0da 163d 6ac0 b63d 2035 2abc
000001d0: d905 5abd 7293 583d aa57 bbbd 2ca4 30bd
000001e0: c16d 2bbd fd3d 28bd b215 6cbd 3bea 823c
000001f0: 860b 05bd bee9 05be 0374 053e 386f 33bd
00000200: 9be3 843d 9a9a e7bd b450 99bc 740f 20bd
00000210: 20cb 103e 3f55 063e 3a2c fbbc 1f15 84bb
00000220: f8e8 a7bb ac1f 003d c53d 8ebe fa1c a7bd
00000230: 0495 8c3d a0e7 cdbd 9954 b03d 7c7a 95bc
00000240: 4537 38bc a335 0cbc 9189 1abd c041 e7bd
00000250: 5fba 6f3d 3adb 28be 28ad 91bb 9dfe c8be
00000260: eb90 57be 7b43 afbd 2ef1 0abd ee98 aa3b
00000270: 64a4 f4bc e6ca 9c3d 64b4 743d 2e86 cabb
00000280: 4da3 b8bd 493e afbd 3d55 a9bd f8c0 663d
00000290: b479 b43d eaf4 f73d 3066 91bd e46b 2cbd
000002a0: cb98 34bd 72f0 85bc 10e6 993d d77c 343d
000002b0: de0f a0bd c3b2 94bd 64b4 4d3d 3e6a 433e
000002c0: 0eb6 8b3d fc2d 76bd 6985 53bb 14c8 5c3d
000002d0: 9ddb 0f3e 3f19 42bd a1e2 103d e144 5f3d
000002e0: 905a 9d3d a4a8 87bc b815 97bc 1684 203e
000002f0: 4077 883d ad72 c43d 94f7 843d 5111 ea3d
00000300: 8b50 153d 6289 c4bd 9a8a 11be c8cf 7e3d
00000310: edce d33d e1df e03b a5b5 c93c 2a7d 6e3a
00000320: a666 8c3d f53a 7abd 4fa8 bcbd 9405 36bc
00000330: 7c29 4b3c 92ab 68bd 47d4 9fbd 30f9 813d
00000340: 1217 a13c ee74 fbbc c4e9 40bd 9914 ba3c
00000350: 43a3 2e3e 5d7b 2bbe 5157 0c3e fffc 26be
00000360: 27cd d3bd ac4b e6bc f3b8 15bc 236d 463b
00000370: c48f 2fb9 413e 223e cc87 a43d 0cec 493d
00000380: fb71 033e 3827 09be 416f 503d 2803 183d
00000390: f86b 183d c4e5 683c 60ac 50bc 199b c93c
000003a0: e363 08bb 5859 72bd c9ac f7bc a686 153d
000003b0: 7a6d 343d eff0 123d 4e85 86bd f165 2f3e
000003c0: 5924 b43d 8685 a83b a852 773d eeac 1a3d
000003d0: d0ac 88bd 346f 493d eff4 1e3d ba4a e03c
000003e0: 1863 b2bd 3fbe 01bd 9522 91bb 8e88 b93d
000003f0: 4a78 9e3b eeb0 4c3e 4fb4 bcb9 1ac1 8b3c
-0.07129838 0.087844424 0.11616975 0.0018087626 -0.1221425 -0.09309142 0.006297222 0.027594727
0.09802554 0.011795785 -0.027868165 -0.050603613 0.062738545 -0.04661893 0.06704756 0.077734694
0.07401319 -0.046147406 -0.08454232 0.01293821 0.039490458 0.058027253 -0.0841063 0.05553348
-0.06386567 -0.0003058234 -0.0971644 -0.0037164085 0.034009527 -0.030150821 0.013749809 -0.061717648
-0.079893716 -0.031175926 0.13452587 0.002543576 -0.013380602 -0.11276935 0.026533367 -0.0030251378
0.004552051 -0.050040077 0.09769654 -0.07762766 0.09344412 -0.0442967 -0.016136775 0.034081846
0.100109875 -0.021004425 0.05720881 0.062618375 -0.020495951 0.02404378 -0.002130187 -0.08384383
0.10198585 0.007355112 -0.02938034 -0.020948414 0.013910778 -0.12437814 0.04315006 -0.08700578
-0.035376985 -0.020406215 0.030337354 -0.009178004 -0.01231196 0.0007177679 -0.022933826 -0.008760905
-0.063518025 -0.009685379 -0.0013412045 -0.05001751 -0.00034277298 -0.036330953 0.026229335 0.11352263
-0.0019405208 -0.017058106 0.0003502293 -0.007953157 0.04187505 0.09047505 -0.05021274 -0.0017760842
-0.039304823 -0.024539433 0.063764475 0.04082192 -0.05348106 -0.0963269 -0.0019676816 0.052798208
-0.056046896 -0.045704495 -0.11252887 0.029660547 0.022541316 0.0070466544 0.006352763 -0.06663785
-0.038524084 -0.040498815 0.038000606 -0.062106457 -0.035740487 0.014194197 0.05891835 -0.06749909
0.054935653 0.03682977 0.08923419 -0.010388643 -0.053228233 0.05287499 -0.0914758 -0.043125317
-0.041852716 -0.04107474 -0.057637878 0.01598083 -0.032481693 -0.13077447 0.13032536 -0.04380724
0.06488725 -0.11308785 -0.01871524 -0.039077237 0.14139986 0.13118456 -0.030660737 -0.004030838
-0.0051242076 0.031280205 -0.277815 -0.08159824 0.0686436 -0.100539446 0.08609886 -0.018246882
-0.011243646 -0.00855771 -0.03772885 -0.11291838 0.058527347 -0.16489878 -0.0044456907 -0.39256755
-0.21051376 -0.08557793 -0.033921413 0.005206219 -0.029863544 0.07655887 0.059742346 -0.0061805462
-0.09015522 -0.08556802 -0.08268211 0.056336373 0.088122755 0.121072605 -0.07099569 -0.04209508
-0.044091027 -0.016350005 0.07514584 0.04406437 -0.078155264 -0.072606586 0.050220862 0.19083497
0.068218336 -0.060102448 -0.0032275564 0.053901747 0.1404862 -0.047387358 0.03537238 0.054509047
0.07683289 -0.016559906 -0.018442973 0.15675387 0.0666337 0.09592185 0.06492534 0.11429084
0.036453765 -0.09596516 -0.14213029 0.062209874 0.10342202 0.006862626 0.024622748 0.00090976304
0.06855516 -0.061091382 -0.0921179 -0.011109728 0.012400027 -0.056804247 -0.078041606 0.06346357
0.019664321 -0.030695405 -0.047097936 0.0227149 0.17054467 -0.16746278 0.13705184 -0.16307448
-0.10341864 -0.028112255 -0.009138334 0.0030277453 -0.00016742857 0.1584406 0.08033714 0.049297377
0.12836449 -0.13393867 0.05088735 0.037112385 0.037212342 0.014214937 -0.01273641 0.02461009
-0.002081149 -0.059167236 -0.030233758 0.036505364 0.044049717 0.035874303 -0.065683946 0.17128731
0.08795995 0.0051428704 0.06038156 0.037762575 -0.06673586 0.049178317 0.038807806 0.027379382
-0.08710307 -0.031675573 -0.0044291713 0.09059249 0.004836117 0.19989368 -0.00035992495 0.017059851

decoder.2.bias f4 [64]
00000000: 1902 f03d 855e 9c3d 3fc7 7d3b 09bc fa3d
00000010: 919a febc 8d47 01bc 1a19 03be 5d6c babd
00000020: 81fd 3c3e fb2b 1fbe 709c 813d e8c6 743d
00000030: 79a3 f23d 9f4a d7bd 8cff fcb3 7778 193e
00000040: 6fd7 1dbd 6e1f 8fbd 4702 3f3e c1fe ba3d
00000050: 9b42 66bd ea68 209c 7e33 0d3e 052c 7b3d
00000060: 6667 88bd 44bd 1caa 122a 2a3d 1aea f63d
00000070: ba9c 2ebc ffb6 98be 6857 e3bc ef15 dc3c
00000080: 435c a03c 3cfa eabd 4cf0 71bc c120 d93c
00000090: 02bd 06be e3a1 d8bc aa89 15be b4aa 8ebc
000000a0: f064 dbbd 88ab 8fbd dc36 7b3d f434 2ebd
000000b0: b2eb ecbd 9684 4ebc 91a2 0bbd 5de7 063e
000000c0: b648 5c3c e036 0a93 07b8 2bbe b2ef 743d
000000d0: ac90 8f3d 3d85 03bd f590 e83c 2658 9c3d
000000e0: dedc c53d 9fe6 19be 2917 1bbe 1d7f 0f3d
000000f0: 1c0f 033d 68d7 a73c 3554 e0bd f869 25be
0.1171915 0.07635216 0.0038723496 0.12242896 -0.031079562 -0.007890594 -0.12802544 -0.091027
0.18456079 -0.15544121 0.06328666 0.059760004 0.11847586 -0.1051228 -1.1781148e-07 0.1498736
-0.03853553 -0.069884166 0.18653212 0.09130622 -0.056215864 -5.3075157e-22 0.13789174 0.061321277
-0.06660347 -1.3921248e-13 0.041544028 0.1205637 -0.010657484 -0.29827115 -0.02775164 0.026865928
0.019575244 -0.1147351 -0.014766764 0.026504876 -0.13158038 -0.026444381 -0.14603296 -0.017415382
-0.10712612 -0.07015139 0.061331615 -0.04253097 -0.11568393 -0.012604853 -0.034090582 0.13174196
0.01344507 -1.7445104e-27 -0.1676942 0.059798904 0.07010016 -0.032109488 0.028389433 0.076340005
0.09661268 -0.15029381 -0.15145554 0.035033334 0.03199683 0.020488456 -0.10953561 -0.16153705

decoder.4.weight f4 [1, 64]
00000000: a9a7 353d aa2d 253d e978 0abe a7f4 98bd
00000010: aa4d 7c3d 75d3 30bd 8d49 62be 217e 3abe
00000020: 6e5a a53d ec0f 023f b1c2 f0bd 17b7 0b3d
00000030: 1829 a8bd 9e7c 903d 1a58 c3b2 5e62 7d3d
00000040: f627 d83d f45f 08be d956 a73d ee5b 6dbd
00000050: 4c98 ea3d 3c93 c902 47ab 123d b8c3 92bd
00000060: cf94 d1bd 3800 551a 00f5 033d fba4 98bd
00000070: ec4a 0d3d 7df6 acbe 752c dbbd 65b8 8d3d
00000080: 20bf a93d 867e b5bd 4d31 05be 89d2 a2bd
00000090: 284d 70be 8556 d33c 7429 b7bd 982d 243e
000000a0: 442d c0bd df6a 47be 9b89 2fbd 21fe febd
000000b0: fc7c 2b3e c624 ae3d c36f 1d3d a2a3 b6bd
000000c0: d06c 0b3e c682 6eb6 93cc 12be e135 c2bd
000000d0: 80c3 c2bd b5bd 5dbc b867 943d 0c3b 06be
000000e0: dfd4 183e be2e 11be 68dc bb3e 8c03 7ebd
000000f0: 68ee a23d a900 8e3d 8dce 02be 3b4e c2bd
0.044349346 0.04032675 -0.13522686 -0.07468539 0.061597504 -0.04317041 -0.2209837 -0.18212177
0.08073889 0.50805545 -0.117558844 0.034110155 -0.08210963 0.07055019 -2.2741052e-08 0.06186139
0.10554497 -0.13317853 0.08170862 -0.057949 0.114548296 2.9618804e-37 0.035807874 -0.07166237
-0.10233461 4.4047544e-23 0.032216072 -0.074533425 0.03449528 -0.33781806 -0.10701839 0.06919936
0.08288407 -0.08862023 -0.13007088 -0.07950313 -0.23466933 0.025798092 -0.089434534 0.16033018
-0.09383634 -0.19474362 -0.04285584 -0.12450815 0.16746897 0.08503108 0.038436662 -0.08917929
0.13615727 -3.5540884e-06 -0.14335851 -0.09482933 -0.09509945 -0.013533999 0.07246345 -0.13108462
0.14924954 -0.14177987 0.36691594 -0.0620151 0.07955629 0.0693372 -0.12774105 -0.094875775
