models/cvae_L24_H256_B0.500_LR5e-04.pt (torch, 718813 bytes, 13 tensors)

encoder.0.weight f4 [256, 46]
000000 85 2c 32 bd 76 19 05 3c 06 00 f8 bc c5 33 40 3c
       -0.04349949 0.008123746 -0.030273449 0.011731093
000010 e9 38 2a 3d 95 4c 1d bc 61 f9 26 bb 7d 47 dd 3c
       0.04155818 -0.009600778 -0.0025478231 0.027011627
000020 33 34 55 bc b3 8c 4b 3c b4 ef c0 bc ac 34 8c bc
       -0.013012934 0.012423682 -0.0235518 -0.01711496
000030 8f 3c e6 3a 22 99 17 bc 20 56 ca 3c 9d 52 77 3c
       0.0017565655 -0.009252818 0.02469927 0.01509538
000040 47 50 14 bd c8 d0 cc bb 65 58 43 3c ac 9c 8c 3c
       -0.03620937 -0.0062504746 0.01192293 0.01716455
000050 1d 45 11 3c 30 15 29 3d 2f 3a b7 3c 4f 49 9d bc
       0.008866576 0.04127997 0.022366611 -0.019199995
000060 0a d7 a6 3a e4 43 98 3b d6 c6 dd 3b b1 e3 8b bb
       0.0012728882 0.004646765 0.006768088 -0.0042690863
000070 35 9e 02 bd f8 e5 b1 bb 1a 79 d6 ba 0e 89 95 39
       -0.03188916 -0.0054290257 -0.0016362995 0.00028521608
000080 69 57 78 bc 61 9c 45 3c 2a c0 84 3b ef 8a d1 bb
       -0.015157559 0.012061209 0.004051228 -0.006394736
000090 36 fd 9d 39 69 8d 95 39 a0 86 dc ba 4d e2 85 bc
       0.0003013403 0.00028524853 -0.0016824789 -0.01634326
0000a0 f3 21 0f 3b 33 7d fb bb 75 8b f4 bb 53 48 34 3a
       0.0021840304 -0.007674837 -0.0074629136 0.0006877232
0000b0 bc e8 63 bb 54 55 7f ba 67 dc 59 be 0f c1 0b bd
       -0.0034776172 -0.0009740193 -0.21275483 -0.034119662
0000c0 e6 eb 28 bb f5 e7 6d 3e 29 97 12 bd dc a6 8e bd
       -0.0025775372 0.23233016 -0.03578869 -0.0696542
0000d0 27 80 3f bd 2f c3 c5 bc cf e4 8f 3d 4a b2 04 bd
       -0.046753075 -0.024140922 0.07026064 -0.032396592
0000e0 f4 3f cb bc 01 36 bb 3d 4e da 0b be 3d 24 e1 bd
       -0.024810769 0.0914116 -0.13657495 -0.1099324
0000f0 07 55 49 3d af 66 aa 3d 82 7e 27 bd 91 73 3d bd
       0.049153354 0.083203666 -0.04089213 -0.04625279
000100 a9 e0 d9 bc dc f9 76 3c 64 f8 15 3b b7 27 c0 3d
       -0.026596384 0.01507422 0.0022883648 0.09382575
000110 18 89 07 bd 90 7c 10 be ca 33 22 3e 3d 0d a5 bd
       -0.033089727 -0.14110017 0.15840068 -0.080591656
000120 a5 83 a6 3c 1b 19 19 3e 01 10 88 3c 4f d6 00 3e
       0.020326445 0.14950983 0.016609194 0.12581752
000130 3c 16 62 3b 87 3e 62 bb b3 8d 05 3e 3a 27 ec bb
       0.0034498116 -0.0034522132 0.13042335 -0.0072068246
000140 38 cb ac bb df d8 55 3d 81 a9 04 3d 86 3e 62 bb
       -0.005273249 0.052208778 0.032388214 -0.003452213
000150 18 4f 57 bc 0b 01 0a 3d a7 2a a3 bd 5c d6 bd 3d
       -0.013141416 0.0336924 -0.0796712 0.092694014
000160 f3 98 27 3d fe 2e 24 bd 07 eb 3a 3d 45 5d 62 bb
       0.040917348 -0.040083878 0.045634296 -0.0034540456
000170 d5 8e 4e be 56 a1 82 bd ed 43 ba 3d 73 7e 8b 3e
       -0.20171674 -0.06378429 0.09094987 0.2724491
000180 21 71 91 bc 6d 06 32 bc bf 79 aa 3d d0 51 d5 3c
       -0.01775414 -0.01086579 0.083240025 0.026039988
000190 27 20 bf bd 8c da 97 bd f6 d7 42 bd 1f b7 b6 bc
       -0.093323044 -0.074147314 -0.047569238 -0.022304116
0001a0 80 31 e3 3d 6e a6 37 3d 5f 4f 0b be 2c 16 80 3d
       0.11093426 0.044836454 -0.13604496 0.06254229
0001b0 e6 24 3a bd ad 68 cc bd 7f e7 a0 bd 14 f4 cf 3d
       -0.045445345 -0.09980903 -0.078566544 0.10153976
0001c0 0a ea 75 bd b1 1f 8b 3d 01 2d d2 3d 27 1a 9c 3d
       -0.06003765 0.06793154 0.1026249 0.07622176
0001d0 e8 bb 23 3e 31 37 6c 3d 8f 9d 5c 3d 72 ef 07 3e
       0.1598965 0.057669822 0.053861197 0.13274935
0001e0 1d 07 d8 3d 0d 84 00 3e da d8 94 3d 66 2e 1e 3c
       0.10548232 0.12550373 0.07267924 0.009654617
0001f0 57 3b ce 3c d4 23 cb 3d a4 a9 04 3e fb 2b 7c 3d
       0.02517478 0.09918943 0.12955338 0.06156538
000200 ed 39 8c 3c c6 79 82 bd cf 7a a8 3d 0b 9a 97 3d
       0.017117465 -0.06370883 0.08226549 0.07402428
000210 c5 bf 11 3e c6 2d b4 3c e2 0c 88 bc d1 6c 02 3e
       0.1423331 0.021994483 -0.016607706 0.12736823
000220 8c 77 a8 bd bb 20 81 bc ae 97 39 be 19 0a e2 3d
       -0.08225927 -0.015762677 -0.18124267 0.11037082
000230 6b ca ac 3d b1 08 a6 3d bd 74 0a 3c c4 44 b9 3b
       0.08437046 0.081071265 0.008450684 0.0056539495
000240 8b 13 b3 bb 18 b2 1e bd c5 bc 02 3d c4 08 42 3d
       -0.005464976 -0.038744062 0.031918306 0.04737164
000250 b8 b0 a3 3d 9b 11 9c 3d 4a ca 85 3d f9 7b 29 3c
       0.07992691 0.076205455 0.06532724 0.010344499
000260 87 38 4a bc ae b5 8d bd 07 22 91 3d 66 d6 97 bd
       -0.012342579 -0.06919418 0.07086568 -0.0741394
000270 cd c7 af bd ea 12 4b bd fe 5e 12 bc af a4 de bb
       -0.08583031 -0.049578585 -0.008933781 -0.006794534
000280 91 04 60 bd 31 40 4f bc 99 0b 5e bd 92 96 04 be
       -0.054691855 -0.012649582 -0.05421028 -0.12948063
000290 58 58 a6 3d 5d 83 ce 3c e8 5d c0 3d e9 18 90 bc
       0.08122319 0.025209123 0.09392911 -0.017590003
0002a0 65 cd 4a 3d 95 23 8b 3c 64 2d 7c bd 25 15 99 3d
       0.049512286 0.01698474 -0.061566725 0.07474736
0002b0 4e 87 9b bd 90 2d 33 3c 51 c1 09 bc ee 09 03 bc
       -0.07594167 0.010936156 -0.008407907 -0.007997973
0002c0 27 da 18 3d e3 00 af bc 3a 53 32 bb aa 6a 9c 3d
       0.03731742 -0.021362728 -0.0027210251 0.07637532
0002d0 8a 4f 28 bd 7e 0c 11 3d 04 73 8e bc 05 c5 34 bd
       -0.04109148 0.035412304 -0.017388828 -0.044133205
0002e0 ae 33 f7 bd 43 aa 02 bd c7 f2 30 3d 3f 72 18 bd
       -0.12070404 -0.031900655 0.04320028 -0.03721833
0002f0 7d 51 00 bd 8a 77 37 bd 40 c2 0d 3d 9c ae 80 3d
       -0.031327713 -0.044791736 0.03460908 0.06283304
000300 f1 1d 22 3d e0 03 34 bd 07 1c 6c bd 53 4b 59 3d
       0.039579336 -0.043949008 -0.057643916 0.05305035
000310 fd 5a 8a bc 99 3b 37 bd b2 55 29 bd c2 59 1d bc
       -0.01688909 -0.04473457 -0.04134149 -0.009603919
000320 68 3b 69 3c 98 1c 9f bc fc 04 51 bd fd ac 35 bd
       0.014235355 -0.019422814 -0.051030144 -0.044354428
000330 05 86 c8 bd 12 f2 5f bd 6f c3 a4 bb 0a b6 48 3d
       -0.09791187 -0.054674216 -0.0050281803 0.04900173
000340 8b 7e ba bd 02 e9 47 bd fe c0 16 3d 05 4c 10 be
       -0.091061674 -0.048806198 0.036805145 -0.14091499
000350 cb 98 a5 bd 6b b6 bc bb d8 7d e6 3b fe 5b 9e bb
       -0.080857836 -0.0057590506 0.0070340447 -0.0048327437
000360 96 66 58 bd 5c cd 9a 3c 36 ee 2b 3d e5 35 02 3b
       -0.05283221 0.018896751 0.041975223 0.001986855
000370 81 02 0c 3b 57 99 9c bb d9 52 c8 3b b5 6a 81 3c
       0.0021363797 -0.0047790217 0.006113392 0.015797952
000380 cc 02 67 3c f6 53 b9 3c 6f 7a 81 3c f7 a2 90 3c
       0.014099788 0.022623044 0.015805451 0.017655833
000390 34 b2 76 bc 9c 9d 18 bc de 6d 06 be d4 a6 18 3d
       -0.015057135 -0.009314921 -0.13127849 0.037268475
0003a0 0a 74 c6 bd ab 47 27 3e 6d 3a e3 bd 4d 44 71 3d
       -0.096901014 0.16335933 -0.11095128 0.058903027
0003b0 4a 43 1a bd 17 63 3e bd 6c a7 7e bd 81 7c 6a 3d
       -0.037661828 -0.04648122 -0.062171385 0.057247642
0003c0 19 b0 11 bc 3d fb 02 be 3a e4 c9 3d a8 51 69 3d
       -0.008892083 -0.12791152 0.09857984 0.05696264
0003d0 dd ed 7a 3d 9d c5 13 3e 5f 8d e1 3c e3 6e 18 bd
       0.061262 0.14430852 0.027533231 -0.037215125
0003e0 26 a6 34 3d f1 da eb bd 5e 21 a3 bd 64 fa 88 bc
       0.044103764 -0.11516369 -0.07965349 -0.016720958
0003f0 81 41 89 bd 3e cb 23 bc 06 98 a0 3d 0b 52 c4 bd
       -0.06701947 -0.009997187 0.07841496 -0.09585961

encoder.0.bias f4 [256]
000000 c9 26 56 bd f4 af cd 3c cc 2a 23 3e 4e 92 db bd
       -0.052283082 0.025108315 0.15934294 -0.10721265
000010 fb 93 d2 3c 80 4f 95 bc d2 d4 f5 3d a7 66 de 3d
       0.025705328 -0.018226385 0.12003483 0.10859423
000020 15 29 13 bd 2c e3 99 bd c2 50 29 3d ed 01 f4 3d
       -0.03592785 -0.07514033 0.041336782 0.1191443
000030 50 d4 a9 bc f5 99 88 3d 76 cb 00 bd 9d cd a3 3d
       -0.020731121 0.0666999 -0.031444035 0.07998202
000040 4f 6e fa 3d 3b 4a 07 3d 6a 6b e5 bd 9c 9f 09 3e
       0.12228071 0.033029776 -0.11202128 0.13439792
000050 e8 dd 5f 3d a7 03 3c 3e 5f 26 e2 bd 54 be b9 3d
       0.054654986 0.18360768 -0.11042475 0.09069505
000060 1a 5a 98 bc 91 98 20 3d 10 62 4d 3d 75 cf a4 bd
       -0.018597651 0.039208 0.050142348 -0.08047382
000070 8a c6 3c bd 1a 32 c0 bd 47 e5 1c 3d 6b ee 04 3e
       -0.04608778 -0.09384556 0.038304593 0.12981574
000080 ec e2 00 bd 3c f3 c7 bd 1e 2a d4 bd b1 27 97 bd
       -0.03146641 -0.0976319 -0.10359596 -0.073806174
000090 5c fb 63 3d f7 54 2d 3e ad 14 b1 3c a1 ba 06 3e
       0.055659637 0.16926943 0.021616304 0.13157131
0000a0 92 13 90 3d 6f 32 f4 bc 2b 2e 28 3c 15 78 f9 bd
       0.07034983 -0.029809205 0.010264914 -0.12181107
0000b0 88 8c 93 3d 34 d8 8f 3c d2 4b 06 3d 58 d9 20 3e
       0.072045386 0.017559148 0.03278715 0.1570791
0000c0 f7 a4 8b bd 81 a8 e5 3c 07 04 9f 3d 37 7a 17 3d
       -0.06818574 0.02803445 0.0776444 0.036981788
0000d0 38 3c d2 3d ec 83 ce 3d cc 96 03 3e 80 cc d8 bd
       0.10265392 0.10083756 0.12850493 -0.1058588
0000e0 9b 96 e6 bd 39 73 50 3d 43 a5 02 bd 5b da 3e bd
       -0.112591945 0.050891135 -0.031895887 -0.04659496
0000f0 64 e6 db bd 7f 68 0c bd f4 9b a4 3d c3 76 a9 3d
       -0.10737303 -0.034279343 0.08037558 0.08274605
000100 23 86 b7 bd e9 9e b9 bd f6 27 8d bc 07 e7 24 3e
       -0.089611314 -0.09063513 -0.017230969 0.16103755
000110 29 20 57 3d d1 4f c4 bd c7 b3 19 bc f9 9a ba bd
       0.052520905 -0.09585536 -0.009381241 -0.0911159
000120 c3 7c 82 bd 7b a9 b5 3c 92 4f 8f 3d 87 40 a2 bd
       -0.06371453 0.022175541 0.06997599 -0.07922464
000130 b6 5b 4c 3d 4d c6 a5 bd ea 6d f0 bc 2b 77 f0 3d
       0.04989215 -0.080944635 -0.029349286 0.117414795
000140 49 1f 7a bd a5 f0 d4 3c 84 a9 43 3d 9b 1f cf 3c
       -0.061064992 0.025993655 0.047769085 0.025283625
000150 d2 e2 b1 3d 9c 34 09 be 86 58 e0 bc 85 76 d5 bd
       0.08685841 -0.13398975 -0.027385961 -0.104229964
000160 ff f1 96 bd 40 84 11 bd a2 ba 5d 3d a3 31 66 3d
       -0.07370376 -0.035526514 0.054133065 0.05619968
000170 3b a0 91 3d 89 99 26 3e e8 a5 b9 bd 5f dd 78 3c
       0.0711064 0.16269507 -0.09064847 0.015189498
000180 de 59 9c 3b 91 8c e8 bd de f8 ed 3c 8e 5a 82 3d
       0.004771455 -0.11354936 0.029049333 0.06364928
000190 54 75 9c 3d 92 7a 99 bd 27 00 f0 3c 70 b9 98 3c
       0.07639566 -0.074940816 0.029296948 0.018643111
0001a0 14 d7 84 3d 9d 6a a3 bd c9 6b f7 3d c9 39 ac bd
       0.064863354 -0.07979319 0.12081105 -0.08409459
0001b0 f4 8c ec 3d 36 64 fa 3d 80 59 38 3e 7e 47 aa bd
       0.11550322 0.12226145 0.18002892 -0.08314417
0001c0 ac bc b1 bd ad 97 92 bd 9a 3d 13 3e 49 0f bd bc
       -0.086785644 -0.07157836 0.14378968 -0.023078578
0001d0 aa c1 35 3d 14 02 6e bd 3b f3 97 bd b8 73 fd bd
       0.044374146 -0.05810745 -0.074194394 -0.12375587
0001e0 8b b6 02 be e3 27 e4 3d 62 ed 69 3b f5 62 85 3d
       -0.12764947 0.1114042 0.003569447 0.06513015
0001f0 4c 03 2b 3d 82 2b 15 3e 93 f3 9f 3d 55 16 b2 3c
       0.04175119 0.14567378 0.0781013 0.021739164
000200 f7 98 ca bd 7a dd 9b 3d 53 e1 d4 bd cc af f5 bd
       -0.09892457 0.07610603 -0.1039454 -0.11996421
000210 ec e7 bf 3b da 49 d3 bd 9d 15 a0 3d 6d 85 f5 3d
       0.0058565047 -0.103168204 0.078166224 0.119883396
000220 3a 4d 89 bd cf c5 93 3b 77 e3 82 3d c3 f4 bf bd
       -0.06704183 0.0045096646 0.06391042 -0.093728565
000230 3a 11 f0 bc c0 2e 95 3d bf 62 8a 3d ac 56 02 3d
       -0.02930509 0.072843075 0.067571156 0.031820938
000240 7f 8b 28 3b 1f af 26 bc 1a da e3 bc 87 00 62 3d
       0.0025717912 -0.010173588 -0.02781396 0.055176284
000250 06 f4 b3 bd f3 5a 74 bd 25 d8 fb bd 29 08 03 be
       -0.08786778 -0.05965705 -0.12297086 -0.12796082
000260 e9 2e ed bd 35 d3 3b bd ff e2 b8 3d 89 ea a1 3d
       -0.11581213 -0.04585572 0.09027671 0.07906062
000270 95 03 0d bc 1b 03 ad 3c 06 34 96 3c 0b 91 ac bd
       -0.008606811 0.021119645 0.018335354 -0.08426102
000280 fa 78 ee 3c 2c fe e1 3d 6b 72 65 bd 56 28 8b 3d
       0.02911042 0.110348076 -0.05601732 0.06794803
000290 75 81 33 3e cc 4a 0a bc b6 ea ba 3d 11 89 cf 3d
       0.17529853 -0.0084406845 0.09126799 0.10133565
0002a0 5f 1a 5f bd 39 c9 22 3e be a2 01 3e cc a0 fe bd
       -0.05446851 0.15897073 0.12659737 -0.12433013
0002b0 dc 42 f1 bd e7 3b 9d bd 6d 20 a2 3d 2f f9 71 bc
       -0.117803305 -0.07677441 0.07916341 -0.014768883
0002c0 cd 1e 22 bc 08 8a 8e 3d 89 fe 42 be 41 bc 0d 3e
       -0.009895039 0.06959921 -0.1904241 0.13841344
0002d0 ff e1 6a bd c6 91 24 3e 14 51 c9 bd 82 fe 07 3e
       -0.057344433 0.16071233 -0.098299176 0.13280681
0002e0 1d 93 06 bd d3 85 90 bd 05 d2 b6 3d 72 3f b5 bd
       -0.032855142 -0.07056775 0.08926777 -0.08849992
0002f0 af 4a c9 3c 08 b1 d7 3d d4 d1 f7 3c d9 c8 ab bd
       0.024571745 0.10531813 0.030251421 -0.08387918
000300 da c1 f9 bc 66 1c 01 be c6 d8 87 3d 80 9c 8b bd
       -0.030487943 -0.1260849 0.06633143 -0.068169594
000310 7d 84 e3 bd be 60 94 bd 13 50 e3 3d 8c ee 26 3c
       -0.111092545 -0.072450146 0.11099257 0.01018871
000320 58 95 dd 3d 86 9e 8e bd fe 07 c8 bd a7 1a 43 be
       0.10819501 -0.0696383 -0.097671494 -0.19053136
000330 09 a8 d5 3d 0f 97 df 3d 8f f7 1f be ad 3e 3a bb
       0.10432441 0.10917484 -0.1562178 -0.0028418705
000340 40 c9 1c bc 56 4f 25 3e 2a f1 ab bd d9 5b f0 bd
       -0.009569466 0.16143546 -0.08395608 -0.117362686
000350 73 60 8c 3d 3d 7b 80 bd ee 7d f5 ba b5 61 b6 bd
       0.06854334 -0.06273506 -0.0018729547 -0.08905355
000360 2e de b3 bd 9b ce 98 bd d8 46 e9 bc bb b9 a0 3b
       -0.08782612 -0.07461282 -0.028476164 0.0049049533
000370 c0 35 47 bd 5a 70 34 bd 21 f9 09 3e ae 37 fc 3c
       -0.048635244 -0.04405246 0.13473941 0.030788269
000380 da e3 bc bd 23 9b 03 3e a9 d1 09 bd 52 de 12 3d
       -0.09223147 0.12852149 -0.033647213 0.035856552
000390 5e 32 78 3d c3 51 3b bd 43 f8 d8 bd 74 3a 4b bd
       0.06059491 -0.04573227 -0.10594227 -0.049616292
0003a0 74 c5 66 bd f8 d1 60 bd 17 2a 9d bd 49 61 7b bc
       -0.05634065 -0.05488774 -0.076740436 -0.015343019
0003b0 7c ea e6 3d a3 1e 86 bd 1f 27 fa 3d ba 10 15 3e
       0.11275193 -0.06548812 0.12214493 0.14557162
0003c0 16 95 23 be 5a 94 31 3e 23 56 a2 3d bf 65 1c 3e
       -0.1597484 0.17341748 0.079265855 0.15273188
0003d0 3b f5 b3 bd a8 e9 9a bd af cd 9f 3c e2 50 5d bd
       -0.087870084 -0.07564098 0.019507257 -0.054032214
0003e0 69 9b ca bc 6a 43 99 bd e7 b9 c9 3d 3c 81 33 bd
       -0.024732308 -0.07483561 0.09849911 -0.04382442
0003f0 14 57 06 bd ab 75 83 bd f0 0f dc bc b5 34 aa bd
       -0.032797888 -0.06418928 -0.026863068 -0.08310834

encoder.2.weight f4 [256, 256]
000000 45 8e 85 38 3e 87 85 bb b6 a6 a2 bb d6 b9 59 ba
       6.368434e-05 -0.00407496 -0.004963721 -0.0008305585
000010 37 e9 96 ba 71 a5 3a ba 6b be fc 3a 53 85 d7 ba
       -0.0011513595 -0.00071199896 0.0019282823 -0.0016442932
000020 d3 cf 88 39 d8 01 19 ba f6 96 28 ba 65 2a 71 bb
       0.00026094783 -0.00058367616 -0.00064311863 -0.003679895
000030 8d 44 01 bb a4 2c ee 3a 36 6b ec 3a cb 41 47 38
       -0.0019724697 0.0018171263 0.0018037322 4.750657e-05
000040 55 a8 2a bb 6f 25 39 bb 21 30 5e 39 09 57 44 3b
       -0.0026040275 -0.0028251072 0.00021189499 0.0029959104
000050 91 6e ab ba b0 72 c5 ba 1d 25 f9 ba a0 e0 ef 3a
       -0.0013079216 -0.0015064087 -0.0019008253 0.0018301196
000060 64 53 c5 ba 1d 42 9c 3a 0d 65 4c bb 34 da b3 3a
       -0.001505476 0.0011921559 -0.003118816 0.0013721646
000070 9e e0 5b ba b7 0c 2d ba ec d0 8c ba bf 5b b0 3a
       -0.00083876576 -0.0006601321 -0.0010743416 0.0013455077
000080 ce 58 80 bb df 87 b2 3a 87 30 ed ba 03 08 f4 b8
       -0.0039168363 0.0013620815 -0.0018096127 -0.00011636319
000090 ae 7f 55 bb e6 35 3a 38 b2 38 3d 3a c4 5a 68 3b
       -0.0032577324 4.4396053e-05 0.0007218226 0.003545449
0000a0 f8 fb 1a bb a0 ea 33 ba 07 0b 60 ba f9 b1 c4 39
       -0.002364872 -0.000686327 -0.0008546565 0.00037516633
0000b0 98 3e 2b ba cb fd 0a bb 16 9f 3f bb 78 23 2c bb
       -0.00065324595 -0.0021208401 -0.002923911 -0.0026266258
0000c0 57 b7 49 bb 61 c6 44 3b 15 ad 7c 3b c8 c8 84 ba
       -0.0030779445 0.003002547 0.0038555313 -0.0010130638
0000d0 9c b3 eb 3a 7e 37 3d b9 c2 04 c7 39 f4 19 8a b9
       0.0017982605 -0.00018045117 0.00037959783 -0.00026340748
0000e0 5a 86 8f ba 6e 2d b0 ba 79 e9 b1 b9 8e 7a 07 b8
       -0.0010950074 -0.0013441273 -0.00033934021 -3.2300646e-05
0000f0 af 93 86 ba 18 d8 03 bb c1 0a f6 39 d1 91 90 ba
       -0.0010267402 -0.0020117816 0.0004692879 -0.0011029785
000100 9c 2d 16 bb 05 14 00 39 ea 83 3c bb 4e 6e 2c bb
       -0.002291537 0.00012214489 -0.002876515 -0.0026310864
000110 28 9b be ba 49 da 0d 3b 8c b0 bd b9 62 df 79 3a
       -0.001454209 0.0021645 -0.00036180427 0.0009531883
000120 70 02 a3 ba 1b 77 b3 ba 8f f5 38 bb 42 b8 0d 3b
       -0.001243664 -0.0013692112 -0.0028222536 0.0021624719
000130 60 e7 a4 39 47 70 8d 3b 9d ca ba 3a 1e b5 49 39
       0.00031452905 0.004316363 0.0014251057 0.00019236325
000140 28 f9 2e 3a 51 14 6d b8 02 57 2e bb dc 5b 33 bb
       0.00066747004 -5.6524124e-05 -0.0026602154 -0.0027367985
000150 97 c7 50 ba ac 6e be 39 c4 b4 cd b9 4e 3a b3 b9
       -0.00079643115 0.0003632208 -0.00039235328 -0.0003418498
000160 55 22 78 39 61 a0 28 ba fc 51 0a ba 59 24 e7 ba
       0.00023663913 -0.000643259 -0.0005276499 -0.0017634734
000170 60 a0 30 ba 81 6c 80 bb d2 d8 c9 ba d2 30 14 bb
       -0.0006737765 -0.0039191847 -0.00153997 -0.0022612107
000180 59 c1 18 bb 0c 0b c0 b6 8e 06 94 ba 8c 5d 11 ba
       -0.0023308604 -5.723332e-06 -0.0011293457 -0.00055452506
000190 7b 53 86 b9 17 28 0b ba 4d 9e 96 ba 7a 77 00 bb
       -0.0002562067 -0.0005308403 -0.0011491269 -0.0019602464
0001a0 c5 0a 5b bb 6f 4e 8f 3a 8a 78 4d 3b 36 e3 4e b9
       -0.0033423167 0.0010933409 0.0031352364 -0.00019730334
0001b0 41 36 50 ba 1e 93 3e 3b a4 cd fe ba d5 7b 22 bb
       -0.0007942655 0.0029079388 -0.0019439948 -0.0024793048
0001c0 16 19 01 ba a4 35 23 3b cc 21 73 3a 07 dc 4b b9
       -0.00049246976 0.0024903798 0.00092747505 -0.00019441555
0001d0 b0 a8 f3 ba 03 53 f6 39 bc ea a8 ba 64 fa 2f 38
       -0.0018589702 0.00046982625 -0.0012887339 4.1956446e-05
0001e0 d5 57 1b 3b 67 f5 04 bb 9d b4 67 3a eb fd fd ba
       0.0023703475 -0.0020287873 0.0008838864 -0.0019378042
0001f0 4f 79 c3 ba 27 5b a7 3a 75 52 2d bb f2 11 63 37
       -0.0014913472 0.0012768254 -0.0026446853 1.3534433e-05
000200 82 c1 2f b9 5b 81 8e ba 5b 3b 17 84 6f f8 05 ba
       -0.00016761388 -0.0010872291 -1.777722e-36 -0.0005110567
000210 6c 27 a0 ba 73 0b fc b8 c9 bc 38 3b 73 e4 e0 ba
       -0.001221878 -0.00012018429 0.0028188697 -0.0017157927
000220 4c 56 96 ba 33 9f e2 ba 55 1d 8f b9 e1 d4 42 b9
       -0.001146981 -0.0017289877 -0.0002729694 -0.00018580585
000230 00 6a 5f bb 8d 85 b3 b9 3d f0 b1 ba 60 f2 1f 3b
       -0.003409028 -0.00034241044 -0.0013575625 0.0024405941
000240 d6 47 e6 3a 63 e0 91 39 6a 18 74 39 5e 78 8e 3a
       0.0017569016 0.00027823736 0.00023278748 0.0010869612
000250 3b 4f 94 3a 64 6b 26 bb a5 95 12 3b 98 ff 03 ba
       0.0011315116 -0.00253936 0.0022367027 -0.000503534
000260 23 fb 23 3a 1e 90 2d 38 b2 91 c1 bb 13 68 45 3b
       0.0006255379 4.1380634e-05 -0.005907261 0.0030121848
000270 42 12 1c bb 69 77 07 38 fc e9 ce ba c4 e5 93 3a
       -0.0023814593 3.2297718e-05 -0.0015786286 0.0011283685
000280 c2 6d 03 3b 37 08 d9 3b 8c ed c2 b5 4e 13 1b 3b
       0.0020054434 0.0066232937 -1.4523262e-06 0.002366263
000290 fb f2 c5 ba f8 77 0f bb e4 07 14 3b e3 e4 4b ba
       -0.0015102321 -0.0021891575 0.002258771 -0.0007777942
0002a0 05 30 e8 ba 3c 58 16 bb ed f0 6f ba 0f 88 21 ba
       -0.0017714506 -0.0022940775 -0.0009153027 -0.0006161937
0002b0 d6 32 8d ba 33 90 4a ba 2d e0 03 3b fd af c3 3a
       -0.0010772597 -0.0007727176 0.0020122633 0.0014929768
0002c0 88 69 fe b9 64 2d 75 3a 8c 36 c2 36 5e 2d 6a b9
       -0.00048525282 0.0009352772 5.7880006e-06 -0.0002233288
0002d0 80 6e 68 ba 1c d8 73 bb 2f 68 ac b4 0e f9 09 ba
       -0.00088665634 -0.0037207669 -3.21133e-07 -0.00052632473
0002e0 01 99 8b ba 38 0a 87 3a 6c a6 e5 38 4a e6 1e bb
       -0.0010650457 0.0010302728 0.000109505694 -0.002424615
0002f0 30 b1 82 b7 fa 3d 03 b9 99 98 9e ba e2 ac b7 ba
       -1.5579717e-05 -0.00012516222 -0.0012099921 -0.0014013315
000300 a0 55 45 b9 6a b1 55 ba ca 83 99 ba 44 90 90 b8
       -0.00018819282 -0.0008151742 -0.001171225 -6.893327e-05
000310 a2 d0 51 3a ac 8d 30 ba 1f 6a af ba b6 a2 1c ba
       0.0008003806 -0.0006734978 -0.0013383067 -0.00059751736
000320 7c 88 d5 ba b0 84 99 ba 49 9f 2b 39 cd 85 16 37
       -0.0016291286 -0.0011712518 0.00016367169 8.97185e-06
000330 bc 06 63 b9 37 d3 86 ba 43 93 55 b9 86 eb 4a bb
       -0.00021650916 -0.0010286336 -0.00020368122 -0.0030963137
000340 98 eb f7 39 da 46 f9 38 d4 99 12 ba 79 75 81 ba
       0.00047287042 0.000118864424 -0.000559238 -0.0009876929
000350 80 ec c6 3a 4b 34 e8 37 ae cf 83 b9 85 45 ae 39
       0.0015176684 2.7680906e-05 -0.00025141 0.00033239662
000360 4f 86 78 ba c7 73 92 3a 47 63 f2 3a 24 82 5e ba
       -0.0009480463 0.001117342 0.0018492722 -0.00084880204
000370 35 e7 37 ba c7 03 83 39 c1 9b 24 bb 37 73 26 3a
       -0.00070153485 0.0002498908 -0.002511725 0.0006349566
000380 0e f3 9a b9 ba 44 d8 b9 d0 1a 5b b8 e9 4b e4 38
       -0.0002955426 -0.00041249936 -5.223864e-05 0.000108860266
000390 55 db e0 b9 2e 81 4a 3a 10 4d eb ba 0c 24 a1 3a
       -0.00042888024 0.0007724938 -0.0017952044 0.0012294068
0003a0 b7 6d 04 bb e2 fc 6d ba 41 87 9c ba 93 b2 fd b9
       -0.0020206997 -0.0009078515 -0.0011942164 -0.0004838897
0003b0 9f 24 c9 ba 0e 38 d6 37 c4 39 bf ba ff 41 66 ba
       -0.0015345997 2.553689e-05 -0.0014589359 -0.0008783638
0003c0 84 61 10 3b d9 46 2f bb 1f ce 83 3b 7a 33 d7 ba
       0.002203078 -0.002674511 0.0040223743 -0.001641854
0003d0 0e e3 0f bb fe 1d cb 38 ed 2e 80 39 46 17 36 3b
       -0.0021955403 9.685381e-05 0.00024449025 0.0027784868
0003e0 79 7b 01 bb a4 b3 ca ba cd cd 74 b9 1e 41 0b 38
       -0.0019757433 -0.0015464914 -0.0002334632 3.3200828e-05
0003f0 4a d5 6b b9 da 04 b5 39 b6 0a da 39 1f 64 8b 3b
       -0.00022490803 0.00034526625 0.0004158818 0.0042538787

encoder.2.bias f4 [256]
000000 45 69 3e 3c 21 bf 24 bd cd 5c 0a 3d 00 77 94 3d
       0.011621778 -0.040221337 0.033779908 0.0724926
000010 75 ba 73 ac b3 d1 71 3d 13 1b 7f bd 93 26 42 3d
       -3.4635881e-12 0.059037875 -0.06228168 0.04740007
000020 16 86 48 3a db 27 6a bc 94 60 5e 3d 2b 54 09 3d
       0.0007649375 -0.014291729 0.054291323 0.033527534
000030 7f 33 d9 bc 7b d3 f4 3c 49 e0 ae 3d f3 7d ee 3d
       -0.026513813 0.029885998 0.08538873 0.11645117
000040 f9 c0 bd bc 11 4a b1 3d b7 72 18 3d 40 34 1a 3d
       -0.023163306 0.08656705 0.037218776 0.037647486
000050 ee bb 02 bd ab e4 01 3d e9 2d 90 3d 85 f8 b3 bc
       -0.031917505 0.031712215 0.07040007 -0.02196909
000060 75 ce ab bc b4 bb 6d bc 2b 8f df 3c 05 75 45 bd
       -0.02097247 -0.014510084 0.027289947 -0.0482073
000070 db 66 76 bc 75 66 74 b7 ed 0e 36 bd d9 8f 47 b9
       -0.015039171 -1.45673885e-05 -0.044447828 -0.00019031706
000080 58 06 d1 3c 6c 7a ee 3c b1 5c 11 bc 3d 0d b1 3d
       0.02551572 0.02911111 -0.008872197 0.08645103
000090 e9 40 24 39 f6 69 78 b7 8f 30 5a 3c 70 47 75 3d
       0.0001566444 -1.4806623e-05 0.013317241 0.05988258
0000a0 91 ea 38 bd f9 78 23 3d f9 bb 80 bd 67 ca 87 3d
       -0.045145575 0.03991029 -0.06285853 0.06630402
0000b0 53 be a9 3d 28 40 ff bc 24 6d d7 bd bb 24 96 3c
       0.082882546 -0.031158522 -0.10518864 0.018328061
0000c0 62 73 11 3b e5 15 38 83 cf a7 fc 3c b1 50 25 3d
       0.0022194018 -5.4097874e-37 0.030841736 0.040360156
0000d0 4e 31 79 3d d8 f9 6d ac 0b 24 61 3c 24 f2 06 3d
       0.060838036 -3.3818417e-12 0.0137415035 0.032945767
0000e0 3c 50 47 3d 8f a7 8b 3c 98 31 82 3d 17 68 7e bd
       0.0486605 0.017047672 0.063571155 -0.062110987
0000f0 e8 e4 5c bc bf 4a b4 3d 81 f3 0a bd a5 c0 97 3d
       -0.01348231 0.08803319 -0.03392363 0.07409791
000100 00 17 1f 3d 24 61 6a bd a1 e7 5b 3d 6d b2 aa 3d
       0.038840294 -0.057221547 0.053687695 0.08334813
000110 ef 3d 61 3d ae 62 96 bc d4 09 51 3c 80 21 ef 82
       0.054990705 -0.018357601 0.012758691 -3.5137122e-37
000120 5e 74 85 3d 6d c7 f6 bc a6 dd 37 bc d8 23 01 3d
       0.06516336 -0.03012439 -0.011222279 0.031528324
000130 c1 33 60 37 e0 ff 77 bc 5a 1b 84 3c 17 41 37 3d
       1.336349e-05 -0.015136689 0.016126323 0.04473981
000140 be 9d 8f 39 cb 8c 91 bc 85 40 91 3c 67 32 11 3d
       0.00027392613 -0.01776733 0.01773096 0.035448458
000150 c1 71 29 bc 0f be a6 3d b8 a9 2a 3d 50 17 60 3d
       -0.010342062 0.081417195 0.041665763 0.054709733
000160 2e b0 c9 b4 86 61 49 39 9a 0d 5b 3d 93 82 b3 3c
       -3.7567355e-07 0.00019205184 0.05347977 0.021912849
000170 af 0b 29 3c 6f 1d 24 3d d8 23 1e 3d df 8f 80 3d
       0.010317727 0.040067133 0.038608402 0.06277441
000180 ba ea 20 3d 3a f4 c2 3b 09 f8 81 ac 15 bc 87 3d
       0.039286353 0.005949524 -3.693938e-12 0.06627671
000190 55 06 4a bd de 57 9b 3d a8 65 d2 bb c0 5d bf 3c
       -0.049322445 0.07585119 -0.00642081 0.023360133
0001a0 7a db ce 3a cc 9c f8 bc cf 5d d3 3c 9e 20 41 b9
       0.0015781962 -0.030348204 0.025801567 -0.00018418065
0001b0 6b 4e 8f 3c 37 0c e5 3b 81 1f 28 3d c5 44 5a 3d
       0.017493447 0.0069899815 0.04104567 0.05328824
0001c0 c1 72 e1 3c 9f e5 7b 3d 26 33 3d bc e6 43 f7 3c
       0.02752054 0.06149828 -0.011547839 0.030183744
0001d0 1b 90 b8 3d 86 90 4f 3d 16 87 d1 3d 6d fa f3 3c
       0.09011861 0.050674938 0.10230844 0.029782498
0001e0 d1 17 e7 bc 9f 5e 2e b5 ad 05 68 3c 6e 92 05 bc
       -0.028209599 -6.4957743e-07 0.014161509 -0.008152587
0001f0 38 b0 e9 bc c3 16 95 3d 46 4b e4 bd ec d4 45 3d
       -0.02852641 0.07279732 -0.1114717 0.04829876
000200 f9 5b 77 3d e0 98 1e 3d f4 11 f2 3c 7c 2f fb bc
       0.060390446 0.03872001 0.029549576 -0.03066229
000210 4b a5 12 3d da 01 90 3d fe bd 6b b5 a7 80 f0 82
       0.035802167 0.07031603 -8.7820797e-07 -3.5338673e-37
000220 32 85 24 3b c6 80 2e 3b b4 81 07 be 67 5a 90 3d
       0.0025103805 0.0026627048 -0.13233072 0.07048493
000230 ef 9f 6e 3d 92 2a 9b 3c e5 09 ce 3c ec cd d9 3c
       0.058257993 0.018941198 0.025151202 0.026587449
000240 3a b3 5e 3d 17 6c 50 3c fd 8e 45 3d 92 92 5d bd
       0.054370143 0.012721083 0.048232067 -0.05409486
000250 52 f0 6c 3d 38 0a 87 b9 b1 1d 28 3d 9e b8 31 bc
       0.057846375 -0.0002575682 0.04104394 -0.010847239
000260 d7 1b 92 3d d4 fc 19 84 fa 98 9b 3d 8e 25 39 3d
       0.07134216 -1.8101157e-36 0.07597537 0.04520183
000270 14 40 cb bb dd 3e ae 3d 15 d2 33 bc 81 1f 02 bd
       -0.006202707 0.08508084 -0.01097538 -0.031768326
000280 c5 5d cf 3c af ee 5c bb 88 7e 7c 3d 11 03 2e 3d
       0.025313267 -0.0033711602 0.061644107 0.042483393
000290 77 24 a2 3c 26 0f f5 3c f2 58 42 3c 5d 2f 8f 3d
       0.019792778 0.02991445 0.0118620265 0.06991456
0002a0 63 0a 24 bd e5 54 0c ac 43 c6 0d bb 5c 0a 9f 3b
       -0.040048968 -1.9942323e-12 -0.0021633066 0.00485353
0002b0 be 60 2e bd 03 0b 5a 3d db 6a c9 bb 2c 22 1e be
       -0.04257273 0.053233158 -0.0061467714 -0.15442723
0002c0 16 bf 65 b9 1f cb 86 3d 2f 8d a1 bb 34 e9 d1 96
       -0.00021910327 0.06581711 -0.0049301605 -3.3912943e-25
0002d0 f4 56 40 bd 90 07 74 3d 39 a0 61 ab 18 31 2d 3d
       -0.046957925 0.059577525 -8.015841e-13 0.042283148
0002e0 3f 22 ed bb 28 97 99 bd 82 a4 bc bc ac 4a 60 bc
       -0.0072367485 -0.07499534 -0.023027662 -0.013689678
0002f0 37 25 b1 bc 03 b1 6a 3c 9c d0 ed 3c bb 67 89 3d
       -0.02162419 0.014324429 0.029030137 0.06709238
000300 8c 53 5d bd 5a 9a 1f 3c 46 ef a8 3c e4 1b 22 bc
       -0.054034755 0.00974139 0.020621907 -0.009894345
000310 6b 35 5a b1 c2 b3 77 bb 45 c0 22 bd a2 94 17 3c
       -3.175354e-09 -0.0037796353 -0.039734144 0.009251745
000320 ff df af 3d 48 72 99 3b db 56 d5 3b c1 a4 00 bd
       0.08587646 0.004682813 0.006510598 -0.03140712
000330 0f 51 b1 3b f0 36 8d bc a9 0d 25 b2 32 ad e9 bd
       0.0054112743 -0.01723811 -9.60737e-09 -0.114099875
000340 ed 51 f7 3c f2 26 8e 3d 2d 7c 49 bc 13 15 79 bc
       0.030190432 0.06941022 -0.012297672 -0.015202778
000350 78 23 1b 3b 8b af 7b 82 c6 dd c1 3b a6 89 1d 3b
       0.0023672264 -1.8490946e-37 0.00591633 0.0024038344
000360 9a da 2d 3c f3 28 31 bd 29 f8 dd bc c2 7f 0e 3d
       0.010611201 -0.043251943 -0.027095871 0.034789808
000370 4c 43 17 bd 4c 1f 32 ba b1 6a c8 3d 7d 9a b7 3b
       -0.036929414 -0.0006794825 0.09785975 0.0056031332
000380 49 cc 21 bc 4d a2 35 3c ec 74 12 3d bb da 06 bd
       -0.0098753655 0.011086059 0.035756037 -0.03292344
000390 f1 b3 32 bc 84 7b 31 b9 c4 f6 82 3d 2f 27 01 3c
       -0.010907159 -0.00016926049 0.06394723 0.007882877
0003a0 b2 b4 0f bd a4 5c 7e 3d 10 28 31 3d 1a 1e 64 bc
       -0.035084434 0.062100068 0.043251097 -0.013923192
0003b0 3f e0 30 3d 6b 3a d2 bc 2a f9 18 3d bd fb d1 b7
       0.043182608 -0.025662621 0.037346996 -2.5031966e-05
0003c0 c7 20 c9 bc cc b0 6d bb fd 32 00 83 27 e2 82 3d
       -0.024551762 -0.003626871 -3.767435e-37 0.063907914
0003d0 16 57 4f 3d 08 dd 64 3d 77 1e 9d 3d 22 2f cc bc
       0.05062016 0.055874854 0.07671826 -0.024924818
0003e0 0e c2 e2 b7 dd 3a 51 39 09 c2 0e bc c4 e8 d9 bc
       -2.7031663e-05 0.00019953721 -0.008713254 -0.02660025
0003f0 03 46 a4 bc dc 51 a8 b9 ca 57 6f 3d d9 9a 02 3d
       -0.020052915 -0.00032104447 0.05843333 0.031885955

fc_mu.weight f4 [24, 256]
000000 d9 72 33 39 85 81 91 bc 2d d0 a3 3b 95 e4 eb bb
       0.00017113554 -0.017761955 0.0049991817 -0.00719888
000010 8b e4 73 a7 3c 5c 27 3c eb cc 1b bb df 72 10 bc
       -3.3846918e-15 0.0102148615 -0.0023773264 -0.00881645
000020 6a 2c cf ba 2d 6c 41 3b 7a 8e c7 bb 4c 53 ce 3b
       -0.0015806083 0.002951394 -0.0060899826 0.006296551
000030 25 d9 e2 ba 0e 5d 8b bb 73 38 ad bc fa f8 c1 3b
       -0.0017307146 -0.0042530363 -0.021145081 0.005919573
000040 28 35 b3 bb 2a 95 05 bc ec a9 e8 ba c6 18 ab 3c
       -0.005468983 -0.008153239 -0.0017750836 0.020885836
000050 74 2a 58 bb a2 53 33 ba 66 88 0a 3c 7a fb 26 3c
       -0.0032984288 -0.00068407704 0.0084553715 0.010191793
000060 b0 85 96 bc b6 5f ad 3b b0 05 78 3b 0d 19 4a 3a
       -0.018374294 0.0052909506 0.0037845187 0.00077094213
000070 4f 73 9d b9 94 e6 1b 84 e9 8a 7b bc e8 26 34 36
       -0.00030031285 -1.8326039e-36 -0.015352943 2.6844737e-06
000080 f5 96 b2 39 ee 65 9b bb 56 c5 ca bb 86 2b 0e bd
       0.00034063277 -0.0047423756 -0.006188075 -0.034709476
000090 93 f8 f0 bb 5f 72 7e 30 04 f1 2d 3c 33 10 35 bb
       -0.007353851 9.2567193e-10 0.010616545 -0.0027628064
0000a0 7b 20 03 3c fa 6e da 3b 89 e1 67 bb 0d 1e 92 bc
       0.008003349 0.0066660615 -0.0035382232 -0.017836595
0000b0 49 85 ce 3b 76 12 03 3a d0 3c 52 bb 67 91 21 bc
       0.00630251 0.00050000043 -0.0032079704 -0.009861327
0000c0 94 4d 08 3c 4c a2 75 02 d7 c0 2b 3c 14 14 41 3b
       0.008319277 1.8046334e-37 0.010482988 0.002946143
0000d0 3d 64 f7 bb 29 30 4b a9 55 5a b4 3a 81 43 2d bb
       -0.007549791 -4.5116827e-14 0.0013759831 -0.002643794
0000e0 bc ba 3d 3a 10 33 68 bb be 01 50 3c d0 fb c5 bb
       0.00072376034 -0.0035430826 0.012695728 -0.0060419813
0000f0 78 cb 74 bb 5c 26 2f ba 2f 7a 9d 3a 93 d7 af 3c
       -0.0037352722 -0.0006681436 0.0012014563 0.021465098
000100 85 ec 34 3b 2b 5d e1 ba cc c1 85 39 2e 14 90 ba
       0.0027606797 -0.0017193904 0.00025512127 -0.0010992342
000110 b1 23 37 3c 8e d6 d1 bb 1a b7 39 3b 1d f2 1d 03
       0.011177943 -0.0064037507 0.0028337897 4.6416086e-37
000120 e1 0d d1 3c b7 8f fc 3a 90 cc 28 39 f0 f4 ee bb
       0.025519313 0.0019268905 0.00016097934 -0.0072923824
000130 eb 58 ad 35 be f0 eb bb 49 cd 16 bb d1 71 cf bb
       1.2915383e-06 -0.0072003296 -0.0023010543 -0.0063307066
000140 08 46 f5 ba e8 2e 19 3b b0 3e 7f ba 9d a0 5a bc
       -0.0018712888 0.0023373906 -0.0009736819 -0.013343957
000150 ef 6e ae bb 11 8f 29 bc 06 03 1e bc 09 3e 06 3c
       -0.005323283 -0.010349051 -0.0096442755 0.008193501
000160 30 cd 0c 30 8d eb 35 bb da 14 bd 3b 1f f5 dc bb
       5.122329e-10 -0.0027758807 0.005770308 -0.006743088
000170 8e 43 83 3b f5 fa 96 3a 52 a8 eb ba 02 bb 96 3c
       0.004005856 0.0011518883 -0.001797924 0.01839972
000180 36 a1 a9 3a 42 33 e9 3a 48 14 07 24 8d 25 74 bc
       0.0012941721 0.0017791765 2.9290638e-17 -0.014901531
000190 04 1f e8 ba 4f 1a c2 bb aa 71 87 3a 57 da 45 ba
       -0.0017709439 -0.0059235464 0.0010333557 -0.0007547489
0001a0 f8 15 5f 39 b7 6b 16 3c cf f9 c9 3b 05 63 12 04
       0.00021275121 0.009180955 0.0061638127 1.7207685e-36
0001b0 9f e0 99 3b 9c bb 89 bb 1b 93 35 ba f1 0a 2d ba
       0.0046959664 -0.004203273 -0.00069265225 -0.00066010567
0001c0 34 92 04 3b b8 83 03 bc fa 3b 2d 3b d7 46 8e b8
       0.0020228745 -0.00802701 0.0026433454 -6.7842826e-05
0001d0 9e dd a0 bc 0a 51 9d bb 62 d9 21 bc 07 dd 7a 3b
       -0.019636925 -0.0048009204 -0.009878488 0.0038278715
0001e0 01 fb 74 3b 63 36 e8 33 ad 8c 8c bc 8b a0 ee 3b
       0.0037381055 1.0813235e-07 -0.017156923 0.007282322
0001f0 09 99 1c bb 2f 19 2e bc 92 78 35 bb 36 e8 66 3c
       -0.0023894927 -0.010626121 -0.0027690274 0.014093449
000200 e1 b4 37 3b 26 b0 55 3b c3 bc c7 bb 55 56 23 bb
       0.0028031396 0.0032606213 -0.0060955 -0.0024923284
000210 59 51 81 3c 0a 75 16 3c 18 79 7a 30 d0 b8 c6 01
       0.01578586 0.009183178 9.1121555e-10 7.2998906e-38
000220 f9 4d 70 bb 61 6c 8d bb e7 51 04 3b c5 f6 de 3a
       -0.003666757 -0.0043158983 0.002019042 0.0017010799
000230 41 d7 a4 3b d5 98 80 3a 75 57 25 3a 00 1b 24 3a
       0.005030543 0.0009811172 0.00063072826 0.0006260127
000240 48 04 b8 bb 5c 33 62 bb 77 28 dc 3b 91 1f 8c b8
       -0.0056157447 -0.0034515476 0.006718691 -6.6816e-05
000250 c1 8b 0c 3b 94 de d2 b5 59 8e 3c bb f4 e6 33 3b
       0.0021445605 -1.5710998e-06 -0.002877137 0.0027450891
000260 75 2f 9d 3c 5f e5 20 84 70 54 ec 3b 37 f7 10 3b
       0.019187668 -1.8913232e-36 0.007212214 0.0022120008
000270 1a 50 92 3a d5 05 ec 3b 78 73 7c 3c 49 38 3a 3b
       0.0011162788 0.0072028437 0.015408389 0.0028414896
000280 33 32 67 3c 5f f2 2a ba 62 13 d6 3b b7 59 98 3b
       0.0141110895 -0.00065211015 0.0065330723 0.0046493667
000290 c0 35 20 bb 9a 06 79 b9 3a 04 17 3b a7 8b 24 3c
       -0.00244461 -0.0002374895 0.002304329 0.010043061
0002a0 8e e3 77 3c db be 12 94 5c 52 3c 3c 1f 29 05 3b
       0.015129937 -7.408756e-27 0.011494245 0.00203187
0002b0 5b 9a 12 bb 55 e4 39 3b 08 64 4d 3c c9 d6 89 bb
       -0.0022369835 0.0028364856 0.012536056 -0.0042065126
0002c0 65 84 b3 bb 0f 09 8c 39 56 69 4a 3b 74 99 b2 8e
       -0.005478429 0.0002670963 0.003088554 -4.4028158e-30
0002d0 8c eb b1 3b 08 8d 29 3b 42 16 27 a9 d4 4e 0b b8
       0.0054296907 0.0025871415 -3.7100755e-14 -3.3213597e-05
0002e0 78 e5 23 3c 49 2d 8e 3a 99 ef 2b 38 dc 45 ba 3b
       0.01000344 0.0010847236 4.099272e-05 0.0056845974
0002f0 14 23 d7 3b dd 6a c8 bb a7 43 9f bc 5d 36 14 bc
       0.006565461 -0.0061162547 -0.019441439 -0.009046164
000300 24 85 c3 3a 09 58 a3 bc 30 1e 4a bb 1d 2f 8d bc
       0.0014916998 -0.01993944 -0.0030840747 -0.01723438
000310 57 ca 65 b0 0c b8 82 38 cb cf 56 3c 50 a7 00 bb
       -8.3597257e-10 6.2331645e-05 0.013111065 -0.0019630976
000320 8e 06 71 3c 38 a5 80 ba 57 b9 d3 b6 04 99 28 bc
       0.014711035 -0.0009814864 -6.3098664e-06 -0.010290388
000330 ec fa 56 b4 32 c7 97 3b cc df 13 a6 56 7e 18 3a
       -2.0021588e-07 0.0046319 -5.130417e-16 0.00058171654
000340 7d ad 59 bb 81 c1 97 bc 9f 86 47 b8 47 b9 90 39
       -0.003321498 -0.018524887 -4.7570673e-05 0.00027603863
000350 f7 51 8b 3b 54 8f 6a 02 01 3a 22 3b c3 a6 36 bc
       0.0042517143 1.7232738e-37 0.0024753811 -0.0111481575
000360 7e ba 84 3b 4b 19 43 3b 15 3c 2f b9 9e 1b 25 3c
       0.004050552 0.0029769714 -0.00016711683 0.010077385
000370 d6 a0 a8 3b 11 a9 b1 b4 f1 61 c0 3c 51 73 65 bb
       0.0051461263 -3.309183e-07 0.023484202 -0.003501136
000380 72 38 30 b9 7f a9 09 bc 37 9f 07 bb e3 e3 67 3c
       -0.00016805695 -0.008402227 -0.0020694265 0.0141534535
000390 dc 50 93 b9 0d 6b b6 b6 10 ee 48 3b f7 8e 8a 3b
       -0.0002809827 -5.436485e-06 0.0030659474 0.0042284685
0003a0 d6 5e 7b bb fe c0 45 bb 91 58 af bb a5 e3 e0 bb
       -0.0038356087 -0.0030174847 -0.005351134 -0.006863075
0003b0 06 71 0e 3c 9f ea d9 39 fc 1d b0 bc 2d a3 5a ac
       0.008693939 0.00041564272 -0.021498673 -3.1070244e-12
0003c0 fd e8 02 bb 90 70 31 bc 33 7f ec 81 7a dc 90 bc
       -0.0019975298 -0.01083006 -8.687523e-38 -0.017683256
0003d0 d6 ed ab 3b 44 45 07 bb c8 0d 36 3c df 96 39 bb
       0.005246858 -0.002064065 0.011111684 -0.0028318686
0003e0 37 4f 67 2c 63 70 76 3b 60 2b 78 ba 98 9b fb 3b
       3.2871047e-12 0.0037603609 -0.00094669126 0.0076784603
0003f0 67 04 60 3b 90 8f 90 32 74 5b fa 3b 61 2b 52 bc
       0.0034182312 1.6829091e-08 0.0076402966 -0.012827725

fc_mu.bias f4 [24]
000000 89 74 a5 bc 41 d7 51 bb b0 ab ed 3c af 84 72 3c
       -0.02019717 -0.003201917 0.029012531 0.014802142
000010 99 3b 55 bc 6f 7d 06 bd dd 39 cf bc 8f 96 b2 3c
       -0.0130146975 -0.032834467 -0.025296146 0.021800308
000020 01 90 4e 3a 41 27 88 3c c8 65 04 3d e5 6c ba 3b
       0.00078797346 0.01662028 0.03232363 0.005689251
000030 66 d9 ef bc 5a be 28 3d 1a 5f c5 36 13 f6 8b 3b
       -0.029278468 0.04119716 5.882129e-06 0.0042712777
000040 aa fe fb 3c aa ff 9c 3c 43 5b 31 bc cc 86 8f 3c
       0.030761082 0.019164879 -0.010824981 0.01752033
000050 51 a9 14 3b dc e2 b9 3c d6 a5 0e bc 93 2c c4 3c
       0.0022683928 0.022691183 -0.008706531 0.023947036

fc_logvar.weight f4 [24, 256]
000000 83 dc a5 37 d8 81 ce b9 ce 33 94 39 d9 ee 0a 3b
       1.9772217e-05 -0.00039388123 0.00028267357 0.0021199493
000010 6f 90 8a a6 8e dc 9d ba ac a3 02 bb 94 52 aa ba
       -9.614822e-16 -0.001204388 -0.0019933982 -0.0012994581
000020 0d f2 99 3a 53 80 34 bb 10 69 08 3b 9a 95 b7 ba
       0.001174511 -0.0027542308 0.0020814575 -0.0014006377
000030 ec 2d ae 3a 21 61 da 3a da 41 f2 bb 74 95 18 3c
       0.0013288832 0.0016661027 -0.007393104 0.009312976
000040 b3 d4 7d ba 67 32 28 3b fa b2 0f 3b 3b a4 4a 3a
       -0.0009682879 0.0025664808 0.0021926747 0.0007730161
000050 83 ed 3a ba 0b c9 0c ba 53 b7 40 bb cb e4 1f bb
       -0.0007130729 -0.0005370534 -0.0029406145 -0.0024397846
000060 dd 06 81 b8 42 0c 32 3b 21 f0 12 bb fe 0b ec b9
       -6.152478e-05 0.002716795 -0.002242096 -0.00045022363
000070 52 33 c5 38 2e ae 34 82 e2 ad 9f bb 34 25 ed 28
       9.403251e-05 -1.3274299e-37 -0.0048730234 2.632842e-14
000080 17 64 06 3a ea d5 3c 3a a8 bf 94 ba d7 52 8a b9
       0.0005126609 0.00072035065 -0.0011348622 -0.00026383132
000090 4d 14 a9 ba 88 79 70 9f ef d6 45 ba eb 9c 83 39
       -0.0012899727 -5.0922505e-20 -0.0007546981 0.0002510318
0000a0 c7 60 c3 3a ae 87 30 ba ff 64 62 ba a3 52 b9 3a
       0.0014906161 -0.0006734085 -0.00086362654 0.0014139008
0000b0 7f fe c9 3a db c9 87 3a 0a a5 b6 b9 a6 44 c9 b9
       0.0015410929 0.001035984 -0.0003483671 -0.00038388855
0000c0 b8 8f 0d 3b da 32 c3 81 b8 f5 55 3a 31 a2 e5 39
       0.0021600556 -7.1704655e-38 0.000816192 0.00043799126
0000d0 f9 11 bb 39 7a 26 0d 84 6a 17 ff 3a 58 32 e1 37
       0.0003568081 -1.6592138e-36 0.0019461934 2.6845533e-05
0000e0 92 8c 1e b9 9e 28 c5 b9 67 bf 42 3b 38 e5 ae ba
       -0.0001512042 -0.0003760503 0.0029716135 -0.0013343459
0000f0 e7 d1 62 ba c7 5b ed b9 63 0e 5d ba 82 7f 84 3b
       -0.00086524937 -0.00045272542 -0.0008432625 0.0040435204
000100 09 d7 44 ba f1 03 98 3a e5 41 d8 ba ae d7 b3 3a
       -0.00075088494 0.0011597854 -0.001649913 0.0013720894
000110 ab 55 64 3b 94 5f 34 39 04 ac 2a 3b 01 d8 9e 02
       0.00348411 0.00017201743 0.002604247 2.3339994e-37
000120 b2 cc 4a 3b 7a 14 47 39 f1 00 cc 37 f5 72 00 ba
       0.0030944762 0.00018985747 2.4319133e-05 -0.00048999424
000130 ab 6e 9e 34 1d e8 e5 bb 79 e8 d3 39 63 a9 af 3a
       2.9510315e-07 -0.0070161954 0.00040418262 0.0013401922
000140 7e 40 2d 39 a3 f7 a1 3a 2f 00 18 3b b3 b1 c1 ba
       0.00016522591 0.0012357127 0.0023193469 -0.001477769
000150 7b e6 22 3b 44 fd f0 39 5d 9d 44 3b 08 22 fe 3a
       0.0024856615 0.00045965065 0.0030001022 0.0019388804
000160 2d ce 24 12 01 63 19 37 ea a0 f9 ba d4 22 1b b9
       5.2003407e-28 9.142562e-06 -0.0019045149 -0.00014794926
000170 0e ad b9 39 63 d2 2b b9 fe a8 5a 3a 5c 6b d7 3a
       0.00035414885 -0.00016386206 0.0008341222 0.0016435194
000180 56 c1 37 ba dc 52 e5 39 92 08 19 04 e3 e0 36 3b
       -0.00070097053 0.0004374002 1.7988999e-36 0.002790504
000190 0a 2d f7 39 81 2a 03 bb 03 63 8d ba 61 4d a8 b9
       0.00047145068 -0.0020014348 -0.0010786954 -0.0003210111
0001a0 8d 10 2e 3a 8e ff a8 ba 47 79 15 bb d0 e6 e6 81
       0.00066400395 -0.0012893544 -0.0022807883 -8.4819856e-38
0001b0 5d c2 7c ba 6f 15 f0 ba fc 4b 89 39 4f 0c cb 3a
       -0.00096419995 -0.0018316935 0.0002618729 0.0015491339
0001c0 90 42 cc 39 96 70 d7 ba 73 e6 ec ba f8 23 f6 39
       0.00038959505 -0.0016436751 -0.001807405 0.00046947575
0001d0 31 6c e2 bb f8 df aa 3a 19 41 80 ba 16 96 34 ba
       -0.00690987 0.0013036719 -0.0009785026 -0.00068888196
0001e0 23 7f 55 3a 1b 82 8f a2 19 5e 42 3b f8 0e b8 ba
       0.000814425 -3.8897982e-18 0.0029658137 -0.0014042547
0001f0 36 b4 0f ba fc 69 47 3a 14 de 27 ba 35 5e 0e 39
       -0.00054818706 0.00076070405 -0.00064036367 0.0001357727
000200 c3 5c 0d bb 7c a3 be bb b7 9e 27 b9 e9 d4 ac b9
       -0.0021570183 -0.0058178287 -0.00015985487 -0.00032965027
000210 15 9d 04 bb 0b 49 f1 3a 2a 51 d3 1e 07 39 44 80
       -0.002023523 0.0018408609 2.2374063e-20 -6.265271e-39
000220 42 b8 97 3a e8 56 14 3b b7 f8 38 3a e8 e0 24 3a
       0.0011575299 0.0022634808 0.00070561044 0.0006289617
000230 12 67 1e 3b ad ef d8 39 3a f6 6d 39 ea 71 21 b9
       0.0024170321 0.00041377303 0.00022693808 -0.00015396593
000240 6b 15 8a 3a 79 76 79 3a 92 2b b8 3a 5e f8 35 3a
       0.0010534948 0.000951625 0.0014051071 0.00069416116
000250 60 44 b7 b8 8b 50 19 b0 a2 b7 2b 3a cf a2 13 bb
       -8.738856e-05 -5.5775534e-10 0.0006550496 -0.0022527461
000260 4d 38 29 bb 06 f7 f8 82 71 41 b8 ba 3e 20 cc b9
       -0.0025820911 -3.658211e-37 -0.0014057589 -0.00038933934
000270 0a c5 bc b9 27 0c f0 3a 87 c9 13 bb a1 50 18 3b
       -0.0003600496 0.0018314169 -0.002255054 0.0023241418
000280 5e c2 3b 3b 4a ec 0f b8 6b 27 98 3a bf 5f 1a 3a
       0.0028649787 -3.4313918e-05 0.0011608427 0.0005888901
000290 2d 7c 8c 3a 27 f5 57 ba 54 a5 1f b9 c9 20 60 3b
       0.001071816 -0.00082381297 -0.00015225011 0.003419923
0002a0 4a 92 6b 3b 2b 04 52 83 6e 82 e5 39 b2 24 87 3a
       0.003594535 -6.171824e-37 0.0004377546 0.0010310619
0002b0 bd 10 63 bb a1 bd 68 bb 14 03 c9 39 0a eb e9 b9
       -0.0034647428 -0.0035513418 0.0003834 -0.0004461634
0002c0 a5 32 80 3a d2 b8 53 3a f5 0c 93 39 7a d6 13 80
       0.0009780718 0.00080765516 0.0002804768 -1.821814e-39
0002d0 23 d2 d8 ba 48 73 97 ba 9b a6 04 03 8b 8b 4d 3a
       -0.0016542118 -0.0011554742 3.8982567e-37 0.0007840923
0002e0 47 26 88 ba 9b 39 c7 ba d5 a3 be 3a 1c 5e 00 bb
       -0.0010387384 -0.0015199663 0.0014544675 -0.0019587344
0002f0 81 c0 c3 3a ae cc 17 3b 08 00 2d bb ab 8e e2 3a
       0.001493469 0.002316277 -0.0026397724 0.001728495
000300 0c 34 bb 3a ad 4a f7 ba f6 90 07 39 ab 0a 09 ba
       0.0014282479 -0.001886686 0.00012928605 -0.0005227725
000310 95 87 4f 17 93 a3 1e 38 0d db 2d bb b4 a8 b9 38
       6.7056436e-25 3.7822476e-05 -0.002652827 8.852911e-05
000320 dd fb 92 3b f8 4c bb ba c4 db 4e 36 90 73 1e 3b
       0.004485591 -0.0014289906 3.0824312e-06 0.0024177767
000330 4f 04 43 b3 e6 98 b2 b9 40 d7 15 84 72 5f 16 3a
       -4.5405894e-08 -0.00034064724 -1.7613704e-36 0.00057362684
000340 4e 91 e1 3a ef 3b 1a 3b 34 63 8f ba 44 62 a4 bb
       0.0017209442 0.0023534258 -0.0010939599 -0.005016597
000350 fb 9f cb 3b 4b 03 c7 80 93 51 12 ba df bd c0 3a
       0.0062141395 -1.8276445e-38 -0.00055816135 0.0014705023
000360 ef b4 4a b9 13 ec 93 39 b0 40 a5 b9 2e 30 5c 3a
       -0.00019331624 0.00028213914 -0.00031519448 0.00083995133
000370 bf 07 df b8 95 12 b1 a8 5c aa 00 39 9f e4 b9 3a
       -0.000106349115 -1.9659006e-14 0.00012270495 0.0014182514
000380 bf 9b 92 38 f1 b4 33 b9 e2 ef 71 3a 71 f7 be ba
       6.9908325e-05 -0.00017138176 0.0009229166 -0.0014569593
000390 99 65 27 b9 18 c9 9e ae 38 94 5a b8 b1 8c 73 37
       -0.00015964209 -7.2207296e-11 -5.211329e-05 1.4516686e-05
0003a0 6a 41 1e 3a ff 3b cd b9 3e f0 0d 3b 46 c8 33 b8
       0.0006036969 -0.00039145348 0.0021658088 -4.2863445e-05
0003b0 36 a7 a7 39 59 0e 80 3a 98 4a 2c ba 9b f5 a5 18
       0.00031977304 0.0009769901 -0.00065723946 4.28995e-24
0003c0 1e 73 c2 ba 8d c7 c4 3a 70 36 ff 81 25 74 ee b9
       -0.0014835333 0.0015013084 -9.375032e-38 -0.00045481432
0003d0 15 ea cb 3a b3 7b 32 3b c5 22 f7 3b 1d ef 4b 3b
       0.0015557433 0.0027234375 0.0075419866 0.0031117864
0003e0 ec 8b 3f 09 c3 65 a4 ba 41 0c c0 3a a1 86 2f 3b
       2.305658e-33 -0.0012542534 0.001465209 0.0026783126
0003f0 fe dd 30 3b f0 a7 1f 99 ac ed a8 3a 72 bd 6f 3b
       0.0026987786 -8.254022e-24 0.0012888215 0.0036581424

fc_logvar.bias f4 [24]
000000 f3 dc d9 bb 77 f4 33 3c ea 1d c2 3b 84 fa 8a 3c
       -0.0066486537 0.010983578 0.005923976 0.016965158
000010 02 51 43 bc b6 84 65 bc 9d af 98 bc 16 4d 51 3c
       -0.011921169 -0.014008692 -0.018638426 0.012774726
000020 d8 35 8d bb 0b d1 4c be e1 17 78 bb 68 46 1f 3c
       -0.004309397 -0.20001619 -0.003785603 0.009721376
000030 5d 80 45 3b b5 7e 82 3c 80 36 12 3c 7a f4 33 bb
       0.0030136325 0.01592956 0.008924127 -0.0027458952
000040 62 2a 02 bb 5b c0 a2 ba 68 47 8b 3b 07 12 65 3c
       -0.0019861688 -0.0012416946 0.0042504556 0.013981349
000050 b8 49 d8 bb ab 36 47 3c 26 5a 0b 3c a2 e8 d3 bb
       -0.006600585 0.01215903 0.00850538 -0.006466941
