models/cvae_L16_H128_B1.000_LR5e-04.pt (torch, 227229 bytes, 13 tensors)

encoder.0.weight f4 [128, 46]
0	0xbe3cdcaf	-0.18443559
1	0x3c397e6a	0.011321643
2	0x3d865b5c	0.06560394
3	0x3d6529ef	0.055948194
4	0x3d18dc78	0.03731963
5	0x3ba4cd0a	0.0050293254
6	0x3daee7aa	0.0854028
7	0xbd0dad21	-0.034588937
8	0x3d0fe53e	0.03513073
9	0x3dae2457	0.08503025
10	0x3cbb0ac1	0.022832276
11	0xbc262f38	-0.010143094
12	0xbbb13236	-0.005407597
13	0xba5f942b	-0.00085288537
14	0xbda3df90	-0.080016255
15	0xbd92a04d	-0.07159481
16	0x3d291774	0.041282132
17	0x3cdac3b3	0.026704645
18	0xbd2141c4	-0.03936936
19	0xbd1678f1	-0.036736432
20	0xbd8d6a42	-0.06905033
21	0xbd4713f2	-0.048603006
22	0x3d0478db	0.03234182
23	0x3d49616a	0.049165167
24	0x3cbefb12	0.023313079
25	0xbe055ff9	-0.13024892
26	0xbdaaac42	-0.08333637
27	0x3d2e3f5b	0.04254089
28	0xbda3462e	-0.0797237
29	0x3bd87a86	0.006606403
30	0xbcac762e	-0.021052446
31	0xbcd5aaf5	-0.026082495
32	0xbd849662	-0.06473996
33	0xbd8dba0e	-0.06920253
34	0xbd824eac	-0.06362662
35	0x3d3d8151	0.046265904
36	0xbc498fe7	-0.012302375
37	0xbc87ea68	-0.016591266
38	0xbd4831a6	-0.048875473
39	0x3deca7aa	0.11555417
40	0xbcd99391	-0.026559623
41	0x3bff5a4c	0.0077927466
42	0xbdd230ba	-0.102632
43	0x3d06e6c5	0.032934923
44	0x3c931d8c	0.017958425
45	0xbd686467	-0.056736376
46	0xbe409c1b	-0.1880955
47	0xbd406b1c	-0.046977147
48	0xbd396b06	-0.04526808
49	0x3da7c23e	0.08191346
50	0xbdc2dbd9	-0.09514589
51	0xbdd7a879	-0.105301805
52	0x3dfa0c06	0.122093245
53	0xbe1b32d3	-0.15156107
54	0x3dbbcb21	0.09169603
55	0x3da9ffbb	0.0830073
56	0x3b5c8daf	0.0033653786
57	0x3da42de3	0.08016565
58	0x3da0ab52	0.07845177
59	0x3d8d16a5	0.06889085
60	0xbbf21f09	-0.0073889536
61	0xbcc26410	-0.023729354
62	0xbd272038	-0.04080221
63	0xbb13ccea	-0.0022552558
64	0x3d3ac5e0	0.045598865
65	0x3deb5c64	0.114922315
66	0x3c8fc79b	0.017551234
67	0xbd820435	-0.06348459
68	0x3c85c204	0.016327865
69	0xbd874fa9	-0.06606991
70	0x3c0eba39	0.008711391
71	0xbd203c6e	-0.03912013
72	0x3d6875bf	0.056752916
73	0x3d83178c	0.064009756
74	0xbd0503e4	-0.032474414
75	0xbd5f6f01	-0.05454922
76	0xbd4dad55	-0.05021413
77	0xbdaa78b3	-0.08323803
78	0x3d1d7b14	0.038447455
79	0x3cc32e5e	0.02382582
80	0xbda4ef1b	-0.08053418
81	0x3d59bac4	0.05315663
82	0x3ced2f2d	0.02895316
83	0xbd76cd71	-0.060254518
84	0xbdb27533	-0.0871376
85	0x3d8ea419	0.06964893
86	0x3da6b76e	0.08140455
87	0xbc5e7fc3	-0.013580265
88	0x3da6d259	0.081455894
89	0xbd67f35b	-0.056628566
90	0xbd1f771f	-0.038931962
91	0x3d2dfc70	0.04247707
92	0xbeac7bb1	-0.3368812
93	0x3c4685d8	0.012116872
94	0xbc16edbe	-0.009211956
95	0x3ed9d692	0.42546517
96	0x3d104843	0.035225164
97	0xbd422275	-0.047396142
98	0xbb65713c	-0.003501012
99	0xbce26031	-0.027633758
100	0x3d42632b	0.047457855
101	0xbd4056be	-0.046957724
102	0x3d6a8174	0.057252362
103	0xbc5ae150	-0.013359383
104	0x3dd43930	0.1036247
105	0x3d2dd8ff	0.04244327
106	0xbd59b7b4	-0.05315371
107	0xbc7609fd	-0.01501703
108	0x3c321547	0.010869331
109	0x3cffa7ed	0.031208003
110	0xbd0c7eb1	-0.03430051
111	0x3a6dcff7	0.00090718217
112	0xbdaba640	-0.08381319
113	0x3dcae154	0.09906259
114	0xbcb27cb3	-0.021787977
115	0xbd652515	-0.055943567
116	0x3e2c7823	0.16842704
117	0x3d957fe3	0.07299783
118	0xbd8105ec	-0.06299958
119	0xbcbf65b9	-0.023363935
120	0x3e1bcc71	0.15214707
121	0x3ce3f9e7	0.027829124
122	0x3d8e27b1	0.06941164
123	0x3dc21fff	0.09478759
124	0x3d9699a5	0.07353524
125	0x3c4a8039	0.012359672
126	0x3d6280e0	0.055298686
127	0x3ba4ccc2	0.005029292
128	0xbd57e69f	-0.05271017
129	0xbd306c87	-0.04307225
130	0xbd3a1c65	-0.045437235
131	0x3ceb7836	0.028743844
132	0x3d6f08a4	0.05835785
133	0x3ddcf5c5	0.10789064
134	0x3dc928ab	0.0982221
135	0x3db343ea	0.08753188
136	0xbd9192b0	-0.071080565
137	0xbd9437e4	-0.07237223
138	0x3e5456f9	0.20736302
139	0xbd697e68	-0.057005316
140	0x3d3f774f	0.04674464
141	0x3e7ec8e0	0.24881315
142	0xbd529748	-0.051413804
143	0x3c8e4dc6	0.01737107
144	0xbd5c9891	-0.053856436
145	0xbd447521	-0.047963265
146	0x3de5f556	0.11228435
147	0xbd95222b	-0.07281908
148	0x3dcebf6f	0.10095107
149	0x3d2c596b	0.042077463
150	0x3d56d9db	0.052453857
151	0x3d842cda	0.06453867
152	0x3bc1f44d	0.0059190155
153	0x3dcec6cd	0.10096512
154	0xbc5a01d5	-0.013306101
155	0x3d292739	0.04129717
156	0x3dbd3b4d	0.09239826
157	0xbcd702f7	-0.026246531
158	0xbd09ffb1	-0.033691112
159	0xbd32c85f	-0.04364812
160	0xbd5f885b	-0.054573398
161	0x3ce41940	0.027844071
162	0xbe3ee10d	-0.18640538
163	0x3e2e5d5f	0.17027806
164	0xbd93246f	-0.071846835
165	0x3c83c2ef	0.016084163
166	0x3d00bb5d	0.031428684
167	0xbc532999	-0.012888336
168	0xbd4a1833	-0.049339484
169	0x3cd97181	0.02654338
170	0xbc898969	-0.016789155
171	0x3d8aa3ac	0.06769499
172	0xbdf15daf	-0.11785447
173	0x3d2704e1	0.040776137
174	0x3d0b04e1	0.0339402
175	0x3a85cf77	0.0010208924
176	0x3cb747bf	0.022373078
177	0xbd71d53f	-0.059041258
178	0xbd209e61	-0.039213542
179	0xbd75f20b	-0.060045283
180	0x3dcb9e1e	0.09942268
181	0x3cb86585	0.022509346
182	0xba9a54d5	-0.001177455
183	0x3d4c29c2	0.04984451
184	0x3e326caa	0.17424265
185	0x3dc39c90	0.09551346
186	0xbdb9e8a7	-0.09077578
187	0x3d87bd58	0.06627911
188	0xbd4aa7ee	-0.049476556
189	0x3c9b9734	0.018992998
190	0xbd57fa7d	-0.05272912
191	0xbcaa93ec	-0.020822488
192	0xbc9b86d6	-0.018985193
193	0xbd136ee6	-0.035994433
194	0x3d37006b	0.044678133
195	0xbd8461be	-0.06463955
196	0x3db754af	0.08951699
197	0xbd9dd089	-0.077057905
198	0xbe081206	-0.13288125
199	0x3bb895d6	0.005633096
200	0xbdae636d	-0.08515058
201	0xbda11fa1	-0.07867361
202	0xbd868935	-0.06569139
203	0xbc8ed4b8	-0.017435417
204	0x3d67c3a9	0.05658308
205	0x3d6452c8	0.05574301
206	0x3c1d6f1a	0.009609008
207	0xbe2f9cb1	-0.17149617
208	0x3d244b60	0.040110946
209	0x3dbbebd5	0.09175841
210	0x3d096730	0.033545673
211	0x3d67e722	0.05661691
212	0xbdc058d8	-0.093919456
213	0x3ce9ffdd	0.028564388
214	0xbcd08913	-0.025455987
215	0x3c9b86a0	0.018985093
216	0xbd9842f6	-0.07434647
217	0x3d1c805a	0.038208343
218	0x3dbac6a9	0.09119923
219	0x3d6d6494	0.057957247
220	0xbc9f33b7	-0.01943384
221	0x3c81b49e	0.015833195
222	0x3afce5b6	0.0019294533
223	0xbd86a52b	-0.06574472
224	0xbba0cff3	-0.004907602
225	0x3d53ca88	0.05170682
226	0xbae31c82	-0.0017327222
227	0xbc96684a	-0.018360276
228	0x3b3bc939	0.0028653874
229	0x3c03b16c	0.008037906
230	0x3e09a162	0.13440469
231	0x3cca0f5f	0.024665533
232	0xbc3f0ad1	-0.011660294
233	0xbee6cf64	-0.450801
234	0x3c4089d8	0.0117516145
235	0xbdec251d	-0.11530516
236	0x3da7f795	0.082015194
237	0xbda02f72	-0.078215495
238	0x3d6107a0	0.054938912
239	0x3c955efb	0.018233767
240	0xbd568f69	-0.05238286
241	0x3d45965b	0.048239093
242	0xbbb59792	-0.00554175
243	0x3d894005	0.06701664
244	0x3d8f4a4b	0.06996592
245	0xbd73db9b	-0.059535604
246	0x3d0653a2	0.032794602
247	0x3c5f5408	0.013630874
248	0xbcb7bb6d	-0.022428239
249	0x3c07f7c8	0.008298822
250	0xbc06351d	-0.008191374
251	0x3d9be1f0	0.076114535
252	0xbdc467d4	-0.09590116
253	0x3da51484	0.08060554
254	0x3bdf1a15	0.006808529
255	0x3d452748	0.048133165

encoder.0.bias f4 [128]
0	0x3b8bb497	0.0042634713
1	0x3d09b8c8	0.033623487
2	0x3d3045bb	0.04303525
3	0xbda67606	-0.0812798
4	0xbda5f14f	-0.081026666
5	0x3dec8b72	0.115500346
6	0xbe03e845	-0.12881573
7	0xbca27ff4	-0.019836403
8	0xbcd8186b	-0.02637883
9	0xbd563e02	-0.05230523
10	0x3e683f1e	0.22680327
11	0x3e38bbce	0.18040392
12	0x3cd49c58	0.025953457
13	0xbd61832c	-0.055056736
14	0x3ca45904	0.020061977
15	0xbdb5fe33	-0.08886375
16	0x3d5d99d1	0.05410177
17	0xbd666cf7	-0.05625626
18	0xbdad2c88	-0.08455759
19	0x3c3e5d2f	0.011618896
20	0x3e3d2e9a	0.18474808
21	0x3e1f0ddb	0.15532629
22	0x3dfe45fb	0.124156915
23	0xbcd045f8	-0.025423989
24	0x3d1f175b	0.038840633
25	0x3ddabc7e	0.10680483
26	0xbdd0855e	-0.10181688
27	0x3e301e58	0.17199075
28	0x3c849611	0.016184838
29	0xbcd41708	-0.025889888
30	0x3dd07a89	0.10179622
31	0x3da33111	0.07968343
32	0x3e718f4a	0.23589817
33	0x3d69834b	0.057009976
34	0xbd429718	-0.047507375
35	0x3e42d363	0.1902595
36	0x3d12b992	0.035821505
37	0x3e1725c7	0.14760505
38	0xbdf79413	-0.1208879
39	0xbe05dfc3	-0.1307364
40	0xbdc31735	-0.09525911
41	0xbda7c103	-0.08191111
42	0x3d5572bd	0.052111376
43	0xbd53288f	-0.05155235
44	0x3da3651b	0.07978269
45	0xbda32ba1	-0.07967306
46	0x3dfa20d9	0.122132964
47	0x3d7e56be	0.062094443
48	0xbd03c887	-0.03217366
49	0xbb83e90c	-0.004025584
50	0xbd6fe473	-0.058567476
51	0xbda03737	-0.078230314
52	0xbd22ecfa	-0.03977678
53	0xbbccf39c	-0.0062546264
54	0xbdc38924	-0.09547642
55	0xbe088234	-0.13330919
56	0xbc7bc77c	-0.015367385
57	0xbdfdf457	-0.1240012
58	0x3e01c13d	0.12671371
59	0x3d7908d6	0.060799442
60	0x3dd141a8	0.10217601
61	0x3e1655da	0.14681187
62	0xbd9b465f	-0.075817816
63	0x3da17f22	0.07885577
64	0xbd4146da	-0.04718671
65	0xbcb4d379	-0.022073494
66	0xbdfa15fd	-0.12211225
67	0xbd9d56be	-0.076825604
68	0x3e2cbeb8	0.16869628
69	0xbdc88e2e	-0.097927436
70	0x3ca3d7c4	0.020000346
71	0xbdeb75a2	-0.11497046
72	0xbc743fe1	-0.014907808
73	0xbdfb542b	-0.12271913
74	0xbd9be5c8	-0.07612187
75	0xbe150cda	-0.14555684
76	0xbd625309	-0.05525497
77	0x3da6c8a0	0.08143735
78	0x3e05f5d3	0.13082056
79	0xbdb3555f	-0.087565176
80	0xbd449783	-0.047996055
81	0x3dfce08e	0.12347518
82	0x3e03a783	0.1285687
83	0xbd0a236a	-0.03372518
84	0x3dbb7879	0.09153838
85	0xbd90b0b2	-0.07064952
86	0xbd6b08ed	-0.05738156
87	0x3d7240f1	0.059143964
88	0xbd3ef5ea	-0.04662124
89	0xbdc83efd	-0.09777639
90	0x3c705cd1	0.014670567
91	0x3e118b5a	0.14213315
92	0xbd9183d3	-0.071052216
93	0xbd2e88cd	-0.042610932
94	0xbcdd7f29	-0.027038174
95	0xbd6e899d	-0.058236707
96	0x3e417f9b	0.18896334
97	0x3d42d863	0.047569644
98	0xbd5b265c	-0.05350338
99	0xbdd681c7	-0.10473972
100	0x3c90bfbe	0.017669555
101	0xbd023c41	-0.031795744
102	0x3df58bc8	0.11989552
103	0xbdb34cc9	-0.0875488
104	0x3e0cc82e	0.13748237
105	0xbd9c66e1	-0.0763681
106	0x3c0c0403	0.008545878
107	0xba80a9f3	-0.0009816274
108	0x3ca06e17	0.019583745
109	0x3cbcd6a5	0.02305157
110	0x3c47f36f	0.012204035
111	0x3e19106c	0.1494767
112	0xbde1d1fb	-0.11026379
113	0xbd9c3191	-0.076266415
114	0xbbdb6763	-0.0066956743
115	0x3e3685a9	0.17824425
116	0xbdc46815	-0.095901646
117	0xbe1f1da6	-0.15538654
118	0xbd8a15fe	-0.06742476
119	0x3daff6f4	0.085920244
120	0x3c948baf	0.018133013
121	0xbdab8a67	-0.083760075
122	0x3be3259f	0.006931975
123	0x3d905d20	0.07049012
124	0xbc846e41	-0.016165854
125	0xbe428e17	-0.18999515
126	0x3e18175b	0.1485266
127	0xbd7f272b	-0.062293213

encoder.2.weight f4 [128, 128]
0	0xbc1c4498	-0.009537838
1	0x3cfa0ace	0.03052273
2	0xbe20997c	-0.1568355
3	0xbdbe66cf	-0.09296953
4	0xbcc6c0ea	-0.02426191
5	0x3d4659f6	0.048425637
6	0xbc5a7f88	-0.01333607
7	0xbda64c9a	-0.08120079
8	0x3d94391b	0.072374545
9	0x3da106a7	0.07862597
10	0xbd8f2225	-0.069889344
11	0x3b854cce	0.0040679937
12	0xbcc7edde	-0.024405416
13	0xbd06d593	-0.032918524
14	0x3cfa7f64	0.030578323
15	0x3c96a8d5	0.018391052
16	0x3cf4260e	0.029803302
17	0x3d9846e3	0.074353956
18	0x3d941156	0.07229869
19	0xbda1b487	-0.07895761
20	0xbd1c5850	-0.03817016
21	0xbd51881d	-0.0511552
22	0x3d172b87	0.036906745
23	0x3c7c3987	0.015394575
24	0x3cf22e76	0.02956317
25	0x3c90e4b3	0.017687177
26	0xbdaedc4c	-0.08538112
27	0x3cf91f18	0.030410334
28	0xbc40395f	-0.011732428
29	0x3d09c3b1	0.03363389
30	0xbcda2486	-0.026628744
31	0x3d66cc8f	0.056347426
32	0xbd766af8	-0.060160607
33	0xbdaf8e24	-0.08572033
34	0x3cb90e45	0.022589812
35	0xbd372a5f	-0.044718143
36	0x3cfc5858	0.030803844
37	0xbaa1e080	-0.0012350231
38	0xbdb29a14	-0.08720794
39	0x3d9fd66a	0.07804568
40	0x3c1bc7ca	0.009508083
41	0x3b6b8f68	0.003594363
42	0x3d7daf28	0.06193462
43	0x3d24c2e2	0.040224917
44	0x3d013c80	0.031551838
45	0xbd08f063	-0.033432376
46	0x3ccd36fc	0.025050633
47	0xbcf900ec	-0.030395947
48	0xbb93c3a0	-0.0045094043
49	0xbde51d94	-0.11187282
50	0x3d5b837e	0.053592198
51	0xbd6f47d9	-0.05841813
52	0x3d3fa8da	0.04679189
53	0xbd049637	-0.03236982
54	0xbd087e76	-0.033323728
55	0xbd2f13a9	-0.04274336
56	0xbd296f35	-0.04136582
57	0xbcd51e23	-0.026015347
58	0x3cf779f5	0.03020952
59	0x3cb0ac34	0.021566488
60	0xbb066ace	-0.0020510438
61	0xbd2462ee	-0.04013341
62	0xbd202c9b	-0.03910504
63	0x3d878513	0.06617179
64	0xbd9a9c26	-0.07549314
65	0xbcb1cf71	-0.021705361
66	0xbd72fb70	-0.05932182
67	0x3d8e795a	0.0695674
68	0xbc84246c	-0.016130649
69	0xbc05223c	-0.008125838
70	0xbc86a9d2	-0.016438399
71	0x3bfaa068	0.0076485164
72	0xbe293298	-0.16523206
73	0xbd35f810	-0.044426024
74	0x3c129377	0.008946291
75	0xbdb1be97	-0.0867893
76	0x3ca50833	0.020145511
77	0xbe0304c3	-0.12794785
78	0x3db70e67	0.08938294
79	0x3d7d924d	0.0619071
80	0x3d392212	0.045198508
81	0xbd6d94bf	-0.058003183
82	0xbd589d11	-0.052884165
83	0xbbe1e8e7	-0.006894219
84	0x3daba52b	0.08381113
85	0x3bcc231f	0.0062297727
86	0x3d8d9654	0.069134384
87	0x3c721a90	0.014776841
88	0xbc26bb26	-0.010176456
89	0x3cdfd651	0.027323874
90	0x3cebca5a	0.028783012
91	0x3ccaab61	0.024739923
92	0xbd0f7d14	-0.035031393
93	0xbdb4ae8a	-0.08822353
94	0xbd71ec36	-0.05906316
95	0xbde35d7c	-0.11101815
96	0xbbff998d	-0.007800287
97	0x3d6f6322	0.05844415
98	0xbdab20c2	-0.083558574
99	0x3d1ef6ce	0.03880959
100	0xbc3ae6ba	-0.011407549
101	0x3d9219d5	0.07133833
102	0xbbca8c53	-0.0061812787
103	0xbc6ba787	-0.014383203
104	0xbcf2b04d	-0.029625082
105	0x3bdd49c5	0.006753179
106	0x3d7969d9	0.06089196
107	0x3da86ed6	0.08224265
108	0xbd966f20	-0.07345414
109	0x3d32ff1d	0.043700326
110	0xbc877309	-0.016534345
111	0x3d7a01f8	0.061037034
112	0xbd3be8c6	-0.045876287
113	0xbc642326	-0.013924396
114	0x3c43cd76	0.011950841
115	0x3b025ee6	0.001989299
116	0xbd20dfe9	-0.039276037
117	0x3d3edb39	0.046595786
118	0xbdea8d76	-0.11452763
119	0xbd2051cc	-0.039140508
120	0xbd2447f3	-0.04010768
121	0x3df223c1	0.11823226
122	0xbd150472	-0.036381193
123	0xbd68b7bc	-0.056815848
124	0xbd860193	-0.06543269
125	0x3d206b89	0.039165054
126	0xbcca4197	-0.024689479
127	0x3d092131	0.03347892
128	0xb3fad744	-1.1680689e-07
129	0xb5a32339	-1.2154698e-06
130	0xb50da3fe	-5.2765233e-07
131	0xad90c30f	-1.6457528e-11
132	0xb2f10b35	-2.8061189e-08
133	0xb489407d	-2.556516e-07
134	0x8ea16ba0	-3.9793203e-30
135	0xb2aa7449	-1.9843485e-08
136	0xb5930b60	-1.0955664e-06
137	0xb30d3c69	-3.2884063e-08
138	0xb4e83b3b	-4.3256463e-07
139	0xb2c714d0	-2.3176113e-08
140	0xb405ed29	-1.2472869e-07
141	0xb2cac980	-2.3607527e-08
142	0xb32fdfec	-4.094902e-08
143	0xad47e132	-1.1361844e-11
144	0xb34c214a	-4.7527728e-08
145	0xb50f1a20	-5.330967e-07
146	0xb1df994c	-6.507582e-09
147	0xb37aac7d	-5.8364538e-08
148	0xb626c51e	-2.4850665e-06
149	0xb446aeec	-1.8503823e-07
150	0xb5176d9f	-5.6411403e-07
151	0xae404a59	-4.372178e-11
152	0xb3049882	-3.087235e-08
153	0xb54d96f0	-7.6588094e-07
154	0xb053a23b	-7.6991896e-10
155	0xb3f2960c	-1.12962965e-07
156	0xb408e172	-1.2748004e-07
157	0xb4397ddc	-1.7275255e-07
158	0xb2747e31	-1.4231362e-08
159	0xb2bc0a3f	-2.189074e-08
160	0xb5978002	-1.1287632e-06
161	0xb1be01ed	-5.5299467e-09
162	0xb33c5de0	-4.385754e-08
163	0xb3e65cfb	-1.0727123e-07
164	0xb462ac67	-2.111061e-07
165	0xb515c45b	-5.579256e-07
166	0xaedb4f2c	-9.973031e-11
167	0xb2f1d203	-2.8151595e-08
168	0xb5096842	-5.118819e-07
169	0x222e8798	2.365318e-18
170	0xb3a2c800	-7.5800926e-08
171	0xb33440dc	-4.1968505e-08
172	0xb4c3d310	-3.647515e-07
173	0xb4886fed	-2.541341e-07
174	0xb5717c5a	-8.996045e-07
175	0xb254824c	-1.236965e-08
176	0xb4e6125b	-4.2854194e-07
177	0xb40b98f4	-1.3001028e-07
178	0xb16d2dde	-3.4514112e-09
179	0xa69b2ae8	-1.0766915e-15
180	0xb3df4092	-1.0395992e-07
181	0xb0349480	-6.569465e-10
182	0xaf4e9be3	-1.8790973e-10
183	0xaaae8e75	-3.1007458e-13
184	0xb241f52c	-1.1289824e-08
185	0xa2033854	-1.778363e-18
186	0xb59e05be	-1.1773589e-06
187	0xb398b986	-7.111798e-08
188	0xb59184e4	-1.0842018e-06
189	0xb6134a31	-2.1947892e-06
190	0x2badb899	1.2343625e-12
191	0xb2984728	-1.7727487e-08
192	0xb317f6a3	-3.5381742e-08
193	0xb44682cf	-1.8487775e-07
194	0xa141d708	-6.5675535e-19
195	0x980a1707	-1.7847708e-24
196	0xb4c70479	-3.7069893e-07
197	0x9cd851e9	-1.4314854e-21
198	0xb0ed8e85	-1.7284526e-09
199	0xac3780d7	-2.6077385e-12
200	0xb3050141	-3.0967616e-08
201	0xab1235e0	-5.1944386e-13
202	0x2a407c49	1.7096146e-13
203	0xaecc4d12	-9.2905364e-11
204	0xa45e375d	-4.818547e-17
205	0xb4221851	-1.5096272e-07
206	0xb5928677	-1.0916982e-06
207	0xb40c678b	-1.3076185e-07
208	0xb3ac3489	-8.01893e-08
209	0xb31669c4	-3.502079e-08
210	0xb48e7726	-2.6536253e-07
211	0xb3435c96	-4.5486182e-08
212	0xb3a4db99	-7.67679e-08
213	0xb3a6c0ae	-7.7650256e-08
214	0xb3e6af02	-1.0742043e-07
215	0xb5074957	-5.039814e-07
216	0xb228fca5	-9.836332e-09
217	0xa9a54cf6	-7.3408226e-14
218	0xb2ff85de	-2.9746783e-08
219	0xb5208ce6	-5.980968e-07
220	0x148e8876	1.439216e-26
221	0xacc6051f	-5.628067e-12
222	0xb3826ae7	-6.073042e-08
223	0xad56ad28	-1.220294e-11
224	0xb437731a	-1.7085077e-07
225	0xb3176f5f	-3.525872e-08
226	0xb14e9dc4	-3.0066625e-09
227	0xb461b88a	-2.1021893e-07
228	0xb52337fa	-6.080369e-07
229	0xb51af39a	-5.772396e-07
230	0xb586f95b	-1.005635e-06
231	0xb228ec55	-9.832623e-09
232	0xb384dec1	-6.187248e-08
233	0xaa9baf16	-2.765502e-13
234	0xb4e66e08	-4.2920897e-07
235	0xb2b066c1	-2.0535824e-08
236	0xa6a6210c	-1.1527521e-15
237	0xb32ec664	-4.0692967e-08
238	0xb392edb3	-6.841892e-08
239	0xb59d3523	-1.1712876e-06
240	0xad1efd9e	-9.0375745e-12
241	0xb3d91377	-1.01083906e-07
242	0xaf0bab34	-1.27028e-10
243	0xb5eeca3e	-1.7791242e-06
244	0xaa58934e	-1.923576e-13
245	0xb3109619	-3.3664126e-08
246	0xa973afe2	-5.4109393e-14
247	0xb515ff43	-5.587828e-07
248	0xadcabeb0	-2.3049423e-11
249	0xb3f90ecf	-1.159766e-07
250	0xae0c0c37	-3.1843164e-11
251	0xb48c43b5	-2.6126295e-07
252	0xa7d1180c	-5.8035225e-15
253	0xab2774a5	-5.9492195e-13
254	0xb517a590	-5.649281e-07
255	0xb34feecc	-4.8413128e-08

encoder.2.bias f4 [128]
0	0xbd27087e	-0.040779583
1	0x36a5ef7d	4.9452633e-06
2	0xbce39f7a	-0.027786005
3	0x3dcbf06d	0.09957967
4	0x3d7a69e0	0.061136127
5	0xb60d78fe	-2.1081064e-06
6	0x3d970b7c	0.07375237
7	0xbcfd1dfd	-0.030898089
8	0x3d35d1e3	0.044389617
9	0x3d835c32	0.06414069
10	0x3da8426d	0.08215795
11	0x3cc12c2e	0.023580637
12	0x3c31a585	0.010842686
13	0x3df28d6e	0.11843382
14	0x3d7d47c9	0.061836038
15	0x3c5e5305	0.013569598
16	0x3bba1196	0.005678366
17	0x3e2a3ad7	0.16624008
18	0x3d5ea007	0.054351833
19	0x3dc25e15	0.09490601
20	0x3e22b3dd	0.15888925
21	0x3dda3bfa	0.10655971
22	0x3da608a0	0.08107114
23	0x3ce8b4df	0.028406559
24	0x3dca61e5	0.09881953
25	0x3908291b	0.00012985284
26	0x3d816d4b	0.06319674
27	0xbccedb53	-0.025251066
28	0xbd60dd15	-0.05489834
29	0x3d75934d	0.05995493
30	0x3c893bd6	0.016752165
31	0x3dedc7a2	0.116103426
32	0x3d92fb12	0.07176794
33	0x3dea23fc	0.11432645
34	0xbdc7c685	-0.097546615
35	0x3bf4ae13	0.0074670403
36	0x3d04b83d	0.032402266
37	0x3d81d5f8	0.063396394
38	0x3c9c755a	0.019098926
39	0x3dd45dbf	0.10369443
40	0x3de26f07	0.11056333
41	0x3d08a06c	0.033356115
42	0xbde84372	-0.11340989
43	0xbd27fd1f	-0.04101288
44	0xbbe672e1	-0.0070327376
45	0x3d8c6665	0.06855468
46	0x3dc8431a	0.097784236
47	0xbd0d1aa2	-0.034449227
48	0xbd43d674	-0.04781194
49	0x3e21fab5	0.15818293
50	0xbd8a690f	-0.067583196
51	0xbd0356bc	-0.03206514
52	0x3cc4f137	0.024040801
53	0x38390cd0	4.411937e-05
54	0xac9d938a	-4.4785885e-12
55	0x3dbeff3f	0.09326028
56	0xbe0d9cbb	-0.13829319
57	0x3ce89a89	0.028394
58	0xbdba605b	-0.091004096
59	0x831047bc	-4.2400144e-37
60	0xbcfbddce	-0.030745413
61	0x3da755f2	0.0817069
62	0x3da70a8e	0.0815631
63	0x3db48314	0.08814064
64	0xbcf04c18	-0.02933316
65	0xbd2f34f2	-0.042775102
66	0x3da43aaf	0.080190055
67	0x3b876b2c	0.004132649
68	0x3ddc62a1	0.107609995
69	0xbdb48798	-0.08814925
70	0xbc86ea0b	-0.016469022
71	0xbc45c908	-0.012071855
72	0x3b9df42f	0.0048203687
73	0x3dd0eb14	0.102010876
74	0x3d0f065a	0.034918167
75	0xbd2559cf	-0.04036885
76	0x3cd79494	0.026315965
77	0xba736d4e	-0.0009286002
78	0x3d59d3cb	0.053180497
79	0x3df1013a	0.11767812
80	0x3d1548d6	0.036446415
81	0xb8ee0842	-0.000113502625
82	0x3d8e284c	0.0694128
83	0x3cc99ff2	0.0246124
84	0x3d588237	0.052858558
85	0x3d85ce62	0.06533505
86	0x3d85e715	0.06538216
87	0x3dd47bb7	0.10375159
88	0xbb3c6add	-0.002875022
89	0x3d97a906	0.074052855
90	0x3d661c9a	0.05617962
91	0x3b8e40fd	0.0043412433
92	0x3c9200cb	0.017822644
93	0x3d726f37	0.059188094
94	0x3d3128ca	0.04325179
95	0x3db469ef	0.08809268
96	0x3d86dcb6	0.06585066
97	0x3cd0c6fe	0.025485512
98	0x3d8dea16	0.06929414
99	0x3dfbefc2	0.123015895
100	0x3db6f228	0.089329064
101	0x3dd454ce	0.10367738
102	0xbd407ff8	-0.04699704
103	0x3e0cbb88	0.13743412
104	0xbe0f8dd7	-0.14018951
105	0xb5df2ab2	-1.6627221e-06
106	0x3dbf6317	0.09345072
107	0xbc808b9d	-0.015691573
108	0x3dc7848b	0.097420774
109	0x3d08964d	0.033346463
110	0xbd0e6457	-0.03476366
111	0x3def689c	0.116898745
112	0x3da88a82	0.08229543
113	0x3dadc005	0.084838904
114	0x3c248051	0.010040359
115	0xbd9c4507	-0.076303534
116	0x3d6cb37a	0.05778835
117	0x3aa0c021	0.001226429
118	0xad73321b	-1.3824076e-11
119	0x3dc1191c	0.09428617
120	0x3dd8779d	0.105696894
121	0x3c7d229b	0.015450145
122	0xbc3f057e	-0.011659024
123	0x3da10afd	0.07863424
124	0x3d6e5203	0.05818368
125	0xb39ae8af	-7.213509e-08
126	0x3cdf64c8	0.027269736
127	0x3d979dca	0.07403143

fc_mu.weight f4 [16, 128]
0	0xbbe97979	-0.0071250764
1	0xb620776d	-2.3911373e-06
2	0x3bfce80c	0.007718092
3	0xbbca5b3f	-0.006175428
4	0xbc3ad8f2	-0.011404263
5	0x3174802c	3.557953e-09
6	0xbbebbc6c	-0.0071940925
7	0xbb2ec342	-0.0026666676
8	0xbbdb789c	-0.0066977274
9	0x3bdd43ac	0.006752452
10	0xbc3ed3d8	-0.011647187
11	0x3c2f95e0	0.010716885
12	0xbc337684	-0.010953549
13	0x3aee0b96	0.0018161412
14	0x3bd4bb45	0.006492051
15	0x3c5413c4	0.012944166
16	0xbcd12f54	-0.025535263
17	0x3c1f9faa	0.009742657
18	0xbac335d4	-0.0014893361
19	0xbb1a0dc2	-0.0023506735
20	0xbbbedc0f	-0.005824573
21	0xbb872f2d	-0.004125497
22	0x3b113998	0.0022159573
23	0x3bda32e5	0.006658899
24	0xbb824024	-0.0039749313
25	0xbafab69c	-0.0019127908
26	0x3ccabf9c	0.02474957
27	0xbc8dabe3	-0.017293876
28	0x3c5841a9	0.013199248
29	0xba69a8ad	-0.0008913379
30	0x3b215642	0.0024618064
31	0xbbe21408	-0.0068993606
32	0xbca0f697	-0.019648833
33	0x3ba6c00a	0.005088811
34	0xbc2d930f	-0.0105941435
35	0x3c60a273	0.013710606
36	0x3c1929ef	0.009348377
37	0xbc11a355	-0.008889039
38	0x3c79ec4d	0.015254092
39	0x3cd25c29	0.025678711
40	0x3b1e6f32	0.0024175164
41	0xbcdb1942	-0.026745442
42	0xbb40a5db	-0.0029395733
43	0x3d1d9a2b	0.038477104
44	0x3b88dbd8	0.004176598
45	0x3c8c8c4d	0.017156744
46	0x3b4971f7	0.0030738094
47	0x3aec3794	0.0018021935
48	0x3c7179f6	0.01473855
49	0xbd6498bf	-0.055809733
50	0xb9877759	-0.00025838127
51	0x3c2a3e78	0.01039087
52	0xbc4c82a7	-0.012482322
53	0x350ab0ed	5.1666467e-07
54	0x2732dc96	2.4822042e-15
55	0x3bde9e21	0.006793753
56	0xbc19b28f	-0.009380951
57	0xbadd0b49	-0.0016864325
58	0x3b13f068	0.0022573713
59	0x00c8f66c	1.8455499e-38
60	0xba232370	-0.0006223237
61	0x3bc975b5	0.006148065
62	0x3cbc1791	0.022960456
63	0xbcb74b8c	-0.02237489
64	0x3b26b38b	0.0025436606
65	0xba660917	-0.0008775158
66	0xbbafcbc3	-0.0053648665
67	0x3b87e424	0.0041470695
68	0xbb5c6eb9	-0.0033635332
69	0x3b8d618c	0.004314607
70	0xba89e32d	-0.0010519974
71	0x3bb31b18	0.0054658763
72	0xba2dad0f	-0.0006625214
73	0x3bcb595f	0.006205722
74	0x3d285c08	0.041103393
75	0x3bd44053	0.0064773946
76	0x3ac6f091	0.0015177896
77	0x2a567491	1.904746e-13
78	0x3c02c31b	0.007981087
79	0x3c4aff89	0.012390026
80	0xbb83d765	-0.0040234798
81	0xaec84472	-9.1071053e-11
82	0xbcd165dd	-0.025561268
83	0xbb85646b	-0.0040708086
84	0xbca95e25	-0.020674774
85	0xbaf9d346	-0.0019060157
86	0x3bc77271	0.0060866405
87	0x3b2505af	0.002518039
88	0xbb2b0ee1	-0.0026101398
89	0x3b0d281e	0.0021538804
90	0xba42999f	-0.0007423404
91	0x3c8a2b70	0.016866416
92	0x3b5467f8	0.0032410603
93	0xbc0cbded	-0.008590204
94	0x3c3b7594	0.011441607
95	0xbc47f37b	-0.012204046
96	0xbb19e4a0	-0.0023482218
97	0xb93ec6ea	-0.00018193913
98	0xbb349ec1	-0.0027560445
99	0x3b0087bb	0.0019612152
100	0xbb9b0160	-0.0047303885
101	0xbc77d212	-0.015125768
102	0xbb930093	-0.0044861524
103	0xbcafca9c	-0.021458916
104	0x3b573f34	0.0032844068
105	0x340838eb	1.2686694e-07
106	0x3c135279	0.008991831
107	0x3c513914	0.012769956
108	0x3cb6442d	0.022249306
109	0x3b19dac7	0.0023476349
110	0xbbd538ed	-0.00650703
111	0x3cff4676	0.031161528
112	0xb7e1ba6c	-2.69089e-05
113	0x3c81a01e	0.01582342
114	0xbc62e1cd	-0.01384778
115	0xbb727091	-0.0036993364
116	0xb9acf250	-0.00032986933
117	0xbbb6b4e5	-0.0055757635
118	0xa74cc6e3	-2.8418504e-15
119	0x3c46da7d	0.012137053
120	0xbd2f2704	-0.042761818
121	0xbb9afabc	-0.004729597
122	0x3b521c4f	0.003206033
123	0x3caa9fff	0.020828245
124	0xbd0e7e51	-0.034788433
125	0x288058d6	1.4249381e-14
126	0xbbb8bc76	-0.0056377007
127	0x3b3fe706	0.0029281988
128	0x3b84df40	0.004054934
129	0x31db3133	6.379332e-09
130	0xbb885bf9	-0.0041613546
131	0xbb1fd8c5	-0.002439068
132	0x3c9a590b	0.018841287
133	0x34124800	1.3623503e-07
134	0xbbe6c446	-0.0070424406
135	0xb73737a0	-1.0920601e-05
136	0x3b0b8f8c	0.0021295277
137	0xbc320797	-0.010866067
138	0x3cc4f91c	0.024044566
139	0x3ca4fc8b	0.020139953
140	0xbc60948d	-0.013707292
141	0x3c13bc60	0.00901708
142	0xbb6be2b9	-0.0035993292
143	0x3c306db4	0.010768343
144	0x3c152225	0.009102379
145	0x3bb88e37	0.0056321877
146	0x3c1888f6	0.009309998
147	0x3cc8792f	0.024471847
148	0xbc438377	-0.011933199
149	0x3c339d88	0.010962851
150	0xbc460d01	-0.012088061
151	0xbc4be9e9	-0.012445905
152	0xbc813fc7	-0.015777482
153	0xba7141df	-0.0009203236
154	0xbc5d68aa	-0.013513723
155	0xbbfb1a89	-0.0076630753
156	0x3bac3f89	0.0052565974
157	0x3b999c41	0.0046878164
158	0x3b904643	0.004402907
159	0xbc37fca1	-0.011229665
160	0xbc8c6f80	-0.017143011
161	0xbbf162cf	-0.007366515
162	0xbbee5d59	-0.0072743115
163	0xbb4d4110	-0.0031319298
164	0xbc2a6766	-0.010400629
165	0xbb11adff	-0.0022228954
166	0x3c3bd0bf	0.011463343
167	0xbbf8b76f	-0.0075902264
168	0xba38e82c	-0.0007053639
169	0x3b6f4f9a	0.0036515952
170	0x3c1952c4	0.009358112
171	0xbc7f10aa	-0.015567938
172	0xba5dc194	-0.00084593263
173	0x3abd602d	0.0014448218
174	0xbc0e3601	-0.008679868
175	0xbbfd3cdf	-0.0077282037
176	0x3b92bc3e	0.0044780066
177	0xbcd7df99	-0.026351737
178	0x3ab66950	0.0013916884
179	0x3b6c45da	0.0036052377
180	0xbb9b3d0c	-0.004737502
181	0x2e5c9f48	5.016368e-11
182	0x2e51ee14	4.7732554e-11
183	0x3a7bec73	0.0009610124
184	0xbb9678f6	-0.0045920564
185	0xbc157d2f	-0.009124084
186	0x3c7a049d	0.015259889
187	0x812d3f58	-3.1820529e-38
188	0x3c287095	0.010280748
189	0x3bcf51bd	0.0063268826
190	0xbac3c1f2	-0.001493512
191	0xbc6e4aaf	-0.014544173
192	0x3bac5f5f	0.0052603926
193	0x3ad294fe	0.0016066132
194	0x3c7431ca	0.014904449
195	0x3a35be8d	0.00069329963
196	0x3b29fe52	0.002593894
197	0xbb846156	-0.0040399237
198	0xba11b759	-0.0005558632
199	0xbc360d1c	-0.011111524
200	0x3ac1e626	0.0014793321
201	0x3a9b1f6e	0.0011834928
202	0x3babe143	0.005245359
203	0xbbae33db	-0.0053162402
204	0xbbf530af	-0.00748261
205	0xb00c8f8a	-5.1135685e-10
206	0x3b95638e	0.004558987
207	0x3cb19c5e	0.021681007
208	0xbc33161d	-0.010930565
209	0xb29324bb	-1.7129755e-08
210	0x3b5c065d	0.0033573129
211	0x3c29a682	0.01035464
212	0xbc8e6651	-0.017382773
213	0x3c2ee827	0.010675467
214	0x3bd8916b	0.006609132
215	0xbc2acbf7	-0.010424606
216	0x3c886c7f	0.016653297
217	0x3aa7b703	0.0012795631
218	0x3bd7f1d2	0.0065901065
219	0x3c25454e	0.010087324
220	0xbbab09b1	-0.005219661
221	0x3bb52322	0.00552787
222	0xbc672046	-0.014106816
223	0xbbb1b712	-0.005423435
224	0x3aae265f	0.0013286582
225	0xbc2cac44	-0.010539118
226	0xbbffb472	-0.007803493
227	0xbc71f157	-0.014767013
228	0x3c10f590	0.008847609
229	0x3bcf55c7	0.006327364
230	0x3abc9f46	0.0014390729
231	0x3ca81958	0.020519897
232	0x3bb7c897	0.005608629
233	0xb559a9e0	-8.1086e-07
234	0x3b69a93a	0.0035653845
235	0xbcb733d3	-0.022363579
236	0x3c88713e	0.01665556
237	0xbb15efbf	-0.0022878496
238	0x3ca195c5	0.019724736
239	0xbb7dccb5	-0.0038726751
240	0x3c9710a8	0.01844056
241	0xbbe2826d	-0.0069125206
242	0xbcbd43dc	-0.023103647
243	0x3bb4cd0e	0.0055176085
244	0xbaec30ae	-0.0018019879
245	0xbb60a4aa	-0.0034277835
246	0xa5f3eec0	-4.2315564e-16
247	0x3b993fca	0.0046767937
248	0x3b26b5b7	0.00254379
249	0xbc00d464	-0.007863138
250	0x3bc4de05	0.006007912
251	0xbc6b154a	-0.014348337
252	0x3c6da774	0.014505256
253	0xa642163c	-6.7337404e-16
254	0xbb0dd32b	-0.0021640758
255	0xbc782412	-0.015145319

fc_mu.bias f4 [16]
0	0x3cbff10d	0.023430372
1	0x3ca40cfd	0.020025725
2	0xbb3be638	-0.0028671157
3	0xbd05d399	-0.0326725
4	0xbc133982	-0.008985879
5	0xbc5a0109	-0.013305911
6	0x3d086042	0.033294924
7	0x3b473add	0.0030400075
8	0x3cae0f1f	0.021247445
9	0xbc5830ce	-0.01319523
10	0xbd370a6f	-0.044687685
11	0x3b8d04c8	0.0043035485
12	0x3c24810d	0.010040534
13	0xbce02e6e	-0.02736589
14	0xbcb1c72f	-0.021701423
15	0xbd0d9475	-0.034565408

fc_logvar.weight f4 [16, 128]
0	0xb9f46d3e	-0.00046620698
1	0xa8437015	-1.0848978e-14
2	0x3a0afde0	0.00053021125
3	0xbbc3726c	-0.005964568
4	0x3b0e2e72	0.0021695164
5	0x97a75be9	-1.0815323e-24
6	0x3a2ce132	0.0006594836
7	0xbb3cc8f5	-0.0028806303
8	0xba88648e	-0.0010405944
9	0xbb39a9d6	-0.002832999
10	0xbbb6bcc5	-0.0055767023
11	0x3b4e26c8	0.003145622
12	0xba5be215	-0.0008387876
13	0x3a20246b	0.00061089423
14	0xba478a40	-0.00076118484
15	0x3b3bad25	0.0028637138
16	0xbabf2269	-0.0014582399
17	0x3ab989bf	0.0014155431
18	0xb98d9879	-0.00027007217
19	0xbb2d87fe	-0.0026478763
20	0xbc055f8e	-0.008140458
21	0xbaae9c65	-0.0013321756
22	0x3aa29b6b	0.0012405937
23	0x3ae62738	0.0017559296
24	0x39d28391	0.00040152346
25	0x396e9335	0.00022752288
26	0x3bb71bf3	0.0055880486
27	0x3afaf468	0.0019146325
28	0xbb3d8e22	-0.002892383
29	0x3acf4ffa	0.0015816682
30	0xba62088f	-0.0008622491
31	0x3aa743bb	0.0012761274
32	0x3aac48f1	0.0013144297
33	0xba14d510	-0.0005677501
34	0x3b27fa99	0.0025631546
35	0x39eb8658	0.00044922787
36	0x39e5ba1b	0.00043816943
37	0xbb251eab	-0.0025195281
38	0xbb4462a6	-0.0029966026
39	0xbbdbcad2	-0.0067075277
40	0x3925c985	0.00015810698
41	0x3adf6506	0.0017043657
42	0x399fe530	0.000304976
43	0xbac244ef	-0.0014821569
44	0xbb1e6448	-0.002416866
45	0xbb9cf13d	-0.0047895
46	0xbad91953	-0.0016563333
47	0xbad70a89	-0.0016406338
48	0x3a8cc559	0.0010739967
49	0x3c4cf212	0.012508886
50	0x3ac8de40	0.0015325025
51	0xb9d4e4d3	-0.00040606278
52	0x3a8f514a	0.001093426
53	0xa4abfc9d	-7.458737e-17
54	0x028c3c27	2.0605677e-37
55	0xbb14793b	-0.0022655267
56	0x3a542c29	0.00080937386
57	0xbb908912	-0.0044108713
58	0x3aa315e7	0.001244244
59	0x00eaa904	2.1550137e-38
60	0x3b04bf2d	0.0020255551
61	0xbb026927	-0.0019899101
62	0xbb6143ab	-0.0034372609
63	0x399dbe13	0.0003008699
64	0x3a804053	0.0009784795
65	0xbab8b963	-0.0014093335
66	0x386c3b98	5.6322286e-05
67	0x3a1e77a0	0.0006045047
68	0xba988af0	-0.0011638086
69	0xb911529f	-0.00013859056
70	0x3af9a238	0.0019045537
71	0xba86d9f9	-0.001028835
72	0x39d37a9e	0.00040336413
73	0x39119c62	0.00013886535
74	0xbb9206fd	-0.0044563995
75	0xba312eac	-0.0006758969
76	0xba5366a1	-0.0008064304
77	0x889b3d3f	-9.343122e-34
78	0xbbba3723	-0.0056828423
79	0xbc18503e	-0.009296475
80	0xbad1815b	-0.0015983986
81	0x184ec6e0	2.6725282e-24
82	0xbaec78c6	-0.0018041364
83	0x3b0233ff	0.0019867418
84	0x3abf4e89	0.0014595549
85	0xbb582889	-0.0032983145
86	0x3b9b3425	0.0047364407
87	0x3a25e0a5	0.0006327725
88	0x3a8c5dce	0.0010709108
89	0xba33ab0c	-0.0006853796
90	0xbac7e9a9	-0.0015252131
91	0xbacb005d	-0.0015487779
92	0xba0a758c	-0.0005281798
93	0x3a3df934	0.0007246912
94	0x38870bab	6.439475e-05
95	0xb927808d	-0.0001597425
96	0xbb32c556	-0.0027278266
97	0xbb390c31	-0.0028236026
98	0xbaefe2a9	-0.0018301803
99	0xbb9e3485	-0.004828038
100	0x39961162	0.0002862318
101	0xba31cfa0	-0.00067829527
102	0xba82aea0	-0.0009970255
103	0x3be398fa	0.0069457265
104	0x3b3766df	0.00279849
105	0x2b0bd8cc	4.9683586e-13
106	0x3ba3e1a1	0.0050012623
107	0xbb54323c	-0.0032378575
108	0x3b12a2ff	0.0022374985
109	0x3b102258	0.0021993127
110	0x3ab50d0d	0.0013813094
111	0x3b1c6742	0.0023865257
112	0xbc1bc4a8	-0.009507336
113	0xbb520c42	-0.0032050763
114	0x3aa68e29	0.0012707162
115	0x3a94d024	0.0011353535
116	0x3aa0a2a1	0.0012255498
117	0x3b0a2aeb	0.002108271
118	0x261f423a	5.525396e-16
119	0xb9f70e3c	-0.00047122117
120	0x3b985fc0	0.004650086
121	0x3aab19b6	0.0013053927
122	0x3a642886	0.0008703548
123	0x3a49b322	0.00076942344
124	0x3bd8682c	0.006604215
125	0x110ecc98	1.126487e-28
126	0xba5a8f13	-0.000833736
127	0x390c3ef2	0.0001337489
128	0x3a7f21fc	0.0009732542
129	0x28c69a70	2.2049392e-14
130	0x39b288b8	0.0003405267
131	0xbb9f6f1d	-0.0048655407
132	0x3ab18445	0.0013543448
133	0x89a095d5	-3.86595e-33
134	0x3b9c941c	0.004778398
135	0xbb4330b7	-0.0029783675
136	0xbb53db8e	-0.003232691
137	0x3b1c9a11	0.0023895542
138	0x3be1fb85	0.0068964385
139	0xbc7f8500	-0.0155956745
140	0x3acd5a3d	0.0015667152
141	0x3b6dc637	0.0036281475
142	0x394abeb5	0.00019335265
143	0xbc05c7ba	-0.008165294
144	0x3a990310	0.0011673886
145	0x39da5c44	0.00041648943
146	0x3a3ca9e0	0.0007196944
147	0x3b9092db	0.004412038
148	0xbb9487a2	-0.0045327703
149	0xbb849105	-0.004045608
150	0x3ad02d6e	0.001588268
151	0x3a991b61	0.0011681133
152	0x3b954af1	0.004556053
153	0xbad22322	-0.0016032199
154	0x3b807478	0.003920134
155	0xbb338049	-0.0027389696
156	0xbb5c748d	-0.0033638806
157	0x3ae98b0d	0.001781793
158	0x3ad54f11	0.0016274174
159	0x3a15fed8	0.00057218736
160	0x3c1cfe02	0.009582045
161	0xbae2864a	-0.0017282453
162	0x3a9fab1e	0.0012181734
163	0x3ad30982	0.0016100856
164	0x3a5cd719	0.0008424386
165	0x3bb2943a	0.005449799
166	0xbb246be1	-0.0025088715
167	0xbbbd20c9	-0.0057717306
168	0x39bd3fdb	0.00036096465
169	0x3bcdbd45	0.006278666
170	0xbb06c5f2	-0.0020564762
171	0x3b7755e1	0.0037740397
172	0x3a9bd2e1	0.0011888408
173	0xbad50c41	-0.0016254262
174	0xbb08f248	-0.0020896364
175	0x3abf8bcc	0.0014613806
176	0xbbc64227	-0.0060503664
177	0x3bde2b51	0.006780066
178	0xba115714	-0.00055442867
179	0x3a9e17aa	0.0012061496
180	0xba0f4b72	-0.00054662593
181	0x9f77fa73	-5.251145e-20
182	0x00f17e1c	2.2177594e-38
183	0xb9ce6d4c	-0.00039372814
184	0xb85dc798	-5.2876392e-05
185	0x3bec0d7c	0.007203756
186	0xbab50066	-0.0013809323
187	0x81331162	-3.288958e-38
188	0x39f582bb	0.00046827443
189	0xbaa8641e	-0.001284722
190	0xba61caac	-0.00086132693
191	0x3b4b81c8	0.0031052697
192	0xb9bb40e6	-0.00035715773
193	0x3b02332b	0.0019866924
194	0x3af17b29	0.0018423545
195	0xba076b7c	-0.0005165858
196	0xba942147	-0.0011301421
197	0x3ac8a65d	0.0015308369
198	0x3acc230f	0.0015574413
199	0xbb16c454	-0.0023005204
200	0xbafafdd4	-0.0019149133
201	0xba239725	-0.0006240479
202	0xbb2fcc24	-0.0026824558
203	0x3a306b60	0.00067298673
204	0x3b5ebb54	0.0033986168
205	0x99fbe5f0	-2.6045663e-23
206	0xbb9815cc	-0.0046412703
207	0xbc565bc1	-0.013083399
208	0x3945a544	0.0001884895
209	0x03addea3	1.0219141e-36
210	0xbac599a1	-0.0015075692
211	0xbbeeef7c	-0.0072917324
212	0x3c49c8af	0.012315913
213	0x3b80e9de	0.003934129
214	0xbbd9e158	-0.0066491775
215	0xba6e3eaf	-0.000908832
216	0xbb1ccc35	-0.0023925428
217	0x3b27c90a	0.0025602006
218	0xbad29782	-0.0016066881
219	0x3bad7083	0.0052929535
220	0xbb244ecd	-0.0025071383
221	0xb92ef3ee	-0.00016684804
222	0xbb4a8f04	-0.0030907998
223	0x38a0770b	7.651568e-05
224	0xba6425ae	-0.00087031245
225	0xb8e5f1b3	-0.00010964591
226	0x3ac7471c	0.0015203687
227	0xbbdfbd22	-0.0068279663
228	0x3b2e6cf0	0.0026615225
229	0xbb12a5d9	-0.0022376685
230	0xb9cd53fd	-0.00039163223
231	0xba990118	-0.00116733
232	0x3ad7a074	0.0016451017
233	0x2b98ad51	1.0848355e-12
234	0xbba3ab07	-0.0049947533
235	0x3a4261da	0.0007415094
236	0x3b7af9a0	0.003829576
237	0x3bad5862	0.005290077
238	0xba0ac6bf	-0.00052938977
239	0xbc0c384a	-0.008558342
240	0xbb3b8b07	-0.0028616802
241	0x3bac32e2	0.005255089
242	0x3bcf7764	0.006331371
243	0xbaeb75f1	-0.0017964226
244	0xbb38c433	-0.0028193116
245	0x3b02674e	0.0019898
246	0xa8194a4c	-8.509317e-15
247	0x3ac079cf	0.0014684739
248	0xbae467a4	-0.0017425907
249	0x3b8a7c63	0.004226254
250	0xba122a71	-0.0005575782
251	0xbc08b0f2	-0.008342968
252	0x3af1d4e2	0.0018450285
253	0x82ea82bd	-3.445825e-37
254	0x3bc621d4	0.006046513
255	0x3a5a3114	0.0008323353

fc_logvar.bias f4 [16]
0	0x3c30cad5	0.010790546
1	0x3bcd074a	0.0062569724
2	0x3c57e1a0	0.013176352
3	0x3b68f7d6	0.0035548112
4	0x3b9bd2ac	0.0047553387
5	0xbb8b57d9	-0.0042524156
6	0x3c1fbcf2	0.009749638
7	0xba00c09b	-0.0004911513
8	0xbcc0b2df	-0.023522792
9	0x3b8c72b4	0.0042861346
10	0xbe28d77a	-0.16488448
11	0xbb8779ef	-0.0041344087
12	0xbc5b1228	-0.013371028
13	0xbc4fba8f	-0.012678756
14	0xbba804a3	-0.005127506
15	0xbba51ad7	-0.0050386

decoder.0.weight f4 [128, 61]
0	0xbad821c5	-0.0016489556
1	0xbcc20087	-0.023681892
2	0xbca98444	-0.020692952
3	0xbcf881d0	-0.030335337
4	0x3b7a299d	0.0038171776
5	0x3cbfa55e	0.023394283
6	0x3d009cd9	0.03139958
7	0x3bf95da9	0.007610042
8	0xbd32fd04	-0.043698326
9	0xbc92674a	-0.017871518
10	0xbd401fc6	-0.0469053
11	0x3b97bce1	0.0046306704
12	0x3c8a850e	0.016909149
13	0x3c826c55	0.015920797
14	0xbc1c37e9	-0.009534814
15	0x3c2c2d00	0.010508776
16	0x3d972fad	0.0738214
17	0x3c81a84b	0.015827319
18	0xbecaefbf	-0.39636037
19	0x3d998cd1	0.07497562
20	0xbd83655c	-0.06415817
21	0x3d199b3e	0.037501566
22	0x3dd9ec42	0.10640766
23	0xbd6af860	-0.057365775
24	0xbda4c4ba	-0.08045335
25	0x3dbacaf5	0.09120742
26	0x3d70af4e	0.058760934
27	0x3d59c072	0.053162046
28	0xbc88bdde	-0.016692098
29	0x3d6c5556	0.05769857
30	0x3c2c18d2	0.0105039645
31	0xbcb53ec0	-0.022124648
32	0x3d42374f	0.047416028
33	0x3cd2f9ac	0.025753818
34	0xbcdcbaa1	-0.02694446
35	0xbdaf7e5b	-0.08569022
36	0x3d42b105	0.0475321
37	0x3d3bbd28	0.04583469
38	0x3d2362f4	0.03988929
39	0x3dd4b552	0.103861466
40	0x3c308e00	0.010776043
41	0xbe1cc75a	-0.15310422
42	0xbddd42f3	-0.10803785
43	0x3c6f6f5c	0.0146139525
44	0x3dce4474	0.1007165
45	0x3c2412e2	0.010014268
46	0x3d455c68	0.04818383
47	0xbd903906	-0.07042126
48	0xbd50fcb5	-0.05102225
49	0xbca2559a	-0.019816209
50	0xbd9d7d06	-0.07689862
51	0x3d2b0e18	0.041761488
52	0xbc4c49fb	-0.01246881
53	0x3d25112c	0.04029958
54	0xbd27c916	-0.040963255
55	0xbcdc0430	-0.026857466
56	0x3d3c4e07	0.04597285
57	0xbc140fcb	-0.009036968
58	0x3c77197b	0.015081759
59	0x3b4f75c5	0.003165589
60	0xbcfe6c5a	-0.031057525
61	0xbcc1fed9	-0.023681091
62	0x3d251d9c	0.04031144
63	0x3b834175	0.004005606
64	0x3bb975de	0.005659803
65	0x3c88199d	0.016613776
66	0x3d069075	0.03285261
67	0x3b07bde8	0.0020712558
68	0x3c9fcd04	0.019506939
69	0xbd603f0e	-0.054747634
70	0x3caa035a	0.020753551
71	0xbdb7fdc7	-0.08983951
72	0x3ca4054b	0.020022055
73	0xbced8dc4	-0.028998263
74	0xbcf236f6	-0.029567223
75	0x39f264e7	0.00046233015
76	0x3b2b8090	0.0026169159
77	0xbc06fb6f	-0.008238657
78	0xbc10d24e	-0.008839203
79	0xbd1a1a4d	-0.03762274
80	0xbd6e4062	-0.05816687
81	0xbd191096	-0.037369333
82	0xbd29af23	-0.04142679
83	0x3d1d1fe0	0.038360476
84	0xbdcbd2f8	-0.099523485
85	0x3d300275	0.042971093
86	0xbd80fcd3	-0.062982224
87	0xbc6851ef	-0.014179691
88	0xb9e51732	-0.00043695566
89	0x3d0a6a45	0.033792753
90	0xbca4e3cd	-0.020128155
91	0x3c1ba356	0.009499392
92	0xbd165723	-0.036704194
93	0x3d7aacad	0.061199833
94	0x3cde045b	0.027101686
95	0xbd6a11c4	-0.05714585
96	0x3c2bcc8f	0.010485782
97	0xbdcae383	-0.09906676
98	0xbc926f7f	-0.017875431
99	0x3d469a53	0.04848702
100	0xbae33d4c	-0.0017336993
101	0xbcab0ef1	-0.020881148
102	0xbcb2eb1a	-0.02184062
103	0x3d738c42	0.059459932
104	0x3d7a141b	0.06105433
105	0x3c0adc30	0.008475348
106	0xbb83a0a1	-0.004016951
107	0x830b5e1f	-4.0956474e-37
108	0x3c0f9596	0.008763691
109	0x3d24c9e1	0.04023159
110	0xbd27d978	-0.04097888
111	0x3be7b95f	0.0070716585
112	0xb83e8b65	-4.542935e-05
113	0x830dde4b	-4.1691356e-37
114	0xbb8683db	-0.004105074
115	0x3d349c19	0.04409418
116	0xbd9763a4	-0.07392052
117	0x3c103c6f	0.008803471
118	0x3c3f1faf	0.011665269
119	0xbd38d028	-0.04512039
120	0x3c0e83b8	0.008698396
121	0xbb81a5e8	-0.003956545
122	0x3c70fa60	0.014708132
123	0x3c0b12c0	0.008488357
124	0xbc809887	-0.01569773
125	0xbc199a4d	-0.009375167
126	0xbcb4b095	-0.022056857
127	0x3ba86886	0.0051394133
128	0x3baa58d1	0.005198576
129	0xbc751588	-0.014958747
130	0xbc410353	-0.011780578
131	0xbba2b68a	-0.004965608
132	0x3e2645f3	0.16237621
133	0x3c24ec3a	0.010066086
134	0x3b9412ab	0.004518827
135	0x3bae23c4	0.005314322
136	0x3c77e749	0.015130826
137	0x3c4d9c00	0.0125494
138	0x3d043470	0.03227657
139	0xbc78ee48	-0.015193529
140	0xbe88d8c2	-0.26727873
141	0x3d264c13	0.040599894
142	0xbdfd0eb3	-0.12356319
143	0x3dcc6848	0.099808276
144	0x3d18d988	0.03731683
145	0xbd465459	-0.048420284
146	0xbdd10b4f	-0.10207235
147	0x3dbcb3ee	0.09214006
148	0xbe209ad8	-0.15684068
149	0xbcbd01fb	-0.023072233
150	0x3d03894d	0.032113362
151	0xbdc430f6	-0.09579651
152	0x3c90861b	0.017642071
153	0x3c0ece90	0.0087162405
154	0xbd60be50	-0.054868996
155	0xbcf1533a	-0.02945863
156	0xbd772744	-0.06034018
157	0x3cfb441a	0.030672122
158	0x3dab8532	0.08375014
159	0x3d36443f	0.04449868
160	0xbce24cdf	-0.027624546
161	0x3c664643	0.014054838
162	0x3da81055	0.0820624
163	0xbdb3ff2f	-0.08788907
164	0x3e18cdf0	0.14922309
165	0x3d8e0f7d	0.06936548
166	0x3baf6714	0.005352864
167	0xbc7a11f0	-0.015263066
168	0xbd0a088f	-0.03369957
169	0x3d9a59c8	0.07536656
170	0x3e0d105d	0.13775773
171	0x3d554cc1	0.05207515
172	0x3cc649e8	0.024205163
173	0x818219fc	-4.7791744e-38
174	0xbd3cd70f	-0.046103533
175	0x3e00b367	0.12568437
176	0x3c6995ff	0.014256953
177	0x3d123a40	0.035700083
178	0x3de7cc85	0.11318306
179	0x3c22b0cb	0.009929846
180	0x3c434998	0.011919402
181	0x3d41a4eb	0.04727642
182	0x3bf92134	0.007602835
183	0x3b082f48	0.0020780135
184	0x3c2c1f28	0.010505475
185	0x3c2d663a	0.010583455
186	0x3ae6f331	0.0017620084
187	0xbb949bc4	-0.0045351703
188	0x3b3834d6	0.0028107665
189	0xbb02c2e2	-0.0019952585
190	0xbbb84b3e	-0.005624204
191	0x3bd0fff5	0.0063781687
192	0x3be14ef2	0.006875866
193	0x3d7c515a	0.06160102
194	0x3a3ce8bb	0.00072063104
195	0xbb5ade55	-0.003339668
196	0xbbeccd18	-0.0072265975
197	0xbb24fb43	-0.0025174178
198	0x3c30a5ce	0.010781718
199	0x3c73f576	0.014890065
200	0x390bdd37	0.00013338482
201	0xbf0b1f10	-0.5434427
202	0x3d350e70	0.04420322
203	0x3d854d4a	0.06508882
204	0xbd7e7cd6	-0.06213077
205	0xbd40b557	-0.04704794
206	0x3bfb7a77	0.007674511
207	0x3d6ebebe	0.058287375
208	0xbd30c1db	-0.043153625
209	0x3d9ceaa0	0.07661939
210	0xbdcf9bb5	-0.10137121
211	0x3d259b49	0.040431295
212	0x3d7edc8d	0.062222052
213	0xbc8bd37e	-0.01706862
214	0x3d1ace81	0.037794594
215	0x3d50f106	0.051011108
216	0x3d0678ce	0.032830052
217	0xbd01b91a	-0.031670667
218	0x3c830293	0.015992438
219	0x3d0a35de	0.033742778
220	0xbd7f1c2a	-0.06228272
221	0x3daf34b4	0.08554974
222	0xbc206973	-0.009790766
223	0x3ba4b6cf	0.0050266753
224	0x3c15b720	0.009137899
225	0x3d544d8f	0.05183178
226	0x3c4346f7	0.011918775
227	0xbd77c617	-0.060491648
228	0x3cd17cfa	0.025572289
229	0x3536a554	6.804087e-07
230	0xbd891d52	-0.066950455
231	0xbcc65e89	-0.024215
232	0xbd8bef74	-0.068327814
233	0x3c52a50c	0.012856733
234	0xbc87b098	-0.016563699
235	0x3536a557	6.8040885e-07
236	0xbdea3997	-0.11436766
237	0xbd1b172a	-0.037863888
238	0x3db2746e	0.087136135
239	0x3dad30cc	0.08456573
240	0x3c6050c0	0.013691127
241	0x3c9a3a68	0.018826678
242	0x3be75911	0.007060178
243	0x3d5fe2c6	0.054659627
244	0x3d0ca699	0.034338567
245	0xbd3befc9	-0.045882974
246	0x3cc3bb85	0.023893127
247	0xbbb1eda5	-0.0054299408
248	0x3d2b829c	0.041872606
249	0x3ca0895f	0.019596754
250	0x3c2c52a9	0.010517755
251	0x3c5adc9b	0.0133582605
252	0x3d67cd28	0.056592137
253	0x3d19c2e0	0.037539363
254	0x3d030001	0.031982426
255	0xbbff902d	-0.0077991695

decoder.0.bias f4 [128]
0	0x3d688584	0.056767955
1	0xbdee34e6	-0.11631183
2	0x3df8dcf1	0.12151516
3	0xbd93f0c0	-0.07223654
4	0xbd6b1d3f	-0.057400938
5	0x3d88c221	0.06677652
6	0x3d265e1e	0.0406171
7	0x3d78b04f	0.060715016
8	0xbdb13a1d	-0.08653662
9	0x3df9f711	0.12205327
10	0xbc34aceb	-0.011027555
11	0xbd1e7d16	-0.03869351
12	0x3d9fb95f	0.077990286
13	0x3dd9c906	0.10634045
14	0xbc01d662	-0.007924648
15	0xbc151379	-0.009098881
16	0x3d03aafc	0.032145485
17	0x3e0765f7	0.1322249
18	0xbe083ede	-0.13305232
19	0xbc39e79a	-0.011346722
20	0x3d916f5f	0.071013205
21	0x3e105882	0.14096263
22	0x3c496bb5	0.012293746
23	0x3de12faf	0.10995423
24	0xbdbc0ced	-0.09182153
25	0x3e1981a3	0.14990859
26	0xbce8e05a	-0.028427292
27	0x3c80ad63	0.015707677
28	0xbd519f20	-0.051177144
29	0x3c83a8ed	0.016071761
30	0xbdca748d	-0.098855115
31	0x3c25a632	0.010110425
32	0xbde52788	-0.111891806
33	0x3c0eb9a8	0.008711256
34	0x3e249cb2	0.160754
35	0x3d210a6b	0.039316576
36	0xbca2f3c3	-0.019891625
37	0xbcccc6cb	-0.024997136
38	0xbcbc7ec5	-0.023009667
39	0x3dc87242	0.09787418
40	0x3e04eb6d	0.12980433
41	0x3c58cfdf	0.013233154
42	0x3de133da	0.10996218
43	0xbe0882c9	-0.1333114
44	0xbc7e8bbd	-0.015536246
45	0xbd816d8b	-0.06319722
46	0xbd8581e8	-0.06518918
47	0xbb6be38e	-0.0035993787
48	0x3d80b7be	0.06285046
49	0xbc75b4d6	-0.014996728
50	0xbe166c4a	-0.14689746
51	0xbb9924b1	-0.0046735634
52	0xbd66efe0	-0.056381106
53	0xbd404547	-0.046941068
54	0xbe214f3b	-0.1575288
55	0xbcbe9565	-0.023264596
56	0x3df5b29c	0.11996958
57	0xbd0cf57b	-0.034413796
58	0x3e263506	0.16231164
59	0x3d88fc94	0.066888005
60	0xbd34c0d7	-0.04412922
61	0xbad74844	-0.0016424735
62	0x3de9dc30	0.114189506
63	0x3d94594f	0.07243597
64	0xbd235d78	-0.03988406
65	0xbd969325	-0.07352284
66	0x3d555cd2	0.052090473
67	0x3db2e257	0.08734577
68	0x3e5e8602	0.21730807
69	0x3db812fd	0.08987997
70	0x3d890a95	0.066914715
71	0x3c9e704b	0.019340655
72	0x3da30c88	0.079613745
73	0x3d2a82a3	0.04162849
74	0x3ca85c5f	0.020551858
75	0xbd68ca8c	-0.05683379
76	0xbdc0dc9e	-0.094170794
77	0xbdd2d9db	-0.10295459
78	0x3ddcd3d7	0.10782593
79	0x3d48a045	0.04898097
80	0xbdacd674	-0.08439341
81	0xbd6eb93e	-0.05828213
82	0xbc96b9c5	-0.018399129
83	0xbe10fcb4	-0.14158899
84	0x3d98fd24	0.07470158
85	0x3cb50ca2	0.02210075
86	0xbe0faad5	-0.14030011
87	0x3da738c5	0.08165125
88	0x3d6b2d1f	0.057416078
89	0x3b0231ad	0.0019866035
90	0xbd21c584	-0.039495006
91	0xbe3bbc4c	-0.18333548
92	0x3cd050c4	0.025429137
93	0xbc0a3c9e	-0.008437304
94	0x3e001979	0.12509717
95	0x3deb935b	0.11502715
96	0x3d6c39b4	0.057672217
97	0xbe13b143	-0.14423089
98	0x3dd2d0f6	0.102937624
99	0x3d8aa799	0.06770248
100	0x3d6d3565	0.05791225
101	0x3e1a79ae	0.1508548
102	0xbd2fbea1	-0.042906407
103	0x3c94a7d3	0.018146431
104	0x3ab80237	0.0014038746
105	0xbda15a38	-0.07878536
106	0x3d3ff5db	0.046865325
107	0xbdb08bfb	-0.08620449
108	0xbd671bdc	-0.056423053
109	0x3dc8ddaa	0.09807904
110	0x3cbf1076	0.023323279
111	0xbd5bced7	-0.053664055
112	0xbd98f8a6	-0.07469301
113	0x3e0859ff	0.13315581
114	0xbcd11be2	-0.02552599
115	0x3d5a1964	0.05324687
116	0x3c94be0c	0.018157028
117	0x3cef5a4c	0.029217862
118	0xbda48820	-0.08033776
119	0x3ca328d8	0.019916937
120	0x3e1b26ad	0.15151472
121	0x3d9774ee	0.073953494
122	0xbd9f7441	-0.077858455
123	0x3d42ded1	0.047575776
124	0x3d961cd5	0.07329718
125	0xbdd06f68	-0.10177499
126	0xbe012325	-0.12611063
127	0xbd24979f	-0.04018366
