models/cvae_L8_H64_B0.100_LR1e-03.pt (torch, 85621 bytes, 13 tensors)

encoder.0.weight f4 [64, 46]
000000 c5 38 ff bd b6 2f 8a 3c 1e 29 48 bd 71 e9 19 3e
       -0.12462 0.016868453 -0.048867337 0.15030457
000010 d6 c0 4f 3c c0 69 c4 bb 09 5d 08 3d ce 9f 40 3c
       0.012680253 -0.0059940517 0.03329185 0.01175685
000020 cb 2e a4 bc 01 4f f7 3b d8 0a 9c bd 0b 3c d4 bb
       -0.020041844 0.00754726 -0.07619256 -0.0064768842
000030 1c c8 d2 bd 12 34 82 3c c1 56 08 bd 7c d1 33 3d
       -0.10292074 0.01589397 -0.03328586 0.04390095
000040 17 5d 67 bd 6b 18 78 bc d1 d2 bb 3c 46 d9 5c 3d
       -0.05648526 -0.01514254 0.022927674 0.053918146
000050 e5 82 d5 3b 8b c4 13 3d 5c 4e 97 bd fe 5b 51 3d
       0.006515848 0.03607611 -0.07387993 0.05111312
000060 06 98 58 bc 24 4b ff bc d6 f8 0f 3d 34 ea 4f bd
       -0.013219839 -0.03116376 0.035149418 -0.050760463
000070 d7 44 69 3d bf ea 58 ba d0 f9 0e 3c 04 dc 88 bb
       0.056950416 -0.0008274726 0.008726552 -0.0041766185
000080 01 8e 70 3d e0 50 d7 3d a7 eb 83 3d ad b9 aa 3a
       0.058729175 0.105134726 0.064414315 0.0013025306
000090 90 3c 1b bb 04 dc 88 bb 75 fe 95 ba 75 04 e7 3d
       -0.002368722 -0.0041766185 -0.0011443632 0.11280147
0000a0 26 f5 75 3d 08 12 d5 3b 5c 9e 55 3d c0 9e 53 3d
       0.060048245 0.0065023936 0.052152976 0.051665068
0000b0 46 ef a1 ba 42 7d a5 bb e4 8a 19 be 64 fd a9 3c
       -0.0012354634 -0.0050503323 -0.14994389 0.020750709
0000c0 cb 5d 3c 3d a3 02 ce 3c 14 2d 25 bd 1c 88 f7 3c
       0.045987885 0.025147742 -0.040326193 0.03021627
0000d0 78 d9 58 3d 58 36 1a bc 9f 4d 56 3d 2b 97 4b 3d
       0.05294177 -0.009412371 0.05232012 0.049704712
0000e0 1b 15 b6 bd 97 44 6c 3d d2 f8 dd bc ed c0 e6 3c
       -0.08890744 0.0576826 -0.027096186 0.028168166
0000f0 44 41 47 bd 94 5c b7 3c 6d e1 14 bd f3 d4 b1 bc
       -0.048646227 0.022383012 -0.036347795 -0.021707987
000100 cc f4 4f bc 61 17 30 bd 72 23 f7 3c 01 b0 8c bd
       -0.0126926415 -0.042991046 0.030168269 -0.068695076
000110 31 c9 cc 3d 44 4a d2 3c 55 c2 94 bd 57 92 b5 bc
       0.09999312 0.025670178 -0.072636284 -0.022164507
000120 ff cf 19 3e 40 a4 45 be 13 a1 b4 bc 99 5e ac 3b
       0.1502075 -0.19300938 -0.022049462 0.0052603004
000130 c4 fa ef b9 e3 1e 25 3c 5f 63 86 bd 8b 37 ca 3c
       -0.00045772467 0.010078165 -0.06561922 0.024684688
000140 95 29 1f bd 52 4c 8a bc b7 98 98 3c e3 1e 25 3c
       -0.038858015 -0.016882095 0.018627508 0.010078165
000150 cf 0e 26 bc e9 48 c0 3c 1d 13 a9 bc 78 15 d9 3c
       -0.010135367 0.023472266 -0.020638997 0.026499495
000160 04 0e da 3c 39 a6 84 bc 4b b8 87 3b 2e db d1 3b
       0.026618011 -0.016192542 0.0041418425 0.006404302
000170 33 78 d3 bd c3 83 b3 bb dc e0 34 bc 69 c2 d0 3d
       -0.103256606 -0.0054783537 -0.011039939 0.10193331
000180 4a f1 ec bb 1b 13 30 bd a3 35 06 3d f2 3b ce bc
       -0.0072309123 -0.04298697 0.032765996 -0.025175069
000190 b0 61 08 bd 5c 00 41 3d 15 51 58 bb 06 3c d8 bb
       -0.033296287 0.047119483 -0.0033007313 -0.006598952
0001a0 5b f1 87 bd a5 89 88 3d 97 5a c3 bb 25 ea 69 bb
       -0.06637832 0.066668786 -0.005961727 -0.003569254
0001b0 53 9d c4 3b 81 12 57 bc 6e 85 8e 3b e7 f9 3e bd
       0.0060002 -0.01312697 0.004349402 -0.046625044
0001c0 0a 77 c4 3d 94 d9 bb 3c f2 e4 af bd f8 f4 ed 3c
       0.095930174 0.022930898 -0.0858859 0.029047474
0001d0 6a a8 d9 3d 07 e5 6f bd 66 fe 3d bd a7 a4 85 3d
       0.106278256 -0.058568027 -0.04638519 0.065255456
0001e0 35 02 7a bd 38 11 08 3a 52 6f 8a bc 1c 13 14 3b
       -0.06103726 0.0005190554 -0.016898785 0.0022594398
0001f0 08 3f 2d bd 7a 08 15 3d 7a b6 87 bc 65 10 08 3a
       -0.04229644 0.036385037 -0.016566504 0.0005190431
000200 94 45 9b 01 28 13 14 3b 44 28 9c bb 8d b4 09 3d
       5.703785e-38 0.0022594426 -0.004765542 0.033619452
000210 78 04 96 3c c5 5c aa 3b 18 d9 3d 3c 34 7e 0e bc
       0.018312678 0.0051990473 0.011587404 -0.008697081
000220 6c 39 d1 39 fb cf f4 bb bc 2d 63 be 6f 17 47 bd
       0.0003990637 -0.0074710823 -0.22185415 -0.048606332
000230 e3 a1 c6 3c bf a5 19 3e 0a 0f 58 3d 44 d1 c4 3d
       0.024247115 0.15004633 0.052748717 0.09610227
000240 fe 25 1b 3e 82 ab e0 bd 9c fc bb 3d 99 f2 47 3c
       0.15151212 -0.109702125 0.09179041 0.012203836
000250 b6 86 64 bd ff 80 28 3c 74 a4 b0 3c cc 84 50 bd
       -0.055792533 0.010284661 0.021562792 -0.050907895
000260 16 bf ea 3d 20 4b 8e 3d bc 44 91 bd cb 6d 32 bd
       0.11462228 0.06947923 -0.07093188 -0.043561738
000270 33 48 e1 b9 08 4e 1e 3d 11 49 c8 bb 0f e8 0a bd
       -0.00042969137 0.038648635 -0.006112226 -0.033912715
000280 e7 cb a2 3d 87 de 7a bd 6d 9f d4 3d 8c 75 5b 3b
       0.079490475 -0.061247375 0.103819706 0.0033486811
000290 eb 5f db 3d 28 66 e6 3d 97 cd 30 3e f5 79 89 3d
       0.10711654 0.112499535 0.17265926 0.067127146
0002a0 cc a8 96 3d aa 97 ba bb 40 67 2e 3e 72 c7 8a 3d
       0.07356414 -0.0056943493 0.17031574 0.067763224
0002b0 6d 97 3a 3e 65 0f 92 bd 04 f0 b4 bb c7 3f c9 bc
       0.18221827 -0.071318425 -0.005521776 -0.024566544
0002c0 28 f3 e5 3c bd e8 1c 3e e3 4f e1 3d 6a 58 bb 3d
       0.028070047 0.15323158 0.11001565 0.09147723
0002d0 09 dd 4a 3d 62 9d 8b 3d 5c 53 8d 3d a8 87 5f bd
       0.0495272 0.06817128 0.06900665 -0.05457273
0002e0 a8 b5 82 3a bc 6c 3f 3d d1 9b e9 3b 24 90 3e 3c
       0.0009972351 0.046734557 0.0071291705 0.0116310455
0002f0 3b b3 5f bd 2a 14 3d bc ad 29 14 bc 73 4c 84 39
       -0.054614287 -0.011540452 -0.009043139 0.0002523396
000300 ae 6b 91 3c 42 4c 90 bc 54 ef 88 3c d2 cf f3 3c
       0.017751541 -0.017614488 0.016715683 0.029762182
000310 75 46 9d bc 75 9a 73 bb 8f 1e 61 bc 78 eb 80 bc
       -0.019198636 -0.003717092 -0.013740196 -0.01573728
000320 93 bb a7 bc 75 f4 81 bc 66 1c 00 bd db 1e 94 bc
       -0.020475185 -0.015863637 -0.031277083 -0.01808112
000330 da a6 ea 3c 25 29 59 bc 66 e3 9a bc 82 60 e2 bc
       0.028644014 -0.0132544385 -0.01890726 -0.02763391
000340 63 29 89 bc d8 ac 33 bd aa 98 90 3b e9 c0 30 bc
       -0.016743368 -0.04386601 0.00441273 -0.010788181
000350 65 43 61 bb 42 c4 03 38 d4 0b e4 ba c7 c8 cd 00
       -0.0034372446 3.1415613e-05 -0.0017398545 1.8898302e-38
000360 31 ca 19 bb 59 09 39 3c 2a 6f 03 bd 17 50 af 39
       -0.0023466463 0.011293733 -0.032088436 0.00033438273
000370 d2 46 96 ba e4 6b 14 01 94 0b e4 ba 62 72 d2 bb
       -0.0011465198 2.7260715e-38 -0.001739847 -0.006422327
000380 87 e7 8b 3c e5 6f 1a 3c 07 49 b6 bc 64 f0 14 bc
       0.017078174 0.009426092 -0.022251619 -0.009090517
000390 e6 1f be ba 30 63 d5 9f 89 c6 bc be b7 28 66 3c
       -0.0014505356 -9.03731e-20 -0.3687022 0.014047793
0003a0 1d 2b 3c bb 46 0b 0f 3f 8e 73 b3 3c f7 2c 33 3d
       -0.002871222 0.55876577 0.021905687 0.043744054
0003b0 4e ae 74 3d 7a fe 6e bd fb 16 93 3d 9f 30 20 bc
       0.059736542 -0.058348157 0.071821176 -0.009777217
0003c0 94 f7 b6 3c 49 15 19 3c 37 2d 62 bd cf 7b 5a 3c
       0.022334851 0.009343454 -0.0552189 0.013335182
0003d0 75 68 ec bb 3b ce ca 3b 20 53 53 3b 12 ab ef ba
       -0.0072146007 0.0061891354 0.0032245591 -0.0018285236
0003e0 d4 bd 37 3c d4 2b c6 3c ed e0 ab 3b e4 25 4d 3d
       0.011214692 0.02419082 0.005245319 0.050084963
0003f0 3a 41 00 3d db 55 5b bd 40 ba 58 3d 36 22 9e bd
       0.031312205 -0.053548675 0.052911997 -0.07721369

encoder.0.bias f4 [64]
000000 1c 33 56 3d be 24 82 bd 94 fd 28 bd dc 68 74 3e
       0.052294835 -0.06354664 -0.041257456 0.23868126
000010 5a 3f 1d bd dd be 79 3e 46 10 93 3d 98 0b e3 3d
       -0.038390495 0.24389215 0.07180838 0.11086196
000020 c5 37 51 3c c0 d3 94 bb fe 35 4b 3d 0d dc 09 be
       0.012769644 -0.004541844 0.049612038 -0.13462849
000030 23 01 8f 3d 93 0e 21 bd b3 27 80 bc 2b a3 9a bc
       0.06982639 -0.03932054 -0.01564393 -0.018876633
000040 7a 55 b0 3d 45 a2 41 3d 94 a6 b4 bd 84 d1 88 bd
       0.08610053 0.047273893 -0.08820835 -0.06680587
000050 86 d6 24 3d 74 44 ef 3d ef 29 3f 3e 15 b4 5d 3d
       0.040243648 0.11682978 0.1866834 0.054126818
000060 2e a1 c3 bc 4c fb 81 3b fb 90 3f 3e b8 6f 55 bd
       -0.023880567 0.0039667245 0.1870765 -0.052108496
000070 cd b4 eb bb 19 90 a6 bc f2 02 3f 3e 37 c2 97 3d
       -0.007193184 -0.020332383 0.18653467 0.074100904
000080 35 9e 86 3d 5b e4 2f 3e f2 d1 03 3c 07 ae 8e 3c
       0.06573144 0.17176954 0.00804566 0.017416967
000090 11 7b ee bc 17 13 99 bd 98 f5 a3 bd 0d 2b 1e 3e
       -0.029111417 -0.07474344 -0.08005828 0.1544611
0000a0 7a ee 09 bd f1 c5 5b bc a9 b4 19 3e 4b 4c b1 3d
       -0.033674695 -0.013413892 0.15010323 0.0865713
0000b0 66 d6 83 3d e4 ad f9 bd 5d 76 0a 3d 86 78 53 bd
       0.06437378 -0.1219137 0.033804286 -0.051628612
0000c0 2a 42 41 3e d6 da 21 bd b7 a7 f0 3c ab 40 de bc
       0.18872896 -0.03951534 0.029376848 -0.027130445
0000d0 9f 9e 08 3c f3 df e0 3d 71 78 b4 3c 0d 68 ee 3d
       0.0083385995 0.10980215 0.022030087 0.1164094
0000e0 c2 d5 0f 3e 35 1a 6f 3d 77 fa a6 bd 6d e9 e2 3d
       0.14046386 0.058374602 -0.08153241 0.11079679
0000f0 00 b0 03 3d 3e be 2c 3e ca 95 90 bd 0c b0 44 3d
       0.03215027 0.16869447 -0.0705982 0.048019454

encoder.2.weight f4 [64, 64]
000000 38 0c ad 3d dd f0 4f 3d d1 94 0c 3d e6 38 98 bd
       0.08449596 0.050766815 0.03432161 -0.074327275
000010 43 bc 02 bd f5 5f da 3d 02 bf 6a 3d e6 58 aa bc
       -0.03191782 0.106628336 0.057311065 -0.020794343
000020 ad 9e 3f 3e 79 a9 60 bc 78 e1 75 3c ba 60 08 bd
       0.18712874 -0.01371228 0.015007369 -0.03329537
000030 db b3 ca 3d 48 ee 86 bd 2b 73 21 bd fa 59 ec 3c
       0.09897586 -0.06588417 -0.039416473 0.028851498
000040 9f 64 8a bd 8d 08 55 bd 50 12 a3 bc 3c dc 73 3d
       -0.06757473 -0.052010108 -0.019906193 0.059536204
000050 b9 3a f2 bc 16 67 67 bd b8 ba 0b bd 8e 84 76 bc
       -0.029569017 -0.056494795 -0.034113616 -0.015046252
000060 42 09 0f 3d 00 05 fb ba e5 3b cc 3d a6 94 c0 3d
       0.03492094 -0.001915127 0.099723615 0.094033524
000070 f4 69 9b 3d 95 43 8e 3d 20 4b 20 bd 4a 17 8d ba
       0.07588568 0.06946484 -0.039134145 -0.0010764387
000080 dc be 97 3d 95 d4 a7 bd 90 1d 80 bd f9 a6 19 3d
       0.074094504 -0.08194844 -0.062556386 0.037512753
000090 3b 3f 9b bd 4a 4f 3c bd 6c 3a b0 bc 74 f6 9f bd
       -0.0758042 -0.045974053 -0.021512233 -0.07810679
0000a0 41 e2 d1 ba 9e 39 75 3d 7e f8 b1 3d 9b b1 bf 3d
       -0.0016012863 0.0598694 0.08689974 0.093600474
0000b0 95 0d e4 bc 46 0a a6 bd 6c 90 22 bd f3 86 6d bd
       -0.027838508 -0.08107428 -0.039688513 -0.057990026
0000c0 4d 98 f0 3c 2c 4c cd 3c 2b 73 5f bd 37 48 d2 3d
       0.029369498 0.025060736 -0.054553192 0.1026768
0000d0 86 2f 8a bc fc 09 47 3d 0d ed b3 3d 78 38 e6 3d
       -0.016868364 0.048593506 0.08785448 0.11241239
0000e0 0f 9a 10 bd 84 6a e1 bc fd b0 ba 3c de 61 58 bd
       -0.03530317 -0.02751661 0.022789473 -0.05282771
0000f0 23 19 8d 3d 72 b7 02 bd 8d be 83 bc 57 02 05 3d
       0.0688956 -0.03191323 -0.016082073 0.032472935
000100 40 8e 98 3d 78 51 eb 3a 0a 3b b0 3c 61 66 d5 3d
       0.07449007 0.0017953357 0.021512527 0.10419918
000110 93 2f 55 bc 60 50 ed 3d 1f cf 8e bd c5 0b f3 3c
       -0.013011831 0.11587596 -0.06973099 0.029668698
000120 41 60 48 3e e4 76 40 be 38 3b a0 bd 8d 91 c8 3c
       0.19567968 -0.18795353 -0.07823795 0.024483467
000130 17 11 03 3d f2 40 94 bd fe 7f 90 bd 9d fb b5 bd
       0.03199872 -0.0723895 -0.070556626 -0.08885882
000140 0d ef 92 bd ed 8e f5 bd d4 a7 ed bd 2f d9 cc bd
       -0.071745016 -0.119901516 -0.11604276 -0.10002362
000150 28 76 a9 bd 53 b8 04 be 98 fb 22 3d db 39 8e 3d
       -0.0827449 -0.12960939 0.03979072 0.06944629
000160 40 c4 76 3d 52 92 e0 bc d1 4f 60 bb e5 6c f9 bc
       0.060245752 -0.027413521 -0.0034227262 -0.030447433
000170 8e 67 3f 3e e6 f2 b9 bd 75 be 9c bd 5e 14 6e 3c
       0.18691847 -0.09079532 -0.07653514 0.014531223
000180 0a e4 1f 3d 60 11 d3 3c fd 9c 58 bd c7 d7 8d bc
       0.039035834 0.025765121 -0.05288409 -0.017314805
000190 6b 28 1d be 6d 81 af bd 7c 71 fa bc b9 0f 27 3e
       -0.1534745 -0.08569608 -0.030571692 0.16314591
0001a0 ab 1c 9b 3d e2 cc 85 bd 2d 35 99 3d dd 1a b4 bc
       0.07573827 -0.06533219 0.074808456 -0.021985466
0001b0 bc 81 d3 3d ec dd 9f be 4c 6b 96 3d 78 09 81 bd
       0.10327479 -0.31224 0.07344684 -0.06300634
0001c0 d2 0d 8f 3d 8b b2 3a be a2 f7 8c be 80 f3 cd bb
       0.06985058 -0.18232171 -0.2753268 -0.006285131
0001d0 e8 31 97 bd c5 2a 4d 3d 11 ea 10 3d e1 f4 0e bc
       -0.07382566 0.050089616 0.035379473 -0.008725376
0001e0 c4 5b 03 3e 1f 6e d1 3c cb 2b 04 3d 01 eb 06 3e
       0.12827975 0.025565205 0.032268327 0.13175584
0001f0 46 d9 9a 3d 56 b6 43 be 85 d2 ef 3c b0 a6 8c 3d
       0.07560973 -0.19112524 0.029275188 0.068677306
000200 c3 bf 9b bc 1c 10 7d 3d 4a c0 64 bd b3 ab 91 3c
       -0.019012338 0.06178294 -0.055847444 0.017782068
000210 12 a8 c9 39 be 21 6e 3d e7 41 fb 3c 51 b6 8c 3d
       0.0003846293 0.058137648 0.030671073 0.068707116
000220 35 7c b4 bb 2d 9d 06 bd c7 7d 63 bd 64 98 d5 bc
       -0.0055079707 -0.03286474 -0.055539872 -0.026073642
000230 0e c0 a4 bc 6f da 5b bc 6a fb 74 3d 4e ed 57 3d
       -0.02011111 -0.013418778 0.05981008 0.052716546
000240 59 cd e3 3c c0 b2 e2 3c 54 65 d9 bd 8f 43 7a 3c
       0.027807878 0.027673125 -0.1061503 0.015274896
000250 81 92 95 bd 44 06 44 3e 53 73 15 3e 58 3e b8 3c
       -0.07303334 0.19143015 0.14594774 0.022490665
000260 b6 f4 7b bd 8b d3 8c bc 08 c1 28 3e b1 e7 15 3d
       -0.06151267 -0.017190715 0.16479886 0.03659791
000270 4c 46 53 3d 87 d0 85 3d 2e a6 86 3c 36 f4 da 3c
       0.051580712 0.06533914 0.016436663 0.026727777
000280 45 8b f8 3d cb e3 e1 bb e7 eb 2a bd 8d 5d a9 3d
       0.121359386 -0.00689361 -0.04172888 0.082697965
000290 66 6b 89 3d 81 16 ea 3c 27 da b5 3d 09 8d df 3d
       0.06709938 0.028575184 0.088795 0.10915572
0002a0 7a 06 9b bb f6 64 9e 3c 35 8f f1 3d 1f 85 ea 3d
       -0.0047309967 0.019335251 0.11794893 0.11451172
0002b0 60 49 05 bb 80 b0 73 bc 97 d0 a4 bc d2 eb 81 3c
       -0.0020337924 -0.014873624 -0.020118995 0.015859518
0002c0 1e 50 c8 bc 63 0d b0 3d 6d ee 1a be 9e 4b 90 bd
       -0.024452265 0.08596303 -0.15130015 -0.07045673
0002d0 b0 73 83 bd f3 39 9f bc 9e 3f b0 bd f6 f5 6f 3d
       -0.0641855 -0.019436812 -0.08605884 0.058584176
0002e0 e9 e7 53 bc f2 a5 c6 3d 75 83 e8 bb 46 c5 dc 3d
       -0.01293371 0.0969962 -0.007095749 0.107798144
0002f0 2f 2d 9d 3d 7d 1f 08 be ea fd c3 3d a8 50 2e bd
       0.07674634 -0.13293262 0.09569915 -0.04255739
000300 c7 40 2e bd 96 08 d1 ba 88 81 42 bd bf e5 e3 3d
       -0.042542245 -0.0015947993 -0.047486812 0.11127805
000310 9e 89 29 3c c3 05 3b bd bc 38 76 3d 0a cc 5d 3d
       0.010347752 -0.04565979 0.0601127 0.054149665
000320 28 f8 94 bd f6 b1 b8 38 13 a0 9c bc f0 f4 8a 3d
       -0.072738945 8.8069515e-05 -0.019119298 0.06784999
000330 11 d6 ad bd 66 7d 21 bc 75 ac 03 bc 04 75 04 bd
       -0.084880956 -0.0098565575 -0.008036722 -0.032338157
000340 e1 45 6b bc 7c f6 2c bd aa 39 88 3d 0a d3 05 3d
       -0.014359922 -0.042227253 0.066516235 0.032671966
000350 bb 76 2b 3e 5b 98 7f bd 22 9c 8a 3d b4 2e 02 3e
       0.16744511 -0.062401157 0.06768061 0.12713128
000360 40 26 80 3d ff 6b 9e 3c bf ec 8f 3d 22 7c 8a 3d
       0.062572956 0.019338606 0.070275776 0.06761958
000370 57 6d 4e 3c 49 44 fa bb 1d 79 cf bb 07 47 27 bc
       0.012599311 -0.0076375348 -0.0063315765 -0.010209805
000380 1b bf f5 3d ef e3 1d bd 07 e4 26 bd 61 2f 08 3b
       0.11999341 -0.038547453 -0.040744808 0.0020780193
000390 90 52 8a 3b 24 2e a0 3d 6f a7 ae bc 15 d8 07 bd
       0.004221268 0.078213006 -0.021320073 -0.033165056
0003a0 1c 79 81 bc f8 2c 9d 3c 53 bb 4d 3d 25 6c 28 3d
       -0.01580482 0.019186482 0.050227474 0.04111876
0003b0 01 75 4b 3c 1b 18 fe 3d e7 45 0a 3e 50 18 c5 3d
       0.012418033 0.124069415 0.13503228 0.09623778
0003c0 87 59 ca 3d 21 f7 17 3e 2c 09 32 bc 60 f2 67 bc
       0.09880357 0.14840366 -0.010866445 -0.014156908
0003d0 15 34 2d 3d 23 a8 45 3d 33 ba 50 3d 13 67 87 3d
       0.042285997 0.04825605 0.050958823 0.06611457
0003e0 9d e6 df bd f9 5c 55 bd 9c ac 11 bd 89 73 8f 3d
       -0.10932658 -0.05209062 -0.035565004 0.070044585
0003f0 81 2f a1 3b 50 1e 03 bc 52 ba 6e 3d 15 d2 99 3d
       0.004918993 -0.0080028325 0.058283158 0.07510773

encoder.2.bias f4 [64]
000000 e8 46 16 3d 80 ff 0b 3e 3e c0 e9 3d a2 9e 12 bd
       0.036688715 0.13671684 0.114136204 -0.035795815
000010 c4 88 47 bc 84 d6 b0 bc 1d 7c 30 3d 29 68 84 3d
       -0.012178604 -0.021586664 0.043087114 0.064651795
000020 71 ac 87 3c 39 26 f9 3d 4d 37 0e 3e ee 41 10 3e
       0.016561719 0.121654935 0.13888283 0.1408765
000030 48 ea 2e 3e 0d 62 a6 3d 9c 89 37 bc 2c 25 3d 3e
       0.17081559 0.081241705 -0.011202242 0.18471211
000040 e1 e4 32 3d c0 bd 02 3e 95 b5 40 3c 4d 0e 51 3d
       0.043675307 0.12767696 0.0117620425 0.05103903
000050 01 c8 43 3e 4f eb 11 3e 25 b7 9d 3d 64 6d cd bc
       0.19119264 0.1424992 0.07700948 -0.025076576
000060 94 2d 07 bd 16 f4 07 3e b3 22 fc 3d 9f c3 90 3d
       -0.03300245 0.13276705 0.12311306 0.07068562
000070 9e 9a c3 3d 30 90 ba 3c 33 14 01 3d 81 24 29 3e
       0.09550975 0.022773832 0.031513404 0.16517831
000080 5e 17 9f 3d dd 52 1d 3e a6 24 d9 b0 e0 94 d0 81
       0.07768129 0.15363641 -1.5799244e-09 -7.662076e-38
000090 65 b3 b2 3d 6f a2 91 bd 06 0a 94 3d a3 e2 91 3d
       0.08725623 -0.0711106 0.07228474 0.07123306
0000a0 6c 2c ec 3d 77 ff f6 bc 4e f2 e5 bc 66 f5 7f 3b
       0.1153191 -0.030151112 -0.028069641 0.003905618
0000b0 4f b8 98 bd 38 a5 77 bd f2 64 27 3e cc b4 c9 3d
       -0.07457029 -0.0604603 0.16347101 0.098489374
0000c0 45 a3 9a 3c 91 01 19 3e d0 1e ee 3d b8 91 5c 3d
       0.018876681 0.14942004 0.11626971 0.053849906
0000d0 86 b6 66 3d b7 7e 43 bd 8b de 1d 3d ec 1c ac 3d
       0.05632641 -0.047728267 0.03854231 0.08403954
0000e0 bd 33 c3 3d 83 2f ce 3d 9c 49 58 3c b3 9f 0f 3c
       0.09531353 0.10067656 0.013201144 0.008766103
0000f0 74 aa d4 bc 56 78 55 bd f9 18 8a 3d b3 b0 4a 3e
       -0.025960185 -0.052116714 0.067430444 0.19793968

fc_mu.weight f4 [8, 64]
000000 db f0 02 bb 5b e6 37 bb 11 6d 9d bb 27 ba f9 bb
       -0.0019979987 -0.0028060887 -0.0048042615 -0.007621068
000010 82 b0 1d bb 51 32 46 3b aa 32 25 3c 9c 54 5c 3c
       -0.0024061506 0.0030242393 0.01008288 0.013447907
000020 ad 80 c8 ba fe b2 ab 3a cf 98 5b bc 5a 30 94 3a
       -0.0015297137 0.0013099608 -0.013403132 0.0011305914
000030 20 71 79 bc 5a ad 0e 3c 3c 5b 86 3b 8d 8b 10 bc
       -0.015224725 0.008708322 0.0041002315 -0.008822334
000040 a9 c0 3f ba 0d 2c 80 3c f8 0e 14 3c fd 8e 78 bb
       -0.00073147804 0.015646005 0.009036772 -0.0037927025
000050 28 45 70 bc ae d8 bc ba f6 72 d0 3a d0 fe 53 3c
       -0.014664926 -0.0014407837 0.0015903402 0.01293917
000060 a0 a5 84 bc d6 3b ad 3a 11 e6 fb 39 b8 db f0 bb
       -0.016192257 0.0013216685 0.00048045864 -0.0073504113
000070 1d 1f a8 3c 5e 66 85 bb 71 30 29 bc 73 d7 56 bc
       0.020522648 -0.004071041 -0.010326491 -0.0131128905
000080 80 f5 60 bb d3 3e ad bb 68 7f c3 0c 97 51 6c 81
       -0.0034326017 -0.0052870302 3.0121187e-31 -4.3404892e-38
000090 c8 bc 57 3c d6 e8 b1 b9 c2 a2 c0 39 8b b0 36 bc
       0.013167568 -0.00033933547 0.00036742358 -0.01115049
0000a0 44 8b 64 bc 6f 3f 5d 3c 55 7a 9f 3b d7 9d 8d 3b
       -0.013949219 0.013503893 0.004866878 0.0043217945
0000b0 6b ad a3 ba f8 f6 23 3b 3f 7e 17 bc fd 2d 77 ba
       -0.0012487596 0.002501903 -0.009246408 -0.0009429155
0000c0 61 de c1 ba 4c d3 7b 3a 4f 13 01 3c 12 41 39 3a
       -0.0014791006 0.0009606376 0.007878139 0.0007066886
0000d0 82 55 24 3a bb 01 65 bb 7c 3b 91 3a 5c 8f 39 3a
       0.0006268845 -0.0034943658 0.001108035 0.0007078552
0000e0 58 62 29 3b 10 b0 85 ba e3 f0 2d bc 41 49 76 bb
       0.002584597 -0.0010199565 -0.010616514 -0.0037580284
0000f0 f7 c9 4e 3c eb 79 2a bb 24 37 2a 3b c4 1f 0a bb
       0.012621394 -0.002601261 0.0025972808 -0.0021076063
000100 47 fe a8 bd 78 f0 9b be 4c 76 1c be 6b 25 dc 3d
       -0.082516246 -0.304569 -0.15279502 0.107493244
000110 fd bb 48 bf f5 86 c3 3d c6 a3 39 bd 68 96 05 3e
       -0.7841185 0.095472254 -0.045322202 0.13045657
000120 d8 e4 d3 be 78 c0 ee be 82 b2 3c bd bb 0a 88 be
       -0.4138553 -0.46631217 -0.046068676 -0.26570687
000130 ed d5 75 3d 8e 57 86 3d 0d 32 f3 be 47 33 e2 bc
       0.06001847 0.065596685 -0.47499123 -0.027612342
000140 59 3b bf bb 24 48 f1 3d 25 98 fd 3d 86 f5 23 3d
       -0.005835932 0.11781338 0.12382535 0.04002907
000150 fd 09 91 bd a0 3b a5 ba bf b5 86 be 78 14 01 bd
       -0.07081983 -0.0012606271 -0.26310536 -0.03151366
000160 06 38 07 3e ac 52 fc 3a 77 1c 97 bd ca ed 05 be
       0.13204965 0.0019250712 -0.07378476 -0.1307899
000170 b9 66 b6 bd 1f 1c 89 3d cd 8e 0c 3e a4 a1 e8 bb
       -0.089063115 0.06694817 0.13726349 -0.007099347
000180 64 11 a4 be 06 9b 19 3e 96 91 5d 38 3f 04 16 83
       -0.32044518 0.15000543 5.2826093e-05 -4.4085912e-37
000190 2f a6 42 3d 70 42 c9 3d b5 93 f8 3a 94 56 98 3d
       0.047521766 0.09827125 0.0018964919 0.074383885
0001a0 be d4 0c 3e 43 1c b8 be 3b fb 22 3e 8a 4a cb bd
       0.1375303 -0.35959062 0.1591615 -0.099263266
0001b0 a9 e2 48 3e 77 c4 47 3e 1c d1 e9 bd df d6 84 be
       0.19617714 0.19508539 -0.114168376 -0.25945184
0001c0 b0 9a 1a 3c ee 8f eb 3d eb ae 1f 3e 35 e6 2f be
       0.009436294 0.11502062 0.1559407 -0.17177661
0001d0 9a 39 80 3e 32 f2 15 be 56 03 98 bd 38 d8 c8 bc
       0.25043947 -0.14643171 -0.07422511 -0.024517164
0001e0 06 b1 1a 3d 3d 95 bc 3d 18 36 44 be 14 cc ae bc
       0.03776648 0.092081524 -0.1916126 -0.021337546
0001f0 21 f9 a7 bc 38 a2 cc 3d 74 b9 87 3d cc 63 52 3a
       -0.020504536 0.09991878 0.06627169 0.0008025735
000200 74 1c 02 ba 16 d5 5e ba 89 c4 fa bb 27 77 cc 3b
       -0.00049633463 -0.000850038 -0.0076528233 0.00623979
000210 59 38 93 bb 7a 5e 88 ba ca 50 96 3c 3d 10 c3 3b
       -0.004492801 -0.0010404133 0.01834907 0.0059528635
000220 d1 21 96 3a 96 47 3c bb 90 4c 31 3c 38 cc 08 3c
       0.001145417 -0.0028729192 0.010821477 0.008349471
000230 eb b6 a3 bc 9e db 1a 3d b5 64 0f 3c 57 ae 1e bc
       -0.019984683 0.0378071 0.008752038 -0.009685121
000240 6a 6a e3 bb e5 50 6a 3c fb 88 85 3c 70 45 ed bb
       -0.006940176 0.014301513 0.016300669 -0.0072409436
000250 f4 36 ad bc 05 c9 b3 3b 97 cf 20 bb b6 da 6d 3c
       -0.021144368 0.00548661 -0.0024537796 0.014517477
000260 88 79 8e 3a a1 26 90 3a 8b a2 03 3a f0 64 18 bc
       0.0010869959 0.001099784 0.0005021474 -0.009301409
000270 d4 eb 88 3c 85 4c 65 3b 0b 73 1c bc 1a 78 8b 3a
       0.016714014 0.0034988236 -0.009548913 0.0010640651
000280 72 be 7e bc 66 80 e1 3c 75 fb 73 2c 6a 03 28 00
       -0.015548335 0.027527045 3.4671964e-12 3.674645e-39
000290 77 42 20 3c ae ae 8e bb a9 88 8a 3b 88 01 b6 38
       0.009781471 -0.0043543195 0.004227717 8.6787215e-05
0002a0 55 18 aa bc e2 1d 0a 3b ca 66 d2 3b d5 97 2d bc
       -0.020763556 0.002107494 0.006420945 -0.010595282
0002b0 6f b2 bc ba 85 be fd bb 5f 9a 26 bc de c9 73 39
       -0.0014396439 -0.007743659 -0.010168641 0.00023249487
0002c0 79 d0 7e 3b 31 e5 ff bb 0f ed 67 bc ea 56 1a 3b
       0.0038881584 -0.007809304 -0.01415564 0.002355034
0002d0 d9 9a bf 3a 9b a0 4a bc 23 99 8b 3b e1 ea 8f 3a
       0.0014618292 -0.012367393 0.0042601987 0.0010980034
0002e0 77 6e c4 3b 66 1e 96 bc 29 fc 34 bc a9 46 f9 3b
       0.0059946137 -0.018325042 -0.011046448 0.0076073003
0002f0 78 3f 3d 39 b1 fd 81 bb 52 3b b8 3a 1e b6 5b bb
       0.00018048089 -0.00396701 0.0014055765 -0.0033525298
000300 23 17 c2 bc 09 ac 48 3a 63 47 2e bc c6 46 da 3c
       -0.023692673 0.000765503 -0.010637137 0.026645076
000310 92 2d 1e bc 1a 5c 62 3c 5c 5a c1 3c 2f bd d3 bb
       -0.0096544195 0.013815904 0.023602657 -0.0064617614
000320 b6 5d f2 ba e5 cd b3 3a 2c dc fa 3c b5 bf a8 bb
       -0.0018491063 0.0013717978 0.030622564 -0.0051498064
000330 1f 81 67 3d 97 83 13 bd 7e 85 fc ba 1a 39 f0 3c
       0.056519624 -0.036014166 -0.0019265858 0.029324103
000340 2e 92 f2 bb 16 b1 e9 bc 9a 35 d8 3c 12 38 d4 ba
       -0.00740268 -0.028526824 0.026392747 -0.0016191027
000350 6e e2 53 3c 9b 78 4f bd 0a 30 8f 3b 6b ab 03 3d
       0.012932403 -0.050652128 0.0043697404 0.0321459
000360 a3 57 25 bd 99 31 0b 3d 43 f6 ab 3b 17 07 34 bb
       -0.04036678 0.033982847 0.0052478625 -0.0027470046
000370 01 93 f9 3c 26 4b 4e bc 59 63 1a bc 8a 23 3a 3d
       0.030465605 -0.012591159 -0.0094231 0.04544405
000380 26 14 4e 3c 30 46 38 bc d8 49 90 b5 07 85 34 01
       0.012578046 -0.011247203 -1.0750327e-06 3.315622e-38
000390 46 d8 53 bc a5 29 33 3c da 2c 48 bb fc dc 2d ba
       -0.012929982 0.010935222 -0.0030544312 -0.00066323555
0003a0 83 a4 cc bb 96 47 29 bc f0 cd dc 3b 4a fa dc bc
       -0.0062451973 -0.010332009 0.006738417 -0.026974816
0003b0 18 5f 37 3b 64 4c a8 bb 7b 1a 0f 3c ef cc 07 3c
       0.0027980264 -0.0051360596 0.008734341 0.008288606
0003c0 0d 68 e4 bb eb 7e 04 bc 75 fb c9 bc ca 57 c1 bb
       -0.0069704116 -0.0080869 -0.024656037 -0.005900358
0003d0 f2 5e bb 3c 3a b4 c9 3c 93 4b d1 3b dd 65 e4 bc
       0.022872422 0.024622072 0.006387183 -0.027880603
0003e0 04 d5 a6 bb cd 68 0e 3c 4a 8f bc 3c 34 75 31 bd
       -0.0050913114 0.008691979 0.023017544 -0.043324664
0003f0 14 bd 93 3c 92 69 f5 3c 40 cb c3 bc 3b 9a 62 bb
       0.018034495 0.029957566 -0.023900628 -0.0034576792

fc_mu.bias f4 [8]
000000 9e 17 7a 3c 56 e3 c7 bc 1c 7d ea ba e2 68 49 bc
       0.01526442 -0.024400394 -0.0017890069 -0.012293072
000010 49 1f a3 bb 57 4c 8f bc 54 6b b1 3a 89 56 e7 3c
       -0.0049780947 -0.017492456 0.0013536015 0.028239505

fc_logvar.weight f4 [8, 64]
000000 92 fa a6 38 5c e6 dc b9 d0 83 c1 38 77 12 57 38
       7.962169e-05 -0.000421333 9.227509e-05 5.127719e-05
000010 4a 47 06 3a 70 09 ba b9 0b aa 70 39 ef 28 5d 39
       0.0005122317 -0.00035483716 0.0002295153 0.00021091451
000020 28 e7 18 38 19 a8 1e 3a e8 53 9f b7 f7 84 33 39
       3.6454905e-05 0.000605227 -1.8993349e-05 0.00017120304
000030 ae ec f0 b9 89 32 4d 39 de c2 44 39 34 cb 9f b9
       -0.00045952707 0.0001956915 0.0001876461 -0.0003047824
000040 20 96 cb b8 f2 e3 9f 39 42 fb ed b7 89 89 60 b9
       -9.707757e-05 0.00030496676 -2.8369603e-05 -0.0002141354
000050 34 f4 bd 38 30 73 19 38 4e 9e ac b8 0c 97 b3 38
       9.057709e-05 3.658532e-05 -8.231086e-05 8.56352e-05
000060 5e e8 e4 b9 79 4f d7 39 6b 5d 9e 39 4c a9 ac b8
       -0.00043660676 0.00041067207 0.0003020571 -8.233133e-05
000070 7c 85 3e b9 54 c1 b5 b9 2e 74 1c 37 db ae e7 b9
       -0.00018169539 -0.0003466705 9.325375e-06 -0.0004419003
000080 1b 2e b1 b9 5e 55 00 39 38 81 cc 81 50 66 56 01
       -0.00033794422 0.00012238833 -7.5123185e-38 3.9378998e-38
000090 98 ec a1 b8 37 6e b6 b9 90 b7 e2 b6 2b cd 75 b8
       -7.721147e-05 -0.00034795862 -6.7566943e-06 -5.860363e-05
0000a0 f4 70 d8 b9 dd cf 15 39 33 42 98 b9 2d 9c b2 b9
       -0.00041282887 0.00014287182 -0.00029041021 -0.00034067166
0000b0 fc 9c 20 ba f4 14 e6 b9 63 93 a2 b9 61 b0 5e b9
       -0.0006126908 -0.0004388463 -0.0003100886 -0.00021237276
0000c0 9a 73 06 39 26 75 e2 b9 65 6b 20 b9 58 a1 81 b9
       0.00012822301 -0.00043193361 -0.00015298797 -0.00024725008
0000d0 40 c8 a2 39 00 a5 a0 33 16 ae 02 ba ee 4b 2d b9
       0.00031048246 7.480594e-08 -0.0004985047 -0.00016526852
0000e0 9c ec 0b b6 d0 87 8f b9 9c dc 58 37 d9 87 1e 3a
       -2.0850339e-06 -0.00027376274 1.2925968e-05 0.00060474646
0000f0 34 11 1d 39 ee 5b 78 39 a2 d9 91 b5 8e ac 82 b8
       0.00014979095 0.0002368537 -1.0866681e-06 -6.231024e-05
000100 99 b5 00 3d 54 0b ac 3d 4e ff 4b be 06 57 c6 bd
       0.031423185 0.08400598 -0.1992161 -0.09684567
000110 3f b6 e7 3d 8c be 41 bc 18 8f 4d be 75 4a 3d be
       0.113140576 -0.011825215 -0.20074117 -0.18485434
000120 b4 67 0f be ed 25 63 be e6 67 2a be 67 15 14 be
       -0.14004403 -0.22182436 -0.16641197 -0.1446129
000130 8a 2e 2b be 61 f3 4a be f1 7f aa be 2c 27 72 be
       -0.16716972 -0.19819404 -0.33300737 -0.23647755
000140 cf 3c ab bd ab 65 0e be 1b 6b 0f be 28 ee 14 be
       -0.08361208 -0.13905971 -0.14005701 -0.14543974
000150 53 fa 85 be 8f b5 da be d5 29 81 be c5 97 1f be
       -0.26167545 -0.42716643 -0.25227228 -0.15585239
000160 b3 ff a6 be e5 33 7b be 11 e5 75 be a2 2a 36 be
       -0.32616958 -0.24531515 -0.24013163 -0.177897
000170 9f 5c 84 bd 12 c1 b9 3b 6f d4 86 bd 33 7e 7e be
       -0.064629786 0.0056687677 -0.06583487 -0.24852829
000180 a3 d6 8e 3d f3 5e 5b be f1 26 bf ac b0 e2 66 81
       0.069745325 -0.21422939 -5.43287e-12 -4.2406969e-38
000190 d6 7b a7 be ae fa 77 3d 96 87 4f be 69 ce 64 be
       -0.32711667 0.0605418 -0.20266566 -0.22344364
0001a0 17 68 30 be f8 10 ff 3e 4a 62 91 bd a6 58 4b be
       -0.17227207 0.49817634 -0.07098825 -0.19858035
0001b0 24 ca b0 be b4 2c 36 be 54 f8 11 be a1 02 6d 3e
       -0.3452922 -0.1779049 -0.14254886 0.23145534
0001c0 97 ed 15 be 59 8a 8e be 26 27 97 bd 82 89 4d 3e
       -0.14641415 -0.27839926 -0.07380514 0.20071986
0001d0 a0 79 b2 3d ba 98 9e bd 74 98 1f bf 7d bf 14 bf
       0.087146044 -0.07743974 -0.62342 -0.5810469
0001e0 81 8d 54 be a3 63 98 be 94 17 00 3f b8 2b dc 3e
       -0.20757104 -0.29763517 0.5003598 0.43002105
0001f0 d2 25 25 be 60 ec 20 be eb 31 98 be d7 ee 96 bf
       -0.16127709 -0.1571517 -0.29725584 -1.1791638
000200 1c 47 c6 b9 0a c2 c4 38 a0 b1 8e 38 de ab 1f 3a
       -0.00037818484 9.382151e-05 6.804173e-05 0.0006090979
000210 9a 8b 4a b9 fe 83 e4 b8 4e 72 c3 37 e6 63 ff 39
       -0.00019316227 -0.00010896473 2.3299039e-05 0.0004871182
000220 84 11 00 39 99 92 a5 b8 32 16 86 3a af be b0 b8
       0.00012213556 -7.895119e-05 0.0010230003 -8.4278516e-05
000230 1f 5d 72 b8 28 4b 89 3a 54 e4 88 b9 08 b0 c8 3a
       -5.7784022e-05 0.0010474669 -0.0002611006 0.001531125
000240 e1 28 44 b9 a3 58 2b ba 71 fd 2b ba c8 75 08 ba
       -0.00018707245 -0.000653634 -0.0006560898 -0.0005205539
000250 f6 bc 91 ba 7c 59 9a b9 c1 8d b5 39 19 37 5b ba
       -0.0011118937 -0.0002943984 0.00034628625 -0.0008362397
000260 28 d3 e9 b9 1a 03 9b 39 14 6b 07 ba d2 cc 97 39
       -0.00044598547 0.00029566215 -0.0005165797 0.00028953567
000270 89 09 3c b9 6e 9d 1a b9 ff 33 aa b8 8b 0c e8 b7
       -0.00017932629 -0.00014745232 -8.115917e-05 -2.7662396e-05
000280 70 98 d8 b8 6c 5d 57 3a 35 6e fc 02 f4 b3 2f 00
       -0.00010328076 0.000821552 3.7091328e-37 4.380823e-39
000290 fd f0 cc 39 b6 ba 8a b9 98 5e ff 39 d7 b7 a6 39
       0.00039089462 -0.00026460522 0.00048707868 0.0003179896
0002a0 6b 8e 14 3a dd 5f fd 39 7e b3 7f 38 c0 51 58 b9
       0.0005666974 0.00048327344 6.0963903e-05 -0.0002062982
0002b0 75 7c 2b 39 c4 21 a2 38 ef 99 91 b9 32 e0 00 39
       0.00016354195 7.731051e-05 -0.00027771245 0.0001229055
0002c0 49 d2 70 b9 fb b2 25 3a ec 51 c9 ba f0 5b 39 ba
       -0.00022966521 0.00063209207 -0.0015359498 -0.00070708897
0002d0 df 8e a8 39 2b 6b b7 b8 e0 81 7c b9 91 cf 90 3a
       0.00032149904 -8.7460816e-05 -0.00024080975 0.0011048188
0002e0 48 1e b5 39 cd 54 d3 b9 75 d6 c0 b9 89 8e 28 3a
       0.00034545572 -0.00040308238 -0.00036780877 0.0006429931
0002f0 25 93 a0 39 28 20 e9 b9 f1 e6 81 39 7e e8 7d 39
       0.0003062721 -0.0004446518 0.00024776862 0.0002421457
000300 3e f5 86 b7 3d 0b aa 38 76 96 04 ba 4b d2 fc b8
       -1.6088245e-05 8.108325e-05 -0.0005057821 -0.000120554665
000310 4c a1 82 b8 f9 65 04 b9 ae b9 17 ba bd 7f 07 bb
       -6.228927e-05 -0.00012626489 -0.00057878613 -0.0020675503
000320 ec 9e 24 b8 0c 5a 03 b8 4f d3 13 ba 57 01 dd b9
       -3.9248655e-05 -3.1316697e-05 -0.00056390924 -0.00042153403
000330 2e e0 a5 39 f3 52 02 bb f6 6c a1 39 37 f3 07 ba
       0.0003163828 -0.0019885867 0.00030789495 -0.0005186083
000340 12 30 51 b9 d1 2e b1 ba 00 77 a5 ba bf 97 3e 3a
       -0.00019949701 -0.0013517981 -0.0012623966 0.0007270537
000350 17 af a5 3a 20 66 14 38 ac 59 53 39 87 9c b6 ba
       0.0012640682 3.538106e-05 0.00020155933 -0.0013932147
000360 b2 ce 07 3a 9f 4a 1d ba 6c 8d b9 39 32 c1 c2 38
       0.00051806413 -0.0006000194 0.00035391317 9.286626e-05
000370 d2 51 0e bb 49 05 8b b9 cd 06 2b 3a 93 c4 56 3a
       -0.002171625 -0.00026516084 0.0006524146 0.0008192744
000380 38 c8 8e b8 48 6d 96 38 a3 fe 95 8e c3 bb 9e 81
       -6.808381e-05 7.1729126e-05 -3.6976542e-30 -5.830946e-38
000390 36 22 eb ba 48 e0 18 39 50 ac e5 b9 2c ad 0d 3a
       -0.0017939273 0.00014579401 -0.00043806667 0.0005404528
0003a0 c5 c6 a5 39 bd 24 96 ba e6 5d 7e ba 42 dc 67 39
       0.00031619347 -0.0011455041 -0.0009703323 0.00022111929
0003b0 2a 93 6c b9 c0 06 73 37 95 10 42 3a 80 32 24 ba
       -0.00022561537 1.44855e-05 0.00074029836 -0.00062636286
0003c0 c2 63 73 38 ce 4a fb b8 e9 ba c2 3a b4 67 e6 b9
       5.802862e-05 -0.00011982546 0.0014856729 -0.00043946283
0003d0 d7 3b 6e b8 66 12 25 3a 9f 22 55 b9 19 ba 7a b8
       -5.6799352e-05 0.0006296992 -0.0002032616 -5.977796e-05
0003e0 83 ee 97 ba a1 fd 64 39 79 c4 a3 3a b8 31 19 3a
       -0.0011591468 0.00021838259 0.0012494467 0.00058438955
0003f0 ad 1b 09 ba f9 69 28 3a 44 d8 47 b9 26 04 33 39
       -0.0005230259 0.00064244826 -0.00019058684 0.00017072316

fc_logvar.bias f4 [8]
000000 8c 51 53 3a 8f 97 8a be 52 32 09 ba 57 84 39 3b
       0.00080611627 -0.27068755 -0.00052336336 0.002830764
000010 1f 7b 9c ba 54 dd 6e 3b ae dc c8 3a 93 77 ea 3a
       -0.0011938548 0.003644784 0.0015324557 0.0017888419

decoder.0.weight f4 [64, 53]
000000 f0 e4 65 3a 8b 58 f1 bd d4 4c ba bb 5e 4a 12 3b
       0.0008769771 -0.11784466 -0.005685428 0.0022322158
000010 58 c9 d2 ba 79 d1 47 3b 85 4c a1 3a 90 07 5a 3b
       -0.0016081734 0.0030489846 0.001230613 0.0033268668
000020 65 cd 9c bd d1 4a 3e bb 87 14 bd be ff d0 21 3a
       -0.076563634 -0.0029036293 -0.36929724 0.00061728054
000030 3a 40 43 bc 08 2b f9 3c d0 d7 93 bc 5e 4f 1e 3b
       -0.011917168 0.030416027 -0.018047243 0.0024156193
000040 69 9c a1 bc a4 78 ab 3b 56 9d 0a bd c8 19 43 bc
       -0.019727902 0.0052328873 -0.033841453 -0.011908002
000050 78 bb cf 3d 52 d2 80 bd 73 be 5e bd 8d b5 4a 3d
       0.10143179 -0.062901154 -0.054380845 0.049489547
000060 94 93 1a bc 9a 08 1d bd 86 b8 55 bd 7d b4 cc bc
       -0.009434599 -0.03833828 -0.05217793 -0.024988407
000070 4e af 8d bd 6c d8 5e bc 5e e6 75 bc cd 74 11 3e
       -0.06918202 -0.013601404 -0.015008537 0.14204712
000080 e1 bc 54 3e de 85 24 bd 25 50 c2 3c b3 be 1d 3d
       0.20775177 -0.04016673 0.023719857 0.038511943
000090 ba 50 9d 3d dd 7d 18 bd 69 b9 00 3c bc e6 0e 3e
       0.07681413 -0.037229408 0.007856705 0.13955206
0000a0 93 2d df 3d 96 11 ec 3b 8c e0 a3 bc 05 ca 02 3d
       0.108973645 0.007204245 -0.020004533 0.031930942
0000b0 b1 8c 55 3c 52 82 9b bb e3 f1 12 3d 72 73 1e bd
       0.013034032 -0.00474576 0.035875212 -0.038684316
0000c0 c8 d0 69 3d 5e f0 36 3e 45 22 c7 3d 8f 11 a0 3d
       0.057083875 0.1786513 0.09723333 0.07815849
0000d0 6d 6c a2 bc 10 26 de bb 85 22 16 3e 5c cb da b9
       -0.019827092 -0.0067794397 0.14661606 -0.00041731715
0000e0 ac 08 08 bc 45 e4 ba bb 90 27 00 3c d8 29 bf 3a
       -0.008302849 -0.0057034814 0.007821932 0.0014584614
0000f0 01 b6 21 bc 51 a9 43 bc e5 06 8f bc 33 2f a7 3e
       -0.009870053 -0.011942224 -0.017459342 0.32653198
000100 78 c6 b0 bc a6 22 8b 3b 00 25 25 bd 23 8d c7 bd
       -0.021579012 0.004246074 -0.04031849 -0.097437166
000110 25 76 19 3e d5 9a 52 bd ac 8c 89 3d 12 ee a3 3c
       0.14986475 -0.05141719 0.06716284 0.020010982
000120 40 c4 9f 3d 40 ee b1 3d af e2 2c 3d 60 b4 12 3d
       0.078011036 0.08688021 0.04220837 0.03581655
000130 e7 0a 8c bb 98 13 27 3c 50 73 14 3d 4f 75 e2 3d
       -0.0042737606 0.010197543 0.036242783 0.11057531
000140 06 9c 51 3d c4 c8 1b 3e 3a ff 3a bd 22 af e2 bd
       0.051174186 0.15213305 -0.04565356 -0.1106856
000150 02 07 9b 3e 79 ea 2a 3d 5d 8e bf 3d 0d 5c c3 3d
       0.30278784 0.041727517 0.093533255 0.09539042
000160 f9 5b ba 3d 9e 72 9c 3d f3 43 91 bc 48 6d 7c 3c
       0.09099574 0.07639049 -0.017732596 0.015406914
000170 51 1a 2a 3e d8 d2 eb bb 97 c1 91 3d 59 59 8a bc
       0.16611601 -0.0071967654 0.071170025 -0.016888307
000180 2f 39 53 3c e0 2c bd bc 47 3f b2 bc 0a 1b 02 3e
       0.012892052 -0.023092687 -0.021758689 0.12705627
000190 f8 e1 c6 3d ae 39 fd 3d 64 fe af 3d 8a 36 4d 3d
       0.09711069 0.12364517 0.08593443 0.05010084
0001a0 68 06 b2 3d 1a db dd bc 2c 13 2d ba 41 7c 25 38
       0.08692628 -0.027082015 -0.0006602283 3.9454786e-05
0001b0 7c f7 b2 3b f2 c5 18 bc 67 07 09 3b 9f ff e3 ba
       0.0054616313 -0.009324538 0.0020908953 -0.0017394907
0001c0 ad dd 15 3a cd f6 17 bc 7b ea d4 3c 66 46 20 bc
       0.0005716931 -0.0092751505 0.025990715 -0.009782409
0001d0 a0 ad b4 3e 9f 91 94 bc 7e dd b5 3d cd c8 1b 3c
       0.35288715 -0.018135844 0.08880137 0.009508324
0001e0 3d 85 99 3d 68 6f 89 bd 98 83 63 bd b0 db 9a 3b
       0.07496116 -0.06710702 -0.05554542 0.004725896
0001f0 7a 35 43 bb f9 b4 3e 3d 55 14 41 bd 14 89 3f 3d
       -0.0029786513 0.046559308 -0.04713853 0.046761587
000200 11 50 9e 3d 83 4a ae bd 54 27 4a 3c eb 7e 00 bc
       0.07730115 -0.08510306 0.012338478 -0.00784276
000210 db 9f 2a bd a7 cf bc bc ea 35 96 3d b2 61 dc ba
       -0.041656356 -0.023048235 0.07334502 -0.0016813783
000220 26 62 7d bd 2c a3 ab 3d a2 a1 c4 bb de 97 c0 3d
       -0.06186118 0.08380732 -0.0060007134 0.09403966
000230 3d d9 3c 3d 18 af 3e 3e 2b e4 f7 3c 76 09 97 3b
       0.046105612 0.1862148 0.030260166 0.004609282
000240 b3 c4 49 3b 0d 38 00 bd 38 c7 9d 3d 12 c7 e3 3d
       0.0030787408 -0.031303454 0.077040136 0.11121954
000250 2a d9 42 3d ed c0 2c bc c8 c1 ee 3c 88 bf a2 3c
       0.047570385 -0.010544044 0.029145136 0.01986672
000260 53 b5 ac 3d 13 cb 2a 3d d0 c4 e0 3c 99 42 f9 3c
       0.08433022 0.041697573 0.027437598 0.030427264
000270 a0 a0 b4 3c f1 9f 8d 3c fa 48 bb ba 00 00 5f b9
       0.022049248 0.01728818 -0.0014288716 -0.00021266937
000280 bc 2e 9e bd ee 60 39 ba 41 55 a8 3a 81 e3 c8 ba
       -0.077237576 -0.00070716336 0.001284279 -0.001532659
000290 97 7e d8 39 52 8c 60 bb 79 ee c3 ba 9d c9 8a 3d
       0.00041293047 -0.0034263325 -0.001494839 0.06776736
0002a0 2f 1a c0 39 17 70 06 bf db 53 95 bc e3 dc ce bb
       0.00036640602 -0.52514786 -0.018228462 -0.006312953
0002b0 4f 49 bd bb 50 ce ba 3d c8 6e 2f bd 6e 60 89 bd
       -0.0057765613 0.09121382 -0.04283026 -0.06707846
0002c0 7a d0 79 bd 61 c1 b2 bd dd 6d 83 3d c3 0d 3a bd
       -0.060989834 -0.0872829 0.06417439 -0.04542328
0002d0 67 10 7f 3d 5e 9a 96 3c 37 08 f3 39 dd 2e 91 bc
       0.062271502 0.018384155 0.00046354692 -0.017722541
0002e0 98 f5 a2 ba 8e ba 68 bc 07 f7 2c bd a8 60 ac 3d
       -0.0012432812 -0.014204634 -0.04222777 0.08416873
0002f0 8d 51 9b 3b 76 fd 43 bd d9 08 a8 3d bb a3 8c 3d
       0.004739946 -0.04784914 0.082048126 0.068671666
000300 1f ef aa bc 1b b9 40 bd a3 a7 e2 3c e6 d6 0b 3d
       -0.020865975 -0.04705153 0.027667826 0.03414049
000310 b8 53 d6 3d fd db b5 bc 70 d7 d9 3a df ed ef 3c
       0.10465187 -0.022199625 0.0016619992 0.02928823
000320 40 46 c8 bc e6 4a ac bd 68 11 8b bb 7e 8e 0c bc
       -0.02444756 -0.08412723 -0.0042440183 -0.008578895
000330 63 e8 30 bc 4a b5 e6 bc 08 6c c3 3c a7 82 fb 3c
       -0.010797593 -0.028162617 0.023855224 0.030701948
000340 b2 1e d5 3c 56 16 96 3d 61 04 84 3d ba 81 7e 3c
       0.026015613 0.07328479 0.06446148 0.015533859
000350 69 ff 25 bb d0 08 99 bc c5 68 92 3b ca 65 22 3c
       -0.0025329238 -0.01868096 0.004468056 0.009911964
000360 43 13 65 3b 53 ba 24 3c bc e0 a5 3b c2 90 7e bb
       0.0034954108 0.010054189 0.005062191 -0.0038843607
000370 18 56 1c 3e b6 0d a2 3a b3 37 16 bc a9 8e a1 bd
       0.15267217 0.0012363705 -0.009168553 -0.078885384
000380 ae ad 05 3d fe 24 82 bd a2 b7 b6 3c 62 57 bf 3c
       0.032636337 -0.06354712 0.02230436 0.023357097
000390 c1 39 27 bd 1c 72 6b 3c 6a fb 19 bd 3c 99 d2 bc
       -0.040826563 0.0143704675 -0.037593283 -0.025707833
0003a0 78 f6 a4 3d d7 3d 2d bd a5 e6 8a bc e3 12 1c 3c
       0.08054823 -0.042295303 -0.016955683 0.009525987
0003b0 66 60 fa bc 3a 5f 23 bd 9c e5 b2 3c 87 c2 f2 3b
       -0.030563544 -0.039885737 0.021838002 0.0074084434
0003c0 05 51 1c bd 8c c1 2e bd 75 27 19 bc 84 b2 2a bd
       -0.038163204 -0.04266505 -0.009347786 -0.041674152
0003d0 9c 12 a7 3b 81 eb cb bc 6c ca 81 bd d3 c5 84 bd
       0.005098654 -0.02489257 -0.06337437 -0.064830445
0003e0 57 d5 18 3c 03 38 a7 b9 be 74 b3 00 70 41 7e bc
       0.009328208 -0.00031894454 1.6480433e-38 -0.015518531
0003f0 bd dd 41 bd 93 2e 89 bc ec 93 1c 3c f1 b4 ae bb
       -0.047330607 -0.016745841 0.009556752 -0.0053316285

decoder.0.bias f4 [64]
000000 b2 a3 3d bd 23 4b 6b 3e a3 ad 4e 3e c9 6b 05 3e
       -0.04629869 0.22977881 0.20183425 0.13029398
000010 3d 5d b0 bd f9 06 3c 3e ed b2 12 3d b5 0e ac 3d
       -0.08611534 0.18362035 0.03581517 0.08401243
000020 15 a2 03 bd 51 4f f1 bc d4 a5 dc ba cf 97 ea 3c
       -0.032136995 -0.029456766 -0.0016834089 0.028636841
000030 fb 7d 37 bd d1 52 fc bd ff 84 15 3e 4a 4d 5a bc
       -0.04479788 -0.123204835 0.14601515 -0.013324091
000040 42 a6 d8 ba 41 38 ea 3d de d5 a7 3c f6 57 91 3c
       -0.0016529041 0.11436511 0.020487722 0.017742138
000050 be d2 22 3c 1a ea 92 bc ba 6a 80 bd ca 20 f3 bd
       0.00993794 -0.017933894 -0.062703565 -0.118714884
000060 b4 99 55 3d 58 6c a0 bc e4 21 9f 3d 70 68 12 3d
       0.052148536 -0.019582912 0.07770136 0.03574413
000070 50 a2 df 3d 9e f2 87 3c 4e dc 37 bc a0 08 90 bd
       0.109196305 0.016595181 -0.011221958 -0.07032895
000080 0e 83 a6 bd 2a 04 ac 3d 06 65 a0 3d 31 d4 54 3d
       -0.081304654 0.08399232 0.07831769 0.051960174
000090 24 f3 08 bd ec 2d 3d 3c e5 a4 c8 3d 7e 97 d4 3d
       -0.033435002 0.011546593 0.09797076 0.10380457
0000a0 6a 96 c4 bd 3e ee 20 bd 18 73 c2 bd 4b 0c 10 bd
       -0.09599002 -0.039289705 -0.09494609 -0.035167973
0000b0 e1 f9 c5 bd 50 15 5d 3d fc 04 6f 3b 38 58 01 3e
       -0.09666801 0.053975403 0.0036471477 0.12631309
0000c0 5d 4a aa 3c 13 1d f4 bd 56 bb 34 bc 83 5e f2 3d
       0.020787412 -0.11919608 -0.0110309925 0.11834433
0000d0 fb a8 f5 bd 3b ff 97 3d 80 47 54 3e 83 1a e7 3d
       -0.11995121 0.07421728 0.207304 0.112843536
0000e0 e7 89 b8 bb e5 ed 21 be d6 6b bf 3c dc 5b 12 be
       -0.0056316736 -0.15813406 0.02336685 -0.14292854
0000f0 60 49 90 bd c4 c8 d2 bb 32 ec 7f 3d ec f2 fc bd
       -0.07045245 -0.0064326245 0.062481113 -0.12351021

decoder.2.weight f4 [64, 64]
000000 e7 24 22 3d b7 32 b7 3d a6 0c c2 3d 08 ea da bc
       0.039585974 0.0894522 0.09475069 -0.026722923
000010 81 53 95 3a 9a 60 37 3d 0a e9 dd 3d a8 ce 91 3d
       0.0011392684 0.04476986 0.10835464 0.07119495
000020 75 dc 15 3b c2 bc 83 bd 8c 29 95 3c 69 d7 fe 3c
       0.0022866998 -0.06432487 0.018208288 0.031108575
000030 d1 c9 33 3c b1 2a cb 3c f7 e8 09 bd d2 d9 c7 3d
       0.01097341 0.02480063 -0.03366944 0.09758343
000040 ac 3c 41 bc 3c 82 00 3e c6 2e af 3b c1 29 23 3d
       -0.01179425 0.1254968 0.005346152 0.03983474
000050 a3 54 1a 3d 1b eb f2 bc 6e e6 1f bd b5 29 07 3d
       0.037678372 -0.029653123 -0.039038114 0.03299876
000060 7a b3 b6 bd 99 d1 06 bd 16 3a a4 3b c6 fe 57 bd
       -0.08920951 -0.03291473 0.005011807 -0.052733205
000070 1c c8 20 bd 7a 0f 77 3c e7 65 55 ba 7d 3b bf bc
       -0.03925334 0.0150793735 -0.000814049 -0.023343796
000080 62 38 1e 3d 17 28 6d bc 68 ba 57 bd 35 a0 f3 3c
       0.03862799 -0.01447489 -0.052668005 0.029739479
000090 5d 24 8c bc 72 8a 63 bd f7 a2 4a 3c 77 83 8c 3d
       -0.017107183 -0.055551954 0.012367955 0.068610124
0000a0 6b dd 2f bd 81 ef a8 bc c4 55 75 3d 03 e0 25 bd
       -0.04293577 -0.020622017 0.059896246 -0.040496837
0000b0 54 2e 92 bc d9 09 0a bd 0a ed 1f 3d db 9c 95 3c
       -0.017844357 -0.033700798 0.039044417 0.018263271
0000c0 45 b5 10 bd 4e 7f 6f bd cc 51 62 bd 4d cb db bd
       -0.035329122 -0.058471017 -0.05525379 -0.10732136
0000d0 5c 00 9d 3d e3 e6 b4 3d dc a5 29 3e c7 ab 47 3d
       0.07666084 0.08833101 0.16567177 0.048747804
0000e0 3f 9a 83 bd 4c 78 0b 3d ef 74 9a bd a8 f0 f0 bc
       -0.064259045 0.03405027 -0.075418346 -0.029411629
0000f0 36 34 9c 3c a4 8e 9d b8 47 16 a4 3c 52 99 cb bc
       0.019067865 -7.512912e-05 0.020030154 -0.024853382
000100 17 06 a6 3d f6 4f 0d 3d 78 b3 b9 bc 9c 85 10 3e
       0.0810663 0.034500085 -0.022668585 0.14113468
000110 70 42 bf 3c 56 c7 d4 3b d1 4b 36 bd 39 b2 33 be
       0.02334711 0.0064934893 -0.044505898 -0.17548455
000120 22 d5 83 bc d3 d2 2d 3d b9 ba 94 3d 29 0f 95 3d
       -0.01609284 0.042437386 0.07262177 0.07278282
000130 e2 7a 2c bc a9 d3 4e bd cc d1 8d 3d 0d 56 02 be
       -0.010527344 -0.050494824 0.06924781 -0.12728138
000140 4c 5e 84 3b a0 ab 5c 3d 0d 37 90 bd 83 c7 f5 bd
       0.0040395614 0.05387461 -0.0704175 -0.120009445
000150 48 57 38 bb fe c5 44 3d 28 41 8a bc da 84 4d bd
       -0.0028128196 0.048040383 -0.016876772 -0.050175525
000160 83 56 b2 3c 92 10 27 3c 85 4e b6 3d 39 42 bb 3d
       0.021769768 0.010196822 0.08901695 0.0914349
000170 2d f9 81 3d 4d c0 4d bb 7f e8 73 bb c2 b3 c3 bc
       0.06346355 -0.0031395138 -0.0037217436 -0.023889426
000180 c1 37 68 3a 25 fa 77 3c 49 4b 7c 3d 95 c1 74 3d
       0.00088584056 0.015135323 0.061595235 0.059754927
000190 f6 bb 29 bd 5e 5b 54 3e d2 da fe 3c ef 5a 25 3d
       -0.04143902 0.20737979 0.031110201 0.040369924
0001a0 ed a0 a7 bd c8 fc b8 bd e0 e5 9f bd 35 38 9a bb
       -0.08184991 -0.09032589 -0.07807517 -0.0047064074
0001b0 3e bd f2 bb 68 7a a6 bc 46 56 1c bd 43 6f 10 3d
       -0.0074078133 -0.02032204 -0.038168214 0.035262357
0001c0 56 bc 84 bd 41 8e ee 3d e5 ab 76 bd fd fb a3 3d
       -0.06481235 0.116482265 -0.060222525 0.08007047
0001d0 07 2d 31 be c1 a1 38 3d be d4 fd bd 9c 5a 2c bd
       -0.17302333 0.045076136 -0.12394093 -0.0420786
0001e0 00 fa b2 bc 50 46 63 bc 18 5d 0b bc b0 6b 81 3d
       -0.021847725 -0.013871744 -0.008506082 0.06319368
0001f0 d1 cc f3 bb ec 35 fe 38 70 69 b0 3d 14 81 45 3d
       -0.0074401875 0.000121217076 0.086138606 0.0482188
000200 6a 55 41 bb 68 66 ae bd 4c 3b 06 be 96 d2 c0 3d
       -0.0029500374 -0.08515626 -0.13108557 0.09415166
000210 85 1c 65 3c 9f 99 90 bd 36 cc 3f bd f9 4e 72 bd
       0.01398385 -0.07060551 -0.04682561 -0.059157345
000220 4e 05 3b 3e 41 ab ab bb f2 b6 9b bc 04 ff b8 bd
       0.18263742 -0.005238921 -0.019008134 -0.09033015
000230 27 46 c0 3d 92 cf 58 3e ae cb 22 bd 43 65 11 be
       0.093883805 0.21172932 -0.039745025 -0.14198785
000240 3d 31 10 bb 8b 03 76 bd 14 17 a9 3d 3f 28 bf 3c
       -0.0022002005 -0.060061973 0.08256355 0.02333462
000250 52 bf 9d 3d 11 a6 9e bc 69 85 e9 3d 1b 28 b6 3d
       0.07702507 -0.019366296 0.11402399 0.08894368
000260 ad e5 29 3d c6 27 22 bd fb 72 e4 ba a4 0e c6 bc
       0.0414788 -0.039588712 -0.0017429286 -0.024176903
000270 fd a5 d7 bc 54 28 9e bb 1b ea 4d bc 55 0c 9f ba
       -0.026324267 -0.004826585 -0.012568022 -0.0012134413
000280 94 71 95 bc 54 e4 ba 3b a7 b0 d1 3c 02 18 07 3e
       -0.018242635 0.0057034884 0.02559693 0.13192752
000290 2f 65 d9 3d bf 7d 34 bb 48 2c 8d bd 2e 0b d3 bd
       0.10615002 -0.002754077 -0.068932116 -0.10304867
0002a0 5d 92 2a bd 40 af 5a 3c ec 6a 36 3e a0 71 cf 3d
       -0.04164349 0.013347447 0.17814225 0.10129094
0002b0 0e f6 1e 3b 90 33 2a 3e f7 c9 ee bd c8 ef 07 3b
       0.0024255547 0.16621232 -0.116596155 0.0020742286
0002c0 5f 99 1d 3b c8 05 d0 3d 9a b1 95 3c cb 10 40 bc
       0.0024047715 0.10157353 0.018273164 -0.011722754
0002d0 c8 0d 5c 3e 3e 1c 40 3d 62 99 77 bd 33 4f d6 bd
       0.21489632 0.046901934 -0.06044901 -0.10464325
0002e0 34 13 72 3c e2 19 32 3e 3a f9 43 3d 26 56 a5 3d
       0.014775086 0.17392686 0.047845103 0.08073072
0002f0 01 28 fe bb 9d 8d bc 39 d1 77 e6 3d 8b c1 e4 bc
       -0.0077562337 0.00035963664 0.11253322 -0.02792432
000300 0e 7f d1 3d b8 d7 16 bd e0 8c 35 ba a8 77 d9 3d
       0.10229312 -0.03682682 -0.0006925594 0.10618526
000310 98 e6 2a bb c9 50 98 3d 96 49 f2 3c 0a c9 2e be
       -0.0026077386 0.074372835 0.029576104 -0.17068878
000320 4b 3a 64 bd d9 84 fc 3d e3 7e 9c 3d 2b f3 56 bd
       -0.055719655 0.12330026 0.07641389 -0.052477997
000330 25 03 0b 3e 60 bf 10 3b b5 57 c9 bd 93 ca c7 bc
       0.13575418 0.0022086725 -0.09831182 -0.024388587
000340 03 4f a5 3d 5d 5c 20 bc 5b 3f 90 bd ae 68 87 bd
       0.08071711 -0.009787646 -0.07043334 -0.06611763
000350 b7 b5 92 3b 5a e4 91 bd 04 e7 ef bc c3 50 e8 bc
       0.0044772285 -0.07123633 -0.029284962 -0.028358823
000360 ca 35 f7 3c a5 24 0f 3d 99 11 3b 3d 40 1e ec 3d
       0.030177016 0.034947056 0.04567108 0.11529207
000370 34 da 7c 3b 05 ce 04 bd 37 e6 fe bb 7e 63 19 3d
       0.0038582208 -0.032423038 -0.0077789086 0.0374484
000380 f6 48 f3 3c 0f 80 99 3d 70 b5 18 3d 1e cf 0d 3e
       0.029697876 0.07495128 0.037282407 0.1384854
000390 51 6c 91 bc 0d 23 0c 3e 41 cb 0e bd e5 d7 8f 3d
       -0.017751845 0.13685246 -0.034861807 0.070236005
0003a0 f4 33 12 3d db 8f c3 bd eb 36 0e be a1 8b 00 3d
       0.035694078 -0.09548923 -0.13888137 0.03138316
0003b0 8a 2d d0 bc 1b ae 3d bb 03 4a ba bd b6 f9 02 3d
       -0.02541234 -0.0028942886 -0.09096148 0.031976424
0003c0 59 9c c9 bc 54 a8 0a 3e 28 ee 2a bd 5b 38 8d bd
       -0.024610685 0.13540775 -0.04173103 -0.068955146
0003d0 99 d7 1c be ad 27 c4 bc 1f 85 0d be 25 9b 34 3d
       -0.15316619 -0.0239447 -0.13820313 0.04409327
0003e0 d1 6d 63 bd 33 91 6f bd f4 0d 9b 3d f4 87 86 3d
       -0.05552465 -0.058488082 0.07571021 0.065689
0003f0 c8 49 39 bd 4d c0 0c 3a 6c 7e 9e 3d 73 c0 73 3d
       -0.04523638 0.0005369231 0.07738957 0.059509706
