models/cvae_L8_H256_B0.500_LR5e-04.pt (torch, 669449 bytes, 13 tensors)

encoder.0.weight f4 [256, 46]
000000 ba b8 2c be b8 80 74 3d 09 31 d2 bd c1 0a 1f 3e
       -0.16867343 0.05969307 -0.10263259 0.15531446
000010 94 4d b9 3d f0 19 28 bd 46 73 cd 3d 0d 36 08 bd
       0.09048 -0.04104036 0.10031752 -0.03325467
000020 b1 ce c1 3d 58 67 8c bd 3c ed 01 3e 06 ad 57 bd
       0.094632514 -0.06855649 0.12688154 -0.052655242
000030 72 74 f3 3d 32 54 ec bd 35 2e a4 3d a6 8f cb 3d
       0.118874446 -0.115394965 0.08016626 0.09939508
000040 d4 5e 00 bd d0 0a b1 bc 86 ec 89 bd 15 62 e2 bd
       -0.031340435 -0.021611601 -0.067345664 -0.11053864
000050 18 39 8f bd 2e 90 e4 3c 37 b1 e0 3c 6e 7f 06 3e
       -0.06993312 0.027900781 0.027428253 0.13134548
000060 c2 eb f8 ba 69 bb c8 3d 23 5d 29 3d 78 4b 0b 3d
       -0.001899116 0.09801371 0.041348588 0.03400752
000070 2a 14 7a 3d 5e bf 0e 3e 2a 9e 13 3d a6 02 7c bd
       0.061054386 0.13940188 0.03603951 -0.061525963
000080 ad f5 d0 bd a4 e9 11 3e 23 6a c0 3d ea d7 95 bd
       -0.10203109 0.14249283 0.09395244 -0.07316573
000090 21 1a f1 3c 2d 2d 20 3d 4a ec 7e bc 7c 31 c2 3d
       0.029431405 0.039105583 -0.015559265 0.09482095
0000a0 57 5c 52 3d b1 f7 09 3e 23 57 0b bb 6b 7f 87 3d
       0.051357593 0.13473393 -0.0021261654 0.066161
0000b0 40 81 a1 bd 01 65 14 bd 73 de 50 be 99 7b 97 bd
       -0.078859806 -0.036229137 -0.20397358 -0.07396621
0000c0 88 be 17 3c c3 e4 58 bd ae 0d 7a 3d 12 9c 83 bd
       0.009261735 -0.05295254 0.061048202 -0.064262524
0000d0 1f 53 58 bd 91 cd e3 bd 15 c7 df 3c f5 bb 0a 3b
       -0.052813645 -0.11123193 0.02731661 0.002116916
0000e0 34 71 ec 3c 96 c0 24 3d 17 d1 26 bd b3 90 ac ba
       0.028862573 0.040222727 -0.040726747 -0.0013165682
0000f0 37 79 88 3d 23 44 77 3d 2f 4a 66 bc 44 a3 63 3c
       0.06663745 0.060367715 -0.014055773 0.013893906
000100 7f 7b 98 bd ef f8 28 3d 9d d8 9c bd 48 43 3e bd
       -0.0744543 0.041253027 -0.07658503 -0.046450883
000110 13 e6 be 3d 1c 83 ef bc 50 31 ce 3d e8 66 c0 bd
       0.09321227 -0.029237323 0.10067999 -0.09394628
000120 da 6f 5e bd 40 86 a0 bd c7 8c 94 bd 02 b7 9b 3d
       -0.05430589 -0.07838106 -0.07253414 0.07603265
000130 d4 99 52 3c 9c 5e 24 ba 3f c1 22 bd b1 a2 cc bd
       0.012854058 -0.00062702014 -0.039735075 -0.099919684
000140 1a aa 85 3d 89 7c a6 3d 63 1c 44 3b 9c 5e 24 ba
       0.06526585 0.08129222 0.0029924146 -0.00062702014
000150 f7 95 52 3c 59 93 a2 3d dd e9 79 3d 00 2b 56 bc
       0.012853137 0.079382606 0.061014045 -0.013071775
000160 2d 20 8a bd d5 13 96 bc e9 11 85 3c 79 5f 3b 3b
       -0.06744418 -0.018320004 0.016243892 0.0028590842
000170 a0 c8 9a 3d 68 8f c1 bd 06 1a 14 bd 84 14 9e be
       0.075577974 -0.09451181 -0.03615763 -0.30875027
000180 0f 5d 07 3e 69 6b 27 bc 51 26 d1 3d 1e 9b 3b 3d
       0.13219093 -0.01021848 0.102123864 0.04580223
000190 5a 54 fe 3c e8 43 2f 3c 99 6b 85 bd 67 c4 73 bd
       0.031046081 0.010697342 -0.06514663 -0.059513476
0001a0 ec 11 85 bd 33 81 bd bc 62 48 af 3d 5b d3 ae 3d
       -0.06497559 -0.023132896 0.08558728 0.085364066
0001b0 c4 0b 22 3c a0 fb 8b bd cd 6e b0 bc 03 a4 91 bd
       0.0098905 -0.06835103 -0.021537209 -0.07111361
0001c0 99 8b 1a bd 11 23 cb bb 35 12 b0 3d bb 8d d1 3d
       -0.037730787 -0.0061992486 0.08597223 0.10232111
0001d0 d6 66 b0 3d 68 ba a4 3d e8 34 09 be 72 ca 49 bc
       0.086133644 0.08043367 -0.13399088 -0.012316333
0001e0 f5 dc 91 3c ba bc c9 3c 5b 25 82 3d 8e 07 12 3d
       0.017805556 0.024626125 0.06354781 0.035651736
0001f0 98 67 21 3d df 75 a2 bc ae ec cb bd e7 f5 e1 3d
       0.039405435 -0.019831596 -0.099572524 0.1103323
000200 98 00 5c bb ba 08 d7 bb e9 02 2c 3d 78 a6 8b bc
       -0.003356969 -0.0065623196 0.041994963 -0.017047152
000210 5e 42 9f 3c 85 de ea 3d 17 15 f1 bc d2 2a cb 3d
       0.019440826 0.114682235 -0.029429002 0.09920277
000220 55 a2 48 3c 7b 78 fc 3a 48 94 47 3e c8 b9 1c bd
       0.012245734 0.001926198 0.19490159 -0.038263112
000230 79 72 43 3d 81 16 14 be 17 de 36 bc 3b ca 11 3e
       0.04771659 -0.1446171 -0.011161349 0.14237301
000240 7f d3 08 3d 30 bc e0 bd ed d9 c7 3d 6c 3d df bd
       0.033404823 -0.10973394 0.09758363 -0.10900387
000250 5c 77 a6 bd 48 7f 9a 3d 85 67 94 bd f2 f3 01 bd
       -0.08128235 0.07543808 -0.07246307 -0.031726785
000260 8a fa f0 3d f5 36 6c 3c a3 d7 89 3d c3 21 95 3d
       0.117665365 0.0144174 0.067305826 0.0728183
000270 1d 83 94 bd f8 0c d5 3a 1d df 23 3d 52 7b b9 bd
       -0.072515704 0.0016254475 0.0400077 -0.090567246
000280 ee a7 2b bc ff 30 cd 3d d2 b4 c0 bd 8d a9 d3 3d
       -0.010477049 0.10019111 -0.09409489 0.103350736
000290 72 dd a9 bb 0b f7 a9 3d 73 6f 16 3e 3f aa 4d 3c
       -0.005183869 0.08299073 0.14690952 0.012552797
0002a0 ed f1 b5 bc dc bb 03 3b 54 86 d6 bc 69 d9 ae bd
       -0.022210086 0.0020100987 -0.0261871 -0.085375614
0002b0 67 62 bc bd c3 53 05 3e 1c d0 90 bd a6 e0 99 bc
       -0.09198456 0.13020234 -0.07070944 -0.018783879
0002c0 15 09 d4 3d 3b 23 3f bc be ca 00 3d 28 42 92 3d
       0.10353295 -0.011666114 0.03144335 0.071415246
0002d0 7b c4 cd 3d 5c 52 c8 3d b8 70 32 bb 9f 53 5c 3d
       0.10047241 0.09781334 -0.002722783 0.053790685
0002e0 fe a9 2a be 4f 5b 13 3c 55 97 1c 3d bd 78 4b 3e
       -0.1666641 0.008993938 0.03823026 0.19870277
0002f0 b0 be 8f 3c d9 85 94 3d 1b ea 59 bd 29 bb 30 bd
       0.017546982 0.07252092 -0.053201776 -0.04314724
000300 48 04 ac bd 2a 52 d8 3d a9 14 b2 bd 30 ea 1e bd
       -0.08399254 0.105625466 -0.08695347 -0.038797557
000310 c6 b0 ef 3c c9 99 dc bc d6 f4 89 bd 85 b8 99 3d
       0.029259097 -0.0269288 -0.06736152 0.075058974
000320 11 d2 ba bd c3 4b 64 bd e0 c7 aa 3d ff 03 0c 3c
       -0.09122098 -0.055736315 0.083389044 0.008545875
000330 18 16 8f bd 81 0e db bc f4 98 2f bd 51 16 64 bd
       -0.06986636 -0.026740314 -0.042870477 -0.055685345
000340 92 55 f6 bc 6c 00 c8 bd b7 51 a8 bd 5d 9e fd 3c
       -0.0300701 -0.097657055 -0.08218711 0.030959303
000350 57 84 d3 bc 74 d5 d6 bd 0a 44 06 3d 90 b6 b4 bc
       -0.02581994 -0.10489932 0.03277973 -0.022059709
000360 7a bc 95 3d 6c 08 5c bd 72 3a 7e 3c e6 35 0d bd
       0.0731134 -0.05371897 0.015516864 -0.03447523
000370 a8 a0 af bd cf ca 11 bd 99 7d 8b 3c bf 1b 1e 3e
       -0.085755646 -0.035593804 0.017027663 0.15440272
000380 74 f7 90 3d ac ba 86 bd f7 c0 de bc 10 42 97 3c
       0.07078448 -0.065785736 -0.027191622 0.018464118
000390 d7 48 0c bd 3b 53 68 bc 8a 8d 38 be df ac d9 3b
       -0.034249153 -0.01418 -0.18022743 0.0066429223
0003a0 d0 89 b0 bd 4a 0b 3d 3e b2 0b 00 3e 0d cc ff 3d
       -0.08620036 0.18461338 0.12504461 0.124900915
0003b0 16 5f 73 3d a6 e2 4d 3d fa 13 3e 3c a3 fd 56 3c
       0.059416853 0.050264977 0.0116014425 0.013121995
0003c0 55 df 1f bd db ed f1 3d b2 93 e3 bd 7d a4 92 bd
       -0.039031345 0.118129455 -0.11112155 -0.0716028
0003d0 84 e6 e0 bd 05 22 dc 3d ad 5e c2 bd 16 97 73 3d
       -0.10981467 0.10748676 -0.09490714 0.05947026
0003e0 bd e1 d2 bd 89 6c e9 bd ec d4 06 3d ad da 8d 3d
       -0.102969624 -0.113976546 0.032917902 0.06926475
0003f0 c0 10 f6 bd 31 06 4f bd d6 45 9e 3d 7a 54 60 3d
       -0.120149136 -0.050543014 0.07728164 0.054768063

encoder.0.bias f4 [256]
000000 3f 12 43 3d 53 8e 35 3c ad 34 c3 bb 50 2c 45 3d
       0.047624823 0.011081296 -0.005957207 0.048137963
000010 d8 a7 dd 3c 87 bd c1 3d 41 8c 02 3e 37 0a f4 3d
       0.027057573 0.094599776 0.12748815 0.11916011
000020 ae 5f 3e be 38 fa de bd 99 ec 1c 3e aa b1 d0 bd
       -0.18591186 -0.10887569 0.1532463 -0.10190137
000030 1c 16 9a bd 13 22 24 3c db 84 09 3e 1d be b0 bd
       -0.07523748 0.01001789 0.13429587 -0.08630011
000040 6b 08 2c 3d ae 6c 2f 3d 6b 39 be bd 7f b5 a7 3c
       0.042000216 0.042828254 -0.09288295 0.020472286
000050 c8 72 dc 3c 67 50 10 3e 6f ee c0 bd a2 2e 86 bc
       0.0269102 0.14093171 -0.094204776 -0.016379658
000060 dc a1 5b 3b 8b 8d 70 3b 8d 9c a7 bc d5 f7 29 3d
       0.0033513224 0.003670546 -0.020460391 0.041496117
000070 78 43 b4 3c 6f fc 9e bd dc 85 ae 3d 81 d1 18 3b
       0.022004828 -0.07762992 0.085216254 0.0023318233
000080 ab f9 b6 3d bf 84 d9 3d 77 01 09 3e 1c 2c 15 be
       0.08934339 0.106210224 0.13379465 -0.14567608
000090 57 66 ec bd d7 f2 e4 3d 38 b5 7c 3c c3 96 a3 3b
       -0.11542957 0.111791305 0.015424065 0.0049923374
0000a0 10 f7 7f bd 17 8d 9f bd 9a 2d c2 3d 64 70 db bd
       -0.062491477 -0.077905826 0.09481354 -0.10714796
0000b0 ff 92 c1 bd d3 bc 21 bd a5 9f 5f 3d 28 3f 09 bb
       -0.094518654 -0.039486717 0.05459561 -0.0020942185
0000c0 72 41 9c 3d 5c d5 ff bd 36 fb 06 bd 63 82 b9 bd
       0.0762967 -0.12491867 -0.032954417 -0.090580724
0000d0 a7 c1 c9 3d 89 d8 79 bd 5d 8c b1 bd 89 51 8a bc
       0.098513894 -0.06099752 -0.0866935 -0.016884582
0000e0 1b 1e d8 3d 40 ea 70 3d 2b 01 01 be 13 06 f8 3d
       0.10552617 0.05881715 -0.12598102 0.121105336
0000f0 d9 6b 06 3e bf 48 f2 3d be aa 08 3d 51 e6 e8 3c
       0.13127078 0.118302815 0.033365957 0.028430136
000100 33 49 b6 bc cb f2 ad bd 40 d7 48 bd ea 65 40 3d
       -0.022251701 -0.08493575 -0.049033403 0.046972193
000110 6d b9 d2 bd 62 a4 b4 bd 14 e8 ca bd 21 4f 17 bd
       -0.102892734 -0.08820416 -0.09907547 -0.036940698
000120 8e 46 77 3c 97 ee 62 bd 36 bd 2d 3e 95 13 96 bd
       0.015092505 -0.05540332 0.1696671 -0.07327954
000130 89 3f 79 3d 09 8e 12 be 78 1d 76 bd e5 51 2a be
       0.060851607 -0.14311995 -0.060086697 -0.16632803
000140 1f 8a 93 3c 35 8e 96 3d 77 4e d2 3b 9c 39 a1 3d
       0.018010197 0.073513426 0.006418045 0.07872316
000150 98 99 d8 bc 5a a6 1d 3e b8 49 13 3b 83 0e 1c be
       -0.026440427 0.1539549 0.002247436 -0.15239911
000160 4a 59 da 3d 3b 26 f4 3d c2 93 20 bd eb 25 dc 3d
       0.10661562 0.119213544 -0.039203413 0.1074942
000170 2a 56 03 be 61 e3 f6 bd 64 22 03 be e3 53 e9 3d
       -0.12825838 -0.12055088 -0.12806088 0.11392953
000180 2d a7 76 b7 62 f1 06 bc 44 57 30 bd 41 bc a7 bd
       -1.4701666e-05 -0.008236261 -0.043051973 -0.081902035
000190 74 8b 0f be 9c 24 f1 3d af 12 96 bd 7d e6 e5 3c
       -0.14018041 0.11774561 -0.07327782 0.028064007
0001a0 fe 4e 05 bb 64 11 97 bd 48 4a 19 3e 08 fe fd bd
       -0.0020341272 -0.07376364 0.14969742 -0.12401968
0001b0 9f 73 67 3c c0 6c 83 3d fd f1 0c 3d db 25 82 bd
       0.014126687 0.06417227 0.034410466 -0.063548766
0001c0 03 b5 17 3e b4 3d 14 3e 96 90 17 3c 1a d0 e4 3c
       0.14815144 0.14476663 0.009250781 0.027931262
0001d0 a7 b4 1b 3d 6f 85 0d bd 2b d8 b4 bd 5a f0 5b 3d
       0.03801408 -0.03455108 -0.08830293 0.053696014
0001e0 46 18 c3 bd 48 b8 dd bc 5c bc a5 3d 16 f8 71 3d
       -0.09526114 -0.027065411 0.08092567 0.059074484
0001f0 fc 80 05 3e 12 67 2c 3d 22 93 e8 bd 8c 48 bc 3d
       0.13037485 0.042090483 -0.11356188 0.09193525
000200 1b 42 12 3e 4c 9c 8b bd b7 af 2c 3e bd ad 10 3e
       0.1428303 -0.06816921 0.16863905 0.14128776
000210 90 82 b5 bd 69 2d dc bd ab 78 1e 3e 69 fe 98 bd
       -0.088627934 -0.10750849 0.15475719 -0.074704
000220 e3 a6 78 3d b6 a6 0f 3d 01 b5 a6 3d fe c1 05 bd
       0.06070603 0.035071097 0.081399925 -0.03265571
000230 c8 ce a4 bc 03 eb a2 3c 9a 89 d4 3d dd fb e7 3d
       -0.020118132 0.019887453 0.10377808 0.11327336
000240 b4 d8 b8 bd 1c 92 86 3d 7b 70 a3 3d e4 98 0b be
       -0.09025708 0.06570837 0.07980438 -0.13632542
000250 1f 8d bd 3d 37 2a 82 bd 64 ad 79 3d ed 5b 5b bb
       0.09255432 -0.06355708 0.060956374 -0.003347154
000260 39 61 78 bd 85 45 f9 ba bc d0 32 bd 69 a6 bc bc
       -0.060639594 -0.0019017911 -0.043656096 -0.02302857
000270 05 c1 39 3e b4 5c 02 be 34 be ad bd fe fe 9f bd
       0.18140037 -0.12730676 -0.08483544 -0.07812308
000280 38 51 87 bd d9 02 d7 3d bc 26 dd bd 8e 17 24 3e
       -0.06607288 0.1049859 -0.107984036 0.1602461
000290 a9 45 f9 3d 70 07 b2 bd 0f bf 61 bd bd 40 13 be
       0.1217149 -0.08692825 -0.05511385 -0.14380164
0002a0 61 79 2a 3d b1 b2 01 be 8a 04 12 3d b5 1f 86 bd
       0.041619662 -0.12665822 0.03564886 -0.065490164
0002b0 2b b7 f0 bd 93 57 93 bd af d2 13 3c 03 40 ac 3d
       -0.117536865 -0.07194438 0.009022399 0.08410647
0002c0 a9 12 f9 3c 41 ee 0d bd 6e 1e e2 bd de 04 8d bd
       0.030404406 -0.034651045 -0.1104096 -0.06885694
0002d0 59 ea 2c bd 41 59 45 bd d9 24 f9 3d c1 8b e0 3d
       -0.04221568 -0.048180822 0.12165231 0.10964156
0002e0 02 84 5d 3c 1d bc 92 3c 8f 32 98 bd 50 87 1f 3e
       0.013520243 0.017911965 -0.07431518 0.15578961
0002f0 12 74 b1 bd 2c 62 59 3c db f4 50 3d e3 19 4a bd
       -0.08664717 0.013268035 0.051014762 -0.049341094
000300 c6 bb 87 3d 6e a1 33 3d e8 14 ff bd 1e bd 17 3e
       0.06627612 0.043855123 -0.124551594 0.14818236
000310 2e 74 61 3d 03 e1 bb 3d b2 72 11 be e1 fd 9e 3c
       0.05504244 0.09173777 -0.14203909 0.019408168
000320 9a da 92 bd cc 98 1d 3e 6b 86 8b 3c b3 0f bc bd
       -0.07170601 0.15390319 0.017031869 -0.09182682
000330 35 3f 66 bd db 21 bf 3d 74 38 d4 bd 26 06 13 be
       -0.056212623 0.09332629 -0.1036233 -0.14357814
000340 ba 5e 93 bc 6b c5 8e 3d ae 8a 69 3d b0 d5 77 bd
       -0.017989505 0.06971248 0.05701702 -0.060506523
000350 e5 2d df 3d b7 e7 3c 3d f2 fc 7b bd 38 0c 53 3d
       0.108974256 0.046119418 -0.061520524 0.051525325
000360 7c 1a 27 3e 4d 5c c0 3d e6 43 14 3e 5d fe 5d 3d
       0.16318697 0.09392605 0.14479026 0.054197658
000370 82 b7 36 bd a4 42 b6 bd df c8 ed 3d 08 0a b9 bd
       -0.0446086 -0.088994294 0.11610579 -0.090351164
000380 bc d2 06 3d b9 d4 e6 bd 55 de c3 bc 7c 91 71 bd
       0.032915816 -0.112710424 -0.023909727 -0.058976635
000390 f5 76 f2 3c b4 21 02 be 88 fa 17 bc 27 f9 06 3e
       0.029597739 -0.12708169 -0.00927604 0.13180982
0003a0 49 4a 4b 3d 76 00 0c bd 65 82 d4 3b 48 7d dc 3c
       0.04963139 -0.034180127 0.006485271 0.026915208
0003b0 9b 72 8b 3c 9c 00 99 bd 31 b4 44 3d 06 68 bb 3c
       0.017022422 -0.07470819 0.048023406 0.02287675
0003c0 c6 00 fb 3d dd 20 07 3e 4c 26 1d bd ea ea fd 3d
       0.12256007 0.1319613 -0.0383666 0.12398322
0003d0 42 e1 34 3d 78 59 f9 bd c2 49 bb bd 54 d9 5a bd
       0.044160135 -0.12175268 -0.091449276 -0.053429917
0003e0 e7 f4 d0 3d 86 eb dd bd a9 70 5b 3d e2 11 22 3e
       0.102029614 -0.10835938 0.053574238 0.15827134
0003f0 b2 3d fb 3d 72 79 ca bd 22 80 43 3d 31 15 f9 bd
       0.12267627 -0.09886445 0.04772962 -0.12162245

encoder.2.weight f4 [256, 256]
000000 5e c7 7a 3c 46 79 18 bd 3c 27 92 3c 01 73 6a 3d
       0.015306322 -0.03722503 0.017840974 0.057238583
000010 d1 5e 07 3c e2 d9 ea 3b 48 6a be 3c db 94 69 3d
       0.008262352 0.007167087 0.023244038 0.057026725
000020 b3 7d 12 bd 61 d9 73 bb 6d 25 0d 3d 0d a5 83 3b
       -0.035764407 -0.0037208425 0.03445952 0.0040174783
000030 4b 54 8d bb e1 da 27 39 44 5f 86 3c 17 11 02 bd
       -0.004313027 0.000160079 0.016402848 -0.03175458
000040 0c 07 73 3d 5a 5a 3e 3d 7c 30 b4 bb aa ed 53 3d
       0.059332892 0.046472885 -0.005498944 0.051740326
000050 13 22 b2 bc e7 95 26 3c dc 82 6d 3c a2 30 12 bd
       -0.021744763 0.010167575 0.014496531 -0.03569091
000060 d8 68 0b bc 83 41 22 3d 80 b6 95 bc f2 f6 97 3c
       -0.008508883 0.039613258 -0.0182755 0.01855037
000070 e1 39 05 bd 26 f9 68 3c 37 c4 06 bd 03 e0 e2 bb
       -0.0325259 0.014219558 -0.03290197 -0.006923677
000080 73 45 38 bd bc 73 36 3b 90 f8 a1 3c 7c 25 b9 3b
       -0.044988107 0.002783998 0.019771844 0.0056502204
000090 75 d6 ab bc 17 a7 df bc 9e 6c a3 bc 84 4d 23 3d
       -0.020976285 -0.027301354 -0.019949254 0.039868847
0000a0 4f 88 72 bb 73 86 84 3b 86 d3 3f 3c 3e d3 1b 3c
       -0.0037007516 0.004044348 0.011708146 0.009510813
0000b0 d4 58 db 3c c0 71 75 bb b8 d4 83 3d 26 7d 80 3b
       0.026775755 -0.0037451833 0.06437057 0.003921169
0000c0 0d 4a 19 bd 64 93 bb ba cb 12 d3 bc a0 26 aa 3c
       -0.037424136 -0.0014310894 -0.025765797 0.020770371
0000d0 88 7c 23 bd 27 f0 01 bd aa 72 e7 bb d7 c0 e0 3c
       -0.039913684 -0.031723168 -0.0070632296 0.027435703
0000e0 d6 7b a2 3c 2f 6d b5 bc a9 e7 22 bd f7 7e ec bb
       0.01983444 -0.02214679 -0.03977171 -0.007217284
0000f0 78 ca c0 3c 1f c8 a7 bc 6c ce 4b 3c e9 4a 71 bc
       0.023534045 -0.020481167 0.0124393515 -0.014727333
000100 55 a4 26 3b 34 1f 9a 3c a4 dd 1d bc df 97 fc 3a
       0.002542754 0.018813707 -0.009635363 0.0019271335
000110 7a 83 f8 bc fd 6d 8a bc bb d4 4a 3b f1 46 86 bc
       -0.03033613 -0.01689815 0.003094955 -0.01639125
000120 43 7b 17 bd 51 f3 e0 ba d3 03 0a 3d a9 c6 a2 3c
       -0.036982786 -0.0017162358 0.033695053 0.01987012
000130 d2 c6 47 3c db d1 5b bc fe dd 1a bd 5c bd c7 3c
       0.012193399 -0.013416733 -0.037809364 0.024382286
000140 9b 22 04 3d 55 ac 15 3d af fd e3 3a c8 e7 e1 3c
       0.032259565 0.0365413 0.0017394329 0.027576342
000150 5d 54 c4 3c 45 36 35 bc 67 58 8d bb 81 ab 02 bd
       0.023966009 -0.011060302 -0.004313517 -0.03190184
000160 31 fb 0f bd ca 66 28 3d 68 f8 c5 3b e4 c2 0b bd
       -0.035151664 0.041113652 0.006041575 -0.03412141
000170 26 be 2e 3b 60 7f 8b 3c 4d 71 69 bb 09 fa 0c bd
       0.002666363 0.01702851 -0.003562051 -0.03441814
000180 a1 b6 31 3c 3f 91 02 3c af fc 7c 3b f8 86 8f 3c
       0.010846765 0.0079692 0.003860276 0.017520413
000190 7a 41 d2 ba a8 b0 28 3d d4 f2 be 3a 78 1b 43 ba
       -0.0016041242 0.041184098 0.0014568218 -0.0007442753
0001a0 da c4 82 3d e3 f4 e2 3c eb 35 2d 3c 8a d6 b6 bc
       0.06385203 0.027704662 0.010571937 -0.022319097
0001b0 0c 6f 8e bc 86 19 5c 3d 05 a4 a0 bc f8 12 9f 3b
       -0.017386936 0.05373528 -0.01960946 0.004854556
0001c0 c0 6f 0b 3a ef 97 82 3b c2 b3 29 b8 ee fc 09 3b
       0.0005319081 0.003985397 -4.0460152e-05 0.00210553
0001d0 70 eb b0 3c 5f 63 66 bd 2e 41 76 bc 11 cf 39 3d
       0.02159664 -0.05624711 -0.0150301885 0.04536349
0001e0 5d d5 63 3c e0 0b 6d 3c 96 8c 15 bd 7a 3e 79 bc
       0.01390585 0.014468163 -0.036511026 -0.0152126495
0001f0 ea 69 eb bc 29 7a 22 bd 3f fd 58 bd 5f 93 b6 bc
       -0.028737027 -0.039667282 -0.05297589 -0.022287069
000200 e4 b8 47 bb 30 87 e4 ba 53 92 1d 3c 2d 9f cd 38
       -0.0030475194 -0.0017435309 0.009617406 9.8048105e-05
000210 21 ff b8 bb ef 2d 22 3c 7a ac 2e 3d a8 2b 69 38
       -0.005645648 0.009898647 0.042644955 5.5592187e-05
000220 7e 1d b4 3b e9 80 9f 3c fb 1f 06 3d f6 cf 66 3c
       0.00549668 0.019470649 0.032745343 0.014087668
000230 86 e4 8a bc d8 18 1a 3c e4 db 87 bc 80 51 2a 3d
       -0.016954672 0.009405337 -0.016584344 0.04158163
000240 15 4d af bc ce a1 43 3d 4b de 03 bc 07 ad f4 3c
       -0.02139906 0.04776173 -0.008048604 0.029867662
000250 3a 25 43 3d 2f 99 2c bb 07 32 8b 3c cc 9d d5 bb
       0.047642924 -0.0026336422 0.016991628 -0.006519055
000260 e7 fb 1e bd 2e 8e e0 bc 2e 3e 15 3d e2 d4 c9 bc
       -0.03881445 -0.027411547 0.036436252 -0.024637643
000270 9b 39 57 3c 3f 49 81 3c 32 43 12 3d f2 b4 00 3b
       0.013136293 0.015781997 0.035708614 0.0019639102
000280 18 ac 93 3c 85 70 1b bc 63 bc b8 bc 56 88 40 3d
       0.018026397 -0.009487276 -0.022550767 0.04700502
000290 da 43 11 3c ce 33 41 bd 5d fb f6 bc 5a ca 35 3c
       0.008866275 -0.047168545 -0.030149156 0.011095608
0002a0 8c 5e 06 3d 7f 33 06 bd f2 fe 13 3d b7 a3 9e 3c
       0.03280501 -0.032763954 0.036131807 0.019365175
0002b0 0d 0b d9 bc 00 66 40 bc 61 d7 4c 3b ed c1 d7 3b
       -0.026494527 -0.011743069 0.0031256306 0.006584397
0002c0 9b e7 6f 3c 19 08 91 3c a8 0e aa 3a e9 7d 24 3c
       0.014642621 0.017704057 0.0012974339 0.010039785
0002d0 bc 06 83 3b 3d 97 91 bb 5c f0 3e 3d 0a 01 80 3d
       0.0039986055 -0.004443078 0.046615943 0.06250198
0002e0 f6 12 a5 3c bd 40 a7 bc a6 31 e3 3b 10 41 3a bc
       0.020150643 -0.020416612 0.006933409 -0.011368051
0002f0 ee 18 7f 3c 70 30 eb bc 68 c9 0f bd 0a bb 88 bc
       0.015569909 -0.02870962 -0.035104185 -0.01669075
000300 7a 89 23 3a 60 3a 41 3c 0b 6c 29 bc 0b 53 52 3c
       0.0006238442 0.011793703 -0.010340701 0.012837182
000310 57 4c 70 3d a2 65 ad 3c 28 3d c5 bc 64 16 81 3b
       0.058666553 0.021166626 -0.024077013 0.0039394367
000320 95 ae 2f bc 97 9d e3 bb 2a a2 0e 3d a3 d5 f0 bb
       -0.010722776 -0.0069462764 0.03482262 -0.007349686
000330 75 9c 54 3c 3a 01 17 bc d6 61 08 3d a5 d0 b1 3b
       0.012976755 -0.009216601 0.03329643 0.0054264837
000340 f6 40 1c 3c 51 0d 8c bc 32 5f 2f 3d 89 c8 0f bc
       0.009536972 -0.017096194 0.042815395 -0.008775839
000350 df 43 64 3d 35 46 02 bd f1 a1 bc bb a1 c7 91 bb
       0.05572879 -0.031805236 -0.0057566096 -0.0044488464
000360 1e 34 4d bc 64 4b d0 3c a7 dd 27 bc 7b ae 7c 3c
       -0.012524633 0.025426574 -0.010245717 0.015422459
000370 66 f2 c9 3c 43 50 1b bb 2c a7 c5 3c 52 6f 01 3d
       0.024651717 -0.0023698963 0.024127565 0.031600304
000380 a4 1e a1 3b c8 e5 a3 bc 28 ed 1c 3d 8e be c7 bb
       0.0049169827 -0.02000703 0.038312107 -0.006095714
000390 f9 85 71 bb c5 41 0f bd 69 28 9c 3b 69 11 2b 3c
       -0.0036853536 -0.034974832 0.0047655595 0.010441163
0003a0 8b 20 01 3c e9 87 27 3d 31 b4 4f 3c 4d 80 10 3d
       0.007881294 0.0409011 0.012677238 0.035278607
0003b0 bc a1 e4 3c c1 84 6b 3b b1 48 e4 bc 25 ed e0 bc
       0.027909152 0.0035937282 -0.027866693 -0.02745683
0003c0 75 73 fc bc 42 21 06 bd c6 55 1f bc d2 e9 ec ba
       -0.030816773 -0.03274656 -0.00972504 -0.0018075055
0003d0 cd 79 e5 ba f8 10 f8 bc 52 35 1d bd b7 19 ab 3c
       -0.0017507613 -0.030281529 -0.03838093 0.020886285
0003e0 62 cd 88 3c 47 6f 95 3b 5e df cd bc e7 54 cc bb
       0.016699497 0.0045603844 -0.025130924 -0.006235707
0003f0 4b e2 1d bd b8 11 af bc de 5f 2e 3a 19 a9 32 3c
       -0.038545888 -0.021370754 0.00066518586 0.010904574

encoder.2.bias f4 [256]
000000 5d d6 8d 3d 11 60 af 3d 91 7c 82 3d 89 5b 36 3d
       0.06925652 0.08563245 0.063714154 0.04452089
000010 14 ff 3c 3d 89 fa 8f 3d af 44 c4 b3 af b1 7f 3d
       0.0461417 0.07030208 -9.139455e-08 0.06242531
000020 3f 79 ee bb 12 71 a7 b3 74 5c 54 bc 49 d8 ba bc
       -0.0072776373 -7.797111e-08 -0.012961496 -0.02280821
000030 8c 3a 27 bd e9 1c 10 3d 0d df ec 3c 02 e2 73 83
       -0.04082732 0.03518382 0.028914953 -7.1670726e-37
000040 e0 0f 4e bc 3b 68 2c bd a8 ef aa a1 3e 46 9d 3c
       -0.012577027 -0.04209159 -1.1583085e-18 0.019198533
000050 00 a0 07 b1 a6 d8 fa 3c d6 3b fe 3c c7 69 88 bc
       -1.9736035e-09 0.030620884 0.031034391 -0.016652001
000060 fc fc 2b bd 4e 6d 8c 3a 3e b5 61 bc dc 02 14 3d
       -0.04198931 0.0010713728 -0.013776122 0.03613554
000070 e6 b6 b9 3d bb d2 8f 83 79 50 ed 3b 80 28 fe 3c
       0.09068088 -8.453166e-37 0.007242259 0.031025171
000080 a4 4b 7c 3d 5d c0 cf aa 09 0a 41 3d 9e df a4 3c
       0.061595574 -3.6904065e-13 0.04712871 0.02012616
000090 89 00 98 bc 24 b7 c3 bc 84 51 87 3d 43 80 82 3d
       -0.018554943 -0.02389104 0.06607345 0.0637212
0000a0 63 47 e7 3b 03 9f af bc 65 d7 32 3d db 9b 9c b7
       0.0070580705 -0.021438127 0.043662447 -1.8669225e-05
0000b0 61 09 86 3a 9d 6a e1 bc 87 cb ec bc 7c f1 d6 3c
       0.0010226184 -0.027516657 -0.028905643 0.026238196
0000c0 9a c1 81 83 21 5e 56 3d 04 bc a0 3b 21 ed 0a b8
       -7.626387e-37 0.052335862 0.0049052257 -3.3122607e-05
0000d0 94 f8 db ba 4d 29 37 3d c5 10 2b 3d 87 8b 02 9f
       -0.0016782456 0.044717122 0.04176404 -2.7643985e-20
0000e0 16 77 44 3d 42 95 5a bc 87 2b b8 3b ef e6 2d bd
       0.04796513 -0.01334125 0.0056204232 -0.042456564
0000f0 69 a6 35 bd d5 a9 ad 3c 04 cd af 3c 45 e1 c8 bc
       -0.044348154 0.021199146 0.021460064 -0.02452148
000100 9f 69 9c aa b6 21 81 ba 76 26 e6 bc 05 ee 0f 3d
       -2.7784456e-13 -0.0009851966 -0.028094511 0.035139102
000110 64 10 76 bd b1 69 e6 3b bc f8 c6 3d d2 f4 d1 3c
       -0.060074225 0.0070316424 0.09715411 0.025629435
000120 72 e7 d2 3b fc c4 6f b1 86 ef eb 3c 29 b3 79 3c
       0.006436282 -3.489105e-09 0.028800737 0.015240469
000130 b4 0a c9 3c e1 d7 73 3d 3c cd 00 bd f9 ad 0f 3d
       0.024541236 0.05953205 -0.031445727 0.035078023
000140 9e 01 4d 3d 78 9a bf bc 14 ed a1 bd 14 78 29 3d
       0.05005037 -0.023389086 -0.07906547 0.04137428
000150 95 e5 de 3a 6d 55 75 3d ea 60 61 3d 32 89 0f 3d
       0.0017005677 0.05989592 0.055024065 0.03504295
000160 ca c3 98 bc bc 76 a4 3d a7 da 4f 3c 99 4b dd 82
       -0.018648047 0.08030459 0.012686408 -3.2516422e-37
000170 81 a1 5f 3d 67 fc 93 3c 5e 43 1b bc 28 72 9c 3d
       0.05459738 0.01806469 -0.009476511 0.07638961
000180 60 ee b2 3b 01 f2 b8 3a f9 47 af 3d 41 4e 5c 3d
       0.0054605454 0.0014110209 0.085586496 0.053785566
000190 ca 15 81 84 7d f2 ae 3d 2e 90 c9 bc 8e 29 bf bd
       -3.0347764e-36 0.08542345 -0.024604883 -0.09334098
0001a0 44 40 ff bc 07 3c 99 bc 6a bd a7 3d 66 e9 12 3d
       -0.031158574 -0.018705381 0.08190425 0.035867117
0001b0 a7 58 b3 3c b1 eb d3 bd 26 b6 81 83 a2 26 3b bc
       0.021892859 -0.10347689 -7.623758e-37 -0.011422785
0001c0 e1 04 d2 ba 2a 13 ae 3d 81 7d 0b 3d b9 c9 d4 3c
       -0.0016023183 0.08499749 0.034055237 0.025975095
0001d0 de 7a 95 b6 68 86 f8 3a e5 e6 ae 3d e3 1d 10 af
       -4.4548497e-06 0.0018960955 0.085401334 -1.3107342e-10
0001e0 46 df a9 bc dc 10 94 bb 6e 73 bb 3d 84 a7 43 bc
       -0.020736348 -0.0045186114 0.09152876 -0.011941794
0001f0 2b b2 4f 3d 52 73 a6 3a 3a e1 68 bd 68 86 41 3c
       0.050707024 0.0012699163 -0.056855418 0.01181183
000200 78 8f f8 3c b2 98 e8 bb 19 43 17 b1 95 ec 26 8d
       0.030341849 -0.007098281 -2.2011533e-09 -5.1437475e-31
000210 f1 f4 c7 bc 7b 67 0f a7 31 49 cf 3c a5 66 81 bc
       -0.02440879 -1.9901333e-15 0.025303455 -0.015796015
000220 9b 74 93 3d 9c 27 e8 bb 47 0a 88 3d 8c 1d 3a 3d
       0.07199975 -0.0070848 0.06642585 0.045438334
000230 fe 29 28 3d d8 cb 61 3d e4 d9 2a 3d bc c7 55 bc
       0.041055672 0.05512604 0.041711703 -0.013048109
000240 20 9c c0 bd 74 0b cf 3c 8d b4 eb 3b 5c f4 57 3d
       -0.094047785 0.025274016 0.007193154 0.052723274
000250 88 8e f5 8d 8c 04 17 3c 05 b9 2d bd f0 8b 33 3d
       -1.5133604e-30 0.009217393 -0.042412776 0.043834627
000260 e0 56 7f ba a5 5b c6 3c e0 e2 0b a5 02 6d 8f 3c
       -0.00097404234 0.024213621 -1.2133196e-16 0.017508034
000270 f0 78 ab 3a 60 57 9c 3d da da c2 bb 1b b4 54 bd
       0.0013082307 0.07633853 -0.0059464993 -0.051929574
000280 b6 ff d0 3c 8f 25 fb bc 65 82 1d 3d 20 21 2b 3d
       0.025512557 -0.030657558 0.038454432 0.041779637
000290 73 68 6d 3d 6f b4 c6 bc 3e f4 2d 38 97 38 48 3d
       0.05796094 -0.02425596 4.1473882e-05 0.048882093
0002a0 ed b0 56 bc 14 cc ee 3b 98 ab 71 8a 06 c3 33 b6
       -0.013103706 0.0072875116 -1.1636001e-32 -2.6786597e-06
0002b0 bc 91 8b 3d 6d bd 86 3d 9a 44 63 3d e6 55 c1 3b
       0.06814906 0.06579099 0.055485345 0.0059001325
0002c0 08 39 d4 bc bb 52 01 b6 ff 29 86 3d 06 4d 02 bc
       -0.0259061 -1.9270653e-06 0.06550979 -0.007952934
0002d0 69 a2 7e 9c fe c8 c5 bb 74 d6 68 bc ae ce 3c 3d
       -8.425146e-22 -0.006035923 -0.014211286 0.046095543
0002e0 31 89 c7 bb 1c 4e a5 bb d5 45 fd bc c8 e7 ac 3a
       -0.0060893525 -0.0050447118 -0.030917088 0.0013191635
0002f0 8a fa 40 bd 99 c2 20 bd 66 db 06 3d 9c 84 8c 83
       -0.047113933 -0.039248083 0.03292408 -8.258906e-37
000300 77 1a dc 3d 12 41 00 bd d2 64 78 3d 63 e9 80 bc
       0.10747235 -0.031312056 0.060643025 -0.015736287
000310 9c 4e 54 3d 46 65 09 3d a7 aa 94 bc 01 a0 8b b9
       0.05183278 0.033543848 -0.01814778 -0.00026631358
000320 28 ac ce 3c 3c 64 63 3d 65 72 62 b0 81 55 2f 3c
       0.025228575 0.055515513 -8.2380885e-10 0.010701538
000330 56 d0 a1 bb 65 df 86 bc 1e a0 f3 3c 91 92 60 3c
       -0.0049381657 -0.016463945 0.029739436 0.013706819
000340 8c 48 3a 3d ca 43 41 3c c1 ca 20 3d a3 b8 55 3c
       0.045479342 0.011795947 0.03925586 0.013044509
000350 9e c2 ae 3d f8 22 aa bc 55 50 49 bb 76 7b 3a 3d
       0.08533214 -0.020768628 -0.0030718048 0.045527898
000360 13 ff 66 3c 8b 2d d3 3c 05 2f cc bc 6a 54 c1 3c
       0.0140989 0.025778553 -0.024924764 0.023599822
000370 38 08 cc bb 46 52 c5 3c 9e 70 bb 3c 80 7a 96 3c
       -0.0062265657 0.024087083 0.022880848 0.01836896
000380 bc e5 92 3d d7 51 aa b9 1f ba 5b 3c dc da b2 3d
       0.071727246 -0.00032485902 0.013411074 0.0873315
000390 42 16 39 bd 15 62 8e 3d 49 08 34 3d ce a0 15 3c
       -0.045187242 0.069523014 0.043953214 0.009132577
0003a0 6d 3e b1 3b 80 93 e6 3c 31 33 39 3d 91 97 02 bd
       0.005409053 0.028146505 0.045214836 -0.031882826
0003b0 8d 22 ab bc 6a 7f 09 bd 48 d2 9c 3b ae 1a 1a 3d
       -0.020890499 -0.033568777 0.0047858097 0.0376231
0003c0 07 91 1c 3d 2a e9 df 3d 0c ad f3 3c cb 84 ef ba
       0.038224246 0.109331444 0.029745601 -0.0018273828
0003d0 6a 2b 1a 84 53 da 83 3c af 7a 04 bd 94 d1 cf bc
       -1.8122548e-36 0.016095316 -0.032343563 -0.02536849
0003e0 5c e4 7a 83 0e d6 35 bc 98 aa 55 3d 9a 83 1f bd
       -7.373054e-37 -0.011098398 0.052164644 -0.038943864
0003f0 1d 1c 4d 3c bc 67 7c 3c cc 79 af 3c 90 5c 33 3d
       0.01251891 0.015405592 0.021420382 0.043789446

fc_mu.weight f4 [8, 256]
000000 95 f9 fe 3c 34 5d a9 3b f3 98 9f 3a 7f e5 48 bc
       0.03112487 0.0051685814 0.001217632 -0.012261747
000010 c3 bf 82 3b 82 d0 e5 bc 0b 68 bb 38 b0 47 99 3c
       0.003990145 -0.028053526 8.9362344e-05 0.018710941
000020 96 08 c9 bb cd 88 7c 83 11 21 d1 3c f7 bb 83 3b
       -0.0061350567 -7.4213184e-37 0.025528463 0.00402021
000030 51 1d 8e ba 54 0e 5b 3b 5e 9e 1d bc fa 33 cd 82
       -0.0010842477 0.0033425288 -0.009620277 -3.0151876e-37
000040 70 0b c7 ba de 6f 2a bc 79 a8 bf 82 cd c4 b2 bb
       -0.0015185904 -0.010402648 -2.8161626e-37 -0.0054555894
000050 a3 50 57 a4 34 00 6c 3b 70 02 da 3b ed d7 3e ba
       -4.6688995e-17 0.0036010863 0.0066531226 -0.00072801
000060 6d 1f fc 3a 25 04 23 bb c1 89 b9 3b e1 ad 82 bc
       0.001923544 -0.0024874297 0.0056621735 -0.015952053
000070 91 ba 33 3b 96 3f 8e 03 a3 de 85 bc d5 c3 33 bc
       0.0027424435 8.3606085e-37 -0.016341513 -0.010971983
000080 82 07 29 ba 73 0d 80 83 87 a5 0b 3d e5 1f 0f 3b
       -0.0006447957 -7.526252e-37 0.034093406 0.002183908
000090 d9 8e 22 bc fb 74 99 3b 8d f4 d3 bc 4f cc 32 3b
       -0.009921753 0.0046831346 -0.025873447 0.0027282422
0000a0 78 e0 fc bb 9b aa 0d bc 26 95 d2 3c e3 27 90 ba
       -0.0077171884 -0.008646633 0.025705885 -0.0010998215
0000b0 8d d4 4d 3b ea e4 b0 bc 29 54 85 b9 44 0c b5 3c
       0.0031407208 -0.02159353 -0.0002543044 0.022100575
0000c0 66 eb d7 82 86 33 f0 bb 14 5f a7 3c 80 81 d6 38
       -3.1726523e-37 -0.007330361 0.020431079 0.000102284364
0000d0 78 d2 5c 3c 24 e4 9a bc 5f a2 89 ba 51 3d 7a 83
       0.013477914 -0.018907614 -0.0010500661 -7.3538785e-37
0000e0 59 86 14 3c ab 0e 4a bc 65 df 98 bc df 90 48 3b
       0.009065234 -0.012332599 -0.01866121 0.0030603928
0000f0 b5 9e 03 bc 7d 76 9e bc c3 d0 46 ba f7 0f e1 3b
       -0.008033444 -0.019343609 -0.00075842085 0.0068683582
000100 cf da 6a ab 12 9b 01 bc 5b dd 0e ba a7 c1 6f 3c
       -8.343716e-13 -0.007910507 -0.00054498547 0.014633573
000110 5e ab 05 3c 64 8f c8 bc 9e 3f 8d 3b 00 af 94 bc
       0.008158533 -0.024482436 0.0043105623 -0.018149853
000120 af 36 99 3c b2 b4 16 b8 e6 2c 83 3c e3 15 3d bc
       0.018702833 -3.5931072e-05 0.01601262 -0.011540863
000130 43 28 e0 3b d5 e0 03 bd a2 5c 2b bb 49 21 13 bc
       0.006840737 -0.03219684 -0.0026147743 -0.008980104
000140 05 c7 25 bc 48 3a 69 bc b6 eb ef bb 7e a9 0c 3d
       -0.010118251 -0.014235087 -0.0073218 0.034341328
000150 b1 57 59 bc 71 0c 9f 3c b4 88 03 3b c7 a7 d4 3c
       -0.013265536 0.019415112 0.0020070495 0.025958909
000160 3a 4f 50 3c c5 ce cc 3c e6 3b b8 3c 4f fb 55 02
       0.012714202 0.02500094 0.0224895 1.5720891e-37
000170 57 d7 b6 3c f0 2c 23 3c 4c ab c7 bc 6c e5 0d 3c
       0.022319479 0.009959444 -0.024373673 0.0086606555
000180 1d 8c 44 bb 51 85 01 bd 5a c8 78 3c 6a ec 1d bd
       -0.002999074 -0.03162128 0.015184486 -0.03855554
000190 3b 9d 71 83 62 83 94 3c 83 4e e0 b9 f7 ae 91 bc
       -7.1004026e-37 0.018129054 -0.00042783105 -0.017783625
0001a0 20 93 0c 3b 81 30 60 bc 2c a8 89 39 15 ef aa 3b
       0.0021449998 -0.013683439 0.00026255974 0.005216489
0001b0 85 5d 1d 3b c7 13 bd 3b 6c bf bc 02 e2 c0 1f 3c
       0.002401204 0.00577018 2.7733988e-37 0.009750577
0001c0 d3 c6 d8 b6 36 e9 02 3c e5 3c 0b 3c 4c 53 e1 3c
       -6.460448e-06 0.007990172 0.008498405 0.02750554
0001d0 8a af c1 3a 9b 78 2f bc ea f5 9e 3b e6 cd da 0e
       0.0014777046 -0.010709907 0.0048510926 5.3939422e-30
0001e0 c4 14 d6 bc b4 f3 57 bb 40 64 2a 3d 5a 81 2c 3c
       -0.026132949 -0.0032951655 0.041599512 0.010528887
0001f0 bb c9 db bb 17 65 bc ba 23 3d 84 bb 2e 4c 49 bc
       -0.0067073978 -0.0014373389 -0.0040356084 -0.012286229
000200 d0 0d f4 b9 00 13 c2 bc 4e b2 0b 2c 6c c5 ba 02
       -0.00046549598 -0.0236907 1.9852067e-12 2.7443558e-37
000210 43 a8 59 bc 6c b4 5e 9f d5 98 1a 3c c3 f7 8b 3a
       -0.013284746 -4.715957e-20 0.009435852 0.0010678697
000220 7b 82 ab ba 65 bf f2 bb 9e 2d 19 3c e0 74 8f 3b
       -0.0013085151 -0.00740807 0.009349255 0.0043779463
000230 17 fe a3 bb 5f 60 20 bd 1c cb bd 3c ca 0c f6 3b
       -0.005004655 -0.039154407 0.02316814 0.007508849
000240 37 6b 16 3c 15 ce 3c 3b 49 18 dc bb 62 27 a5 3c
       0.009180835 0.0028809358 -0.006716762 0.02016038
000250 2b 5e 7c 03 cb 70 4d bb 38 6f 0c 3c 83 99 5d 3c
       7.4164244e-37 -0.0031347747 0.0085714385 0.01352537
000260 3d 9b e5 3b db 38 08 bc e8 8c 04 03 fa ee 06 bc
       0.0070070312 -0.008314337 3.8953066e-37 -0.008235687
000270 3d a5 a3 ba 15 15 8e bb 72 f3 52 bc 63 c4 9f 3c
       -0.0012485158 -0.0043360093 -0.012875425 0.019502824
000280 e7 76 a9 3c b3 a9 c1 bc 7c a1 79 ba a0 35 fd 3c
       0.02068658 -0.02364049 -0.0009522659 0.03090936
000290 0e 2d 5a bc f7 21 8c 3c 8e 87 f8 35 f6 db 4c 3c
       -0.013316406 0.01710604 1.8516891e-06 0.012503615
0002a0 3d bd f7 bb b1 81 69 3c 99 4f f8 95 b6 51 46 3a
       -0.0075604008 0.014252112 -1.00291985e-25 0.00075652765
0002b0 bd ce 3d 3d 65 e1 34 bc 85 cc ef bc ea 42 1e bc
       0.04633974 -0.011040066 -0.029272327 -0.009659508
0002c0 88 67 63 bb 6e dd 9b 25 8c c3 2c bc 3f 30 b7 3c
       -0.003469916 2.703826e-16 -0.010544669 0.022361873
0002d0 53 49 33 03 fd 98 43 bc 5a 8c c5 3b 54 f1 e6 3a
       5.2687544e-37 -0.011938331 0.006028694 0.0017619529
0002e0 5d 8f 4b bc 39 1f 83 ba ed 64 62 3b 9c 1c e5 3b
       -0.012424317 -0.0010003812 0.003454502 0.006991936
0002f0 de 70 91 3c 45 52 cf 3b 12 18 7e 3c 03 3d 6f 83
       0.017754015 0.006326946 0.0155086685 -7.0305825e-37
000300 86 f8 cd 3b b2 06 e8 bc 0b f5 18 3c 5c b0 83 bc
       0.00628573 -0.028323505 0.009335767 -0.016075306
000310 c3 16 d8 bc 6a 1d 70 bc 64 cd 89 3c 63 83 b4 3a
       -0.026378041 -0.01465545 0.01682157 0.0013772066
000320 d6 15 98 3b c2 d1 ef bb 65 19 0a 37 fe 3d b7 3c
       0.004641275 -0.0073187063 8.231354e-06 0.022368427
000330 eb 89 25 b9 7f 94 68 bd af f3 09 3c b7 07 e8 bb
       -0.00015787005 -0.056782242 0.008419915 -0.007080998
000340 74 a5 a7 3c c0 fd 0c bb 7b b4 12 bd 58 9b 30 3c
       0.020464636 -0.0021513551 -0.03581665 0.010779224
000350 52 b4 d1 bc 85 55 61 3c 1e 12 bc bb 60 03 18 bc
       -0.025598679 0.0137533 -0.0057394644 -0.009278148
000360 cc 2f 89 3c 2c bb 9e 3c b1 09 76 3c 1c 99 1a 3b
       0.016746424 0.01937636 0.015016959 0.0023589795
000370 c1 33 24 bb 12 78 0a 3c 01 58 b2 3b 39 fe 6d bc
       -0.0025055262 0.008451479 0.00544262 -0.014525943
000380 19 bd 9c bb ba 11 22 b7 5f 97 ab 3c 39 75 7d bc
       -0.0047832844 -9.66008e-06 0.020946203 -0.015469843
000390 0e 4a 88 bb 89 60 76 3b ca 99 63 bb 7c 2a 72 bb
       -0.0041592186 0.003759416 -0.0034729117 -0.0036951592
0003a0 45 b8 0d bc f2 9f f5 bc 2c 0a 75 bc b2 e6 e2 bb
       -0.00864989 -0.029983494 -0.014956038 -0.0069244737
0003b0 6d ca 2d bc 5a ba e6 bb 70 a9 c5 bc b7 65 58 3a
       -0.010607344 -0.007041258 -0.024128646 0.0008254903
0003c0 1f 71 ea bb 50 60 58 bc 4e a8 9b bb 82 6c 25 3b
       -0.0071545984 -0.013206556 -0.004750288 0.0025241678
0003d0 84 df dc 82 0c 1a 53 bc e9 5b 90 bc 29 ad b6 ba
       -3.2454386e-37 -0.012884628 -0.017621951 -0.0013937104
0003e0 e0 70 bb 02 bd 07 09 bd 97 18 d4 b9 77 18 ce bb
       2.7541968e-37 -0.033454645 -0.00040454112 -0.0062895375
0003f0 f4 83 e1 ba a4 88 86 39 60 cf 9a bc c9 dd e5 ba
       -0.0017205463 0.00025660277 -0.018897712 -0.0017537411

fc_mu.bias f4 [8]
000000 45 04 eb 3a 8b fc eb 3c 96 3f a5 3c 8b 08 4d 3d
       0.001793035 0.028806945 0.020171922 0.050056975
000010 39 77 6a 3c b1 80 06 bd 0e bd b5 bc 18 e8 ea 3c
       0.014310651 -0.032837573 -0.022184875 0.028675124

fc_logvar.weight f4 [8, 256]
000000 50 7a 12 bb 96 e4 80 3b 25 a7 86 39 34 9c 4f 3c
       -0.0022350736 0.0039334996 0.00025683004 0.012671519
000010 29 f6 01 3c d2 90 72 bc eb f2 e9 b1 20 18 63 bc
       0.007932224 -0.014805036 -6.808809e-09 -0.013860732
000020 69 9d cb ba f7 e6 ed 02 98 84 09 3b 71 8c d9 bb
       -0.0015534583 3.4956587e-37 0.0020983573 -0.0066390564
000030 dd cb 78 bb 18 b3 b1 b9 e0 a5 4b bb 2c 5b f7 82
       -0.003796331 -0.00033893506 -0.003107421 -3.6345718e-37
000040 79 01 a8 3a 71 a0 af b9 2f dc f6 82 da 78 3d 3b
       0.0012817822 -0.0003349814 -3.627283e-37 0.0028911144
000050 0f 5d a0 8d e9 91 0e bc 31 12 4e bb e7 13 36 3c
       -9.883164e-31 -0.00870178 -0.0031443948 0.0111131435
000060 2e 48 0f 3a 56 a1 76 ba 44 91 b1 bb ff ef be 3a
       0.00054657727 -0.0009408196 -0.0054189283 0.0014567374
000070 ef bd 37 bb 00 d8 80 82 16 25 8f bc 6b e1 c4 3b
       -0.0028036793 -1.8931888e-37 -0.017473739 0.006008317
000080 c3 43 ac ba aa 82 b6 02 9c d9 c6 3c 2a cf 72 3b
       -0.0013142753 2.6817494e-37 0.024273686 0.003704975
000090 5e 8b c2 3b d3 40 b1 3b 46 2e 80 bb 7e 4a c5 3a
       0.005937024 0.005409339 -0.003911766 0.0015052108
0000a0 0a 59 29 b9 5a 95 b4 bc c6 ef 25 bb f9 e4 31 30
       -0.00016150266 -0.022043873 -0.0025319918 6.4717615e-10
0000b0 bf 85 41 ba c0 ff 3a b9 5b 76 e1 3a 2b 00 70 bc
       -0.00073822954 -0.00017833617 0.001720141 -0.014648478
0000c0 61 90 09 02 a3 54 a9 bb 8b 66 b5 38 38 16 cb ac
       1.0106605e-37 -0.00516756 8.649853e-05 -5.772074e-12
0000d0 62 21 ea bb 34 dc e9 3b ec fd 27 3a c9 bc ce 82
       -0.007145093 0.007136846 0.0006408382 -3.0377337e-37
0000e0 91 47 f6 3a c1 fc 76 3b cb c8 96 bc 61 8b e2 b9
       0.0018789639 0.0037687274 -0.018406292 -0.00043209924
0000f0 49 88 46 3a 0f e9 40 bb 47 c9 86 3b 97 ad 3c bb
       0.00075734087 -0.0029435789 0.0041133496 -0.002878999
000100 5a f1 16 84 cf 63 2e 3a 67 fd b5 3b 11 2a 34 bc
       -1.7743238e-36 0.0006652446 0.0055538896 -0.010996358
000110 cb 42 97 3b 13 7b c7 bb b6 3d 86 bb ba ca 91 ba
       0.0046161166 -0.0060876696 -0.004096712 -0.0011123039
000120 e4 89 4e bc 39 a7 e8 a5 36 06 d1 3b b0 37 67 bc
       -0.012606118 -4.03589e-16 0.006378914 -0.014112398
000130 ac 16 6b 3b 0c 26 25 bc ca 38 4b bb 5c dd 2e 3c
       0.0035871668 -0.010079872 -0.003100919 0.010672893
000140 fa 01 b1 bc b5 1f b2 bb 35 be 81 3b 4a 1b 20 3a
       -0.021607388 -0.0054359087 0.003959442 0.0006107582
000150 2f ee c0 ba 57 b9 01 bc 8b a4 98 ba 51 05 6e bb
       -0.0014719422 -0.007917724 -0.0011645717 -0.0036319087
000160 24 74 30 bc 9e e7 72 3b 6f 07 56 bc 3a 8e e6 01
       -0.010769878 0.0037064324 -0.013063296 8.469274e-38
000170 e6 6b 4b bb 6d 09 76 3a 0e a1 59 bb 0e 60 83 3a
       -0.0031039654 0.000938556 -0.0033207568 0.0010023133
000180 3a 12 4a b9 30 36 19 3c 23 a9 f2 3b 87 51 11 bc
       -0.00019271011 0.009351298 0.0074054166 -0.008869535
000190 79 39 0e 83 4e d4 31 bb 5c 74 b0 b4 8b e2 97 bb
       -4.1796025e-37 -0.00271346 -3.2867217e-07 -0.0046351603
0001a0 3f 97 f5 3b b3 63 79 bb 59 87 25 3b 31 c6 81 bc
       0.0074948366 -0.003805381 0.0025257675 -0.015841575
0001b0 f6 62 0d 3c 60 5f f7 3b e3 82 72 82 ea 98 11 bb
       0.008629551 0.0075492114 -1.7816915e-37 -0.0022216388
0001c0 de 6d 79 a7 ab 9d 3a 3c b4 75 2a bb 70 cf 22 3c
       -3.461525e-15 0.01139013 -0.0026010098 0.009937152
0001d0 f8 e1 a5 b0 f7 8e 5e bb 03 3d 86 3b b0 47 7a 83
       -1.2069554e-09 -0.0033959725 0.0040966286 -7.355069e-37
0001e0 e2 2d 07 bc cf 42 05 bc 9b de d9 bb 13 fb cd 3c
       -0.008250685 -0.008133604 -0.006648851 0.025144136
0001f0 7b 64 8d 3c 67 39 29 35 97 59 65 3b a0 52 5e bc
       0.017259827 6.304094e-07 0.0034996027 -0.013569504
000200 f6 04 3e 3b 1e b5 88 ba 44 a6 0c 84 52 b2 8b 01
       0.0028994656 -0.0010429954 -1.6533266e-36 5.1316413e-38
000210 c6 3c 2f 3b 0d 74 a5 02 d7 93 4c bb b6 03 e9 bb
       0.0026739105 2.431118e-37 -0.003121605 -0.007111038
000220 45 39 29 3a d3 59 e2 ba d2 36 cc 3b 5a fd 31 3a
       0.0006455372 -0.0017269201 0.006232121 0.00067897665
000230 9f 84 32 3b 73 26 42 3c f5 fb 48 bc 50 95 1a bb
       0.0027239693 0.011849987 -0.0122671025 -0.0023587532
000240 ed 3f 56 bb 9c 11 3d 38 7b 1d 93 3b 48 d8 64 bb
       -0.0032691911 4.507751e-05 0.0044895983 -0.0034918953
000250 2b 2c 01 83 81 4a b7 bb cc 56 23 3c 73 82 28 bc
       -3.7960395e-37 -0.0055935984 0.009969424 -0.010285008
000260 ab bd bb 3b 9a 86 bf bb 3d a1 b2 82 f1 2b 04 3c
       0.0057293973 -0.005844903 -2.6247296e-37 0.008067117
000270 26 63 9a ba 29 c6 0e 3b a3 a7 dc bb b6 50 0b 3b
       -0.0011778816 0.0021785593 -0.006733851 0.0021257824
000280 58 94 13 bc fc 7b af bb 12 89 90 bb c6 0f 4f 39
       -0.009007536 -0.0053553563 -0.0044108713 0.00019746934
000290 5d 01 98 3a e8 02 8b bb 4d 98 06 a3 63 26 7b 3c
       0.0011597086 -0.00424229 -7.2964055e-18 0.015328976
0002a0 d0 4b 8f 3c 7d 7a 62 ba 05 80 dd 02 a5 9b 08 b2
       0.017492205 -0.0008639468 3.254651e-37 -7.951631e-09
0002b0 43 f7 ca ba 00 6c c9 bb 51 39 e2 3a 59 c8 82 bb
       -0.0015485067 -0.006146908 0.0017259513 -0.0039911685
0002c0 99 88 2d 3b cf 00 08 12 69 2b 77 bc c8 ed 60 bc
       0.0026479124 4.291503e-28 -0.015086033 -0.0137285665
0002d0 74 93 24 03 74 7f 1d 3c 67 1d 13 3c b4 dc 06 bc
       4.8364536e-37 0.009612907 0.008979178 -0.008231331
0002e0 1c c6 88 bb cc 78 d3 ba e2 50 d3 3b 6b a0 4c 3a
       -0.004174007 -0.0016134023 0.006448851 0.00078058866
0002f0 93 c6 63 3b 6e 34 30 3c 77 c5 ec ba 1b 6a 00 03
       0.003475581 0.010754688 -0.001806422 3.7737622e-37
000300 70 6f 8c bc 37 d5 26 3b 26 19 4e 3c c1 1a 23 bb
       -0.017142981 0.0025456676 0.012579238 -0.0024887773
000310 f2 01 8d bc 5e ec ab 3a fb b3 26 bc 32 39 74 b4
       -0.017212842 0.0013116708 -0.010174747 -2.2745078e-07
000320 62 26 36 3b f0 ad 7a 3b 85 72 36 1e 03 4c a3 3c
       0.0027793874 0.0038250647 9.658682e-21 0.019933706
000330 27 c8 a1 32 c5 0b 31 3b 6b 93 dc 3b 07 22 9f 3a
       1.8833886e-08 0.0027015072 0.006731441 0.0012140878
000340 e0 80 6f bb e4 67 ca b9 8a 01 c0 3a 38 e7 5a 3a
       -0.0036545321 -0.00038605847 0.0014648896 0.00083504943
000350 67 c3 33 bc a8 95 20 bb cd 8e 9d ba bb c4 1c bb
       -0.0109718805 -0.0024503265 -0.0012020707 -0.0023920971
000360 4b 80 fc 3b ed 65 d4 bb c6 6b 04 3c 69 56 6c 3a
       0.0077057234 -0.006481877 0.008082336 0.00090155617
000370 5a 3a 3c b6 de c5 80 3b e8 3d 0e ba f8 ba ce 3b
       -2.8048148e-06 0.0039298376 -0.0005426095 0.0063089095
000380 40 1f 23 3a 8a db ed aa 82 53 50 bb 99 0b 22 3c
       0.0006222613 -4.2251993e-13 -0.0031788056 0.00989046
000390 c7 68 fc bb c0 04 c8 bb a0 bc 99 ba 23 40 28 3a
       -0.00770292 -0.006104082 -0.0011729188 0.00064182485
0003a0 67 12 6f bb 25 5f 9f bc 2f 44 78 3c 83 14 bf 3c
       -0.0036479475 -0.019454548 0.015152975 0.02332521
0003b0 07 9d 27 ba 30 6c 12 3c ad 29 13 3c 00 14 cb b9
       -0.00063939433 0.008936927 0.008982104 -0.00038734078
0003c0 8b 71 07 3b 73 b8 22 bc c5 8c 00 3b db 82 22 b4
       0.0020667042 -0.009931671 0.0019615155 -1.513503e-07
0003d0 e6 92 49 80 3b e7 36 bc fe 09 07 3c 1a 0d bb 3b
       -6.756688e-39 -0.011163528 0.008242128 0.005708349
0003e0 27 04 da 82 4d 87 94 3b 81 6e 63 bc 8d be 8a bb
       -3.2034604e-37 0.0045327307 -0.013881327 -0.004234141
0003f0 d4 aa 9b 3b f4 ce 24 3c 5a b6 e8 3b 47 0f 1d 3b
       0.004750589 0.010059107 0.007101816 0.0023965405

fc_logvar.bias f4 [8]
000000 6e 42 f7 3c 10 34 e7 bb dd 8d c5 bc 7b 4d f8 bd
       0.030183043 -0.007055767 -0.024115497 -0.12124153
000010 7c 56 0f bc 43 48 ce b9 1a 19 a8 3c 35 75 49 3c
       -0.008748647 -0.0003934522 0.020519782 0.012296011
