models/cvae_L8_H256_B0.100_LR1e-03.pt (torch, 669385 bytes, 13 tensors)

encoder.0.weight f4 [256, 46]
00000000: 7754 0a3e 722c 1ebd 4cf8 2a3d 29e4 30be
00000010: e377 a1bd c69a 5f3d 1f55 9ebd 7954 603d
00000020: 1c21 1e3d 5614 72bd b868 babc 0052 6a3d
00000030: 6b57 35bd 0ad1 953d 288c 543d 91b0 46bd
00000040: 82b5 a63c 9d4d 6dbd 52f4 db3c 76e7 e03d
00000050: 84d2 6d3d 2297 fb3b 8078 e6bd a0b9 81bd
00000060: 2093 33bc 563c 023d ee1a 2dbc c18e 11bb
00000070: d63e e8bd 912f 25bc cba0 76bc 6234 fbb9
00000080: bb50 363c 1ed2 793d 62d9 f33c bccb 2ebd
00000090: 5e64 ee3b 5e34 fbb9 5eec 1a3c 2147 12bc
000000a0: b344 823c 83e3 27bd cadf f6bc da35 43bd
000000b0: 4184 113d 6371 e3bc 8fcb 34bb ba2d 663b
000000c0: 6e8b 4939 1865 3d3a d0d6 83ba 960f 87ba
000000d0: 343d 9dba d8c3 5839 3861 2a3b 044c 74ba
000000e0: a7ad 3fb9 f9e3 4a39 1a56 8aba d7c1 d638
000000f0: 1ce0 1239 1bc9 0dba 6014 6bb6 958a 963a
00000100: 159e 1eb9 4654 023b 9f39 a239 dc5d 86b9
00000110: c56c 1fb9 63ae 94b9 8c48 1eba cf29 05ba
00000120: 7e61 a13a 39a9 6abb e521 9cbb c1fa 63b9
00000130: 97eb e8b5 b4fb 9b01 2737 93ba 84d7 8938
00000140: 2d8c b939 63f9 63b9 c450 e401 40df c400
00000150: 84ad 8ab5 74d1 2cba 9ba2 12ba bc3d bc38
00000160: 0495 5539 80b0 97b9 1628 5db9 3b18 7bb5
00000170: e73c 6b3e acb0 54bd cc72 6a3d 2d33 fc3d
00000180: 76b7 f3ba 00c0 753d 8547 3b3d b8fd 893b
00000190: 6c3e 12bd ff7d 1c3c 9fc5 373c 90c5 4e3b
000001a0: b767 c6bd 9a9f d4bd 73d1 b63d b73c 313a
000001b0: a9d7 3fbd cd67 0ebb 96b8 793d 2eef f939
000001c0: 1629 7cbd c671 993d 8ccf 7d3d ca74 4abd
000001d0: b0e5 25be d62b a8bd a961 81bd 4ffd 143c
000001e0: 9831 cabd 4a44 bdbb 3fd3 d1bb bd07 6cbc
000001f0: 9ac8 5dbd da87 eabd ef1e 7bbd fee8 bcbb
00000200: abc8 47ba 8587 9cbb f6ae e2bc caac 863b
00000210: 2971 1d3c 280f ddba 89f5 0d3d 6a55 42bd
00000220: 9ee4 fe3c e1b7 23bc 5d97 213e 62eb 5abd
00000230: 8c14 643d 9682 7dbe c760 66bd e7c4 4ebd
00000240: 1703 293d c90a 1939 1cf7 40bc 72eb 6b3d
00000250: f031 c9bc 95bd bf3d 6c02 1d3c 6cda 863d
00000260: 3e4f 763d 8c89 f7bc 9ec0 27bc c1a1 273d
00000270: f55d 01bc 6a74 b0bc 70c8 24bd 919f 883a
00000280: 5cc8 973c de66 ba3b 8aed d1bc a17b dcbc
00000290: 14f5 edbd 9786 37bb 976f 7ebd 18fe 19bd
000002a0: e799 cfbc 3f5f a73b 67da 7f3d 7da6 9a3d
000002b0: 408f 80bd fb47 7abc 37f0 3339 0fe7 19bb
000002c0: e6ad 58bd ba4c a93d a5e0 81bc b333 833d
000002d0: 30d9 823d 35ca 8e3b 52d2 983d 3dcb 89bc
000002e0: 4c9a 24bc 1963 05bc 87ad 76bc 475a 16bb
000002f0: 22f0 fe3c 20d0 d43b 0ea2 2cbc debc 913c
00000300: 5a9c 3ebc b6fd 763c 1b13 053d ee81 b1bc
00000310: acf8 0a3d 036a 95bb c977 6bbc 57f1 46b9
00000320: 1577 e4bc 05b8 6dbc 123b 7a3c 860b b4bc
00000330: da1d 583c ecb0 a9bc 3b7b d23b 82e5 dd3c
00000340: a10e 3d3d 9938 e7bb 6727 123d b957 e9bc
00000350: 31e4 44bd ae47 04bc e21d 48ba ce77 7939
00000360: e574 c7bc 6344 f93b 8f01 1fbd 4116 1cbc
00000370: b12c bcba 4d78 7939 f8ac 25b9 8911 4ebc
00000380: a3ca dc3a de7d 31bb 52ca 0dbc 38b2 9a3b
00000390: 43e7 08bc 93f3 61ba 4448 8cbe 4246 20bd
000003a0: 57bf 423c 8509 8a3e 641e 453b 2518 dd3d
000003b0: 94a9 94bd df94 8b3c 194c 28bd e011 393c
000003c0: 9cdb 8a3d 7619 1ebd 8bb1 fe3c eeb2 80bc
000003d0: f5fc a93d 8f25 a5bd 8c62 36bd a437 053d
000003e0: f6f8 34bc 580e 173d 5c2b 673b dfe1 b83d
000003f0: b723 a33d 8005 e9bd 97e5 273e 0776 bb3d
0.13508783 -0.038616605 0.0417407 -0.17274536 -0.07884195 0.054590963 -0.07731079 0.05476806
0.038605794 -0.059101425 -0.022755012 0.057207108 -0.04427282 0.07315262 0.051891476 -0.04850823
0.020350222 -0.057935346 0.0268499 0.10981648 0.05806209 0.0076779285 -0.11253452 -0.06334233
-0.01096037 0.031795822 -0.010565503 -0.0022210332 -0.1134011 -0.0100821415 -0.0150529845 -0.0004791348
0.011127646 0.0609914 0.029766742 -0.042674765 0.0072751483 -0.00047913467 0.009455768 -0.008928091
0.015901899 -0.040988456 -0.030136008 -0.04765878 0.035526518 -0.027764028 -0.002758715 0.003512247
0.00019220795 0.0007224842 -0.0010058526 -0.0010304328 -0.0011996389 0.00020672323 0.0025997888 -0.00093191885
-0.0001827987 0.00019349148 -0.0010554225 0.00010240421 0.00014007132 -0.000540869 -3.5029589e-06 0.0011485392
-0.00015126944 0.0019886657 0.0003094198 -0.00025628402 -0.00015203941 -0.00028358688 -0.0006038032 -0.00050797773
0.001231238 -0.003580643 -0.0047647827 -0.0002174182 -1.7353913e-06 5.7299184e-38 -0.0011231647 6.572812e-05
0.0003539039 -0.00021741311 8.3869865e-38 1.8079844e-38 -1.0332301e-06 -0.000659249 -0.0005593688 8.9760375e-05
0.00020368776 -0.00028932467 -0.00021091136 -9.3540046e-07 0.22972451 -0.0519263 0.057238385 0.123144485
-0.0018594104 0.05999756 0.045722503 0.004211154 -0.03570406 0.009551524 0.01121655 0.0031550862
-0.09687751 -0.10382004 0.08926668 0.00067610614 -0.04683653 -0.002172935 0.06096705 0.00047671184
-0.06156262 0.07492404 0.06196551 -0.049427785 -0.162009 -0.08211486 -0.06317455 0.009093597
-0.098727405 -0.005775963 -0.0064033563 -0.014406142 -0.054146387 -0.11451693 -0.061308797 -0.0057650795
-0.00076211494 -0.0047768974 -0.027671319 0.0041099535 0.009609499 -0.0016865479 0.03465799 -0.04744474
0.031114873 -0.009992571 0.15780397 -0.053447135 0.055683658 -0.24756846 -0.056244638 -0.05048075
0.041262712 0.00014595235 -0.0117776655 0.057597585 -0.024559945 0.09362332 0.009583097 0.065846294
0.060134165 -0.030216955 -0.010238795 0.040925745 -0.007895936 -0.021539886 -0.040230215 0.0010423531
0.018528156 0.0056885323 -0.025625963 -0.02691442 -0.116190106 -0.0028003806 -0.06211814 -0.03759584
-0.025341941 0.0051077898 0.062464144 0.07551286 -0.06277323 -0.015275951 0.00017160257 -0.002348367
-0.052900217 0.082665876 -0.01585419 0.06406345 0.063890815 0.004357601 0.074619904 -0.016820544
-0.010046553 -0.0081413025 -0.015056021 -0.0022941993 0.031120364 0.006494537 -0.010536684 0.017790254
-0.011633957 0.015075138 0.032488924 -0.0216684 0.03392856 -0.0045597567 -0.014371821 -0.00018972658
-0.027888814 -0.014509206 0.0152728725 -0.021978151 0.013190711 -0.020714246 0.0064233816 0.027086977
0.04615653 -0.0070563075 0.03568211 -0.028484212 -0.048069183 -0.00807373 -0.00076338474 0.00023791121
-0.024347732 0.0076070293 -0.038819846 -0.00952679 -0.0014356581 0.00023791306 -0.00015800062 -0.012577423
0.0016845058 -0.002708308 -0.008654194 0.0047209524 -0.008355918 -0.0008619364 -0.27398884 -0.039129503
0.011886439 0.26960388 0.0030077929 0.10795621 -0.07258907 0.01703876 -0.041088197 0.011295766
0.067801684 -0.0385985 0.031090518 -0.01571032 0.08300201 -0.08063804 -0.044527575 0.032523766
-0.011045685 0.036878914 0.0035273647 0.090274565 0.079657964 -0.11378002 0.16396175 0.09153371

encoder.0.bias f4 [256]
00000000: 73af bbbd 5029 a5bb 0334 8abd 50e8 903d
00000010: 6cfb ec3c 33e7 603c f50e 9abc 6de3 8abd
00000020: 9dda 893c 4674 1cbd 6248 8e3c 1061 d23d
00000030: fccc e73d b881 afbd c081 ad3c ea78 923d
00000040: 8134 d83d 20d0 f53c 1e1f 343d 3c94 8fbd
00000050: f301 29bd b934 6c3d 0251 d8bc 3e08 353e
00000060: cc41 10be 7f32 023e 208a a93d 46d8 09bd
00000070: 3cb2 18bd 32b0 9f3d fbc6 25bd 40c6 da3d
00000080: 7040 44bc f711 bb3d 58f8 a6bc 8b56 3cbc
00000090: 957b b03d f83d 0e3d bb67 4f3d 1b99 acbd
000000a0: 4cd6 033d df37 b8bd 0f25 80bc a800 333e
000000b0: 17dd af3d 8243 95bd c0ce 24bd c89f 23bd
000000c0: fd65 333d 4fec 07bd 218b 9b3d abc0 78bd
000000d0: a118 fe3c e7d1 243c 0d2d ed3c b1b7 a53d
000000e0: 6c6f e93d 9f66 84bc dc3f 48bd c757 f7bc
000000f0: c71f 9bbc cee6 fdbd 5369 a8bc 2d99 2e3e
00000100: c978 0b3c 0982 b33d de84 f7bc f626 f1bd
00000110: 118e 013e ed48 84bd b83f 21bd 155c 06bd
00000120: ec09 51bd cbc0 c8bd 1883 02bd 2803 c13d
00000130: 4f90 c73d 9e82 2bbd 0573 e83d ad6a 9f3b
00000140: f93c 61bd ffed 88bc 37af 923d 794a 80bc
00000150: 4af6 75bc f736 14bd 46a1 01bd d2c8 fcbc
00000160: 7692 8b3d b2bc 043e 5ebd 35bd d366 203e
00000170: d98d e2bd 8714 ff3d 5e9d 3ebd 4155 73bc
00000180: 0ec3 cfbc 79ca 8fbd fc35 263a c8bb 14bc
00000190: f095 7ebd 9499 2bbc eaa0 01bc cadd 8bbc
000001a0: b898 263c c847 b9bd f5c1 a4bd 163c 4cbd
000001b0: eb89 b43d 3f1b c1bd b5b4 bb3d b79a a93d
000001c0: 7448 8bbc 3c6d f43d f046 60bd 160a 65bd
000001d0: 7d29 62b7 d9d3 d6bd 7690 253e 2a43 7fbc
000001e0: 5ec2 763d 9a08 983d ae2e 453e 167d 81bd
000001f0: 44e8 563d e2cf 39bd 1122 a4bb c4bf c5bd
00000200: 3729 f63d 7a27 673d 4ec9 ae3d 414c 223d
00000210: fa49 b73c 6bd5 c3bd 55b4 9ebc 9032 febc
00000220: 35e7 de3a 422f 063e 1b88 23bd 8976 0e3e
00000230: cefa b73b 1664 c13d ccb8 243e 6145 013e
00000240: 0aaf 82bd 31f0 03be ba3e f73d a500 c13d
00000250: 86a8 b0bd c69f 9e3d 155a 66bd 980a 083e
00000260: 26b8 39be de09 e43d e961 003e ec19 7a3c
00000270: 9ad1 fcbd 962d dcbd d25c d3ba 67ac 663b
00000280: 443e 343c f65d b3bc c40d 843c 2c5d b4bc
00000290: 6b46 d5bd 9ed6 933c 80cc 1ebd be04 22be
000002a0: dfc9 2c3c 312b acbd e215 dabc 8940 e53d
000002b0: 13c9 8dbd 54d0 29be e8dc d33d ae9e a23d
000002c0: b98d 803d ca8b 1ebe f53a aebc 7904 76bc
000002d0: 223c f43d 256b 17be 1e4c 44bd 32bd 57bd
000002e0: fb66 1e3c 940d b8b9 0996 893d a7d6 99bc
000002f0: 32b5 e9bd b513 9b3d 3790 edbb 1026 82bd
00000300: d1a9 2c3d 2bbd da3c 7a13 41bd ec41 1f3e
00000310: 7a4e b63c 2657 a63c 8f94 eebd f062 c0bc
00000320: c367 7a3c 018b 71bb a426 f63d 70ce 47bc
00000330: 5dca 893c 41f5 353d 9392 c5bc 247d ec3c
00000340: 300d 0bba 11c2 c7bd dbd1 2f3e b236 3d3d
00000350: 0466 9dbd 2464 d23c b0a8 98bc 86b1 cfbd
00000360: 40d5 a5bd 7fd8 d43d bb11 3a3b 1425 bcbc
00000370: 4d7e 673d 3009 c13d df0a fabc 2036 99bd
00000380: c32e 8ebc fd8c 3e3d 73e1 f33c 0d7d 2f3d
00000390: 8f5a 3a3c fd07 81bd 6ecd 92bd 4faf 683d
000003a0: f2b2 59bd c0e1 323e bc68 41bd 1e5f 1bbe
000003b0: a478 8cbd b11a 71bc 84cc 88bd 96ec 6abd
000003c0: 8688 7cbd 4f5b 813d e957 603d 65cf 973c
000003d0: 934d 87bd ad68 2e3d 0379 b53c f6cb 8c3d
000003e0: f019 a93d 143f 153e 2385 8e3c 7815 b23d
000003f0: 373b be3d 01b2 163e 803b db3c 9ea6 00bd
-0.09164324 -0.005040325 -0.06748202 0.0707556 0.028928481 0.013726997 -0.01880596 -0.06781659
0.016827876 -0.038196824 0.0173685 0.102724195 0.113183945 -0.08569664 0.021180034 0.07151969
0.10556889 0.030006468 0.04397499 -0.07010695 -0.041261625 0.057667468 -0.026405815 0.17678925
-0.140876 0.12714575 0.082782984 -0.03365352 -0.037279353 0.077972785 -0.040472966 0.106823444
-0.011978254 0.09134286 -0.020382091 -0.011495243 0.086173214 0.034727067 0.050636034 -0.0842764
0.03218679 -0.089950316 -0.01564267 0.17480719 0.085870914 -0.07288267 -0.040236235 -0.0399473
0.043798435 -0.033184346 0.07594896 -0.060730617 0.031017603 0.01005981 0.028952146 0.08091677
0.11398205 -0.016162215 -0.048889026 -0.030193223 -0.018936051 -0.12397538 -0.020558035 0.1705062
0.008512684 0.087650366 -0.030214723 -0.11775009 0.1265185 -0.06459222 -0.039367408 -0.03280266
-0.051034853 -0.09802397 -0.031863302 0.0942443 0.097443216 -0.041872613 0.11350063 0.0048650117
-0.05498979 -0.016715048 0.07162326 -0.015660511 -0.015012333 -0.03618523 -0.031647943 -0.030857477
0.068150446 0.12962607 -0.044370048 0.15664224 -0.110622115 0.12455087 -0.046536796 -0.014851869
-0.025361564 -0.070210405 0.0006340442 -0.009077974 -0.06215471 -0.010473628 -0.0079119 -0.01707353
0.010168247 -0.09046894 -0.08044807 -0.04986199 0.08815368 -0.09429025 0.091653265 0.08281463
-0.017002322 0.11934897 -0.05475515 -0.05591782 -1.34803095e-05 -0.104896255 0.16168389 -0.015579978
0.060243957 0.074235156 0.19256088 -0.063226864 0.0524676 -0.045364268 -0.005008944 -0.09655717
0.1201958 0.056434132 0.085344896 0.039623503 0.022374142 -0.095621906 -0.019373098 -0.03102997
0.0017006161 0.13103965 -0.039924722 0.13912405 0.005614615 0.09442918 0.1608612 0.12624122
-0.06381042 -0.12884595 0.12072511 0.09423951 -0.08625893 0.07745318 -0.056238253 0.13285291
-0.18136653 0.111346945 0.1253735 0.015264969 -0.12344666 -0.10750882 -0.0016125685 0.0035197975
0.011001173 -0.02189539 0.016119845 -0.022017084 -0.10413822 0.018046673 -0.038769245 -0.15822122
0.010546177 -0.084066756 -0.026621763 0.1119395 -0.069231175 -0.16583377 0.10344869 0.07940422
0.062770315 -0.15483013 -0.021268347 -0.015015715 0.11925532 -0.14786966 -0.047924154 -0.052670665
0.009668107 -0.0003510533 0.0671807 -0.018779112 -0.114115134 0.07572118 -0.0072498578 -0.06354916
0.042154137 0.02670153 -0.047137715 0.15552491 0.022254217 0.020305227 -0.11649429 -0.023484677
0.015283528 -0.0036856534 0.12019089 -0.012195215 0.016820127 0.044423345 -0.024117744 0.028868265
-0.0005304394 -0.09753812 0.17169897 0.04619474 -0.076854736 0.025682516 -0.018635124 -0.10141282
-0.08097315 0.10392856 0.0028391916 -0.022966899 0.056516934 0.094255805 -0.030522762 -0.07481027
-0.017356282 0.046521176 0.029770589 0.042843867 0.01137413 -0.06300352 -0.07168089 0.056807812
-0.05314917 0.1746893 -0.047219023 -0.15173003 -0.06858948 -0.014715836 -0.06679633 -0.057354532
-0.061653636 0.06316244 0.054771338 0.01853151 -0.06606593 0.042580295 0.02215243 0.0687484
0.082569 0.14574844 0.017397469 0.08695501 0.09288638 0.1471634 0.02676177 -0.0314089

encoder.2.weight f4 [256, 256]
00000000: 3b2f 973c 553f 7c39 1ab0 d33b 8bfc 07bd
00000010: 9632 82ba 0c6b f43c 6d4b 0b3d 7fa0 05bc
00000020: 9edd 7e3d 9122 ddbc 3176 3f3d bd61 293d
00000030: 8c9d d13c f2a0 063d 7ace bd3c f5f3 c93c
00000040: 5a38 0b3d 9ba0 40bc 4c07 6b3c db6a 63bb
00000050: bf6e 88bc 26ca 863b 9c49 cc3c 5432 893d
00000060: c9ba b7bc 34cb 073c 99d1 4abc e293 0a3c
00000070: 1159 013d 394c 1f3d dc99 3c3c 77f9 b6bc
00000080: 59f5 4ebb 76f0 eb3b cc5b c5b9 77ba f838
00000090: be3d 733d d249 8dbc fb4d efbb ee77 bbbc
000000a0: fe6c c33c 735a 7abc 7b9b 0b3b 533d 663b
000000b0: 8974 ae3b fc77 0cbd e01e ad3a 3f86 dabb
000000c0: cd3b 223d 4489 163d 22a7 bb3b e0a4 17bc
000000d0: 8f20 e33c 3d3a 03bc ce2d 83bc e010 f63c
000000e0: 6a51 20bc 8474 363c 81e4 053c e76f e73c
000000f0: 248d d9bc 7010 003c 3d46 36bc db28 0b3d
00000100: bc4b 8abc 2d7d 273c 7a34 6a39 d7b3 5dbc
00000110: 6f29 173d 3540 d13a 7973 fb3b a975 70bb
00000120: 006b e63c e876 a3bc 744f f7bb 62a8 17bd
00000130: 2e7c a5bc 7272 eabc fa4f 99bc 83bb 4abc
00000140: 2dd4 1f3d 1687 10ba 1fd3 dfbc a2c0 26bc
00000150: 4bd5 a53c 8868 b03b 2742 c7bb 6247 293b
00000160: b110 e0bc 5c88 26bd c9e5 7d3c e36e 1fbd
00000170: 4f0d 263d 1d01 e6ba 70af b9bb a0b3 01bc
00000180: 75b6 f1ba b272 d23c f51c e7bc 12d0 e73b
00000190: 7d12 133d 4739 45ba 37ae 083c 3a03 c23c
000001a0: 3c7f 653b 2b64 943c a0b8 8ebc 84b8 e83a
000001b0: 97de 06bd 96ae a93c 69b7 a63c 1eb1 9dbc
000001c0: e30d 773b 91d8 813b 53dd 313c aa1a f4ba
000001d0: 831c 7836 2948 d3bc f0b7 1fbc ae35 e7ba
000001e0: be9a 6c3b afeb 243d 37d2 393d 3831 e13b
000001f0: 2eda 49bc ebec 5cba d64b 763c 0733 cd3c
00000200: 0235 223d bddc 393d 7bb3 9a3c 2508 023d
00000210: 417a d3bc 7d6e 263c b030 a2bb f9e0 993a
00000220: ea88 5c3d 7383 873d 08b9 183c 1752 a63c
00000230: 1e53 8338 f660 10bd bdbc 68bc a82b 4e3d
00000240: e63d d7bc 16d5 23bb 6a27 4d3d d4fc d53c
00000250: 64bc b23b 9b00 e23c e22b c0bc 923c c53c
00000260: c96e ffbc 8d56 50bc a84d 08bd 9e38 803a
00000270: 454b b5bc 8980 8b3c 77b8 9238 00d9 66bc
00000280: 54a4 2a3d 5f71 9bbc de34 5bbb 811d d5bb
00000290: 0f14 f33b aca8 bbbb 2cb5 143d e5ee ac3b
000002a0: 4274 9d3d 634a e3bc d065 b93b dc1d 96b9
000002b0: 5dfa 70bc b3c9 14bd 46bb 18bd 610f 14bd
000002c0: 14a7 4dbc 2774 08bd 3883 30bc a781 c139
000002d0: 618b 1f3c 72e3 58bd c445 923c d971 61bb
000002e0: c708 663c 2552 f43c 6c1a 0ebd 6494 a9bc
000002f0: afee 8b3c a1b1 0a3d 76b5 0d39 ddef b73c
00000300: 12b8 ebbc 4ec1 353a dfd4 f63a 74c0 27bc
00000310: 9838 fc3c 647a 043d 5775 a4bc 1f31 d83c
00000320: 3460 333c 2124 433d beb1 1c3c 7f3b 9a3c
00000330: deda 69bb 7522 043d fe37 e93c 38a3 603b
00000340: c947 a33b f1f2 023d a20d f13c 4836 653d
00000350: 268d 7dbb 9abf 9f3c 6e38 213c 63a6 99bc
00000360: a12f ecbc 82b9 85bc 9b52 dc39 a0af 4b3c
00000370: 10ad a33c 0404 1c3d cb0b c23d 4777 e0ba
00000380: 1409 c2bc 68f8 ab3d bde8 c6bb 8da6 b0bc
00000390: 9620 b93c 476e 52bb 5a18 8bbc 76b3 41bd
000003a0: 7129 273d 5766 883c 3f82 d43b 8dc8 33bc
000003b0: 5324 07bb 18a3 2b3a 773b 0bbc ab7a 80bc
000003c0: eeaa 903c 91bb b13c 1889 a03c c6d1 b63c
000003d0: c673 1abd 8e00 0cbd 743b 573b 2d04 0f3c
000003e0: f86d 89bb 51df 143c 1e81 b1bb 7100 6f3d
000003f0: 6179 293d fc4a aa3d f842 663c 7970 013d
0.018455138 0.00024056186 0.006460202 -0.033199828 -0.0009933289 0.0298362 0.03400748 -0.008155941
0.06222307 -0.026994022 0.046743575 0.041352976 0.02558782 0.032868333 0.023169745 0.02465246
0.033989288 -0.011757041 0.014345001 -0.0034701142 -0.01665437 0.0041134534 0.024937443 0.066990525
-0.022427933 0.0082881935 -0.012379074 0.00845811 0.03157908 0.03889105 0.011511292 -0.022335751
-0.0031579344 0.007200296 -0.00037643162 0.00011860293 0.059385054 -0.017247114 -0.007302997 -0.022884335
0.023855682 -0.015280354 0.002130239 0.0035131767 0.0053239507 -0.034294114 0.0013208054 -0.0066688354
0.03960781 0.036752 0.005726711 -0.009255618 0.027725486 -0.008009491 -0.016013052 0.030037344
-0.009785036 0.011136178 0.008172155 0.028251601 -0.026556559 0.007816419 -0.011125145 0.03397451
-0.016881816 0.010222715 0.00022335528 -0.013531647 0.03690475 0.001596457 0.0076736775 -0.0036691225
0.028127193 -0.01995416 -0.0075473133 -0.037025817 -0.020200815 -0.028619025 -0.018714894 -0.012373808
0.039020706 -0.00055132934 -0.02732235 -0.010177763 0.020243308 0.005383555 -0.006080884 0.00258299
-0.02735171 -0.040657386 0.01549668 -0.03892411 0.040540036 -0.0017547939 -0.0056666657 -0.007916361
-0.0018441217 0.025689457 -0.02821205 0.0070743645 0.035906304 -0.00075234886 0.008342317 0.02368318
0.0035018465 0.01811417 -0.01742202 0.0017755185 -0.032927122 0.020713132 0.020351129 -0.019249495
0.0037697486 0.0039625843 0.01085599 -0.0018623669 3.6971476e-06 -0.025791245 -0.009748444 -0.0017639899
0.0036102976 0.040263828 0.045366492 0.0068723224 -0.0123200845 -0.00084276375 0.015032729 0.025048746
0.039601333 0.045376528 0.018884411 0.03174605 -0.025815131 0.010158178 -0.0049496517 0.0011740021
0.05384151 0.06616869 0.009321459 0.020302815 6.2620486e-05 -0.03524872 -0.014205155 0.050334603
-0.026274633 -0.0024998835 0.050086416 0.026121534 0.005454587 0.02758818 -0.023458425 0.024076734
-0.031180756 -0.012715948 -0.033277184 0.0009782498 -0.022130618 0.017029064 6.996182e-05 -0.014089823
0.04166062 -0.018974958 -0.003344826 -0.0065037613 0.0074181627 -0.0057268944 0.03630559 0.005277502
0.0768819 -0.027745431 0.005657889 -0.00028632476 -0.014708129 -0.036325168 -0.037287973 -0.03614748
-0.012552042 -0.033313897 -0.0107734725 0.00036908427 0.00973782 -0.052951284 0.017855532 -0.0034400134
0.014040179 0.029824326 -0.034693167 -0.020700641 0.017081587 0.033860806 0.00013514407 0.022453243
-0.028774295 0.00069334067 0.0018831751 -0.0102387555 0.030788705 0.032343283 -0.020075483 0.02639061
0.01094823 0.047641877 0.009563861 0.018827198 -0.0035683434 0.032259423 0.028469082 0.0034276973
0.0049829227 0.03196997 0.029425446 0.05595997 -0.0038688867 0.019500542 0.009840114 -0.018756097
-0.028831305 -0.016323809 0.00042023216 0.012432009 0.019979984 0.038089767 0.094749056 -0.0017125391
-0.02368597 0.08396989 -0.006070225 -0.021563793 0.022598546 -0.0032109187 -0.016979385 -0.047290288
0.040811006 0.016650362 0.006485253 -0.010973108 -0.0020621016 0.0006547435 -0.008498064 -0.015683493
0.01765963 0.021695884 0.019596621 0.022316825 -0.037708066 -0.034180216 0.0032841833 0.008729023
-0.0041940175 0.009086446 -0.0054170033 0.05835003 0.04137552 0.083150834 0.0140540525 0.031601403

encoder.2.bias f4 [256]
00000000: 5063 9d3d 381e 1d3d 1301 16ae dec4 d53d
00000010: 5dd3 813c 0f41 2582 53fd fb3c 0182 36b9
00000020: e0a4 273d e449 0e82 e717 0fbc 7f6c bea5
00000030: cdc0 6eb0 ed59 a63d e235 333d fc8b 913d
00000040: 7fe1 a682 0b8a 01bd f62c 813d a013 2582
00000050: 14f7 463d e80a 503d 2fc2 223d 5fb4 773d
00000060: c1ba 1c3e b671 6a3d 3ab9 903d fef4 703d
00000070: a443 993d ad35 8abb f5ae 91b9 bf41 70ba
00000080: 323f 643d b535 f93c 7795 fe3a 7bd5 7184
00000090: e277 b13d 990c 8a3c defc 003b 2e35 4682
000000a0: 03cb efbb a993 fe3d 9a50 78ba e134 2ebc
000000b0: 89f5 203b 3192 a5a3 6068 aa3b ee08 50b6
000000c0: 6856 4982 d97e 3d82 7a85 81bc 5492 95b8
000000d0: 512d 043c 5eab 2eae ed89 8dbb eb9e 073d
000000e0: 8e61 1fbc 05fc aabc ef97 833d a3fb 02b7
000000f0: 4864 9cbc ebf6 893d b69f bf3b dafc c03d
00000100: 97f6 0f82 0078 8e3c b9c3 0f3c 597a bcbd
00000110: 68de b2bc 452a 88bc cfbd 63a3 6238 9b3d
00000120: f035 8491 c546 023d 2edf 76a8 c1f3 55bc
00000130: f7cf 0f3d a5b4 348d 29bb 28a9 4fd5 953d
00000140: 781a eabc e565 0283 a5d9 d2bc f066 553d
00000150: 56c4 923c 354f f53a 7eb7 04b7 3c5c 52bb
00000160: 546c d9bc c29f 313d 5ffe 74bb da73 3bbd
00000170: 9b77 983d 23c7 203e 9ad8 38bc 2d7b e4bc
00000180: c3da 023d 49fe 863d 7517 88bc b359 fa3d
00000190: ec24 0782 36a0 33bd 49bd 2a3d 57b1 7abc
000001a0: 6dff 723c 4feb 073d 44b8 2cb4 a66a 00bc
000001b0: cb4d 01be f4b0 f181 05b4 b63c 417e d93c
000001c0: 23d9 bdbb c94c 0dba d066 213d d9a8 563c
000001d0: 800c 103c 9d2e 333c eb02 1bbd a14c abbb
000001e0: 3314 3c82 57b4 b4b7 a082 21b1 be2f c23c
000001f0: 6174 f0ab 77d5 293d afce eabc 1be9 273d
00000200: fc12 4cbc 6c23 cd3c ef15 653d 260d c981
00000210: 0eee c53c d5ce 803d 90b7 16ba 4571 573c
00000220: 65f2 19a6 8048 3d3d 18a6 c63d 305b 513d
00000230: c13f 98b0 6d38 1b3d bf9a 0a3d 1581 883d
00000240: 0cf6 cebb 2859 eebb cfd1 d4bd 14ca 69bc
00000250: cd6e 24b4 040b 303d 04ad 353d f71b 963d
00000260: edfd 79bc 44fe 9c3c ef9c 85bb db5e 5282
00000270: 1bee 8cbd 01d9 c73c 595a 8ebd 7a83 003d
00000280: 74bc 353d 183f d93c 68a3 133c 936a 90bc
00000290: 37da 713d 15e1 3b3d ce53 883d 39ab a3ac
000002a0: 2909 433d d6f2 a33d b9b3 6b3d 1251 98bc
000002b0: ba25 d59f 6eaf 0183 9a6b dbbc b195 8a3b
000002c0: d3ad 213a 70fc 5982 e88f 1b3c fb04 b6ba
000002d0: bae9 593d c03f 4d3d bbbd 63bb d595 dfbb
000002e0: 28a0 c23a 7fa7 85bc 2ab8 13bb aba6 223d
000002f0: 6e84 c73b 4c42 6cb0 c597 d081 06c8 85a8
00000300: bade 32a2 0078 433d 0e6d 813d d0c4 3fbd
00000310: da62 d990 b44b 1c3d a74f a897 f0e8 403d
00000320: 9941 73b0 4f9c ec3c e2c1 7b3d a048 6e3a
00000330: ee74 b53d c20b 2182 5bd8 d63d 72d4 a53d
00000340: dafd cdbb 24cd 19bd 5474 2082 da4e 803d
00000350: d0b9 873d b890 dd3d d96a 0bbd fd4c 7f37
00000360: 355e 3c3d 4b2b a93d c3a7 963b 6dcc 023c
00000370: 5198 06bc 812b a2bc 56fe 9bbc dbf1 6a3d
00000380: 0cf2 4d3d 7f3c 3882 b33f 553c 677f 3e3d
00000390: 4097 2a3d cb5b cb3c 6acf 5b3d 91c1 0b3d
000003a0: 1530 803d e1de 633b 052e 753d aca9 318c
000003b0: 4194 d93b c39f 9fb3 a3d1 973d a75a e8b7
000003c0: d151 8c3d 4673 b3bc 8f77 2682 3657 633d
000003d0: 1091 2cbc 4349 07b7 a710 0cbc 9d28 1dae
000003e0: 22a4 c2af 1d7e 4f3d 67e8 fba9 412f 213d
000003f0: bfb3 20a7 460c cb3c 061a ec3b b21c 5d3a
0.07684958 0.038358897 -3.4107005e-11 0.1043794 0.015847856 -1.2140956e-37 0.030760443 -0.00017405303
0.04092872 -1.0453718e-37 -0.008733726 -3.3033266e-16 -8.685788e-10 0.08122621 0.04375256 0.07106778
-2.4520936e-37 -0.03162579 0.06307404 -1.2127918e-37 0.048575476 0.05079165 0.03973597 0.06047475
0.15305616 0.05723735 0.07066579 0.058827393 0.074836046 -0.0042178244 -0.00027786908 -0.00091650704
0.05572433 0.030421117 0.0019423206 -2.842744e-36 0.08665444 0.01685171 0.001968197 -1.4562004e-37
-0.007317902 0.12430508 -0.000947246 -0.0106327245 0.0024560413 -1.795125e-17 0.0052004308 -3.0999613e-06
-1.4791945e-37 -1.392193e-37 -0.015810717 -7.1321294e-05 0.008067445 -3.9715224e-11 -0.0043194206 0.03311054
-0.009727849 -0.020872125 0.064254634 -7.807193e-06 -0.019090787 0.06736549 0.0058478964 0.094232276
-1.0576749e-37 0.017391205 0.008774691 -0.092030235 -0.021834567 -0.016621718 -1.2345888e-17 0.075791135
-2.085917e-28 0.031805772 -1.3704138e-14 -0.013058604 0.03511044 -5.5684225e-31 -3.746583e-14 0.07316076
-0.028577074 -3.8320536e-37 -0.025738547 0.052100122 0.017915886 0.0018715622 -7.910536e-06 -0.0032098433
-0.026540913 0.043365248 -0.0037383062 -0.04576478 0.07444688 0.15700965 -0.011282111 -0.027890766
0.03194691 0.0659147 -0.016612748 0.1222414 -9.92883e-38 -0.04385396 0.041684423 -0.01530107
0.014831406 0.033183392 -1.6085784e-07 -0.007837927 -0.12627332 -8.8783334e-38 0.022302637 0.02654946
-0.005793707 -0.0005390165 0.03940469 0.01310178 0.008792043 0.010936406 -0.03784458 -0.0052276407
-1.3817856e-37 -2.154165e-05 -2.3502835e-09 0.023704406 -1.7085327e-12 0.04146334 -0.028663008 0.04099379
-0.012455698 0.025041305 0.05592912 -7.3854606e-38 0.024161365 0.0628945 -0.0005749399 0.013149564
-5.3411044e-16 0.04621172 0.096996486 0.051112354 -1.1077576e-09 0.03789561 0.033838984 0.066652454
-0.006315952 -0.007273812 -0.1039158 -0.014269371 -1.5314e-07 0.042979255 0.044354454 0.073295526
-0.0152582945 0.019164212 -0.004077546 -1.5455586e-37 -0.068813525 0.024395468 -0.06950826 0.031375386
0.044369176 0.026519343 0.009011127 -0.017628944 0.059045997 0.04586895 0.066566095 -4.651748e-12
0.047616158 0.08005302 0.057544444 -0.018593345 -9.027142e-20 -3.8111076e-37 -0.026784707 0.0042292704
0.00061675644 -1.6015088e-37 0.009494759 -0.0013886982 0.053201415 0.050109625 -0.003475054 -0.0068232813
0.0014848756 -0.01631522 -0.002254019 0.03970973 0.006088785 -8.5950513e-10 -7.662491e-38 -1.4852713e-14
-2.4241409e-18 0.047721863 0.06319629 -0.046818554 -8.5743713e-29 0.038158134 -1.0876853e-24 0.047097147
-8.8496105e-10 0.028883127 0.061464198 0.00090898015 0.08860193 -1.1831786e-37 0.10490485 0.08097161
-0.006286365 -0.037549153 -1.1788328e-37 0.0626504 0.06627238 0.108186185 -0.034037445 1.521711e-05
0.04598828 0.082602106 0.0045976355 0.007983309 -0.008215026 -0.019796135 -0.019042175 0.057359558
0.050279662 -1.3535547e-37 0.013015675 0.04650822 0.04164815 0.024824044 0.053664602 0.034120146
0.06259171 0.0034770297 0.05985834 -1.3686643e-31 0.0066399877 -7.433075e-08 0.07413032 -2.7698768e-05
0.06851543 -0.021905553 -1.2230066e-37 0.055503093 -0.0105326325 -8.063685e-06 -0.008548892 -3.573374e-11
-3.5405018e-10 0.05065738 -1.11869545e-13 0.039351705 -2.23019e-15 0.024786126 0.0072052507 0.0008434757

fc_mu.weight f4 [8, 256]
00000000: 1c63 b1bc 03cb bcbc bb5d 0635 a42e a13c
00000010: f704 8fbc 4d34 0700 5b30 fa3b f448 f6bb
00000020: b742 a9bb 596a 1702 9fe4 a8bb 4c7c 6301
00000030: a597 c32d 4d1f ceb9 b6d4 a6bc b99c d9bb
00000040: e280 3602 3a6b c8bb cdb3 dc3c c4b5 2602
00000050: f13a c23c 460a ca3c 6601 48bc ab9d 35bb
00000060: f9d8 0abd aebb 3f3b 73cb 863c a256 493b
00000070: 44c7 b1bc 3363 333c 9081 82b7 1131 b9ba
00000080: 3ef2 813a b18c 1b3c ba0b 253b fa54 f636
00000090: c7c3 953b 699d b73b dd65 67bc c4e1 3c01
000000a0: cf03 04b9 3f70 e33c 801a 4b38 4b69 aebb
000000b0: 644c c5b8 dcbd ad34 9063 053c f7c2 2b17
000000c0: a6ca aa00 6fdf 1582 3632 51bb 25a5 dc2a
000000d0: 07f6 41bc 0b0d f7b8 ac46 e6ba 03bd d8ba
000000e0: 6ce9 d33a fdff ca3b 8f69 c6ba 6c09 7dbb
000000f0: 71c3 5f3c 0e8e 123b c838 38bb fa65 9f3d
00000100: 26f7 2c82 f410 d1bb fe1e a03c 4a87 2d3c
00000110: 5bf8 e23b 6150 06bb 684d 2b82 febb e5ba
00000120: cf15 9aa9 b2c0 903c 6d10 5134 5c24 8bbc
00000130: 1ea4 a23b 0b19 b231 929f b12a fe63 3c3c
00000140: 72e9 c73b 95c5 c89d 2d67 083c a826 f2bb
00000150: df41 5a3b 0ffc 083b 0f4c e33b 2b5d dc3b
00000160: 4cc3 92bb be0a b4bb 5e9d 1dbb 9a39 43ba
00000170: aa8c 0abc ac64 7fbc a4b5 df3c 1144 5f3c
00000180: 0f3a adbc 4de0 323b fae1 67b8 d5a8 173a
00000190: 723e 3481 1077 b736 83c4 38bc fb4f a9ba
000001a0: 697a 72ba 5220 0fbb 4eb5 1833 87a4 913b
000001b0: b850 7fbb 5e18 3181 0ae5 85bb 4b30 713b
000001c0: 7c03 8bbc cfad 0dbb becf d1bc 60b5 a7bb
000001d0: 3d3d 203c be05 f5b9 6550 3fbc 49dc e0bb
000001e0: 692b 4b82 bd66 c425 bd78 0e02 7aad 9fbb
000001f0: a063 ba81 f66c 25bc 143b eb3a 59a5 903a
00000200: f657 e83b fd58 0039 3212 a8bc 60d9 2e01
00000210: 3284 24bc aee4 333c adb3 66ac e22e a5bb
00000220: 29cd 15b6 7b76 0ebb 259e 8c3a 1069 a8bb
00000230: 2829 6aab 17a1 c4bb 8a58 6c3b 721a ef3c
00000240: a4ab 0439 c579 333b fc2c ee3b 1849 98ba
00000250: f099 cd01 cc4d 213c bcc0 693b f8ae 88bc
00000260: c396 a33a a860 1abc 103e d73b 5805 9781
00000270: 52bd 41bb db82 9e3a 64e3 c2ba 4266 b1bc
00000280: 1cf3 90bb 5e4c 0dbd 4b69 0e3c 6e87 a1ba
00000290: e475 50bc 46f4 583c dd1b c33b d5e3 0082
000002a0: f6bb 08bd 19a7 723c 7c05 debb 8edf 90b9
000002b0: 8473 9f30 39c0 2480 b3fd 9c3b b08b 0e3c
000002c0: 8039 1b3c 5325 4282 4de4 d93a f70b ba3b
000002d0: f6c6 7d3c 808b a63c 9621 91ba cf50 293c
000002e0: a78e 28bc 0bb1 103b 3225 98bb 33d4 dd3a
000002f0: e5a2 733b 9c4a be02 ee8a c500 f0d2 9db6
00000300: 5eb2 d481 6ee4 89bc f3e7 143c bdb8 2bbc
00000310: 197d 2bac 2308 c13b efc3 55b6 6a15 0c3b
00000320: eabf 83b5 92b0 363c 16d1 f9ba a064 fcbb
00000330: 37f7 d03c f8e3 3882 766e 9dbc f617 f6bb
00000340: 57c0 943b bea6 7e39 b261 b421 5b78 8ebc
00000350: 7cd4 33bc 842e f0bc f4cd a0ba c448 c4bb
00000360: 5286 80bd 7499 a8bb d659 273a df53 88bb
00000370: 3ab9 aa3b d8fa 563c fcb1 25bc 7e2b 193c
00000380: 0528 8fbc 8f0d 3882 307b 793a bb00 9abc
00000390: 70bb 2bbc 83d3 f7bb 24dc 29bb 05a5 c13c
000003a0: cbb0 b63c ba9f 163c 3cff a73b 74cb 15b2
000003b0: 56ef 7b3a 04bf 2b3b 8518 ad39 5605 31ba
000003c0: 338e b93b 0aa7 62bc 92bd 6902 0148 d6bb
000003d0: d88e c4ba 4052 2934 8565 47bb dd1a 1703
000003e0: c804 c781 fa1a b23c b38c 0230 9a88 083b
000003f0: faa5 4329 273c 58bc c317 ebba f89a 2abb
-0.021653704 -0.023046022 5.0055286e-07 0.01967556 -0.017458422 6.6161e-40 0.007635159 -0.007516021
-0.0051654237 1.1124248e-37 -0.005154207 4.1782494e-38 2.2236277e-11 -0.00039314703 -0.0203651 -0.0066409972
1.3408236e-37 -0.006116298 0.026941204 1.2247918e-37 0.023709746 0.024663102 -0.012207365 -0.0027712386
-0.033898327 0.0029256153 0.016454434 0.0030721803 -0.021701463 0.010948944 -1.555754e-05 -0.0014129003
0.0009914113 0.009493993 0.0025183992 7.341264e-06 0.0045704576 0.0056034815 -0.014123407 3.4692125e-38
-0.0001258992 0.027763484 4.842365e-05 -0.0053226105 -9.407921e-05 3.2361902e-07 0.008141413 5.549916e-25
1.5684731e-38 -1.1010913e-37 -0.0031920797 3.9194443e-13 -0.011838443 -0.00011780307 -0.0017568669 -0.0016535822
0.0016167588 0.006195067 -0.001513766 -0.0038610352 0.013657437 0.0022362503 -0.0028110016 0.07783122
-1.2707492e-37 -0.006380195 0.019546028 0.010591337 0.006926579 -0.0020494687 -1.258531e-37 -0.001752734
-6.842757e-14 0.01767001 1.9470617e-07 -0.016985111 0.004963412 5.183329e-09 3.155224e-13 0.011498449
0.006100827 -5.3143854e-21 0.00832538 -0.007389862 0.0033303422 0.0020902192 0.006936557 0.0067249737
-0.0044788476 -0.0054944446 -0.0024050097 -0.0007447243 -0.0084563885 -0.015587967 0.027308293 0.013627068
-0.021145849 0.0027294338 -5.528515e-05 0.0005785351 -3.310558e-38 5.4676857e-06 -0.011277321 -0.0012917513
-0.0009249808 -0.0021839333 3.5555153e-08 0.004444662 -0.0038958024 -3.2527248e-38 -0.0040861415 0.0036802466
-0.016969435 -0.002161849 -0.025611755 -0.005118057 0.009780225 -0.0004673432 -0.011676882 -0.0068621975
-1.4926543e-37 3.4070198e-16 1.0467163e-37 -0.004872975 -6.8468564e-38 -0.010096779 0.0017946684 0.0011035606
0.007090564 0.00012240182 -0.020516489 3.2114712e-38 -0.010041283 0.010979814 -3.2784706e-12 -0.0050409893
-2.232215e-06 -0.00217381 0.0010728283 -0.0051394776 -8.3190616e-13 -0.0060006487 0.0036063516 0.029187415
0.00012652442 0.0027385813 0.007268546 -0.0011618463 7.5525996e-38 0.009845208 0.0035667857 -0.016684994
0.0012480844 -0.009422459 0.0065686777 -5.547631e-38 -0.0029562307 0.0012093441 -0.0014868793 -0.021655206
-0.004423512 -0.034496658 0.008692096 -0.0012323686 -0.01272342 0.013241833 0.0059542493 -9.469339e-38
-0.03338238 0.014810347 -0.006775556 -0.00027632382 1.1601604e-09 -3.375034e-39 0.0047909855 0.008700296
0.009474158 -1.426358e-37 0.0016623825 0.005677696 0.0154893305 0.02033019 -0.0011072631 0.010334208
-0.010287917 0.0022078182 -0.004643106 0.0016924202 0.003717595 2.7960815e-37 1.8141431e-38 -4.703521e-06
-7.8132445e-38 -0.016832557 0.009088504 -0.010481057 -2.4370005e-12 0.0058908626 -3.1853522e-06 0.0021375068
-9.816115e-07 0.011150496 -0.0019059505 -0.007702425 0.025508506 -1.3583609e-37 -0.019217711 -0.0075101806
0.0045395303 0.00024285444 1.2223134e-18 -0.017391374 -0.010975953 -0.029319055 -0.001226841 -0.0059901197
-0.062756196 -0.005145246 0.0006383931 -0.004160389 0.005210069 0.013121329 -0.010113236 0.009348748
-0.017475137 -1.3522076e-37 0.00095169526 -0.018799176 -0.0104817 -0.007563056 -0.0025918568 0.023638258
0.022301098 0.009193355 0.005126862 -8.719201e-09 0.0009610554 0.0026206383 0.000330154 -0.0006752809
0.0056627034 -0.0138337705 1.717254e-37 -0.0065393453 -0.0014996184 1.5769274e-07 -0.00304255 4.440575e-37
-7.3107916e-38 0.021741379 4.749367e-10 0.0020833374 4.344266e-14 -0.013197935 -0.0017936159 -0.002603231

fc_mu.bias f4 [8]
00000000: 190a 1c3d ab2e 07bc b85c acbc df8b 8a3c
00000010: bddd babc 0f2e 06bd b7e0 4abc 1350 413c
0.038095567 -0.008250873 -0.021040305 0.016912399 -0.022810811 -0.03275877 -0.012382678 0.011798876

fc_logvar.weight f4 [8, 256]
00000000: 5fde bab9 522a 8939 7ad2 1a04 0fb1 5fb9
00000010: cba0 62b9 21e8 a100 7c54 f0b6 826f cdb2
00000020: 4ec2 49ba 101a f381 a8e2 09ba e213 9601
00000030: 9e54 099e a198 ff3a 94ce c639 edcd 9c37
00000040: ee53 0280 31f6 c9b9 2d7a 0fb9 be30 d001
00000050: 7bb5 31b8 9129 20b9 f666 fab9 3a0e e5b9
00000060: c803 883b 0512 29b9 ac03 5339 b0f3 27b8
00000070: 37b3 f9b7 8d84 e43a 4349 5b34 e231 c532
00000080: b2fc b338 d0af 0a3a 78d5 083a 6aa0 2028
00000090: 78b5 30ba bebf d6ba c182 1fba de22 f380
000000a0: ee9c 1f38 3d08 9d3a a99f 9d34 f4b8 0ab7
000000b0: 3500 b0b9 1a0e 2829 347a 58b8 672f 7e01
000000c0: 5041 c600 676e 8a82 46ef e9b9 12e2 5299
000000d0: 5a4c 6937 2a36 1dad 00a5 79ba c64c 83b9
000000e0: e44a 1ab6 e889 bf39 f4b6 123b d222 ff2f
000000f0: be48 9e39 3dfc 53b9 5e54 01ba 1c2f e53a
00000100: 8741 a701 8a3d 43ba 4074 93b8 e5fa 163a
00000110: 4c66 58ba 7c66 ab39 be39 5d02 4b99 abba
00000120: efb7 0603 bcd4 d8b9 3c4c 4524 c239 8db9
00000130: dfa7 1939 5617 0883 456a 5724 5e5e 78ba
00000140: d8b5 923a c5ee 7002 1b42 71ba 5f62 84b9
00000150: 309f 0e3a 8755 c8b9 e526 342f 8e4f d039
00000160: 227b 1bba 99bd 613a 9fd1 20b3 203d 5aba
00000170: 6e96 de38 3ba7 1d39 0905 ceb9 72de ddb9
00000180: fea5 dfb7 175e cd37 88dd d3b7 09e0 d639
00000190: cc79 3a01 5b67 9b39 1e64 bd39 8350 30bb
000001a0: 4d47 4239 7bb1 01b9 29db d91b bdd9 cc39
000001b0: b513 8d3a af67 7700 560d 0e3a bcfd 2cba
000001c0: 005a 4cba fd8b d1b2 e427 803a 030f 54b8
000001d0: c552 ac39 98df 7eb8 09a5 2339 c04d 253a
000001e0: 128a b281 0eb2 b282 8fda 8f82 7f0a 9db7
000001f0: da88 fb01 5f93 39ba bb38 cab9 9171 3f3a
00000200: 6e10 1e3a a4e9 8b39 cbea ec39 8aac ae81
00000210: 9d8e aeb9 f43b acb7 c661 a801 4c24 7eb7
00000220: e32f f002 430b 3d3a 7954 1b3a ef73 0e3a
00000230: 0484 d902 bfeb 98b9 744b 32ba ea9f 20ba
00000240: 7452 9d38 3188 feb9 4b82 a9ba 1e29 90b9
00000250: 110f af02 1b6f a03a dc8f 66bb ca5f ad38
00000260: d8fa 7eb9 fd25 46b9 59a4 0bb8 511f 1b01
00000270: 7e51 3f3a 027a a3b9 4190 b5b9 fa65 f938
00000280: 048e 11ba 5050 1539 d729 b039 a9d0 0c39
00000290: 5f8a 9b39 781e beb9 62c4 bab9 6fd9 2f82
000002a0: 9979 653a 486e bb3a e2e3 f739 55e6 0139
000002b0: bffb 0f85 43ea 2502 2705 7d39 05c8 d2b9
000002c0: 8cbb d63a 0f0c e501 7620 0eba bb96 dc39
000002d0: ab83 5338 1353 8338 06ad fd30 1fa6 5db9
000002e0: 776a 69b7 a3d4 a438 1ce4 a2b9 0e57 0bba
000002f0: ec0f c9b8 d106 2903 6a87 5401 1499 7eab
00000300: e5d3 2700 edf4 543a 4235 533a ac28 2aba
00000310: c7e6 1705 8d74 4c37 851a e601 49cd b6b9
00000320: 72e3 261a c013 163a 3657 063a 80e5 49ba
00000330: 3c94 59ba b56d 7582 5a49 8938 d41b 9eb9
00000340: 1551 eab8 55eb 1bba b0fb 0283 5cc3 da39
00000350: 07e3 a5ba 3df2 1bba 6d24 cbb9 298e 2931
00000360: f06b dd3a c49f 36b8 882f 86b6 485a a3b9
00000370: 4769 193a 1e40 813a b676 93b9 e0c0 bcb6
00000380: 16ff b03a 2369 9001 d421 06ba e7dc dd37
00000390: 6960 b0ba 9fc4 c8b9 12cb b3b9 b004 9d39
000003a0: ed81 46ba bb31 9fb7 f5bf 34ba 48a9 2523
000003b0: 7f2c 3fb9 d5fb 1f22 766e 8239 cca9 77b1
000003c0: 98bd 3c3a c07b 3f39 a2ea 8701 cc1e 3238
000003d0: b42b 423a 37fe f302 ec7f c038 a4ff df01
000003e0: 03dd 6802 7987 943a 6b05 0903 f825 28ba
000003f0: 3077 b70b c0e6 5539 561b 9039 48ee 2832
-0.00035642364 0.00026162207 1.8199259e-36 -0.00021332897 -0.0002161294 1.4868787e-38 -7.1623926e-06 -2.3915849e-08
-0.0007696495 -8.93015e-38 -0.00052599097 5.512983e-38 -7.270218e-21 0.0019500443 0.00037919416 1.869254e-05
-2.13779e-40 -0.00038521134 -0.00013683057 7.6477074e-38 -4.2369105e-05 -0.00015274274 -0.00047760428 -0.00043688883
0.0041508414 -0.00016123809 0.00020123896 -4.0042854e-05 -2.9766567e-05 0.0017434523 2.0422617e-07 2.2956502e-08
8.582453e-05 0.00052904803 0.00052197976 8.9165685e-15 -0.0006740908 -0.0016384048 -0.00060848525 -2.2328534e-38
3.8054706e-05 0.0011980605 2.9359697e-07 -8.268504e-06 -0.0003356949 3.7315725e-14 -5.1612224e-05 4.6686442e-38
1.8206858e-38 -2.0340645e-37 -0.00044619496 -1.09024e-23 1.3905659e-05 -8.936444e-12 -0.0009523183 -0.00025043468
-2.299138e-06 0.00036533107 0.002238688 4.640897e-10 0.00030190306 -0.00020216494 -0.0004933531 0.0017485353
6.144014e-38 -0.00074478297 -7.0311595e-05 0.0005759432 -0.00082549895 0.00032692018 1.6253087e-37 -0.001309195
3.9590206e-37 -0.0004135723 4.278214e-17 -0.0002693665 0.00014653754 -3.9993596e-37 4.6710707e-17 -0.0009474511
0.001119311 1.7700939e-37 -0.0009203271 -0.00025250294 0.0005440591 -0.00038210695 1.6384723e-10 0.00039732124
-0.0005931129 0.0008611321 -3.7443552e-08 -0.00083251484 0.000106138046 0.00015034985 -0.00039295133 -0.0004231814
-2.6660968e-05 2.4481718e-05 -2.5256319e-05 0.0004098418 3.425019e-38 0.0002964091 0.00036123482 -0.0026903457
0.00018527843 -0.00012368515 3.6041268e-22 0.0003907214 0.001076332 1.0965619e-38 0.00054188573 -0.00065990887
-0.00077953935 -2.4394462e-08 0.0009777513 -5.055872e-05 0.00032868065 -6.0766557e-05 0.00015606372 0.0006305836
-6.5584994e-38 -2.6256948e-37 -2.1137408e-37 -1.8720746e-05 9.239921e-38 -0.000707915 -0.0003857071 0.00073029945
0.000602967 0.00026686222 0.00045188362 -6.4165087e-38 -0.0003329412 -2.0531916e-05 6.185375e-38 -1.5148031e-05
3.5292316e-37 0.0007211456 0.0005925368 0.00054341456 3.1961058e-37 -0.00029167344 -0.00068014045 -0.00061273447
7.5017015e-05 -0.00048548126 -0.0012932507 -0.00027496455 2.5722587e-37 0.0012240143 -0.0035180962 8.267125e-05
-0.00024316774 -0.00018896903 -3.3293243e-05 2.8491472e-38 0.0007298215 -0.00031180686 -0.00034630488 0.0001189224
-0.0005552473 0.00014239666 0.0003360051 0.00013429172 0.00029666998 -0.00036262325 -0.00035623 -1.291937e-37
0.0008753776 0.0014299834 0.00047281297 0.00012388204 -6.770066e-36 1.2189515e-37 0.0002412988 -0.00040203347
0.0016382798 8.413862e-38 -0.0005421707 0.00042073973 5.0428946e-05 6.2620406e-05 1.8457349e-09 -0.00021138087
-1.39126705e-05 7.859736e-05 -0.00031069003 -0.00053154014 -9.5873926e-05 4.967246e-37 3.9035405e-38 -9.0451366e-13
3.657598e-39 0.0008123655 0.0008056947 -0.0006491046 7.142373e-36 1.2186484e-05 8.452671e-38 -0.00034866694
3.4511724e-23 0.0005724989 0.000512469 -0.00077017397 -0.0008299982 -1.8031242e-37 6.546332e-05 -0.00030156842
-0.00011173092 -0.0005947848 -3.849249e-37 0.00041725754 -0.001265616 -0.0005948877 -0.00038746317 2.4673545e-09
0.001689313 -4.3540975e-05 -3.9990446e-06 -0.00031157047 0.00058521744 0.0009861027 -0.0002812647 -5.62529e-06
0.0013503756 5.304811e-38 -0.0005116735 2.6448119e-05 -0.0013456467 -0.00038293467 -0.0003429284 0.00029948866
-0.0007572461 -1.8977435e-05 -0.0006895059 8.980515e-18 -0.00018231756 2.1681837e-18 0.00024877832 -3.603975e-09
0.00071998825 0.0001826128 4.992785e-38 4.246719e-05 0.0007407025 3.5851553e-37 9.179101e-05 8.228409e-38
1.7108095e-37 0.0011331878 4.02669e-37 -0.0006414349 7.066837e-32 0.00020399224 0.00027486187 9.833066e-09

fc_logvar.bias f4 [8]
00000000: 5b9c a6bb b68e 673b 7202 833b cf43 cabb
00000010: 00f7 85bb 89d7 9cbe c6da 44bb f985 583a
-0.005084557 0.0035332865 0.0039980942 -0.006172634 -0.0040882826 -0.3063319 -0.0030037626 0.00082597096

decoder.0.weight f4 [256, 53]
00000000: 27fb 2bbc bfd1 a33a 42b5 9abb 03fa 853b
00000010: 7fb7 2d3b 6862 283e f2fd 8e3b 4a28 5a3c
00000020: 4eec 8b3c 8812 8abc c8c6 babe 8349 76bc
00000030: 1313 c83b 7a14 02bc c45a 2abd b1c4 8bbc
00000040: 2e74 75bd e18b 8dbc 9abc 7a3d a3fd c7bd
00000050: 4ef6 913d cf6b 55bd 9c68 723d b061 f23c
00000060: bf41 d33c 8069 6c3c a635 ad3d 6b1a 6e3c
00000070: 29f6 813d 27bd c73d 323f 99bd f2a4 923d
00000080: 416a 853d 185d 2d3d a4e3 8b3d 417a e03b
00000090: 77c9 1a3d 9315 9e3b 779f d03c a28d 6a3d
000000a0: 2bd6 b63d 93c6 6abd fd1d 213d b44a 053b
000000b0: 679f d03c dd25 dd3c 2021 97bd 1675 42bd
000000c0: b253 09bd 079a 5f3c 0c3f 263d 3c04 54bc
000000d0: 3322 86bc 215a 32ba b9f7 3cbb c230 f53a
000000e0: 4989 e6bb 43c9 eaba f3ff 233d 492f 393b
000000f0: ca4d e7ba e5a0 9dbc f51d 5c3c 5df3 ecbe
00000100: 1e4a e03c dab3 82bd bb10 9a3d 3c30 c4bd
00000110: 8e0e d63d 8934 083d 8262 efbc d4bf 39bc
00000120: ff6e d13c 2348 793c 8e57 f5bc 1d86 e83c
00000130: c89d c4bc 6b01 1c3d 201a 5039 7ae6 64bc
00000140: c37b b7bc 070d b8bc b58a 433d 0443 4fbb
00000150: 30b8 8e3d 13bd a2bd 33f9 043b ed43 833d
00000160: cd38 bfbd 8d4b 3dbd d359 1e3c 45cf 7f3d
00000170: 0916 51bd e407 743c 94ab c73d bf03 343d
00000180: d5c5 9e3b dfcc d4bc 5471 9cbd a832 54bd
00000190: 5349 67bc 4246 1c3d 39a5 eebd 4b3a 7dbd
000001a0: 4c8e bb3c 787e 283c 4255 3f3c 707b 9abb
000001b0: 066d 53bb a0ea 3438 cc0b 9fbb 01f7 263d
000001c0: 8534 263c 9427 103a 80a1 403b ed2e dabb
000001d0: 1aed 81be 26de 443c 388b aebd 10cb a83c
000001e0: b514 47bd fde2 6fba 43bc 843c db81 343d
000001f0: bf97 c7bc 15f7 453d a5a5 fd3c 0661 953b
00000200: d489 923c e27e 133d d011 8fbd 928d 34bd
00000210: 9396 0abd 07c3 ad3d 895b 583d ca46 6cbd
00000220: db87 113c 90c0 323c 9b17 e03c ae3d bdbc
00000230: 1b9c cbbd 36c2 acbd 436e 033b 5ea0 89bb
00000240: ea61 1d3b a599 363b 035a 553c 9879 6abd
00000250: 8b9f e739 92dd 95bb 14d3 1e3b e032 54bc
00000260: 7aba 0fbd 4b3b 2f3c 979a 47bd 5bdd 8abc
00000270: 6567 c7bc d6b2 f73b 293d 8ebc 2645 453a
00000280: e555 153b e1ce 59bb 413f 1abb 5848 95ba
00000290: cda2 313a 9869 bfb8 5cf0 d639 c3a5 a4b9
000002a0: e256 86bb 8417 043a ba8a 6aba f96b 2eb9
000002b0: 2401 09bb 237c d6ba 553b 69bb 3262 823a
000002c0: 32e2 1c3a ac0f 56ba bcff bbba ae2f 7eba
000002d0: e03a 12ba a84b 5cbb d202 43bb c025 caba
000002e0: 8965 8e3a f48b b43a 6d8a 1b3a f09d d2b9
000002f0: e662 12bb 91cc 0f3c 78b0 88ba 6611 0bbb
00000300: 92b4 9f39 2d16 c6bb 0af2 e2bb 1229 7eb9
00000310: 17fe 0eb8 2683 27b7 af57 afba 73c4 0d3a
00000320: a867 34ba e6a8 80b9 6fca 0934 1484 27b7
00000330: a2dc d8b5 8e56 96ba 0290 63b8 cfc3 0d3a
00000340: 44bf 2cb9 71c4 3bb8 ca0d 61b9 dcaf 7ab8
00000350: f51d 8f3b 8aa7 27bb bb01 35ba 92a5 023b
00000360: b41a 553b 2f62 5ebe 643a 0fbb e0dc 6e3b
00000370: 3fb6 f4bb 2367 a63c 2af0 0cbe 7a5d e5bb
00000380: fa39 fdbc 5f0b 873c 0757 a9bc b3c2 d03c
00000390: 78b9 a1bc ef22 303d a585 883b 723c 4bbc
000003a0: 1773 f93c 7a3f 80bd cb98 94bb 5b89 7b3b
000003b0: 5dc9 9bbb 3754 efbc 84fc a6bc 0128 8f3c
000003c0: 579c 67bc 170d e73c 536a ca3c 9b5d 10bd
000003d0: 3043 df39 1145 be3b c1ed 2bbd 180f 71bd
000003e0: 0598 0d3c 93ce cbbb 3d89 13bc 92b5 00bd
000003f0: 4bbb 753b f3f3 91bc 7ddc c63b a033 013a
-0.010496891 0.0012498422 -0.0047213146 0.0040886416 0.0026507077 0.16443789 0.0043637687 0.01331527
0.017080452 -0.01685454 -0.36479783 -0.015032175 0.0061057894 -0.007939452 -0.041590467 -0.017061563
-0.05992525 -0.017278614 0.06121502 -0.09765174 0.07127057 -0.052104767 0.059181795 0.029587597
0.025788186 0.01442945 0.08457498 0.014532666 0.063457794 0.09752875 -0.07482757 0.07160367
0.06514407 0.04232511 0.068305284 0.0068505113 0.037789788 0.004824349 0.025466664 0.057263978
0.08927568 -0.05731828 0.03933524 0.0020338716 0.025466634 0.026995594 -0.07379365 -0.047474943
-0.033527084 0.013647563 0.04058747 -0.012940463 -0.01637373 -0.00068035914 -0.0028834178 0.0018706548
-0.0070354086 -0.0017912764 0.040039014 0.0028256944 -0.0017647084 -0.01924176 0.013434877 -0.4627942
0.027379092 -0.0638196 0.07522722 -0.095795125 0.10451995 0.033253226 -0.029221777 -0.011337239
0.025565622 0.015214953 -0.029948976 0.028384263 -0.024001017 0.03808729 0.00019846158 -0.0139709655
-0.022397881 -0.02246715 0.047739703 -0.0031625638 0.06968725 -0.07946219 0.0020290136 0.0640944
-0.09337006 -0.04621463 0.00966497 0.062453527 -0.051046405 0.014894459 0.09749523 0.043948885
0.0048453608 -0.025976596 -0.07638803 -0.051806122 -0.014116603 0.03815294 -0.116526075 -0.06182317
0.022895 0.010284059 0.011678042 -0.004714422 -0.0032261028 4.3133856e-05 -0.004853701 0.040762905
0.010144358 0.00054990617 0.0029393137 -0.006658426 -0.25376207 0.012015855 -0.085226476 0.02060464
-0.048603732 -0.00091509504 0.016203051 0.044069152 -0.02436435 0.04833134 0.030962775 0.0045586852
0.017887987 0.036009677 -0.06985819 -0.044080324 -0.033835005 0.08484464 0.05282167 -0.057684697
0.008882488 0.010910168 0.027355006 -0.0231007 -0.09941884 -0.0843548 0.0020054735 -0.0042000255
0.002401466 0.0027862575 0.013021949 -0.057244867 0.00044178622 -0.0045735324 0.00242347 -0.012951583
-0.035089947 0.010695289 -0.048731413 -0.016951254 -0.024341295 0.0075591607 -0.017363148 0.00075252575
0.0022786793 -0.0033234882 -0.0023536237 -0.0011389358 0.00067762734 -9.127258e-05 0.00040996342 -0.0003140402
-0.0040997127 0.00050389045 -0.00089470635 -0.00016634156 -0.002090522 -0.00163639 -0.0035588343 0.0009947477
0.00059846335 -0.00081657874 -0.0014343183 -0.0009696436 -0.0005578231 -0.003361443 -0.002975632 -0.0015422627
0.0010864 0.001377462 0.0005933408 -0.00040171994 -0.002233678 0.0087768 -0.0010428568 -0.0021220087
0.0003046138 -0.006045124 -0.006925826 -0.00024238628 -3.4092078e-05 -9.984511e-06 -0.0013377572 0.00054079964
-0.0006881901 -0.00024539902 1.2832764e-07 -9.9847275e-06 -1.6157467e-06 -0.0011469887 -5.4255135e-05 0.0005407901
-0.0001647445 -4.4767225e-05 -0.00021462809 -5.9768427e-05 0.004367585 -0.0025582039 -0.000690486 0.0019935113
0.0032517137 -0.21717142 -0.0021854872 0.003644757 -0.0074680145 0.020312851 -0.1376349 -0.0069996687
-0.030911434 0.016484914 -0.02067138 0.025483465 -0.019741759 0.043002065 0.0041663223 -0.012404548
0.030450387 -0.06262107 -0.004534816 0.003838143 -0.004754229 -0.029214961 -0.02038408 0.01747513
-0.014136395 0.028204484 0.024708902 -0.03524552 0.00042583933 0.005806573 -0.041974787 -0.058852285
0.008642201 -0.006219694 -0.009004888 -0.03142316 0.0037495669 -0.01781652 0.0060687647 0.0004928652
