models/cvae_L8_H128_B0.500_LR1e-03.pt (torch, 214793 bytes, 13 tensors)

encoder.0.weight f4 [128, 46]
00000000: c880 9fbe 0f5a b2bc c3ea b8bc 6b55 be3e
00000010: 4d36 ed3b 0d60 553d 9cdb a73c 4311 103c
00000020: fef3 46bd 0447 453d 0ec0 8abd 856d cdbb
00000030: 9681 2dbd 9c0a eebd 12f7 c23c eb7a 4fbd
00000040: 04dd 923d f8c4 7bbb b4f6 1dbd 010c 47bc
00000050: b54c 66bd 2b6e 78bd 9041 cd3d 2220 4bbd
00000060: 1f58 6b3d c44f 15bd 7398 f0bc 04f4 12bd
00000070: 1062 393d 6fb7 9d3b e294 12bd bcad 9e3d
00000080: 65e5 f03d f80a 863b 38a5 7c3d db47 893d
00000090: 3779 02bc e99f a83c 5632 b33d 94f8 61bb
000000a0: 0bc5 c23d bd83 823d 8fbf 053e e0e8 693d
000000b0: ea7c 893d 8378 0bbc 508c 9e3e 9e08 9c3d
000000c0: aa0c 94bc 7683 6a3e 269a 223c a92c 9bbd
000000d0: 5b64 733c 0dde ac3d c5e1 f0bd a1c2 fa3d
000000e0: 3bb9 a7bd 5cf0 86bc c385 3a3d d430 5c3b
000000f0: 90c9 523d 34e9 123d 053c 65bd 211b ac3c
00000100: 088a 903c da0c 96bd 9b41 63bd 1232 1d3d
00000110: 5ef3 8cbd b239 abbc e299 9abd e765 593c
00000120: 0b43 24be b380 04bd 8200 7bbd 76cb 50bd
00000130: 3efe 61bd d3c8 5b3c 2f18 bcbd 4352 ca3d
00000140: ac9a c33d 29e2 a93d a7b9 37bb 3e08 4d3c
00000150: 323c 9b3c 778e 243d c7ed d83b a948 d73d
00000160: a916 e3bd 8640 89bd 97e6 a53c 361d 503d
00000170: d342 3cbe a2a6 c63c a000 643c ed5f 04bf
00000180: 57ea 8a3b 1938 123d 72a6 9b3a 4864 82bd
00000190: 155f bbbc 7f46 a53d 0c2b 66bd f396 66bb
000001a0: 3bb2 323d 8f01 49bc 4eaa b1bd c680 aabc
000001b0: afb6 b5ba 262e 8abc 1a61 72bc 60f8 543c
000001c0: 1008 f5bb 1c07 0d3d 8438 9bbd 3186 ba3d
000001d0: 8fa5 0ebd 3625 26be 7deb 1dbd 5045 93bd
000001e0: 2a2f 8aba cffe d6bd 4d04 903c fc7c 8fbd
000001f0: c343 373c 4634 79bd 81ea c4bb dc30 c9bd
00000200: 3c71 43bc 35ec 4bbd 633f 2cbd 00a9 293d
00000210: 85cd ae3c be4c 293d 57c4 063d c4d7 7b3c
00000220: d294 9dbd 4a22 65bd 8d97 bcbd b160 6a3d
00000230: 4624 2cbd 6937 343e 5464 213c 2ece a7bd
00000240: d26d 96bc 1c9c 92bd 6ba3 a6bc ffe3 1b3e
00000250: 69ec 2bbe a11b 08be 2a21 213c e884 7fbc
00000260: a0a1 b63d 58cc f5bb 4700 443c 5f9b dc3c
00000270: 3bf2 973d c54a fc3c 3a41 9abd de6e e0bc
00000280: 962a 973d 4a75 99bd 9783 453c a7b9 c93d
00000290: ad5c 103e 2222 a03d 2cca 2a3e 0b03 7abc
000002a0: beb2 ac3c 70d9 833b d2e8 303c 3177 9bbd
000002b0: b98d cb3d 5178 2a3c 66b2 55ba 71d9 833b
000002c0: d100 8a3b 69b0 d03c 4ebf 2cbd 36f3 233e
000002d0: 949f 9f3d 037e be3d 6b4c 753b 4f20 b6bc
000002e0: 7132 acbd 327d 2f3d b945 b0bd 6779 76be
000002f0: acc1 93bd 138f 09be c85a 3c3c 22b3 943c
00000300: 8092 273c 425d 2abb 3355 95bc 857c 96bd
00000310: 5d98 b9bb 6e3e 5dbd b019 b43d 24aa 793d
00000320: 2afa 8f3d ea5a c4ba 1ab5 cd3c 5cba 833c
00000330: 8a41 fe3c d420 4fbd 03ff 40bc 8edb 4bbc
00000340: 063d 5fbc b3b5 85bb 19a5 233e a602 153d
00000350: 848c 653d ccd2 67bc 0e46 ecbb e8cc bb39
00000360: cfe9 903d ebab 4fbd b6b3 f9bc 0551 4cbc
00000370: 5e0f 8801 e2cc bb39 2c46 ecbb 36b3 973b
00000380: bf59 343d 4f72 4bbd 5234 b73c 8fc7 4cbd
00000390: e294 09bd ba6e 263c 71be 6bbe d176 863d
000003a0: aada 2c3d 762d 853e 13c0 f63c 7238 073d
000003b0: bbbe db3c 82e6 873d 29b2 a33d 2c33 fe3c
000003c0: f0fa b0bd 1baf 48bc 548f 1b3d c356 c3bd
000003d0: 8d2d b03b f813 033d 6070 8abc c18e 843c
000003e0: 1f73 6a3d 9abc e03d cbc9 c3bd 9aeb 113c
000003f0: eaea 69bc a33c 973d 57e6 2c3c eaf0 c23d
-0.3115294 -0.021771459 -0.02257288 0.37174544 0.007239139 0.052093554 0.02049046 0.008793178
-0.048572533 0.04816343 -0.06774913 -0.0062691593 -0.04235991 -0.11623117 0.023799453 -0.050654333
0.07171062 -0.0038416963 -0.038565353 -0.012148858 -0.056225497 -0.06065194 0.10022271 -0.04959119
0.057457086 -0.036453024 -0.029369568 -0.035877243 0.045259535 0.0048131268 -0.035786517 0.07747981
0.117625035 0.004090663 0.061681002 0.067031585 -0.00796347 0.020584064 0.08749835 -0.003448044
0.09510239 0.06372783 0.13061355 0.057106853 0.067132786 -0.008512619 0.30966425 0.07618831
-0.018072445 0.22901711 0.009924447 -0.075768776 0.01485547 0.0844079 -0.11761812 0.12244154
-0.08189627 -0.016472034 0.04553772 0.003359844 0.051461756 0.03586693 -0.055965442 0.02100903
0.017643943 -0.0732667 -0.055482488 0.03837783 -0.06882356 -0.020901535 -0.07548882 0.013268924
-0.160412 -0.0323493 -0.06127978 -0.050975285 -0.055174105 0.013414579 -0.091843 0.098789714
0.09550986 0.0829509 -0.0028034241 0.012514172 0.018949602 0.040174928 0.006620142 0.10511906
-0.110883065 -0.0670176 0.020251555 0.050809108 -0.18384866 0.024249379 0.013916165 -0.5170887
0.0042393613 0.03569803 0.0011875166 -0.063667834 -0.022872487 0.08070087 -0.056193396 -0.0035185188
0.043627005 -0.012268438 -0.08675061 -0.020813357 -0.0013863648 -0.016867708 -0.014793659 0.01299867
-0.0074777678 0.03443061 -0.07579139 0.09107626 -0.034825858 -0.16225132 -0.038554657 -0.07190955
-0.001054262 -0.1049782 0.017580176 -0.07006261 0.011185589 -0.060840867 -0.0060094004 -0.09823772
-0.011928853 -0.04978581 -0.042052638 0.041420937 0.021338234 0.041332953 0.032902088 0.015371267
-0.07694401 -0.055940904 -0.092085935 0.05722112 -0.04202678 0.17599262 0.00985058 -0.081936225
-0.018362913 -0.07158682 -0.020341596 0.15223692 -0.16789402 -0.1329179 0.009834567 -0.015595652
0.08917546 -0.0075011663 0.011962957 0.026929555 0.07419249 0.030797372 -0.07531972 -0.027396616
0.073811695 -0.07493074 0.012055299 0.098498635 0.14097853 0.0781901 0.16678685 -0.015259515
0.021081325 0.0040237233 0.010797696 -0.07591093 0.09939141 0.010404662 -0.00081518886 0.004023724
0.004211523 0.025474744 -0.04217463 0.16010746 0.07794109 0.093013786 0.0037429582 -0.022232203
-0.084080584 0.042844005 -0.086070485 -0.24069749 -0.07214674 -0.13433485 0.011496253 0.018151823
0.010227799 -0.0025995527 -0.018229103 -0.07347969 -0.005663915 -0.054014616 0.08793962 0.060953274
0.07030137 -0.0014980708 0.02511077 0.016080074 0.03103711 -0.050568417 -0.0117795495 -0.012442483
-0.013625389 -0.004080498 0.15980949 0.03637948 0.05604221 -0.014149379 -0.0072104996 0.00035820086
0.070758455 -0.050701063 -0.0304812 -0.012470488 4.998056e-38 0.0003582007 -0.0072105136 0.004629518
0.0440309 -0.04966956 0.022363815 -0.049995 -0.03358925 0.010158235 -0.23021866 0.06565631
0.04220072 0.26011246 0.030120885 0.033012815 0.026824346 0.06635763 0.07992966 0.03103026
-0.086416125 -0.01224878 0.037978485 -0.09538033 0.005376524 0.032001466 -0.016899288 0.016181352
0.057238694 0.10973473 -0.09559973 0.008906269 -0.014277199 0.073846124 0.010552964 0.09518607

encoder.0.bias f4 [128]
00000000: 1d35 343e cb66 a13c 6be0 59be 4797 dc3d
00000010: 9d5a c43d 571e 5d3c 6b11 c83d 34a7 f8bd
00000020: 38e8 c53d 186d b13d 085e e4bc 3431 5abe
00000030: 3201 12be dc9e f23d e745 9c3d 520a 493d
00000040: b79b 0c3d b422 223e febb a03d c918 393d
00000050: 8cdf 7b3c 4370 083d 7d58 fc3b 7cc3 8b3d
00000060: c873 b03c 11b4 643c 069f 5dbd 7903 053d
00000070: 29e3 253e 3fe4 0fbd 0943 663b a83a f9bd
00000080: 942a 4bbd dd43 e6bc 1812 823d a40e 60bd
00000090: 1ede bb3d 9a7b a63d c0e9 b93d eb7f 0b3e
000000a0: b53f 09be 3b0d 643c 7060 08bd 09a5 203e
000000b0: fdb8 bbbd 246c 54be 3b3d 16bd 39a0 ddbd
000000c0: 729e 18bd 56c7 003d d392 9bbd 4415 06be
000000d0: 8431 233e 4d03 133e c9fa bebd 7be1 383c
000000e0: f518 273e 3486 44bd d518 6abc 8c6f 5f3c
000000f0: 8b2a 1a3d 9359 6cbb e29c 443d 722a abbd
00000100: 0ecd e73d 1fe9 fe3d 9de6 41bd 6fc6 403e
00000110: 7322 56bc 905b ec3c 6fe4 9fbc 1f77 0f3e
00000120: 7cfd eb3d 3cf8 f63d 875f c9bd d6b2 55bd
00000130: 3741 633d ad73 abbd 3f09 0e3e 945c 9fbd
00000140: 0acb 92bd cee6 293e c1a9 c13c e063 7f3c
00000150: a964 a43d 2296 d9bd 2da2 203e 7cc1 f3bb
00000160: 2407 d5bc fc61 9dbd da17 553d 6638 123c
00000170: ef3f 9abc 0aeb 523d 6a81 ba3d ee74 0ebe
00000180: d0da 81bc c401 05bd 210a 6abd e8cd 473d
00000190: 15c7 903d 77d7 e1bd a3ae 34be f262 b13d
000001a0: 9b39 583d 7db4 ffbc 0d4d d6bd de64 4fbd
000001b0: c862 15be 0a3c 4c3c 3b11 c93d d5bb a4bc
000001c0: 3b0d ac3d f8fc b3bd aaa6 72bd 6f3c 4abd
000001d0: b3c7 0f3e 263a 193e f8b6 f43d f584 af3d
000001e0: 3bab 8dbd fd5d 9cbd 807e 853c 5b08 823d
000001f0: f24a 0dbd 57c5 203e a7f3 94bd ee68 483d
0.17598386 0.019702336 -0.21277015 0.10771041 0.095875956 0.013496003 0.09768947 -0.121412665
0.09663433 0.08663386 -0.027876869 -0.21307832 -0.14258268 0.11846706 0.0763052 0.049082108
0.03432819 0.1583355 0.07848357 0.045189653 0.015373122 0.033310186 0.0077009783 0.06824395
0.021539584 0.013958947 -0.054106735 0.032474015 0.16199936 -0.03512978 0.003513517 -0.12169391
-0.049601153 -0.028108532 0.06351107 -0.054701462 0.09173225 0.08129044 0.090777874 0.13623016
-0.13403209 0.01391917 -0.033295095 0.15687956 -0.09166143 -0.20744377 -0.036679488 -0.10821576
-0.03726048 0.0314401 -0.07596364 -0.1309405 0.15936857 0.14356728 -0.09325177 0.0112842275
0.16318114 -0.04797955 -0.014288147 0.013637435 0.03763823 -0.0036064133 0.048001178 -0.08357705
0.11318408 0.12446808 -0.04733907 0.18825696 -0.013069737 0.028852254 -0.019518105 0.14010285
0.11522958 0.12059066 -0.098326735 -0.052172504 0.055482116 -0.08371673 0.13870715 -0.0778133
-0.07167633 0.16591951 0.023640515 0.015587777 0.08027012 -0.10624339 0.15686865 -0.0074388366
-0.026004381 -0.07684705 0.0520247 0.008924579 -0.018829314 0.051493682 0.09106715 -0.13911793
-0.015851408 -0.032472387 -0.057138566 0.048780352 0.07069222 -0.11027425 -0.17644744 0.086614504
0.05278931 -0.031213993 -0.10463915 -0.050633304 -0.14588463 0.012465486 0.098177396 -0.020109097
0.08400961 -0.08788484 -0.059240974 -0.04937404 0.14041023 0.14963588 0.11948961 0.085702814
-0.06917425 -0.07635114 0.016295671 0.0634925 -0.0344953 0.15700279 -0.072730355 0.048928194

encoder.2.weight f4 [128, 128]
00000000: cf62 b43d 43e8 0abd 08fe 4cbe 01db 3d3d
00000010: 55e5 f3bc af05 60bc 07d3 9ebb cb8d adbd
00000020: 4def d23d 6116 d1bb a95e b83b b280 c3bd
00000030: ee9d af3c 9a2f 4bbd 1dcf 853d 34cc 71bc
00000040: 7371 07bd 5ad5 cfba 6f47 853c e328 07be
00000050: b7b8 c3bd be0e 003d cbd9 e53d 58cd 5e3d
00000060: e009 3f3d 051f a4bd 9a81 6d3c f73a 81bd
00000070: 67c6 0e3d f5d2 443d 1ea2 bd3c 05b2 a6bc
00000080: 932f 003d 9f48 ce3d e1ff 663c 2d19 1bbb
00000090: 8d26 8f3d c832 67bc 3066 2b3d 44d7 303d
000000a0: 518c fdbc aa81 ecbb 6a82 df3c fab2 883d
000000b0: d08f 24bc 90b3 523d b697 cbbd 7b04 24bd
000000c0: 2f87 be3c cbfc 88bb 56a8 2f3d a8ab 1abe
000000d0: a4c6 c43c 4e09 45bd 46f6 c73b b239 633d
000000e0: c9e6 1f3e 0c4d 78bd f891 60bd f343 dbbd
000000f0: 0570 92bd 895b a73d 90d9 4d3d 040d b1bc
00000100: d5d7 92bd aab6 7c3d 027a ea3d 468e 033e
00000110: 6397 883c ba1f 21bd a7fc 193d f8f9 7fbc
00000120: 8dbb 8c3c ae75 aa3d c05b b5bc f04c 28bd
00000130: 8b12 b4bc 8eb8 c5bd e3da 36bc 99d8 9fbc
00000140: a53c 353d 409c 353c 48f4 f5bd e3a5 023b
00000150: 96b9 8e3d 4a1f 7f3d aaa3 14bb bc27 dfbc
00000160: 5217 c93b a1a6 32bd 3c91 16bd 7615 09bc
00000170: 299d e2bc 077a 3a3d 3d81 ea3d 492e c13c
00000180: 45f3 d73b b4f4 b8bd bfee 823c 8ec6 653d
00000190: ffc5 5cbd 833a 26be 152a a5bd 97c7 2ebd
000001a0: c5cb 9abc 3e70 503d 643e 05bd 7f95 9f3c
000001b0: ee9c 1fbd b306 203c 5067 edbc 30de 39bd
000001c0: c2ce e43d 7abb 8c3c 5344 0ebe 2c62 b9bb
000001d0: 6ed5 7c3c 34db cf3d 7c6e b03d fe8a 50bb
000001e0: 3511 803c c0ac 42bd 0b33 afbb 59a3 a33d
000001f0: 3395 babc c4ee f7bc bbc7 4abc 2537 9a3d
00000200: 466a 9d3d 1c4a b9bd bd14 e83c 6f44 a83d
00000210: 56fe a23d 98a2 65bb f4f0 a0ba 74d9 103d
00000220: f424 e5bc 3eea 513d 2136 c9bc 0019 2c3b
00000230: a623 2b3d 8360 b3bd 41fe 2d3c c0e3 8f3d
00000240: 99a3 15bb 0b3d 7bbd 6efe 563d d3cd 0bbe
00000250: 7cf5 493d 9b64 af3b d0b4 bcbd 9c9c 98bd
00000260: 4699 b8bb 3b04 3b3d 8937 523c 9b03 c1bd
00000270: 7c6a ae3d 9ecd 15bd 5dde 3d3d 889e 583c
00000280: 7507 943d f573 1c3d f673 a53c 20f7 ebbc
00000290: 9a19 203d f682 323d b645 003e 3440 473d
000002a0: a73e 62bc 8e3d 323c 384f 59bd eb1f 9ebc
000002b0: 345b 643d d513 083c 191f 923d 4344 cbbc
000002c0: 6dc3 4bbd 6218 98bd 179e a13d a769 913d
000002d0: 7854 c03d 15c7 30bd 4102 6eb9 03d2 413d
000002e0: ff40 b93d fabf 6f3d 58ec 9bbc f9fe e83c
000002f0: 2843 d0bd a20d 07bd 452d bf3b 7b5d 8abd
00000300: aebf 5e3d 5f87 783d c283 b43b 4eaf 81bb
00000310: ab9c a63c 6c45 8e3d faa6 05bd cc80 8d3c
00000320: ea92 8bbd dbfd cb3d 380e 22ba 20d5 43bd
00000330: 5f95 d13c 7662 8d3d 346f 7bbd be76 323c
00000340: ff05 c13b 8ee0 30bd 2ea1 593d 0234 1fbc
00000350: 6d41 403d 874c adbc 713a 35bd 586a b6bd
00000360: 6f5d 12bd ded3 b7bd 3f90 93bd 84fc b2bd
00000370: 6f63 bfbc 5a14 a2bd bfb7 7bbd 66a2 8b3c
00000380: bf7f debb 944f ec3b a5f5 913c 467a 58bd
00000390: ed11 35bd b004 c2bc 2693 fd3c c4fa 89bc
000003a0: 22e8 97bc 446f 8c3d 71bf d3bc 06a3 253c
000003b0: 66ee f3bc a3a3 993c 808a ccbd 763c 3d3d
000003c0: b1d7 2d3d ac64 6d3b 8b99 c23c cd36 a93b
000003d0: 17d5 bfbc 92d5 31bd c0ec cd3d fd3b c4bd
000003e0: 5e14 57bd 4588 a0bc c19b 123b 3a74 8a3d
000003f0: 02de 2e3d f1f0 b9bc 7d50 42bc acf8 93bc
0.08807909 -0.03391291 -0.2001878 0.046351437 -0.02977244 -0.01367323 -0.0048469338 -0.084743105
0.10299549 -0.0063808416 0.0056265187 -0.09546031 0.021437611 -0.049605943 0.06533644 -0.0147581585
-0.033067178 -0.001585643 0.016269414 -0.13199191 -0.09556716 0.03126406 0.11223181 0.05439505
0.046640277 -0.08013729 0.014496231 -0.06310075 0.03485718 0.048052747 0.023148593 -0.020348558
0.03129537 0.10072445 0.014099092 -0.002366613 0.06989775 -0.014111228 0.0418455 0.043174043
-0.030950697 -0.0072176056 0.027283866 0.06674762 -0.010044053 0.051440775 -0.09941046 -0.040043335
0.02325782 -0.004180526 0.042885147 -0.15104544 0.0240205 -0.048104577 0.006102356 0.055474944
0.15615381 -0.060620353 -0.054826707 -0.1070632 -0.07150272 0.08171756 0.050256312 -0.021612652
-0.07170073 0.06169764 0.114490524 0.12847242 0.01667375 -0.039336897 0.037594464 -0.015623562
0.017179275 0.08323227 -0.022138476 -0.041089 -0.021981498 -0.09654342 -0.011160585 -0.019512461
0.04424729 0.011084616 -0.120094836 0.0019935302 0.069689915 0.0622857 -0.002268056 -0.027240627
0.006136813 -0.04361594 -0.0367596 -0.008366933 -0.02766283 0.04552653 0.114504315 0.02358164
0.0065902793 -0.090310484 0.015982984 0.05609756 -0.05389976 -0.16233258 -0.08064667 -0.042670812
-0.018895993 0.050888292 -0.032530203 0.019480465 -0.03896802 0.009767222 -0.028979927 -0.04537791
0.111722484 0.01717924 -0.13893251 -0.005657455 0.015431745 0.101492316 0.08614823 -0.0031821127
0.015633205 -0.04752803 -0.005346661 0.079901405 -0.022776222 -0.03026522 -0.012376721 0.07530049
0.07686286 -0.09047338 0.028330201 0.08216178 0.07958667 -0.003503954 -0.0012278841 0.03536363
-0.027971722 0.05124878 -0.024561943 0.0026260018 0.041782044 -0.087586425 0.010619701 0.07025862
-0.0022833108 -0.061337512 0.052488737 -0.13652734 0.049306378 0.0053525693 -0.09214175 -0.07451746
-0.005633506 0.04565833 0.012830623 -0.09424516 0.08516404 -0.036573045 0.04635464 0.013221391
0.07227985 0.038196523 0.020196896 -0.028804362 0.039086916 0.043581925 0.12526593 0.048645213
-0.013808883 0.010878934 -0.053054065 -0.019302329 0.05575104 0.00830551 0.07134838 -0.024812823
-0.04974692 -0.07426526 0.07891481 0.0710023 0.09391111 -0.04315861 -0.00022698288 0.047319423
0.090456 0.058532692 -0.019033596 0.028441893 -0.10169059 -0.032971986 0.005834254 -0.06756111
0.05438202 0.060675975 0.005508871 -0.0039576655 0.020338377 0.06946835 -0.032629944 0.01727333
-0.06815131 0.099605285 -0.00061819283 -0.047810674 0.025583921 0.069035456 -0.06138535 0.010892568
0.0058906074 -0.043182902 0.05313223 -0.0097169895 0.046937395 -0.021154655 -0.044245187 -0.08907002
-0.035733636 -0.08975957 -0.07205247 -0.0873957 -0.023362843 -0.07914038 -0.06145453 0.017045211
-0.006790131 0.007211635 0.017817328 -0.052850984 -0.04420655 -0.023683876 0.030953955 -0.016843207
-0.018543307 0.0685716 -0.025848122 0.010109669 -0.029776763 0.018754786 -0.09987354 0.04620024
0.042442027 0.0036223335 0.023754856 0.0051640035 -0.023417039 -0.043416567 0.10054922 -0.09581754
-0.052509658 -0.019596228 0.0022370669 0.0676045 0.042692192 -0.022697898 -0.01186001 -0.018062912

encoder.2.bias f4 [128]
00000000: f25f 0f3c 76f0 93bc 479c 003e 9ed4 de3d
00000010: 5114 b23d 50c2 a73d 652b 0bbd 3baa d73d
00000020: f3c3 173d b905 b13d 6f97 643d f213 02bc
00000030: 881d bfb3 2269 98b1 ee94 0b3e 5992 443d
00000040: d951 943d 113e c43c c212 c13b 109f 67bc
00000050: 78ec ac3d 68d8 633d 602c af3d a6c4 953c
00000060: 0ca9 0f3d 54f6 f73b 435c ff3c 0cec 5a3c
00000070: fe5f 143e 58d8 863c 0f20 1b3d 5a25 29b9
00000080: 2892 5dbd bd93 563d 847a 0a3e e744 b7b2
00000090: 0c4b 4e3d ac42 9a3d 0768 9a3d 608d 993d
000000a0: 4f63 e23d bf32 b43d 4230 c13d 0c03 753d
000000b0: 8b75 993d 60a8 b43d 257c d73c 47e7 7b3d
000000c0: 79a5 48bd 508a 0ebd 2f95 583d da8d 0b83
000000d0: 433c a33c 2fe6 4b3d b35b 2e3c e47d bc3c
000000e0: dadf 65bd a392 173e 6ff3 ad3d db6d c5bc
000000f0: 8e32 e6ba d245 0f3c 95ad 989a 1644 033d
00000100: a3ce 883b 129b da3d 5332 a63c 508f 78bd
00000110: df14 deb5 291f 73be f0e3 cb3c 0b9e 94bc
00000120: b5bd ed3d 7cdb 743d 8108 493d 6614 20bd
00000130: 4e2c 4dbd 1bbe 323d 9dc0 0bba 39a8 753c
00000140: a4b0 a43d d7c1 fbb8 4018 333c aca6 1abd
00000150: 3ce1 873d 4f07 6abd 19d8 d8bb 4425 313d
00000160: 97a1 973c ea56 5f3d d5e1 de3d 6c44 ad3c
00000170: 674c 4d3d a1d3 8cbb cd59 ea3d 85b9 80bd
00000180: 3a90 e83d f1de 573d eadf fc3c 0d92 beb7
00000190: 84c7 cd3d b840 80bc 4bd4 df3d d82d 22ac
000001a0: a21c 133e 78e2 a9b2 ace3 bd3c a114 a5bb
000001b0: 43a1 0f83 ee74 dd3c 0ab2 483c 7fea 353e
000001c0: d2f3 e43d 9e2d 863d ceb0 e0ba 9c7e 3c3c
000001d0: aced b23d b7e2 e33d 1a4b a43d ca54 e13d
000001e0: d634 ba3d 85c4 143d e592 f73d c49e 653d
000001f0: ed26 13bd 8d18 f4bb 32b8 d699 472d febd
0.0087509025 -0.018058997 0.12559615 0.10880397 0.08695281 0.08191359 -0.03397693 0.10530516
0.037052106 0.0864367 0.05580848 -0.007939326 -8.899502e-08 -4.4357344e-09 0.13631031 0.04799113
0.07242174 0.023955377 0.0058921287 -0.014137045 0.0844354 0.055626303 0.08553386 0.018282246
0.035073325 0.0075672064 0.031171924 0.013361942 0.14489743 0.016460583 0.03787237 -0.0001613101
-0.054094464 0.052386988 0.13523299 -2.1335337e-08 0.05036454 0.07532248 0.07539373 0.07497668
0.11054098 0.087987415 0.094330326 0.05981736 0.07493123 0.088211775 0.026304314 0.06149986
-0.048985932 -0.034799874 0.052876648 -4.1011266e-37 0.019926196 0.049780067 0.01064198 0.023009248
-0.056121685 0.14802031 0.08493697 -0.024100235 -0.0017562674 0.008744674 -6.3146163e-23 0.032047354
0.0041750236 0.106741086 0.020287668 -0.06068355 -1.6546363e-06 -0.23742355 0.024888963 -0.018141767
0.11608449 0.05977963 0.049080376 -0.039081953 -0.05009108 0.04363833 -0.0005331131 0.014993721
0.08041504 -0.00012004718 0.010931075 -0.037756607 0.06634757 -0.057135876 -0.0066175577 0.04324843
0.01850967 0.054526247 0.10882918 0.02115079 0.05012169 -0.004297689 0.114429094 -0.06285385
0.11355634 0.052702848 0.03086849 -2.2717775e-05 0.1004782 -0.01565586 0.109291635 -2.3047033e-12
0.14366391 -1.9777175e-08 0.023179851 -0.0050378595 -4.2209042e-37 0.027033295 0.012249479 0.17765234
0.111793175 0.065516695 -0.0017142536 0.011504795 0.087367386 0.11127227 0.08022137 0.110025
0.09092109 0.036320228 0.12088565 0.056059614 -0.035925794 -0.0074492157 -2.2201477e-23 -0.1241098

fc_mu.weight f4 [8, 128]
00000000: cd2b 513a 405e 123b ba26 4fbc 96f0 3e3c
00000010: 2010 a53c 441c 083c a1e3 843b 3f8e 503a
00000020: 0223 7bbc 9a76 b5bb 8eab 06bc d8e5 a03b
00000030: 35b3 aa1b 4a98 7d9b c3ba ec3a ce87 e9bb
00000040: 4a88 e43b d954 3d3b df66 da3c e011 1d3b
00000050: ab5e d8ba b5f1 a7ba bd49 f4bb 6da7 86bb
00000060: d0d6 4f3b dae9 f9bb cf76 653b 4b2f a73a
00000070: 5a68 dbba 906d 11bb a7f3 3a3b 7d3e 5f32
00000080: 6a89 d839 0f74 9bba a9dc 933a 7d81 e31f
00000090: ecdd 00bb 51ba 1abc 33fa 3b3a 4aab 69bb
000000a0: 3a46 533c ffc0 023b 0fa2 9abb 74b3 f63b
000000b0: 36fb 6ebc e5d9 ac3a 8dd9 41bb 4edf 42ba
000000c0: c8c9 14ba df6d f439 7102 a7bb 61b3 8082
000000d0: c5f6 49ba 5afd 9d3b b5b8 bbbb 1dcd 943b
000000e0: b519 003b f2e9 88bc 05a9 a73b cce0 44bc
000000f0: 3909 28aa e19e 633a 9092 4502 732f b73a
00000100: 488f 4439 eca5 093b 2cf7 bdbb 90a3 c4bb
00000110: ca8c e8ab 7ae5 703b 7f33 06bc f1b0 483c
00000120: 1714 833b 29f8 533a 5ca7 953a 3b6c 3d3b
00000130: d846 1a3a a8a4 bd3b b4e4 e1b5 8f41 973a
00000140: eac5 833a 8c7c 8728 f395 8b3b baed dbbb
00000150: 49a2 f23b 19ce 24bb 4d12 f63b a75d 6b3a
00000160: 3572 563b a057 f7bb ac9c 92bb c08a 983a
00000170: 5802 07bb 6d69 30bb 01f0 a0bb db30 8bbb
00000180: 585a d8bb af71 bf3b fbdf 0a3b 115f 8431
00000190: 95a9 f83a a1a1 76bc 103b 2dbb d049 9083
000001a0: a451 3bbb 8a8e 72a6 46e0 a1ba efeb f6b2
000001b0: 9edc 3302 76fd ca38 fde8 8c3b c28a 5a3c
000001c0: 7c4e 1bbc 7f96 e53b 42fd 44a3 e83a d03b
000001d0: f7e3 9fbb 45c9 1fbc 3948 65bb 01d0 74bb
000001e0: 52fd 7439 5450 f23a 0c3e f6bb 0678 19bb
000001f0: bcad 2cbb 8084 feba 0052 3482 01c2 04bb
00000200: 2ca5 8cbb 8b11 97bb 10f5 e1bb c309 ab3b
00000210: 72eb b9bc d886 c63b 21dc a238 e8e5 40bb
00000220: fc32 303b e8b5 d53c bb69 dbbb e563 6bbc
00000230: a9f7 9aaa 1974 d2a7 1828 bd3a 5e6c c7ba
00000240: dd97 0f3c a90f 503a 4cfd 77bc eed3 a03b
00000250: 453d a23a e318 f1ba b245 013b c27c 22bc
00000260: c895 223a f540 e03b 9a5e 083b f6bc 9fbb
00000270: a1ed 213a e055 95bb 5963 293a b1bf 74b6
00000280: b4f7 d53b 8717 81bc d302 b3ba 67f2 1b8d
00000290: a04b feba 6a62 89bb 08ca 603c 17fb 513b
000002a0: a397 23bc 0e03 0c3c c810 b3bb c597 833b
000002b0: 2a2b 63bb c2b8 23bb a064 25b8 014c 0b3b
000002c0: 36f0 2bb9 29e0 503b 2918 0dbb 40b7 7682
000002d0: c0de 723b 72ec b63b c7f6 55bc 9a4f c9ba
000002e0: 88cf e33a 0026 90bc b135 073c f3c0 b83a
000002f0: c622 09b9 e40f 2bbb 3ccb 0103 d498 b2ba
00000300: ff2b 02bb 0ee8 8a3b 10c3 f5ba 7b29 2bbb
00000310: 098c 12b4 89c9 88ba 4834 33bb ae88 86bc
00000320: 19e0 dc3b 2a4b 6f3b 6cb6 833a 7f0d 2dbb
00000330: a4b3 5bbb afa8 013b a915 ecb6 eec0 94bb
00000340: d14d d0ba b66c 012e 6d50 a8bb e668 3e3b
00000350: 4591 983b 7414 153a d811 203c 3dcb 92bb
00000360: d0d8 b839 2810 91bc e0d1 7bbb 22a3 543c
00000370: dc3a eb3a 8126 353b 332e 8bb9 5e94 3c3b
00000380: ea33 c53b 2424 bdba 17b2 e23b e436 b3b4
00000390: 6ee8 a33b af2a 163b 0e00 743b f5a7 d682
000003a0: a800 a43b 1f69 85a6 dcb9 023b 2936 6d35
000003b0: 89a2 0203 aaa3 8d3b 6024 d2bb d84a e8bc
000003c0: 22e5 113a bf00 1cb9 fc1d fba1 ecc6 bbbb
000003d0: 792b 313c 5759 d0bb 8856 caba 5d49 d33b
000003e0: 85fa cabb 19f3 38bc 0922 b03b 8453 8abc
000003f0: 8a82 1cbc aae0 5eb9 1e5a fa82 2afc 9e3c
0.0007979244 0.002233401 -0.0126435105 0.01165404 0.02014929 0.00830752 0.004055456 0.00079557666
-0.015328171 -0.00553782 -0.008219613 0.004910212 2.823995e-22 -2.0976877e-22 0.001806103 -0.007126785
0.0069742547 0.0028889684 0.02666038 0.0023966953 -0.0016507705 -0.0012813123 -0.0074550794 -0.004109314
0.0031713732 -0.007626754 0.0035013442 0.0012755183 -0.0016739473 -0.0022190548 0.0028526576 1.2994517e-08
0.00041301112 -0.001186015 0.0011280972 9.635246e-20 -0.0019663526 -0.009443835 0.00071707665 -0.0035655075
0.012895161 0.001995146 -0.004719026 0.0075287167 -0.014586261 0.0013187496 -0.0029579133 -0.00074337877
-0.00056758197 0.00046621167 -0.0050967266 -1.8910868e-37 -0.0007704313 0.0048214616 -0.005728806 0.004541053
0.0019546573 -0.016713116 0.0051165842 -0.012016486 -1.4924597e-13 0.00086830376 1.4515336e-37 0.0013975933
0.00018745393 0.0021003438 -0.0057972874 -0.0060009435 -1.6523668e-12 0.0036757872 -0.008190989 0.012249217
0.0040001976 0.000808599 0.0011417675 0.0028903622 0.00058851903 0.005787451 -1.6830368e-06 0.0011539924
0.001005349 1.5042024e-14 0.0042598187 -0.006711689 0.0074046 -0.0025147258 0.007509506 0.0008978494
0.0032721881 -0.0075482875 -0.004474243 0.001163803 -0.0020600762 -0.0026918307 -0.004911423 -0.0042477674
-0.0066025667 0.0058424096 0.0021190632 3.8525134e-09 0.0018971438 -0.015053184 -0.002643291 -8.480506e-37
-0.0028582597 -8.4153793e-16 -0.0012350164 -2.874546e-08 1.3214157e-37 9.6793214e-05 0.0043002353 0.0133387465
-0.009479161 0.007006466 -1.0678811e-17 0.0063546784 -0.0048794704 -0.009752576 -0.0034985675 -0.0037355425
0.00023364022 0.0018487074 -0.007514721 -0.0023417487 -0.002634867 -0.001941815 -1.3247844e-37 -0.0020257237
-0.004292151 -0.0046102456 -0.006895669 0.0052196695 -0.022695277 0.006058555 7.765764e-05 -0.002943391
0.0026885858 0.026087716 -0.0066959537 -0.014367078 -2.7527744e-13 -5.8412582e-15 0.0014431505 -0.0015214791
0.008764234 0.0007936904 -0.015136074 0.0049080765 0.0012377879 -0.0018394258 0.001972538 -0.00991744
0.0006202129 0.006843681 0.002080834 -0.004874821 0.0006177072 -0.0045573562 0.00064616423 -3.6470412e-06
0.0065297727 -0.015758289 -0.0013657458 -4.8054844e-31 -0.00194012 -0.00419264 0.013720043 0.003204053
-0.0099848835 0.00854565 -0.005464647 0.004015895 -0.003466318 -0.002498195 -3.943278e-05 0.0021255019
-0.00016397316 0.003187189 -0.0021529293 -1.8125816e-37 0.003705904 0.0055823857 -0.013059325 -0.0015358806
0.0017380575 -0.017596245 0.008252547 0.0014095589 -0.00013078292 -0.0026102 3.8142994e-37 -0.0013625869
-0.001986265 0.004239089 -0.001875015 -0.0026117254 -1.3648254e-07 -0.0010436039 -0.0027344394 -0.016422596
0.0067405817 0.0036513307 0.0010048873 -0.002640575 -0.0033523822 0.001978438 -7.0358697e-06 -0.0045396006
-0.0015892332 2.942776e-11 -0.0051365406 0.0029054224 0.0046559894 0.00056869467 0.009769879 -0.0044797943
0.00035256753 -0.0177079 -0.0038424656 0.012978347 0.0017946619 0.0027641358 -0.00026546567 0.0028774957
0.0060181515 -0.0014430326 0.0069182026 -3.3381286e-07 0.005002073 0.0022913625 0.0037231478 -3.1540876e-37
0.005004961 -9.257222e-16 0.0019947207 8.8368193e-07 3.8390148e-37 0.004322489 -0.0064130276 -0.028356
0.00055654545 -0.00014877597 -1.7016358e-18 -0.0057305004 0.010813587 -0.0063583064 -0.0015437165 0.0064479546
-0.006194415 -0.011288428 0.005375151 -0.016885526 -0.009552607 -0.00021255264 -3.6785923e-37 0.01940735

fc_mu.bias f4 [8]
00000000: 339b e33b 67de f63c bed4 17bc 5d5d f8bc
00000010: 3421 7b3c 34a1 ccbc e12e dabc 8f6b b5bc
0.0069459914 0.030135347 -0.00926703 -0.030317957 0.01532774 -0.024979211 -0.026633682 -0.022146014

fc_logvar.weight f4 [8, 128]
00000000: 09bb 7d3b c298 b239 3f27 0b3b 4258 463a
00000010: a2a1 4b3b da55 a4ba 8e92 6d3a d360 86ba
00000020: 0f1a 673b aed9 34bb 9a6b 23b9 de1a 85ba
00000030: da33 f782 38b5 2a82 141f 13bb 1711 1aba
00000040: 168c 14bb e0fc d839 0901 2ebb a2e2 18ba
00000050: abff 6338 3c76 003a 4b5b cf38 8b8f 233a
00000060: f192 3d39 cd88 243b e626 053b 6c93 a5b9
00000070: 7e97 4cb9 c918 6c3a 8829 4dba 10a1 8a21
00000080: 25ba 97ba cd13 193b f954 08b9 3584 1082
00000090: 1c5e d839 77b3 c73a 2e5b e3ba 8df9 5bb9
000000a0: fd96 7e3b 7d4f 743a f463 02ba 0476 bcb9
000000b0: ae1e 65ba a890 8bba 0c89 ad3a 4324 413a
000000c0: 8a76 3f39 cc0a c7b9 4ce3 f837 08d7 1282
000000d0: 2d59 7b3a fb75 e2b8 44dc 273a 5847 d73a
000000e0: 59fa 3e3a 14b2 67bb c772 3abb 6d25 b839
000000f0: fc7a 6422 3a8f 023b ac9d e481 a253 893a
00000100: c136 2db7 ef96 a0ba 4048 07ba 3d86 d2b9
00000110: 7e8c 8d03 c185 9539 1a2c 93b8 ea88 00b9
00000120: 88cd e5b9 dba7 41b9 c229 f8b9 4b0c 243a
00000130: 90e6 03bb ef9d cfba 1647 68b2 8860 933a
00000140: 2a85 973a bf29 ed82 0fc8 1c3a dd8e 403b
00000150: 12e5 9b39 d8a1 2fbb feb8 ebba 5914 0b3a
00000160: 5250 39bb b4a7 013b feb0 90ba 1e0d 1cba
00000170: 7e5b f5b8 1d49 ae3a 9c14 88ba 5fa8 583b
00000180: 1bd3 bcb9 7ae2 d0b9 c352 04ba 4f8a 821b
00000190: 7636 2d3a 690b a5bb 280b bfb9 acff 0283
000001a0: 9412 5838 9c24 ed82 f614 8eba ae40 4d30
000001b0: b35b 2401 0f7a 853a 3726 503b b021 c43b
000001c0: 9cea 5aba 0f6a 7fb9 d518 4f83 bb59 cd37
000001d0: 9552 a9ba 3952 41b8 bf07 baba c2fd 0b3b
000001e0: d5ca 1039 4575 93ba 9037 f2ba dfd8 863a
000001f0: 7fdd 7b39 067f 423a ff14 a501 00a7 dcb9
00000200: b2b4 dfba 3556 4539 0b16 6eb8 90cc 1cbb
00000210: 4a21 e3ba 4807 993a 452d da3a 3ad2 953a
00000220: 4b3f 013c 9293 7d3b 7301 dfb8 3b33 d2bb
00000230: 6ef5 ea82 2bec f382 d378 3d3a f4b3 893a
00000240: 8e50 e9b9 2ff5 403a e494 8cbb 7d83 b4b9
00000250: f7c9 a6ba fd6b d036 5c71 10bb 9b01 573a
00000260: a057 8eb9 4d6e 423b b599 b53a 9c4e 2e3b
00000270: 705f 8038 280d 013a 9155 14ba 9b27 7e16
00000280: 62b1 633b 22c8 49bb c21d fbb9 28e0 f981
00000290: cf7d 2e3a 6854 ecba 1ad7 8d3a affc 4d39
000002a0: 1ecc a1b9 19ca b33a a731 94ba d9cf f7b9
000002b0: c071 18ba 9c81 e9ba 8413 bab9 c1a9 d6b9
000002c0: fa3c 39ba a89c a3b8 80a0 84ba af9a 2202
000002d0: b4b5 0e3a 1c59 29ba 407f 263a 5c53 6139
000002e0: f0b5 b239 3c65 81ba f04a 96bb 97d4 2939
000002f0: d06b 34a4 8d54 033a 9a40 8b81 aa60 ca3a
00000300: 2db9 06b7 f54e a13a b48c 1438 faf9 1237
00000310: da45 9183 b614 653a c097 c33a 60df 0cbb
00000320: b5a7 32bb 8c61 83b9 337b 1bb8 0d59 62b9
00000330: d51a d23a 8dc5 4fbb 3a68 7632 029f ddb9
00000340: 5ad0 ce37 9fcc e482 89e4 e6ba e7aa 193a
00000350: 6f1c 77bb 7d67 c1b9 ff80 02ba 7d6f 2a39
00000360: 59d5 b9ba 11bd 3e3a 3d7e 3b3a 2714 183b
00000370: 42ae 25ba e802 793a 81cc c539 dd9b 7d3a
00000380: 2e42 9ab8 3822 cfb9 4f54 aaba 0e56 9912
00000390: 0bd0 603a 12fb 92ba 4e53 bab9 2838 a702
000003a0: 2d94 453a 7c32 e802 995e 2aba fe64 7dae
000003b0: cbbe 6402 02e2 a73a b063 b438 c445 92bb
000003c0: 9c94 4fb8 1e07 ba38 c2db 9403 838c feb9
000003d0: c90b 793a 862c 173a b1e4 3c3a bf74 2abb
000003e0: 6d1d c939 5538 10ba 8f32 9db9 3f03 87b8
000003f0: 9348 31ba 7cac 6d3a 46b2 0b02 0497 fb3a
0.0038716218 0.0003406462 0.002123311 0.0007566252 0.0031071682 -0.0012537793 0.0009062671 -0.0010252245
0.0035263335 -0.0027595568 -0.00015584976 -0.0010155102 -3.632315e-37 -1.2541635e-37 -0.0022448944 -0.00058771804
-0.0022666506 0.00041387137 -0.002655091 -0.0005832111 5.4359127e-05 0.0004900431 9.887534e-05 0.0006239346
0.00018079185 0.0025105954 0.0020317375 -0.0003158109 -0.00019511391 0.0009006379 -0.0007826318 9.393877e-19
-0.0011575861 0.002335775 -0.00013001625 -1.0617391e-37 0.00041268847 0.001523598 -0.0017345899 -0.00020978432
0.003884732 0.0009319706 -0.00049740006 -0.00035946083 -0.00087402284 -0.0010647969 0.0013239696 0.0007367769
0.00018259339 -0.00037964282 2.9669747e-05 -1.0788097e-37 0.00095881784 -0.00010798495 0.00064033666 0.001642446
0.00072852295 -0.0035353946 -0.002844976 0.000351231 3.096487e-18 0.0019921795 -8.398022e-38 0.0010477195
-1.0324352e-05 -0.0012252013 -0.00051606074 -0.00040154337 8.319491e-37 0.0002851915 -7.017721e-05 -0.00012258036
-0.00043831416 -0.00018468445 -0.00047333358 0.00062579353 -0.002012644 -0.0015839915 -1.352034e-08 0.0011243979
0.0011560072 -3.4847981e-37 0.0005980739 0.0029382028 0.00029734574 -0.0026799347 -0.0017984209 0.0005305461
-0.0028276634 0.0019783797 -0.0011039076 -0.00059528823 -0.00011699552 0.0013296936 -0.0010382119 0.0033059341
-0.0003601544 -0.0003984159 -0.0005047733 2.1596076e-22 0.00066075416 -0.0050367606 -0.0003643867 -3.8497063e-37
5.1515715e-05 -3.4845033e-37 -0.0010839987 7.467048e-10 3.0187834e-38 0.0010183471 0.003176106 0.005985461
-0.00083509996 -0.00024358205 -6.086034e-37 2.4479688e-05 -0.0012918288 -4.609136e-05 -0.0014192982 0.0021360968
0.00013808471 -0.0011250159 -0.0018479694 0.0010288021 0.00024019739 0.00074194407 6.0641555e-38 -0.00042086095
-0.0017067401 0.00018819499 -5.676415e-05 -0.002392564 -0.0017328646 0.0011675144 0.0016645571 0.001143045
0.007888625 0.0038692695 -0.000106337386 -0.0064147986 -3.452408e-37 -3.5841195e-37 0.0007227782 0.0010505901
-0.0004450124 0.0007360754 -0.00429021 -0.00034430242 -0.0012724985 6.2114545e-06 -0.0022040224 0.00082018384
-0.00027149636 0.0029667795 0.0013855012 0.0026597148 6.121292e-05 0.000492292 -0.00056585023 2.0530454e-25
0.003474318 -0.0030789454 -0.00047896622 -9.17898e-38 0.000665632 -0.0018030526 0.0010821552 0.00019644455
-0.00030860392 0.0013716846 -0.0011306301 -0.0004726637 -0.000581529 -0.0017815116 -0.00035491225 -0.00040943737
-0.0007066276 -7.801625e-05 -0.0010118634 1.1946272e-37 0.0005443946 -0.0006460117 0.0006351359 0.00021488726
0.0003408636 -0.0009872089 -0.00458657 0.00016196292 -3.91226e-17 0.00050098525 -5.1153235e-38 0.0015440185
-8.030137e-06 0.0012306856 3.541699e-05 8.76048e-06 -8.538371e-37 0.0008738743 0.0014922544 -0.0021495447
-0.0027260606 -0.00025058945 -3.7069618e-05 -0.00021586214 0.0016029725 -0.0031703443 1.4342783e-08 -0.00042270875
2.4654135e-05 -3.3619036e-37 -0.0017615716 0.0005861953 -0.0037706157 -0.00036888933 -0.00049783284 0.00016253996
-0.0014177962 0.0007276098 0.0007152295 0.002320537 -0.0006320217 0.0009499029 0.00037727135 0.00096744095
-7.355619e-05 -0.00039507612 -0.0012995097 9.676872e-28 0.00085759227 -0.0011213741 -0.0003553875 2.4570677e-37
0.00075370335 3.4118313e-37 -0.00064990815 -5.761524e-11 1.6805549e-37 0.0012808444 8.601637e-05 -0.004463883
-4.949105e-05 8.870497e-05 8.749112e-37 -0.00048551345 0.00095003523 0.00057668274 0.00072057085 -0.0026009528
0.0003835963 -0.0005501558 -0.00029983043 -6.437906e-05 -0.00067628286 0.00090665347 1.0263269e-37 0.0019194786

fc_logvar.bias f4 [8]
00000000: e09c d2b9 d608 dc3b 4ef6 f63a 12f7 e6bb
00000010: 46a4 10bc ac2c 8cbc 6623 50be cccd 92bc
-0.00040171202 0.0067149205 0.0018841715 -0.007048496 -0.008828228 -0.017111145 -0.20326003 -0.017920397

decoder.0.weight f4 [128, 53]
00000000: 0526 883c fa21 85bc 5cd5 68bb 7de6 853b
00000010: bb04 9dbc 909d d6bb 00c2 e3bd e2f1 4dbc
00000020: 55eb 5c3b ffd5 ffbc a173 84be a144 9fbd
00000030: 9b5c 1f3d b2f6 83bc 4a5c 4abc a90e 953d
00000040: fd70 d03d 9866 81bd 6e5e 52bc 34c5 de3d
00000050: 460a 843d 39b4 33bd 1372 55bd 18d6 e4bd
00000060: 61f3 52bd 6bc4 61bd c421 c1bc 26df 36bd
00000070: f217 65bb f9b0 31be 4048 793c 016b 01bd
00000080: 57a2 8cbd 4a5c 2abd cc3f b2bd 3f07 3d3d
00000090: fd62 71bd f4cd 8c3d 6bf1 fabb e476 0dbd
000000a0: 01d1 c23c c2ac 08bd 18db 26bd 9a5f 5ebb
000000b0: 36fd 9a3c 6699 413a 15da 903d f654 0f3d
000000c0: cde2 e53c 77cf 4fbd f80b ae3d 990b 79bd
000000d0: 52fc e9bc e377 fc3c 3a87 033b 8bb1 bd3c
000000e0: 06ba 1e3b 3ff1 1c3d eaa0 c3bc dce3 623e
000000f0: d262 e93b 2e1e 24bd 482c f8bc f1aa 543e
00000100: 61cb 79bd 7831 c8bb 3f45 9fbd b03a 8e3d
00000110: b5fd 4e3d 7cf5 78bb a063 a13c 9c1f 7d3d
00000120: 2210 0dbe 7576 be3d b9a9 d33d 6e3d 453d
00000130: 318c 20bd c8c5 c23c f6e0 16bc e32a 113d
00000140: 4fc6 ea3b 27ef 813c 9c60 87bd 5664 c93c
00000150: db2a bb3c 9a19 a4bd fabc abbd 3d3a 0cbe
00000160: ff4f f83c 5d50 c6bc a76c 0ebb 136d 2a3c
00000170: dc28 6dbd 5604 8ebd e4d8 96bd b1a2 e93b
00000180: 63bb 79bc 136d 2a3c ecaf d7bc 09e8 81bd
00000190: b500 aabc 5568 48bc c050 52bd 4099 5dbd
000001a0: 8915 0abc cd7f 723c 90e1 38bc cff3 063c
000001b0: 9b09 a0bb 36f5 0f3b 62ed 84ba 6640 853c
000001c0: 41d1 dcbd fd46 133c b5f2 73bb 4076 3c3c
000001d0: acaf bfbe 6f82 e43b c854 ebbd 0f34 8d3d
000001e0: 314f 803a 29d7 02bd b984 70bd 4fb5 cf3d
000001f0: 6283 4b3d bcb4 8fbd 490c 17bd 87c5 b83b
00000200: e2ff bc3a d873 1d3d ffdc 9a38 4745 58bd
00000210: 5627 93bd eafd 15bd 9c89 40bd e9cf a23d
00000220: dbde f9bd 4569 333d 485b 1d3e 1811 323c
00000230: b237 223e a966 a63c e090 a6bc bcfe 743d
00000240: bd59 593d fd0d ac3d 04d2 70bd acf6 083d
00000250: a814 a93d e5d5 423d 3cf3 943d 6f38 903d
00000260: 5833 1f3d 8cc5 52bd 5b0d 6e3d ff6d d23c
00000270: 41ce 8f3c 8401 05bd 5584 183d f6b2 483b
00000280: 319c f0bb a2c8 693b 663e d13a 101d bc39
00000290: 3bc8 09ba 985a f8bd a4eb 673b 3136 58bd
000002a0: 0741 503b 6568 e6be 5658 7b3b a618 063e
000002b0: 7d37 c13c 2b58 8e3d f412 993d 8b89 75bd
000002c0: bde5 aabd 6122 08bd 62ea 2a3d 1c0c 1f3b
000002d0: 800f f83d df55 4dbd 4481 cdbb 2426 1abc
000002e0: 5b53 d63d a962 ee3d 685c 993d 5def d0bd
000002f0: 1358 f43d ad42 463d 8fdd a53c 8c5a 2ebd
00000300: 50c4 a1bb 42d4 263a 01f6 1dbc 5d4e b73c
00000310: 3546 923d bd52 b2bd a3d5 3b3d 2b7e e3bd
00000320: a91d 853d 4f72 b7bd cd54 1a3c 167c b73d
00000330: a0ea 4fbd 8899 72bd 8181 21bd 7f33 d63d
00000340: 9dcf 00bd bd51 39bd c7af 663d 7367 3fbd
00000350: 7b1f d939 740f 6e3a e501 19bc 1fc2 4ebb
00000360: 0978 ba3a 21ff 1bba 5d34 8c3e 6de1 893b
00000370: 1a80 073d 7cbc 6f3d 9984 40be 431a ce3c
00000380: f246 0abe 164c 59bd 2064 b7bd 9c2f 163e
00000390: 3ee2 bbbc 1915 29bd bd45 2c3d 2ca6 8dbc
000003a0: 6827 0bbc b978 93bd 4099 623c 969c f5bc
000003b0: 4ac5 c9bc c1cf 83bd 4774 8c3b e893 8dbd
000003c0: 38de 0ebd 9ae5 a9bc fa8e 793d b9c9 f0bc
000003d0: 81ce f33d b28b 073e 6563 48bd 9622 15be
000003e0: a397 dcbb b2bd 37bc cf22 47ae f2e0 63bd
000003f0: 3a74 95bd bcca 97bc 3b1f f4bd 46e8 673d
0.016619692 -0.016251553 -0.0035527563 0.0040863142 -0.019167295 -0.0065495446 -0.11120987 -0.012569876
0.0033709605 -0.031229971 -0.25869468 -0.07776762 0.038906675 -0.016108844 -0.012351105 0.07278187
0.10177801 -0.06318396 -0.012839897 0.10877457 0.06447272 -0.043873046 -0.052110743 -0.11173648
-0.051501635 -0.05511896 -0.023575671 -0.044646405 -0.00349569 -0.17352666 0.01521498 -0.031596188
-0.06866901 -0.04159192 -0.087035745 0.04614949 -0.058932293 0.0687522 -0.007658174 -0.03453721
0.023781301 -0.03336788 -0.040736288 -0.0033931495 0.018919569 0.0007385224 0.07072846 0.034993134
0.028062249 -0.050734963 0.084983766 -0.060802076 -0.028562699 0.030818885 0.0020069615 0.023155948
0.0024219765 0.038316008 -0.02388044 0.22157234 0.007122376 -0.040067844 -0.030294552 0.20768334
-0.060984973 -0.0061094128 -0.077768795 0.069447875 0.050534923 -0.0037988117 0.019700825 0.061797723
-0.13775685 0.09299938 0.103351064 0.048154287 -0.039196197 0.02377595 -0.009208908 0.03544129
0.0071647535 0.015861107 -0.06610224 0.024583977 0.022847584 -0.080126956 -0.08385654 -0.13694091
0.030311583 -0.024208242 -0.0021732242 0.010401982 -0.057900295 -0.06934421 -0.07365587 0.00712999
-0.01524243 0.010401982 -0.026329003 -0.06343085 -0.02075229 -0.012231906 -0.05134654 -0.05410123
-0.008427986 0.014800978 -0.011284247 0.008236839 -0.0048839576 0.0021966225 -0.0010141546 0.01626606
-0.107820995 0.008989093 -0.0037223522 0.011502802 -0.37438715 0.0069735567 -0.1149078 0.06894695
0.0009789226 -0.031943474 -0.058720324 0.10142004 0.049685843 -0.07016894 -0.03687695 0.0056387815
0.0014419521 0.038440555 7.384456e-05 -0.052800443 -0.07185237 -0.036619104 -0.047006235 0.07949812
-0.122007094 0.043801565 0.15366852 0.010868333 0.15841559 0.020312624 -0.020332754 0.059813246
0.053064097 0.084011056 -0.058794037 0.03343837 0.08255893 0.047567267 0.07272956 0.07042014
0.038867325 -0.051457927 0.058118206 0.025687216 0.017554404 -0.03247215 0.037235577 0.0030624247
-0.007342838 0.0035672565 0.0015964031 0.00035879808 -0.0005255972 -0.121266544 0.0035388255 -0.052786056
0.003177704 -0.45001522 0.0038352213 0.1309534 0.02358603 0.069504105 0.07474318 -0.059945624
-0.083446 -0.03323591 0.04172743 0.0024268692 0.121123314 -0.05013072 -0.006271513 -0.0094085075
0.104651175 0.11639912 0.07488328 -0.10201905 0.11930861 0.04840343 0.020247249 -0.04256682
-0.0049367324 0.00063640263 -0.009641171 0.022376234 0.07142297 -0.08707187 0.045858037 -0.11108049
0.06499798 -0.089573495 0.009419632 0.089592144 -0.050760865 -0.05922845 -0.039430145 0.10459041
-0.031447995 -0.045243967 0.056319978 -0.046729516 0.0004141292 0.0009081282 -0.009338831 -0.003154881
0.0014226447 -0.0005950798 0.273837 0.004207781 0.03308115 0.058529362 -0.18800582 0.025159007
-0.13503626 -0.053051077 -0.08954644 0.14666599 -0.02293503 -0.041279886 0.042058695 -0.017291151
-0.008493282 -0.072007604 0.013830483 -0.029981893 -0.024630208 -0.0643611 0.0042863223 -0.069129765
-0.034879893 -0.020739365 0.06092737 -0.029393064 0.11904622 0.13236883 -0.048922915 -0.14563975
-0.0067319437 -0.0112146605 -4.5278278e-11 -0.055634446 -0.07297559 -0.018529288 -0.11920019 0.056617998

decoder.0.bias f4 [128]
00000000: 471a cebd eb98 f3bd 0f50 063e fe31 12bc
00000010: 209d 10be 973f a0bd 78ef 97bd 275a 17be
00000020: c815 9a3c 80cc d2bd f891 58bc c0bf bcbd
00000030: 2088 84bd c9de 65bd 295d ff3d 4331 883c
00000040: 570e 4cbe 8202 9ebd bb8d 92bc fb2b cfbd
00000050: f4b1 943d 0be9 393e f093 6f3d 016a 8abd
00000060: ef94 66bc 12da e5bd a117 233d 68f5 cdbd
00000070: 9553 4ebd a49d dd3c 4c4b b7bd fc6f bd3d
00000080: fc06 e83d 2d9c ca3d 5a4d 96bd 1f6f ad3b
00000090: f4fe 663e 420d 8c3c 943c f43c 7f95 46bc
000000a0: ef25 463b 893e c8bd fb7d 07be e881 7e3c
000000b0: 7d2d a43d e7c7 2d3e 13df 16bd 3e61 bebd
000000c0: adca f23d 9e7f e23c 4210 4d3d 0adc a53c
000000d0: 7dd1 8c3c b603 b4bd 8ae8 053e c9f8 ae3d
000000e0: 5c8c a73d 462d 123e f3b2 2ebe b34a acbd
000000f0: 6088 fc3c d1ef 753e 19da a1bc 28e0 01be
00000100: 1e4c 193d de2d f5bd a02d 9abd 4e7c 363e
00000110: 1917 b83d dff0 c5bd dd5a abbd 6c46 10be
00000120: 9ad8 0d3e 7c0f 51bd afc7 153e ccc4 0a3e
00000130: 1110 383d 7ae4 3c3d cb3b 9e3d d97b bb3d
00000140: 2f41 e4bc e5c6 04be 4b85 963d 383d 033e
00000150: c9e2 7fbd 42e0 073e 23d3 b1bd c1cd 97bd
00000160: f57d 383e d245 dfbc 0184 673d 220f 9dbd
00000170: 7f59 c2bd 3d95 1e3d 48b3 07be 2cc5 753c
00000180: f3a0 0a3e 043e 363c 0be0 e4bd 8afe a63d
00000190: 7ec6 843d 42f8 8b3d 058e 573d 6aa9 083e
000001a0: eaf9 e43c 5c46 d5bd c9a6 9dbd 3861 313d
000001b0: bfdb 203e c6f5 ba3d 3f5e 30bc 7fde f7bd
000001c0: d078 01bd 461b 42be 1c8b 46bd 1980 95bd
000001d0: d11b 4a3e afaf 423d da20 cabd 266d 0ebd
000001e0: 0e96 46be 1543 5abd 7adc 17be 356c a93c
000001f0: 2e7c 683d ada9 223e d60e 90bc c2df 2abd
-0.10063606 -0.11894401 0.13116477 -0.008923052 -0.14122438 -0.07824629 -0.07418722 -0.14780484
0.018809214 -0.102929115 -0.013218395 -0.09216261 -0.06471276 -0.056120668 0.12468941 0.016625052
-0.19927345 -0.07715322 -0.017889848 -0.101158105 0.07260504 0.18155305 0.058490694 -0.067585
-0.0140735945 -0.11223234 0.039817456 -0.10056573 -0.05037268 0.027052708 -0.089499086 0.09249875
0.11329457 0.098930694 -0.073389724 0.0052927877 0.22558194 0.017096166 0.029814042 -0.012120604
0.0030235013 -0.09777553 -0.13231651 0.015533902 0.08016489 0.16970788 -0.036833834 -0.09295891
0.118550636 0.027648743 0.050064333 0.020246524 0.017189736 -0.0878977 0.13076988 0.08543546
0.08181068 0.14275083 -0.17060451 -0.08412685 0.030826747 0.24017264 -0.019757317 -0.12683165
0.037426107 -0.11971639 -0.075282335 0.17820856 0.089887805 -0.09665083 -0.0836694 -0.14089364
0.13852158 -0.051040158 0.14626954 0.13551635 0.044937197 0.04611633 0.07726248 0.091544814
-0.027863113 -0.12966497 0.07349642 0.12816322 -0.06247214 0.13269141 -0.08682849 -0.07412291
0.18016799 -0.027254973 0.056522373 -0.07668902 -0.09489726 0.038716543 -0.13251984 0.015000623
0.1353796 0.011123184 -0.11175545 0.08154018 0.06483172 0.06834461 0.052625675 0.13345876
0.0279512 -0.104138106 -0.07697827 0.043305606 0.15708826 0.09128909 -0.0107646575 -0.12102985
-0.031609356 -0.18955716 -0.04847251 -0.07299823 0.19737174 0.047530826 -0.09869547 -0.03477206
-0.19393179 -0.05328663 -0.14830199 0.02068148 0.056759052 0.15885039 -0.0175852 -0.0417173

decoder.2.weight f4 [128, 128]
00000000: f62d 953d cb79 78bc dd19 48bd 5d81 383c
00000010: 27b7 e23c 9939 0ebd f58f babb 2bb9 02be
00000020: 9dd3 ed3c fedc 143d 9cb5 c2bb 2e84 783d
00000030: 3fca 223d d82e 2b3d c557 713c f6f7 09b7
00000040: d24b 5cbe e758 36bd adab bb3c 160b ca3c
00000050: 293c be3d 62b3 39be 642c 8f3d 29d0 653d
00000060: c786 d0bc a7b7 023e 2b97 b6bb 3f61 9c3c
00000070: 2aec 04bd 8fe9 2bbc d321 53bd c531 8dbd
00000080: d552 8ebd db51 83bd 42f2 173d 79f4 8ebd
00000090: ef46 8ebd 5098 63b8 1b4f 71bb 11f5 44be
000000a0: 2bf6 723c ad83 913d 4ee5 fcb9 481e fcbc
000000b0: 7ad4 0cbd 33aa ea3c ab46 153c a382 773d
000000c0: 662e 50bb 97ef dc3c 45ef 423d 848d 8c3d
000000d0: 2d27 453a fe9c b5bb e6ce cd3c c29a 10bd
000000e0: d867 11bd a0f0 993c 59f4 54be 046a 89bc
000000f0: c035 9a3c fa59 5dbc 2529 4abc 4663 49bb
00000100: d9f3 d6bc d7b6 833d 115a 89bc 7091 bfbd
00000110: ed02 51bd f55f 9e3c adb1 a53d 9b6e 86bd
00000120: bde0 f53b f374 f03a fe72 a8bb 8c18 6bbd
00000130: 1c9e 5a3b 7042 4bba dfd6 293d 065d 953d
00000140: 8864 babd 6ff3 2abe 7842 2cbd 9a91 eabc
00000150: a695 be3d 893c 89bc bfaa 413d d528 aebc
00000160: 8ecd 13be f933 20bd 3f32 ef3d 59ed 6c3d
00000170: 718d 2b3c 0bc4 21bd 8233 adbb f8b9 a33d
00000180: 5d1a 07be 985d be3c 70e1 10bd d543 073d
00000190: 699a 57bd 7f6e 023d 7fd4 843c 82c1 31bc
000001a0: 8393 803d 2f47 17b9 752a 06bd 1983 e1bc
000001b0: e5fa 0fbd ee92 46bd fed5 11bd 0962 90bc
000001c0: e522 173c 616c e7bc 7666 773d 20a4 5dbd
000001d0: 3e6b e43b 9ce8 8bbd 9810 5c3d b0f7 6abd
000001e0: ef13 733b a789 bebd faf6 dc3c 06ed 91bc
000001f0: ffac 923d 9714 303d c198 803d c0a3 3bbd
00000200: 28c3 ff3c 036d 9ebb 13ed 263d 76a4 87bc
00000210: 6e29 b4bc 450d e6bc 0547 963b c064 edbc
00000220: c7ea 72bd 05e7 f9bc ac18 ef38 45d4 0b3c
00000230: 7959 0abc 8ebf 1c3d e388 e1bc b2ab cbbb
00000240: a76e f1bc e463 48bd 8daf e13a ec18 9d3c
00000250: 82c2 ab3d 4d1c a6bd 8843 39bd 3e54 b53b
00000260: f7d3 133b 8924 393d 3059 6dbc 42a1 d73c
00000270: d441 60bd 1684 073d 8858 edbc 4ba6 413c
00000280: 4259 a33d acd1 14bb 09f8 30bd be73 80bc
00000290: 54ca 68bc 4103 f639 a0a6 04bd 6840 cabc
000002a0: f7f0 2d3d b07c 683d 0cf8 94b9 ea2a f03c
000002b0: 7bae 2dbb 5812 373b e799 0bbd 7e82 0c3d
000002c0: 43e8 5ebd f933 863c d7e7 113d efb7 563c
000002d0: 9ef0 1cbd e64e b1bc 9c29 43bd 6a8e 22bc
000002e0: 9407 243d fbb4 1ebc b49e 40bd e708 a63b
000002f0: aa21 98bb 4e6b f6bc 85f5 293c aea1 163d
00000300: 3c9d f9bc 27a4 01bd 07f6 7f3d 3979 efbc
00000310: 5248 b3bc 48c0 da3b 6c7d 02bd 90c7 44bc
00000320: 56c0 42bc c150 3abd eea8 7abd ce24 813c
00000330: 030f 513d 1e99 5f3c 9258 bc3d 9eb9 f0bc
00000340: 8723 0abd 8ad9 c0bc cf55 4bbd 7ffd aabc
00000350: 82d0 1c3d cd3e 66bd f9e8 22bd 96d8 a43b
00000360: bb3c 11be f7dc 2abd c8c8 5b3d 767b 103d
00000370: 64ef a0bc 63c0 48bd a979 25bc 60e2 153c
00000380: 82cd 1ebd 7717 b9b8 ee95 9bbc 595c 17bb
00000390: 05c5 3e3d 2ddd fcbc 38d1 303b 4588 a0bc
000003a0: f3cb f2bc 62c4 513c 9fe6 5abd 4996 4c3c
000003b0: c4ce f73c 8ad5 573c 5122 b7bb 9247 01bd
000003c0: 7e3b 39bd 6580 d5bc 073c a53d 1059 b6ba
000003d0: 41bf d6bc f2d1 2e3b 28f0 cebc d2de 423c
000003e0: ffa8 42bb 8033 063d 6acb c7bc f788 003c
000003f0: 811a ee3b 905d f53c 8b91 bb3c 1699 edbc
0.07284157 -0.015165756 -0.04885279 0.011261311 0.027675224 -0.0347229 -0.0056934305 -0.12765948
0.02903157 0.036343567 -0.0059420597 0.06067293 0.03974366 0.04179272 0.014730399 -8.223569e-06
-0.21513298 -0.044518378 0.02290901 0.02466349 0.092888184 -0.18134835 0.06990889 0.05610672
-0.025454892 0.1276537 -0.00557222 0.01908934 -0.032451786 -0.010492696 -0.05154593 -0.068942584
-0.06949393 -0.06412097 0.03709627 -0.06980223 -0.06947123 -5.426287e-05 -0.0036820832 -0.1923411
0.014829199 0.07105193 -0.0004823603 -0.030776158 -0.03438232 0.02864561 0.009111087 0.06042732
-0.0031765937 0.026969714 0.047591466 0.068629295 0.0007520791 -0.0055423966 0.02512307 -0.03530384
-0.035499424 0.018791497 -0.20796336 -0.016774185 0.018824458 -0.013510222 -0.012338911 -0.0030729338
-0.026239322 0.06431358 -0.01676658 -0.09353912 -0.05102818 0.019332865 0.080905296 -0.06564065
0.0075035975 0.00183454 -0.0051406613 -0.057396457 0.00333584 -0.00077537354 0.041464683 0.072931334
-0.09101206 -0.16694425 -0.042055577 -0.028633881 0.09305887 -0.016752498 0.047281977 -0.021259705
-0.14433882 -0.039112065 0.116795056 0.05784354 0.010470734 -0.0394936 -0.005285681 0.07994455
-0.1319365 0.023237988 -0.035371244 0.033023674 -0.05263749 0.03184366 0.016214607 -0.0108493585
0.06278136 -0.00014427 -0.032755334 -0.027528333 -0.03515138 -0.048479967 -0.03560447 -0.017624872
0.009224628 -0.028249921 0.06040045 -0.0541116 0.006970792 -0.06831476 0.053726763 -0.05736512
0.0037090739 -0.09303599 0.026973236 -0.017813217 0.07161903 0.042988386 0.062791355 -0.04581046
0.031220987 -0.0048347726 0.040753435 -0.016557913 -0.021992411 -0.0280825 0.004586103 -0.028978705
-0.059305932 -0.030505667 0.000114010036 0.008534496 -0.0084441835 0.03826862 -0.027531093 -0.006215536
-0.029471708 -0.048923388 0.0017218456 0.019176923 0.08386709 -0.08110867 -0.04523042 0.005533724
0.002255676 0.04520086 -0.014486596 0.02632201 -0.05475028 0.03308495 -0.028972879 0.0118194325
0.07976009 -0.0022707982 -0.043205295 -0.01568019 -0.014208395 0.000469232 -0.03238547 -0.024688914
0.04246613 0.056759536 -0.0002841357 0.029317338 -0.0026501704 0.0027934518 -0.03408232 0.034304135
-0.05442072 0.016382204 0.03562149 0.013105377 -0.038315408 -0.021644067 -0.047647104 -0.0099216495
0.04004629 -0.009686704 -0.04702635 0.005066979 -0.004642685 -0.030080464 0.010373478 0.036775284
-0.030470483 -0.03165069 0.06249049 -0.029232608 -0.021885071 0.0066757537 -0.031857893 -0.01201047
-0.011886677 -0.04548717 -0.06119626 0.01576462 0.051039707 0.013647346 0.09196581 -0.029385384
-0.033725288 -0.02354123 -0.04964238 -0.02087283 0.038284786 -0.056212235 -0.03977296 0.005030702
-0.14183323 -0.041714635 0.053658277 0.03527399 -0.0196454 -0.0490116 -0.010099807 0.00914821
-0.038770206 -8.825858e-05 -0.01899239 -0.0023095815 0.04657461 -0.030867184 0.0026980173 -0.019596228
-0.029638266 0.012803169 -0.053442594 0.012487003 0.03024996 0.01317347 -0.0055888076 -0.031562395
-0.04522275 -0.0260622 0.0806809 -0.0013912041 -0.026214244 0.002667543 -0.025261 0.011893945
-0.002970278 0.032763958 -0.024388988 0.007845155 0.007266343 0.02995184 0.022896549 -0.029003661
