models/cvae_L16_H256_B1.000_LR1e-04.pt (torch, 694173 bytes, 13 tensors)

encoder.0.weight f4 [256, 46]
000000 1a 50 47 bd 08 80 e5 bd 3b 2d 08 ba 5a 9c 92 be
       -0.048660375 -0.11206061 -0.0005194728 -0.28634912
000010 85 b8 65 bd 59 d4 38 3d 9f de 97 bd 90 c5 a5 bd
       -0.056084175 0.045124386 -0.074155085 -0.08094323
000020 8a e3 06 bd e9 a8 0a 3d b7 68 57 bd 56 ac cc bd
       -0.032931842 0.03385249 -0.0525901 -0.09993808
000030 0a 06 3a 3d 9e 57 20 3d 6e d1 81 bd 4f 9d f0 3d
       0.045415916 0.03914606 -0.06338774 0.11748754
000040 87 8b 7e 3c ac 82 9f 3d 2c bf 90 bd a1 48 2e bd
       0.015536196 0.077885956 -0.07067713 -0.042549733
000050 b4 3f a2 bd 4b 30 0d be 6c 8e 9e 3d 20 ae ac bd
       -0.07922307 -0.13787954 0.077420086 -0.08431649
000060 ea 56 02 3e 6b 6a 97 3d d8 02 02 3c b4 11 cc 3c
       0.12728468 0.073933445 0.007935248 0.024910785
000070 73 3c d2 bd 83 5b 12 3e a0 5e 33 bd 64 9e a4 3d
       -0.10265436 0.14292721 -0.043791413 0.08038023
000080 5d 1c bd 3d f1 f5 dc 3d 0f f8 e3 3d 57 5b 1d 3d
       0.092339255 0.10789097 0.11131298 0.038417187
000090 59 24 03 3d 16 6f 85 bd 61 72 d7 3d 26 17 1a bd
       0.032017086 -0.065153286 0.10519863 -0.037619732
0000a0 ac 7e 44 3d 36 ef cd bc dd 60 bd 3d a9 ec 32 3d
       0.047972366 -0.025138479 0.09246991 0.043682728
0000b0 dd b3 e3 bd 14 3f 99 3d be fc 87 3d 51 62 66 3d
       -0.111182906 0.07482734 0.066400036 0.056246106
0000c0 ee 35 b1 3d 4a 14 88 bc 9d 51 2b 3c 0e a6 cd 3d
       0.086528644 -0.016611237 0.01045647 0.10041438
0000d0 0b 2a 59 3c 54 3f 8c bd 14 41 ca 3d 52 0c 14 bc
       0.013254653 -0.068480164 0.09875694 -0.0090361405
0000e0 eb 3d 21 3c c9 c6 bf bd 8f de 56 3d 2c ca 3b bd
       0.009841423 -0.09364087 0.052458342 -0.045847103
0000f0 9e b1 aa 3d 04 dd 83 bd 9f b6 dd 3d cd a8 33 bd
       0.08334659 -0.0643864 0.10825848 -0.043862153
000100 8c 8c 25 3c 3f a8 6f bd 4d dc d9 3d f2 f8 71 bd
       0.01010431 -0.05851006 0.10637722 -0.059075303
000110 d8 82 30 3d fe 2d 01 3d d9 d8 d5 3c 02 0b ec bb
       0.043093532 0.031538002 0.026104378 -0.0072034607
000120 7c 48 fd bc db b8 22 3e bb 01 c8 3d 11 5a 0f 3e
       -0.030918352 0.1589083 0.09765955 0.13999201
000130 67 a8 6c bd d7 3d c5 3d 9c bf 52 bd 10 0b d3 3d
       -0.05777779 0.09630936 -0.051452264 0.103048444
000140 48 d0 c9 3d 6b 63 de bc 0b e5 8f 3d f6 6b 72 3d
       0.098541796 -0.027147016 0.07026108 0.05918499
000150 d6 70 26 bc 77 19 09 bd 65 7a 38 3d f5 a8 03 3d
       -0.010158738 -0.03347155 0.0450386 0.03214355
000160 8a 5a 2b bd b0 9b 0e 3e 07 88 8c 3d 0a c6 fb 3c
       -0.04183439 0.13926578 0.06861883 0.03073408
000170 86 54 0e 3d 48 51 c3 bd 4e d5 0d bc 73 36 47 3e
       0.034748577 -0.095369875 -0.008656813 0.19454364
000180 49 27 80 3d cd 63 bc 3c 44 68 da bc 8e c5 03 3e
       0.06257493 0.022996807 -0.026661046 0.1286833
000190 ad 16 4c bc d9 4a b7 bd 82 7f e0 3d 67 ea 18 3d
       -0.012456578 -0.08949823 0.1096182 0.03733292
0001a0 48 6a 43 3d bb 40 d4 3d b7 16 c6 3b 33 c0 14 be
       0.04770878 0.10363909 0.0060451883 -0.14526443
0001b0 c0 7d 71 3d 25 8d dc bd 6f b6 2f 3c 9d d3 80 3a
       0.058957815 -0.10769109 0.010724648 0.0009828691
0001c0 c9 e6 00 3d e3 6b e4 bd 7a 4f 0f be 74 a3 f1 bd
       0.031470094 -0.1115339 -0.13995162 -0.11798754
0001d0 2e 13 8d 3d 6d fd c3 bc a0 1b 13 be bc a4 a3 3d
       0.06888424 -0.023924554 -0.14366007 0.07990405
0001e0 0a 34 84 bd b5 a7 72 3d b9 7c c5 bc 20 8f 47 bb
       -0.06455238 0.05924197 -0.024107324 -0.00304503
0001f0 09 7f 80 3d 10 6b 8d 3d 19 09 85 bb 80 8a de bd
       0.0627423 0.06905186 -0.0040599224 -0.108662605
000200 61 12 33 bc 7a 53 94 3d ef e3 72 bd bf ac 4a 3d
       -0.010929675 0.072424844 -0.059299406 0.04948115
000210 7e c7 67 3d 3b 70 aa 3b 95 9e cd 3d 40 f8 ef 3c
       0.056586735 0.005201367 0.10040013 0.02929318
000220 bd b7 d8 bd ae 3c 30 3d d7 86 d1 3d 14 f9 1d 3d
       -0.1058192 0.04302662 0.10230797 0.038567618
000230 53 80 01 3e 68 30 16 3e 95 72 c6 3d 36 6f dc bd
       0.12646608 0.14666903 0.096898235 -0.10763399
000240 f1 78 09 3d c1 7b e1 3d 67 64 07 3d 8f 1d 86 bc
       0.033562604 0.11009932 0.033054736 -0.016371517
000250 f8 8c 9f bd 97 ca b0 bd a5 e8 9b bd d6 59 89 bd
       -0.077905595 -0.08632391 -0.07612733 -0.06706588
000260 71 dd 79 bd 9b ab 62 3d 8a eb 4e 3d 60 29 86 ba
       -0.0610022 0.055339437 0.050517596 -0.0010235719
000270 3c a0 dd 3d 08 43 00 be aa 79 63 3b 63 7c 9a bd
       0.10821578 -0.1252557 0.0034709969 -0.07543256
000280 56 c9 ea 3c ab b6 30 3d 33 d0 fb bd 6f e7 e4 3d
       0.028660458 0.043142956 -0.1229557 0.11176955
000290 09 6a 7d 3e b2 ec 66 bc 8c 69 a5 3d 41 a2 03 3c
       0.2474748 -0.0140945185 0.08076772 0.00803429
0002a0 85 4d 0e 3c de a6 0b 3b 85 f0 b8 3d 5e 95 12 3e
       0.008685474 0.0021309177 0.090302505 0.14314792
0002b0 e8 bf f3 3d 94 f9 04 3c d4 ba 83 02 49 7f 0b 3b
       0.119018376 0.008116145 1.9355954e-37 0.0021285585
0002c0 05 0a 85 82 da ff 94 bc 9b d0 74 3d 2a bc 0f bd
       -1.9548345e-37 -0.018188406 0.059769254 -0.035091557
0002d0 ba 22 00 3b 5f 9a 80 3c f8 8e 03 3c fb 41 0b 3b
       0.0019551949 0.01569861 0.008029692 0.0021249044
0002e0 20 6f 25 bd eb a2 a6 3c b9 eb ad 3d 7a 12 9a 3c
       -0.04038918 0.020341357 0.08492226 0.018807638
0002f0 20 9c 81 bd 33 d7 02 ba 1b d9 d5 3d ab 17 49 bd
       -0.063286066 -0.00049911736 0.104418 -0.049094837
000300 70 2c be bd d1 c3 03 be f7 bb 77 3d 97 28 63 b9
       -0.092858195 -0.12867667 0.06048199 -0.00021663528
000310 55 6e 11 3d 6a 98 c8 bd cc 8e 8a bb c2 a8 0a bd
       0.03550561 -0.09794696 -0.0042284485 -0.033852346
000320 b1 de 89 3d 11 2c 5e 3d fc 76 41 3d f4 86 7e bd
       0.06731928 0.054241244 0.047232613 -0.06214042
000330 f2 67 68 bd 08 3a 0a 3e 78 7a c1 3d 51 4b a1 bd
       -0.056739755 0.134987 0.09447187 -0.078756936
000340 8e 45 fc 3d de 99 61 3c 3a f4 80 bd f0 0e c1 3b
       0.12317954 0.013769595 -0.062965825 0.0058916733
000350 51 72 be bb 80 a5 52 bc 55 6f 78 bc 10 bb 8f bc
       -0.0058119674 -0.012856841 -0.015163262 -0.017545253
000360 0a a0 56 bd 7e c0 af 3d 96 a0 50 bc 76 fd 67 bd
       -0.05239872 0.08581637 -0.012733599 -0.056638204
000370 9d 6c 54 82 ac 36 33 bb 02 36 40 3c 91 d8 64 bd
       -1.5606471e-37 -0.002734582 0.0117316265 -0.055870596
000380 22 20 6f bd 9b d3 76 3d e5 b3 e0 3d a4 9a 90 bd
       -0.058380254 0.060260396 0.10971812 -0.07060745
000390 82 15 a5 3c 26 97 2e 3d 04 f9 45 be d5 f3 2a 3d
       0.020151857 0.042624615 -0.19333273 0.041736443
0003a0 7a 09 2c 3c 88 29 95 3d 0e 43 ba bd 80 de c7 bd
       0.010500306 0.07283312 -0.09094821 -0.097592354
0003b0 e3 7c 07 3e 52 8c 06 3d b7 0c fc 3c 36 9c 8a 3c
       0.13231234 0.032848664 0.030767782 0.01692019
0003c0 42 6b 93 3d cc be 2f 3d e2 fa 9f 3d 38 4b db 3d
       0.07198192 0.042906567 0.07811524 0.10707706
0003d0 81 05 d2 3c 33 f9 a1 3d bb 49 38 3d d8 db e9 3d
       0.02563739 0.07908859 0.04499219 0.11418885
0003e0 d0 34 dc bd 73 85 8c 3d c0 81 33 3b cd 12 20 bd
       -0.10752261 0.06861391 0.002739057 -0.03908043
0003f0 c7 3b 40 3d 8e df 81 bd cf eb 80 3d 75 31 f2 3d
       0.046932008 -0.06341468 0.06294977 0.118258394

encoder.0.bias f4 [256]
000000 47 22 89 bd 1f 06 fe 3c 7a bd fc 3d d2 a4 43 3e
       -0.06695991 0.031008778 0.12340827 0.19105843
000010 c0 ec 8b bd 84 14 0e bd 98 14 0c 3e 8d 17 05 3e
       -0.06832266 -0.034687534 0.13679731 0.12997265
000020 6c 78 a8 bc 7c eb 5a bd c8 8d 89 3d 7b 3f 93 bd
       -0.020565234 -0.05344723 0.06716496 -0.07189842
000030 71 9b 61 bc 32 dd 12 bd a4 eb a3 3d 26 91 d2 bd
       -0.01376997 -0.03585548 0.08003929 -0.10281591
000040 5a 1f cb 3d 91 85 a6 bd d2 7f 6c 3d 78 8e b1 bd
       0.09918089 -0.081309445 0.057739086 -0.08669752
000050 5d e4 40 3d a3 27 e7 3d 90 47 0a 3d a1 6c 84 3c
       0.047092784 0.11286857 0.033759654 0.01616508
000060 db a9 ce bd 42 1c b9 bd 43 2a e9 3c a5 39 3b bd
       -0.10090991 -0.09038593 0.028462535 -0.04570927
000070 db 2f 14 3c aa ab de 3d 95 9b 28 3e d6 9d 5a bd
       0.009044613 0.10872586 0.164656 -0.05337318
000080 c1 2b de bb f7 de ac bd 15 c0 1f bd 66 97 22 bd
       -0.006780118 -0.08440965 -0.039001543 -0.039695166
000090 62 dc 92 3d e3 fa 10 3e 32 67 e9 bc be 49 eb bc
       0.07170941 0.14158206 -0.02849159 -0.028721686
0000a0 c6 e1 2a 3e b3 54 36 3d 95 f0 96 3d 50 9b a7 3d
       0.16687688 0.04451437 0.07370106 0.081839204
0000b0 90 90 1d 3d 02 a9 8d 3d 8c cc e9 3d 54 53 6e bd
       0.038467944 0.06917001 0.11415967 -0.058184937
0000c0 32 b6 f3 3d 31 ca d4 3c 49 3c 55 bd 20 2d 3d bd
       0.118999854 0.025975319 -0.052059446 -0.046185613
0000d0 50 56 19 3d a7 dc 4e bc 31 8c 44 bd 50 fd 84 bd
       0.03743583 -0.01262585 -0.04798526 -0.06493628
0000e0 7e b5 0c 3e ff 76 6f bc f9 f2 b6 bd d5 3f f1 bd
       0.13741109 -0.014615773 -0.08933062 -0.11779753
0000f0 0a 40 bc bd 02 b7 b1 3d 0c 23 ad 3d 33 9a 91 bd
       -0.09191902 0.08677484 0.0845395 -0.07109489
000100 d6 5f 34 3d 0f 5b 18 3e 9c 93 e0 3d 9d fb f6 3d
       0.04403671 0.14878486 0.10965654 0.1205971
000110 3d 73 10 3e 22 ab 9c 3d 60 38 bd 3d c3 11 f2 3d
       0.1410646 0.076498285 0.09239268 0.11819794
000120 2a d9 8e 3d 0b c4 76 bd 10 a4 f9 3c 68 ad c3 3d
       0.069750145 -0.060245555 0.030473739 0.09554559
000130 6e 78 4e 3d 55 0a 19 3e 09 56 78 3d 8e 08 d8 bc
       0.05040782 0.14945348 0.060628925 -0.026371267
000140 a4 de af bd c3 0b f2 3c 53 28 db bd 7d 1b 78 bc
       -0.08587387 0.029546624 -0.107010506 -0.0151432725
000150 08 44 20 3c 07 13 c9 3d 3d 73 04 3e 3a a6 7f 3d
       0.009781845 0.09818082 0.12934585 0.062414385
000160 04 e5 5c 3d 70 36 17 bb dd 35 e2 3d 05 d6 cc 3d
       0.053929344 -0.0023073219 0.1104543 0.100017585
000170 c3 88 40 bc 56 e9 9d 3d 9b 49 52 bd 6b 42 ca 3d
       -0.011751357 0.07710521 -0.051339727 0.098759495
000180 83 c4 38 bc 6a f9 66 3d c4 63 0e bc dc 98 8e bd
       -0.011277321 0.056390204 -0.008690778 -0.06962749
000190 b9 61 4f bd 80 bc e3 3d ba 83 66 3d c1 16 f4 3d
       -0.050630305 0.11119938 0.056277968 0.119184025
0001a0 12 7a 85 3d 89 79 31 3d 34 95 9f 3d 02 ae d8 bd
       0.06517424 0.043328796 0.0779213 -0.10580064
0001b0 bd ad 61 3d d1 2b ce bc 16 d5 77 3d 79 e5 7a 3d
       0.05509733 -0.025167378 0.06050595 0.061254
0001c0 27 4f 2c bb db 5b 41 3d b1 a7 d8 bc 49 25 d5 bd
       -0.0026292296 0.04720674 -0.026447149 -0.10407502
0001d0 85 11 c5 3b 35 e4 90 3d 04 f0 2f bd 90 70 10 3e
       0.0060140514 0.07074777 -0.042953506 0.14105439
0001e0 64 60 e5 3d 12 41 03 bd ad d8 4d bc 99 21 bd 3c
       0.11200026 -0.032044478 -0.012563867 0.02308731
0001f0 83 d0 64 3d 86 24 2a 3e 47 13 18 3e 13 c9 0a bc
       0.055862915 0.16615495 0.14851104 -0.008470791
000200 b9 8c 29 bd f4 c4 fc bc e2 ce 18 3e 8d d7 14 3e
       -0.04139397 -0.030855633 0.1492267 0.14535351
000210 20 97 92 3d ca ec 94 bd 19 21 17 ba 67 6f 9e bd
       0.07157731 -0.072717264 -0.0005765125 -0.07736092
000220 89 8a cf bc a7 df 2c bd ac 23 ad 3d 2e 0c 5a bd
       -0.025334613 -0.04220548 0.084540695 -0.05323427
000230 c6 0f 29 bc 28 34 9f 3d 8c 59 1e bb 54 a6 5d 3c
       -0.010318702 0.0777362 -0.002416226 0.013528425
000240 80 4c 96 3c 8c 0b e4 3c 9c 3b 42 3d fc ae 16 3e
       0.018347025 0.027837537 0.04742013 0.14715189
000250 8f 72 3f bd 49 ab 4f ba eb c7 7b bc ba 25 ce bd
       -0.04674011 -0.0007921947 -0.015367488 -0.100657895
000260 0e 3f e8 3d 38 e4 ec 3d 0a d4 c2 3b f5 87 8d bc
       0.11340152 0.11566967 0.005945687 -0.017276743
000270 73 60 e7 3b e1 70 0e 3c ae 2f 2c 3a c0 71 bf 3d
       0.007061058 0.008693905 0.0006568384 0.09347868
000280 84 ee 84 3c 5f 8e 02 be e0 a7 a3 3c 35 d3 7c 3d
       0.016227014 -0.12749623 0.01997751 0.06172486
000290 0b b9 ce 3c 8a 63 c6 3c 1d a4 c5 bd 27 7c c5 bd
       0.02523472 0.024217386 -0.09650443 -0.09642821
0002a0 f0 e3 03 bd be 4f c9 bc 85 4d 0f 3e c6 70 54 bd
       -0.0321998 -0.024574157 0.13994415 -0.05186536
0002b0 bd 35 02 3e 53 e2 05 3e 4f 35 be 3d fe db a7 bd
       0.12715812 0.13074617 0.092875116 -0.08196257
0002c0 3d e8 ca bd 2b b6 ac bd 7d 79 89 bd b2 e7 c6 bc
       -0.09907577 -0.08433183 -0.06712625 -0.024280403
0002d0 8d d6 f0 bd 00 49 eb 3d cf 15 c3 bc da ce 41 3d
       -0.11759672 0.11488533 -0.02381411 0.04731641
0002e0 ae 8f f7 3d c1 20 59 3d e6 d1 41 3d 6a 37 05 3e
       0.120879516 0.053009752 0.047319315 0.1300942
0002f0 ac bd 3d bd 63 97 fa 3c e6 58 48 bd 6f 65 d2 3d
       -0.046323463 0.030589765 -0.048912905 0.10273253
000300 b6 b8 00 3e 42 b9 e4 3d 2f b8 b7 3d 81 fd 40 3d
       0.12570462 0.111681476 0.08970677 0.04711676
000310 5f ed dd bd 66 51 a8 bd fe 0a 4e bd 0d b3 43 3d
       -0.108362906 -0.082186505 -0.05030345 0.047778178
000320 e7 82 04 3d 0e f9 c7 bd aa 1a 32 3c 9e cd 1c 3e
       0.0323514 -0.097643 0.010870615 0.15312812
000330 f7 4c ee bd 7c c1 43 3d 14 71 03 be 3d be ca bd
       -0.11635774 0.047791943 -0.12836105 -0.09899566
000340 49 ff 78 3d c7 25 07 3d d6 0e af 3d 80 1e fd bc
       0.060790334 0.03299501 0.085477516 -0.030898333
000350 65 d6 0b be bd a1 28 bd 60 ef f5 3d 99 4a 9a 3d
       -0.13656004 -0.04116987 0.12008548 0.075337596
000360 88 0a f3 bd 4c fb 0d 3d f3 36 be 3c 2a fe 02 be
       -0.11867243 0.034663484 0.023219561 -0.12792268
000370 b6 52 48 3c 65 24 b5 bc ac 61 4e bd b1 c7 82 3d
       0.012226751 -0.02211208 -0.050386116 0.06385744
000380 6f b3 0d 3e ce 0c be 3d f5 cc d7 3d 7b 84 51 bd
       0.1383798 0.09279786 0.10537139 -0.051151734
000390 56 5c 1b 3d b0 16 bc 3d a0 fb 0d bd 51 c9 35 3d
       0.037929855 0.09184015 -0.034663796 0.044381443
0003a0 a9 1a f4 bd da 66 7b 3d f9 46 bb bd c2 5b a8 bd
       -0.119191475 0.061377384 -0.09144396 -0.082206264
0003b0 d5 6b fd bd c5 e0 0d 3e 35 3c d2 3d 5b eb 70 bd
       -0.12374083 0.13855274 0.1026539 -0.058818202
0003c0 7e 18 1e 3e df a8 e5 bd eb ca 9d bd 73 7e 2e bc
       0.1543903 -0.1121385 -0.07704719 -0.010650265
0003d0 63 2e f1 3d d2 ef 17 bd 13 18 c6 bd 75 5b 10 3d
       0.11776426 -0.037093945 -0.096725605 0.03524347
0003e0 23 56 e1 bd d1 e5 be 3d 0f 07 fc 3d d3 fc fd bd
       -0.110027574 0.09321178 0.12306034 -0.12401738
0003f0 5c 96 51 3c a0 ab 3d bd c1 9b 09 3c 31 3e d3 3d
       0.012792196 -0.046306252 0.008398951 0.103145964

encoder.2.weight f4 [256, 256]
000000 09 68 56 bc fb 98 9c bc 2b 4d f5 bc 1b 76 cc ba
       -0.013086327 -0.019115916 -0.029944023 -0.0015599163
000010 31 e8 c1 bc 19 a9 52 bd 71 47 8f 3b c1 be 76 3d
       -0.023670288 -0.051430795 0.00437253 0.06024051
000020 8f d0 cd 3c 42 83 88 3c 8d 0c 02 bc 2a 51 21 3c
       0.025123863 0.016664151 -0.007937563 0.009846011
000030 0a 23 06 bd ed cc 86 3c ce c6 22 bd 36 e2 e5 bc
       -0.03274826 0.016455138 -0.039740376 -0.028061967
000040 40 88 86 3c ac 40 72 3c f5 0f 32 bc ab bd dd bc
       0.016422391 0.014785927 -0.010868062 -0.02706798
000050 41 3b 1d bd 8c 1b 5c 3d 6c 1d 4b 3d 4f f2 e1 3b
       -0.038386587 0.05373721 0.049588606 0.0068953405
000060 95 91 28 3d 8d ac 6f bd 5a 44 41 bc 76 00 17 3d
       0.041154463 -0.058514167 -0.011796081 0.036865674
000070 9c eb 22 bd 59 79 86 3d 38 74 fb bc d1 80 3d 3d
       -0.039775476 0.06566114 -0.030695066 0.046265427
000080 d9 54 9d 3c fe 08 ca bb 0d fc 00 3c 63 9d 05 3c
       0.019205498 -0.0061656227 0.007872594 0.0081552
000090 f0 a4 27 3d c5 4b eb 3c 7a cd 96 3c 19 cb 33 bc
       0.04092878 0.028722653 0.018408526 -0.010973715
0000a0 09 4d 8f 3c 4f 0b 98 3c c2 aa 26 bd 0b 96 24 3d
       0.017492788 0.01856008 -0.04069019 0.040182155
0000b0 36 9e 92 bc 11 8c 14 3d ad 64 86 3d c5 9a 45 3d
       -0.017897706 0.03626639 0.06562171 0.048243303
0000c0 d3 a9 05 3d ed cf 4f 3d d4 d3 42 bd fd 93 2c 3c
       0.03263266 0.050735403 -0.047565296 0.01053333
0000d0 b7 fb 4a 3d 30 30 38 bd 67 5d 97 3c 77 9f ad bc
       0.04955646 -0.04496783 0.018477155 -0.021194203
0000e0 3c 04 0a bd 12 32 35 bd df 5d f1 bc 78 99 79 bd
       -0.033695444 -0.044237204 -0.029463707 -0.060937375
0000f0 38 1d 9f 3b 95 1d 3d 3d b6 91 5e bd 91 b8 38 3d
       0.004855778 0.04617079 -0.05433818 0.04509789
000100 fd 1e c9 bc 0e 71 12 3a 2b ff c7 bc 50 1b 42 bd
       -0.02455091 0.00055863045 -0.024413666 -0.04738933
000110 2e f5 d1 bc ad 0a 45 bd 82 b6 e6 bc bb ca 91 3c
       -0.025629606 -0.048105884 -0.028163198 0.017796865
000120 61 4e 36 bd 99 ec 01 bd 65 ef 9d 3d 90 94 3d 3d
       -0.04450834 -0.031719778 0.077116765 0.04628426
000130 03 0b cb bc d8 d2 8f 3d 18 70 a9 bb 04 50 23 bc
       -0.024785524 0.07022637 -0.0051708333 -0.009967808
000140 35 29 9f bb dc 8e 6c 3d ca 4b 18 3c f7 21 5e 3d
       -0.004857207 0.05775343 0.009295413 0.05423161
000150 92 d5 e9 3c dd aa 06 bd 9d ef 3d 3c 72 5e 05 3d
       0.028544221 -0.03287779 0.011592773 0.032560773
000160 51 ce 43 3d 5f 70 f1 3c 37 70 13 3c 8f 68 f6 bc
       0.04780418 0.029472528 0.008998922 -0.030079154
000170 fa 5a 05 3c 28 0b a6 3b fe 81 f9 3b b1 1a 1d bd
       0.008139366 0.005067248 0.007614373 -0.038355533
000180 cd ec c1 3c b1 5c cb bc 90 ca 2c bd b1 9e 15 3d
       0.023672486 -0.024824472 -0.042185366 0.036528293
000190 13 b7 9d 3c f1 5b 1a bd e9 6c 1c bd 5d 24 49 bc
       0.019252336 -0.03768534 -0.038189802 -0.012276736
0001a0 c8 3d f9 3c 36 52 47 3d 54 01 4b 3d 1c 88 0d 3d
       0.030424967 0.048662387 0.049561813 0.034553632
0001b0 05 ae b9 bc a7 7d b0 bc 1f b6 0d bd 1d 90 a1 bb
       -0.022665987 -0.02154429 -0.034597512 -0.0049305097
0001c0 ac 70 ff 3c 8a 00 90 3c 19 ac 2f bd de 9b 75 bd
       0.031181656 0.017578382 -0.042888734 -0.0599631
0001d0 8b 3c bb 3b 27 21 6f 3d 0d 03 18 3c f0 b2 0d 3d
       0.0057140044 0.058381226 0.009278071 0.034594476
0001e0 fd f5 6f bd e2 9c c6 bc b0 76 1e bd 14 12 fe 3c
       -0.058584202 -0.02424473 -0.038687408 0.03101448
0001f0 09 06 04 3c 73 92 a9 3c 78 b5 d3 3c b1 69 38 3c
       0.0080580795 0.020699715 0.025843367 0.011255668
000200 0c bf 60 3d c7 4e 32 bb 3d 7b 30 bd 0a 10 a9 bc
       0.054869696 -0.00272076 -0.04308628 -0.02063753
000210 08 06 28 bd bf 4d 72 bc 37 f8 15 3c fa 3b 14 3c
       -0.041021377 -0.014789044 0.009153417 0.009047503
000220 b8 b9 39 bd b8 e3 46 3d 69 4b 2b 3d 57 c8 31 bd
       -0.04534313 0.048557013 0.041819964 -0.04340395
000230 5d b8 5e bc a9 50 06 3c 43 4e 09 3d 48 f2 e4 3c
       -0.01359376 0.008197942 0.0335219 0.02794756
000240 3e b9 ca 3b a0 2c 07 bb b9 36 40 3d d0 2b 03 3d
       0.0061866334 -0.0020625964 0.046927188 0.032024205
000250 fe 3e 84 bc ec e7 de bc 0c 68 14 3d 66 7e 3f bb
       -0.016143318 -0.027210198 0.03623204 -0.0029219626
000260 13 a9 e9 bc af 40 4d bb 79 9a 95 bc 98 8e fd bc
       -0.028523004 -0.0031319072 -0.018262135 -0.030951783
000270 d1 cd 74 3d a3 dc 40 3d 46 ee 33 3d 1d 63 cb 3c
       0.059766594 0.047085416 0.043928407 0.024827534
000280 55 61 30 3d 39 ce 10 bd 0b 2a ca bc 43 e6 3c 3d
       0.043061573 -0.03535292 -0.02467825 0.046118032
000290 e3 19 67 3c 9e ad 27 bd 24 2f d0 3b 4d 6e 88 bc
       0.014105293 -0.04093706 0.006353276 -0.016654158
0002a0 8c 3b f1 bc 02 2e 03 3d ff 64 85 3d 3d 38 04 3d
       -0.02944734 0.0320263 0.06513404 0.032280196
0002b0 09 94 35 3d 15 2e 53 3d 19 e7 71 3d cc 22 82 bd
       0.04433063 0.05155762 0.059058283 -0.06354293
0002c0 86 7b 88 bd 6f d0 3b 3d 79 c2 17 3d 5c e2 7b 3a
       -0.06664185 0.045853075 0.037050698 0.00096086203
0002d0 93 e8 35 3d ae 15 79 3d d9 57 9b 3c f1 b5 b6 bc
       0.044411253 0.06081169 0.018962787 -0.022303553
0002e0 bc c3 14 bd 51 3b 3d bc 88 d5 df bc 19 d4 17 3d
       -0.03631948 -0.011549787 -0.0273235 0.037067506
0002f0 24 fb 11 3d 00 82 15 bb a9 2a 3f bd e0 58 bf ba
       0.035639897 -0.0022813082 -0.046671543 -0.001459863
000300 dc aa 1a 3c 64 47 12 3d 7f 57 cb 3c 26 8f 24 bd
       0.00944015 0.035712615 0.024821995 -0.04017558
000310 93 9c 4a 3c 3d ce d2 ba 49 e1 2c bd 12 45 f2 3c
       0.012366432 -0.0016083192 -0.042207036 0.02957395
000320 2b e7 72 3c 19 af 77 bc e7 b3 0a bd f6 87 60 bc
       0.014825623 -0.01511743 -0.033862974 -0.013704291
000330 68 4b 79 bd 35 63 bd bc 30 a3 8c bc 14 66 58 3d
       -0.06086293 -0.023118595 -0.017167658 0.052831724
000340 6c 59 2f 3d 8a d0 9a bb bb 9f 2d bb d1 cb 72 3c
       0.04280989 -0.004724567 -0.0026492912 0.014819101
000350 6b 82 e3 bc fa 97 2f 3d 59 36 70 3d d3 0d 19 bc
       -0.02777215 0.042869546 0.05864558 -0.009341675
000360 75 3b 4a bb 80 cb c3 3c 2a e8 ff bc 3f 7d 41 3d
       -0.0030858193 0.023900747 -0.031238634 0.047238585
000370 cc e4 b0 bc a0 6e 06 bd a4 13 ff 3c 64 88 a4 3d
       -0.021593474 -0.032820344 0.031137295 0.08033827
000380 58 9f a7 39 98 78 30 bb 42 b5 af 3c 7e fe 78 3c
       0.00031971443 -0.0026927348 0.021448735 0.015197394
000390 73 47 2c bd 79 2b 1f bd 0f 5c b5 3c 89 13 20 3d
       -0.042060327 -0.038859818 0.022138624 0.03908113
0003a0 1a e5 37 3d cc ca 1d 3c 1f 09 32 3d 7a d5 21 3c
       0.044896223 0.00963087 0.04346573 0.009877557
0003b0 f9 ad b3 3c 9f 8f 18 3c dc 79 09 bd f0 8f 0f bd
       0.021933543 0.009311586 -0.03356348 -0.03504938
0003c0 27 7f 1c bc 1c ae 9c 3c a1 c0 f7 bc b7 48 38 bd
       -0.0095518 0.01912599 -0.03024322 -0.04499122
0003d0 1c c5 30 bd a6 08 36 3d 49 ba e8 bc 82 43 fe 3c
       -0.04315673 0.04444184 -0.02840914 0.03103805
0003e0 5a ec 0d 3c 72 74 b6 3c 22 ea c0 3c 56 81 25 bb
       0.008662308 0.022272322 0.023549143 -0.0025254092
0003f0 24 1a 23 bd a7 6a af bc 80 9f 67 3b 95 ea 34 3d
       -0.03981985 -0.02141316 0.0035342872 0.044169027

encoder.2.bias f4 [256]
000000 e2 e8 ae 3c 0d cb 36 bd 49 95 a1 bc f1 92 f0 bc
       0.021351282 -0.044627238 -0.019724505 -0.029366942
000010 e2 ad 8a 3d f5 b9 c8 3c b3 47 9c bb 5a 65 d0 3c
       0.06771447 0.024502734 -0.0047692894 0.025438953
000020 5f 71 03 3d 3d 4c 54 3d 8a 26 de bc 92 d0 14 bd
       0.03209054 0.05183052 -0.027117986 -0.03633172
000030 4e 52 53 3d f5 44 e4 bc d7 f7 25 bd 6e cb 47 bc
       0.051592164 -0.027864913 -0.04051956 -0.0121944975
000040 5d b8 a8 3b 86 95 25 3c f2 9a f3 bc c7 2f 81 bc
       0.005148931 0.01010645 -0.02973697 -0.015769852
000050 4a 69 52 3d 0f d3 60 bb 8e be 4f 3d 90 3d f4 bc
       0.051369943 -0.0034305488 0.050718836 -0.029814512
000060 b9 09 bb 3a bb 17 8d 3d 1b b4 51 bd e3 a9 ef bb
       0.0014269865 0.06889292 -0.051197153 -0.0073139532
000070 19 a5 69 3c 97 d2 91 3c d8 5c ea bc 56 52 0c 3d
       0.014260554 0.017800612 -0.028608724 0.03425821
000080 22 91 db bc 75 32 38 3d 16 65 6c 3d 11 75 05 3c
       -0.026802603 0.044969995 0.05771359 0.008145587
000090 95 8b 3a 3c d0 16 e2 3b 66 25 0c 3d cc ce 36 ba
       0.011385818 0.006899692 0.034215353 -0.0006973564
0000a0 08 10 25 bc 77 fb 33 3d 90 91 c5 3c de c9 e3 3c
       -0.010074623 0.043940987 0.024117261 0.027806219
0000b0 ae 39 86 3c 7b 19 b4 bc ed ad b1 82 93 d1 06 3d
       0.016384926 -0.021984806 -2.610764e-37 0.03291471
0000c0 d5 78 d0 3c ea 07 b7 3c d5 18 da bc 9b b7 27 bb
       0.025448242 0.02234264 -0.026623169 -0.0025591615
0000d0 88 e0 a0 bc 3b 15 e2 3c 91 72 0c bd 24 a3 30 bd
       -0.019638315 0.027598014 -0.034288947 -0.043124333
0000e0 6d 07 32 bd 96 a5 40 3d a4 0d f3 bb 70 08 b7 3d
       -0.043464113 0.047032915 -0.0074173976 0.08937156
0000f0 66 e7 6e bc db a6 8d 3d 1e a8 f5 3c 33 3f a1 3c
       -0.014581537 0.06916591 0.029987391 0.019683456
000100 7e b9 95 bc ed 56 b2 bc fb a7 4f 3c b8 3c 38 3d
       -0.018276926 -0.021769965 0.012674327 0.04497978
000110 5d 68 4e 3d 06 56 2e 3d 67 4b 18 bd e5 75 a9 bc
       0.050392497 0.042562507 -0.037181284 -0.0206861
000120 df bd 99 3d 33 9d 46 3d 29 23 85 3d a5 d2 3c 3d
       0.07506918 0.04848976 0.06500847 0.046099324
000130 12 3b ac 3c e5 3e 39 3c 44 47 dd bc ff 80 50 bc
       0.02102426 0.011306499 -0.027011521 -0.012726068
000140 89 4e 58 bc fb 70 29 bd 4b 25 b6 bc 5c 55 5f 3c
       -0.013202318 -0.041367512 -0.02223458 0.013631191
000150 0e 18 f8 3c d0 a6 04 bd 92 36 e3 bc d0 a1 a1 3d
       0.030284908 -0.032385647 -0.027735982 0.078921914
000160 9a 79 34 3c c8 bd 87 3d fc 7e 22 3d 0e ee 77 bc
       0.01101532 0.06627995 0.039671883 -0.01513244
000170 d8 b1 f4 3a 5b 98 38 39 a7 c3 95 3c 6b 98 a9 bc
       0.0018668724 0.00017604364 0.01828177 -0.020702561
000180 97 13 e3 bc 58 9c b9 3c 55 43 20 bd b4 53 06 bd
       -0.027719302 0.022657558 -0.039126713 -0.03279467
000190 ba 29 13 ba 59 8f 45 bb e4 3c 58 3d e6 10 2f bd
       -0.0005613823 -0.0030145256 0.052792445 -0.042740725
0001a0 e2 d2 88 3d 46 68 a4 3b 0a 39 1b bd e2 ae 65 3d
       0.06680848 0.005017313 -0.037896194 0.056074984
0001b0 e7 c7 43 3d ac d6 a8 bc 03 98 45 3d b8 60 0a bd
       0.047798064 -0.020610176 0.048240673 -0.033783644
0001c0 bf 96 d4 bc c3 77 a1 3c 82 66 5d 3d fe 9d 46 3d
       -0.025950788 0.019710427 0.054052837 0.048490517
0001d0 36 e7 23 bd ee 65 83 3d 6f d3 80 3d 1b 84 5e 3d
       -0.04001542 0.06415926 0.06290328 0.054325204
0001e0 97 84 2a bd 77 79 02 3c 39 b5 72 3c e4 e8 21 bd
       -0.041630354 0.00796353 0.014813715 -0.039528742
0001f0 4b 1f 0d bc c9 d5 a4 3c 68 df ca 3c 6e 3d 94 3b
       -0.008613418 0.020121472 0.024764732 0.0045239246
000200 11 52 da 3c e9 d2 82 3d e8 8b ea bb df 42 f2 3c
       0.02665046 0.06387884 -0.0071577914 0.029572902
000210 19 be 88 bd cb 7b f6 3c 06 f2 a0 bc 52 8d bb bc
       -0.06676883 0.030088326 -0.019646656 -0.022894535
000220 a7 eb 18 3d cc 5d 21 3b 7a 02 e6 bb fb 4e 10 bb
       0.03733411 0.0024622558 -0.007019338 -0.0022019732
000230 5c 66 6a 3d aa c5 0d bd 68 b9 31 3d 13 6f 29 3d
       0.057226524 -0.034612335 0.043389708 0.041365694
000240 86 2a 84 3a 06 a0 8d 3c 1e 27 c0 3c b9 10 f0 3b
       0.0010083474 0.01728822 0.023456153 0.0073262122
000250 fc f5 7d 3d ab 64 9b 3d 4d fb 35 3d 99 9d 7b 3c
       0.062002167 0.0758756 0.044429112 0.015357398
000260 5b ae f6 3b 4c 32 87 3c 41 44 69 3d e9 5c 27 3c
       0.007528109 0.016503476 0.056949858 0.010215023
000270 b4 71 bb bb 85 37 6e 3d 90 53 a9 3d 3a 85 13 bd
       -0.0057203416 0.058158416 0.082678914 -0.036015727
000280 c9 83 3a bd fc a6 d2 bc 35 49 50 bd a9 db 80 3d
       -0.045535836 -0.02571439 -0.050851066 0.06291897
000290 c5 00 11 3d 06 67 9c bc 04 a0 92 bc 90 3d 14 bd
       0.035401125 -0.019092094 -0.017898567 -0.036191523
0002a0 fc 4e af bb 37 6b 88 3d e2 06 c1 bb 90 d5 ab bc
       -0.005349992 0.066610746 -0.005890713 -0.020975858
0002b0 d7 d4 9c 3c ad 97 f1 bc d5 ae 2d 3d ba d2 8e 3d
       0.019144459 -0.02949127 0.04240306 0.06973787
0002c0 31 33 78 bb 87 67 52 bc dc b7 b5 3d 8f 0a d3 bc
       -0.003787231 -0.012842066 0.08872959 -0.02576187
0002d0 fc 72 86 3c a2 0d 47 36 06 9e d4 bc 4f 46 f4 bc
       0.01641225 2.9661246e-06 -0.025954258 -0.029818682
0002e0 b2 3d c3 3c 17 db be bc 6c 31 a8 bb cc d0 d5 bc
       0.02383313 -0.02329783 -0.0051328447 -0.026100539
0002f0 48 89 c5 3c eb e0 6d 3d c3 70 98 bd 59 d5 6d 3d
       0.024113312 0.058075827 -0.074433826 0.058064792
000300 95 5e 42 bc 8a 33 61 3d f1 7e 2d bd bd f1 59 3d
       -0.01186337 0.054980792 -0.04235739 0.053209055
000310 bc fc ae 3d e4 23 96 3d 52 15 2b 3d 4a f9 45 bc
       0.08544299 0.07331064 0.04176838 -0.012083361
000320 bc 03 e5 bc 12 9b 9d 3d af aa 14 3d 4a 3f bb 3b
       -0.027955882 0.07695593 0.03629559 0.0057143318
000330 01 de 8c bb ed 7d e6 3c 18 d9 1e 3c 45 11 cd 3c
       -0.004298926 0.028136218 0.009695314 0.025032649
000340 b0 0f 7d 3d b4 77 22 3d f7 bd 82 b8 b5 a3 85 3c
       0.06178254 0.03966494 -6.234267e-05 0.016313413
000350 fe a8 3b 3d 55 cf 40 bb 86 ba 12 3d a9 8d 18 bd
       0.04581546 -0.0029420455 0.035822414 -0.037244473
000360 db 28 6e 3d 4d 9a 57 3d 88 a0 50 bd 03 41 8c bc
       0.05814443 0.052637387 -0.050934345 -0.017120844
000370 bd ee cc 3c 65 2a 47 3d 1e bb 68 bb 36 67 0d 3d
       0.025016183 0.048624415 -0.003551192 0.034522258
000380 4a a1 84 3d 3b 71 eb 3c 5a d7 1f 3c 2c 46 51 bc
       0.06476076 0.028740516 0.009755934 -0.012773078
000390 4f 68 20 3b 85 51 85 3d a1 e2 5f 3c cd a8 00 3d
       0.0024476235 0.06509689 0.013664872 0.03141098
0003a0 29 68 75 3b 43 dd 97 ba 87 64 26 3d d8 23 a0 bc
       0.0037446117 -0.0011586327 0.040623214 -0.019548342
0003b0 3c 3c 1f 3c 5f bd 02 bd ed 0e 83 3d 8f 87 15 3b
       0.009718951 -0.03191888 0.06399331 0.0022816395
0003c0 ab bf 5c 3c 22 40 9f 3d 4a 19 29 3d 3c 25 c7 bc
       0.013473432 0.07775904 0.041283883 -0.024309747
0003d0 51 9c 10 3d f4 40 a4 bc 94 fa 29 bd cc c3 b0 3d
       0.035305325 -0.020050503 -0.041498736 0.08631095
0003e0 d6 0b 49 bd 7d 0a 3c 3d f0 df 24 bd 22 97 32 3d
       -0.049083553 0.04590844 -0.040252626 0.043601163
0003f0 2d 71 ed bc 4d 70 06 bd 8e b7 0d bd f2 f0 e6 bc
       -0.02898463 -0.032821942 -0.03459888 -0.028191064

fc_mu.weight f4 [16, 256]
000000 4c 84 81 bc 66 c3 51 ba 8e 7c d2 3b 90 56 a3 ba
       -0.015810154 -0.0008001834 0.0064235395 -0.0012461711
000010 0b c9 14 3d 63 f2 91 3c d7 0a d1 3b 21 7c cd 3a
       0.036324542 0.017815774 0.006379466 0.0015677252
000020 0b b1 21 bd 80 4f 11 3c f6 62 07 3c 3f 52 b9 3c
       -0.039475482 0.008869052 0.00826334 0.022622226
000030 dd 5f ad 3c 67 44 73 bb 41 18 0c bc db f5 10 bc
       0.021163875 -0.0037119628 -0.008550704 -0.008847679
000040 5d 85 53 ba b9 47 69 3c 5d b1 b6 3c 4e 48 0f 3d
       -0.0008068884 0.014238291 0.02230137 0.034981064
000050 72 76 2b bc 96 19 88 3c eb aa 63 3b 04 6d 28 bc
       -0.010465251 0.016613763 0.0034739326 -0.010279898
000060 a0 68 10 3d 73 37 33 3c 9d ca 3c 3c 35 f0 12 3c
       0.03525603 0.010938513 0.011522916 0.008968403
000070 07 b6 14 bb 03 36 85 3c b9 60 58 3c 68 bf 64 bc
       -0.0022691505 0.016261106 0.013206654 -0.01396165
000080 ec 76 df 3a f8 66 4c 3a 4d e9 82 bb a3 a4 d5 bc
       0.0017048991 0.0007797326 -0.003995097 -0.026079481
000090 6e 30 76 bc b1 b5 2c 3b ac 1b 54 bc 6a 41 3f bd
       -0.015026195 0.0026353414 -0.012946051 -0.046693243
0000a0 9f 7f 1f 39 33 ff c5 3b ae 99 1f bd e0 c0 85 3c
       0.00015210964 0.006042385 -0.03896492 0.016327322
0000b0 d3 a8 6d bc 58 80 20 bd 91 25 9f 82 77 e1 9b 3c
       -0.014505583 -0.0391849 -2.3384512e-37 0.019028408
0000c0 f1 ec 6b 3c 64 12 7b bc e6 4d aa b9 94 ed d4 3c
       0.014399753 -0.015324209 -0.00032482966 0.025992192
0000d0 0b 97 d8 bb 81 b0 ac 3c 9a ec 92 3b 46 13 23 3c
       -0.0066098026 0.021080257 0.0044837715 0.009953326
0000e0 e6 53 dd bb 58 c3 0d 3c 57 d2 cd 3b d8 60 0b bd
       -0.0067543862 0.008652531 0.006281178 -0.034027904
0000f0 37 70 e4 bc 03 29 12 3d ce e2 2d bd 59 c3 8c bb
       -0.02788554 0.035683643 -0.042452626 -0.004295748
000100 68 50 fa bc 1f 33 bd bc 24 9f a4 3b 53 0f bc bc
       -0.030555919 -0.023095665 0.005023854 -0.022956526
000110 cf 56 92 bc a6 43 cb bb 62 fa 91 bc 48 9f 2c ba
       -0.01786366 -0.0062031327 -0.017819587 -0.0006585014
000120 be 72 3b bd 42 17 b1 3c e4 ec 83 bc 51 bb 8d bc
       -0.045763724 0.021617536 -0.01610417 -0.017301233
000130 c0 b7 0e 3d 97 f6 b1 bc 43 4b c0 3b 02 0a 61 3c
       0.034843206 -0.021724029 0.005868347 0.013735296
000140 26 72 30 bc c8 a2 47 bc fd ec 85 bc 8c 40 95 bb
       -0.010769403 -0.012184806 -0.016348356 -0.0045548137
000150 3b e6 71 bb 3a 7b dc bb 5f cb 41 3d 49 ad 82 3a
       -0.003691091 -0.006728557 0.04731309 0.0009969856
000160 37 e7 19 3c 5d de 8b bc ec 4d d3 bc 6d 91 01 bd
       0.009393505 -0.017073805 -0.025793992 -0.03163283
000170 52 aa 11 bd a9 68 15 bc 63 ea 9c bc e2 77 80 bc
       -0.03556282 -0.009119191 -0.019154733 -0.015682165
000180 42 68 44 3c cd cf 36 3b 11 a7 4a 3c 59 31 95 bc
       0.011987748 0.0027894855 0.012368933 -0.018212007
000190 04 24 d5 bb 7d c9 91 bc 2d 17 8f bb 2a 81 d6 3c
       -0.0065045375 -0.017796272 -0.0043667764 0.026184637
0001a0 1f 57 29 3d 39 11 2c bc c1 49 1b 3d ac eb 11 bd
       0.04134285 -0.010502153 0.037912134 -0.035625145
0001b0 92 2b 42 bc 60 29 1b 3c 8e 8f 08 bd 31 8d c0 ba
       -0.011851208 0.009470314 -0.03334003 -0.0014690516
0001c0 ee bd d3 bc 28 e4 73 3c 1b 77 80 bc 21 f2 17 3c
       -0.025847401 0.01488594 -0.015681794 0.009274037
0001d0 1a 67 6d ba d9 28 96 bc 62 b7 43 3c c4 f2 6e bc
       -0.0009056196 -0.018330025 0.011945577 -0.014584247
0001e0 1f c7 cb 3c d3 75 ba bc 7c 0a c4 3a d0 38 73 b9
       0.024875222 -0.022761261 0.0014956738 -0.0002319545
0001f0 d5 d8 b4 bc f8 5d a0 3c d2 5d 1e 3c cf 00 ca 3b
       -0.02207605 0.019576058 0.009665923 0.006164647
000200 47 23 d7 bb 8a b1 f5 bc f8 8e 7f bc 46 ae 78 bc
       -0.0065654847 -0.029991884 -0.015598051 -0.015178269
000210 d2 5d 1e bc 54 2a 8d 3c 60 e3 76 3b b6 3c b1 39
       -0.009665923 0.017232098 0.0037672147 0.00033805304
000220 10 33 a2 bc b2 c2 27 3c d3 18 70 3c 84 be ab 3c
       -0.01979974 0.01023929 0.014654356 0.020964868
000230 d5 2d 1e bd 36 5b 26 bd 99 9a c7 bc 56 4e 33 3d
       -0.038617928 -0.04061433 -0.02436571 0.04377588
000240 91 4e 78 bb 85 16 ba 3c 0d ce 98 bc 60 23 33 bc
       -0.0037888626 0.022715816 -0.01865294 -0.010933727
000250 75 39 ad 3c 6d ea 3d ba 30 d5 fe bc 79 e7 5e 3c
       0.021145562 -0.000724471 -0.031107515 0.013604992
000260 6c f3 bd b9 ef 85 d5 3a 1e c0 f0 bc 3e 17 b5 3c
       -0.00036230253 0.0016290526 -0.029388484 0.02210581
000270 c0 e2 13 3c e8 70 23 bc b0 05 99 3c af d0 74 ba
       0.009026229 -0.009975649 0.01867947 -0.00093389576
000280 cc fb e5 3c 96 e1 d1 bb 53 e8 0a bc 42 91 26 3c
       0.028074168 -0.006405066 -0.008478242 0.010166468
000290 8e 24 12 bd 97 7d 17 3d dd 15 92 bc db 21 15 bc
       -0.035679393 0.036985006 -0.01783269 -0.00910231
0002a0 0f 14 73 3c 37 c4 5f bc cb 46 5a bb 46 10 81 3c
       0.014836325 -0.013657621 -0.0033306356 0.01575483
0002b0 b7 61 85 3a 94 08 0a bd be b6 81 bb fa 7a 18 3b
       0.0010176216 -0.033699587 -0.003958552 0.002326666
0002c0 7f 47 9d 3c 86 35 1d 3c d9 56 11 3d ab 66 c0 3b
       0.019199131 0.0095952805 0.035483215 0.005871614
0002d0 9a 2c f8 3c d9 c8 97 3c fc 13 5f 37 44 9e 26 bc
       0.030294705 0.018528389 1.3296489e-05 -0.010169569
0002e0 8c 16 61 3a ff 69 ee 3c 06 09 c5 bb 64 68 95 3c
       0.00085864286 0.029103277 -0.0060130386 0.018238254
0002f0 b6 7b a1 bc 66 9f 15 3d 56 06 96 3c a2 b9 2c 3c
       -0.01971231 0.036528967 0.018313568 0.010542305
000300 4a 9c eb b8 3e 70 43 b9 a8 61 9c 3a e2 95 65 3d
       -0.00011234784 -0.00018638463 0.0011930959 0.056051143
000310 86 a4 8b bc 4f 4c ff bb ce f3 90 bc 11 98 01 bc
       -0.017046224 -0.007791079 -0.01769438 -0.007909791
000320 6c 85 ff 3c 5f 4d be bc 27 b2 d9 3b 05 1b c8 bb
       0.03119155 -0.023230253 0.006643552 -0.0061067366
000330 01 d4 19 3b 9a 71 de 3c e3 c5 7c 3c b7 50 1e 3d
       0.0023472311 0.027153779 0.015428039 0.038651194
000340 de 3f 45 bc 58 88 0f bb 99 c5 0f a4 19 10 fe bc
       -0.012039153 -0.0021901336 -3.1175554e-17 -0.031013535
000350 5a 27 81 bb ca fb e1 bb 52 a5 22 bc d2 03 57 3b
       -0.0039414586 -0.0068964707 -0.009927111 0.0032808674
000360 65 57 e5 3c 94 95 90 ba a5 7e 36 3c 90 35 6d bc
       0.027995775 -0.0011030906 0.011138593 -0.014478102
000370 83 38 f8 3b 04 3f 17 3d ce 95 3c bd 07 c7 fa 3b
       0.007575096 0.03692533 -0.046041302 0.0076531204
000380 1e 76 f1 3b 96 e2 41 bc 0c de e3 3c c2 cb bb bc
       0.007368817 -0.011833807 0.027815841 -0.022924308
000390 77 38 35 39 48 01 94 bc ba c3 6a 3b 4c 34 98 3c
       0.0001728254 -0.018067017 0.0035822229 0.018579625
0003a0 31 1f ec 3c 70 c0 53 bc 88 63 9a 3c 58 f7 eb bc
       0.028823467 -0.012924299 0.018846288 -0.028804466
0003b0 a1 18 83 bb ad 96 eb bc 62 e4 36 3c df b5 d6 3c
       -0.0040007387 -0.028758371 0.011162849 0.02620977
0003c0 cf 4c 09 3d a6 90 42 bd c2 e8 8f 3c ab 8d 1a bc
       0.033520516 -0.04750123 0.017567042 -0.00943319
0003d0 46 4a a7 3c 64 50 db 3c 27 d9 69 bc 9c 3a 87 3b
       0.020421159 0.026771732 -0.014272965 0.00412686
0003e0 ec a1 1b 3c 99 7c 90 3a f4 50 47 bb 45 0a 0c ba
       0.009499054 0.0011023461 -0.0030413242 -0.00053421065
0003f0 2e 37 27 3d 78 02 0a bb 2e e8 c2 3c 28 f2 91 ba
       0.040824108 -0.00210586 0.023792353 -0.001113479

fc_mu.bias f4 [16]
000000 bf 38 04 3d 1b 75 6c bc 71 c5 0f bb d2 8a 94 bb
       0.03228068 -0.014432217 -0.0021937753 -0.0045331502
000010 be 19 8e bc 1d 6a 63 3c ba e7 34 3d e1 05 27 bc
       -0.01734626 0.01388028 0.044166304 -0.010194273
000020 c6 21 32 bd f9 08 d8 3b 52 f4 96 bc fa c9 b7 bc
       -0.04348924 0.0065928665 -0.018427048 -0.022435177
000030 bd 25 8d bb 1e eb d7 bc 60 bd e3 3c 48 5b 4a bc
       -0.0043074773 -0.02635723 0.027800262 -0.012350865

fc_logvar.weight f4 [16, 256]
000000 0a 92 c8 bc d5 73 43 bc 3c 34 98 bb ae fd 5c ba
       -0.0244837 -0.011929472 -0.0046448987 -0.0008430135
000010 6a 55 38 bd c4 92 60 bc 80 2f d5 3b fe c9 7e bb
       -0.045003332 -0.013706867 0.0065059066 -0.003887772
000020 10 b6 b7 b9 67 03 2b 3c 0a 0a 36 bc 44 35 86 bc
       -0.00035040127 0.010437823 -0.011110792 -0.01638282
000030 c8 54 13 3b 86 c1 95 bc 49 7a 90 bc ef 8a 92 bb
       0.0022480953 -0.018280756 -0.017636435 -0.0044721286
000040 9c 7c 1a bc b5 1a 23 bc b4 a5 87 bb 82 ac c3 3c
       -0.009429123 -0.009955098 -0.0041396264 0.02388597
000050 43 b7 0d bc 4c 60 aa 3b 63 7a ca bb 29 ea d8 bc
       -0.00864965 0.0051994678 -0.0061791404 -0.026478844
000060 7d 94 4f bc e3 5a bf 3c d9 41 80 3c 52 53 81 3a
       -0.01266968 0.023358768 0.015656399 0.000986675
000070 04 d0 d2 3b 56 ff 90 ba 61 ad 6c bc ca 95 85 3a
       0.006433489 -0.0011062424 -0.014445634 0.0010191735
000080 1b d1 26 3c 8d d3 55 3b d0 f7 a0 bc 85 b2 7b bc
       0.010181691 0.0032627315 -0.019649416 -0.015362387
000090 c5 4d 0b bd dc 87 c4 bc 28 a1 56 3b 02 07 0e 3c
       -0.034009714 -0.023990564 0.0032749865 0.008668663
0000a0 a9 28 aa 3b d4 fd d1 ba 95 73 e3 bc b4 32 f4 bb
       0.0051928353 -0.0016021081 -0.027765075 -0.0074523333
0000b0 b3 82 d8 3c 39 ad 92 3c b7 f9 9f 02 95 c6 2d 3c
       0.02642951 0.017904865 2.350628e-37 0.010606428
0000c0 6c 31 e4 3c c4 de 3f 3c 02 a1 55 3c 24 f8 83 3c
       0.027855597 0.011710826 0.013038876 0.016109534
0000d0 f8 de f4 3c f4 d4 99 3b d6 e5 1c 3d ad 20 a8 3b
       0.029891476 0.0046945754 0.038305126 0.0051308484
0000e0 eb a9 87 3b de 6b c2 bb 84 3b 14 3d c6 d3 d6 bc
       0.004140129 -0.005933269 0.03618957 -0.026224028
0000f0 87 98 e0 bb fa 3e 00 3d 7b e1 82 3c 51 03 06 3d
       -0.00685412 0.03131006 0.015976658 0.032718007
000100 0b ca c1 3c bd b3 02 bc d7 43 c1 bc 15 39 c0 bb
       0.023655912 -0.007977423 -0.023591919 -0.0058661797
000110 6c 36 bd 3c 01 b6 0b 3d 34 9d 5f 3c 41 27 c1 3c
       0.02309724 0.03410912 0.01364832 0.023578288
000120 e1 9f ba 3c 61 40 87 bc b6 67 d9 3c 9e 70 ff ba
       0.022781314 -0.01651019 0.026538711 -0.0019488519
000130 a8 7c 2a bc b4 5c 9d ba a3 92 b6 bc 85 f1 f0 3c
       -0.010405697 -0.0012005777 -0.022286719 0.02941204
000140 47 bc 71 bc 9e 4b 07 bd 94 6c 24 3c 05 18 6a bc
       -0.0147543615 -0.0330311 0.010035653 -0.014287953
000150 04 d0 69 bc e8 3a 74 bc 70 c9 da bc af 45 5f bb
       -0.014270786 -0.0149066225 -0.026707381 -0.0034068634
000160 63 93 b8 3c 77 f5 05 3c 80 ca 01 bc e2 15 40 3b
       0.022531217 0.008176199 -0.007921815 0.0029309918
000170 78 3f e7 bc e4 e4 8c 3b 24 2e 3b 3a 29 23 7f 3c
       -0.028228506 0.004299747 0.00071403594 0.015572348
000180 21 b7 01 bc cc 3d 5e bc cc 91 53 3b 62 60 d6 3c
       -0.0079171965 -0.013564538 0.0032282947 0.026169006
000190 aa e2 2f bc d7 33 ec 3c f8 b5 48 bb 7f 1a fa bb
       -0.010735193 0.028833313 -0.003062604 -0.007632553
0001a0 8c 36 1d bc de 99 9d bc cc ed 40 bc 71 38 14 bd
       -0.0095955245 -0.019238409 -0.011775445 -0.03618664
0001b0 48 2e 83 bc 4b d3 33 3b 67 21 08 bc d3 10 09 bc
       -0.01601328 0.0027439173 -0.008308745 -0.008365828
0001c0 eb 0f e2 3c f7 92 75 bc f5 1a 98 bc 5b ed 80 3c
       0.02759548 -0.014988652 -0.018567542 0.01573818
0001d0 64 56 9a 3c b3 44 8a 3c c6 14 0e 3d 02 ba 52 3c
       0.018840022 0.016878461 0.03468778 0.0128617305
0001e0 de d9 02 3c 93 99 1d bc 6f 42 0f 3c f0 15 b6 bb
       0.007986514 -0.0096191345 0.008743866 -0.0055568144
0001f0 93 99 9b bc d7 0f ce 39 22 9d 85 bc f2 04 ac bb
       -0.018994128 0.00039303183 -0.016310278 -0.005249613
000200 c3 a0 90 3b b8 5b 12 bc 89 c2 8c 3b f6 61 86 bc
       0.0044136955 -0.008933 0.0042956513 -0.016404133
000210 99 4d 73 3c 47 22 13 3c 3a b1 ed 3a c5 ba a3 3c
       0.014850044 0.00898034 0.0018134483 0.01998652
000220 3f d1 13 3b 0e 66 d5 bc eb 43 95 3c f7 8b 63 bc
       0.002255514 -0.02604964 0.018220862 -0.013888351
000230 25 af 19 bd 3e 13 de 3c 44 9b 75 3c 3b 27 d0 bc
       -0.037520546 0.027108785 0.0149906315 -0.025409332
000240 98 c5 c7 bc eb 18 b5 bc 61 7a 27 3c 9c 8a b9 bc
       -0.024386212 -0.022106608 0.0102220485 -0.022649102
000250 42 52 30 3b f5 86 d5 bb 28 95 f8 3c 4d 27 85 3c
       0.0026904498 -0.0065163323 0.03034456 0.016254092
000260 6d ad b0 bb ab e9 35 bc c4 a3 be bb 3a f0 a2 bb
       -0.0053917677 -0.011103074 -0.005817862 -0.004972485
000270 9b 58 b3 3b 57 da 3f bc 6f 11 34 bc 18 a2 48 3c
       0.005473209 -0.011709771 -0.010990485 0.012245677
000280 f4 9c 10 3c ba bf 7b bb 20 8b 9d 39 a5 db e0 bb
       0.008826483 -0.0038413838 0.0003004903 -0.006862121
000290 62 46 10 3c 39 4a ef 3c d5 2f 08 bc 78 63 0b 3b
       0.008805843 0.029210197 -0.008312185 0.0021269005
0002a0 3c 6d 03 bd 5a ed 2a ba bd 93 91 b9 19 95 e0 3b
       -0.032086596 -0.00065203535 -0.0002776663 0.0068537113
0002b0 31 bc 02 bd 74 c0 b2 3c f8 5c 07 bd 17 e0 44 3c
       -0.031917755 0.021820284 -0.033047646 0.012016318
0002c0 22 50 9b 3c 20 e9 b5 bb 23 29 cd 3a 05 1f 40 3a
       0.018959109 -0.0055514723 0.0015652518 0.0007328841
0002d0 d2 b7 9d bc a1 8e ce ba 66 0b 95 3b 62 82 54 3d
       -0.019252691 -0.001575906 0.004548478 0.051882155
0002e0 f0 f7 43 3c 24 5c de 3b dc ec 72 3a cf 04 e8 3b
       0.011960968 0.0067858864 0.0009266862 0.0070806514
0002f0 c2 f4 4f 3c 45 ca 45 3c 04 e2 48 bc 23 76 b5 3b
       0.012692632 0.012072151 -0.012260918 0.0055377646
000300 f6 ac 80 3a 91 4d 34 bc 20 a7 47 bc b9 3e 9a bc
       0.0009817171 -0.011004821 -0.012185842 -0.018828737
000310 8c 9a 13 3d 2a bb 6a 3a e8 b8 47 3b 8c 6f e4 bb
       0.03603606 0.0008954281 0.0030475203 -0.0069713052
000320 99 d8 92 3b fd 4e 75 bc 34 a7 0b bb 0e a3 d9 3b
       0.004481387 -0.014972446 -0.0021309378 0.006641752
000330 e1 a7 71 bc a8 a3 0d bc 43 1c d7 3b d0 c6 08 3d
       -0.014749498 -0.008644976 0.0065646484 0.033392727
000340 93 8f 32 bc dd d0 27 3d 77 19 87 03 3a 52 42 bb
       -0.010898489 0.040970672 7.940433e-37 -0.0029651062
000350 f1 d5 85 3b 49 06 ef 3b be 5b fa 3c ba 28 34 bc
       0.0040843417 0.0072944504 0.030561324 -0.010996038
000360 5e 66 4f 3b 35 d9 1a bd b2 c1 f2 bb f6 96 34 3c
       0.003164671 -0.0378048 -0.007408344 0.01102232
000370 df c4 b2 bc 6f 50 09 3d 49 d6 2b bc 09 76 e4 3c
       -0.021822391 0.033523973 -0.010488101 0.027888315
000380 e5 90 5f bc f4 af 9f 3b 16 b3 07 bc 76 bb a1 3c
       -0.013645385 0.00487327 -0.0082824435 0.019742709
000390 60 c6 1a 3d 3d b7 99 3c 75 a8 03 3d 6c 95 e8 3c
       0.03778684 0.018764133 0.032143075 0.028391562
0003a0 33 d9 a8 bc d2 79 26 3c 16 4e 64 3b 37 eb ae ba
       -0.020611381 0.01016088 0.0034836582 -0.0013345246
0003b0 07 d5 f8 3c 9d 4a 4a 3c 2f ac 92 bc 27 5b 9b 3c
       0.030375017 0.012346891 -0.01790437 0.018964363
0003c0 5e 63 2c bd d8 0e e4 bc b6 0a ff bb 78 28 8c bc
       -0.04208695 -0.02783911 -0.0077832593 -0.01710914
0003d0 97 8c b1 3c b9 57 0a 3a 51 a4 cc 3b 62 c1 6b bc
       0.021673484 0.0005277354 0.006245174 -0.014389368
0003e0 3a d7 3c 3c 05 ae 60 3b fa 1d 13 bc f4 11 d4 bb
       0.011525923 0.0034283411 -0.008979315 -0.0064718667
0003f0 51 db 21 3c 58 79 52 bc 8f 0d a6 3c 66 12 de bc
       0.009878949 -0.012846313 0.020270137 -0.027108382

fc_logvar.bias f4 [16]
000000 ee 2a f1 bb d6 30 86 3c f2 8f 2b bc f0 4d 43 3c
       -0.007359854 0.016380709 -0.010471331 0.011920437
000010 08 3c ef bd 0b 04 19 bd d8 e1 50 3c 5f c4 02 bd
       -0.11681372 -0.03735737 0.012749158 -0.031925555
000020 ca 77 68 bc 94 f1 81 3c b7 84 29 3d 42 ba 06 3d
       -0.014188716 0.015862264 0.041386332 0.032892473
000030 47 f6 2d bd 5c a4 90 bc 45 d2 2c bd 3b b1 04 bd
       -0.042471197 -0.017656498 -0.042192716 -0.032395583
