models/cvae_L8_H128_B0.010_LR1e-03.pt (torch, 214537 bytes, 13 tensors)

encoder.0.weight f4 [128, 46]
00000000: 0a74 2c3e d1d4 3abc 6da9 8fbc f5db 64be
00000010: ffdc 3abc 8791 21bd b4cd 78bc b713 2c3c
00000020: 2a1e 333c 94d3 7abd f6aa a8bc b715 093d
00000030: bc07 b93d ed97 0ebd a148 b8bd 791d 913d
00000040: e5db e1bc 6aee 113c 4817 a5bb 4182 38bc
00000050: f8d6 fbbb c169 d93c c2c6 bbbc f9c9 b2bd
00000060: b025 8a3d 324e 833d 7c82 933c 5acf 0a3e
00000070: 3fce 8cbd 4112 b5bc a6cf a7bb e249 8f3b
00000080: 6228 8d3d f7ce 153b de02 b63d 7a74 0dbc
00000090: 0a56 b63b baf2 8f3b 86c8 aebb df2e 1e3c
000000a0: 0b4a 103d 8f66 a83d 60b4 c5bd cf4e 123d
000000b0: d712 fbbc db21 e63b fb71 143e 4dfa 363c
000000c0: 0673 70bc 80c5 50be 755c 893c 6531 203d
000000d0: c70a 8d3d 9f80 dabc 3d05 87bd 6276 a23d
000000e0: 4860 813d 0cea 7ebd 4ec1 9c3c 26f6 973d
000000f0: edde 85bd 9d6b a4bc 60d2 68bc 1337 bd3a
00000100: 2b97 45bd 96c2 3fbc fa36 733d 2a97 d33a
00000110: 8494 7dbd 1fc3 c43d 534f c63d e025 4c3d
00000120: ff14 c83c 37d0 ad3d 5299 0d3e 454e 143d
00000130: 78e2 a13c 26a1 003a 0bbe 47bd e974 8fbd
00000140: ce82 7cbd 2abf 33bc 9b6b 833b a55d da39
00000150: 2cc6 05bc b5ca 233d d41e 313d f23e 633d
00000160: 80b7 d9bc eec0 4c3d c593 893c 2539 b5bc
00000170: cfb5 813e 0f81 7a3c 8377 6d3d 6c6e 233d
00000180: f907 e13c 52ea b33d 62cc 80bc 4239 5d3c
00000190: 7f58 7dbd 1370 e2bc 97e0 163d 867d d03c
000001a0: 3cc2 fe3c 6688 c33d e870 913d 1900 28bd
000001b0: 444e b6bb 8d06 3e3c 21f0 243d c672 0ebd
000001c0: 20e7 213d f56c 123d e510 4f3d a062 8ebd
000001d0: 931d 2f3d 784f d43d a6f3 84bd fecf 26bd
000001e0: d186 3fbd 2e52 cb3b fdf4 dcbc 5a97 e63b
000001f0: deb3 db3c 0fb8 a43c 3a69 193b 1d92 33bd
00000200: a3f5 c4bb 92d3 ce3b 8193 90bc fbad 04bd
00000210: 0501 e53c e4ec be3d 2958 aa3d b5e4 163d
00000220: d522 35bd 1dae ecbc 78c3 03be ad3f 513b
00000230: d453 d8bb 6593 8cbe 8cc1 ae3b 2d9d 47bd
00000240: dd52 8dbc 0ee7 b3bc 9d96 903c 8d4e e53c
00000250: e731 ba3c c28a ffbc 2d91 30bd ca6b 32bb
00000260: 9ef0 64bc 0574 46bb a0dc 083b a00e 52bc
00000270: 8786 ee3b 8b77 1dbd c505 9d3c 24df 78bd
00000280: 2872 843d b13c 69bc 5532 42bd 2fc5 03bd
00000290: d4b6 5ebd 0dfb 433c 432a cc3d 3422 58bc
000002a0: 5226 3fbb 39b5 5eba 674f 1d3c 2232 f3bc
000002b0: 5dc9 d53a e4dc 6dbc d1ea b4ba 39b5 5eba
000002c0: 8cf2 ac81 d864 58bb 73c2 403c 067a c83c
000002d0: ca26 573d 8c79 193d 3422 58bc 45b5 5eba
000002e0: 9903 a1be f8b1 143c 5635 acbb eda7 b33e
000002f0: 76f0 523c f155 b3bb 504a 823d f6e7 d33c
00000300: fa9e 8abd 7853 583d 19d5 19bd 94e5 85bc
00000310: 2a9b 873d b8ca ab3c 9922 a2bd 2cc1 db3b
00000320: 0b60 09bc 3ff7 3b3c 768f 963b a5c6 813c
00000330: c44e a6bc 886f cbbd 736e d83d 89da babc
00000340: 1963 813d 1c63 ad3c 3056 163e 311d 003e
00000350: 1491 debc 85d0 0abd 4a46 79bc 73ed b4bc
00000360: 8fd8 563c e5d5 40bd eeee b63d 3010 8e3c
00000370: fbdb a83c 8dba bebb fe3d 72ba 5519 df3d
00000380: b056 2c3d 8ad4 9f3d 09db debb 010d 75bd
00000390: 17ab 983d 261e 943c 147f 233e ae55 28bd
000003a0: fb7d 82bd f48c 21bd 7800 f53c 877d b3bd
000003b0: 4e7e da3d 765f 493d e6e5 c4bd 346c 763d
000003c0: fd23 1d3c 146a 02bc 8d79 7b3d 7659 09bd
000003d0: 36a4 43bd 666f 7539 88c3 1bbc b4ce 2a3d
000003e0: 6716 5a3d 9010 403c 5513 1a3d 29af 89bd
000003f0: 4e82 6a3c 3f27 6bbd 15c2 74bc 58cc 4aba
0.1684114 -0.011403278 -0.017536843 -0.22349532 -0.011405229 -0.039445426 -0.015185762 0.010502747
0.010932485 -0.061236933 -0.020589333 0.033467975 0.09034678 -0.034812856 -0.08998228 0.070856996
-0.027570674 0.00890694 -0.0050381757 -0.011261524 -0.0076855384 0.026539685 -0.022921924 -0.087299295
0.067454696 0.06411399 0.018006556 0.13555661 -0.06875276 -0.02210343 -0.005121189 0.004372821
0.06892468 0.0022858956 0.088872656 -0.008633727 0.005564456 0.004392949 -0.005333963 0.00965473
0.035226863 0.082226865 -0.096535444 0.03571969 -0.030648632 0.007023079 0.14496605 0.011168075
-0.014675861 -0.2038784 0.01676772 0.039109606 0.06886821 -0.02667266 -0.06592796 0.07932736
0.06317192 -0.062234923 0.019135144 0.07419996 -0.0653666 -0.020070845 -0.014210314 0.0014435969
-0.048239868 -0.011704108 0.0593786 0.0016143073 -0.061909214 0.09607529 0.09683099 0.049840808
0.024424074 0.084869795 0.13828018 0.036207456 0.019761309 0.00049068255 -0.048765223 -0.07004721
-0.061648183 -0.01097087 0.0040106303 0.0004164997 -0.008164924 0.03998824 0.04324229 0.05547995
-0.026576757 0.04998868 0.016794095 -0.022121975 0.2533402 0.015289559 0.057975303 0.03990023
0.027469622 0.087849274 -0.015722457 0.013502421 -0.061851975 -0.027641332 0.03683528 0.02545048
0.031098478 0.095475 0.07101613 -0.041015718 -0.005563529 0.0115982415 0.040268067 -0.034777425
0.03952706 0.03574844 0.05055322 -0.06952405 0.042752814 0.1036672 -0.06491785 -0.0407257
-0.04675943 0.006204865 -0.026972288 0.0070370855 0.026819166 0.020107297 0.0023408667 -0.043840516
-0.0060107275 0.0063118422 -0.01764846 -0.032392483 0.027954588 0.09322527 0.083175965 0.036839206
-0.04422267 -0.028891617 -0.12867534 0.0031928823 -0.00660179 -0.27456203 0.005333131 -0.04873388
-0.017251426 -0.021960761 0.017649943 0.027991557 0.022728873 -0.031194095 -0.0431072 -0.0027224892
-0.013973383 -0.0030281555 0.0020883456 -0.01282087 0.0072792205 -0.038444083 0.01916779 -0.06075968
0.06467086 -0.014235661 -0.04741128 -0.03217047 -0.054373577 0.011961711 0.09968998 -0.013191748
-0.0029167128 -0.0008495632 0.0096014505 -0.029686991 0.0016310621 -0.014517996 -0.0013802891 -0.0008495632
-6.353086e-38 -0.0033019092 0.01176511 0.024472248 0.052527227 0.03746943 -0.013191748 -0.0008495639
-0.31448057 0.009075634 -0.0052553816 0.35089055 0.012874713 -0.0054728915 0.0636183 0.025867444
-0.067686036 0.052813977 -0.03755674 -0.016344823 0.06621392 0.020970687 -0.07916755 0.0067063775
-0.008384715 0.011472522 0.0045947386 0.015841791 -0.02030123 -0.09933382 0.105679415 -0.022809284
0.063177295 0.021165423 0.14681315 0.12511136 -0.027168788 -0.033890266 -0.015214512 -0.02208588
0.013113155 -0.047078986 0.08932291 0.017341703 0.020612707 -0.0058205784 -0.0009240805 0.108935036
0.04207486 0.078042105 -0.0068010134 -0.059826855 0.07454508 0.018080782 0.15966445 -0.041097336
-0.06371685 -0.039441064 0.02990745 -0.08764177 0.10668622 0.049163304 -0.09614162 0.060161784
0.0095911 -0.007959861 0.061395217 -0.033532582 -0.047764026 0.0002340652 -0.0095070675 0.041701034
0.05324402 0.011722699 0.037616093 -0.06722862 0.014313294 -0.057410475 -0.014938851 -0.0007736138

encoder.0.bias f4 [128]
00000000: 91ef dd3c 3082 ff3c dd81 6dbd 5db4 5cbd
00000010: 704a 873c 75c1 513d 1456 873b d418 843d
00000020: 8ba7 9bbd ee4f 87bd 4684 8cbc 858e 9a3d
00000030: 5e2d 323b 65ef 92bc bfb4 ccbd d342 033e
00000040: 4c6e 66b8 9c3b 2cbd 6b25 4fba b364 eeb5
00000050: 5bbb f2ba 05f4 c5bd 4959 963d 0659 b33d
00000060: e971 243c e6c6 ebbc c04e 6abc 7c8c f0b9
00000070: fefa af3c 5108 d03d a611 cbbb f41d e13c
00000080: 20fc 90bd 7ced a93d d3e6 7ebc 9cf6 fbbb
00000090: c56d 8ebc 4e08 083e b2ec cbbc b93b bebc
000000a0: 4861 c0bd 8987 1cbc 555c 6ebd dda5 d73d
000000b0: 1804 4d3a 73d7 d13d b8d3 c33d 10b1 3a3e
000000c0: e7b4 a93c 648e 6e3d 4fcf 55bd 563f 51bd
000000d0: 1352 8abb 88a3 6c3b dce0 efbc 7b9e 94bc
000000e0: 97a7 c5bc df1f 68bd dc1c 043e 7a17 843d
000000f0: d284 793d 6c65 043e 910a 1d3e 5bbd 05be
00000100: a06c 953d 2035 27bc b805 b43d 7e32 42bd
00000110: aeba 4b3e 68c7 463d 8a69 3cbb 30f7 aa3d
00000120: 21e9 24bd 431e 323d eda9 bebc 0f35 1cbd
00000130: 52bf 043d 57cf 5a3d 500b 50bc cf08 56bd
00000140: 38c0 36ba 4077 6fbd 7275 dc3d 84c7 bd3d
00000150: 756c 4abd 87fa 0c3e 7c2c d53d f5a7 6cbd
00000160: 7bf7 29bd b48e e73d 06fc 063e 8b27 37bb
00000170: 404e 943d 7d71 ca3c 9e2c 7ebd 0a16 1b3d
00000180: 1ff6 7f3d 50e8 8b3d 18fb a83d 426b e3b8
00000190: d894 b4bd a300 793c 6f10 b6bd 901f c23d
000001a0: af82 1c3e a940 c53d 0e3f a53d 9fe4 343d
000001b0: 7ece 733d 59ff 86bd d34a a53c 0ab2 26bd
000001c0: ffdb f23d 35c0 d13d e405 9f3d e41d 5c3d
000001d0: 64d3 233d 559e f73c bce0 183e c92c 093e
000001e0: d74d 0c3e 5ad9 923d 061b dbbc 4451 eeb9
000001f0: 2507 fe3b c714 a3bc 6ffe 6f3d 5aab e33d
0.027091773 0.031190008 -0.057985175 -0.053882945 0.016514987 0.051209886 0.0041301344 0.06450048
-0.07600316 -0.06607042 -0.017152917 0.07546715 0.0027187685 -0.017936418 -0.09995412 0.1281846
-5.4938995e-05 -0.042049035 -0.0007901999 -1.7761689e-06 -0.0018518971 -0.09665684 0.073412485 0.08757214
0.010036924 -0.028781366 -0.014301002 -0.00045881036 0.021481987 0.10157836 -0.006197172 0.027480103
-0.07079339 0.0829725 -0.0155579625 -0.0076893102 -0.017386327 0.13284418 -0.024893139 -0.023221837
-0.09393555 -0.0095537985 -0.058193523 0.10529683 0.00078207394 0.10246172 0.095618665 0.18231606
0.020716144 0.058241263 -0.052199658 -0.051085792 -0.00422121 0.0036108214 -0.029282026 -0.018141976
-0.024127765 -0.05667102 0.12901634 0.0644979 0.060917683 0.12929314 0.15336062 -0.13060515
0.07296109 -0.010205537 0.08790153 -0.047411434 0.19895431 0.048530012 -0.002874943 0.083479285
-0.04026139 0.04348589 -0.023274386 -0.038136538 0.03240902 0.05342039 -0.01269801 -0.052254494
-0.0006971392 -0.058463335 0.107645884 0.0926657 -0.04941984 0.13767444 0.10408875 -0.057777364
-0.04149578 0.11306515 0.13182077 -0.0027947153 0.072414875 0.024712319 -0.06205427 0.037862815
0.06249058 0.068314195 0.08251017 -0.00010844182 -0.08817452 0.015197906 -0.08889853 0.09478676
0.15284227 0.096314736 0.08068667 0.044163343 0.0595231 -0.065916725 0.02017728 -0.040697135
0.11858367 0.10241739 0.077647954 0.053739443 0.03999652 0.030226866 0.1492948 0.1339599
0.13701569 0.07170363 -0.026746284 -0.00045455445 0.0077523165 -0.019907368 0.058592256 0.11116667

encoder.2.weight f4 [128, 128]
00000000: 27ee 86bb e3ef 0d3d 00a5 e6bc 3bd0 9d3c
00000010: 6311 3cbd 566e 55bc a388 a8bc 1a78 d0bb
00000020: 34bb 96b9 dd61 8eba e6c3 0c3c d28f 77bc
00000030: 104d 16bc 2e33 f73c 51e4 dabb c154 103d
00000040: 0b4b 4bb6 13e0 87bb 8978 04bb 3b04 7bb1
00000050: 5949 c437 1f4b 383a f993 ea3b 26d0 10bd
00000060: 71d0 afbb f4df b1bb 1bdd 75bb 385c 38bc
00000070: b8b7 9539 e9c1 153c 646f f7ba 7a37 b1bc
00000080: f6bc 19b9 bc46 b33c 6fef 70bc 5e1c eeb7
00000090: abfb 503b 3bd7 b9bb 1f5a 03bb 05af 81ba
000000a0: 3e21 89bc ae86 083b d916 ecbc 541a 93bc
000000b0: dbbd acbc bb75 9fbc 452f ee3a ecd3 4b3c
000000c0: 342e 0f3d 1ef1 4fbc bf90 8dba 1c1c 573b
000000d0: 347f 05bc 503d 2bbc 6dc9 21bd 3c7b 8fbb
000000e0: 0624 a43c 78b2 37bd 018e ba3c f0b9 243c
000000f0: 0549 fdbb 0661 cd3c 43f2 bc3c f163 e1bc
00000100: 6141 47bc 7fa3 cfb8 ba95 493b 25d5 173c
00000110: 4c2e e0bc 4b83 983a 824b 65b8 3b8d 393d
00000120: 3c10 ecbc 614d bb3b 15c0 7cbb 7f3e e73b
00000130: 259d d13b a239 563b f0d4 44bc 934b 5e3b
00000140: ef0a 3ab8 f1d9 c1bc 4eaf 81bc ca5b 233c
00000150: 5214 1fbb 0809 00bd b143 dabc 6084 91bb
00000160: 7a16 103d da77 c2bc c05d da3c 76ef 65b8
00000170: abc9 31bc 6781 e9bb bb66 1cba cc7f ab3c
00000180: e470 03bd 1f10 133d 2f64 213d 734b 8d34
00000190: 2154 10bd b4bb 0c3d fb5d 4dbd a0cb b63b
000001a0: 70fb 63bc 7548 933c 4fd8 2a3d 153a 40bc
000001b0: 53c8 f73c 4861 21bc 34fc 33bc e1cb 7ebc
000001c0: 9f3a f3bb 476c 3e3d 3741 66bc 9a2d 823c
000001d0: 1115 25bd 4ff0 493c 37b1 4e3c e2ba a2bb
000001e0: effd b7bc 979d b4bc dc3b bfba 54c2 0eb8
000001f0: 41ab 253a a3ab f3bc 1c8e 83bb 1b27 973c
00000200: 9742 6f3a 351d 71b8 45c6 bcba 92c8 3538
00000210: 7d20 1bbb 3b8f 28b9 bc4a 16ba c4fd 21ba
00000220: cdfa e9b7 e367 9d36 7ddb 0fb9 20f9 28ba
00000230: 26ad 4fba 9ade 013a 3c79 4fba 5c4b cc39
00000240: cf24 14b3 5706 cab9 3f02 b9b8 c432 942f
00000250: c3a2 8bb5 9f85 d4b9 b6ac dbb9 276d b3ba
00000260: e8ab 92b9 a371 ffb9 4a88 7db9 7bbb 86ba
00000270: f812 e9b8 1d0c e63a 84ff 21ba 632c afba
00000280: e0f0 f133 29a2 8bb9 d71a 1fba 9609 4cb9
00000290: 7697 72b7 653e 1fbb 42aa b2b6 1f4e ffb6
000002a0: 338e 9cba 572a e03a 65d5 81ba 1fa0 0439
000002b0: f8a2 d3ba a69f d7ba a4b5 94b9 261d 45bb
000002c0: ab18 d4ba a4a9 8fba 5aa4 38b8 2971 9eb7
000002d0: 1362 e1ba bec5 32ba d981 e0ba fa95 8039
000002e0: d8f4 98b8 09fd 1fbb 0b0d 2bba be89 263a
000002f0: 5867 6cba 4de5 703b ad2a 023c 881e 77ba
00000300: 9b28 1c3a 19f4 dfb5 f6c7 39ba da06 c839
00000310: 8271 663b 3e04 94b9 ba07 26b7 0f4a 2d39
00000320: 8ffa 98ba cd67 a039 fc74 c4b9 9f96 16b9
00000330: c1a8 8eb6 e34f 21ba a738 6eba 6856 1bb9
00000340: 3222 8fb5 c7b6 73ba dc0e c0ba 6309 bbb7
00000350: cc27 13ba 8a22 04bb a9c4 b2ba 7cac 22ba
00000360: e21f ea3a 68a8 bdba 4823 083b 69b9 1cb6
00000370: d74d 74ba 8fcd 15ba c51c d1b5 678b 193a
00000380: 1e70 c9ba dbe5 80bb a37d 593b 309a 9db3
00000390: 78f5 b5ba c386 dab9 2fec 08bb a0b7 7838
000003a0: 82c5 e1ba 389d 3539 5136 65bb 94a2 a7ba
000003b0: 7011 553b 0250 b3b9 b2bb 7cba 28ab 7eba
000003c0: 846c 913b 1c6d 9cbb ed8c 90ba 2adb 013b
000003d0: 4db4 c7ba 5d4d 21bb 583b 913a 2bd1 72ba
000003e0: 8943 863a ca40 65ba f5b0 ccb8 8138 55b5
000003f0: 7e32 44b6 0a20 10bb 6a2f a6b9 5d71 e43a
-0.0041177454 0.034652602 -0.02815485 0.019264331 -0.04591502 -0.013026794 -0.020572966 -0.0063619735
-0.00028749707 -0.0010862906 0.008591628 -0.015109973 -0.009173647 0.030175772 -0.0066800495 0.035237078
-3.0293038e-06 -0.004146585 -0.0020213446 -3.6527712e-09 2.3399176e-05 0.0007030237 0.007158753 -0.035354756
-0.0053654243 -0.0054283086 -0.0037515822 -0.011252455 0.00028556376 0.00914047 -0.0018877801 -0.021632899
-0.0001466161 0.021884315 -0.014705523 -2.838502e-05 0.0031888287 -0.0056714094 -0.002004273 -0.0009894079
-0.016739484 0.0020832228 -0.028819488 -0.01795689 -0.021086624 -0.019465318 0.0018172046 0.012440663
0.034956172 -0.012691764 -0.0010800584 0.003282315 -0.008148003 -0.01045163 -0.039498735 -0.0043787044
0.020036709 -0.044847935 0.02277279 0.010054097 -0.007729652 0.025070678 0.023064738 -0.027513476
-0.012161584 -9.900983e-05 0.003075941 0.009267126 -0.027365826 0.0011635808 -5.4668177e-05 0.045300703
-0.028816335 0.0057160114 -0.0038566638 0.0070570107 0.006396907 0.003268816 -0.012013659 0.0033919557
-4.435604e-05 -0.023663493 -0.015830662 0.009970615 -0.0024273586 -0.031258613 -0.026643606 -0.004440829
0.035177685 -0.02373879 0.026656032 -5.482087e-05 -0.010851304 -0.0071260217 -0.0005966236 0.020934962
-0.032090083 0.035904046 0.039402183 2.6318193e-07 -0.03523648 0.034358695 -0.050138455 0.005578473
-0.013914928 0.017978886 0.041710194 -0.011732598 0.03024689 -0.009849854 -0.010985423 -0.015551538
-0.0074227597 0.04648998 -0.014053634 0.015890885 -0.040303294 0.01232536 0.0126154935 -0.004966126
-0.022459952 -0.022047801 -0.0014589983 -3.403642e-05 0.00063197693 -0.029744929 -0.0040147435 0.018451264
0.0009127049 -5.748608e-05 -0.0014402351 4.334056e-05 -0.0023670488 -0.00016075086 -0.0005733182 -0.00061794766
-2.7892553e-05 4.6910586e-06 -0.00013719308 -0.0006445814 -0.00079222245 0.00049541297 -0.00079144887 0.0003896606
-3.4492412e-08 -0.00038533166 -8.821906e-05 2.6957114e-10 -1.0403677e-06 -0.00040535346 -0.00041899615 -0.0013689146
-0.0002797537 -0.00048722056 -0.00024178732 -0.0010279262 -0.00011113839 0.0017551217 -0.00061797374 -0.0013364669
1.1266252e-07 -0.00026632965 -0.0006069368 -0.00019458527 -1.4459589e-05 -0.0024298665 -5.324634e-06 -7.6086867e-06
-0.0011944234 0.0017102462 -0.0009905515 0.00012648151 -0.0016146591 -0.0016450777 -0.00028364093 -0.0030077188
-0.0016181668 -0.0010960591 -4.4022083e-05 -1.8887762e-05 -0.0017195366 -0.0006819627 -0.0017128541 0.00024525804
-7.2935305e-05 -0.0024412295 -0.0006525076 0.00063529226 -0.0009018085 0.0036757768 0.007944745 -0.0009426852
0.00059569784 -1.6685836e-06 -0.00070869864 0.00038152077 0.003516287 -0.0002823192 -9.89617e-06 0.00016526155
-0.0011671352 0.00030594916 -0.00037471193 -0.00014361225 -4.2515753e-06 -0.00061535666 -0.00090874213 -0.00014814141
-1.0664282e-06 -0.00092969503 -0.0014652866 -2.2296508e-05 -0.0005613535 -0.0020162188 -0.0013638932 -0.0006205512
0.0017862285 -0.0014469745 0.0020772982 -2.3353734e-06 -0.00093194604 -0.00057145295 -1.5580086e-06 0.00058572594
-0.0015368497 -0.003933651 0.0033186458 -7.338929e-08 -0.001388236 -0.00041680606 -0.002089273 5.929882e-05
-0.0017225 0.00017320074 -0.0034975002 -0.0012789541 0.0032511614 -0.0003420115 -0.0009641006 -0.00097148353
0.004437985 -0.004773749 -0.0011028327 0.001981447 -0.0015236229 -0.0024612762 0.0011080308 -0.0009262736
0.0010243516 -0.0008745311 -9.760439e-05 -7.943091e-07 -2.9235666e-06 -0.0021991753 -0.00031697314 0.0017428804

encoder.2.bias f4 [128]
00000000: 379b 6ebb b8e7 c63a eb17 c53b 4006 d23a
00000010: 331a 4198 d7a4 0abd 0a7d d93d 4f45 ca3d
00000020: 9f27 a33d 6326 ff3c 5d62 493d 054f 29bc
00000030: 2322 953d 5e98 393d 5bde e63d 5885 cf3c
00000040: 24f2 a5bd aa74 803d 69b5 363e 89c1 34aa
00000050: a169 1fbd 1a08 a23d 7ee4 323d 9489 39b3
00000060: 0183 2cba 471d 23b6 9cfd 6e35 2858 afbc
00000070: dcba a73d 2ce3 803d 89a8 66bc a766 763d
00000080: bc33 e789 b281 64bc a254 aa3c 1ca1 953d
00000090: 9d00 5cbd 3970 d23d e8e2 d8bd f136 9abc
000000a0: a27e 903d 1c22 d13d 640c d2b9 62bc 46ab
000000b0: 8747 373c 4de4 8bbc 5c00 fb3c 15a8 413d
000000c0: 1262 5e3d 4729 f43d 9e4f 133d 3c3a 24bd
000000d0: fa6d f53d fd08 5aaa 51ad 733d 2cc9 823d
000000e0: ceaa e73d 8583 63bd bb9a 14bb 2ea9 df81
000000f0: f6e9 933d cba8 1fb3 0843 a13d ee10 a1b0
00000100: 2f34 a63d f8ac 4d9c ce17 f4a8 ac77 4c3b
00000110: 26fe b181 1082 edbc 14bb 003e 3a7e 2c3d
00000120: 640b 563d d388 0fbc a792 503d baf1 c03c
00000130: f898 383d fa3c 8b3d 44ad bdbc 8286 993d
00000140: 8c4e fc3d 9fbf cc3d 3883 3d3d 84d8 e93b
00000150: 3d40 74b4 2e2e b63d ade7 eb3c 760b 4c3d
00000160: eaae 9e3d c148 263d e015 383d 1e80 6d3d
00000170: f268 8382 8ab2 26bc 4ca5 b83d 025c be3d
00000180: c456 be3d 4908 9cbc f2ca 833c b8e3 903d
00000190: 2a3f b73d 183d beba 6154 033e 751b c597
000001a0: 1540 53a0 2ed5 aa3d c833 63ba bdf7 6d3c
000001b0: 41b6 0eb6 7eef c43d 2296 d43d 37e8 143d
000001c0: 9d2f f6ba 3752 c3bc 1c3e d73d f2cb 77bc
000001d0: 339a 42af d170 9c3d 3781 b2bc fa7f 8e3d
000001e0: d1f4 c63c 47e2 b13d 39e9 2abc f657 32aa
000001f0: 3a97 a13d 5803 a1bc 177f 5bbc d45f c4bd
-0.0036408433 0.0015175259 0.006014814 0.0016023591 -2.4957893e-24 -0.03384861 0.106195524 0.09876501
0.079665415 0.031146234 0.049166072 -0.010333781 0.07281902 0.045311324 0.1127288 0.025332138
-0.08102825 0.06272252 0.1784264 -1.6054358e-13 -0.038919095 0.079117015 0.04367494 -4.3198796e-08
-0.00065808004 -2.4305934e-06 8.903096e-07 -0.02140434 0.081899375 0.062933296 -0.014078268 0.06015649
-5.5659878e-33 -0.013946937 0.02079231 0.0730612 -0.053711522 0.10275311 -0.10590154 -0.018825026
0.07055403 0.10211584 -0.00040063553 -7.0605165e-13 0.011186487 -0.017076636 0.03063982 0.047279436
0.054292746 0.119219355 0.0359646 -0.0400946 0.11983867 -1.9365408e-13 0.05949146 0.06386027
0.11311875 -0.05554535 -0.0022675234 -8.2160024e-38 0.07222359 -3.717359e-08 0.07874113 -1.1719103e-09
0.08115422 -6.8052367e-22 -2.7099765e-14 0.003119926 -6.5384216e-38 -0.028992683 0.12571365 0.042112567
0.052256957 -0.008760649 0.05092111 0.023552764 0.045067757 0.0679874 -0.023153909 0.074963585
0.12319669 0.09997486 0.046267718 0.0071364064 -2.274764e-07 0.08895527 0.028796995 0.049815618
0.07748206 0.040596727 0.044942737 0.05798351 -1.9308956e-37 -0.010174403 0.09015903 0.09294893
0.09293893 -0.01904692 0.016087983 0.07074684 0.089475945 -0.0014514057 0.12825157 -1.2737758e-24
-1.7893598e-19 0.08341442 -0.0008667079 0.014524397 -2.1265735e-06 0.09615992 0.10380198 0.03635427
-0.00187825 -0.023842914 0.10509893 -0.015124308 -1.769898e-10 0.076387055 -0.02179013 0.06958003
0.02428666 0.08685737 -0.010431581 -1.5840093e-13 0.07890172 -0.019654915 -0.013397 -0.0958859

fc_mu.weight f4 [8, 128]
00000000: 10cd 51b9 708d ae38 b8b9 0aba bc34 643a
00000010: d179 e800 3cb1 1cb9 7a34 b0ba ab50 a6ba
00000020: 29df bb3a 34e9 a63a 78ff 18ba fd4e 6db9
00000030: c54c 773a b225 b6b8 624f dcb8 5010 c438
00000040: c342 e5ba cd39 87ba 73b0 1abb f815 7301
00000050: b051 8e39 bdfd a539 0e29 073a 8187 5030
00000060: 87a4 4332 c2dd ae81 45e6 e938 4fd7 b83a
00000070: c7ab d5b9 df10 723a 13a9 783a bfd4 50ba
00000080: e3c9 c580 62b7 a2b9 6599 3ebc 9d2a efb8
00000090: 636f 7a3a b82e 1abb c7bb 0fb8 5913 323a
000000a0: 4e5c 013a 8489 02b8 5f72 533a 9b2f d301
000000b0: 8061 13ba 4e52 463a 5e34 30bb 702b 8638
000000c0: be68 3939 5794 443a 9e62 1238 c4e0 eb39
000000d0: 513f 9eb9 ee98 1481 5c99 933a 53e6 4839
000000e0: 3d8d e43a 07d9 733a 2d7c a03a fc4e 6214
000000f0: 2bf7 67b9 4cf1 0a00 76d7 d239 ac7f 8301
00000100: 5553 4bba 5bf5 8881 3abe 8a32 95ca 1bb7
00000110: 86a4 4381 efa5 cd3a 304d 963b 641d 5dba
00000120: 1556 8eb9 3d17 6d3a 6b5c 94b9 9475 c6b7
00000130: f628 c33a f97d 9d3a ed55 9c3a 7b07 7f38
00000140: f283 18bb a2b8 d3b7 d0a7 bd3a c241 91b9
00000150: 36f2 1882 992d 8c38 50d6 dd37 8cc0 c7b8
00000160: 7b45 553a f94f 423b deb1 473a 66bc 823a
00000170: 6a11 a001 11a6 6f3a 5708 e939 3810 0c3a
00000180: 406c 813a 2e2b f938 b94f 1f3a e4bb b1b9
00000190: e3ff f7b9 4b43 98b8 205e 3dbb 70d8 2b80
000001a0: 1d99 2c0b 9d55 91b9 9ccc a32d afd0 92b8
000001b0: 8c3b afb9 362a 2e3b 838e d739 ce51 94b8
000001c0: b885 ccba 44db 9f3a 77a7 abba f8a7 34b0
000001d0: 49ef adab d1f8 23bb a331 01ba 59d7 1b3b
000001e0: abff df39 827a 3db9 d243 a439 cc07 3181
000001f0: 0c14 a1b9 e5fa 08b9 9bb2 9cb9 656b 0cb9
00000200: 72c2 0aba ef59 4cb7 8885 52b9 6974 d139
00000210: 5998 9901 6966 b039 aa8f bf38 c453 6b39
00000220: ea7c edb8 426c 023a 31b6 2bb9 5293 4d38
00000230: bce7 5eb9 3a80 3837 8b31 43b8 abfb a037
00000240: b87b e238 1478 52b9 6523 ee39 97c4 0380
00000250: 1ca9 82b7 7fe5 26b9 fd2c 8038 e2e9 bfaf
00000260: 3700 4712 be4b 5f01 2ac7 852d e2b9 49b8
00000270: d4d6 2237 f3fb 6fb9 110d 5e39 b2ae 5b38
00000280: 1b1b 4e00 9903 f8b9 bf70 573a 0c50 3339
00000290: fe87 50ba 914a fb37 f4a5 bf39 ed39 a0b9
000002a0: 134d 5139 ddd2 4738 c12d 4cb7 9da3 2280
000002b0: b25a 5037 57ce c0b9 d10b c838 f45f 9f38
000002c0: 08e0 7339 9b3b efb9 7b8d 2b39 5701 c7b8
000002d0: 6492 5e39 7c39 2c01 c920 0b39 bfed cab9
000002e0: 80da 3db8 001c a9ba 7939 9d39 9d0f 4200
000002f0: f9ed 5838 c6f9 5d80 27d1 2fb9 35d6 1201
00000300: 03fd b3b9 5d80 fc00 b059 0c87 5da5 9a36
00000310: 787e 9181 642c 64ba 85aa 5739 a75e c338
00000320: 723a f4b9 781e 5db9 58ff 3b38 0830 52b9
00000330: 3f53 cbb7 6cc6 26b8 8945 e3b9 eac5 1839
00000340: f3d6 7539 1389 4339 a8a4 2e37 9a15 5bb9
00000350: c87e 9301 b56d 18b9 264a eab8 a0db 6a36
00000360: 8bb7 46b9 d985 64b8 0d68 2ab9 24a3 2839
00000370: e756 4481 cdb9 77b9 8756 75b8 4675 dcb9
00000380: d966 8538 0af1 1a36 34ac abb8 0254 f637
00000390: 5c2d 1839 982a e137 71c4 96b9 9451 2181
000003a0: 351c 3e0b 542a 3339 fa6b 3598 9683 0e38
000003b0: e613 d0b1 65f2 a838 37eb 5db7 5555 7039
000003c0: 74c8 963a e551 1fb8 286e 7339 469d f6ad
000003d0: c71f 332b faaa 38b9 59cf 8639 2c05 36b9
000003e0: 30e3 d9b6 600e b8b9 96aa 8cb8 12aa 1201
000003f0: 2d66 0439 6bac d638 f745 28ba 598b d7ba
-0.00020008185 8.323311e-05 -0.00052919565 0.0008705368 2.1349535e-38 -0.00014943344 -0.0013443374 -0.0012688836
0.0014333475 0.0012734295 -0.00058364077 -0.00022631507 0.0009433742 -8.6854576e-05 -0.00010505204 9.349047e-05
-0.001749121 -0.0010316909 -0.0023603707 4.4647813e-38 0.00027145213 0.00031660302 0.0005155959 7.586252e-10
1.1387903e-08 -6.423571e-38 0.00011153197 0.0014102253 -0.0004075451 0.00092340814 0.0009485643 -0.0007966272
-1.8164016e-38 -0.0003103568 -0.011633252 -0.000114043454 0.0009553341 -0.0023526382 -3.4268738e-05 0.0006793044
0.0004934714 -3.1122487e-05 0.0008066054 7.757747e-38 -0.00056221336 0.0007565365 -0.0026886682 6.397709e-05
0.00017681994 0.0007498911 3.4900957e-05 0.00044990156 -0.00030183283 -2.7293029e-38 0.0011260915 0.00019159289
0.0017437112 0.0009302054 0.0012244039 1.1425661e-26 -0.00022121954 1.004916e-39 0.00040214852 4.8305e-38
-0.0007756253 -5.031058e-38 1.615182e-08 -9.285887e-06 -3.5933883e-38 0.0015689711 0.004586838 -0.00084348605
-0.00027148487 0.00090442953 -0.00028297617 -2.3658191e-05 0.0014889527 0.0012015692 0.0011927463 6.0803704e-05
-0.0023272005 -2.5239136e-05 0.0014469568 -0.0002770555 -1.1236707e-37 6.6842134e-05 2.644505e-05 -9.524924e-05
0.00081356586 0.0029649718 0.0007617752 0.000997436 5.8799705e-38 0.0009141872 0.00044447437 0.0005342993
0.000987418 0.00011881288 0.0006077248 -0.0003390006 -0.00047302162 -7.260459e-05 -0.0028895214 -4.02657e-39
3.3241185e-32 -0.00027720342 1.862182e-11 -7.000693e-05 -0.00033422967 0.0026575453 0.00041114175 -7.072427e-05
-0.0015603816 0.0012196084 -0.0013096173 -6.5722316e-10 -1.2358804e-12 -0.0025020132 -0.0004928356 0.002377948
0.00042724362 -0.00018070082 0.00031331048 -3.251536e-38 -0.0003072325 -0.00013063436 -0.0002988771 -0.00013391448
-0.0005293257 -1.2180287e-05 -0.00020076905 0.0003995032 5.642193e-38 0.00033645637 9.134349e-05 0.00022442552
-0.00011324308 0.0004975238 -0.00016375702 4.901301e-05 -0.00021257898 1.099711e-05 -4.6537763e-05 1.9190678e-05
0.00010799564 -0.00020071893 0.00045421268 -3.4603e-40 -1.5575955e-05 -0.00015916488 6.111895e-05 -3.490888e-10
6.2793593e-28 4.1012974e-38 1.5208796e-11 -4.809525e-05 9.705971e-06 -0.00022886675 0.00021176437 5.2376367e-05
7.172892e-39 -0.00047304927 0.00082183996 0.0001710059 -0.0007954835 2.9956254e-05 0.00036554004 -0.00030560736
0.00019960506 4.764168e-05 -1.217e-05 -3.1811e-39 1.2418883e-05 -0.0003677483 9.538944e-05 7.5995835e-05
0.00023257744 -0.00045630042 0.00016360536 -9.489309e-05 0.00021226105 3.1632654e-38 0.00013268286 -0.00038705577
-4.5264605e-05 -0.0012902021 0.00029988194 6.066744e-39 5.1720042e-05 -8.630303e-39 -0.00016767216 2.696965e-38
-0.0003433005 2.3188593e-38 -1.0558786e-34 4.6088085e-06 -5.344606e-38 -0.00087041245 0.00020567521 9.315955e-05
-0.00046582852 -0.00021087553 4.482208e-05 -0.00020045054 -2.423825e-05 -3.976228e-05 -0.00043348622 0.00014569578
0.00023445096 0.00018647713 1.0409545e-05 -0.00020893515 5.4181194e-38 -0.00014536719 -0.00011171801 3.4996556e-06
-0.00018951127 -5.448409e-05 -0.00016251225 0.00016082503 -3.6061864e-38 -0.00023624972 -5.8493137e-05 -0.00042049045
6.361091e-05 2.3088091e-06 -8.185991e-05 2.9364604e-05 0.00014512747 2.6841924e-05 -0.0002875659 -2.962956e-38
3.661389e-32 0.00017086539 -2.3448216e-24 3.3977987e-05 -6.055859e-09 8.056014e-05 -1.3227392e-05 0.00022919972
0.0011503831 -3.7984824e-05 0.00023215322 -2.8036806e-11 6.3637675e-13 -0.00017611301 0.00025712958 -0.00017358799
-6.493552e-06 -0.00035105925 -6.707494e-05 2.6937984e-38 0.00012626564 0.000102364305 -0.0006419117 -0.0016444727

fc_mu.bias f4 [8]
00000000: 8911 eb3b c65b d3b9 dcd9 033a 5c34 63bd
00000010: 89a0 60bc 3210 97bb 6c63 14ba eec1 b0bb
0.007173721 -0.00040313433 0.0005029717 -0.055469856 -0.01371015 -0.004610085 -0.0005660567 -0.005394212

fc_logvar.weight f4 [8, 128]
00000000: 817b 93b9 4823 3737 aa59 a938 5063 da38
00000010: 8cee 0902 a830 9bb8 1807 d9b7 0b97 d3b8
00000020: 0e56 4fb9 e6ab 2eb9 0030 a136 8254 4fb9
00000030: 8ff3 2a39 4c59 b038 1c69 7c38 2e7b 0eb9
00000040: 3db1 b7b9 6c5a 78b9 3cac b3b8 e4ef 7900
00000050: ca29 1fb9 d601 0839 52aa 0cb9 afff 412e
00000060: 0082 f521 9308 4e81 4c71 412c 1fcd 3eb9
00000070: e8c5 9f37 c6a9 a1b8 504b e036 10b1 f7b6
00000080: ac98 3481 25bf 9a37 72ec ea38 e732 5239
00000090: c5f0 94b9 abea 89b8 ba58 8f37 4005 52b8
000000a0: d38f fc38 9ee2 4538 6e7d 48b8 be5d c181
000000b0: 5499 9db8 4c77 38b7 faec 81b9 4cb6 e7b7
000000c0: 2324 89b9 e0f1 4236 7b43 27b9 d8b2 df36
000000d0: 2f44 bdb8 7e55 2401 d0d1 5239 6b55 5438
000000e0: 2767 9138 7bce dab9 647d 4eb9 fe21 e281
000000f0: 235c 10b8 6fa6 1202 e0ba 8db9 24fd 4d01
00000100: 48aa 7b37 4c36 9801 e220 db0e fb98 1137
00000110: 3a7b 1601 fc17 97b9 e01b 89b8 2d60 8ab8
00000120: 03e5 bdb9 da25 e7b8 38a7 a0b8 80ea 37b6
00000130: ab93 dd38 267d f0b8 1ee0 bab9 e45e cfb8
00000140: 70b6 98b8 a845 66b7 005e 4335 8203 15b9
00000150: 3cc3 3901 74f2 0139 0ec0 8c39 de58 bab8
00000160: 0487 84b7 382a 53b9 ba1a 70b9 04c8 94b7
00000170: 3ec5 4e81 2c98 5eb7 ec14 8ab7 0490 8637
00000180: 4861 4db7 4c9c c6b9 fe46 b7b7 f0d4 18b9
00000190: 5485 6db8 46a8 07b9 182b e7b8 ae42 bb01
000001a0: 1312 be09 ad1b 1cb8 1200 9683 885b 7fb7
000001b0: 3706 7830 b803 84b8 2904 b3b8 c482 e5b9
000001c0: 224a a1b9 0917 09b9 b64c 3038 167b 8d2e
000001d0: 7aae 5813 a2e1 9c38 7814 62b8 84a0 1838
000001e0: e01d c237 6a59 1939 a670 3d39 a0f2 4101
000001f0: 5f88 81b8 a2a0 57b9 1203 abb9 990b 5339
00000200: 85d3 f8b7 147c 6eb5 125e 48b8 bc15 55b8
00000210: 9737 3982 a010 46b9 6e2c 0739 0e23 44b7
00000220: 2c45 05b9 2ba7 b6b8 0676 63b8 09e2 22b9
00000230: ddc3 eb38 e7fc f5b7 b68f 5839 cda9 e4b8
00000240: ce47 1dba 2e37 05b9 6f38 2eb8 504f ba80
00000250: 961a 44b9 2f2d acb9 2c0c efb8 a8de 15af
00000260: 0eae 8f82 80a0 8281 081b f29f b0d9 52b9
00000270: c0f9 56b7 c7cd c7b7 8557 f038 4f3b 6136
00000280: 0474 1800 361b 51ba 3c30 d035 9136 4f39
00000290: 7524 1db9 135b feb6 4908 c5b7 be8e b737
000002a0: 7b32 3eb8 c478 4a38 da4f 2ab6 464f dd81
000002b0: 10fb a438 f64c a3b8 c1f3 14b9 2d2e 7336
000002c0: 926e 2db9 951f e437 64d7 02b9 83e6 19b9
000002d0: 6b12 0539 9f1d 8181 5df1 9ab9 cba8 e2b8
000002e0: b88b 9cb8 ca8d 35b9 4347 86b9 5823 1a00
000002f0: 1caa ceb8 d3cd e401 0a7e e5b8 e0a7 ae80
00000300: dcf2 9bb8 fa95 1502 6ed6 6d80 aebb 32b7
00000310: 6ca7 e280 bc2c ccb8 3d15 4b37 c6b5 2038
00000320: feb5 8137 40fe e4b7 077d 5bb8 cbd4 8e37
00000330: fa68 6cb7 578a d836 1437 f3b8 76ec 97b8
00000340: 3bfd 1cb7 d9c2 ea37 ae7a 6f37 3b8a 9fb9
00000350: 28a5 ea80 89ea 24b8 0c56 8ab8 e7a4 02b9
00000360: 52cc afb8 6d6a 97b8 5655 7538 c5ca d3b8
00000370: dee4 7601 d0f1 6a38 ddd1 44b8 9a5f 4839
00000380: 3a8c a5b7 108c 2bb8 1c50 e036 c794 e8b8
00000390: 47ca 0037 1e6e 4937 573b 2138 447e 3b80
000003a0: a046 0a08 9455 2b38 fadf 3303 552c 32b8
000003b0: 2066 2023 1a1e cbb8 db2e e2b8 a872 3739
000003c0: 3850 83ba 51ae 2ab8 60bc a5b9 1811 c0af
000003d0: 038e 2712 a927 13b7 d071 d337 0aef e737
000003e0: 4152 fab8 2115 d737 8644 89b9 f086 be00
000003f0: 8268 de37 84f7 8838 1a0e 01b9 33c3 1bba
-0.00028130042 1.0915865e-05 8.075249e-05 0.000104135484 1.013363e-37 -7.400039e-05 -2.587172e-05 -0.00010089398
-0.00019773116 -0.0001665797 4.803762e-06 -0.0001977254 0.00016303196 8.408967e-05 6.0179373e-05 -0.00013588063
-0.00035036533 -0.00023684808 -8.567466e-05 1.1198152e-38 -0.00015178989 0.00012970655 -0.0001341489 4.4110212e-11
1.6636256e-18 -3.7842376e-38 2.7489842e-12 -0.00018196226 1.9046434e-05 -7.708701e-05 6.6844877e-06 -7.3817864e-06
-3.3170315e-38 1.844724e-05 0.00011202031 0.00020046123 -0.00028408147 -6.5763794e-05 1.7088245e-05 -5.007279e-05
0.00012043086 4.7179514e-05 -4.780053e-05 -7.1031516e-38 -7.514903e-05 -1.0995031e-05 -0.0002478136 -2.7622234e-05
-0.000261576 2.9049042e-06 -0.000159515 6.666738e-06 -9.0249225e-05 3.018338e-38 0.00020105322 5.062429e-05
6.9333524e-05 -0.0004173404 -0.00019692403 -8.3068065e-38 -3.4418084e-05 1.077415e-37 -0.00027032848 3.7834173e-38
1.50004125e-05 5.5913894e-38 5.4019333e-30 8.678292e-06 2.763906e-38 -0.00028818834 -6.537861e-05 -6.598267e-05
-0.00036219516 -0.00011021989 -7.6605415e-05 -2.7405622e-06 0.000105656065 -0.000114674025 -0.00035643665 -9.888204e-05
-7.2819064e-05 -1.3725286e-05 7.277995e-07 -0.00014211054 3.4119207e-38 0.0001239272 0.00026845973 -8.885724e-05
-1.5798498e-05 -0.00020138256 -0.0002289814 -1.7736114e-05 -3.797774e-38 -1.3267661e-05 -1.6460624e-05 1.6041107e-05
-1.2241602e-05 -0.00037881953 -2.1848358e-05 -0.00014575175 -5.6629375e-05 -0.0001293729 -0.00011022965 6.878863e-38
4.5757833e-33 -3.7219073e-05 -8.816224e-37 -1.5220496e-05 9.0230706e-10 -6.294943e-05 -8.53616e-05 -0.00043775712
-0.00030763546 -0.0001307392 4.2033113e-05 6.433802e-11 2.7349056e-27 7.480687e-05 -5.3901662e-05 3.6389116e-05
2.3140514e-05 0.00014624526 0.0001806641 3.5622576e-38 -6.1766004e-05 -0.00020563838 -0.0003261795 0.00020126849
-2.96624e-05 -8.8842467e-07 -4.7771326e-05 -5.08034e-05 -1.3607607e-37 -0.00018888945 0.00012891155 -1.1690672e-05
-0.00012709637 -8.709574e-05 -5.4230935e-05 -0.00015533729 0.000112421556 -2.9324043e-05 0.00020652902 -0.00010903515
-0.00059997744 -0.00012704424 -4.153739e-05 -1.7109854e-38 -0.0001870192 -0.0003284006 -0.00011398675 -1.3630574e-10
-2.1111864e-37 -4.7984764e-38 -1.02535706e-19 -0.00020108256 -1.2813543e-05 -2.3818471e-05 0.000114603936 3.3562135e-06
2.24567e-39 -0.0007976772 1.5511246e-06 0.00019761386 -0.00014986268 -7.5803923e-06 -2.3488088e-05 2.188177e-05
-4.5346544e-05 4.8273025e-05 -2.5378454e-06 -8.129633e-38 7.8668934e-05 -7.786781e-05 -0.00014205185 3.62367e-06
-0.00016539756 2.7194425e-05 -0.00012478005 -0.0001467709 0.0001269073 -4.742962e-38 -0.00029553 -0.0001080796
-7.464684e-05 -0.00017314326 -0.00025611566 2.400402e-39 -9.854531e-05 8.4049316e-38 -0.000109430475 -1.6039599e-38
-7.436212e-05 1.0989832e-37 -1.0086992e-38 -1.0653324e-05 -2.0814882e-38 -9.7358105e-05 1.2104688e-05 3.8316262e-05
1.5462745e-05 -2.7298112e-05 -5.233011e-05 1.7026809e-05 -1.4091138e-05 6.4534065e-06 -0.00011597402 -7.2442854e-05
-9.357284e-06 2.7985707e-05 1.4274074e-05 -0.00030429833 -2.1548753e-38 -3.9319075e-05 -6.59638e-05 -0.00012459197
-8.382708e-05 -7.2200644e-05 5.8492027e-05 -0.00010099033 4.5347268e-38 5.6015153e-05 -4.6925492e-05 0.000191091
-1.973483e-05 -4.090002e-05 6.685046e-06 -0.00011090334 7.676491e-06 1.2006172e-05 3.8440656e-05 -5.46359e-39
4.1610884e-34 4.0849278e-05 5.2860485e-37 -4.2479795e-05 8.695243e-18 -9.685401e-05 -0.00010785247 0.00017494953
-0.0010018414 -4.0693503e-05 -0.00031611603 -3.4936742e-10 5.287095e-28 -8.771117e-06 2.5206158e-05 2.7648657e-05
-0.0001193625 2.5639836e-05 -0.0002618173 1.7497151e-38 2.6513128e-05 6.531089e-05 -0.00012307652 -0.0005941868

fc_logvar.bias f4 [8]
00000000: 5e8f 8739 35d6 3239 3623 7f39 b3d4 f0be
00000010: b014 0c39 65d0 9239 fc44 d639 b8a8 3c39
0.00025856023 0.00017055201 0.00024331812 -0.47037277 0.00013359147 0.00028002556 0.00040868658 0.0001799193

decoder.0.weight f4 [128, 53]
00000000: 4814 a7bb 044f 2abc b839 43bb 2e90 3c3d
00000010: 4b00 9e3a 2537 243a ef49 9f3b 9c9e 683b
00000020: 489e 943b 3792 b33b c8bd e63d 6427 92bb
00000030: 7540 c3bb de6e 0a38 6f5f 48bb 0b32 16bb
00000040: 40c9 2e3b 4535 003b 188e 11bc 13fb 31ba
00000050: 5bd8 91bb ec68 7e3c 72d1 203c 33ff 8c3a
00000060: 65bc fabb be21 a539 0fe5 383b 070c ab3b
00000070: a398 8439 0bd6 393b 4fe3 61ba ca51 09bd
00000080: 122d 44bc ee16 14bb 1d81 09bd 3978 1dbd
00000090: d310 113b 4453 ab39 6818 70ba f211 81bc
000000a0: fd24 e6bb 69d5 52bc c4b8 4e3b a4f2 8fb9
000000b0: 8718 70ba f90f 20bb 6dad 82bc 62fb e4b9
000000c0: 9a81 3dbc 9f72 9ebb e14e d8bb b1c6 8bba
000000d0: d479 1c3b c31a 683a 097a c73a 7ee7 13bb
000000e0: fefe ed3d 35a5 573a 1581 25bb 7f99 e33a
000000f0: cf29 b03a d96f f03c d352 8ebb 4c0d 9fbe
00000100: 376f 49bd 67e5 76bc c5b4 9f3c 8d18 143c
00000110: 69ee e1ba b1b7 2abc fde6 7cbc 9f5f 0ebd
00000120: 64ae 38bc 05d5 17bd b23f 033d 2a15 7ebc
00000130: ce27 ec3b e55a 16bc 2648 d7bc e077 45bc
00000140: d3bf 83bd a2fb 213d d545 87bd 298d 9abc
00000150: d392 393d 200f a139 1737 cfbc ec98 873d
00000160: 4ef0 cbbd a7ad 473c 9cb9 583b 6599 113b
00000170: e7c2 3dbd 6a3f 95bd 0331 2ebd a5bf 373a
00000180: e358 a93b 1285 103b c42e 8b3b cec3 e73c
00000190: 6595 66bc 99a9 4c3c 39a8 b13c 3133 cbbc
000001a0: da5e d43c 00e1 d3ba 7b17 29bb fb24 4e3b
000001b0: 7a01 903a 88f7 03bc b733 e53a add9 3a3b
000001c0: 1d07 d53b 8249 b13b 28e6 0ebc d4b3 5a3c
000001d0: 94fc ba3d 8700 35bc 33c3 2dbc b355 5b3c
000001e0: bad0 b9bc 0569 b73c 2dbd 6339 037d 233c
000001f0: ef18 f43b 81f8 113c 0a48 b0bb d53a 33bc
00000200: 6045 0e3d 68e8 8cbc eb2b 853c d1b2 8b3c
00000210: 235f 6a3d 3816 873c add2 17bc 1295 3b3d
00000220: 4ae9 5ebc 7107 33ba d774 b0bd e321 103d
00000230: a711 023c 4464 023d deb5 8bb9 64c9 b43b
00000240: 645c f8b9 936d 853c fe09 2d3c 7455 a83c
00000250: 771e 3a3b 436c b4ba 875c f8b9 4d02 ee3b
00000260: 5b0a a0bb 6ad5 ec3a e56f b43c 2a6b c93a
00000270: 2ae9 d33b 8c82 fb3a 1e21 9f39 341d d3ba
00000280: 74c5 b0ba 5700 723b 4dba 94be 26c1 5bbb
00000290: f679 e2ba 992c 333b 64b5 8d3a 4ac0 fa3a
000002a0: 8e60 acb9 e813 c83c 98ad a0bc 7d6d 803c
000002b0: 20ea 4bbd 07d5 993d eeb5 b53c 5d22 6abd
000002c0: c4cc 383c ebf3 c5bc dd38 75bc 65ca c63c
000002d0: ef65 7f3d 0067 a5b5 fc15 393c 8df3 2ebc
000002e0: df8a f13c da37 da3c 1a6d 41bd 6a75 653c
000002f0: 8a37 71bd 1317 8a3d 5060 9d3b b095 eabc
00000300: a3f1 9d3d aba3 083c a9de 0bbe 4c85 ecbc
00000310: 389c 903b f5df 913b 6358 39bd 6f2e 1ebc
00000320: 0275 81bd 2056 29bc fdb0 123c eedf 913b
00000330: 2b1a 8ebb a876 56bc 3d7b c2bc b462 da3b
00000340: f5f2 57bc 72fe a33b b7ab 3cbc a75e 6cbc
00000350: a848 b8b9 f255 96ba 547b 7a3b 3a36 6ebd
00000360: d157 9bbb c1a0 863b efd7 36bb cb56 ddbb
00000370: cdb5 e1bb b8e7 c7bb c8b1 4fbe 47ec e83a
00000380: b32f 83bc e9bd e0bc d058 f93b 96f0 263b
00000390: 9b98 803c 319f 003a 06ae cabc 2540 c2bb
000003a0: a988 8bbc d3aa 063d 9566 61bc df42 b53b
000003b0: 4a0f f1ba 3c3c 493a 246a 90bc 33bb d63c
000003c0: 562e b93c a7d1 4b3c b048 f3bc 94ed aa3c
000003d0: 6ae9 273c 6bf5 433d 658e 7e3d a53c 85bb
000003e0: 60a0 9e3b b5a7 46bb c72b 4739 123b 18bc
000003f0: 87ac 733b 3b97 093d 56e5 ce3b 513f 9ebb
-0.0050988533 -0.010394815 -0.0029789042 0.046035938 0.0012054531 0.00062643207 0.0048611085 0.003549493
0.00453547 0.0054800767 0.11266667 -0.004460262 -0.0059586116 3.3005017e-05 -0.003057446 -0.0022918012
0.0026670247 0.0019563 -0.008883975 -0.0006789427 -0.0044508404 0.015527945 0.009815561 0.0010757208
-0.007651853 0.00031496392 0.0028212701 0.0052199396 0.00025290725 0.002835634 -0.00086169405 -0.033525266
-0.011973636 -0.0022596675 -0.033570398 -0.03844473 0.0022135272 0.000326777 -0.000915891 -0.015755627
-0.0070234523 -0.012868264 0.0031543234 -0.00027455867 -0.00091589283 -0.0024423583 -0.015951836 -0.00043674844
-0.011566544 -0.0048354412 -0.0066012 -0.0010664073 0.0023876326 0.00088540855 0.0015218864 -0.00225684
0.116209015 0.0008226217 -0.002525394 0.0017364471 0.0013440194 0.029350208 -0.0043433695 -0.31064832
-0.04917833 -0.015069342 0.019495377 0.0090390565 -0.001723719 -0.010419772 -0.015435931 -0.03475916
-0.011272047 -0.037068386 0.032043166 -0.015507976 0.0072068935 -0.009176944 -0.02627952 -0.012052506
-0.06433072 0.039546616 -0.06605116 -0.018866139 0.045306038 0.00030719582 -0.025294824 0.066209644
-0.09957944 0.012187398 0.0033069616 0.0022216674 -0.04632845 -0.07287486 -0.04252721 0.0007009453
0.005168067 0.0022051972 0.0042475183 0.02829161 -0.014073704 0.012491607 0.02168666 -0.024804683
0.025924135 -0.0016165078 -0.002580135 0.0031455148 0.0010986768 -0.0080546215 0.0017486726 0.0028511093
0.006501092 0.005410374 -0.008721866 0.013348538 0.09130207 -0.011047489 -0.010605621 0.0133871315
-0.022682536 0.022388944 0.0002171888 0.009978536 0.0074492614 0.008909346 -0.0053796815 -0.01093932
0.03473413 -0.017200664 0.016256293 0.01705304 0.057219636 0.016490087 -0.009266538 0.04579646
-0.013605425 -0.0006829417 -0.086160354 0.035188567 0.007938779 0.031833902 -0.00026647648 0.0055171717
-0.00047371082 0.0162876 0.010561464 0.02054856 0.0028399506 -0.0013765175 -0.00047371184 0.007263458
-0.004884047 0.0018068973 0.022026012 0.001536702 0.0064670043 0.0019188686 0.00030351517 -0.0016106726
-0.001348658 0.0036926472 -0.29048386 -0.0033531873 -0.0017278779 0.0027339815 0.0010811505 0.0019130793
-0.00032878335 0.024423555 -0.019614026 0.015677208 -0.049783826 0.07511335 0.022181477 -0.057161678
0.011279289 -0.02416416 -0.014967171 0.024266431 0.06235307 -1.2323435e-06 0.011296745 -0.010678184
0.029485164 0.02663796 -0.047223188 0.0140050445 -0.058890857 0.06742682 0.004802741 -0.02863583
0.07712104 0.008339803 -0.13659157 -0.028872155 0.004413154 0.0044517466 -0.045250308 -0.009654625
-0.063211456 -0.010335475 0.00895333 0.0044517433 -0.0043366156 -0.013089813 -0.023740405 0.0066645984
-0.013180484 0.0050046975 -0.011515549 -0.014426864 -0.00035149348 -0.0011469705 0.0038220482 -0.058157183
-0.004740693 0.004108519 -0.0027899703 -0.0067547313 -0.0068881274 -0.006100621 -0.20282662 0.0017770611
-0.016013956 -0.027434306 0.007609464 0.002547299 0.015697768 0.0004906534 -0.024741184 -0.005928057
-0.017032938 0.032877754 -0.013757368 0.0055316533 -0.0018391397 0.0007676517 -0.017628737 0.02621231
0.022605103 0.012440122 -0.029697746 0.02086524 0.010248521 0.04784147 0.062147517 -0.0040660673
0.0048408955 -0.0030312364 0.00018994427 -0.009291427 0.0037181692 0.03359149 0.00631396 -0.0048293252

decoder.0.bias f4 [128]
00000000: 10d9 2bbd c887 433d 9644 aa3d 9061 2abc
00000010: d41c d9bc 609e e3bb b98a 34bd 726a a8bb
00000020: 8f18 873d a8d0 e6bd 9b34 5c3d d059 f43d
00000030: a2ba 47bc 8d34 8bbd 308f 15bc 899b 9dbd
00000040: 8f6a fabc 54af cd3c cbb9 853d 687d d5bd
00000050: 86ff 35bd c0ab c33c 17be 893d 149e 65bd
00000060: f5c3 5ebd cc85 913d a689 84bd 8b51 e43d
00000070: 0e91 b9bc fb83 f4bd eefb 04bd 9548 9b3d
00000080: 46cb ca3d 48fc 993d 5e67 e3bd 709e 2abd
00000090: 19f6 e73a 9e7c a43c a571 5bbd ae36 54bc
000000a0: 3232 d53c a2a4 243c c081 4a3d 30a4 58bc
000000b0: 77d1 2e3e 0e3e 02b8 77ed 18bd 8642 0cbc
000000c0: b7e4 3cbb b22b 853d 5140 b13b 3cb8 9e3d
000000d0: 3358 1a3e 2fc1 76bd 7f36 83bd f6dd 013e
000000e0: 74c1 83b6 e676 31bc ee5a 7739 2b6e 393d
000000f0: 05ea e63c c447 093d c7d9 aa3d 6b7e 15bd
00000100: c64a de3d 734d 25bc 9634 403b dd1e 2d3e
00000110: cbf2 bfbc 68a2 1bbd 9461 bcbc 6b86 4abd
00000120: 1325 c5bd 865e 57b8 7d7a 2fbd 4424 713d
00000130: 000f c63d 1aa6 abbc 8c95 f43c 495b b23d
00000140: a36f 08bd 161a 853d c65b 433d f0c1 2c3e
00000150: fe6f 35bc 4ab0 79bd 46a2 c1bc 890a 5bbc
00000160: 4bf9 acbc 4ca9 463d 145f 093d 5805 a13c
00000170: f06b f43c 82c7 603e c6de b53d a144 e93d
00000180: 9505 b03d fa01 513d aae7 2abc 62d4 613c
00000190: 2d19 b9bd b32c f13c 97db 3cbd 8852 c5bd
000001a0: cac5 eeb9 cfdd 033d 5bfd f5bd 4e8e 0e3e
000001b0: fb01 093e f15e b6bc 3e93 86bd 5449 b03c
000001c0: d4c3 db3c f0ba 20bd b6d2 ed3c bed2 953c
000001d0: e93f 1cbd 5e44 f53d 2bd8 563c 8f5e b53d
000001e0: 8ddf a13d 948a c4bd a02a f83d 7cc5 e1bd
000001f0: 80f1 6cb8 7950 1dbc 5c7d e63c b00e d6bc
-0.041955054 0.047736913 0.08313863 -0.010399237 -0.026503004 -0.00694637 -0.04407761 -0.0051396424
0.06596481 -0.11270267 0.053761106 0.11931193 -0.012190493 -0.06797133 -0.009128377 -0.076956816
-0.03056839 0.025108017 0.06529578 -0.1042431 -0.04443314 0.023885608 0.0672571 -0.05605896
-0.054386098 0.07105598 -0.06471567 0.111483656 -0.022652175 -0.11939236 -0.03246682 0.07582203
0.099020526 0.07518822 -0.111037 -0.041655004 0.0017697244 0.020078953 -0.053575177 -0.01295249
0.026024912 0.010049017 0.049440145 -0.013222739 0.17072092 -3.105221e-05 -0.03733584 -0.008560782
-0.0028822848 0.06502475 0.0054092784 0.07749984 0.15072708 -0.060242828 -0.06406879 0.12682328
-3.926625e-06 -0.01083157 0.0002358963 0.04527108 0.028187761 0.033515707 0.08342319 -0.036497515
0.10854106 -0.010089266 0.0029328219 0.16906305 -0.023431202 -0.03799668 -0.022995748 -0.049444597
-0.09626212 -5.1348026e-05 -0.042841423 0.058872476 0.0967083 -0.020953227 0.029856466 0.087088175
-0.03330959 0.06499116 0.047694944 0.16870856 -0.011074064 -0.060959138 -0.023636948 -0.013369211
-0.021114966 0.048501298 0.03353794 0.019655868 0.029836625 0.21951106 0.08880381 0.11390043
0.08594815 0.051027276 -0.01043121 0.013783546 -0.09038005 0.02944026 -0.046107855 -0.09634882
-0.00045542262 0.032193955 -0.12011214 0.13921472 0.13379662 -0.022262068 -0.06571053 0.02151934
0.026826777 -0.039240777 0.029031139 0.018288966 -0.038146887 0.11975931 0.013113062 0.08855926
0.07903967 -0.09596744 0.12117505 -0.11023995 -5.64917e-05 -0.009601706 0.028135948 -0.02613005

decoder.2.weight f4 [128, 128]
00000000: 8b2e cc81 8324 858a 525f c081 3ddb f081
00000010: 16c3 cd81 9192 8d85 fd0f d681 741f 8982
00000020: b0f6 2986 d344 8782 689b 8715 baf2 e481
00000030: 45f3 c481 0a6d c581 491f f581 c8a9 7e82
00000040: 4126 a401 27ac 8c82 8eaa 9601 4a03 b317
00000050: 5af4 ea15 8810 c099 ee49 ec81 66c0 db81
00000060: 4263 8882 f32f 8682 ca8f d481 0e0f 8782
00000070: 9e61 fc01 3a6b db81 f653 7a82 6ea6 5d8b
00000080: 74fd e681 8b68 821b dee3 7c02 e6b1 6480
00000090: 64b5 8382 a88a d600 b7cc 8d82 586d e881
000000a0: 1b67 8382 8849 258c 456b 6494 33ce 1117
000000b0: 168c 3721 4fb9 8782 4e4b e501 7cd5 db81
000000c0: 2241 678f 65c5 7e82 20d1 d881 7439 970e
000000d0: d9bc 8e82 5689 8e02 2c61 dd87 84d5 bf81
000000e0: 4ada bf0f 6dbc b981 a439 db10 fa52 0e01
000000f0: bf7c e590 5f71 c58a 8959 8982 eccc c181
00000100: 91b0 7726 126b 0a81 833b 1b00 daad 9d93
00000110: e774 4d02 7357 cd81 78c5 510b 3270 c881
00000120: f961 1118 2727 d51c 6759 cb81 ae54 dc02
00000130: f09f 150f 5888 cd81 0c71 8c82 8bff c481
00000140: 8895 0682 7b83 dd81 3e7f e922 9de2 8c82
00000150: b230 ce91 c1bb bb81 663e 8982 b127 8104
00000160: 8f15 0f81 5ffd dd12 d057 7982 9dff 7982
00000170: d619 b085 5f93 8d82 6867 1181 83df 6c92
00000180: 54eb 3587 0ee0 ba81 fbf4 8082 f1a2 0188
00000190: 127f 8982 46ec 0002 8cd4 7b02 e7ec 7782
000001a0: 0a9f ca81 47dd 029e 0c04 9180 d2b6 8782
000001b0: 705b 5c01 fb1d c581 dbc7 0b08 ae08 8584
000001c0: 2635 320f 8e65 c081 d8f6 8d8d 1616 ff80
000001d0: df38 8e82 199c 8882 1583 8882 edcf 7182
000001e0: ba8d 0102 fba3 7580 2dcc 5e8a b3d4 2481
000001f0: 32aa ee85 4547 1598 1c7f d981 b4bb dc81
00000200: a6d4 d03c 7028 9f3d d333 1b3b a432 cebc
00000210: 3093 cfbb d52e 353d 50e3 193d 5d54 6e3b
00000220: 998a 783d 0ef9 2cba e85b 02bd 8daf 9cbd
00000230: 82b5 513b 5ba4 a63d 3b45 cf3c 89ef 6c3d
00000240: e2e0 853b 2b80 2b3c 8c02 673c db8d acbc
00000250: 2c10 37bd 4e34 9e3d 4457 e43b c452 10bd
00000260: b754 753d 6d8d 373b 54da 01bd b7fc f53c
00000270: 4c9e 50bb 50c5 aa3d c6fc 4e3d fac9 b33d
00000280: e90e 893d 7404 4ebc 4a02 64bd 3900 b4ba
00000290: f49f 073b 6026 2abc 418f 0b3d bed8 2abc
000002a0: 4263 c63c ecaa f6bc 2467 573c ab42 c93b
000002b0: a8ac 8f3d 9d08 1838 47c3 a73d 8ca8 ad3a
000002c0: 1f06 dcbc 2483 efbc 8ca6 17bd 70bf aabc
000002d0: b95b a33c ac8d 8c3d e09a 97bc 283d bc3c
000002e0: ec5e f2b4 7aee d73b b7e8 ac3c 3d67 c0bc
000002f0: c87d 413d 67d4 a23c a58e 8c3d ca16 193c
00000300: d1c0 273d b4ac 8abc 22d3 923c d4d8 89bc
00000310: 6402 5e3c eebb 863c 7868 c6ba 75aa bdbc
00000320: b935 203c 9e4f 9036 73e5 5cbc 2eae 473c
00000330: 4fad 09bd 0073 8438 6c61 d83b 0fc9 24bd
00000340: c5b6 fdbc 905b 11bd db95 36bd 9e70 4a3d
00000350: e67a 553b 7392 c2bc c691 633b 4b92 6c3d
00000360: cd0d 153d 783f cf3d 8820 a23c a237 883c
00000370: 8e46 823c 1c5b 7ebd c563 b03d a6a1 fdbc
00000380: 263c 9d3c b3a1 adbc 3dc4 233c 3396 363c
00000390: 6141 b63d 2bf9 2c3a 9d05 8fbc 6556 11bd
000003a0: 4adf 3838 558a 353d c3ee 9c3d 3bfd ab3b
000003b0: d4b5 3cbb 0267 b83c 325c 8b3d 7232 a4ba
000003c0: 1e6a 4bbc 15df c73c 33e4 cd3d c311 3abc
000003d0: f343 f4ba e729 f03b 6da2 573d f116 c83d
000003e0: 274d 09bc db20 65bc 26e6 053d b44c 5c3d
000003f0: dcc9 b6b7 d60b 69bc 3368 9ebc 5a2c 83bc
-7.500455e-38 -1.2821168e-32 -7.066644e-38 -8.847667e-38 -7.558504e-38 -1.3313416e-35 -7.8634127e-38 -2.0148394e-37
-3.1966605e-35 -1.987597e-37 5.4771254e-26 -8.410227e-38 -7.2348104e-38 -7.2522834e-38 -9.004368e-38 -1.8709698e-37
6.0298977e-38 -2.0669962e-37 5.534603e-38 1.1568434e-24 9.4897366e-26 -1.9859012e-23 -8.679879e-38 -8.0723973e-38
-2.0040375e-37 -1.9717052e-37 -7.808283e-38 -1.9845108e-37 9.2710254e-38 -8.060176e-38 -1.8391195e-37 -4.268826e-32
-8.4852344e-38 2.1574255e-22 1.8579431e-37 -9.247368e-39 -1.9352833e-37 1.9702537e-38 -2.0835588e-37 -8.538024e-38
-1.93079e-37 -1.2733265e-31 -1.15322135e-26 4.7112287e-25 6.2188214e-19 -1.994283e-37 8.422937e-38 -8.075423e-38
-1.14017234e-29 -1.8717622e-37 -7.964595e-38 3.72797e-30 -2.0973418e-37 2.0943852e-37 -3.3309497e-34 -7.04687e-38
1.8918136e-29 -6.8228645e-38 8.646908e-29 2.6140814e-38 -9.0516775e-29 -1.9013055e-32 -2.0181731e-37 -7.119105e-38
8.593463e-16 -2.5423416e-38 2.500907e-39 -3.9803803e-27 1.5094571e-37 -7.543059e-38 4.0400495e-32 -7.362939e-38
1.8790274e-24 1.4105278e-21 -7.469871e-38 3.2374698e-37 7.37707e-30 -7.550075e-38 -2.0636037e-37 -7.2365715e-38
-9.887679e-38 -8.1371244e-38 6.32895e-18 -2.070122e-37 -3.253108e-28 -6.8962365e-38 -2.0166156e-37 3.0364205e-36
-2.628042e-38 1.4009522e-27 -1.8318832e-37 -1.8366988e-37 -1.6560451e-35 -2.0802675e-37 -2.6706484e-38 -7.474397e-28
-1.3686083e-34 -6.864711e-38 -1.8948522e-37 -3.901106e-34 -2.0203276e-37 9.471762e-38 1.8501566e-37 -1.8214682e-37
-7.443129e-38 -6.927902e-21 -1.3317599e-38 -1.99414e-37 4.0473221e-38 -7.240939e-38 4.206372e-34 -3.127612e-36
8.7863136e-30 -7.0675385e-38 -8.749221e-31 -2.3425974e-38 -2.0897667e-37 -2.0073e-37 -2.0058641e-37 -1.7765555e-37
9.518097e-38 -1.0803578e-38 -1.07273124e-32 -3.0274647e-38 -2.2443932e-35 -1.929378e-24 -7.9895604e-38 -8.108458e-38
0.025492024 0.07771385 0.0023682013 -0.025170632 -0.006334685 0.044234116 0.037570298 0.0036366202
0.060679052 -0.00065983913 -0.03182593 -0.07650671 0.0031999056 0.08136817 0.025301566 0.057845626
0.004085646 0.010467569 0.014099728 -0.021063736 -0.044693157 0.0772482 0.0069684107 -0.03523518
0.059895243 0.002800788 -0.031702355 0.03002773 -0.0031832634 0.083384156 0.050534032 0.08778758
0.06692297 -0.012574304 -0.055666246 -0.0013732977 0.0020694705 -0.010385126 0.034072164 -0.010427652
0.024217252 -0.030110799 0.013147149 0.0061419806 0.070153534 3.6247646e-05 0.08191543 0.0013249083
-0.026858388 -0.029237337 -0.037024066 -0.020843238 0.019941198 0.06862959 -0.018506467 0.02297838
-4.5145077e-07 0.006589708 0.02110706 -0.023486728 0.047239095 0.019876672 0.06863145 0.009343812
0.04095537 -0.016928054 0.017922942 -0.016827025 0.013550375 0.016447034 -0.0015137335 -0.02315257
0.0097784335 4.300803e-06 -0.013482439 0.012187524 -0.033612546 6.315671e-05 0.0066034105 -0.040230807
-0.03097094 -0.03548771 -0.044576507 0.049423806 0.0032574474 -0.023751473 0.003472434 0.057756703
0.036390115 0.101195276 0.019790903 0.01662809 0.015902784 -0.062098607 0.086127795 -0.030960869
0.01919372 -0.021195268 0.009995517 0.011144209 0.08899189 0.0006598408 -0.017458731 -0.035482783
4.4076973e-05 0.044321377 0.07662728 0.0052486933 -0.0028794901 0.022510055 0.06804694 -0.0012527241
-0.012415437 0.024398366 0.10053291 -0.011356774 -0.0018635973 0.007329214 0.052645136 0.09770001
-0.008380211 -0.013984884 0.03269019 0.053784087 -2.1790089e-05 -0.014224013 -0.019336795 -0.01601236
