models/cvae_L2_H32_B0.050_LR1e-03.pt (torch, 43509 bytes, 13 tensors)

encoder.0.weight f4 [32, 46]
00000000: da14 abbd 3b13 0e3d 99da 3a3b 5d0b 2d3c
00000010: 7e07 49bc 435d 383e 1d7a 16bc a0ac 8d3d
00000020: 37eb 9a3d 13ae 22bd 50c4 49bc 8c22 6bbc
00000030: 95ee 03bc cebb 0cbc 38d9 8f3d 587e 8a3c
00000040: 8e29 a43c c0e9 b2bc de88 e63d 9d49 9b3c
00000050: 5708 cebc d68d 40bd 95ad 383d 70f8 9f3c
00000060: 3687 d8bd a47d 0f3e f3f8 ac3e 63f8 b6bd
00000070: 9ba7 333d 6194 d23c 98fb c63c 5dd0 79bc
00000080: 5da8 2d3c bb57 8b3d 18cd 183e 6b2d 073d
00000090: 4900 333d 849c 74bc 455a a7bc 0de1 043e
000000a0: 7399 da3d edf9 b23d 7af0 013d 3283 5f3c
000000b0: baa2 2b3d 68d8 92bc 1ef7 8c3e 71cd f6bb
000000c0: b3fa 87bb 4214 353f c26d ddbb c69f 9f3c
000000d0: c54b 12bd 11a4 973d c26c 4dbd 1056 d4bc
000000e0: b7d1 5f3c 4cc8 033d 6a68 bf3d ffec 02bd
000000f0: d615 b53d 5545 413c 97ab 79bc 7674 c4ba
00000100: ec64 2a3c 9713 873b c89b b63b afb0 93bc
00000110: 54a6 62bd cc6d 693d bb46 3bbd a45c 303e
00000120: 65fe 22bd 14fa 91bd 03d4 743d 6206 6fbb
00000130: 85d6 e2bd 2077 253e f767 5f3d 2867 853d
00000140: c833 49bd d206 2dbd 7d58 66bc 230b 1f3e
00000150: cbe5 583d d51f 963a 97e9 153c 3447 e0bb
00000160: c150 cd3d 6c89 c63d 0d22 333d 338d 1abd
00000170: 69c8 84be affc 5fbd d5e5 43bd 49b7 f33d
00000180: 7b87 853b 7f3e f2bd 04a8 8cbd dec5 ba3b
00000190: 885f e1bd 31a6 ef3d 6bde abbd 6d06 2bbe
000001a0: 5c2f 29bd 256a 20be e7e7 1a3d 3e00 a53d
000001b0: 18db 82bd f261 52bb 9e8f 5b3d 6241 5dbd
000001c0: e210 503c dfbb 483c e9bd debd e72e e43c
000001d0: e1b8 693e 910b 973d ad44 06bc 82bd 6d3d
000001e0: 6edb 823d 7681 9a3c 1ee3 d400 ff8b 6681
000001f0: fe76 b63d f2c8 b83d 833f 6d3c b042 8b3c
00000200: e04b 0c81 534a 6600 c3bc 0500 30ea 42bd
00000210: 0284 553b f53d a53d 40a8 733d de54 be3b
00000220: 0493 b93c e0c8 8580 a772 f03d ff1c 93bb
00000230: 5bb9 2fbc 96e7 41bf a9d9 70bc 6712 95bd
00000240: a586 b2bd 185b 44bc 7281 bebc 74da 213d
00000250: e79d 48bd 5165 b8bd 2d9b e4bd 48e8 ea3b
00000260: cd7a 143d 5988 a3ba 1918 69bb 9262 2fbc
00000270: 0362 6539 1e62 07bd c9b6 4c3c 0e19 9dbc
00000280: aa5a a4bd a68c a33d c6ca ec3c 42f5 a3bb
00000290: 1346 553e bc8f 14be 7ac4 c43d 643c 943c
000002a0: 29ed c63b ba60 5301 707b e33c aa47 b93d
000002b0: ca4b 013e 643c 943c b3e0 6d00 76cb 8d81
000002c0: 236f 1500 3e07 9a3d 3b5b c03d 1029 ac3d
000002d0: dec2 b4bc b3a9 17bc 643c 943c bc53 2a00
000002e0: f0c9 fcbd 6b99 b93c 5355 1bbd 32ed 033e
000002f0: 406f 8a3d b96f 01be 3e5a e9bd d6b1 083d
00000300: b9cf c9bc 1822 1cbd c11c b83c 1aa2 1bbe
00000310: bef2 58be 8e51 02be e4d0 09bd 47c7 42bd
00000320: 30b2 8b3b 378f 25bd 770c 44bc 18ac 2bbd
00000330: 0589 2ebd a0ac 2dba 09c0 11bd 53a3 28bd
00000340: b2b2 993e 9d79 c0bc 3440 203e ddef 793e
00000350: 4f85 f63d 66d0 2f01 14fc 6101 79f3 8701
00000360: ef04 5a3e 4d6f cb3d 1042 143e 45d6 df80
00000370: 73b8 6f80 35fe 2d80 3fc1 8581 ee24 9f3d
00000380: e008 813e 09fd 903d 72b5 de3d 4611 3a3e
00000390: 0ad8 4201 ce94 8681 72da 96be 0ffe 08bd
000003a0: a503 4fbc 7ca0 9c3e 97f8 683b 7956 7dbd
000003b0: d824 903d 41ed c73d 2b28 a4bd db51 0abd
000003c0: 08de de3c 71dd 863c 7c1d 9a3d 51c6 36bd
000003d0: c2f5 a3bb 0aa3 eabb 15ed 193c ac23 72bb
000003e0: f17f 45bb ed70 ab3c 7401 883a 659c dc3a
000003f0: b596 24bd 79d2 113c f65f 023e 2e21 ac3a
-0.083535865 0.03468631 0.0028511642 0.010561791 -0.012269853 0.18004327 -0.0091843875 0.06917691
0.07564395 -0.03971679 -0.012314871 -0.014351498 -0.008052488 -0.008589698 0.07023853 0.016905949
0.020039346 -0.021839976 0.11256574 0.018956 -0.025150461 -0.047010265 0.045087416 0.019527644
-0.105726644 0.14012772 0.33783683 -0.08934095 0.043861013 0.025705518 0.024289891 -0.015247432
0.010599223 0.06803843 0.14921987 0.0330023 0.043701444 -0.014929894 -0.020428786 0.12976475
0.10673799 0.08739076 0.031723477 0.013642119 0.041903235 -0.017925456 0.27532285 -0.0075318147
-0.0041497587 0.70734036 -0.006757469 0.019485366 -0.03571679 0.0740434 -0.050152548 -0.025919944
0.01366084 0.03217344 0.09346087 -0.0319643 0.088420555 0.011796315 -0.015238664 -0.0014988321
0.010400038 0.0041222083 0.00557277 -0.018028585 -0.055334404 0.056989476 -0.04572175 0.1722284
-0.03979339 -0.07127777 0.059772503 -0.003647231 -0.110760726 0.16158724 0.054542508 0.06513816
-0.049121648 -0.042242832 -0.014059183 0.15531592 0.052953523 0.0011453578 0.00914993 -0.0068444256
0.10025168 0.0969418 0.043733645 -0.037732314 -0.2593415 -0.054684337 -0.047826607 0.11900193
0.0040749884 -0.118283264 -0.06867984 0.005699857 -0.11004549 0.1170162 -0.08392032 -0.1670167
-0.04130493 -0.15665491 0.037818816 0.08056687 -0.06389445 -0.0032101837 0.05360376 -0.054017432
0.012699338 0.012251823 -0.10876066 0.027854396 0.22824432 0.07375253 -0.0081950845 0.058042057
0.06389509 0.01886056 1.95506e-38 -4.234477e-38 0.08909415 0.09022702 0.014480474 0.016999573
-2.5768377e-38 9.393883e-39 5.26892e-40 -0.04758662 0.0032579903 0.08068458 0.059486628 0.005808457
0.02265311 -1.2286181e-38 0.11740618 -0.0044895406 -0.0107253445 -0.75744 -0.014700332 -0.072789006
-0.08717088 -0.011984609 -0.023255084 0.039514974 -0.048978712 -0.090036996 -0.1116241 0.0071688034
0.036249924 -0.0012476548 -0.0035567342 -0.010704653 0.00021875654 -0.033052556 0.012494751 -0.019176986
-0.08025105 0.07985811 0.028905284 -0.0050036022 0.20827512 -0.14507955 0.096077874 0.018095203
0.006070752 3.8823977e-38 0.02776882 0.09046872 0.12626567 0.018095203 1.0090676e-38 -5.208717e-38
1.968414e-39 0.075209126 0.09392401 0.084062696 -0.022065576 -0.009256768 0.018095203 3.887129e-39
-0.12343204 0.022656163 -0.03792317 0.12883452 0.067595005 -0.12640275 -0.113941655 0.033372723
-0.024635183 -0.03811845 0.022474648 -0.15198556 -0.21186349 -0.12726423 -0.03364648 -0.047553327
0.004263185 -0.040419783 -0.0119658625 -0.04191217 -0.04261114 -0.00066251494 -0.03558353 -0.041171383
0.30019146 -0.02349549 0.15649492 0.24407907 0.12037145 3.2291942e-38 4.150683e-38 4.9940534e-38
0.21290945 0.09933338 0.14478326 -2.0556181e-38 -1.0259908e-38 -4.22379e-39 -4.913378e-38 0.07770716
0.25202084 0.070795126 0.10874452 0.18170652 3.5787173e-38 -4.943735e-38 -0.29463536 -0.033445414
-0.012635146 0.3059119 0.0035548562 -0.061850045 0.070382774 0.097620495 -0.08015474 -0.03376947
0.027205482 0.016463013 0.07525155 -0.044622723 -0.005003662 -0.007160549 0.009394904 -0.0036947532
-0.0030136073 0.02092787 0.001037641 0.0016831277 -0.040182788 0.008900278 0.12731919 0.0013132447

encoder.0.bias f4 [32]
00000000: 38d4 423e da92 6cb9 a972 e03d 2258 b4bd
00000010: afbe 113e e51e 343e 3b42 d13b bff3 163e
00000020: 9b82 a03c d48a 2c3e c198 e13d 79ba 863d
00000030: 3901 693d 7672 503e 9bca 473d 5bcf 893d
00000040: ba74 7abd 0564 913d 8fff da3d 0bad 3e3e
00000050: 2727 193e 6a39 0d3d 2aaa 373d 04e2 47bd
00000060: 072d dbbd fd4a 703c 647f 593d 3bad 0abd
00000070: 612f d93d 3d8f ba3d 8ceb c2bc b529 583e
0.19026268 -0.0002256142 0.1095937 -0.088058725 0.14232896 0.1758991 0.006386069 0.1474142
0.019593528 0.16849834 0.110154636 0.065785356 0.05688593 0.20356163 0.048777204 0.06729003
-0.061146475 0.07099155 0.10693275 0.18620698 0.14956342 0.034478582 0.044840015 -0.04879953
-0.10701948 0.014666316 0.053100005 -0.03385661 0.1060474 0.09109352 -0.023793958 0.2110966

encoder.2.weight f4 [32, 32]
00000000: 631d 57bd c5c2 dfbd 8f30 2b3e 7264 61bd
00000010: 7eef 0e3d 39de 2b3e f020 43be 0548 5f3e
00000020: 5196 ea3d 7b85 90bd 3e38 2fbe d401 313e
00000030: 0874 873d c949 e93d 8413 013d 417c 7fbc
00000040: 0793 1d3e 6114 053d d36d e63d e384 00bd
00000050: 20ef 643b a2c2 7a3d 492d 62be fdb9 2ebc
00000060: abf7 d8bd 4971 0a3e f177 6dbd ec70 253d
00000070: 2629 523e 7be1 903d 9e38 943b 362f fb3d
00000080: 6eba 203e 6275 99bb 42ef 7dbe 213c 8b3d
00000090: 5b32 c93d a166 85be f68b a5bc d1c8 e73c
000000a0: 3639 793d f56e 763d 6564 983d a21d 91bb
000000b0: 1fe5 1b3e 2a83 5dbd 3152 113d 92b4 a23d
000000c0: 00d7 68bb ece4 183c 701e f9bd 9d79 293d
000000d0: 6d97 fabc 2c68 b93d ec0b b4bd 4b12 653b
000000e0: 15f3 85bd 8117 5dbd c0df 0f3e 2be0 3abd
000000f0: f8a3 73be 0747 acbc 453d ff3d b8e6 7b3d
00000100: 9476 ab3d 005c 10be 1d24 19be 0fdc 283e
00000110: 56b8 4d3d bf14 e73c 1e42 0fbe bb31 c63d
00000120: 2394 d53a de1e e4bd 235c 8e3c d29f e43d
00000130: 4ed4 313c 7a28 523e f0f6 c5bc 248a 303e
00000140: 9011 5d3e c002 f8bc 3454 4e3c 37b2 ef3c
00000150: b355 9a3c 9246 593e e093 e23c 6a25 903d
00000160: 4551 35be d1c7 12be 33b1 f53d 3450 593e
00000170: 739a d83b 3f04 193e c4ec a53d 6c1b 7ebc
00000180: 2b5b 193e 8c8c 613d 3190 07be ac6c e43d
00000190: c107 603e 3d1d 2ebd c154 5a3d b728 31be
000001a0: 59a8 b1bd ca77 533e 848e 873e 9091 1abd
000001b0: 25c9 0a3e 7550 9abc 26ea b7bc 602c 053e
000001c0: 4292 d8bc cd79 593e 9f20 f93c f764 1e3e
000001d0: c363 323e 36e0 183e 70ea 883e 5335 93bc
000001e0: 65e0 f53d 092a 633e d675 363e c204 aabd
000001f0: 22f2 5abd d9c3 78be 4a84 4f3e 5ee9 7f3b
00000200: 9420 b8bb 50b0 40bd a3cd fd3c b344 b23d
00000210: af3d a8bc baff 7b3d fcfa a23d 8dbd 1f3e
00000220: 99ab a03d 62bd 96bd 7f72 5dbd 5839 cb3c
00000230: 6959 d2bd 8d42 db3d bcc2 bbbd a160 013e
00000240: e1a5 333e 66a2 08be 1566 a03d 958c 18bd
00000250: cffc b9bd aa7a b43c 100e c4bd b10d f53d
00000260: 3286 fcbd 019d 9a3c 4680 193d 824e f23b
00000270: 928c fc3d e581 2f3e a82d 993d 411a 333d
00000280: cc28 bdbb 06a8 523e 8635 303c 9b72 20bc
00000290: 3ad2 3d3e 61ab f03c 0642 d83c 659c 68be
000002a0: 91ef 1e3e 5d6b 153e 681c f43d 3cfc a1bd
000002b0: b4fe d33d 34f9 403e 4b99 a23c 264e 4a3d
000002c0: 21dc 193d a350 1b3e 4f29 573d f968 46bd
000002d0: 3df1 733c fb12 a23c 1dfe b83c 04e2 db3d
000002e0: 84e7 433e 4719 0ebd f11f 02bc 20ef bebd
000002f0: b76d 4cbe 6ba4 03be 69e4 29bc 17e7 913d
00000300: 0485 9e3d f242 443c 2257 83bd f306 b5bb
00000310: 2048 44bd d9c0 efbd 149d ef3d 5ded bcbe
00000320: 6cc0 523d e374 313e 783b 1fbd bca3 863d
00000330: d85e 77bc a3af 2f3e 26a6 6fbc d108 cb3d
00000340: 3a99 5f3d 83a6 3b3e 70b0 2d3b b90f a3bc
00000350: 9bcc 1a3e 4359 693d 1552 273e 980f 223d
00000360: 0c6e 8c3d f8f9 bf3c 1659 cbbc 2c5c 093e
00000370: 57cf 82bd 77d9 b6be 5e98 413e a9bb 4b3c
00000380: 7226 2e3e 811d e6bd 5e44 52bc 8ab6 8bbc
00000390: d13a 623d b7a4 a33c 82ee 83bd bd6d 2e3e
000003a0: ae17 963e e19a 1cbe 7e3d e5bd 8f59 0c3e
000003b0: e5e5 f33b 074d 763e ae03 3f3c 5702 173e
000003c0: 3838 0e3e 236b 9c3d 8b2d 0c3e 4c24 4f3d
000003d0: 062a 9b3c 18d6 753e 2e8b c43d edcf 36bc
000003e0: 34a0 2cbe 70a3 e63b 4cd3 4cbd e3ff 563e
000003f0: b6db b23d f93c 04bd d0d9 e6bd 4f54 2c3e
-0.05251826 -0.10925821 0.16717742 -0.055027433 0.034896366 0.1678399 -0.19055533 0.21804817
0.11454452 -0.070567094 -0.17111298 0.17285854 0.06613928 0.113910265 0.031512752 -0.015593589
0.15388118 0.032490138 0.11251416 -0.03137673 0.0034932569 0.061220773 -0.22087587 -0.01066446
-0.10594114 0.13519777 -0.057975713 0.040390894 0.2052351 0.07074257 0.004523351 0.12264864
0.15696117 -0.0046831826 -0.24798301 0.06798578 0.09824058 -0.26054862 -0.02020834 0.028293999
0.060845576 0.06016441 0.07441024 -0.0044285813 0.15224122 -0.054080166 0.035478774 0.07944597
-0.003552854 0.009331923 -0.121640086 0.041375745 -0.030589784 0.09053072 -0.087913364 0.003495353
-0.06540505 -0.053977493 0.14050198 -0.04562394 -0.23793018 -0.021029962 0.12462858 0.061499327
0.08372226 -0.14097595 -0.14955182 0.16490196 0.050224625 0.028208135 -0.13990065 0.09677454
0.0016294759 -0.111387 0.017377919 0.11163296 0.01085384 0.20523253 -0.0241656 0.17240196
0.21588731 -0.030274749 0.012593318 0.029259784 0.018839693 0.21218327 0.027658403 0.07038386
-0.17706783 -0.14334036 0.11996689 0.21222001 0.0066102087 0.14943026 0.081018 -0.015509468
0.14976184 0.055065677 -0.13238598 0.1115354 0.21877958 -0.042508353 0.053303484 -0.17300688
-0.08674688 0.20651165 0.26475918 -0.037736475 0.13553293 -0.018837193 -0.022450518 0.13005209
-0.026436929 0.2123787 0.030411063 0.15468203 0.17420869 0.1492928 0.26741362 -0.017969763
0.120056905 0.22184004 0.17818388 -0.08301689 -0.053453572 -0.2429346 0.20265308 0.003904901
-0.005619118 -0.047043145 0.030981844 0.087045096 -0.020537226 0.061523177 0.07958028 0.15599652
0.0784523 -0.07360341 -0.05406427 0.024807617 -0.1027096 0.10706053 -0.09168002 0.12634517
0.17543747 -0.133432 0.078319706 -0.037243444 -0.090814225 0.022031147 -0.09572995 0.11965502
-0.12330283 0.018873693 0.037475847 0.0073946128 0.12331499 0.17139395 0.07479411 0.04372621
-0.0057726856 0.20571908 0.0107549485 -0.009792949 0.18537226 0.029378595 0.02639867 -0.2271591
0.15521075 0.14591737 0.119194806 -0.07909438 0.10351315 0.18845063 0.019848486 0.049390934
0.037563447 0.15167479 0.05252963 -0.048439953 0.014889059 0.019784441 0.022582108 0.107364684
0.19131285 -0.034692075 -0.007942186 -0.09322953 -0.19963728 -0.12855689 -0.010369399 0.07124155
0.077402145 0.011978852 -0.06413104 -0.00552451 -0.047920346 -0.11706705 0.11699882 -0.36899844
0.05145304 0.17329745 -0.038875073 0.065741986 -0.015098296 0.17156844 -0.014627015 0.09913791
0.054589488 0.18325238 0.002650287 -0.019904958 0.15117113 0.056969892 0.16339906 0.039565653
0.06856927 0.023434624 -0.024822753 0.13414067 -0.06387203 -0.35712788 0.1890578 0.012434878
0.17006853 -0.11236096 -0.012833683 -0.017054815 0.055231873 0.019976003 -0.06441976 0.1703405
0.2931494 -0.15293457 -0.11193369 0.13706039 0.007443177 0.24052821 0.011658592 0.14746986
0.13888633 0.07637622 0.13689248 0.050571725 0.018940937 0.24007452 0.09596859 -0.011157972
-0.16857988 0.0070385262 -0.050006196 0.2099605 0.08733313 -0.03228471 -0.11272013 0.16829036

encoder.2.bias f4 [32]
00000000: 5aee 02be 43f4 ee3c 7a23 203e e76c 99bc
00000010: 6108 ee3d 502e cf3d 5271 e53d 5781 d63d
00000020: dfdf 203e 8039 0bbe 9675 143d 5340 fe3d
00000030: 1b7c 47bd bee4 133e f184 5a3e c883 fc3d
00000040: 7b50 113e 6b81 3f3e 61d4 7c3e cc16 a0b8
00000050: 7b98 a03d 4445 1f3e 20e9 d23d e896 f7bc
00000060: 1f3e 473e ce94 603d ebc0 4e3e 7e4c 57bd
00000070: 5f0d 5283 38f0 b43d 0264 fb3c 1ada bf3d
-0.12786236 0.029169207 0.15638533 -0.018728686 0.11622692 0.10116255 0.11203255 0.10473888
0.157104 -0.13596153 0.03624495 0.124146126 -0.04870234 0.14442727 0.21339776 0.12329823
0.14190857 0.18701713 0.24690391 -7.633641e-05 0.07841583 0.15553766 0.10298371 -0.030223325
0.19457291 0.05482941 0.2019078 -0.052563183 -6.1728803e-37 0.088348806 0.030687336 0.093677714

fc_mu.weight f4 [2, 32]
00000000: cf5e d2bd 124f 0abd 35db 5dbe d0b7 8c3e
00000010: bec6 5fbd 7e0c 8c3d b5e2 b73d b7eb 4dbe
00000020: b03e 09bd 7cd5 60be 6888 313e 1502 9fbd
00000030: ddc8 363e 075b 98bd f53a 10be c549 b4bd
00000040: 955c 1e3e 94bf d4bd ffe7 3bbe 9d43 57b7
00000050: 6b36 fd3d 725a 423e 9b95 0dbe 4827 963e
00000060: e995 373e e04b 3cbe f560 78bf 36a7 ce3e
00000070: ca5e 060b 67e9 0dbe abe9 38bf abed 5dbe
00000080: 5bee 753c 0ad5 9c3b 857c d7bb eb88 bbbc
00000090: 210a 32bc b293 69ba 3125 043d 9ea3 a2bc
000000a0: b1b4 39bb 0fe1 153b 3229 a739 7bb4 8bbc
000000b0: c4df aa3a 6eab e83a db04 b939 7bb0 0e3d
000000c0: 6392 13bc c146 25bc a1cd b33c 6b00 a4b5
000000d0: 954d 70bb 63e2 94bc 4310 613c e75f fe3c
000000e0: aaad 3ebc 6b9f 7fbb 62e5 1f3b d5d8 a3ba
000000f0: 91dd 2b00 f727 a4bb 94ab 98bb ae10 1fbc
-0.102719896 -0.033766814 -0.21665652 0.27483988 -0.054632895 0.0683832 0.08978788 -0.2010945
-0.03350705 -0.21956438 0.17337191 -0.07764069 0.17850061 -0.07439237 -0.1408499 -0.08803133
0.15465005 -0.10388103 -0.18350218 -1.2830741e-05 0.12363895 0.18979815 -0.13826601 0.29326844
0.1792828 -0.18388319 -0.97022945 0.40361947 2.5878773e-32 -0.13858567 -0.7223155 -0.21672694
0.015010442 0.0047861384 -0.006576123 -0.022892436 -0.010866673 -0.0008910253 0.03226203 -0.01985341
-0.002833646 0.002286974 0.00031883415 -0.017053833 0.0013036658 0.0017751285 0.00035289567 0.034836274
-0.009007069 -0.01008767 0.021948637 -1.2219074e-06 -0.0036667336 -0.018174356 0.013736787 0.03105159
-0.011638084 -0.0039004933 0.0024398197 -0.0012500534 4.02841e-39 -0.005009647 -0.0046591256 -0.009708567

fc_mu.bias f4 [2]
00000000: 8336 163e 6b34 7c3c
0.14669232 0.015393357

fc_logvar.weight f4 [2, 32]
00000000: 61af 983d 8bbb 59be 1719 cdbd e974 a8be
00000010: 5bff 043e ed89 99be 20ab c0be 8563 e1bd
00000020: 7c9c 20be 5e04 2f3e 2f05 3c3e c0b0 533d
00000030: 99b5 4fbe 2e04 c5bf 955f ab3d 1cf9 1fbe
00000040: 23de c4be cb4a 043d c126 9abd 328d 113a
00000050: 4c4f 24be 01a1 c5be 9bd7 10bc 2951 1cbe
00000060: 1412 8abe 08a1 153f f37d eabd 6074 06bf
00000070: 26a1 1f01 43fa e4bc 49e6 e2be e42f 953d
00000080: b8c2 74b9 bd9c 53ba 34a2 943a de47 3bbb
00000090: 7ac7 83b9 52ee 4db9 7cd4 6d3a 043a 55ba
000000a0: 2ca6 893a fa62 8139 8fe5 d139 5c19 5bba
000000b0: d42c 0b3a 3a5a 173a a539 8639 a9f5 eb39
000000c0: 3ee7 5fbb 338b 8b3a 65d8 203a 8d29 fcb4
000000d0: dd97 923a 5881 90ba 51fa 78ba 70a0 bfb7
000000e0: 73c8 2a3b 4349 dc39 0866 44ba de16 29b9
000000f0: 2a85 3200 ed6e 0e3a 6aa6 81ba d776 a9b9
0.07455326 -0.21262948 -0.10014551 -0.32901695 0.12988035 -0.29988042 -0.37630558 -0.1100531
-0.15684694 0.1709151 0.18361352 0.051682234 -0.20284118 -1.53919 0.0836784 -0.15622371
-0.38450727 0.03229789 -0.07526923 0.0005552351 -0.16045874 -0.385994 -0.008840467 -0.15265335
-0.26966918 0.5844884 -0.11449804 -0.52521324 2.9319306e-38 -0.027951365 -0.4431632 0.07284525
-0.00023342192 -0.0008072367 0.0011339844 -0.0028576772 -0.0002513489 -0.00019639105 0.0009072495 -0.000813395
0.0010501794 0.0002467854 0.0004003462 -0.0008357966 0.0005309109 0.00057736377 0.0002560142 0.00045005724
-0.003416493 0.0010646343 0.0006135761 -4.696889e-07 0.0011184175 -0.0011024876 -0.0009497749 -2.2843684e-05
0.0026059418 0.00042016254 -0.00074920105 -0.00016125615 4.639545e-39 0.00054333993 -0.0009891514 -0.00032322734

fc_logvar.bias f4 [2]
00000000: 5aad 92be f6b6 153b
-0.28647882 0.002284465

decoder.0.weight f4 [32, 47]
00000000: a14e d8bd af4d 1bb8 38e5 debc 0948 5dbc
00000010: 9d69 a0be 2e70 8c3c 859f eb3d efff 663d
00000020: 1eb1 9a3d 5722 bf3a a911 b7bd 9a15 693d
00000030: a64c 25bd 60e1 fbbd 2e54 96bd 9375 0d3e
00000040: 059f 0abc 971f a83c e08d 8dbb 21c2 c63c
00000050: 1054 bd3c dd54 da3b 0980 123e 0d2a 51bd
00000060: ae46 94bd c415 f63d e759 39bd 4505 f03b
00000070: 8299 053e 2589 943d c0aa c536 cc48 543b
00000080: 51d0 20bc 5e49 ab3b 3356 43bd 0c0d d1bd
00000090: 8f8c e53d 2e6b 28bd c173 cfbc 59b4 fcbc
000000a0: c283 a6bc ae6d 6abd b0df 02bc e2c6 f73d
000000b0: db58 953d f9dc 553a 19a3 133d 4aa9 6bbc
000000c0: 2c43 08bb dc4b b1bb c010 1fbb 98f4 ec3e
000000d0: d6a5 9b3c 0d49 4abd 368a 72bc db63 6f3d
000000e0: eece babd 3ea4 713d 3164 3ebd 1901 e03d
000000f0: 8339 d43c 6cf9 cc3d ec6f b63b e2eb 0c3d
00000100: d059 f4bc 2f0e 513c 6675 c23b 74e2 2fbc
00000110: b350 193c 64b0 28bd 89db 18bd dade ac3d
00000120: b3a5 3c3e 9749 fb3d 8f38 5a3d cc45 e63c
00000130: 686a 683d 416d eebc 46b6 5dbd 6277 8d3c
00000140: b692 043c e8c3 3a3e 2d6a e63d 22c6 fd3d
00000150: db50 053c 2491 a93c 8cf3 1f3d e3a2 c13d
00000160: 11e9 163e d4a8 b63d a52e e33c e242 a83d
00000170: fecc aa3d c903 8b3d b0f4 fc3e 8c6b caba
00000180: 3e04 e33c b1c0 043d dc73 1bbf 5c40 08bd
00000190: b38c 48bd 9de4 763c eabc 8a3d 9427 3cbc
000001a0: 0ce6 ddbc ddfa 30bb f7d4 dfbc f11f 053c
000001b0: 7266 a5bc 16d8 44bc 6a8b 20bc 4a81 57b9
000001c0: fd47 feb9 cf28 59bc 7959 143c 3e45 193c
000001d0: 36a5 493c d059 0abd a2c9 463d ee2c 7fbe
000001e0: 4882 08be 0c66 493d 3565 8bbe a88c 03be
000001f0: 18ea 85bd 6ace 493c 0d35 14be 713d acbc
00000200: b632 ebbd e031 5fbd 1909 aabd 6efa 0e3d
00000210: edeb a4bc bd37 1bbe 674b e8bd 4968 05be
00000220: 6541 dbbc 2cbc b9bd 8f61 b9bd ca17 073c
00000230: e0a4 b6bd 6d06 58be 4500 b3ba 4e16 953b
00000240: 809e 73bc 6225 84be 8e5e 26bc b7c4 db3c
00000250: 7f7c d13d 2d4f 57bd 50fc 8bbd 9620 8f3d
00000260: 69ea db3c 5b73 f63b 9861 2cbd bd3d 9d3c
00000270: 0237 dbbc 1e11 9c3c 4ba4 85bc dc1d f43c
00000280: c552 3dbd 8447 56bd 7008 333c 1c8f 68bd
00000290: 05e3 b1bc ad90 3e3d 6101 e8bb 0024 363e
000002a0: cd70 713c be51 f13d 0da9 df3d e1bf 093d
000002b0: cb7b 75bd 0f41 573d 842c 063e 6573 d8bc
000002c0: a6cd 563d 7d8f b23d ec45 a9bc 3ebf e8bc
000002d0: 24e6 b5bc b87c a03a 9f89 c13d 7000 973d
000002e0: b9ef 403d f352 823c 6da8 473e 6cc8 d03b
000002f0: 21e1 a6bd 2fb0 ca3a c16b 913b 8be2 82bc
00000300: e1ac edbe c396 8a3c e0d1 06be 9032 d23d
00000310: 80c4 c1bd 396b 803d 7d8a 853d 61a7 38bd
00000320: 2cdd 3dbd a6c8 d23d bdc7 0bbe 26f1 d9bc
00000330: eb2a 583b 3c89 133c aca5 1a3c f6c5 0b3d
00000340: fa34 f93c e2b7 64bb aa9c d13a 86ff 2f3b
00000350: f8fc 323c 2eb1 0e3e 7280 ad3d 9279 a9bd
00000360: c447 abbc cff7 303e 5b0e 99bd 88b5 e93d
00000370: 670b 233d f900 2a3e 6c96 063e cd6f 1b3d
00000380: 984e 4eba b099 a4bc 92b4 833c 07ac b83d
00000390: b993 69bd f065 43bd d46f 0abc 255f 4b3d
000003a0: 494e 9b3d 05c8 24bd 5c13 37bc db69 f13e
000003b0: 886f 933b 2eeb ab3c 3e52 f43c cdd2 533d
000003c0: 51e2 a3bc f614 783d cbbe 143d c2f0 103d
000003d0: 14ba 703d 335a 84bd 98ba 4b3b f9a7 dfbc
000003e0: 0282 353c c822 3ebd 66d9 753d aefc cd3b
000003f0: 4867 ffbb 9ccc 0cba 6a0f 30bc ab77 78bc
-0.10561872 -3.702723e-05 -0.02720891 -0.013505944 -0.31330577 0.017143335 0.11505035 0.05639642
0.07553314 0.0014582378 -0.08938915 0.056905366 -0.0403563 -0.12298846 -0.07340275 0.13814382
-0.008460765 0.020522876 -0.0043198913 0.02426249 0.023111373 0.0066629485 0.14306654 -0.051065493
-0.072400436 0.1201587 -0.045251753 0.007324847 0.1304684 0.07252721 5.8909354e-06 0.0032392023
-0.0098152915 0.005227252 -0.047689628 -0.102075666 0.1120845 -0.04111784 -0.02532375 -0.030847715
-0.020326499 -0.057233505 -0.007987902 0.12098481 0.072923385 0.00081582327 0.036044214 -0.014383623
-0.002079199 -0.0054106545 -0.0024271458 0.4628036 0.018999975 -0.049386073 -0.01480346 0.05844484
-0.091215 0.058994524 -0.04648227 0.10937709 0.02590633 0.10008511 0.0055675413 0.034404643
-0.029827982 0.012759729 0.005934405 -0.010735143 0.009357619 -0.041183844 -0.03731874 0.08440943
0.18422584 0.122698955 0.053276595 0.028109454 0.056742102 -0.02910483 -0.054128908 0.01726884
0.008091619 0.18238795 0.1125072 0.123913065 0.008136953 0.020699091 0.039050624 0.09454896
0.14737345 0.0891892 0.027732203 0.08215882 0.083398804 0.06787831 0.49405432 -0.0015443428
0.027711984 0.032410327 -0.6072366 -0.033264503 -0.048962306 0.015069154 0.06774314 -0.011484046
-0.027087234 -0.0027004995 -0.02732323 0.008125291 -0.020190451 -0.0120144095 -0.009798864 -0.00020552162
-0.0004850029 -0.013254358 0.009054535 0.0093548875 0.012307456 -0.033777058 0.048532136 -0.24919483
-0.13330948 0.049169585 -0.27225652 -0.12846625 -0.065387905 0.012317279 -0.14473362 -0.021025391
-0.11484282 -0.054490924 -0.083025165 0.034906797 -0.02013203 -0.15157981 -0.11342507 -0.13028063
-0.026764581 -0.09069094 -0.09051811 0.008245418 -0.08918166 -0.21096201 -0.0013656697 0.004549778
-0.014869332 -0.2580977 -0.0101543795 0.0268272 0.10228824 -0.052565742 -0.06835234 0.06988637
0.026845174 0.0075210757 -0.04208526 0.019194478 -0.026759628 0.01905113 -0.016313693 0.029799394
-0.046221513 -0.052314296 0.010927305 -0.056777105 -0.021714697 0.046524692 -0.0070802425 0.1778717
0.014736366 0.11783169 0.10920916 0.033630256 -0.05993251 0.05255228 0.13102919 -0.026422212
0.052442215 0.087187745 -0.020663224 -0.028411504 -0.022204466 0.00122442 0.09450077 0.0737313
0.047103617 0.015908694 0.19497843 0.0063715484 -0.08148409 0.0015463884 0.004437894 -0.015977165
-0.4642096 0.016917592 -0.13165998 0.1026355 -0.094613075 0.06270451 0.06520555 -0.0450815
-0.046353504 0.10292177 -0.13650413 -0.026604246 0.0032984565 0.009004887 0.009438913 0.034124337
0.030420769 -0.0034899642 0.0015992124 0.0026855185 0.01092457 0.13934776 0.084717646 -0.08275141
-0.020908244 0.17282031 -0.07473441 0.114115775 0.039805796 0.16601934 0.13143319 0.03794842
-0.0007869988 -0.020092815 0.016077314 0.090171866 -0.057025645 -0.047704637 -0.008449513 0.049651284
0.07583291 -0.040229816 -0.011174049 0.47151074 0.0044993795 0.020986166 0.029824372 0.051714707
-0.020005377 0.060566865 0.036314767 0.035385855 0.058771208 -0.06462517 0.003108656 -0.027301775
0.01107836 -0.04641989 0.06002178 0.0062862253 -0.0077942945 -0.00053710653 -0.0107458625 -0.01516525

decoder.0.bias f4 [32]
00000000: 4b64 f63d 1405 d33d b59f 3dbe d0e2 5a3e
00000010: 055c 0f3c a030 793d 13f8 143e 65ad 003c
00000020: 3b8e 2a3d 7c23 233e c3ae abbd 2686 ba3d
00000030: 74b6 6a3d 0a9a 313e c6a1 253d 11f8 2bbd
00000040: 1b9e 01bc fa38 f9bc 50ca 7d3e b671 543d
00000050: cfcc 363d 1731 e93d acc5 f73d e25f 683d
00000060: f56a 453d 9060 24bc be60 883d 756c a6bd
00000070: 8891 123e ad44 80bd 7739 e23d a359 b9bc
0.12030848 0.10303703 -0.18517955 0.21375585 0.0087499665 0.060837388 0.14547758 0.0078538405
0.041639548 0.15931505 -0.083829425 0.09107618 0.057302907 0.17343917 0.040437482 -0.04198462
-0.00791123 -0.030422676 0.24784207 0.051866256 0.044628914 0.11386316 0.1209825 0.056732066
0.048197705 -0.010032788 0.06659077 -0.08126155 0.14313328 -0.06263099 0.11046117 -0.02262575

decoder.2.weight f4 [32, 32]
00000000: d596 bdbc a3c9 793d b3be 84be 9a93 e33d
00000010: 8094 d7bb 37ba 7dbd ad7f 693e ed04 113d
00000020: d964 1c3e 07ca 1f3e 24b3 4f3d be3f 623d
00000030: eda0 583c db86 a7bd 33a2 a93d cecb 1b3e
00000040: 819f ca3c f2dc e63d 83e3 24bd ac02 8dbd
00000050: 973b e8bd b56b 94bc 68ae c1bd 252f 593e
00000060: c91f 413e 74e6 00bd 77ed 663d 6b61 7c3d
00000070: a3d0 9cbd 1174 07bd 99a3 d83c e46d ce3d
00000080: 6eea 68bd acd3 4bbe 1b1e f9be 5294 f2bd
00000090: e3cf 4f3e 1d31 9dbd 3460 e63d 365d 9cbc
000000a0: 8edf 103d 929e bcbd 2255 6ebd 9358 9fbe
000000b0: feb8 063e 8250 4ebe e2b9 ca3d 0be8 e73d
000000c0: 5ade 1cbe 0fe6 693d c196 d73d 98c6 72be
000000d0: 7d9b 223e 5afd 4bbd bf21 abbc fda5 563e
000000e0: 384b 433e baac 04bd d4f1 4c3e 2819 8e3d
000000f0: db70 f23d 4ff8 153d daf6 a4bd 8f49 1dbd
00000100: 254b 533e 942d 29be 88aa b5be 7ce4 2c3e
00000110: 9652 133e 8958 893c d21d 553d ab37 96bd
00000120: 19f9 e13d dadc 163d 901f f1bd aa66 77be
00000130: 658b 9c3c 1015 7c3a fc07 60ba 83b6 ea3c
00000140: 04ac 283a 0b1f 363e d917 cc3d f3af d23c
00000150: 115b e33d 5222 65bd 3b6e e43c d748 22bd
00000160: 184f a0bc 6b46 aabd c7b2 573e ff86 e5bd
00000170: e967 cf3d 712a 993d ae14 803d 19c5 74bd
00000180: 9ca1 b4bd 49bd 293c 1e37 d8bb 5086 1b3e
00000190: 6a35 b13d 5a7a a7bc 5052 0fbd 01ef a43d
000001a0: 6f28 a6bd 1eca 4b3d be96 45bc a9f1 2bbd
000001b0: cf55 ccbd f7df e63c cd31 eebc 2984 b93b
000001c0: a13a 89bd 259c ba3d 857f d0bd 1173 5d3d
000001d0: 46b6 9a3c 07a6 8b3c 4bf7 51bd af52 293e
000001e0: 67a2 1e3e d050 bcbb 234f 8fbc 7afa 013c
000001f0: c8b9 e33d 285a 90bd 5828 c2bc 22c4 83bd
00000200: a047 4a3e 83e5 5fbd 2fc4 01bf 228c 3e3e
00000210: 6a34 3f3e f8c8 84bc 48dd 2b3e 43f3 acbc
00000220: bd2c 4f3e 8706 b7bd 8d9b 05be a17f 5bbe
00000230: cf84 a8bd d5b0 f13c d8d0 663d 7e8b 233e
00000240: 424b 33be 3b8d b83d 94da a93d 87d3 51be
00000250: 00a3 3c3d fb71 c63d 95c3 413d 6e38 373d
00000260: 2ddf 03bd efba 8fbd 5363 033d f814 633c
00000270: 5b23 203e 34ad 70bd 7fe1 e63d c113 f6bd
00000280: c0dc ccbd 24c8 553c 0c45 3a3e f681 0bbe
00000290: 4c17 0bbe 75e8 293e cae4 cebd 1376 2c3e
000002a0: 28b9 73bd 899f 8c3d 521c f93a 630c 50bd
000002b0: a5e6 0a3e 8e03 603e 9d56 083d 1435 9c3d
000002c0: 0a64 7f3e e0ce 303d 4623 bc3d 4543 a13d
000002d0: 2af1 513e 2ad4 c53d 0abf 9b3c 114d a2bd
000002e0: 2d9d 04bd 8dc0 0e3d c648 253c 4fb4 06be
000002f0: b14b a3bd a456 183d 07a8 de3c baec b13d
00000300: 2700 5abc a5ea 193e 2952 403e 680a 8cbd
00000310: 2051 c9bd bddc 493e 77a1 9dbc a985 d73d
00000320: 570a b1bc 44e5 6f3e d79f 23bd 1fb0 213d
00000330: f82f 3c3e c0f8 5d3e e3dd 4d3a 69ea 4c3c
00000340: 499e 803e 0719 1a3e 089b 283d d24b 46bd
00000350: efc5 1d3e ddcb 513e 50f0 6b3e 8272 dfbd
00000360: 857f 83bc 8d54 7fbc b0ef 33be 3c9e 8bbd
00000370: 6ae7 06bd a314 5a3d 2a08 6e3e 628f 813e
00000380: f888 933d 2cd4 26bd 77fc fbbd 5143 0d3e
00000390: 5c39 273e 6e72 c03c b3bb e5bd 66b1 c3bb
000003a0: b29a be3d 10a6 24be 83a3 b8bb 8e3a 36be
000003b0: 75d2 113d 68f4 edbb 8baa 863d d3f6 043d
000003c0: 9489 25be 35e3 723e 6d51 02be 16a4 49be
000003d0: 25b9 e8bd cf45 ac3d e77b 11be ab4b 523e
000003e0: 101c 033e fd8b f3bd 0882 14be dc29 14bc
000003f0: 3ca0 123e 3ecf ea3c 913d dcbc 581c 013d
-0.023143211 0.06098331 -0.25926742 0.11112137 -0.006578982 -0.061945166 0.2280261 0.03540509
0.15272845 0.15604411 0.05070795 0.05523657 0.013221961 -0.081800185 0.0828289 0.15214464
0.02473426 0.11272611 -0.040256035 -0.06885275 -0.11339491 -0.018117765 -0.094570935 0.2120939
0.18859781 -0.031469777 0.056378808 0.061616343 -0.07656982 -0.033069674 0.026445197 0.10079554
-0.056864195 -0.19904965 -0.4865578 -0.11844696 0.20294146 -0.07675383 0.11248818 -0.019087415
0.03536945 -0.092099324 -0.058186658 -0.31122264 0.13156506 -0.20147899 0.098987356 0.113235556
-0.15319195 0.057104167 0.10526801 -0.2370857 0.15879627 -0.04980216 -0.020890115 0.20961757
0.19071662 -0.032391287 0.20014125 0.06938392 0.11837932 0.03661376 -0.08054896 -0.03840023
0.20634134 -0.16521293 -0.35481668 0.16884035 0.14386973 0.01676585 0.052030392 -0.073348366
0.1103384 0.036831714 -0.11773598 -0.24160257 0.019109437 0.00096161757 -0.00085461116 0.028651481
0.0006434324 0.1778528 0.09965486 0.025718665 0.11101354 -0.055940934 0.027884593 -0.039620247
-0.019568965 -0.083142124 0.21064292 -0.11207389 0.10127241 0.07478798 0.06253944 -0.05975828
-0.08819887 0.0103600705 -0.0065983674 0.15187955 0.08652766 -0.020444084 -0.03499061 0.08053399
-0.08113181 0.0497533 -0.0120598655 -0.041978512 -0.09977304 0.028182967 -0.029076481 0.0056615067
-0.06700636 0.091118135 -0.101805724 0.054064814 0.018885743 0.017046941 -0.051261228 0.16535448
0.15491639 -0.0057469383 -0.01749379 0.007933253 0.11119419 -0.07048446 -0.023700878 -0.06433894
0.19753885 -0.05466224 -0.5068998 0.18608144 0.18672338 -0.01620911 0.16783631 -0.02111209
0.2023191 -0.08936792 -0.13047619 -0.21435405 -0.08228456 0.029503265 0.056351513 0.15971181
-0.17509177 0.090113126 0.082936436 -0.20490848 0.046053886 0.09689709 0.047305662 0.04473155
-0.03219526 -0.07018077 0.032077145 0.01385998 0.15638487 -0.05875893 0.11273479 -0.120154865
-0.10003042 0.0130482055 0.18190402 -0.13623795 -0.13583106 0.16592582 -0.10102232 0.16841917
-0.05950275 0.068663664 0.0019005632 -0.050793063 0.13564546 0.21876356 0.033285726 0.07627311
0.24940506 0.04316604 0.091864154 0.07874159 0.20502153 0.09659608 0.019011993 -0.079248555
-0.032376457 0.0348516 0.010088151 -0.1315472 -0.07973421 0.037192002 0.027179731 0.0868773
-0.0133057 0.15030916 0.18781342 -0.06837922 -0.098299265 0.19713111 -0.019242031 0.105235405
-0.021611376 0.23427302 -0.039947357 0.039474603 0.18377674 0.21676922 0.0007853193 0.01250706
0.25120762 0.1504861 0.041163474 -0.04841215 0.15407537 0.20487924 0.2304089 -0.109105125
-0.016052017 -0.015584123 -0.17571902 -0.0681729 -0.032935537 0.053242337 0.23245302 0.25304705
0.07203859 -0.040729687 -0.12304013 0.1379521 0.16330475 0.023492064 -0.112174414 -0.0059720753
0.093068495 -0.16078973 -0.0056347265 -0.17795774 0.035601098 -0.0072618015 0.06575497 0.032461952
-0.16165763 0.23719485 -0.12726374 -0.196915 -0.113634385 0.084117524 -0.14207421 0.20536678
0.12803674 -0.11891935 -0.14502728 -0.009043183 0.14318937 0.028663274 -0.026884826 0.03152117

decoder.2.bias f4 [32]
00000000: 85d9 c23d 0ad1 fa3d 4ecb e5bd ff15 22be
00000010: 949c 4d3c 0bfb 423e 11e8 e53d 6f2f a0bc
00000020: 0dfc 8e3d 7ece 81bd eea5 8fbd 49c3 e53b
00000030: e070 0cbe cd47 913d 7d14 1e3e 839d f8bd
00000040: 0f7f b53c 260c 8cbe e9ec 6ebe c35b b7bd
00000050: a227 403d c80e f83d 9e4e 213e ec29 1c3d
00000060: 0f4d d73d 1b15 39bd f98f d43d d470 42be
00000070: ac9b 323e 5592 0fba a9e9 a1bd 9ada e93d
0.09514145 0.12246902 -0.11220418 -0.15828703 0.012549538 0.19041078 0.11225904 -0.019553868
0.069816686 -0.063382134 -0.070140705 0.007011805 -0.13714933 0.07093773 0.15437503 -0.12139418
0.022155313 -0.2735302 -0.23332562 -0.08953049 0.046912797 0.12112194 0.15752646 0.038125917
0.10512745 -0.045186143 0.10379023 -0.18988353 0.17442197 -0.0005476822 -0.07905895 0.11418648

decoder.4.weight f4 [1, 32]
00000000: 203a 4dbe 0e98 5cbe bf58 8ebd 2aca 2bbd
00000010: 4013 5ebe e743 c93d 52a0 593e b302 51be
00000020: 6da9 21be d5c1 23be 2cf7 3abe e1e8 6dbe
00000030: 4957 41be 96e7 0f3e d060 0fbe 66d5 b4be
00000040: 9ad9 ce3e c573 0fbf 31ae 1d3f 36d4 72bd
00000050: 7586 5bbe bb54 22be b5aa 32be 0edb 2a3e
00000060: 1904 3a3e ae46 56be 6ddc 933e 7f1a c0be
00000070: ab7c 5a3e 3eab 99ba 2963 98bd cc73 3fbe
-0.20041704 -0.2154238 -0.06950521 -0.041940846 -0.21687031 0.098274045 0.21252564 -0.20411186
-0.15787287 -0.1599191 -0.18258351 -0.23233368 -0.18880953 0.14053187 -0.14001775 -0.3531906
0.40400392 -0.56036025 0.6159392 -0.05928441 -0.2143801 -0.15852635 -0.17447932 0.16685125
0.18165626 -0.209254 0.2887911 -0.37520215 0.2133662 -0.0011724008 -0.07440788 -0.18696517
