models/cvae_L16_H128_B0.500_LR5e-04.pt (torch, 227229 bytes, 13 tensors)

encoder.0.weight f4 [128, 46]
000000 77 d1 06 3e af 84 b6 3c 90 6a 64 bd ac 44 99 3e
       0.13165842 0.022280065 -0.05576569 0.29935205
000010 44 12 9d bc ad d7 24 bd 06 03 57 3b eb 9e 3f bd
       -0.019173749 -0.040244747 0.0032808199 -0.046782415
000020 c2 a6 be 3c b4 5f 12 bd d6 01 65 3a 1c 5c 48 bd
       0.023272876 -0.0357358 0.00087359303 -0.048915967
000030 91 c3 03 3d 4b 9c d7 3d 3a b5 4a bd 85 42 32 3d
       0.03216893 0.105278574 -0.049489237 0.04352047
000040 94 86 1a bd 03 98 75 bc fc 42 99 3a d7 4c b4 3d
       -0.037726 -0.014989856 0.0011692937 0.088037185
000050 aa 0c 80 bc 06 da 00 be 1a bf 01 3d 0e 9c 9e 3d
       -0.015631039 -0.1258317 0.03167639 0.07744609
000060 38 16 26 bc 55 64 f2 3d b0 cf 1c 3d a1 b4 87 3d
       -0.010137133 0.11835543 0.038284004 0.06626249
000070 3c e6 ce bd 4b 74 20 3d 4c 9b 31 3d b0 8d 4c bd
       -0.101025075 0.039173406 0.043360993 -0.04993981
000080 75 63 97 bd 14 ae 9d 3d ab 55 d8 bc 81 d5 03 3d
       -0.07392017 0.076992184 -0.026408037 0.032186035
000090 94 62 2f bb 23 28 d7 bc 20 65 ae 3d e1 a8 fd bc
       -0.0026761638 -0.026264256 0.08515382 -0.030964317
0000a0 aa d0 69 3c 43 f1 e9 3c 01 76 39 bd a8 d0 42 bd
       0.014270941 0.028557425 -0.045278553 -0.04756227
0000b0 24 6b 8e 3d bb 73 ea bd 79 56 af bd 6a df 4b 3c
       0.06954029 -0.11447855 -0.08561415 0.012443403
0000c0 f6 43 fc ba eb 6d 0f 3e 04 08 c5 3d 3b d6 ff 3d
       -0.0019246328 0.14006774 0.096206695 0.12492033
0000d0 96 49 03 be bb 37 fc bd ee b3 54 ba d1 d2 86 3d
       -0.1282104 -0.12315317 -0.000811397 0.06583179
0000e0 6a 39 d8 3d 6a 6a 50 3d 6e dd e6 bd 79 ac 93 bc
       0.10557826 0.050882734 -0.11272703 -0.018026577
0000f0 61 2e 8f bc fb 05 60 bd 04 87 e3 3d 02 0e 0e bd
       -0.01747817 -0.054693203 0.111097366 -0.034681328
000100 2d 11 4c bd 4d 9b ca bc bc a6 02 3e 16 ed 55 bd
       -0.049821068 -0.024732256 0.12758917 -0.052228056
000110 21 12 92 bd fd 42 0b 3d be e1 b4 3d f2 73 80 bc
       -0.07132364 0.033999432 0.088321194 -0.015680287
000120 8f ee 99 bc 13 05 e8 3d 15 ea 25 3e 83 e2 56 3d
       -0.018790511 0.11329093 0.16202576 0.052462112
000130 69 32 62 37 b3 ea 0a bc ed c2 eb bc a2 3b 9d bc
       1.3482387e-05 -0.008478808 -0.028779471 -0.019193474
000140 6d 5a ac bd 9d 8e cc 3b 3b 38 10 bd 18 47 0b bc
       -0.08415685 0.0062425868 -0.035209876 -0.008500837
000150 cd 10 45 80 9d 12 0a 3d f5 67 e2 3d 7f d0 af bb
       -6.342676e-39 0.033709157 0.110549845 -0.005365431
000160 85 d6 c1 bd e7 db 80 bc aa 5a e1 3d 80 44 0b bc
       -0.094647445 -0.015729858 0.11003621 -0.008500218
000170 2c ec d2 3d a0 9c 95 bc 79 07 f0 3c 91 b4 3b 3e
       0.102989525 -0.018263161 0.029300438 0.183306
000180 5c a6 84 bd b6 4a 28 3d d7 44 69 3d 2c 9c e0 ba
       -0.06477043 0.041086875 0.056950416 -0.0017136387
000190 8d 10 be bc 5e 40 c3 bd 5a c0 41 3d 11 97 f5 bd
       -0.023201251 -0.095337614 0.04730258 -0.11991704
0001a0 14 af 83 3d f9 43 33 bd 45 2e 54 bd c5 e8 12 3c
       0.06429878 -0.043765996 -0.05180194 0.008966629
0001b0 c2 c7 38 3c 7d 49 16 bd 16 3d 27 bc e3 5a e1 bd
       0.011278095 -0.036691178 -0.010207435 -0.110036634
0001c0 62 e2 67 bd ef e5 88 bc 55 4e 9c bc 77 0c 0a bd
       -0.05661238 -0.016711203 -0.01908032 -0.033703294
0001d0 13 cf 5a be bf 78 14 bd 8e c7 94 3c ba 11 b0 bd
       -0.21368055 -0.036247965 0.018161561 -0.08597131
0001e0 60 eb 0b 3d 83 7d f4 bc 22 a7 a1 bc 79 d1 ef bb
       0.034160018 -0.029845005 -0.019733015 -0.0073186723
0001f0 01 18 95 bd 4b 1a 8d 3d 2a 03 78 bd b2 1b 70 3c
       -0.07279969 0.068897806 -0.060549892 0.014655041
000200 a3 a5 35 bc 3e f1 0f bd 08 e9 88 3b cb 49 90 3d
       -0.011086854 -0.035142176 0.00417817 0.07045325
000210 01 e3 a4 bd ae 57 56 3c 07 ec eb bd 86 7c fc 3d
       -0.0805111 0.013082428 -0.11519628 0.123284385
000220 67 cb c1 bc b4 b6 ca bc 0f 5f 56 3e 7b 2c f9 3c
       -0.02365656 -0.024745323 0.209347 0.030416718
000230 6c 20 25 bd 09 51 4f 3e 92 31 41 bc 54 9f f7 3b
       -0.040314123 0.20245756 -0.011791604 0.007556835
000240 f5 0b d5 bd 7a 69 8f bd d0 66 f1 3c 1e 0b 8f bd
       -0.10402671 -0.0700254 0.02946797 -0.06984542
000250 87 35 7e 3d dc 1a 11 bc a8 ce 8b bd 3f 82 1b 3d
       0.062062766 -0.008856501 -0.06826526 0.03796601
000260 58 94 3e 3d 85 8f a9 3c aa d1 f9 3c c3 1f 07 3d
       0.04652819 0.020698318 0.030495483 0.032989275
000270 5b da d1 bc 01 2d 19 bd 7f ba f6 bd 3b 43 de 3c
       -0.025616815 -0.037396435 -0.1204729 0.027131667
000280 85 75 d6 3d 25 1e bd 3b d6 82 dc bc a5 34 80 bd
       0.10471634 0.005771416 -0.026917856 -0.06260041
000290 df ca 37 be 43 61 2f 3d 01 fe c7 bd be aa f4 3c
       -0.17948483 0.042817365 -0.09765244 0.029866572
0002a0 4e 93 e8 bc d4 11 ec 3c 52 5b c4 3c 2e 42 e3 bd
       -0.028390553 0.028817095 0.023969326 -0.11096607
0002b0 2f 2c 64 bd 2f 90 6d bd 40 fa 4c bd 4d 8c ec 3c
       -0.0557062 -0.057998832 -0.050043344 0.028875494
0002c0 05 3d 28 3d 19 bc a7 bb 85 a5 0b bc 5b bb cd bc
       0.041073818 -0.0051188585 -0.00852335 -0.025113752
0002d0 e0 81 99 bd f7 8c 87 3c 51 01 96 3c b1 bb 21 3d
       -0.07495475 0.01654671 0.018311175 0.039485637
0002e0 e9 c5 a0 bb ed 8c 8b 3a 87 d2 a6 bd 51 92 c8 bd
       -0.004906405 0.0010646858 -0.08145624 -0.09793533
0002f0 6f d0 96 3d d2 f9 77 3d d6 93 cd bd a8 33 84 bd
       0.07363974 0.06054098 -0.10037963 -0.06455165
000300 dd 0d d8 bd b8 eb e3 3d 16 2b 62 3d d5 da a1 3d
       -0.10549519 0.11128944 0.05521687 0.07903067
000310 21 bd be bd a1 a7 ed 3d 22 3b c5 3c fc 88 36 bb
       -0.09313417 0.11604238 0.024076048 -0.0027852645
000320 4d eb 47 3c 13 33 c0 bc 52 ad d6 3d 65 34 cb bd
       0.012202096 -0.023461854 0.10482277 -0.09922103
000330 9c 6c 9c bd 3c 87 97 bd 45 f8 94 3d 0c a8 81 3d
       -0.07637903 -0.07398841 0.07273916 0.063308805
000340 ab b8 8a 3d 91 9c 18 bd bd 81 4b be 21 45 d3 bc
       0.06773504 -0.03725869 -0.1987371 -0.0257898
000350 a6 a2 aa 3d dc 11 78 bd 01 4c 28 bd 20 0b 53 ba
       0.08331804 -0.060563907 -0.041088108 -0.0008050669
000360 80 8c b4 bd a2 b4 e9 bc 78 c3 1c 3e 79 e9 14 bc
       -0.08815861 -0.028528515 0.1530894 -0.009088867
000370 a9 36 3f bd 12 0b 53 ba 9a 08 25 3d 7d e7 4b 3d
       -0.046682987 -0.0008050661 0.040291406 0.04978131
000380 de e0 c0 3c c8 5b 65 3d e2 d8 99 bd 17 f8 ed 3d
       0.023544725 0.055995733 -0.0751207 0.11619585
000390 e9 13 95 3d 0d 23 4c bd 5e 31 af 3d 2f 80 6e bc
       0.07279188 -0.049838115 0.08554338 -0.014556929
0003a0 ff 63 52 bb b6 f9 b7 3d 07 74 96 3c c4 73 85 bd
       -0.003210306 0.089831755 0.018365873 -0.06516221
0003b0 b4 63 f7 3c ca 08 ce bd a4 5b a9 3d 46 52 d9 bc
       0.03019891 -0.1006027 0.08269432 -0.026528489
0003c0 42 06 ca 3d 6f 0b e9 bc 8e 98 7e bd 38 3b c6 ba
       0.09864475 -0.028447835 -0.062157206 -0.001512385
0003d0 af 83 26 3d 23 c4 54 3c 3b d8 be 3c ac 7f fe ba
       0.040652927 0.012986216 0.023296466 -0.0019416711
0003e0 0e 04 88 bb 0e 43 93 bc e2 cd 8e 3d a0 a1 b2 3d
       -0.004150874 -0.01797631 0.06972863 0.08722234
0003f0 38 a3 2b bd 45 fc 9c bc 86 d2 fc bd da 77 cd 3d
       -0.041903704 -0.01916326 -0.12344842 0.100326255

encoder.0.bias f4 [128]
000000 74 b3 de bd e7 44 b8 3d 02 eb c7 3c 57 ee 55 bd
       -0.10874072 0.08997517 0.024404053 -0.05222925
000010 23 66 06 3e f6 03 51 3d 0f 22 3f 3e b7 9e 0d 3e
       0.131249 0.051029168 0.18665336 0.13830076
000020 f7 5e 8a bd bc 49 2d 3d 62 c3 39 3d 88 0c d7 3d
       -0.06756394 0.042306647 0.045352347 0.10500437
000030 1b 34 0d bc f4 14 be 3d 59 94 e2 3c 95 84 4c bd
       -0.00861838 0.0928134 0.027658628 -0.049931128
000040 62 90 85 3d d7 62 f0 3d 83 16 42 3e 95 32 d5 3d
       0.065216795 0.11737602 0.189539 0.104100384
000050 a0 20 a2 bd e8 0f a3 ba d1 9d 98 bd 80 5e 00 3a
       -0.07916379 -0.0012440654 -0.07451976 0.0004896894
000060 fe 83 27 bd 65 68 bb 3d 72 64 03 3d 8f c8 82 bd
       -0.040897362 0.09150771 0.032078214 -0.0638591
000070 e1 cf 1f 3e 6f 7e 32 3e 63 ca f4 bc e1 b7 3a 3c
       0.15606643 0.17431043 -0.029881662 0.011396379
000080 38 c9 11 3e 66 04 19 3e f0 54 c6 bd 42 c7 1f 3e
       0.14236915 0.14943084 -0.09684169 0.15603355
000090 ec 2e c2 bd db d6 f1 3d 4c a9 08 3e 83 c7 8a bd
       -0.09481606 0.118085586 0.13345832 -0.06776335
0000a0 68 bc 98 3c 35 33 6a bd 16 c3 61 bd d5 37 25 3e
       0.018644527 -0.05717774 -0.05511769 0.1613458
0000b0 ae b1 fd 3d fb 57 76 3c 43 e5 e4 bb 2a 4d a0 3c
       0.12387405 0.015035625 -0.006985338 0.019568045
0000c0 cc 8b 5e 3e ad 17 98 3d 87 a6 64 3d f2 8b 49 bb
       0.21733016 0.07426391 0.055822875 -0.003075358
0000d0 74 9f c3 3c 0f d9 0a be 1a af 80 3d 21 bb b6 3d
       0.023879744 -0.13559364 0.06283398 0.08922411
0000e0 38 39 6e 3d bb e8 6c bd 09 d7 af 3d ea 32 b4 bc
       0.058160037 -0.057839137 0.085859366 -0.021996934
0000f0 1b bf 87 3d de 75 2a 3e fa b8 e9 bd ce 44 fa 3d
       0.06628247 0.16646525 -0.114122346 0.12220155
000100 e3 b2 b7 3d 86 20 ba 3d c6 3b 0d 3e 7f 17 11 3e
       0.08969667 0.090882346 0.13792333 0.1416912
000110 26 08 bf 3d 5c ac b1 3d f7 c3 fc 3b 01 7f fa 3d
       0.09327726 0.08675453 0.0077137905 0.12231255
000120 1e cb 95 3d 0d 13 96 bb bf 06 2e bc 16 95 c0 3d
       0.07314132 -0.0045799077 -0.010621726 0.09403436
000130 ed c9 ce 3c 1d 74 4e 3d 5f e1 b4 3d e4 e5 c8 3d
       0.02524277 0.050403703 0.088320486 0.09809473
000140 fb 9b 5a 3d 53 e0 18 3e 8c c8 3e 3e 47 6a d3 bd
       0.05337141 0.14929323 0.1863119 -0.10323005
000150 3e 28 1a 3e 00 1d 90 3c 71 d4 a5 bd fd 30 fd bc
       0.15054414 0.017591953 -0.080971606 -0.030907148
000160 4d af 7e 3d 21 ab f5 bd c9 0e 5b 3b 81 7b 35 bc
       0.0621789 -0.11995531 0.003342556 -0.011076809
000170 56 6c 04 3e 6d f6 53 3e f3 df d3 3d 07 be 45 bc
       0.12931952 0.20699473 0.10345449 -0.012069232
000180 b4 5f 19 be a2 de 92 3c d6 89 56 3e 7b 07 11 be
       -0.14977914 0.017928425 0.20951018 -0.1416301
000190 af 16 38 be 78 c5 19 3e 1b 6b e9 3d d9 7a 45 3e
       -0.17977403 0.15016735 0.11397382 0.19285144
0001a0 d5 05 49 bd 3c 93 42 3c 1e ba fa 3d 51 04 8c 3d
       -0.049077827 0.011875924 0.1224253 0.06836761
0001b0 ec b7 48 3c b7 3a de 3d 99 2f c8 3d 95 7a b9 bc
       0.012250882 0.10851043 0.097747035 -0.02264146
0001c0 5f f9 30 3e 86 54 98 bd 4c af 2e 3c 98 f0 2b 3e
       0.17282628 -0.074379966 0.010661911 0.16790998
0001d0 0f 3d c9 bd 87 2b a5 bd 87 ad 8d bc 81 d6 8e 3c
       -0.09826099 -0.08064943 -0.017294658 0.017436268
0001e0 57 2e 97 bd f9 6f 89 bd 8b e9 12 3e 2f 60 ac bd
       -0.073818855 -0.0671081 0.14346902 -0.08416783
0001f0 14 6b 62 3d 73 53 48 3d 44 90 cc bd 04 60 25 3e
       0.0552779 0.04890771 -0.09988454 0.16149908

encoder.2.weight f4 [128, 128]
000000 d2 97 3f 3d d1 99 2d 3d f9 bb 53 bc 30 ff 59 3c
       0.046775647 0.04238302 -0.012923234 0.01330547
000010 b7 b0 a4 bb 68 63 3c bd 11 88 71 bc 6c 7e 8c 3d
       -0.005025949 -0.04599324 -0.014741913 0.068600506
000020 4d 24 c9 3c fe 59 27 3d cf 88 2c 3d 30 fa 8c 3c
       0.024553442 0.040857308 0.04212266 0.017209142
000030 98 47 55 3c 07 0a f5 bc 55 53 82 3b 7e 29 77 bd
       0.013017558 -0.029912008 0.003977219 -0.060342304
000040 37 4b 1b 3c 34 ea 98 bd 5b ef 9c 3b 3e 22 45 39
       0.009478382 -0.07466546 0.0047892756 0.0001880014
000050 5b 5b 17 3b 90 1f 39 3d d0 41 ce bc 70 1d 62 3c
       0.0023095224 0.045196116 -0.025177866 0.013800964
000060 99 6c df 3c 89 b4 2f 3c 37 3c 02 bd 83 38 1b bc
       0.027273463 0.010724195 -0.031795707 -0.009473923
000070 22 8a f9 bc e4 37 3f bd 59 b8 1b bd 9e 0b d5 bc
       -0.030461375 -0.04668416 -0.038017605 -0.026006516
000080 2f 10 fe ba b5 75 88 bd 28 44 f9 3c c4 e4 3c 3d
       -0.0019383485 -0.06663076 0.030428007 0.046116605
000090 0e 19 af 3c b2 44 c4 bc 3a b3 99 3c e7 5d 42 bd
       0.021374252 -0.023958538 0.01876222 -0.047452834
0000a0 41 f7 43 bc 93 9e f8 bc 16 1a be 3c a2 50 b5 bc
       -0.011960805 -0.030349052 0.023205798 -0.022133175
0000b0 a7 d8 34 3d a9 74 44 bc dd 71 6f 3d 68 75 86 bc
       0.04415193 -0.011990705 0.058458198 -0.016413406
0000c0 2a 20 73 bc f0 fd 7e 3c 9b 09 96 3c 64 38 27 3d
       -0.0148392115 0.015563473 0.018315127 0.040825263
0000d0 9f 7f 04 3d 45 e2 86 bd c6 37 06 3d 9d b7 93 3b
       0.03234827 -0.06586126 0.032768033 0.0045079724
0000e0 18 10 b8 3d c6 8f c3 3c 78 43 86 bd 18 7a 56 3b
       0.08987445 0.023872267 -0.065558374 0.0032726582
0000f0 a8 49 ed b9 76 2f 11 bc e8 7a 64 bc 7c 0a b2 3c
       -0.0004525904 -0.008861413 -0.013945319 0.021733515
000100 7b 51 03 3d d4 57 63 bd 76 d5 19 bc 55 75 a5 3c
       0.032060128 -0.05550368 -0.009389272 0.02019755
000110 b4 ef 1e 3d 46 78 23 3d d3 9a 84 bc 33 11 4a 3d
       0.038802817 0.039909624 -0.016187107 0.04933281
000120 bf 1e 68 3d 2b 05 c8 bc c2 19 fa 3c 9f c8 75 3d
       0.056669947 -0.024416527 0.03052986 0.06000578
000130 34 4e 16 bd 3a fa f5 3b a3 60 19 3b 81 8a 44 3b
       -0.036695674 0.007506636 0.0023403547 0.0029989781
000140 72 3c 62 3d f2 00 7c bd a5 07 29 3d f7 f0 18 3d
       0.055233426 -0.06152434 0.041267056 0.037339177
000150 31 e1 18 bd 46 7c 38 3d 34 7d 57 bc 78 2d 24 bc
       -0.037324134 0.04504039 -0.013152409 -0.010020606
000160 2d 83 19 bd 52 7a 88 3a 96 2c 0e bc e2 05 14 3c
       -0.037478615 0.0010412431 -0.008677622 0.009034606
000170 95 6e 10 3d b5 2d 45 bd ed a0 a1 3b ee de c2 3c
       0.03526171 -0.048139293 0.004932514 0.023787942
000180 6a 36 67 3d 8c ae fc bc f7 65 a8 bb a3 e7 51 3c
       0.056448378 -0.03084495 -0.0051391083 0.012811574
000190 d9 b3 16 3d dd d1 c9 ba af 88 98 3d e4 da b4 bb
       0.03679261 -0.0015397627 0.07447945 -0.005519258
0001a0 fd 11 9b bd 68 f1 a0 bc 21 3f 7a 3d 28 ac 3e bd
       -0.0757179 -0.019646361 0.06109536 -0.0465509
0001b0 de c8 8d bd 2e ae 28 3d a6 73 ff 3c d4 e9 f6 bc
       -0.06923078 0.041181736 0.031183075 -0.030140795
0001c0 54 39 97 3d 0e 4c b0 3d 09 66 35 3d 72 20 ad bc
       0.07383981 0.08608256 0.04428676 -0.021133635
0001d0 88 cb 20 3c 49 36 31 3d b8 e2 9e bc 71 73 7b 3d
       0.009814151 0.04326466 -0.019395217 0.06138939
0001e0 38 d8 b2 bc eb b6 a7 bc a1 23 28 3d 8c c7 f1 bb
       -0.021831617 -0.020472964 0.041049603 -0.007378524
0001f0 9b 29 19 3d db 0d 85 3d 4a 72 16 3d 38 0b c0 bb
       0.037393194 0.06496783 0.03673009 -0.0058607124
000200 a8 5a ef bd 4c 4a df 3c ff a6 e1 bc 07 85 5e bc
       -0.11687213 0.027257107 -0.02754545 -0.013581521
000210 7d 4b 60 bd eb 8a 86 3c f1 4f ea 3d bd 78 e2 3c
       -0.05475949 0.016423663 0.11441029 0.027645463
000220 b0 4c 41 3d e0 47 12 3c 18 13 58 3d b4 ee 6c bd
       0.047192276 0.008928269 0.052752584 -0.057844833
000230 32 aa 1e be 8e bd 56 bb 76 1a d1 bc b9 60 f2 3c
       -0.15494612 -0.0032766792 -0.025525313 0.029587137
000240 9d 08 a8 bc 35 c8 89 3d ae af 5b 3d 36 c5 67 3d
       -0.02051192 0.067276396 0.053634338 0.05658456
000250 2c bd a1 bd b8 e9 4b bd f4 a1 0b bd f6 8f 06 3c
       -0.0789741 -0.04978344 -0.034089997 0.008213034
000260 63 bc bc bd e3 41 7b 3d ed 02 37 bd 65 20 a8 bb
       -0.092156194 0.06134213 -0.044680525 -0.005130815
000270 51 01 95 bc 9f 27 97 3d 1c c0 54 3d 86 0d a8 bb
       -0.018189104 0.07380604 0.051941022 -0.0051285652
000280 46 36 a6 3c 24 39 7c 3d 7c d9 46 bc 05 42 66 3a
       0.020289551 0.06157793 -0.012136813 0.00087836414
000290 e3 c6 42 bd 74 a4 18 3d e4 78 0c 3e dd be e6 bb
       -0.047552954 0.03726621 0.13717991 -0.0070417956
0002a0 e1 66 39 3c 9f 0e 8c 3d 72 f5 d1 bc 8a 60 8b 3d
       0.011316032 0.06838726 -0.025629733 0.06805523
0002b0 9a 32 a0 3a 19 50 41 3d 72 92 d0 bd 3a b7 29 bd
       0.0012222112 0.047195528 -0.10184182 -0.041434504
0002c0 b4 01 c8 3d ed 94 f1 3d f4 c5 1b bc ab 3b 83 bb
       0.0976595 0.117959835 -0.009507645 -0.0040049157
0002d0 55 47 fe bd ee bd 41 bd 23 09 a8 3d 75 51 8c 3d
       -0.12415949 -0.04730027 0.08204868 0.06851474
0002e0 6c f2 47 bd 31 f6 32 bd ec 54 b7 3d bb 58 aa bc
       -0.048815176 -0.043691818 0.089517444 -0.020794263
0002f0 bf 2b f3 3d 9d 88 95 bd ec ee 12 3d 4e 87 30 3d
       0.11873578 -0.073014475 0.035872385 0.043097787
000300 3a d1 06 be 45 d4 7a 3d 29 12 40 bd 39 30 95 3b
       -0.13165751 0.061237592 -0.04689232 0.0045528677
000310 b6 3f 5e 3d d4 c9 08 bd 3c 4b e3 bd 59 6f 57 bd
       0.05425998 -0.033395603 -0.11098334 -0.052596424
000320 ad 3e 46 3d 03 32 28 bc 95 54 32 3d 6d b1 76 3d
       0.048399616 -0.01026583 0.043537695 0.0602278
000330 bd 58 18 3d 41 3b 14 bd 84 48 0e bd d8 63 a7 bd
       0.037194002 -0.03618932 -0.034737125 -0.081733406
000340 91 3a f5 bc dd 08 93 3c 67 7c be bc d7 3e 15 bc
       -0.029935153 0.017948562 -0.023252679 -0.0091092205
000350 42 67 cd bd ba 48 cd bb 46 ae ce bc 44 8f 13 bd
       -0.100294605 -0.006264773 -0.025229584 -0.0360253
000360 1a 50 9c 3d 96 3f 44 bd 9b 27 3d 3c 64 d1 c1 bc
       0.07632466 -0.047912203 0.011545087 -0.023659416
000370 ac 7f cb bc 75 d8 0f 3d 21 28 ca 3c a2 9d e4 bb
       -0.024841152 0.03511854 0.024677338 -0.006976799
000380 33 f1 99 bd 19 16 26 bc 4f 1c 48 3d 83 6e 16 be
       -0.07516708 -0.010137104 0.048855122 -0.14690594
000390 4e 53 28 3b 37 30 d7 bc 4d d3 ef 3d 40 1f a1 3d
       0.002568442 -0.026268108 0.11710224 0.078672886
0003a0 ec 43 b1 bd 4f d9 05 3b ab 3e 91 bd 39 f1 b6 3d
       -0.08655533 0.0020423715 -0.07092031 0.08932728
0003b0 61 ac ae bd b4 16 4f 3d 9c 46 02 be 6f 41 30 3b
       -0.085289724 0.05055876 -0.12722248 0.002689447
0003c0 da 6c c5 bd 83 bc 73 3d a9 0c 70 3d 81 47 62 3d
       -0.096399024 0.05950595 0.058605824 0.055243973
0003d0 47 84 60 bd 64 e4 17 3d 1a e3 84 bd 02 61 3e 3d
       -0.05481365 0.037083045 -0.06488629 0.046479233
0003e0 ae d1 91 bc 49 74 d2 bd f5 5c 20 bd ab fc bd bd
       -0.017800178 -0.10276086 -0.03915115 -0.09276708
0003f0 b5 68 d1 bc 8d 59 9f 3c bf a6 1e 3d bb 2d 9f bd
       -0.025562624 0.01945188 0.03873324 -0.07772394

encoder.2.bias f4 [128]
000000 ec 2b 77 3d 4e 58 91 3d 3c ad 5e 3d 08 ed 0a 3d
       0.06034462 0.07096921 0.054364428 0.033917457
000010 7a 43 80 bd c8 29 d3 bc d4 16 86 3c 4e f7 94 3d
       -0.0626287 -0.025776759 0.016368307 0.07273732
000020 d0 bf 80 3d 98 11 90 3a 2b b5 af 3c 40 33 b5 3b
       0.06286585 0.0010991571 0.021448692 0.005529791
000030 88 43 7f 3d 00 11 08 3e 5d 9f 17 3e 4c 2e 99 3d
       0.062320262 0.13287735 0.14806886 0.074795336
000040 6d 32 76 bc 30 ed 93 3d d7 cd 0e bd ed d9 0b 3d
       -0.015026671 0.07222974 -0.034864273 0.034143377
000050 eb 5f af 3c c7 ad 1f bb 3d c1 6f ba 72 87 57 3d
       0.021408042 -0.0024365054 -0.0009145921 0.052619405
000060 9a 18 1c bd 6a 13 df 3d 74 19 ab bc dd 2d 92 3d
       -0.0381094 0.10892375 -0.02088616 0.07137654
000070 7c 2c cc 3d 6d ac 52 bc 3d 3d 01 3e 37 46 d9 3c
       0.09969422 -0.012858492 0.12621017 0.026522739
000080 04 c6 05 3c e2 36 c7 bc 39 ea 89 3d 1e 30 c4 bc
       0.008164886 -0.024318162 0.067341276 -0.023948725
000090 ff 41 20 3d cc f9 c5 b5 b4 f0 15 bd f6 df 88 3b
       0.03912544 -1.4750344e-06 -0.036606506 0.004177089
0000a0 af 4d c3 3b 3c 05 2f 3b 9f 7e 56 bd fa a2 dc bc
       0.0059601883 0.0026706 -0.05236685 -0.026933182
0000b0 cd 5e ef bc 4a 42 40 3d 6c 6a 57 3d 08 c8 f8 b8
       -0.02922001 0.04693822 0.052591726 -0.0001186282
0000c0 1d 16 c0 ba ee 94 09 3d 66 7a ca 3d 35 32 8e 3d
       -0.0014655028 0.033589296 0.09886627 0.0694317
0000d0 f4 13 06 3e 10 dc 46 bc 14 91 00 3d 33 79 44 3d
       0.13093549 -0.012137428 0.031388357 0.047967147
0000e0 7f 66 5e bd bc 53 9a bc 8e ae 9b 3d 5f f5 2c 3d
       -0.054296967 -0.018838756 0.07601653 0.04222619
0000f0 2d 01 88 b9 d1 36 85 3d d9 7a 84 ba ab a9 1f 3d
       -0.00025940817 0.06504596 -0.0010107412 0.038980167
000100 8f b6 bd 3b b0 17 88 3d 9e 20 2c bd 8e 98 11 bd
       0.005789585 0.06645143 -0.042023294 -0.035545878
000110 06 2f 90 3b a5 92 16 bd d4 01 2e bd 6f 9e 72 38
       0.004400137 -0.036760945 -0.042482212 5.784485e-05
000120 1b 50 07 3d bd 46 db 3d 23 0a df 3c d5 ac 9f 92
       0.03303538 0.10706852 0.027226513 -1.0076917e-27
000130 30 c7 3d bd ac 0d aa bc 3b 24 77 bc 88 1e 30 3d
       -0.046332538 -0.020758472 -0.015084322 0.042997867
000140 19 9c 8f 3d 10 29 0d bd 75 5f a9 3d 1a f6 4f 3c
       0.07012195 -0.03446299 0.0827016 0.0126929525
000150 59 3c a5 bd 79 22 8e 3d f9 42 1b bd 23 7a 53 3d
       -0.08068151 0.06940169 -0.037905667 0.05163015
000160 27 13 17 bc 53 23 6a 3d f2 29 f6 b9 1e e5 83 3b
       -0.009220875 0.057162594 -0.00046952028 0.0040251156
000170 08 97 08 3d f8 9b 11 bd b4 f0 b3 3d f8 ab 8e bd
       0.03334716 -0.035549134 0.08786145 -0.06966394
000180 93 72 33 3d 3c a1 9d bc 2e f9 cb 3c 4c 9b b9 3c
       0.04381044 -0.019241922 0.024899092 0.02265706
000190 49 c6 8d bd 28 98 ac 3d 6c 8e f9 bd 9b 33 91 3d
       -0.069225855 0.08427459 -0.12185368 0.07089921
0001a0 04 f9 a8 3d dd d9 47 3d c0 1e d2 bb ca 58 26 3d
       0.08250621 0.048791755 -0.006412357 0.04061202
0001b0 30 23 d8 bb 27 16 f3 3d 1e dd 5b 3d 97 13 a9 3d
       -0.0065959916 0.118694596 0.05367767 0.082556896
0001c0 dc da 46 a0 79 4e 7d 3d 8b 9a 8a 3d 26 fe a3 3d
       -1.6843667e-19 0.061842415 0.06767758 0.08007459
0001d0 cd 11 52 3c 2f 3e b4 3d a2 f6 a4 3d bd 5f 40 bd
       0.012821627 0.08800923 0.08054854 -0.046966303
0001e0 a5 9d 29 bd 61 cb f4 3b 31 16 bd 3d 8e 43 92 bc
       -0.041410107 0.0074705337 0.09232748 -0.017854478
0001f0 72 16 b4 3b 6a 9d 60 bd 44 34 c0 3c 53 29 f5 3d
       0.0054958398 -0.05483762 0.023462422 0.119707726

fc_mu.weight f4 [16, 128]
000000 12 af 0e bd dd ce 04 bc 03 a0 89 bb 5e ea 07 bb
       -0.03483493 -0.008105961 -0.004199983 -0.002073906
000010 b0 c8 cc ba dc 56 e5 bb 0e 7d c0 3b 4a 57 0a bd
       -0.0015623774 -0.00699888 0.0058742827 -0.03377465
000020 e1 bd 0a bc 1d bb 61 3b c1 b6 31 3c be 28 1c 39
       -0.008468122 0.0034443804 0.010846795 0.00014892497
000030 65 33 43 bb 3f 12 05 3d 8d e4 f5 3c 1e 1c 36 bc
       -0.0029785272 0.032488104 0.030016208 -0.011115102
000040 e5 d7 28 bd e1 53 ea 3b 12 fc b9 3b 20 db 20 3d
       -0.041221518 0.0071511124 0.005675801 0.039271474
000050 80 0e 51 bc 79 12 fc 3b 21 08 82 36 47 a0 65 b8
       -0.012759805 0.007692632 3.8752482e-06 -5.4747125e-05
000060 3c 02 42 bc 1d 32 da 3b dc 30 61 3c 23 df a1 3a
       -0.011841353 0.006658806 0.013744559 0.0012349825
000070 73 4d 14 3d f8 eb 35 3c 03 b1 20 3b d7 78 c9 3c
       0.036206674 0.011103623 0.002451957 0.024593754
000080 30 95 03 bd 00 c9 c1 3c e8 23 b9 3c 8f e0 de bc
       -0.0321247 0.023655415 0.02260013 -0.027206687
000090 db e1 88 bc 9f e0 14 0f 18 a6 ae bc 51 ec 15 bd
       -0.016709259 7.340224e-30 -0.021319434 -0.036602322
0000a0 3a 34 70 3b 19 8a 21 3b ca e6 71 3b 5a 84 6a 3c
       0.0036652223 0.0024648963 0.0036911243 0.014313782
0000b0 23 e1 75 bc 0d f1 a6 3b d3 fe 8a bb 8b 60 16 36
       -0.01500729 0.0050946535 -0.004241803 2.2407937e-06
0000c0 a7 e8 f1 3b 3b 57 88 bb c8 ba 6a bc f3 d3 2b 3c
       0.0073824706 -0.0041607893 -0.014326759 0.010487544
0000d0 9a f7 1a ba 66 e1 79 bc d6 e0 33 3b fe 06 8f 3c
       -0.00059115293 -0.015251493 0.0027447245 0.017459389
0000e0 de b0 ba bc a3 01 01 3d c7 ba 1f bc 7b cd b7 3b
       -0.022789415 0.0314957 -0.009749121 0.005609212
0000f0 e3 65 9d 26 9a b2 da 3b cc 33 a9 ba 2c f5 09 3b
       1.092168e-15 0.006674123 -0.0012909113 0.0021050675
000100 1f 73 66 bb f6 b0 b9 bc bb 8d 64 bc 25 3f 10 3d
       -0.0035163832 -0.02266739 -0.013949807 0.03521647
000110 4d a2 3b bc 10 ce 2f 3c cc 7c 81 bc 6c f9 94 bb
       -0.01145227 0.0107302815 -0.015806578 -0.004546335
000120 95 d6 cb bb 25 bd 4d 3c c5 b9 cf 3b 9c 57 7a 83
       -0.0062206485 0.012557303 0.006339284 -7.3568968e-37
000130 db 82 2b bd d4 2d fd 3c 0b 0b e5 bc e6 f1 1b bc
       -0.04187284 0.030905642 -0.027959367 -0.009518122
000140 30 e3 2b 3a 8c b7 a6 bb 06 0d 3d 3d 85 ce 71 3c
       0.0006556986 -0.0050877985 0.046155 0.014758711
000150 ec c1 11 bb ab 4f da bb 8b 06 2c bb c7 79 e5 3b
       -0.002224083 -0.006662329 -0.0026249017 0.0070030424
000160 c6 5c 38 3c a7 da 3d 3b 22 19 75 23 1b 45 89 bc
       0.011252588 0.0028969438 1.3286799e-17 -0.016756585
000170 ff 80 8c 3a 9d 44 a0 3b 23 c7 af bc 90 36 10 bd
       0.0010719596 0.004890992 -0.02145726 -0.035208285
000180 a2 f0 5f 3c e5 41 10 bd 8d b6 da bb 91 c5 1b bd
       0.013668211 -0.035219092 -0.006674594 -0.03803021
000190 1e 26 b8 bb 33 39 b4 bb 67 f7 bf bb 5f 0c a2 ba
       -0.0056197783 -0.0054999827 -0.00585835 -0.0012363306
0001a0 69 ee d2 bc e2 58 46 bc 7b 5d 87 3c 61 14 c3 bb
       -0.025748448 -0.012106152 0.016524067 -0.005953357
0001b0 51 3e 9d 3a 74 dd 46 bc 89 b0 13 3b 24 11 e8 bb
       0.0011996721 -0.0121377595 0.0022535643 -0.0070821214
0001c0 bd 7a b4 84 c5 4b 75 b9 75 31 83 3c 87 13 fa 3b
       -4.2430514e-36 -0.00023393247 0.016014794 0.0076317224
0001d0 90 34 e1 bb 2d 9b 1a 3d f1 7d dd 3c 8a c8 64 bb
       -0.006872721 0.037745643 0.027037593 -0.003490957
0001e0 48 0e 82 3c 4f c5 70 bb 2e 64 95 3a 16 96 9b 3c
       0.01587595 -0.00367387 0.0011397654 0.018992465
0001f0 17 dc 8e bb af 6c a1 b8 40 3d 98 3c 67 98 f4 ba
       -0.004359733 -7.697322e-05 0.018583894 -0.0018661142
000200 3f 78 53 3d 64 57 db bb 76 fd 0c bc 53 a9 45 bc
       0.051628347 -0.0066937674 -0.008605352 -0.012064296
000210 33 74 aa bb f1 a1 30 ba a4 fb 54 bc 45 07 47 3c
       -0.0052018403 -0.00067379983 -0.012999449 0.012147729
000220 7b be 3b bd 47 86 04 3b 6e 9d ec bb 69 81 fc bc
       -0.045835953 0.0020221637 -0.0072209155 -0.030823426
000230 1f e2 97 bc 50 4e e3 bc 7e 3b 60 bd f7 45 80 bc
       -0.01854044 -0.027747303 -0.054744236 -0.015658362
000240 58 21 50 3d 1d 09 b1 ba 27 72 9c bb ee 59 ce 3c
       0.05081305 -0.0013506744 -0.00477435 0.025189366
000250 d5 a8 b9 3c 39 53 f3 3c a5 4e 4e 36 c4 77 08 bd
       0.022663513 0.02970277 3.074217e-06 -0.033317342
000260 0b c9 be bc 12 f7 0d bc e7 90 f3 3c f3 7a 88 3b
       -0.023289224 -0.008664863 0.02973218 0.0041650473
000270 e0 a4 93 bb e0 6a 49 bc 0c 0b 3c 3c 90 2f 9e 3c
       -0.0045057386 -0.012293547 0.011477243 0.019309789
000280 5d d2 03 3d 51 23 b4 bd 1c 32 15 3c 43 2e c4 3b
       0.03218304 -0.087957986 0.009106185 0.00598696
000290 53 76 ba 3b 01 8d eb 98 ad c6 70 3c 4f 9a 3d bd
       0.005690375 -6.0888454e-24 0.0146958055 -0.04628974
0002a0 61 46 0b 3d a0 4b ad 3c f5 bd 2b ba 49 54 a7 bc
       0.034002665 0.021154225 -0.0006551438 -0.020425932
0002b0 b5 e8 2c 3a 99 ca b5 3b 4a 3b 7d 3c 9e fd 97 35
       0.00065959553 0.005547833 0.01545603 1.1324189e-06
0002c0 c1 5a 24 bb db fa 1e bc 5c 1d 38 bd b6 94 d1 3c
       -0.0025078508 -0.009703363 -0.044949874 0.025583606
0002d0 03 f1 db 3b 19 f8 75 3c e8 a1 e5 bc d5 0e ad 3b
       0.0067120804 0.015012764 -0.028031304 0.005281309
0002e0 f5 1b 25 3c e4 8d 47 3d 11 f0 1e bb 9d 63 03 bb
       0.010077466 0.0487193 -0.0024251977 -0.0020048388
0002f0 b5 5a c2 ae 4f a4 0b bb 76 23 b3 3a 47 9d 8a bb
       -8.8382114e-11 -0.0021307652 0.0013667184 -0.0042301747
000300 d1 1a 1b 3a 69 97 9b 3c 54 de 02 bc 26 27 64 bd
       0.0005916777 0.018993096 -0.0079875775 -0.055701397
000310 d0 b2 69 3c 64 99 3a bc 15 49 fe bb 92 72 08 3b
       0.014263824 -0.01138911 -0.007760177 0.0020820242
000320 0e de e2 3b 9b ef 32 3d 24 ea 00 3c 2b 90 26 04
       0.0069234436 0.043685537 0.0078683235 1.9579405e-36
000330 ba 19 bf 3c 43 58 fd bc 08 a1 76 3a 08 82 89 bc
       0.023327697 -0.030925876 0.0009408151 -0.016785637
000340 e3 52 0d bc 98 09 df bb d2 4e 20 bd fd 48 d0 3a
       -0.008625719 -0.0068065636 -0.03913767 0.0015890893
000350 74 a7 ad bb c0 f0 94 3c 03 4e d4 b9 17 8c 59 bc
       -0.005299503 0.018181205 -0.00040493914 -0.013278029
000360 ec bb 1a bc 75 b2 b6 3b 75 80 73 a6 c9 89 d8 3c
       -0.009444218 0.005575473 -8.4481653e-16 0.026432889
000370 09 5f 91 3c d0 f8 c1 bc b5 fa db 3b 48 b4 0d bd
       0.017745512 -0.023678213 0.006713236 -0.034595758
000380 f9 91 14 3b 24 e1 8f 3b ac b6 3d bb e0 b2 d9 3a
       0.0022670014 0.0043908525 -0.0028947992 0.0016609095
000390 33 5a 5a 3c cb c1 f6 bb 70 cd 81 bc 73 cb 17 bb
       0.013327169 -0.007530426 -0.01584503 -0.0023162037
0003a0 9e 31 91 bc 50 85 46 3c 31 31 c7 bc e3 83 e5 bc
       -0.017723855 0.012116745 -0.024315448 -0.02801699
0003b0 65 a0 c2 bc 86 13 a4 3c de 08 49 3c 43 8f 5c 3d
       -0.023758123 0.02002884 0.0122701805 0.053847563
0003c0 18 23 63 12 1b 09 db 3a 78 56 08 bd cc 3a 73 bc
       7.1671827e-28 0.0016711088 -0.033285588 -0.014845561
0003d0 bf 24 b8 3b 78 66 00 3d 93 da 15 bc c4 3c 59 3c
       0.005619615 0.03134772 -0.00914635 0.013259117
0003e0 bd b1 37 3c 7d eb c5 3c d8 31 38 3c cc a1 ac 3c
       0.01121181 0.024160141 0.011242352 0.021073245
0003f0 ac de 01 bc 42 04 c7 3b 8b 07 27 bb c9 bc 39 bd
       -0.007926624 0.0060735056 -0.0025486674 -0.045346055

fc_mu.bias f4 [16]
000000 27 77 ce bb cf fe f8 3c dc 9c b2 bc bb a5 68 bc
       -0.006300825 0.03039494 -0.021803312 -0.0141996695
000010 93 4c 46 3d 9b db 2d 3d d0 61 6b 3d d6 7d 2f bd
       0.04841287 0.04244576 0.05746633 -0.042844616
000020 a6 c1 2f bd e7 90 c4 3c 87 d6 70 3d 64 65 97 bb
       -0.042909287 0.023994876 0.05879834 -0.004620241
000030 c8 46 16 bd 20 a1 9a 3c 19 f8 0f 3d f0 43 2f bc
       -0.036688596 0.018875659 0.035148714 -0.01069735

fc_logvar.weight f4 [16, 128]
000000 bc 1c c0 bb a0 4d be 3a e1 42 82 3a 99 50 3b bb
       -0.0058628004 0.0014518984 0.0009938144 -0.0028581975
000010 9f cf d8 3a 61 a2 78 ba b7 6d 11 3b 44 a1 ec 39
       0.0016541368 -0.00094846456 0.002219064 0.0004513358
000020 2a 9d a1 bc 5a b4 22 b9 b1 e4 38 b9 73 5f c4 ba
       -0.019728262 -0.0001551671 -0.00017632802 -0.0014982059
000030 a1 2e 45 3a ec d6 dc ba fa 5d 04 3c cb 2f 0a 3b
       0.0007521902 -0.001684872 0.008079046 0.0021085616
000040 c4 b9 36 ba 3b 28 c5 38 dd 0e 7e 3a a7 14 a0 bb
       -0.000697043 9.4011855e-05 0.0009691546 -0.0048852745
000050 ba 42 08 3a b7 c8 2a 3c b6 11 3e 2a ae 35 02 3c
       0.00051979313 0.010423831 1.6881535e-13 0.007947369
000060 97 64 19 bb 5d a1 23 39 2f 29 a0 ba a4 46 ba 3b
       -0.0023405903 0.00015605004 -0.0012219305 0.0056846905
000070 50 a6 22 bc 72 57 2a bb 77 db 83 37 27 c1 68 b9
       -0.009927347 -0.0025992063 1.5718613e-05 -0.00022197199
000080 70 5f 3f 3a 1b 9a 35 3b 61 42 e8 ba 19 a0 d7 3b
       0.0007300293 0.0027710262 -0.0017719978 0.0065803644
000090 f2 03 89 39 e6 ea fd 82 ec fd b9 3b 5b d3 59 bc
       0.00026133616 -3.7309834e-37 0.005676022 -0.01329502
0000a0 65 ed 5b ba bf f3 95 ba f3 f2 96 3a 89 e1 00 bc
       -0.00083895616 -0.001144044 0.0011516496 -0.007866272
0000b0 5e 52 c8 3a 43 92 6f 3b 1c 5e fc ba b7 07 36 9e
       0.0015283336 0.0036555685 -0.0019254121 -9.636595e-21
0000c0 30 e5 87 3a a2 f7 15 bb f8 83 16 bc 48 29 9f 3b
       0.0010367986 -0.0022883196 -0.009186737 0.004857216
0000d0 82 52 83 bc 7d 0c 4f 3c dd 67 7f bb f5 c9 00 bb
       -0.016030554 0.012637255 -0.003897182 -0.0019651626
0000e0 99 15 85 bb e2 3f 24 3b cf 2c 2c bb fa 47 3c 3c
       -0.0040614125 0.0025062491 -0.0026271825 0.01149177
0000f0 f5 2f 80 24 4a 24 87 3b 3f 6f 49 3a a5 b8 96 3a
       5.5592394e-17 0.004124199 0.00076841185 0.001149912
000100 c7 c3 99 bb 67 5f d3 39 bd c1 53 bb bb 34 53 3c
       -0.004692528 0.00040316136 -0.0032311522 0.01289099
000110 e4 48 22 39 e3 69 b6 bb ca 39 16 38 e6 12 04 3c
       0.00015476678 -0.005566822 3.5816607e-05 0.008061146
000120 15 df 17 3b 5f 48 54 bc b5 34 e6 ba 45 8d 59 03
       0.0023173739 -0.012956708 -0.0017563315 6.393274e-37
000130 d8 0f 55 ba 23 70 3d bb b2 c8 a3 3b 50 f3 59 bc
       -0.0008127666 -0.002890595 0.00499829 -0.013302639
000140 96 38 92 b9 6b 20 57 ba 46 d0 af 39 db f6 1e 3c
       -0.0002788945 -0.000820643 0.00033533777 0.00970241
000150 01 0c c7 39 33 f1 a1 3b ff 71 a8 ba 89 ef ff 3a
       0.0003796518 0.0049420833 -0.0012851356 0.0019526343
000160 67 22 83 ba 0f 78 13 bb 3c 24 3e 83 92 9b 21 3c
       -0.001000476 -0.002250198 -5.5877577e-37 0.009863751
000170 f1 b8 ad bb 31 eb f2 ba 04 37 3b bc d4 d1 cc bb
       -0.0053015877 -0.0018533227 -0.011426691 -0.0062505994
000180 5e be 7f bb 6f 44 3e 3c c6 8e 2f 3b 49 58 80 bb
       -0.003902338 0.0116129955 0.002678798 -0.0039167744
000190 82 4e 5b 3a 10 57 1f bb ba 32 e3 3a 41 82 86 bb
       0.00083658856 -0.0024313368 0.0017333843 -0.004104883
0001a0 fb 8c 31 bc 25 ed 5b 3b 5a b1 7e bb 43 17 b9 bb
       -0.010836835 0.0033558097 -0.0038863034 -0.005648525
0001b0 dc 33 9b bb d6 2c 6e b9 9d 7c de 3b db be 28 bc
       -0.0047364067 -0.00022714151 0.0067897574 -0.01029941
0001c0 4b ff 4c 82 47 ac 4e bb 8f 00 09 3c 4f ba e4 ba
       -1.5060818e-37 -0.003153579 0.00836195 -0.0017450544
0001d0 7d 3a e5 3a 52 02 c5 3b 1d 54 28 3a a9 58 b7 3b
       0.0017488744 0.0060122395 0.0006421225 0.005595286
0001e0 48 25 c0 bb 87 d2 26 ba ad 6f d5 ba 61 db a1 3b
       -0.0058638193 -0.00063637685 -0.0016283892 0.004939482
0001f0 45 44 d3 ba 69 a1 d6 ba 18 54 27 3b 57 1e a9 bb
       -0.0016118368 -0.0016375008 0.0025532302 -0.0051610875
000200 40 c1 5c ba f6 5f 54 bb 50 e4 cb 3a 15 ba 3b ba
       -0.00084211305 -0.003240583 0.0015555713 -0.0007161212
000210 2d 89 95 3b e7 4a bb b9 e3 0d d1 ba 1b 8b 8d 3c
       0.004563472 -0.00035723226 -0.0015949573 0.017278245
000220 38 00 b6 3a d5 04 b1 b8 77 72 e4 ba 99 ab aa 3b
       0.0013885563 -8.440918e-05 -0.0017429133 0.0052084443
000230 c0 b4 8e 3a 74 f9 25 b9 2f 8e 25 3b 07 4c 2a bb
       0.0010887608 -0.00015828555 0.002526175 -0.0025985257
000240 88 78 9c 3b 20 4d c1 3a 00 60 02 3b 03 a0 83 3b
       0.0047751106 0.0014747716 0.0019893646 0.0040168776
000250 9a fc d3 bb bd c6 13 3c bb 31 3b ab d9 f3 7b 3a
       -0.0064693214 0.009019551 -6.650476e-13 0.0009611226
000260 ec f7 a9 3b 25 00 3d ba c2 d2 09 3b 8c f9 b4 39
       0.0051870253 -0.00072097994 0.0021030162 0.00034518202
000270 79 06 ed bb fc 0e 6f 3a 7c ae 0c 3a ba f0 7e bb
       -0.0072334376 0.00091193593 0.00053665764 -0.0038900808
000280 c5 8b 99 3b c6 9d 23 3c 36 25 40 bb bc 56 87 3b
       0.0046858513 0.009986347 -0.0029319054 0.0041302126
000290 7e 7e 2a 3c 84 42 9a 03 a1 51 1e bb 5e 84 41 bb
       0.010406135 9.066578e-37 -0.0024157541 -0.002952836
0002a0 b2 21 b7 3a 8e 02 16 ba 97 0e fe 3a c9 72 3b 39
       0.0013971834 -0.00057224266 0.001938301 0.0001787647
0002b0 73 e1 4c bb ba 0a ca 3b 7d c5 31 bc 76 b1 47 a8
       -0.0031262308 0.0061658295 -0.0108503075 -1.10852e-14
0002c0 b5 16 83 ba 69 f5 55 39 24 ce 76 bc cd 7b 24 bb
       -0.0010001274 0.00020404685 -0.015063796 -0.0025098205
0002d0 5d 9a f1 bb 8f 6b 4a 3b 14 3d bc 3b 9d b2 5f bb
       -0.007373138 0.0030886864 0.005744586 -0.0034133561
0002e0 4b 1a 63 bb 6d 98 5b bc dc 34 9d ba 21 8f c5 3b
       -0.0034653123 -0.01340304 -0.0011993903 0.006029025
0002f0 58 7c 26 a2 fe c7 be b9 d1 d7 02 3a 3e 03 93 3a
       -2.2563022e-18 -0.0003638863 0.00049912656 0.0011216176
000300 b8 f0 e3 ba 2b 70 1c 3c 54 42 c0 ba d2 3f ae 3a
       -0.0017390465 0.009548227 -0.0014668205 0.0013294166
000310 70 20 90 3b 06 b4 2b 3b 60 d7 bb b9 b0 15 e9 3a
       0.004398398 0.0026199832 -0.00035827886 0.0017782953
000320 be 48 32 3b fa 54 7c bc 9e 85 0f ba dc df 8b 03
       0.0027204002 -0.015401119 -0.00054749276 8.221081e-37
000330 4b 30 82 3b bc 50 e9 bb 62 73 9d ba 9f 63 26 3a
       0.003973042 -0.00712022 -0.0012012536 0.0006347242
000340 4f 8b 1c 3b 76 b1 c3 b7 30 54 a6 3b 18 36 c9 b9
       0.0023886745 -2.3328448e-05 0.005075954 -0.0003837801
000350 40 78 e1 3a 52 b0 f9 bb d2 cc 39 b9 bf 39 3b ba
       0.0017201975 -0.007619896 -0.00017719276 -0.0007142089
000360 c0 a4 35 ba 1f 2c c9 ba ca 28 8c 88 7c f2 29 3c
       -0.0006929152 -0.0015348232 -8.435533e-34 0.010372754
000370 7d b2 b9 3a 98 e0 9b ba d7 ed a5 bb 5b bf b8 bb
       0.0014167574 -0.0011892496 -0.005063753 -0.0056380457
000380 f8 5b 6d bb 30 16 6b bc 43 83 92 3b 43 a1 9f bb
       -0.0036218148 -0.014348552 0.004471214 -0.004871519
000390 97 d0 4e 3a 50 24 96 b9 ec 95 59 3a 35 f5 0b b9
       0.00078893587 -0.00028637284 0.0008300233 -0.0001334742
0003a0 38 24 6b bb d1 35 45 3b 75 9e 2a 3a 66 78 2b bb
       -0.0035879742 0.0030091892 0.0006508597 -0.0026164292
0003b0 e6 36 27 3b 88 64 09 bb 51 bc a1 ba 4c 43 b1 bb
       0.00255149 -0.0020964462 -0.0012339448 -0.0054096337
0003c0 a0 27 63 82 df 1f 8d bb ca be 8d bb b7 f3 69 3a
       -1.6688698e-37 -0.004306778 -0.0043257223 0.0008924561
0003d0 cb 34 41 3b 59 2d 4f bb 7b a8 04 ba 5d bb 36 bb
       0.002948093 -0.0031612723 -0.0005060506 -0.0027882673
0003e0 52 68 3c bb 04 18 83 ba 72 f5 7e 3a 44 ee 19 3a
       -0.0028748703 -0.0010001664 0.0009725905 0.0005871991
0003f0 ca b2 fa 3a c9 26 58 ba 4b f3 a7 3b 69 cc d5 3b
       0.001912677 -0.00082455255 0.0051254383 0.0065246117

fc_logvar.bias f4 [16]
000000 8d ea cb 3c 79 cb 88 3c cc 37 fa 3b 38 10 ba bc
       0.024892116 0.016698586 0.007636046 -0.022712812
000010 7e 6a 9d bb 62 ec d6 3c 20 30 c9 bb 71 3e b7 bb
       -0.0048039546 0.026235763 -0.00613977 -0.0055921604
000020 94 05 86 3c a0 48 92 3c e5 01 6e be e0 98 51 bc
       0.016360082 0.017856896 -0.2324291 -0.012792796
000030 59 07 3e bc d9 8d e3 bc 91 37 e1 3a 44 66 bf 3c
       -0.0115984315 -0.0277776 0.0017182698 0.023364194

decoder.0.weight f4 [128, 61]
000000 aa 93 52 3c 97 4b 2c 3b 02 d2 1a bc 3e 5f 27 3b
       0.012852589 0.0026290172 -0.009449484 0.0025538947
000010 45 79 f1 bb 51 0d f0 bb be f7 2d bc 1e e2 5b ba
       -0.007369193 -0.007325806 -0.010618148 -0.0008387881
000020 e6 6a 99 bb f7 53 23 bc 46 14 91 3e 31 fe 31 3c
       -0.0046819327 -0.009968749 0.2833578 0.010863827
000030 12 50 52 bb 83 77 97 3c 71 74 6d ba f9 69 9b 3b
       -0.0032091183 0.018489605 -0.00090581836 0.0047428575
000040 41 22 87 3d 09 78 3c 3d c1 c7 30 3e 39 80 36 3d
       0.0659833 0.046012912 0.172637 0.044555876
000050 f9 66 85 3d 59 c0 bc 3d 1b 65 06 3d d5 99 99 bd
       0.06513781 0.09216375 0.032811265 -0.07500044
000060 0e a2 4d bb 41 d8 34 3d da 77 7e bc 46 bc d2 3d
       -0.003137711 0.04415155 -0.0155315045 0.102898166
000070 a8 9b d9 bd 36 7c c3 3d 34 9f 3e bd 64 35 fe bc
       -0.10625392 0.09545176 -0.046538547 -0.031031318
000080 c1 df 89 3d 09 10 b6 bd d4 07 72 bd 81 b3 99 3d
       0.06732131 -0.08889777 -0.059089497 0.07504941
000090 18 61 a7 bd f6 72 08 bd e3 7a ed 3d 10 e7 0f 3e
       -0.08172816 -0.03331276 0.115957044 0.14052987
0000a0 58 bb 70 bd 61 67 1d 3e 4d 6d 8e bc b5 7e 07 bb
       -0.058772415 0.15371467 -0.017386103 -0.0020674889
0000b0 97 8b 6d 3d 67 b0 56 bd 89 96 65 3d 1f 21 b9 bd
       0.05799445 -0.052414324 0.056051765 -0.090395205
0000c0 a2 c3 b3 3c a8 6c 50 bc 7e b4 be bc 9b b1 93 3d
       0.021943871 -0.012721218 -0.023279425 0.0721161
0000d0 b7 c0 80 3d 96 52 48 3d 26 02 9c 3d d1 a4 90 bc
       0.062867574 0.048906885 0.07617597 -0.017656716
0000e0 a4 f8 ab 3d 81 68 27 bd 32 39 a3 3c 68 8c 8c bc
       0.08397034 -0.040871147 0.019924734 -0.017156795
0000f0 93 e6 8f bb a3 cf 0f 3d 88 44 ae 3c 38 32 3b bc
       -0.0043915003 0.035110127 0.021272913 -0.011425547
000100 fa 16 b7 bb 6b 02 07 bd a6 23 6b bb 75 d1 da 3c
       -0.005587456 -0.03296129 -0.0035879402 0.026711205
000110 6a f8 7e ba 90 08 f4 3c 9c 5a 85 3c 36 9f e2 3d
       -0.00097263476 0.02978924 0.016278557 0.11065523
000120 88 fa e2 3c eb 2b 6d 3c 8d 92 8f 3c 38 5f d6 3c
       0.027707353 0.014475803 0.017525936 0.02616845
000130 b2 8a 0b bc 56 fe 22 3c ec 11 db 3b 1d ed 66 3e
       -0.008516954 0.009948334 0.006685486 0.22551389
000140 c0 90 9e 3b 01 6e 49 3d e5 cc 2c bc d3 3a b8 ba
       0.004839033 0.049177174 -0.010546898 -0.0014055617
000150 7d e8 88 bc 66 39 04 3d 44 5a 73 3c 5d 57 0a be
       -0.016712422 0.032281302 0.014853064 -0.13509889
000160 22 34 52 3d 6b 37 80 3d c4 24 89 3d 12 da de bc
       0.05131925 0.0626057 0.066964656 -0.027203593
000170 e1 1b e3 3c 8a f4 aa 3d 21 2a 3f bd 10 b0 15 bd
       0.027723255 0.083474234 -0.046671037 -0.03654486
000180 b1 ca c9 3a ad 6f da 3d 4e e1 96 bd 35 e7 8c 3c
       0.001539549 0.10665832 -0.07367192 0.017200092
000190 88 84 0c 3e 87 e1 f5 3d cd 69 88 3d 8c f2 d1 3c
       0.13722432 0.120059066 0.06660805 0.02562835
0001a0 09 a0 17 3e 61 63 e1 3d f5 95 b9 3b b2 b4 88 3d
       0.14807142 0.11005283 0.005663628 0.0667509
0001b0 c3 0a 78 3d f7 93 da 3d 6a b5 e4 3b 93 ad 10 3d
       0.06055714 0.10672753 0.006979634 0.035321783
0001c0 58 15 46 3d 38 34 cd 3c ef 61 6f 3d 10 87 81 bb
       0.0483602 0.025049314 0.058443006 -0.0039528683
0001d0 d4 e0 c8 bc 3b a8 b2 3d 0e 33 2a 3e d8 3a fb 3d
       -0.024521269 0.08723494 0.16621038 0.12267083
0001e0 98 30 9a 3d 6f 9d 8e 3d 77 48 3a 3c b2 52 12 bc
       0.075288 0.06963622 0.011369816 -0.008930849
0001f0 e5 d6 5b bb 18 37 7f 3c f3 68 f5 3b d2 a2 c8 bc
       -0.0033544835 0.0155771 0.0074893176 -0.024491701
000200 a5 96 c3 bb 9f 4c d9 bc cb c4 8f 3c 0d c1 34 3c
       -0.005968886 -0.026525794 0.017549893 0.011032355
000210 7d 65 6b bd a7 60 b1 3b b6 6f a3 3c d8 6b cd bc
       -0.057469834 0.005413133 0.019950729 -0.025075838
000220 6e 0f 2e 3c b8 bc bd 3c d9 84 a0 3d 29 9f c3 bc
       0.010623796 0.023161277 0.07837839 -0.023879604
000230 e0 dd b9 be 9b db 2f bd 38 a4 ba bd fc 6c c4 3c
       -0.3630209 -0.04293404 -0.091133535 0.023977749
000240 cd 30 2f 3c fa 5e 90 3d d8 e2 a3 bd ae 97 b8 3c
       0.010692787 0.07049365 -0.080022514 0.022533264
000250 e9 11 14 3d de a3 13 3d 30 71 c9 3c 8e df b9 bd
       0.036149893 0.036044948 0.024590105 -0.09075843
000260 3f 0c 5c 3d 90 1d ce bc 68 0e 4d bd 93 ae 8f 3c
       0.053722616 -0.02516058 -0.050062567 0.017539298
000270 34 5a 96 3a f4 54 fb 3c 92 c2 ca bc d9 aa 89 3d
       0.0011470974 0.030680157 -0.024750981 0.0672204
000280 87 84 8e bc 95 4c 96 3d ac 0a 36 bd 99 b5 ce bd
       -0.017397178 0.073388256 -0.04444377 -0.10093231
000290 79 91 9b 3d 56 4e b0 3d 72 e5 71 3d d3 9e 4b 3d
       0.07596106 0.086086914 0.059056707 0.049712013
0002a0 cb 0f a6 39 65 bc b3 bd 81 32 a7 bd 80 9a a2 bd
       0.00031673754 -0.08776168 -0.0816393 -0.07939625
0002b0 00 ff c3 3d 2c 65 9b bd 16 fc 0b bb 32 38 09 bd
       0.09570122 -0.075876564 -0.0021359972 -0.033500858
0002c0 b5 86 95 bc 48 46 16 3d 46 1e b4 3d 6c 62 8e bd
       -0.01825271 0.03668812 0.08794837 -0.06952366
0002d0 bf ab c3 bd df a9 a1 3d 67 da e3 bc 62 b4 e0 3a
       -0.09554242 0.078937285 -0.027814103 0.0017143602
0002e0 e2 20 66 3b e3 a1 25 3b 7c 47 ae 3b af e2 b2 3b
       0.0035114815 0.0025273494 0.00531858 0.0054591517
0002f0 51 02 d9 3a 03 19 e4 3b 93 55 72 3a 41 28 42 bb
       0.0016556476 0.0069609894 0.0009244319 -0.0029626044
000300 be 8f 83 bb 9e a2 86 bd fd d1 03 bb 01 f7 42 bb
       -0.004014938 -0.065739855 -0.0020114176 -0.0029749277
000310 98 1f 84 3b 7f 66 8c 3b 66 0d ce 3a 44 36 aa 3c
       0.0040320866 0.0042846794 0.0015720546 0.020777829
000320 1b 31 17 bd 05 ec 00 bf 4f 62 06 3d 78 9d 46 bd
       -0.036912065 -0.5036014 0.032808598 -0.048490018
000330 d0 71 7d bd 71 28 60 3d 8f 2f 3c 3d c0 18 b0 bd
       -0.06187612 0.054726068 0.045943793 -0.08598471
000340 b5 5a db 3d dd 62 8b 3d fe 84 73 3d d1 2c 80 3d
       0.1071066 0.06805966 0.059453003 0.06258548
000350 ad f8 dd bb cd 32 5c 3d 8e 24 71 bd e5 1f c9 3d
       -0.006774029 0.053759385 -0.058872752 0.098205365
000360 77 55 76 3b 17 17 d4 3c ff 11 f5 3c b9 2d 8b bc
       0.0037587562 0.025889916 0.029915808 -0.016989576
000370 a5 08 98 3d d6 1c a9 3d ee 05 be bc a9 8b bc bd
       0.07423524 0.08257453 -0.023196187 -0.092063256
000380 69 a0 61 3d 7d 8c 3f bc af af 88 3b 82 83 8a 3d
       0.05508462 -0.01169121 0.0041713337 0.067633644
000390 77 a5 05 bb 5f f1 75 81 8d 99 9e bc 2c a8 95 3d
       -0.0020392814 -4.5172568e-38 -0.019360328 0.07307467
0003a0 38 8b fc 3c e5 2d 9f bd a0 d5 86 bd e6 21 5d 81
       0.030828103 -0.077724256 -0.065837145 -4.061561e-38
0003b0 3d 9a be 3b 2d 00 b6 3c 1f 4c c7 3d e1 9a 2b bd
       0.0058167265 0.02221688 0.09731316 -0.04189575
0003c0 7b ed 85 bc ee 1d c0 3c 9b 37 ae 38 69 21 37 3d
       -0.016348591 0.023451772 8.307324e-05 0.044709597
0003d0 63 e1 cf bb 8b 92 45 3c c9 24 83 bb 0a 53 ee 3b
       -0.006344007 0.012058864 -0.004002188 0.0072730826
0003e0 9b 97 49 bb 55 4a 6b bb 32 9f c6 bb 22 58 21 3b
       -0.003076053 -0.003590246 -0.006061458 0.0024619182
0003f0 87 09 df bb 5e dd 26 bc e9 32 35 be 18 9d e9 3c
       -0.0068065557 -0.010184614 -0.17695202 0.028517291

decoder.0.bias f4 [128]
000000 3a 62 c1 3d 9e cf 42 3e ef b2 76 bc 4f e5 b1 bd
       0.09442563 0.19024512 -0.0150573095 -0.08686315
000010 64 45 1e 3e a2 24 18 bc 9c 65 3f bd 9f 08 81 bd
       0.15456158 -0.009286078 -0.04672776 -0.063004725
000020 f8 39 4a 3e 90 a4 2b 3e 98 47 c9 3d 04 67 fb 3d
       0.19748676 0.16761994 0.098281085 0.12275508
000030 1e 89 a4 3d 17 c2 22 3e 9e 40 ab bd ec dd 51 bb
       0.080339655 0.15894352 -0.08361934 -0.0032023145
000040 33 b9 c0 3c 60 1f a0 3c 4a 94 25 3d 5b 26 cd bc
       0.02352581 0.01954621 0.040424623 -0.025042703
000050 51 52 bd bd 67 7f b3 3d 04 b7 93 bd 04 31 24 3e
       -0.09244216 0.087645344 -0.07212642 0.16034323
000060 32 7d b9 3c af c8 30 3d 4a cc ab 3a 48 51 40 3e
       0.022642706 0.043160137 0.0013107148 0.18781006
000070 78 ac df 3d 24 9e de bd 18 4f 89 3d 59 eb fd 3d
       0.10921568 -0.10870007 0.06704539 0.12398405
000080 04 9d eb bd f4 5a 8f 3d 48 8f 06 bc 8d 20 7d 3d
       -0.11504558 0.0699977 -0.008212872 0.06179862
000090 54 14 7c bd a8 27 26 3e c1 a5 07 3e ec d4 ce 3d
       -0.061542824 0.16226065 0.13246824 0.100992054
0000a0 7d 49 72 bc 66 56 ce bb a0 a4 b1 bd 61 9d 89 3d
       -0.014788029 -0.0062969206 -0.08673978 0.06719471
0000b0 40 5a 3d 3e b5 9b 4c 3d 60 72 26 bd a3 38 cc 3d
       0.18491459 0.04995318 -0.04063642 0.0997174
0000c0 de b8 0d 3e fd 17 02 3e 3d 59 ec 3d 10 8e 3b 3d
       0.13840052 0.12704463 0.11540458 0.04578978
0000d0 46 e4 e4 3d c3 e4 02 3d eb 97 ff 3c d6 1a a7 3d
       0.11176352 0.031956445 0.03120037 0.081594154
0000e0 40 0d 1b 3c da 8a 13 3d 67 3d e0 bc 98 e2 17 bc
       0.009463608 0.03602109 -0.027373029 -0.009270333
0000f0 71 19 07 3e 71 b7 8c bd 6c 25 ac 3d 8b 0d b2 bd
       0.13193299 -0.06870926 0.08405575 -0.08693989
000100 10 ef e4 3d 59 53 99 bd 6d ad 52 bd 30 81 5d 3d
       0.1117841 -0.074866004 -0.051434923 0.05407828
000110 54 7c 0b 3d cb 9b 91 bd f9 ec f2 bd 77 18 04 3e
       0.034054115 -0.07109793 -0.11861605 0.12899958
000120 ea 21 74 bd 35 79 5d 3d 09 36 bf bc 66 16 d4 bc
       -0.059602655 0.05407067 -0.023341196 -0.025889587
000130 b5 47 19 3b 2d 3b e0 3d 54 a6 49 3b a2 c7 3b 3d
       0.0023388688 0.10948787 0.0030769305 0.04584468
000140 95 8b 71 bd 55 e2 5d bd d1 8c da 3d 21 25 02 3d
       -0.058971006 -0.054170925 0.1067139 0.03177369
000150 82 9b 84 bd 01 d3 c0 bd cd 94 b9 bd 78 3d 11 3e
       -0.06474973 -0.09415246 -0.090615846 0.14183605
000160 5d 65 eb 3c f4 6b 1a 3e b0 cf 98 3c 6d e5 87 3d
       0.028734857 0.15080243 0.01865372 0.06635556
000170 11 cf e1 3c 02 ab 71 bd c7 82 b7 bc c8 ae c7 bd
       0.027564557 -0.059000976 -0.022401227 -0.09750134
000180 3d 38 d4 bc 18 6d b7 bb fb a0 4f bd 33 44 19 3d
       -0.025905723 -0.005597722 -0.050690632 0.037418555
000190 70 be d8 3d 96 2b 61 3c c4 b4 d9 bc 22 64 f6 3b
       0.10583198 0.013743302 -0.026575454 0.007519261
0001a0 30 82 91 bc 98 f7 72 3d 81 c4 8b 3d 0d 7e 69 bd
       -0.017762274 0.059318155 0.068245895 -0.057004977
0001b0 b7 06 a5 bd 96 95 2c 3e aa ed aa bd 61 e6 a0 bc
       -0.080579214 0.16853938 -0.08346112 -0.019641103
0001c0 6a 31 8b bc c6 ca be 3d 55 2f f1 3d 04 80 1f bd
       -0.016991336 0.0931602 0.11776606 -0.038940445
0001d0 76 ff 0d be ff b0 77 3d be 76 b6 3d b3 0f b3 bd
       -0.13866982 0.06047153 0.08909367 -0.08743229
0001e0 4e 8e ed bd b8 37 1a 3e 6e 84 50 3d 0a 65 b6 3d
       -0.11599408 0.15060318 0.050907545 0.089059904
0001f0 64 d2 d9 bd 30 af b2 bd e7 07 64 bd 3c 54 d9 3d
       -0.10635832 -0.087248206 -0.0556716 0.106117696
