models/cvae_L12_H128_B0.500_LR5e-04.pt (torch, 218781 bytes, 13 tensors)

encoder.0.weight f4 [128, 46]
00000000: 7529 30bd a305 4a3d 0220 a63a 9589 d33d
00000010: a444 b23d dc21 613d a650 a13d 57ca ed3d
00000020: 662c d1bd ba0e d1bd 2589 ee3d a0ff ba3d
00000030: 845c 623b c12d 01be 0234 35bc 4f4e a7bd
00000040: 7f4f 853d 0fbc ccbd 7c42 513d 202f a73d
00000050: 42d8 123d cc19 8ebd 070a e0bd ccc4 ae3a
00000060: 8d93 403e 2084 81bd c2ee 1abe 3f04 f8bc
00000070: 5d70 093e de99 acbd 97b2 72bd 68a1 a2bc
00000080: 4bf1 acbd 860a afbd 44a4 033e 1a6b c9bc
00000090: 1b2a aa3c 468d 993c 21ea bfbc ed5a 4d3d
000000a0: 835e c83d e5ad b5bd d82d 25bd 2fb6 9abd
000000b0: 0d49 883d 507d 87bd f33a 4cbe 429a ecbd
000000c0: 27e8 6abd 5192 053e 5dda 0d3d 42b8 e8bc
000000d0: 4773 8e3c 5bd2 9bbc 7ebc e13b c2f7 0a3e
000000e0: c764 373d 900f eeba 4c76 093e b5d8 e03d
000000f0: 6b2a a3bd 371c b73d 702d cabc f848 1cbd
00000100: 5f06 c93d 1a7d 673d 29c0 6dbc 5cca b23d
00000110: cb24 94bd 0c78 803d 794c e1bc bb65 4abd
00000120: c6ff 49bd 3a2b 4a39 e476 583d 95c2 57bd
00000130: 7eaf 33bd ad06 25bd 3cf5 183e ea76 d53d
00000140: 8f41 c83c a60e 163d 3462 a83d 5f48 8cbd
00000150: 4db0 9d3d 88d5 1fbc bb8f f43c 668b 16bd
00000160: 4ec5 fb3c 06b5 34bd c225 dc3c ca8e e0bd
00000170: c4d4 95bd c2b8 32bd 1e54 b83c 9c96 663d
00000180: 2f76 f93c 8c83 9abb 8d3e 93bd 3750 1b3c
00000190: 236b d0bc ca8a cd3d b980 8bbd 785b 4bbd
000001a0: a223 2ebe c59c 9dbd 33d0 a1bd 8d24 07be
000001b0: d0b2 df3d f66f 703d 3cfb b1bd 5bb9 e5bc
000001c0: fef3 b43c e44f 033c 33d7 3d3d 1389 593d
000001d0: a20b c33d 788c 013e ca08 813e d81f e3bd
000001e0: 0036 4f3d 17d8 0b3b e9ff 4d80 441c 2702
000001f0: 2ade 4abd 8bb1 0ebb 27a4 1b3e 13d8 0b3b
00000200: 5885 3a02 b05f 9381 4c43 0e01 28b2 153e
00000210: 4230 063d a285 153e 7ea0 103d 609c 2dbc
00000220: 2cd8 0b3b 2959 d200 601f fdbd 9000 4e3d
00000230: 4757 983c 81f0 013e d052 c43d 155c fa3c
00000240: f227 413d a20f 30bd 3cc1 77bd cd84 d63d
00000250: 8ccd dd3c dc35 91bc 9ae3 3f3d 9dd8 9dbc
00000260: e8fd 593d 1ff7 86bc 27b8 b8bc 2c7b 103d
00000270: ca40 78bd b498 b9bc e34b 533d 673a eabb
00000280: eda0 a33c b94b 94ba 9f64 8d3d 8f86 7ebc
00000290: 6599 9dbd f80c 263e 033a 233e 1b2a 31bd
000002a0: 9ecb 0dbd d6a9 24ba e6d5 89bd 873b dd3d
000002b0: 9e93 4c3d 90b6 0cbd 2d64 063b 8aaa 2c3d
000002c0: d676 8c3d 7a57 423c 4671 05bd 2e31 d93d
000002d0: 905d c13d 66e1 163e 3b3d f33d 9d1a 33bd
000002e0: 3878 66be d8c5 5d3c 707e 02bd 4217 2f3e
000002f0: 2427 9dbd b543 b4bd aef0 2db9 005a c7bb
00000300: 3b64 103d f8b0 03bd 0d00 373d 01ef cabd
00000310: 3867 84bd ed96 003e 06de 063d cb5b 2a3d
00000320: e696 933c 3d39 2fbd 5244 383d 5922 a4bb
00000330: e4b8 a6bd ffb9 aa3c da40 a83c 4456 aebd
00000340: 1c4f 2c3e cb22 21bd b024 9abc db63 8a3d
00000350: 48f9 c33d 689c d63d c102 b03c 79da 9cbb
00000360: 3ab8 f93d 7e5d 8e3d 92fe 8b3d 2f1d fbbb
00000370: fa72 3002 96da 9cbb 3a30 a9bd 7a91 8b3d
00000380: b22f 13bd c538 2e3b 4fc8 793d f812 8cbd
00000390: ea24 b83c 7efb 5b3c ed08 08be ce85 eebd
000003a0: d482 23bd ea53 f7be 28cb 5cbd 080b 90bd
000003b0: cb8c 8cbd 236f b83d 6014 343c 02b6 a1bd
000003c0: 9333 aa3d e658 663b ff90 8d3d 4b9d d63d
000003d0: 3a08 603d 473b bd3c 0be7 8b3c e0d9 a9bb
000003e0: 900a 813d ae04 c53c 3ff5 2d3d 7392 80bd
000003f0: 32f4 a0bc 7ff9 c53a 22b4 dc3d b880 a4bc
-0.043008287 0.04932178 0.0012674334 0.10328976 0.087044984 0.05496393 0.078767106 0.11610859
-0.102135465 -0.10207887 0.11647252 0.09130788 0.0034540007 -0.1261511 -0.011059763 -0.08169233
0.06509303 -0.09996807 0.051088795 0.08163285 0.03585077 -0.06938514 -0.109394126 0.0013333797
0.18806286 -0.06324029 -0.15130141 -0.030275462 0.1342177 -0.08427785 -0.059252348 -0.019852355
-0.084444605 -0.08546929 0.12855631 -0.024587203 0.02077203 0.018744122 -0.023427071 0.05013554
0.09783652 -0.088710584 -0.040326923 -0.0755428 0.06654558 -0.06615698 -0.19944362 -0.1155286
-0.057350304 0.13044097 0.034632076 -0.028408173 0.017388953 -0.019021204 0.006888925 0.13571075
0.044773843 -0.0018162597 0.13424033 0.109788336 -0.07967075 0.089409284 -0.02467987 -0.038155526
0.09815668 0.05651579 -0.014511147 0.08730003 -0.0723358 0.06272897 -0.027502285 -0.049413424
-0.04931619 0.00019280324 0.052847758 -0.052675802 -0.043868534 -0.04028957 0.149373 0.10423072
0.024445323 0.036635064 0.08221856 -0.06849741 0.07699642 -0.0097555 0.029853692 -0.036754034
0.03073373 -0.04411795 0.026873473 -0.10964735 -0.073159724 -0.04363323 0.022501048 0.056295976
0.030451862 -0.0047153886 -0.07189665 0.009479574 -0.025441712 0.100362375 -0.06811661 -0.04964778
-0.1700578 -0.07695917 -0.07901039 -0.13197537 0.10922778 0.058700524 -0.08690497 -0.028042486
0.022089 0.008014653 0.046347808 0.05310924 0.09523703 0.12651241 0.25202018 -0.11090058
0.050588608 0.0021338516 -7.163136e-39 1.2277334e-37 -0.04952828 -0.0021773304 0.15199338 0.0021338507
1.370339e-37 -5.4136577e-38 2.6129564e-38 0.14618742 0.032760866 0.14601758 0.035309307 -0.010596365
0.0021338565 1.9317439e-38 -0.123595 0.050293505 0.018596305 0.12689401 0.09586108 0.030561486
0.047157235 -0.04298366 -0.060487017 0.104745485 0.027075551 -0.017725877 0.046847917 -0.019268328
0.05322066 -0.016475258 -0.022548748 0.035273716 -0.060608663 -0.022655822 0.051586043 -0.0071480754
0.019974196 -0.0011314071 0.069039576 -0.015535011 -0.07695273 0.16215885 0.15940098 -0.043253046
-0.034618013 -0.0006281411 -0.06730251 0.108023696 0.049945466 -0.034353793 0.0020506487 0.042154826
0.06858604 0.011861676 -0.03257873 0.106050834 0.09441674 0.1473442 0.11876913 -0.043726552
-0.22506797 0.013535939 -0.03185886 0.17098716 -0.07673481 -0.088019766 -0.00016588226 -0.006083727
0.035251837 -0.032151192 0.044677783 -0.099088676 -0.06465 0.12557574 0.03292658 0.041591447
0.01801629 -0.042779196 0.04498703 -0.0050089774 -0.08140734 0.020840643 0.020538736 -0.085125476
0.16827053 -0.03933982 -0.018816322 0.06757327 0.09569031 0.10479051 0.021485688 -0.004786786
0.121933416 0.06951426 0.06835665 -0.007663391 1.2963435e-37 -0.0047867997 -0.082611516 0.06814857
-0.035934158 0.002658413 0.060982045 -0.068395555 0.02247854 0.01342666 -0.13284655 -0.11646615
-0.03991969 -0.4830621 -0.053904682 -0.07033354 -0.06862792 0.09005573 0.010991186 -0.07896043
0.08310618 0.0035148202 0.069124214 0.1047922 0.054695345 0.023099555 0.017077943 -0.0051834434
0.06300843 0.024050083 0.042470213 -0.06277933 -0.019647691 0.0015104263 0.10776545 -0.02008091

encoder.0.bias f4 [128]
00000000: d23f 053e 050c 7ebd a118 1f3e 91d8 6dbd
00000010: 1250 b9bd 4085 ddbd ecc3 77bc 1539 b8bc
00000020: f984 1d3e 88ec 573e caba fbbd 03ca 2d3d
00000030: 4070 46bb f46a 2fbd 90e6 9c3d 9dd6 b3bb
00000040: c204 d63d fc64 8fbd 02db 2b3e a1a5 16bd
00000050: 39b9 b6bc 88c5 11ba 81d6 c0bd 1559 453d
00000060: af60 e1bd 1626 b5bb edc9 25bd f262 2ebc
00000070: 454a 213e c160 abbd bd9f e53d 8e5d 143e
00000080: c65d 21bc fed1 363e 79a2 123d 8f91 0c3d
00000090: eea9 1cbd 64d5 093e 9e85 fdbd ce2d 13be
000000a0: 1e6e a03d 625e bfbc 9076 1fbe 7f47 71bd
000000b0: 0e3b fe3d a581 7b3b c7b7 f7ba a0a3 b13d
000000c0: 8dc4 cbbd 4ae2 94bd cbc6 ed3d 79dd 0d3e
000000d0: 13c4 f43d 9025 183e 9d96 c8ba 11c3 3c3e
000000e0: 39ed 28bd 78e0 9bbc 3ec0 f13d f3ff 3a3d
000000f0: ca83 4f3d 3715 bdbd f912 c13d 5f35 d13d
00000100: f5b8 ee3d 4f18 19bc f21e 733d 9d0d 7e3d
00000110: 7775 00bc a7d4 ae3d 651d babb af8c f23d
00000120: d6af da3d 9438 bf3d 61ae 66bc 4638 12be
00000130: b438 533c 02bf ce3d e671 243e 7bd5 d5bd
00000140: 6052 a03d c6ba 89bd 7f44 373e e4ea 253d
00000150: a611 c03b d044 79bb 4645 35bd 6ddd 83bd
00000160: 561e 6b3d 96bf fbbd 6566 1a3d 4584 6b3d
00000170: 4f0e 87bd d0a7 603c e9a8 42bd b309 423e
00000180: 6f9f 903c 5e02 cbbd acba 7cbd 3094 a73d
00000190: c8fa 103d 85d0 283e 36ba 1f3e e418 b9bd
000001a0: 0077 7bbd b76c 89bc c6b1 0c3e 7b1b f83d
000001b0: 3eba 1bbe 3027 8a3d 8d84 e53d 2ab6 42bb
000001c0: 3ae3 1fbe e0dd edbd d691 263e 0dad ffbc
000001d0: 1f06 fabd 1ef0 253e 2f49 2f3d 2f9d 8abc
000001e0: 8b18 6bbd 2bc7 193e 7f61 42bd 8c0e 4c3e
000001f0: fb71 febc 3966 8b3d ba72 01bb 9c31 c8bc
0.13012627 -0.06202318 0.15536739 -0.058067862 -0.09048475 -0.10816431 -0.015122395 -0.022488156
0.15382756 0.21086323 -0.122914866 0.04242898 -0.0030279309 -0.042826608 0.07661164 -0.0054882304
0.10450126 -0.07001683 0.16782764 -0.03677905 -0.022305118 -0.00055607455 -0.094159134 0.04818066
-0.11004769 -0.005528222 -0.040475775 -0.010643708 0.15750988 -0.08368064 0.11212108 0.14488813
-0.0098490175 0.17853543 0.035799477 0.034318503 -0.038247995 0.13460308 -0.12379001 -0.14372942
0.07833503 -0.023360435 -0.15572572 -0.058906075 0.124136075 0.0038376835 -0.0018899374 0.08673787
-0.099495985 -0.07269724 0.116101824 0.13854016 0.11951461 0.14858079 -0.0015303675 0.18433787
-0.04124186 -0.019027933 0.118042454 0.04565425 0.050662793 -0.09232562 0.09427447 0.10215258
0.116563715 -0.0093441745 0.059355684 0.0620247 -0.007840506 0.08536654 -0.0056797736 0.118432395
0.10678069 0.09336963 -0.014079661 -0.14279279 0.012891937 0.100950256 0.16059074 -0.10441109
0.07828212 -0.06725077 0.17897223 0.040507212 0.005861479 -0.00380354 -0.044255517 -0.06438718
0.057401977 -0.122924015 0.037695307 0.05749919 -0.06594526 0.013711885 -0.047524367 0.18949012
0.017654149 -0.09912561 -0.06170146 0.081825614 0.035395414 0.16485794 0.15598378 -0.09037951
-0.061392784 -0.016775472 0.1373969 0.121146165 -0.15207765 0.06745756 0.11206923 -0.002971063
-0.15614024 -0.11614585 0.1626657 -0.031210447 -0.12208199 0.16204879 0.042794403 -0.016920654
-0.057396453 0.15017383 -0.04745626 0.19927424 -0.03106021 0.06806607 -0.001975222 -0.024437718

encoder.2.weight f4 [128, 128]
00000000: b4b3 763d a19f 8abc 99e5 f23d 2487 2bbc
00000010: 5f51 993c f606 32bc 3610 37bd a39e e0bd
00000020: f363 293c a049 a13c 5502 dd3c ce8c 493c
00000030: d81e 2d3b 24eb 803b 6479 863d a4ba fdbb
00000040: eb0c 36bd 4d90 893c d548 b13d e93f 82bd
00000050: 62a7 1e3d f044 0b3c e553 ec3c 16dc ed3b
00000060: e0cf a33c 0626 063b fc7e 853d 27b5 d9bc
00000070: c394 b43c 6a78 32bd 854e 2abd 36dc 2abd
00000080: 53c0 dd3d 4a9e e43b 3345 03bd 5b8a ebbc
00000090: 6cfe 52bc 7341 95bd 4d18 ccbb 1811 a73d
000000a0: 9579 69bd 6827 b63d 6180 43bd 6422 42bc
000000b0: 8cbe ea3c e4cf a13c 3fdb 01bb 9b09 9c3c
000000c0: 0b92 3c3d 8bc5 debc 2fd4 823d e4bf 173d
000000d0: 14cf f73d 0698 913d 309b 6cbd 3ad0 9c3b
000000e0: 6bf5 093d 70d7 29bd cbe3 26bd 7d9e a23d
000000f0: d44c 883d 0570 c63d a21d 97bd ddbb 30bd
00000100: bee1 9a3d 5c89 a1bc 9fa1 d23d a6cd e03d
00000110: e34c d43d d9ae e13c b2ee 56bd b8ea d63c
00000120: c0b8 ba3d a9b5 8b3c f995 c13c bf34 b0bb
00000130: 1f59 213d 658d 523d faae de3d b2bb 903d
00000140: d82f ed3b 25e0 2fbd 8a53 4a3d bb6c d33c
00000150: cc5a c8bc 7eb0 5e3d c5e2 e5ba df68 66bc
00000160: a5b1 f73c 6eb1 18bd 4b17 ad3d 081b f4bc
00000170: 61a1 f73d 0db7 623b 3e58 74bc bb09 d33d
00000180: d5a8 2abb 539d 9bbd 943e 29bd 14d8 d03c
00000190: 47e6 f23b 8fe0 b3bc 1209 923d 6d05 a43d
000001a0: 9c58 4f3d 2731 343d 94d9 34bd 9be8 45bb
000001b0: 107b 433d 6c01 91bc 4774 d23b d4e7 923d
000001c0: 6375 a7bd cc41 a5bb 6e10 af3d da3e 86bd
000001d0: 42eb d5bb f448 553d f75a 7d3a 56b5 3cbd
000001e0: bda4 8c3c 67c1 d43b 0a4d 81bd 7b73 c13c
000001f0: 3251 0e3d 7329 55bc bfbe b7bb a35f fabb
00000200: f945 b23d f575 eb3c b6d6 7cbc ed55 013d
00000210: 6598 623d 6709 e8bc e40b c8bc b8eb e8bc
00000220: 7f77 f7bc e2f7 ef3b 10bf 1bbd 17ad e63d
00000230: 1dc7 903d eaa0 5abc 8ce3 14bd 3963 183d
00000240: e695 713d 1d42 913d 928e 4fbd 5ec8 963d
00000250: 0990 5abb c6fd 0b3c de0b b6bc eef9 bdbc
00000260: 373c 49bd 8b98 80bd 13e0 84bd 4a9e 70bc
00000270: de88 bd3c 3073 223d 9e8c e6bc 506e 5f3d
00000280: 50e1 b8bc 3bc9 62bd 4609 67bd 05ef ee3a
00000290: 8be8 a23a 4542 b63b a4ed aa3d 8684 3a3d
000002a0: 908d 0dbc 7562 133d 6832 8e3c f387 54bb
000002b0: 1e42 683d bbe3 c23d 7116 c63c 6717 61bc
000002c0: ff26 203c a9d9 05bd 2fbf 623d 21ce 00bd
000002d0: 630b 92bd 3011 993c cad2 2c3d da55 99bd
000002e0: f6f8 36bd be40 473d 1f78 09bd e466 e3bc
000002f0: ef87 703d 1109 35bd 4d60 193d 2196 06bd
00000300: c593 a23d f3fd 813d a989 75bd 1c0f 99bd
00000310: e140 91bc fc48 2cbd 70a9 03bd 7ddd bdbd
00000320: 6a26 adbd be85 393d fb24 b0bd 870f a8bb
00000330: be94 ba3d 9d9c 713d 00e0 4b3a 1eeb 8d3d
00000340: 2d43 7dbd 9bb0 5cbb ede5 343d a164 96bc
00000350: eba3 15bd 38ca f0bb b167 603c 2e86 133d
00000360: 5cbf 8abc b286 ee3b eda8 943d addf b93c
00000370: 87bd b4bd af4d 0b3d 59ab dfbc e802 c73c
00000380: b335 10bd 6e8d 68bd 33b5 1ebc 0716 b2bb
00000390: 2849 6abd 5051 20bd 3f6b c33b a954 a13d
000003a0: 256b a53d 970b 073d bd5a 2d3c e50e 4c3d
000003b0: 0879 c63d 4ad4 5ebc 66f2 86bd 37ef f8bd
000003c0: bb37 4bbd a470 7e3d 1cea 903d 7d1e 9f3d
000003d0: 4d4e 993d 036c 8ebd 5f93 883d 1a39 afbc
000003e0: e57d 5ebd 0dcb a63d f136 873d 4e7c e1bb
000003f0: 7b37 533d 8bec 92bd a574 5c3d 7915 323d
0.060229972 -0.01692182 0.118601985 -0.010469232 0.018715559 -0.010865917 -0.044693194 -0.109677576
0.010338771 0.019688427 0.026978651 0.012301637 0.002641609 0.003934281 0.06566122 -0.0077431966
-0.044445913 0.01679244 0.0865647 -0.06359846 0.038733847 0.008500323 0.028848598 0.0072589023
0.019996583 0.002046944 0.06518361 -0.026575638 0.022043591 -0.043571867 -0.04157879 -0.041713916
0.108276986 0.0069768773 -0.032048415 -0.028752496 -0.012878042 -0.07287874 -0.006228483 0.08157557
-0.057000715 0.08894235 -0.047729854 -0.01184902 0.028655313 0.01975245 -0.0019814519 0.019047549
0.046037715 -0.027193805 0.06388127 0.037048236 0.12100044 0.07109074 -0.057765186 0.0047855647
0.033681314 -0.041465223 -0.040744584 0.079403855 0.06655279 0.09689335 -0.07378699 -0.04314791
0.07562588 -0.019718818 0.10284733 0.10976724 0.103662275 0.027549194 -0.05247373 0.02623497
0.091172695 0.017054396 0.023631083 -0.0053773816 0.039391633 0.051404376 0.10873218 0.0706705
0.0072383694 -0.04293837 0.049396075 0.025808683 -0.024457358 0.054367535 -0.0017538896 -0.014063089
0.030236075 -0.037278585 0.084517084 -0.029798046 0.120913275 0.003459397 -0.014913617 0.1030459
-0.0026040573 -0.075983666 -0.041319445 0.02549366 0.007412705 -0.021957664 0.07130636 0.080088474
0.050621614 0.043992188 -0.04415281 -0.0030198458 0.047724783 -0.017700873 0.0064225527 0.07173124
-0.081766866 -0.005043244 0.085480556 -0.06554957 -0.006528289 0.052071527 0.0009664739 -0.046071373
0.017168397 0.006492782 -0.06313522 0.023614636 0.034745403 -0.013010371 -0.0056074555 -0.0076407953
0.087047525 0.02874277 -0.01543205 0.031576086 0.055321116 -0.028324796 -0.024419732 -0.028432712
-0.030208347 0.007323251 -0.03802401 0.11263483 0.07069228 -0.013344029 -0.036349818 0.037204
0.058980845 0.07092688 -0.050673075 0.07362436 -0.0033350012 0.008544391 -0.022222456 -0.023190465
-0.04912969 -0.06279095 -0.06488051 -0.014686177 0.023136552 0.039660633 -0.028143223 0.05454856
-0.022568375 -0.05536769 -0.05640533 0.0018229192 0.0012428922 0.005562099 0.083461076 0.04553654
-0.008639708 0.035982568 0.01735802 -0.0032429665 0.05670368 0.095160924 0.024180623 -0.01373849
0.009774922 -0.03267828 0.055358108 -0.03144658 -0.07131078 0.018684953 0.04219321 -0.07487078
-0.04467102 0.048645727 -0.033561822 -0.027759023 0.058723386 -0.0441981 0.037445355 -0.032858018
0.07938341 0.06347265 -0.059945736 -0.07473585 -0.017731132 -0.04206179 -0.03214401 -0.09270761
-0.084545925 0.045293562 -0.086008035 -0.005128804 0.091104016 0.05898725 0.0007777214 0.06929611
-0.061831642 -0.00336746 0.044164587 -0.01835853 -0.036533277 -0.007348325 0.013696597 0.036016636
-0.01693695 0.0072792405 0.072587825 0.022689665 -0.08825212 0.03400963 -0.027303385 0.024293378
-0.03520746 -0.056775503 -0.009686756 -0.005434755 -0.057198673 -0.039140046 0.0059637125 0.07877476
0.08077077 0.032970037 0.010580716 0.049818892 0.09691054 -0.013600418 -0.065892026 -0.121550016
-0.049613696 0.06211914 0.07075903 0.07769487 0.07485638 -0.06954195 0.06668734 -0.021389533
-0.05431928 0.081441976 0.06602276 -0.0068812734 0.051566582 -0.07174023 0.05382218 0.04347751

encoder.2.bias f4 [128]
00000000: 8711 da3d 0932 80bd e6d4 fe3d ffdd 333d
00000010: 369d 093d fa9c cd3d 1350 053c 8bd3 573d
00000020: 66e7 c03d 655f c9bd d6f3 0683 fffc 913d
00000030: c2cf 55bd a0cd 3d3d d963 e03c b36c d13d
00000040: 4780 6abd 0730 c6bb 7ac0 b73d 7bf8 21bb
00000050: c00d 8a3c 896b 29be 8e44 33bd b11d 833c
00000060: 93dd ff3c 9d2d 9bbc e63a 923d 21f8 d03c
00000070: b06e cd3d d44a 41ba e0ea cbbd e95b c43d
00000080: 6677 313d 4e5d b28f 54c8 ea3d fe40 f8bc
00000090: 4e3f 193d f013 323d 7462 cdbd de57 c63b
000000a0: 6cd3 cb3c 706e f8ab 1010 24bc 4808 a53c
000000b0: 20c9 943d 8d41 45bd 0b2b 5bbc 78f2 cb3d
000000c0: f69c aa3d dda2 fbbc 457c b43c 399c b13b
000000d0: d73a 223d f9ac b5bd 7935 af3d fdea 51bc
000000e0: 309b 023c 5f4a 2d3d cae8 8a3b 1071 183d
000000f0: cc64 073e 8cc3 6dbd a3f5 983d c4f5 47bd
00000100: e22b be3c 88bc a03c 46f3 553d 9a34 c63d
00000110: 9463 93bb 24ad b4bc 7199 bc3a 30a6 1f3d
00000120: 36ed 593c bc40 74bd 7087 0cbd d01b 4d3d
00000130: 7355 f93b 47b2 db3c c0c5 0ebd e320 86bd
00000140: 152e 16be a0b8 a03d c118 953d 2744 533a
00000150: efe5 a03d b5d5 68bd 7682 9f3d b12f a7a3
00000160: b8c8 d6bb d67b 5cbc 0080 d13d 70bd 3cbd
00000170: 071b 9d3c c167 7c3d 94eb 143c fdcc 1e3d
00000180: faf9 3bbc 778c 2e3d 0d38 8ebc 924d aa3c
00000190: d01b afbd 0001 6dbc 8d6c 85bc a642 303d
000001a0: 9923 a1bb c5bb 203d ceb8 d73b 1161 e13d
000001b0: 2833 83b4 1a7e ff3b b739 e83c 6bb7 283c
000001c0: d264 b03d 3a1a 563d f65a c4bd a6a7 003e
000001d0: 3aaa 933d 5c61 31bb 81b4 933b eace 6bbd
000001e0: 7e06 ab3d 606d c13c cec5 413c a0bb f73c
000001f0: 3f6c 473d 0964 68bd 4b5a 0bbc 5606 a23d
0.10647874 -0.062595434 0.12442951 0.043912884 0.033597194 0.100397065 0.008136767 0.052691977
0.09419136 -0.09832648 -3.965897e-37 0.07128333 -0.052200086 0.046338677 0.027391361 0.10225811
-0.05725124 -0.006048206 0.08972259 -0.0024714756 0.01685226 -0.16544928 -0.04376655 0.016005369
0.031233585 -0.018942649 0.0714014 0.025508942 0.100308776 -0.0007373516 -0.09956908 0.09587843
0.043326758 -1.7588095e-29 0.11463991 -0.030304428 0.037413888 0.043476045 -0.10028544 0.006052955
0.024881087 -1.7652112e-12 -0.010013595 0.02014555 0.07264924 -0.048158217 -0.013376961 0.099583566
0.08330719 -0.030717308 0.022031913 0.0054202345 0.039606895 -0.088708825 0.08555121 -0.012812373
0.00797157 0.042307254 0.0042391764 0.0372172 0.13222045 -0.058047816 0.074687265 -0.048818365
0.023214284 0.019621149 0.052233957 0.09678002 -0.0044979546 -0.022055216 0.0014388991 0.038976848
0.013301184 -0.059632048 -0.03430885 0.050075352 0.0076090633 0.026818408 -0.034856558 -0.065492414
-0.14666016 0.078477144 0.07280112 0.0008059167 0.07856356 -0.056844432 0.07788555 -1.8126374e-17
-0.0065546893 -0.013457259 0.10229492 -0.0460791 0.019177927 0.061622385 0.009089369 0.03876971
-0.011473173 0.042614426 -0.017360711 0.020788942 -0.08550227 -0.01446557 -0.016287113 0.04303231
-0.0049175736 0.03924157 0.0065833097 0.11004842 -2.4437873e-07 0.007797015 0.028347833 0.0102976365
0.0861298 0.052271105 -0.09587662 0.12563953 0.072102025 -0.0027066087 0.0045076017 -0.057570376
0.08350848 0.023611724 0.0118269455 0.030240834 0.048687216 -0.056736026 -0.008505414 0.07911365

fc_mu.weight f4 [12, 128]
00000000: 2992 e1bd 27c9 bb3d 9247 babd 2ffa b33d
00000010: e795 34be 8701 3bbd bc17 b13c b3f3 813d
00000020: a639 f13b c3fc 023e f9a6 0383 d2b9 9d3d
00000030: 7dc1 cd3d 2056 58be 7e5d 803d cb5b b83d
00000040: 7173 edbd f55a 87be 7dd1 d8bc b556 27bd
00000050: 348f 1b3d 9a30 883e 5cf5 bbbc 3760 55be
00000060: 4d3a c53d 63b1 c43d a8aa 1abd 91bf 06be
00000070: 329c b9bd 8797 df3d b110 6ebe ccdb 4e3c
00000080: 1f1f 56bd b063 79b3 3e5f debd 0016 43be
00000090: f591 e43d 2246 9f3d 2edd 93be e1cd 903d
000000a0: 4b3f 1ebe 8ec5 8eac 13a7 573b 2a69 a53d
000000b0: e1a2 92bc 7819 36be d6ce 043e 1b6c a4bd
000000c0: e0b1 ac3d 0057 3abe 99d9 d23d 3aaa 12be
000000d0: 3df4 3a3d 9eec 3a3d 7d86 16bc bb8b b63d
000000e0: 1b46 64ba 6827 85be c6f5 dc3d 7c2a cc3d
000000f0: dbf5 533c 1dc3 813d 72f8 cd3c 6c5b b43d
00000100: ba71 dabd df34 1cbc 6854 e2bc 8c9e c93d
00000110: 8a48 5f3d 1bb0 a5bc 2790 323d 9bc2 2d3e
00000120: c7c4 c33d 8e43 933d 6f19 6dbd 3ae1 b53d
00000130: 383e 1a3e 7291 43be a6a8 693d c2d6 e13d
00000140: 5daf a43c 499c a23d 4dcd 443d 0eab a8be
00000150: 73fc 2abe be5c 02be 6662 183c a8f9 9423
00000160: 3f2f a0bd 214c 90bd 867e c63d dbd4 5fbe
00000170: 5138 a73d 47f8 d2bb d398 213d 5d0c 84bd
00000180: 1b0b 153d 8c9b e5bd 17d1 203d 5fa5 563d
00000190: ee93 aa3d 506a 71be 7d99 923d d7fc 96bd
000001a0: 20b8 fe3d edc7 2a3d f134 643e 476c 8f3b
000001b0: f679 92b7 b450 c73c 5334 a23d b310 e03d
000001c0: c7cf 46bc ff1e 2ebe 1030 023e f081 733d
000001d0: b668 cd3c 4926 4dbd d5d3 95bd 70df 05bc
000001e0: a696 763d 044f 1bbe 4a42 e73d abbc 93be
000001f0: 72f9 e0bd 063c 473d c25c 6dbe 6493 31bd
00000200: c1d6 8abc 9f6e 093c 2716 f7bc c69f ff3c
00000210: e9c7 233c 7144 aebc 4321 4e3a 00ae b03c
00000220: c5c9 f83c b71d d13a 87b9 0a82 bb17 11bc
00000230: 640a 9e3c 04c7 83bc fef8 373d 3168 123d
00000240: 2489 0a3c e77c 9cbc 0210 1cbd 2ca8 3cbd
00000250: b207 843c 8975 ae3b fef2 cf3c 28dd ce3b
00000260: 0792 2e3c 28ae fbbb 267a c53c d832 45bd
00000270: 01d1 34bd 6429 e83c 0fb1 debc 1d10 4a3c
00000280: 5397 5ebd bea0 2e81 0b69 593c e97b 993c
00000290: f9e0 a33c 8807 373c 3235 503c 413f 9a3c
000002a0: 921f 11ba 9077 8824 0cc1 cd3c 1aa8 4d3d
000002b0: de1c 193c e534 1d3c 258c 333d 5f85 f23c
000002c0: cb76 cbba 99c7 983c e414 09bc d4a6 5dbc
000002d0: 3483 36bb 8cfe d7b8 a255 4fbc c9e7 75bd
000002e0: c440 6abc 5454 183c 224a f1bc d085 45bb
000002f0: a42c 1e3d e61c 873b 138d 8b3c 5587 883c
00000300: 3e9c 283b 7ade 863c f2fe 6abc d685 1ebd
00000310: 3c83 a23a b118 6bbc 39aa f8bc da05 ef3b
00000320: 4dd1 39bc f24a b9bc 08ba efbc 89e9 a0ba
00000330: 0028 963c 4170 723c 93f5 a6ba 458e 46bb
00000340: 479d 0b3c 1eff d2bc 3fcb 29bd 7b04 74bb
00000350: 437b 063c 97bb ba3c 0c7c d5bc beed e791
00000360: c659 233c 22d4 733c 8450 d1bc c834 5ebb
00000370: 5526 ebba 00c8 083d 9d7d 06bb f4ed 4d3c
00000380: af66 27bc 08f2 f73c 6d94 6bba 3b03 1d3b
00000390: f75e ae3a 867d cdbb cb37 23bc 8477 db3c
000003a0: c949 9a3c 4fb9 59bd 93d0 cbbc 8c26 823b
000003b0: c7ba f02c 6f74 f8bc 08d4 bebc 10ba eebb
000003c0: 4b65 35bd a689 c93c b51a b93b 5b8d 03bc
000003d0: 8c10 2ebc 532e 9cbc a987 84bc 184b 3abb
000003e0: 4ff2 f03b 712a 02bc 97bb b8bb ab2b 763b
000003f0: c3d7 4d3d e698 603c 97db 06bb bbaf 43bc
-0.11014206 0.09169226 -0.09095682 0.08787953 -0.17635308 -0.045655753 0.021617763 0.0634531
0.0073616086 0.12791733 -3.8689115e-37 0.07701458 0.100466706 -0.21126604 0.06267832 0.09001883
-0.11594284 -0.26436582 -0.02646708 -0.040854175 0.037978366 0.2659958 -0.022944145 -0.20837484
0.096302606 0.09604146 -0.037760407 -0.13159014 -0.09062995 0.109175734 -0.23248555 0.012625646
-0.052275773 -5.8065496e-08 -0.1085801 -0.19051361 0.111606516 0.07777049 -0.28879684 0.07070518
-0.15453832 -4.0578157e-12 0.003290598 0.08076699 -0.017899932 -0.17783153 0.12969527 -0.08028432
0.084323645 -0.1819725 0.1029541 -0.14322749 0.04564308 0.045635812 -0.009187338 0.0891337
-0.00087079563 -0.26006627 0.10789065 0.09969041 0.0129370345 0.06336043 0.025142882 0.088065
-0.10666223 -0.00953409 -0.027628139 0.098446935 0.054512538 -0.020225575 0.043594506 0.16968767
0.09559017 0.071906194 -0.057885583 0.08880849 0.15062797 -0.19098452 0.0570456 0.1102729
0.020103151 0.07939965 0.048047353 -0.32943004 -0.16697864 -0.12730691 0.009300804 1.6151926e-17
-0.078215115 -0.070457704 0.09692101 -0.21858542 0.081650384 -0.0064382884 0.039452385 -0.064476706
0.036387544 -0.11211309 0.039261904 0.052403804 0.083289966 -0.23575711 0.07158182 -0.07372444
0.12437463 0.04169457 0.2228582 0.0043769213 -1.7461349e-05 0.024330474 0.07920136 0.10940685
-0.012134499 -0.17004012 0.12713647 0.05945009 0.025074344 -0.05008534 -0.073157944 -0.008170947
0.060202263 -0.15166861 0.112919405 -0.2885488 -0.10985078 0.048641227 -0.23179916 -0.043353453
-0.016948106 0.0083881905 -0.03016193 0.031204116 0.009996393 -0.02127287 0.0007863233 0.021567345
0.030369649 0.001595429 -1.0191883e-37 -0.008855755 0.019292064 -0.016086109 0.04491519 0.035743896
0.008455548 -0.019102527 -0.038101204 -0.04605882 0.01611695 0.00532407 0.025384422 0.006312985
0.010654933 -0.007680673 0.024106096 -0.04814419 -0.044144634 0.02834005 -0.027184037 0.012332943
-0.054343533 -3.207408e-38 0.013269673 0.018735843 0.020004736 0.011171229 0.012707995 0.01882899
-0.00055360154 5.9183145e-17 0.025116466 0.050209142 0.009345261 0.009595131 0.043834824 0.029604612
-0.0015523074 0.018649863 -0.008366797 -0.013528544 -0.00278492 -0.00010299412 -0.012654694 -0.0600355
-0.014297668 0.009297449 -0.029454295 -0.0030139573 0.03861679 0.004123318 0.017035043 0.016666094
0.0025727893 0.016463507 -0.01434301 -0.038701855 0.001239873 -0.014349149 -0.030354606 0.0072943987
-0.011341405 -0.022618745 -0.029263511 -0.001227663 0.01832962 0.014797271 -0.0012737982 -0.0030297202
0.008521385 -0.025756415 -0.041453596 -0.0037234116 0.008208099 0.022794528 -0.026060127 -3.6591894e-28
0.009970134 0.014882119 -0.025551088 -0.0033905972 -0.0017940501 0.03339386 -0.0020521649 0.0125689395
-0.010217353 0.030266777 -0.0008986656 0.0023958224 0.0013303448 -0.006271067 -0.009962033 0.026790388
0.018834012 -0.05315524 -0.02487973 0.0039718803 6.8419467e-12 -0.030328957 -0.023294464 -0.007285364
-0.044286054 0.024601769 0.0056489357 -0.008029307 -0.010624062 -0.019065058 -0.016177969 -0.0028426107
0.007353104 -0.007944689 -0.005637597 0.003756265 0.050254595 0.013708329 -0.0020577663 -0.011943753

fc_mu.bias f4 [12]
00000000: 83ef 69bc 814c 713c 3c36 65bd 8540 33bd
00000010: 3f43 413c 10b5 5bbb 5e7a 213d cc52 02bd
00000020: eda7 213d c4d1 e1bc a5eb 143d 76e1 f7bc
-0.014278295 0.014727713 -0.055959925 -0.043762702 0.011795818 -0.003352467 0.03942334 -0.031817243
0.039466787 -0.027565844 0.03635754 -0.030258875

fc_logvar.weight f4 [12, 128]
00000000: 9030 7cbd d6c6 1ebd 4d2e febd 0e32 87bc
00000010: 566a 56bd 3e4d ebbd 5eac 0f3c 43e8 0cbe
00000020: 2c74 4fbe c087 cb3c 50a3 7681 29c7 53bd
00000030: 5ca8 563d df27 2e3c b004 41bd 58e1 b3bd
00000040: 499a 843d ba79 9e3d 68cf e83a 4148 89bd
00000050: 8227 ccbd 8460 eabb 2fc3 083f a838 773e
00000060: 3b15 6cbd f304 92bd 121a 8dbd 36bc 173e
00000070: 2cf2 68bd 10fc d3bd 2f03 813f 88b4 aabe
00000080: 8d0b c3bd 04fe 7102 0c40 80bd d10c 363e
00000090: 2d95 75bc bf35 cfbd 4c25 663e ee2c a1bd
000000a0: def2 813e de88 5502 3256 8dbe 979c 15be
000000b0: e777 7ebe fe1a ef3d 2e84 203c 2640 b3bd
000000c0: ee59 89be e694 8a3d 8f3f 45bd bf85 2dbe
000000d0: cec9 b4bd 71b9 573d 4587 74bd ad33 29bd
000000e0: db5f 703b a878 423d 8880 8e3c 0751 53be
000000f0: 98c9 26be 7c08 49be 4f0e 2dbe 3692 47be
00000100: 2df0 033e 3c1f 05be a4a8 6fbd ee53 15be
00000110: 2fe1 80be d68f cfbc 0d63 97bd de83 1dbe
00000120: 502a 08be 5ecf c73c c017 7ebd 9cae 85bd
00000130: 3b04 4c3e b44b 1dbe 8dd3 10bb edc5 24be
00000140: e652 dd3e d78c 1abe 1057 22be 254f ffbe
00000150: 1aff 1cbe 98b3 c53d 5731 debc c083 4482
00000160: 7b20 c53c f8e1 11bc e59c d0bd 8d2d a5bd
00000170: 9e31 78be 1f1f cebd cdbc 153c ffe4 bdbd
00000180: 59fb a4be 8fd2 dbbd 8e6d 47bd 7080 b0bd
00000190: 78d3 f9bd a1b5 d3bc b500 32be c62c a2bd
000001a0: 8e14 f2bd 9330 3ebe c433 fd3c 936f f1bd
000001b0: ed80 f6af 4ac8 e03b 912a 11be 9fe8 a1bc
000001c0: ff22 32be 87f8 263e 56d1 c4bd 1827 20be
000001d0: 8fd6 93be fcc4 063e 977b 38bd 6cac 42bc
000001e0: 0ebd 82be 7b8a 45be b105 e6bd 545f 893d
000001f0: 168e ccbd 26b4 1dbd 94dd 4fbe 4143 4cbf
00000200: 1f88 393a 1ea6 f53b fa22 c33b ec09 6fbc
00000210: 68b1 943b 1676 b23b b479 9239 5943 17bb
00000220: 0d84 bbbc 18cb 6eba 6b1b 8581 0093 893c
00000230: 939a 1cbc 74a2 b03b 09a4 63bc 51c7 aebc
00000240: cc66 daba c3f7 8d3b b5d1 723b 941c 143c
00000250: 16ce 72bb 7f00 223b 5ca9 2cbb e274 943b
00000260: 49cf bdbb ec90 1cbc ec92 4b3c 3631 8f3b
00000270: c823 a93b d8f8 27b7 e4e8 cd3a 29b0 9f3a
00000280: 7e7e 333c 1c81 dd01 7ab7 50bc caf4 153b
00000290: b304 4abb 81b9 81ba 9596 e2bb 1531 8cba
000002a0: d6c1 c6bb 6fea 7b82 cee9 a0ba 3a81 81bc
000002b0: c3b1 1ebb 7a3b 6abb 9f29 29bc b824 1abc
000002c0: 562b 4bbb 800c a6bb 150f 3d3c 840f d33b
000002d0: b880 163b 6211 243b e1e9 9438 2187 e83c
000002e0: a8b4 6b3a 792b 583b 57d9 1d3c 194a c0ba
000002f0: 50b9 c3b9 4999 c83b 36b0 52bb ed5a a7ba
00000300: 4ed9 963a df2f 943a 5c75 9eba 4ff1 2cbc
00000310: de30 9d3b 2952 053c f09c eeba 22b3 6cbb
00000320: 3527 ccba ea20 9fba bae2 8abb 97f8 623c
00000330: a9de 31bc 2aa5 c6ba d8b4 f03a a6f8 79ba
00000340: 3679 c53b bb8c cbbb 865c e738 a5a3 8a3b
00000350: 0363 cfbb c1b1 3abb b890 d93a 091c 7802
00000360: 24e3 893b 36ce 23bc 0947 243c 1e78 c83a
00000370: 1a48 4a3b f14b a13a bd97 753b 4bdd ac3b
00000380: b56a d43b b3f0 0f3c 412d 23bb eaa7 743b
00000390: c10e b4bb a733 b5bb 6064 85bb fe4c 12bc
000003a0: 2eb1 cdbb fefc 9e3c 7dee 1c3c e0e6 783a
000003b0: 03c4 de82 d3b8 9ab8 c703 e6b9 a613 b23b
000003c0: a4aa 32bb 9dd0 84ba c2c1 5abb 432c 4abc
000003d0: 0c02 863b c2d2 debb 171b 293a 025c 27bb
000003e0: 8530 18bb 5815 c2ba 61db e2bb d3f2 4ebb
000003f0: f5d9 5abc a2d5 68bc cdba d83a d254 fb3a
-0.06156975 -0.038763843 -0.12411175 -0.01650336 -0.052347504 -0.11489342 0.008769123 -0.13760476
-0.2025916 0.024845004 -4.5300235e-38 -0.051703606 0.052406654 0.010629623 -0.04712361 -0.08783215
0.0647474 0.07738061 0.0017762007 -0.067032345 -0.09968473 -0.007152619 0.53422827 0.24142706
-0.057637434 -0.0712985 -0.06889738 0.1481789 -0.056871578 -0.103508115 1.0079097 -0.3334086
-0.095236875 1.7778783e-37 -0.06262216 0.17778327 -0.01498918 -0.10117673 0.22475165 -0.07869898
0.25380605 1.5688048e-37 -0.27604824 -0.14610516 -0.24850427 0.1167507 0.009797139 -0.0875247
-0.26826423 0.067666814 -0.048156317 -0.16945551 -0.08827554 0.052667085 -0.059699316 -0.041309047
0.0036678228 0.047478348 0.017395273 -0.20636378 -0.1628784 -0.19632143 -0.1689999 -0.19489369
0.12884589 -0.13000196 -0.058510438 -0.14582798 -0.251718 -0.025337141 -0.07391939 -0.15382335
-0.13297391 0.024390873 -0.06203437 -0.06527445 0.19923489 -0.1536091 -0.002209875 -0.16091128
0.4322731 -0.15092789 -0.15853524 -0.4986507 -0.15331689 0.096533954 -0.027123136 -1.4437616e-37
0.02406334 -0.008903973 -0.10186175 -0.08065329 -0.24237677 -0.1006453 0.009139252 -0.09272193
-0.32223013 -0.1073352 -0.048688464 -0.086182475 -0.121985376 -0.025843443 -0.17383082 -0.07918696
-0.11820327 -0.18573217 0.030908473 -0.11788859 -4.4838747e-10 0.006859814 -0.14176394 -0.019764243
-0.17396162 0.16305743 -0.0961024 -0.15639913 -0.28874633 0.13161081 -0.04503974 -0.011881929
-0.25534862 -0.19291107 -0.11231554 0.067076355 -0.09988038 -0.03850188 -0.20299369 -0.7979012
0.00070774736 0.0074966094 0.0059550973 -0.014589768 0.00453775 0.005446206 0.00027937966 -0.0023080914
-0.022890115 -0.0009109243 -4.8895827e-38 0.016793728 -0.009558338 0.0053904597 -0.0138940895 -0.021335276
-0.0016662716 0.004332514 0.0037051265 0.009040017 -0.0037049106 0.0024719534 -0.0026346063 0.004530535
-0.0057925326 -0.009556036 0.012425166 0.00436988 0.005161736 -1.0011914e-05 0.0015709666 0.0012183237
0.010955451 8.136784e-38 -0.012739057 0.0022881501 -0.0030825555 -0.0009897203 -0.0069149234 -0.001069578
-0.0060655875 -1.8507847e-37 -0.001227671 -0.01580869 -0.002421484 -0.0035741017 -0.010324865 -0.0094081685
-0.0031001172 -0.005067408 0.01153924 0.0064410586 0.0022964906 0.0025034775 7.100753e-05 0.028384747
0.00089914585 0.0032984896 0.009634337 -0.001467052 -0.00037331367 0.0061217886 -0.0032148487 -0.0012768187
0.0011508854 0.0011305771 -0.0012089419 -0.010555579 0.004797085 0.008137264 -0.001820473 -0.0036117514
-0.001557565 -0.0012140546 -0.0042384537 0.013853214 -0.010856309 -0.0015155424 0.0018364443 -0.00095356477
0.0060264124 -0.0062118447 0.00011032172 0.0042309337 -0.006328942 -0.0028487297 0.0016598916 1.8228208e-37
0.0042079855 -0.009997895 0.010026702 0.0015294587 0.003086573 0.0012305957 0.0037474476 0.0052754036
0.006482447 0.0087854145 -0.00248988 0.003733153 -0.005494923 -0.005529839 -0.0040708035 -0.008929489
-0.006277225 0.019407745 0.009578344 0.0009494852 -3.2732473e-37 -7.3777184e-05 -0.00043871833 0.005434471
-0.0027262354 -0.0010132972 -0.0033379649 -0.012339654 0.0040895995 -0.0068000266 0.0006450875 -0.0025537019
-0.002322228 -0.0014807386 -0.0069231247 -0.003157784 -0.013357629 -0.01421109 0.0016535163 0.0019175059

fc_logvar.bias f4 [12]
00000000: 96e7 78bd 6ded d33c 5546 12bc 8178 8d3c
00000010: e222 f2bc e2f9 b7bc 8176 01bc a170 cd3b
00000020: 1e51 4e3b e335 af3b b90d d23c 7f23 383b
-0.060767733 0.02587005 -0.008927901 0.017269375 -0.029557649 -0.02245802 -0.007901789 0.00626953
0.0031481455 0.005347 0.02564131 0.002809733

decoder.0.weight f4 [128, 57]
00000000: afdc 1d3c a3f2 18ba ef9b 453d ad00 a0bc
00000010: 39c9 913c 7b53 b1bc 12b9 d3bc e0a3 e23c
00000020: 766b 2d3d 5ee4 acbc fbd8 4d3b 52c9 35bd
00000030: 33af 63bd f4eb 293d 26ae 973b ed67 893d
00000040: 7ee7 e73d 33ca 53bd a9de c2bd a9a9 59bd
00000050: 101f 8dbd b103 143c 4988 bb3d 1576 24bd
00000060: 14e0 383d b093 db3d 2508 183c f87b 463d
00000070: 42b1 5dbd ad17 05bd bf1d ac3c 29b1 da3d
00000080: 9e15 76bd 367a 62bd 8285 a53c 7046 1e3e
00000090: 3481 d8bd 4954 40bd 7aad d63d 0477 4cbd
000000a0: ad8e 933d cbf2 26bd fe72 3abb 35f4 9abd
000000b0: 0cf5 cebd 33ab e3bc 47c8 a73d 008f 0dbd
000000c0: 08f6 c0bc 2a44 aa3c c7fd 7cbc 4e71 083c
000000d0: 83b2 553d 5b41 60bd c8fc 553d 503d 083d
000000e0: 65c9 fabc 632d 4c3d 1e30 003d fc68 cabc
000000f0: 9b5b 0a3d ba60 0f3d 2460 663d 1a9e 15bd
00000100: 73ee c2bb 63ec db3c a8a6 4f3d 80bc 9c3c
00000110: bd61 bbbc 1640 4a3c e4fc 943d 2756 713e
00000120: 1381 c53d 9138 febd 57ea 0b3d e6a8 aabd
00000130: 8570 6bbc 18fb 4c3d e8d6 4ebd f38d 80bd
00000140: 9448 c23c 4307 21be ed78 03be 977d 0ebd
00000150: d530 35bd fe93 1a3d c587 00bc d987 38bc
00000160: 5347 943c 2e69 073d 4d69 05bd b9ec 203d
00000170: d42b 053e db7b 91bc 68b7 c0ba d131 443d
00000180: 8f9e ff3d e934 123d 55fa 2f3d 39bb a439
00000190: f059 da3d 2713 153e 52ed 143e e277 49b9
000001a0: 7b12 3c3d 3f2b 0b3d 687e b339 7a8c c63b
000001b0: 65ce 40bc 3fb2 273d 4a34 133e b789 3f3d
000001c0: 492b 3c3d 9796 8abc 6542 44be 5493 6e3d
000001d0: 56c6 9ebc ff5b 353c fd72 183c e642 c93b
000001e0: 069d 403d 8591 a03c 750e b83c 913e 203c
000001f0: 0ca6 833c 1dd5 8bbb f61c a53c 9a0e b73c
00000200: 89d5 2ebe c05f 5bbd b6e3 73bd a535 1a3d
00000210: 7746 ab3d ae9d 1ebc e5ff 5bbd ec8f 7f3d
00000220: ea91 28bd 317a b3bd 8430 883d e008 b8bd
00000230: 3841 e03c cb57 bebd 7fe8 223d 6efa 0b3a
00000240: a9c8 37bd cffd 633d a67d 563d 23df 6e3d
00000250: 3a8f 983d a4b4 86bc abf9 61bd 189e b7bc
00000260: d91f 0f3e f355 c73d a704 1ebc 9476 b13c
00000270: f497 ebbb 2fdd 623b 90a7 ab3c 76a7 ec3d
00000280: efb8 e23c a9dc a2b8 f097 ebbb f4c0 313c
00000290: 84ad 5d3c 44ec a03d 676e 013e cfa4 c6bc
000002a0: 90b0 bf3d 2f03 533c 7d8b 173c c09e 16be
000002b0: c1d4 813b d123 68bc 8c67 463d 0ec7 a53c
000002c0: a69b 0e3d 9620 c6bc b373 60bc 1077 5dbc
000002d0: 7f86 783c fb97 6f3c f956 a73c 7b67 4cbd
000002e0: 2b80 b1bd fc63 89be 985a e33d 67c0 b53c
000002f0: b230 253c a48d c3bd d9e7 c7bd 9460 b73d
00000300: 2b39 4dbd 3b6a 0abb 8fb1 f2bd 24bb 6dbd
00000310: 2b12 b23d d3ac 153c fab4 bfbd b114 f03c
00000320: cf74 0e3e 9263 11bd fb27 28bd 6bb4 6a3d
00000330: 8693 67bc 5066 c7bb 2689 b2bc 5b0d 893d
00000340: 8625 b3bc 74e1 abbc c940 38bd 4a6b c13c
00000350: b99c 2f3d 2719 01bd a699 33bd c227 44bd
00000360: 905b 423d 229e c33d 8ebb e9bb 7bcd 543d
00000370: 4379 6dbd 8ba2 4b3b 9c5e 4e3d 59fd cf3d
00000380: 50cd 123e 31a9 27bd b689 a7bc 43d6 8bbd
00000390: c8d8 c43d f2a5 69bc 985c 083a 9239 cbbb
000003a0: 6833 3c3d 6d2f d73c 8d8f 90bd 99b2 073d
000003b0: 10a2 093c f860 29bd f14f 203d 0fbd 3b3d
000003c0: d252 9e3d 5821 06bd 21d9 ed3d ebb2 253c
000003d0: f354 db3d 7053 e43d bbc8 183d dc76 ca3c
000003e0: 9639 a53c 76ad 683d 15a7 12bd da47 543d
000003f0: f236 08be d0fe fd3c 8b1f 423d 16ac 9abc
0.009635135 -0.00058344955 0.048244413 -0.019531572 0.017796146 -0.021646252 -0.025845084 0.027666032
0.04233881 -0.021104988 0.0031409848 -0.044381447 -0.055587005 0.041484788 0.0046289144 0.067092754
0.113234505 -0.051706504 -0.09515125 -0.053140316 -0.0689069 0.009034083 0.09156854 -0.040151674
0.045135573 0.107215285 0.009279286 0.04845807 -0.054124124 -0.032493282 0.021010278 0.10678322
-0.06007921 -0.05529233 0.020205263 0.15456557 -0.105715185 -0.04695538 0.10482307 -0.04991819
0.072049476 -0.04075889 -0.0028449888 -0.0756611 -0.10105333 -0.027791595 0.08192497 -0.034560204
-0.023554817 0.020784456 -0.015441365 0.008327795 0.052172195 -0.054749828 0.052243024 0.033261597
-0.03061361 0.04984797 0.031295888 -0.024708264 0.033778768 0.035004355 0.05624403 -0.03652773
-0.0059488355 0.026846116 0.050696045 0.019132853 -0.022873754 0.012344381 0.072747976 0.23568021
0.096437596 -0.12413133 0.03415903 -0.08332996 -0.014370088 0.05004415 -0.05049792 -0.06277075
0.023716249 -0.15725426 -0.12839098 -0.03478774 -0.044236023 0.037738793 -0.00784487 -0.011262857
0.018100416 0.03305929 -0.032571126 0.039288256 0.13005 -0.017759254 -0.0014703097 0.04789907
0.124814145 0.03569499 0.042963345 0.0003142001 0.106616855 0.14558087 0.14543656 -0.00019213514
0.04591606 0.03397679 0.0003423572 0.0060592266 -0.011767958 0.040941473 0.14375415 0.046762194
0.045939717 -0.01691751 -0.19165953 0.05824597 -0.019381683 0.011069297 0.009304759 0.006142008
0.04702475 0.01960064 0.022467831 0.009780542 0.016070388 -0.0042673484 0.020155411 0.02234583
-0.17073645 -0.05355811 -0.059543334 0.037648816 0.083630495 -0.009681148 -0.053710837 0.062393114
-0.04115478 -0.087635405 0.066498786 -0.08986068 0.027374849 -0.09294089 0.039772507 0.0005339746
-0.0448691 0.055661973 0.05236592 0.05831827 0.07449193 -0.016443558 -0.055169743 -0.022414252
0.13976993 0.097331904 -0.009644664 0.021662988 -0.007189745 0.00346167 0.020953923 0.11555378
0.027676074 -7.765863e-05 -0.007189743 0.010849226 0.013530139 0.07857564 0.12639771 -0.024248509
0.093598485 0.012879177 0.009249565 -0.14708996 0.00396213 -0.014168696 0.048438594 0.020236518
0.034816407 -0.02418546 -0.01369946 -0.013517156 0.015168785 0.014623637 0.020427214 -0.049903374
-0.08667024 -0.26834095 0.11101264 0.022186471 0.010082411 -0.095485 -0.09761018 0.08953968
-0.050103348 -0.0021120447 -0.11850273 -0.0580398 0.086948715 0.009135443 -0.093606904 0.029306741
0.13911746 -0.03549535 -0.041053753 0.057300966 -0.014134293 -0.0060851946 -0.021793913 0.066920005
-0.021868479 -0.020981528 -0.04498366 0.02361073 0.04287407 -0.031518128 -0.043847702 -0.04788948
0.047450602 0.09551646 -0.007132954 0.051953774 -0.057976972 0.0031072225 0.050383195 0.10155744
0.14336133 -0.040932838 -0.020451408 -0.068279766 0.0961166 -0.014260756 0.0005201786 -0.0062019313
0.045947462 0.026267732 -0.0705863 0.03312931 0.008400455 -0.041352242 0.039138738 0.045834597
0.077306405 -0.032746643 0.1161368 0.010113458 0.10709562 0.11148727 0.037300806 0.02471488
0.02016906 0.05680605 -0.035803873 0.051826335 -0.1330221 0.031005293 0.047393363 -0.018880885

decoder.0.bias f4 [128]
00000000: 7839 61bc 2b99 403e 1697 b23d b5bd a9bd
00000010: 430e 013e a694 e73d 413d f4bd 2bad 2d3d
00000020: 3f84 da3d 6166 2b3c c929 8d3d 720a 083d
00000030: ccba 183e 6505 a3bd ae10 4cbc a208 093d
00000040: ee07 103e 1cad ddbb 5be9 a13d 57b7 4a3d
00000050: 194d 623d ba88 12be 2db3 913c 5d82 13bd
00000060: 0f15 bc3b a9f2 9d3d 828d 083e 5896 8c3d
00000070: 6a27 ddbd 2c6f d73d ba4f acbc cba3 efbc
00000080: d6f8 eb3c 2f28 193e 82d1 a5bd 1632 e5bc
00000090: 74a3 43bd f49e f43d 8316 553c b189 8d3d
000000a0: b18a 2dbd 2cb7 a7bd c8fb e63d 0a3c 36be
000000b0: 9318 353e 6342 23bd de75 e73c 7947 dd3c
000000c0: fa6c 0f3e 2880 063d 3302 83bc cd69 d8bd
000000d0: 98b1 95bd 507c b3bc 667a f53c 50c5 c33d
000000e0: 968b 933d 386e 2abd 7efb 8ebd d500 183d
000000f0: 45f5 a93d 9416 173d 9975 6abc 3626 d53d
00000100: 666a f63d 7b69 0dbd 98d6 60bd d6a7 603d
00000110: 1ba8 29bd 40a7 dfbc 9821 b03d 306e 56bd
00000120: 9c62 f63d 48fa 1ebd 588a ce3d 62fa cabd
00000130: 6104 7f3c 4724 54bd ab36 f7bd ba3f 43bd
00000140: 64e5 293e a03e 82bd cf76 7e3c 4f92 44bd
00000150: 7197 3a3d 0920 5abd e48b a0bd 67ec 5b3e
00000160: 0c3f c73d ac93 49bd 3229 3c3e 1b77 f63c
00000170: 19b2 fc3c e4f6 06bd e187 a93d dd12 153d
00000180: 6e2a 1e3e abf1 b9bd 11b5 a03d b983 4ebd
00000190: 4b7a 3fbd aa80 a33c 5785 79bd 6a67 ee3c
000001a0: 3555 5b3e 6bc4 97bd b9be e33c 00e1 873d
000001b0: d980 913d 7a80 a3bd f424 943d b340 bf3d
000001c0: 0f15 28bd 4291 35bc a897 4b3e 040a b93c
000001d0: 3294 da3d 987e 26ba de71 85bd 9926 903d
000001e0: 1835 f13d 0a35 923c 6acc 88bd 6f1f b13a
000001f0: 667a 7c3d ae46 403e 8497 13be d192 72bd
-0.013746612 0.18808429 0.087202236 -0.08288137 0.12603097 0.11307649 -0.11925746 0.042401474
0.10669755 0.010461421 0.068927355 0.033213086 0.14915007 -0.07960013 -0.012455149 0.0334555
0.14065525 -0.006765021 0.07905837 0.049491253 0.055249307 -0.1430997 0.017785633 -0.036012996
0.005739815 0.077122994 0.13335231 0.06864613 -0.10798533 0.10519251 -0.02103411 -0.029252907
0.028805178 0.14956735 -0.08096601 -0.027977984 -0.047763303 0.119443804 0.0130058555 0.06911028
-0.042368595 -0.08189234 0.11278492 -0.1779634 0.17685156 -0.039858233 0.028254446 0.02701162
0.14006415 0.032837063 -0.01599226 -0.10567055 -0.07309264 -0.021909863 0.02996559 0.09559119
0.07204358 -0.04160902 -0.06981562 0.03711017 0.082987346 0.036886767 -0.014310264 0.10407679
0.12032013 -0.034524422 -0.054892153 0.05484756 -0.041420083 -0.02730143 0.086001575 -0.052351177
0.12030527 -0.038812906 0.10084981 -0.09911038 0.015565009 -0.05179241 -0.12070974 -0.047668196
0.16591412 -0.06359601 0.015531256 -0.047991093 0.045554582 -0.053253207 -0.07839182 0.21476899
0.09728822 -0.049213096 0.1837509 0.03008609 0.030846642 -0.032950297 0.0827787 0.036394943
0.15445873 -0.09079298 0.07847036 -0.05041859 -0.046747487 0.019958813 -0.06091818 0.029102046
0.21419223 -0.07410511 0.027800905 0.06634712 0.07104654 -0.07983489 0.07233611 0.09338512
-0.041035708 -0.011081995 0.19882071 0.022587784 0.10672797 -0.00063512614 -0.06515859 0.07038612
0.11777705 0.017847557 -0.06679614 0.0013513396 0.061640166 0.18776962 -0.14413267 -0.059222046

decoder.2.weight f4 [128, 128]
00000000: a8b1 5cbc 9573 913d 3a6a 30bd 26ba 1b3d
00000010: 6d59 c7bb 3463 143d 4e79 74bb b34b 06bd
00000020: 0c28 69bd 3a31 193c 3423 303d b30a 68bd
00000030: 6d4a 16bc ff7e 64bd d285 2ebd f7f2 823b
00000040: da23 f03c a4a0 a7bd 5959 85bd e196 8e3d
00000050: adbd 583c 6b5c debc 9d54 d23c 9d2d 7a3d
00000060: e8ec e33c 451d acbd 57f4 8a3d 109b 843c
00000070: ed39 d4bc d2ea 20bd 3141 fabb 9f6f 923c
00000080: fde5 c9bc be18 45bd c4d1 8bbc 418c a83d
00000090: c3dd e63c 4df7 83bc f526 633d fd28 8e3d
000000a0: 3e31 3c3d 5db9 023d 3a3f 543d 8096 31bd
000000b0: d5c7 513d dabe 803d d5a0 bb3d 4b23 96bd
000000c0: c8ef 2f3d c1fd 053c 79f7 2d3d 7892 d43b
000000d0: bcb7 d33b d9bb cd3c 93c7 b03d c0b5 b53d
000000e0: 55da 113d ab91 673d 661f b43c c9a8 9e3d
000000f0: fd3f ad3c ebe0 393c 90e3 493c 1221 363d
00000100: 0127 5c3d 09b3 5dbd 296e 8a3c 8b9d 49bd
00000110: fe92 083d d64a 1abd f5f5 fdbc 2b6b 2dbd
00000120: 2678 2b3d 591c 8cbc dfc7 adbb fb9f e63c
00000130: d3e9 303d 6949 31bd 2182 f93c 316b 38bd
00000140: 4e3d a43c e95a 1bbd bd27 843c 15af bb3d
00000150: a59b c53b 67bd e23b 4f09 6abc 0a00 923d
00000160: fc0b a0bc 2036 09bd cd6c 9c3d aca5 e43a
00000170: 35f9 503c 0133 533d bcf6 3abd 5dd4 83bd
00000180: c0cf 243d 488f 713c 4ea9 5f3b e084 81bd
00000190: aa92 80bc 0fe9 be3d 5a82 4cbd 284a 413d
000001a0: 53fc e8bc 3f78 cdbc aac5 fcbb beb7 c0bb
000001b0: 31e0 813c 5010 b5bd e869 80bd c3e6 3cbc
000001c0: bfd8 473b 84bf 3ebd ba91 843d b9cf 5bbd
000001d0: 64ee 75bd 3e94 b9bc c1ec 27bd c975 523d
000001e0: 0a32 98bd 07c3 5abb 11c4 99bd 7db4 aebc
000001f0: a7da bf3d 4ac1 c7bc 5662 f2ba 520b 243d
00000200: 0f6c b4b9 5670 2e3a 26b9 8ab9 4744 c837
00000210: dbef 08bb 1650 96b8 c5d4 0536 a884 14b6
00000220: aa65 5fb6 e8a1 b0b1 5557 c5b8 9fe6 abba
00000230: f432 b3ba 8046 84b7 30da 1fba 5f0e f5b8
00000240: 5461 9cb9 c295 3db8 7a33 95b9 2889 553a
00000250: 5db3 fc37 2ec0 8bb3 87c4 e2b4 4307 f4b6
00000260: f9d5 93ba 9e3e 0bb8 9651 83b7 4096 b634
00000270: 9595 0035 8bc4 60b6 191d 5739 1c79 10b9
00000280: aeeb 23b8 6ddb c7ba 1b09 b0b6 0905 95b9
00000290: 5ce3 8eba 52d1 fab8 b38f 9aba 15f1 93b6
000002a0: 2fb9 8fb4 f933 beb7 f5eb 68b8 5eef abb4
000002b0: 7fb2 7fb9 3b01 1e37 02b0 01b8 6a45 c7b8
000002c0: 2e47 cab9 4b4c 80b7 b388 1fb9 189c 51b8
000002d0: 4581 07b9 4a49 22b1 3f4c 45b9 4d08 1cbb
000002e0: 8277 36b5 f518 38ba b730 a7b5 4d8d b2b9
000002f0: 2abd 88ba 502c ab38 e4c5 3f37 7b62 15ba
00000300: 039b e9b8 4d73 8d37 2a68 67b2 0e55 9db6
00000310: c0fb 43b8 aeb9 94b7 76e3 a3b9 9a0e 8535
00000320: bbeb 93b9 b9b5 a834 8f36 0fb6 bbf5 1c35
00000330: 5d11 e9b9 4de5 d3b4 ffe8 81b7 2def 0ab9
00000340: d43d 85ba 57c3 28b9 e782 7f39 9969 3fb6
00000350: 709f 5eb8 729a bfb9 2e38 4137 a30f 24bb
00000360: 8aa6 f6b9 d2b9 a3ba 9519 acbb f250 9f3a
00000370: e860 beb2 dfb0 7036 4a2d 4fba 44e1 56ba
00000380: 5935 a2ba 27f2 f736 7d14 2135 2b89 9db7
00000390: 7e6f 93b5 c819 83b8 8df0 03b9 fe93 9eb7
000003a0: 8e1c 37bb b6b7 14b3 2b39 b5b6 32bd 0137
000003b0: f985 81b6 9bf0 00b8 f3db 11ba 4c63 01b9
000003c0: 5f83 79b9 a047 e5b6 3f8c f539 80ec 46ba
000003d0: 1572 b6b8 aa27 b0b5 9b6b c9b9 67dc 88b9
000003e0: 2cea ebb7 16ac 7db7 7513 12b9 a14a 1fb7
000003f0: 5b25 1ab8 405d 9c3a cf21 2db1 7d41 3cba
-0.013470091 0.07102124 -0.043070056 0.03801932 -0.0060836584 0.03622742 -0.0037303749 -0.032787036
-0.056922957 0.009350115 0.043002322 -0.05665083 -0.009173018 -0.055785175 -0.04260809 0.003996249
0.02931397 -0.08184937 -0.06511182 0.069623716 0.013228816 -0.027143678 0.025675112 0.061078656
0.027822927 -0.0840402 0.067848854 0.01618722 -0.025906527 -0.039286442 -0.007637166 0.01787549
-0.0246458 -0.0481193 -0.017067797 0.08229876 0.028181916 -0.016109133 0.055457074 0.06941412
0.0459454 0.031915057 0.05181811 -0.04335642 0.051215965 0.06286402 0.09161536 -0.0733095
0.042953283 0.008178175 0.042472336 0.006487187 0.006461112 0.025113987 0.08631816 0.08872557
0.03560861 0.056535404 0.021987628 0.07747037 0.021148676 0.0113451285 0.0123223215 0.044465132
0.053748135 -0.05412582 0.016898232 -0.04922251 0.033343308 -0.037669025 -0.03100107 -0.04233853
0.04186263 -0.017103361 -0.0053033675 0.028152457 0.043191742 -0.0432829 0.030457558 -0.0450241
0.020048764 -0.037928496 0.01613223 0.091642536 0.006030517 0.006919551 -0.014284446 0.07128914
-0.019536965 -0.033498883 0.076379396 0.0017444394 0.012754728 0.051562313 -0.04564546 -0.064369895
0.04023719 0.014743634 0.0034128013 -0.06324172 -0.015694935 0.09321796 -0.049929 0.04718986
-0.02844063 -0.025081752 -0.007713993 -0.005881279 0.015853973 -0.08841002 -0.062702 -0.011529627
0.003049418 -0.046569362 0.06473108 -0.053664897 -0.0600418 -0.022653695 -0.04099727 0.05138186
-0.07431419 -0.0033380406 -0.075081 -0.021326298 0.093678765 -0.02438416 -0.0018492441 0.04004986
-0.00034412785 0.00066543126 -0.00026459357 2.3873652e-05 -0.0020894918 -7.1674745e-05 1.9942393e-06 -2.2130935e-06
-3.3288766e-06 -5.1406808e-09 -9.409959e-05 -0.0013114995 -0.0013671801 -1.5768455e-05 -0.0006097881 -0.00011685187
-0.00029827154 -4.5200584e-05 -0.00028457848 0.0008145743 3.0124264e-05 -6.507649e-08 -4.2238773e-07 -7.272612e-06
-0.0011278979 -3.31985e-05 -1.5654408e-05 3.4009463e-07 4.7901386e-07 -3.3493004e-06 0.00020514838 -0.00013778027
-3.9081722e-05 -0.0015247889 -5.2462688e-06 -0.00028423246 -0.0010901499 -0.00011959918 -0.0011792093 -4.409007e-06
-2.6770564e-07 -2.2673967e-05 -5.5532862e-05 -3.2025395e-07 -0.0002438519 9.41782e-06 -3.0919917e-05 -9.501989e-05
-0.00038581475 -1.5294316e-05 -0.00015214346 -4.9974857e-05 -0.0001292276 -2.3615763e-09 -0.00018815788 -0.0023808659
-6.797419e-07 -0.0007022762 -1.2456647e-06 -0.00034056083 -0.0010432352 8.162169e-05 1.1430562e-05 -0.00056985737
-0.00011139179 1.6862201e-05 -1.3469654e-08 -4.6888663e-06 -4.6726083e-05 -1.7729439e-05 -0.00031259254 9.913522e-07
-0.00028213658 3.142466e-07 -2.1340418e-06 5.8472114e-07 -0.0004445416 -3.946865e-07 -1.5486496e-05 -0.00013249805
-0.0010165521 -0.00016094498 0.0002436746 -2.8522684e-06 -5.3077412e-05 -0.0003654543 1.1516777e-05 -0.0025033734
-0.00047044858 -0.0012491292 -0.005252073 0.0012154861 -2.2162979e-08 3.586574e-06 -0.0007903172 -0.00081970193
-0.0012375518 7.389364e-06 6.000699e-07 -1.8779732e-05 -1.0984802e-06 -6.251369e-05 -0.00012582746 -1.8903982e-05
-0.0027940604 -3.462602e-08 -5.4008756e-06 7.73305e-06 -3.860096e-06 -3.074166e-05 -0.0005564086 -0.0001233939
-0.0002379543 -6.83307e-06 0.00046834533 -0.0007588342 -8.699686e-05 -1.3124566e-06 -0.0003841788 -0.00026104154
-2.8123228e-05 -1.5120042e-05 -0.00013930893 -9.494514e-06 -3.675125e-05 0.0011929646 -2.5194031e-09 -0.00071813894
