models/cvae_L4_H64_B0.500_LR1e-03.pt (torch, 75573 bytes, 13 tensors)

encoder.0.weight f4 [64, 46]
0	0x3dfb472a	0.12269433
1	0x3c407e43	0.011748853
2	0xbc39140f	-0.011296286
3	0xbef50512	-0.4785543
4	0x3c90e883	0.017688995
5	0x3de662cc	0.11249313
6	0xbda3c19a	-0.07995911
7	0xbbd8f1a9	-0.006620605
8	0xbd95fcd8	-0.07323617
9	0x3d0b4f0d	0.034010936
10	0xbd8514e0	-0.06498122
11	0x3c8ce85b	0.01720064
12	0xbd8688df	-0.06569075
13	0x3db2e4e1	0.087350614
14	0x3cdc6288	0.026902452
15	0xbd2317cc	-0.039817616
16	0x3cee760b	0.029109022
17	0x3b20a136	0.0024510152
18	0xbc04c227	-0.00810293
19	0x3da8e8a9	0.082475014
20	0x3cc7f493	0.024408614
21	0x3e031461	0.12800743
22	0x3c42e40d	0.011895192
23	0xbdca3799	-0.09873886
24	0x3d208fad	0.03919952
25	0xbcb8fe15	-0.022582093
26	0x3c6270c7	0.0138208335
27	0x3ddfdc9b	0.10930749
28	0xbd005ab2	-0.031336494
29	0x3d629c4d	0.05532484
30	0xbcb75db2	-0.022383545
31	0x3d339da5	0.043851513
32	0xbd801970	-0.06254852
33	0x3d74f528	0.05980411
34	0xbdbb9a8f	-0.09160339
35	0x3d8589ab	0.06520399
36	0x3d2ae4fb	0.04172228
37	0x3da6555e	0.08121751
38	0x3d975967	0.07390099
39	0xbc841a64	-0.016125865
40	0x3c1472e8	0.009060599
41	0xbc5bbbde	-0.01341149
42	0xbd0cf66c	-0.034414694
43	0xbc4b43d5	-0.012406309
44	0x3dfc5ada	0.12322016
45	0xbdc737e2	-0.09727456
46	0x3dfc08df	0.123063795
47	0x3c922447	0.017839564
48	0xbc77fc23	-0.015135798
49	0xbece2123	-0.40259656
50	0x3ce552e3	0.027993625
51	0xbcf5a053	-0.029983675
52	0x3db1ec6a	0.086876705
53	0xbd9c6711	-0.07636846
54	0x3db66e36	0.0890774
55	0xbc1d85fd	-0.009614465
56	0x3d5b84a3	0.05359329
57	0xbd66c361	-0.05633867
58	0xbe01c406	-0.12672433
59	0xbda59773	-0.08085527
60	0x3d75d498	0.0600172
61	0x398dca92	0.00027044542
62	0x3b79add8	0.0038098004
63	0x3b9799bd	0.0046264813
64	0x3c8ac4ab	0.016939482
65	0xbd48c91d	-0.04901992
66	0x3c1d70dc	0.009609427
67	0x3cf741e8	0.030182794
68	0x3d3a9661	0.04555357
69	0xbc83762b	-0.016047558
70	0x3cb8ebb1	0.022573324
71	0xbd182c53	-0.037151646
72	0xbda1b3d3	-0.07895627
73	0x3da25e97	0.07928198
74	0x3d833e2b	0.06408342
75	0x3d3f37e6	0.04668417
76	0xbd2bd994	-0.041955546
77	0x3e0160d8	0.12634599
78	0x3e04aab5	0.12955745
79	0xbd9dc876	-0.077042505
80	0xbcf6a3d6	-0.03010742
81	0x3ca76705	0.020434866
82	0x818d6d9c	-5.19525e-38
83	0x3e048663	0.1294189
84	0xbc845a47	-0.016156329
85	0xbdaeb650	-0.08530867
86	0xbc8f61c5	-0.017502675
87	0x3d13f144	0.03611876
88	0x3cdbba2b	0.02682217
89	0x3dbc6321	0.09198595
90	0xbcde0414	-0.027101554
91	0xbc9183a1	-0.01776296
92	0xbeaeb6ba	-0.34123784
93	0x3d2d46b7	0.042303767
94	0xbd352823	-0.04422773
95	0x3dd2328a	0.10263546
96	0xbb84f4d3	-0.0040575056
97	0x3b91a6eb	0.004444947
98	0x3d14e506	0.036351226
99	0xbd843a44	-0.06456426
100	0x3d50ce7d	0.050978173
101	0x3d4596d3	0.04823954
102	0xbd762dd5	-0.060102303
103	0xbc0ce27b	-0.008598919
104	0x3d1d6ed4	0.038435772
105	0x3d098692	0.033575602
106	0xbd71ba6c	-0.059015676
107	0xbcf514aa	-0.02991708
108	0x3b81bbfe	0.003959178
109	0x3ca07ef2	0.019591782
110	0x3d952933	0.07283249
111	0xbb92c95c	-0.0044795703
112	0xbd96c753	-0.07362237
113	0xbe20e6c0	-0.15713024
114	0x3d7c2913	0.06156261
115	0x3de7a59c	0.11310884
116	0x3e04a806	0.12954721
117	0x3df251b1	0.11831988
118	0x3d4d6e60	0.05015409
119	0xbd313d34	-0.04327126
120	0xbdd6b061	-0.1048286
121	0x3e1ab76d	0.15109034
122	0xbcd1d3d1	-0.025613697
123	0x3d85673d	0.06513832
124	0xbc53ee53	-0.012935239
125	0x3cdc78eb	0.026913127
126	0xbd0a0e14	-0.033704832
127	0xbb48045b	-0.0030520174
128	0x3d23e4b3	0.040013026
129	0xbbcce3e1	-0.006252751
130	0x3c845ca6	0.01615746
131	0x3d8ff887	0.07029825
132	0x3dd2c675	0.10291759
133	0xbd7ab659	-0.061209057
134	0x3d3ec3ec	0.046573564
135	0x3db239aa	0.08702405
136	0x3e15754d	0.14595528
137	0x3e01acc2	0.12663558
138	0xbe634171	-0.22192933
139	0x3c17d062	0.009265991
140	0x3c3ee11c	0.01165035
141	0x3daeda0e	0.085376844
142	0xbbd7a6fd	-0.006581186
143	0xbc33d704	-0.010976557
144	0xbc1e2eeb	-0.009654741
145	0xbcee14d5	-0.029062668
146	0x3e23618a	0.15955177
147	0xbd1641c6	-0.03668382
148	0x3da65594	0.081217915
149	0xbc561aa6	-0.013067877
150	0x3db024fc	0.08600804
151	0x3cd4376a	0.02590533
152	0x3d28e5eb	0.04123489
153	0x3cffadf7	0.031210883
154	0x3d63b207	0.055589702
155	0xbc945b6e	-0.018110003
156	0x3d8a0533	0.06739273
157	0xbd785cd3	-0.0606354
158	0x3cabbb19	0.020963239
159	0xbd591283	-0.05299617
160	0x3e1ee224	0.15515953
161	0xbc9105b8	-0.017702922
162	0x3de59575	0.11210147
163	0x3d455e68	0.048185736
164	0x3e7c2fb7	0.24627577
165	0x3db6e447	0.08930259
166	0x3bee9230	0.0072806105
167	0xbde1abf9	-0.11019129
168	0x3d12d0aa	0.03584353
169	0xbdd8f330	-0.10593259
170	0x3e234398	0.15943754
171	0x3dfe36b9	0.12412781
172	0x3d9343aa	0.0719064
173	0x3da80dd7	0.08205765
174	0x3d1a526f	0.03767627
175	0x3cdf39af	0.027249185
176	0x3db568e6	0.088578984
177	0xbbc7b375	-0.006094391
178	0x3ded9c71	0.116021045
179	0x3e02e736	0.12783512
180	0x3e1e62af	0.15467332
181	0x3e2536a1	0.1613412
182	0x3d9432f7	0.07236283
183	0x3da907ce	0.08253442
184	0xbd22a515	-0.039708216
185	0xbdb5d3f0	-0.088783145
186	0xbd9afafc	-0.07567403
187	0xbd7c6569	-0.06162015
188	0xbc40419f	-0.011734395
189	0xbc753946	-0.014967268
190	0x3c32d690	0.0109154135
191	0xbcde8944	-0.027165063
192	0xbddb32f8	-0.10703081
193	0x3dfad23c	0.1224713
194	0xbd2ae122	-0.04171861
195	0x3d5105f7	0.05103108
196	0xbd2f5791	-0.04280812
197	0x3c54bdc5	0.012984698
198	0x3daba601	0.08381272
199	0x3c9d8da1	0.019232573
200	0xbc01e26d	-0.007927519
201	0x3c9f92cb	0.019479176
202	0xbd04f665	-0.032461543
203	0xbda253bb	-0.079261266
204	0x3b1c6f4a	0.0023870044
205	0xbd53910f	-0.05165201
206	0x3d78fbf8	0.06078717
207	0x3c5008fc	0.012697455
208	0x3e5c9df7	0.21544634
209	0xbdf98f2a	-0.121855095
210	0xbed9f82a	-0.42572147
211	0x3e44231c	0.19154018
212	0xbc9858ac	-0.01859697
213	0x3dd9c0ab	0.106324516
214	0xbd8cfbb2	-0.068839446
215	0x3d8fdcb5	0.070245184
216	0xbd77a359	-0.060458515
217	0x3de438f5	0.11143676
218	0xbce79c56	-0.028272789
219	0xbd1f6b2b	-0.038920563
220	0xbd4e2285	-0.05032589
221	0x3dccb343	0.09995129
222	0x3d2b0601	0.041753773
223	0x3d79347f	0.06084108
224	0x3e04e726	0.12978801
225	0xbdfc202d	-0.123108245
226	0x3cd25e6e	0.025679793
227	0xbb932f50	-0.004491724
228	0x3d58f7ae	0.05297058
229	0xb9cdd4c0	-0.00039259158
230	0x3e81eaf2	0.25374562
231	0x3dff99ff	0.12480544
232	0xbdd32050	-0.103088975
233	0x3dce9a56	0.10088031
234	0xbe1d9eff	-0.15392683
235	0x3d43957b	0.047749978
236	0xbd16d9db	-0.036828857
237	0x3c668058	0.0140686855
238	0x3bb4c2c3	0.0055163815
239	0x3cf32415	0.029680291
240	0x3b83c344	0.00402108
241	0xbdb3213e	-0.08746575
242	0xbda98298	-0.08276862
243	0xbd89ac5c	-0.06722328
244	0x3999140b	0.00029197367
245	0xbc887aeb	-0.016660174
246	0xbd7b0b20	-0.061289907
247	0xbcd8daad	-0.02647146
248	0xbce7e1e4	-0.028305955
249	0x3d3d1a9c	0.046167955
250	0x3d79c51c	0.060978994
251	0xbe07221d	-0.13196607
252	0xbd86528d	-0.06558714
253	0x3d87afdc	0.066253394
254	0xbd8b13ae	-0.06790863
255	0xbd536f73	-0.051619958

encoder.0.bias f4 [64]
0	0xbc983579	-0.018580185
1	0xbe133832	-0.14376906
2	0xbde01e01	-0.10943223
3	0x3e1c9c48	0.15293992
4	0x3e08a64a	0.13344684
5	0xbc1f3c30	-0.00971894
6	0xbd62fa9c	-0.05541478
7	0x3a6dad5a	0.0009066664
8	0x3e5dfc36	0.21678242
9	0xbd167428	-0.03673187
10	0x3c0e3d3f	0.008681594
11	0xbd959aca	-0.07304914
12	0x3dcb3e0a	0.099239424
13	0x3e299b3a	0.1656312
14	0xbd7375e9	-0.05943862
15	0x3e139399	0.14411773
16	0x3dcc4b5c	0.09975311
17	0x3e0bc2b5	0.13648494
18	0xbd51f4b0	-0.051258743
19	0xbc7b0117	-0.015320084
20	0xbac4764d	-0.001498887
21	0x3dd67d71	0.10473145
22	0x3d97da8c	0.074147314
23	0x3d8df199	0.06930847
24	0x3d07f1bf	0.03318953
25	0xbd5592e3	-0.052142035
26	0xbe0f3129	-0.13983597
27	0xbd94c204	-0.07263568
28	0xbd7cbe73	-0.061705064
29	0x3e04ef8d	0.12982006
30	0x3e3d8df0	0.18511176
31	0x3d9f7633	0.077862166
32	0x3e5a842c	0.21339482
33	0x3d930aba	0.0717978
34	0x3b8a9054	0.004228631
35	0xbdc4c8e5	-0.0960863
36	0x3e4624d9	0.19349994
37	0x3e468b9f	0.19389199
38	0x3d2b99ae	0.041894607
39	0xbd09098e	-0.033456378
40	0xbe1bde83	-0.152216
41	0x3d1e494d	0.038644124
42	0xbdd895d5	-0.10575453
43	0x3c957322	0.018243376
44	0x3b5c166b	0.0033582698
45	0xbcec0224	-0.028809614
46	0x3d8e67b1	0.06953371
47	0x3dd3c392	0.103400365
48	0x3d90856b	0.070566975
49	0x3d9e611c	0.07733366
50	0xbbe64ea2	-0.0070284167
51	0xbdc66f65	-0.096892156
52	0xbe1a7c68	-0.1508652
53	0x3e12ea6f	0.14347242
54	0x3da3c893	0.07997241
55	0x3e41937b	0.18903916
56	0xbba112cb	-0.0049155704
57	0x3d95a870	0.073075175
58	0xbddc37cc	-0.1075283
59	0x3be47030	0.0069713816
60	0xbc5d1f2c	-0.0134962015
61	0x3e4ecbf7	0.20194994
62	0x3cb8778b	0.02251794
63	0x3dc82ba8	0.09773952

encoder.2.weight f4 [64, 64]
0	0xbd0307c1	-0.031989817
1	0xbdadbff0	-0.08483875
2	0xba0c2f11	-0.00053475896
3	0x3d6adf2d	0.057341743
4	0x3cfb4ba9	0.030675726
5	0xbd738cf6	-0.059460603
6	0xbc93e499	-0.01805334
7	0xbc518224	-0.012787376
8	0x3dd6bb0e	0.104848966
9	0xbc01e034	-0.007926989
10	0x3cb36188	0.021897092
11	0x3b7aa6ec	0.0038246466
12	0xbdaa16df	-0.083051436
13	0x3dc1e78b	0.094679914
14	0xbd27a9fa	-0.040933587
15	0x3de236dc	0.1104562
16	0x3cf27925	0.029598782
17	0xbc5ce501	-0.013482333
18	0xbdb191bd	-0.086703755
19	0xbd19a02f	-0.03750628
20	0x3cb0058d	0.021487022
21	0x3d772651	0.060339276
22	0x3d041256	0.03224405
23	0xbc40388a	-0.01173223
24	0x3d40ba3b	0.047052603
25	0x3d8d2511	0.068918355
26	0xbd8e9394	-0.06961742
27	0x3b97e7bc	0.004635779
28	0xbe00239a	-0.12513581
29	0xbd5d234a	-0.053988732
30	0xbdba6219	-0.09100742
31	0xbd917f58	-0.07104367
32	0x3dd6050b	0.104501806
33	0x3d08bb6f	0.033381876
34	0xbcb86182	-0.022507433
35	0xbdb138ab	-0.08653387
36	0xbe33b197	-0.17548214
37	0xbe042188	-0.12903416
38	0xbc621ffe	-0.013801573
39	0xbcbdd4ec	-0.023172818
40	0x3b281d5a	0.002565226
41	0x3dd9958d	0.10624228
42	0x3c774c78	0.015093915
43	0x3e18a62c	0.1490714
44	0x3d3d700d	0.046249438
45	0xbc66478d	-0.014055145
46	0x3c438616	0.011933824
47	0xbdab4b6c	-0.08363995
48	0xbbcdcc2c	-0.0062804427
49	0xbdafb5a9	-0.08579571
50	0xbd019556	-0.03163656
51	0xbb4f039f	-0.0031587852
52	0xbcff9e42	-0.031203393
53	0xbd283c4b	-0.041073125
54	0xbd984c2d	-0.074364044
55	0xbce6910d	-0.028145337
56	0xbd15b73c	-0.0365517
57	0xbae0bcc0	-0.0017146096
58	0xbd269dda	-0.040677883
59	0xbd7f8b95	-0.062388975
60	0x3d203536	0.039113246
61	0x3cb48cc0	0.022039771
62	0xbdf5c324	-0.12000111
63	0xbe1de2e1	-0.15418579
64	0x82851349	-1.9553663e-37
65	0x816c4252	-4.3393937e-38
66	0x0033540d	4.713762e-39
67	0x010f4958	2.6317573e-38
68	0x82864d3c	-1.973386e-37
69	0x00f70ef9	2.2688739e-38
70	0x01202086	2.9410693e-38
71	0x00a3d96e	1.5047185e-38
72	0x0123bc15	3.0073314e-38
73	0x80e9c120	-2.1466951e-38
74	0x81f85fa2	-9.123804e-38
75	0x801a6f4e	-2.427651e-39
76	0x81bc02cf	-6.9064323e-38
77	0x80b60224	-1.6714828e-38
78	0x810f4308	-2.6313044e-38
79	0x81c17389	-7.106279e-38
80	0x81d069ba	-7.6558843e-38
81	0x0316a225	4.426717e-37
82	0x01f11f62	8.857445e-38
83	0x81f7368d	-9.0811747e-38
84	0x827cad23	-1.8563724e-37
85	0x8289a1df	-2.022325e-37
86	0x81e5dc38	-8.4437313e-38
87	0x81d0f84c	-7.676342e-38
88	0x81e78697	-8.5049125e-38
89	0x0134cc73	3.3207464e-38
90	0x01ca0750	7.4213574e-38
91	0x812ad5f0	-3.137756e-38
92	0x01ff2f40	9.3740007e-38
93	0x0280855a	1.888445e-37
94	0x813b3baa	-3.4389282e-38
95	0x81e7b8f0	-8.512137e-38
96	0x819d8536	-5.786384e-38
97	0x8887dc6a	-8.176836e-34
98	0x0ceebb7e	3.678255e-31
99	0x81c73d33	-7.318887e-38
100	0x81f390de	-8.9471976e-38
101	0x828b509b	-2.047048e-37
102	0x01eef630	8.7780654e-38
103	0x01411632	3.5464426e-38
104	0x0159d776	4.001119e-38
105	0x81c18b4b	-7.109688e-38
106	0x804db695	-7.136831e-39
107	0x80ebbb48	-2.1648525e-38
108	0x811013e7	-2.6462902e-38
109	0x003698f7	5.01399e-39
110	0x8117d33f	-2.7885881e-38
111	0x80e3fa3a	-2.0936422e-38
112	0x80936aa1	-1.3538069e-38
113	0x81b953f9	-6.807876e-38
114	0x81ad57ce	-6.3676157e-38
115	0x81263792	-3.0529254e-38
116	0x0048ebe6	6.69678e-39
117	0x81d0daa4	-7.6720867e-38
118	0x0ca22a90	2.4985668e-31
119	0x00563bb5	7.919272e-39
120	0x0011734e	1.602567e-39
121	0x81aa70b7	-6.2609875e-38
122	0x8186741b	-4.939043e-38
123	0x00956c0b	1.3722247e-38
124	0x00a61225	1.5251201e-38
125	0x81c1319e	-7.09682e-38
126	0x80129774	-1.70737e-39
127	0x81c4d8d6	-7.2310173e-38
128	0xbe0b5c85	-0.13609512
129	0xbe13c589	-0.14430822
130	0xbde2651c	-0.11054441
131	0x3db64f76	0.08901875
132	0xbb06c0a9	-0.0020561612
133	0xbdd48c47	-0.10378318
134	0xbd371a64	-0.044702902
135	0xbc5b50e8	-0.013385989
136	0x3e0eed23	0.13957648
137	0x3c09742c	0.008389514
138	0x3d9fb187	0.077975325
139	0xbe8f3d67	-0.27976534
140	0xbb10d047	-0.00220968
141	0x3bb42b15	0.0054983
142	0xbaa3b98f	-0.0012491214
143	0xbd043aec	-0.032282755
144	0x3bf98b0c	0.0076154526
145	0x3d0e8be1	0.034801368
146	0x3dc34ad7	0.09535759
147	0x3d826195	0.063662685
148	0xbd8922f3	-0.06696119
149	0x3e01e16d	0.1268365
150	0x3c296a94	0.010340352
151	0x3d8b1ef3	0.067930125
152	0xbb9ec7a7	-0.0048455778
153	0x3d70e698	0.05881366
154	0xbc32163b	-0.010869558
155	0x3dbf3a06	0.09337239
156	0x3d816973	0.06318941
157	0x3dcf5241	0.101231106
158	0x3cfb4ab0	0.030675262
159	0x3db8997d	0.090136506
160	0x3dcbd86a	0.09953387
161	0xbd1c1d49	-0.038113866
162	0xbe083c4e	-0.13304254
163	0xbe62e242	-0.22156623
164	0xbd061ed6	-0.03274425
165	0xbd7483ca	-0.059695996
166	0xbd9cdb59	-0.07659025
167	0xbcb91154	-0.02259127
168	0xbceb3146	-0.028710019
169	0x3d35e796	0.04441031
170	0xbc6be33b	-0.014397438
171	0x3e247705	0.16061027
172	0x3d55580f	0.052085932
173	0x3e321d38	0.17393959
174	0xbd1e6877	-0.038673844
175	0x3e2b783d	0.16745086
176	0xbc9d4c03	-0.019201284
177	0x3df55be8	0.1198042
178	0x3b9a6dfa	0.0047128173
179	0xbccf809d	-0.025329882
180	0xbd680041	-0.056640867
181	0x3e0bd257	0.13654457
182	0xbc67d893	-0.014150756
183	0x3cdb7ee3	0.026793903
184	0x3e001482	0.12507823
185	0xbe184a54	-0.14872104
186	0x3d295411	0.041339938
187	0xbdbd97be	-0.09257458
188	0xbe26e5ef	-0.1629865
189	0x3cb3a6c9	0.021930115
190	0xbe0ed516	-0.13948473
191	0xbd96451a	-0.07337399
192	0xbe4beec7	-0.19915305
193	0xbe848f52	-0.25890595
194	0x3d7c5aab	0.061609905
195	0x3cefb05e	0.029258903
196	0x3d67f36c	0.05662863
197	0xbdc94915	-0.098283924
198	0xbdc7275e	-0.097243056
199	0x3d001651	0.031271283
200	0xbbc84bd3	-0.0061125546
201	0x3dc9a88f	0.09846603
202	0x3db99dde	0.09063314
203	0xbdf924ed	-0.12165246
204	0x3c40f11b	0.011776234
205	0x3e20df3a	0.15710154
206	0x3c4f171d	0.012639788
207	0x3d4cf1b4	0.050035194
208	0x3d7f3d81	0.062314514
209	0xbdc63ce1	-0.096795805
210	0xbdc15082	-0.09439184
211	0xbd6fdf6d	-0.058562685
212	0xbde8c74b	-0.11366137
213	0x3e742fa4	0.23846298
214	0x3d61fe21	0.055173997
215	0x3e0431cd	0.12909622
216	0x3d06bbea	0.032894053
217	0x3ca254b1	0.019815775
218	0x3d874674	0.06605235
219	0xbc901a0d	-0.017590547
220	0x3d667aff	0.056269642
221	0x3da06b4d	0.07832966
222	0x3e238c7a	0.15971556
223	0xbd0dcf2f	-0.034621414
224	0x3e43e45a	0.19130078
225	0x3d2c4ded	0.042066503
226	0xbe77d7b1	-0.24203373
227	0xbe55f850	-0.20895505
228	0x3dd46169	0.10370142
229	0xbd69abea	-0.057048716
230	0xbd28a4fa	-0.04117296
231	0x3da7f29d	0.08200572
232	0xbe31eb1c	-0.17374843
233	0x3d53af59	0.051680896
234	0x3dc5a7da	0.09651156
235	0x3ddde93a	0.108355
236	0x3dde5eb5	0.10857908
237	0x3e14ec44	0.14543253
238	0xbd2a7d26	-0.041623257
239	0x3e3188f4	0.173374
240	0xbd85eec3	-0.06539681
241	0x3e35aa28	0.1774069
242	0x3d914a5a	0.070942596
243	0xbdc896e9	-0.09794409
244	0x3c96d757	0.018413229
245	0xbc22dcf1	-0.009940372
246	0x3c34312f	0.010998054
247	0x3dea42eb	0.11438545
248	0xbbbe00c3	-0.0057984306
249	0x3d3132e2	0.043261416
250	0xbbcab03e	-0.0061855605
251	0xbd452c31	-0.048137847
252	0xbe86a94b	-0.26301035
253	0x3def4582	0.116831794
254	0xbe157630	-0.14595866
255	0xbe1246fe	-0.14284894

encoder.2.bias f4 [64]
0	0x3dc4d665	0.09611205
1	0x8ee2f892	-5.5952666e-30
2	0x3d0151cf	0.03157216
3	0xbbfcfbe1	-0.007720456
4	0x3d28d706	0.041220687
5	0x3c7bb90d	0.015363944
6	0x3da0dcb0	0.07854593
7	0x3e4ddbcd	0.20103379
8	0x3bc3eaca	0.005978917
9	0xbc5f8366	-0.013642168
10	0xb8ff7380	-0.00012180861
11	0x3e1d1b9c	0.15342563
12	0x3deed0cf	0.11660921
13	0x3d1a321f	0.037645455
14	0x3d44938c	0.047992274
15	0x3ce2b07e	0.027672049
16	0xbb6c3c4e	-0.0036046687
17	0x3d0630dd	0.032761443
18	0x3ca8790e	0.020565536
19	0x3dba66c1	0.0910163
20	0xbc5516fd	-0.013005969
21	0x3d8a0a9a	0.06740303
22	0x3e484dac	0.1956088
23	0xbd12eff4	-0.03587337
24	0x3cab2227	0.020890309
25	0x3d825baa	0.0636514
26	0x3dbf7724	0.09348896
27	0xbcb096e1	-0.02155632
28	0x3e2aa42a	0.16664186
29	0xbcfe8fbc	-0.031074397
30	0x3e295c75	0.16539176
31	0x3bf720e3	0.007541762
32	0x3e296f4f	0.16546367
33	0xbcb74fa6	-0.022376847
34	0x3dbe1fe2	0.09283425
35	0x3bf605dd	0.007508023
36	0x3e25bf5e	0.16186282
37	0x3c86df69	0.016463952
38	0x3e3b171c	0.18270534
39	0x3d984cb7	0.07436507
40	0x3d2c202e	0.042022876
41	0xbc292926	-0.010324752
42	0x3d9cf2d0	0.076635
43	0x3e0eff1f	0.13964508
44	0x3e29739f	0.16548012
45	0xbd0c2d35	-0.0342228
46	0xbe2dfc1b	-0.16990702
47	0x3e5b7229	0.21430267
48	0xb988507e	-0.00025999913
49	0x3dc68540	0.09693384
50	0xb98e2300	-0.00027110428
51	0xb3263cfc	-3.8705352e-08
52	0x3e156ba5	0.14591844
53	0x3e120f20	0.14263582
54	0xbd986a9f	-0.07442211
55	0x3e34b70f	0.17647956
56	0x3e0eae76	0.13933739
57	0x3d420644	0.047369257
58	0xbb55c814	-0.0032620477
59	0x3d8791cc	0.066196054
60	0xb7a07ab5	-1.9130626e-05
61	0x3d43d87d	0.04781388
62	0x3df37f9f	0.11889576
63	0x3d319443	0.043354284

fc_mu.weight f4 [4, 64]
0	0x3e28c971	0.16483094
1	0x0318d830	4.4916956e-37
2	0x3e49c934	0.19705659
3	0x3e68f39e	0.22749183
4	0x3dfea6fc	0.124341935
5	0x3e838960	0.25690746
6	0xbd946e18	-0.07247561
7	0xbdbb80a0	-0.09155393
8	0xbdcca4fa	-0.09992404
9	0xbd68448c	-0.056705996
10	0x39b72557	0.000349323
11	0x3e97feae	0.29686493
12	0x3e5d83db	0.2163233
13	0x3dcbec2f	0.09957158
14	0x3e29fd9e	0.16600654
15	0x3e23a60b	0.15981309
16	0xbdd6d653	-0.10490098
17	0xbb5f6252	-0.0034085703
18	0xbdabb257	-0.08383625
19	0x3ddeac41	0.108726986
20	0x3d87aa11	0.066242345
21	0xbd6c89b7	-0.057748523
22	0xbd993349	-0.07480485
23	0x3a20c913	0.0006133478
24	0x3dbf7148	0.093477786
25	0x3e5f9da0	0.21837473
26	0xbdf4f19e	-0.11960147
27	0xbdb1f6a3	-0.0868962
28	0xbdb8277e	-0.089919075
29	0x3e295c72	0.16539171
30	0xbdcf05d5	-0.10108534
31	0x3e02714b	0.1273853
32	0xbde38322	-0.11108996
33	0x3e2f26b7	0.17104612
34	0xbe3364ba	-0.17518893
35	0x3deac078	0.11462492
36	0xbe96ccc4	-0.294531
37	0xbe7d3b24	-0.24729592
38	0xbda0bd69	-0.07848627
39	0xbe1a86cf	-0.15090488
40	0xbdde1839	-0.10844464
41	0xbe39c37f	-0.18140982
42	0xbea7e6f0	-0.3279338
43	0xb9610bb7	-0.00021462036
44	0xbdafb5af	-0.08579575
45	0x3d110d4a	0.035413064
46	0xbeb87a0b	-0.3603061
47	0x3e9cdcc3	0.30637178
48	0x3ae5f784	0.0017545079
49	0x3de7cced	0.11318383
50	0xba8a1b93	-0.0010536782
51	0xadef290f	-2.7189388e-11
52	0x3dc4ed06	0.09615521
53	0x3e382b42	0.17985252
54	0x3da6c81d	0.08143637
55	0x3d9667fd	0.07344053
56	0xbddda309	-0.10822112
57	0xbe175be7	-0.14781152
58	0x3d7a0883	0.061043274
59	0x3e84dfec	0.2595209
60	0x3759d0ae	1.2982795e-05
61	0xbdddda38	-0.108326375
62	0x3d00b61a	0.031423666
63	0x3de8a563	0.1135967
64	0xbc858c96	-0.016302388
65	0x01bf0680	7.0171646e-38
66	0x3ad4344d	0.0016189903
67	0x3d61b9db	0.055108886
68	0xbd0def94	-0.034652308
69	0xbdaf65f0	-0.08564365
70	0x3c2e4f86	0.010639077
71	0xbc93ee61	-0.018058004
72	0x3d1d982d	0.038475204
73	0xbc55a62a	-0.013040105
74	0x2fd6cb84	3.907098e-10
75	0x3d558791	0.05213124
76	0xbd6e001b	-0.05810557
77	0x3bbee6e6	0.005825865
78	0x3de76f27	0.113004975
79	0x3d81002c	0.06298861
80	0x3d0cf7de	0.034416072
81	0xbe0463b4	-0.12928659
82	0x3d45f74d	0.048331548
83	0x3c9c00c0	0.019043326
84	0xba99f582	-0.0011746141
85	0x3d2cb140	0.042161226
86	0x3d0cb47d	0.034351815
87	0xbd9076b1	-0.070538886
88	0xbd2a0191	-0.0415054
89	0xbcbfe9d9	-0.023426937
90	0x3c8c298e	0.017109659
91	0x3d393de6	0.045225047
92	0xbd6adff0	-0.05734247
93	0xbccaeaea	-0.024770219
94	0x3ca43545	0.020044932
95	0xbd1385b9	-0.0360162
96	0x3d742b1a	0.059611417
97	0xbca7a855	-0.02046601
98	0xbcefaf1e	-0.029258307
99	0xbbf25511	-0.0073953946
100	0xbb59b8c6	-0.0033221706
101	0xbe1263d6	-0.14295897
102	0x3d2272c7	0.03966024
103	0xbd56fe40	-0.052488565
104	0x38787247	5.9234237e-05
105	0x3ca3abb8	0.019979343
106	0x3b827e0b	0.0039823106
107	0xbd9bb272	-0.07602395
108	0x3d167798	0.036735147
109	0xbcad2455	-0.021135489
110	0x3bdc2941	0.006718785
111	0xbb3f347d	-0.0029175573
112	0xbafc91a1	-0.0019269475
113	0xbd40e8bb	-0.04709695
114	0x398d904a	0.0002700112
115	0x159352aa	5.950325e-26
116	0xbc7c3d2f	-0.015395447
117	0xbd252377	-0.040317025
118	0xbc126243	-0.00893456
119	0x3c8f5bbf	0.017499803
120	0x3d75a088	0.059967548
121	0x3d39037e	0.045169346
122	0xbcf1ea44	-0.029530652
123	0xbd35621a	-0.04428301
124	0xb686e14d	-4.0197397e-06
125	0xbdd8011b	-0.10547086
126	0xbd8f37b5	-0.06993047
127	0x3c1ab5d1	0.0094427625
128	0x3b995f25	0.0046805316
129	0x81d21d15	-7.718355e-38
130	0xbbd6bc09	-0.0065531773
131	0xbc9b6984	-0.018971212
132	0x3d267bf3	0.04064555
133	0xbcdce65a	-0.026965309
134	0x3c6d1dda	0.014472449
135	0x3bc37dca	0.005965923
136	0x3c639da8	0.013892569
137	0xbc15acac	-0.009135406
138	0x26946f25	1.0299689e-15
139	0x3c3d172e	0.011541171
140	0x3cc3d02c	0.023902975
141	0x3b6acf9f	0.0035829318
142	0xbc0819cd	-0.008306933
143	0xbb951b11	-0.0045503457
144	0x3d4d0b66	0.0500597
145	0xbbdb8ebe	-0.006700366
146	0xbd0561dc	-0.03256403
147	0x3ca60465	0.020265767
148	0x37bdb39b	2.2614191e-05
149	0x3c0d8428	0.008637466
150	0x3c8cb672	0.01717684
151	0x3ca6e31c	0.020371966
152	0x3b03cbfe	0.0020110602
153	0xbc1c2865	-0.009531115
154	0xbcfc5023	-0.03079993
155	0x3c1d3858	0.009595953
156	0xbc63a6d7	-0.013894758
157	0xbd3cc8db	-0.04608999
158	0x378ffa52	1.7163493e-05
159	0xbc44b3bf	-0.012005745
160	0x3d06abf1	0.03287882
161	0x3b30c033	0.0026970028
162	0xbace5911	-0.0015743097
163	0xbcc99be7	-0.024610473
164	0x3ac1f282	0.0014797004
165	0x3c3cb2fe	0.011517284
166	0x3c437934	0.011930753
167	0xbbcfe963	-0.0063449605
168	0xbcb60405	-0.022218714
169	0xbc6558f4	-0.013998259
170	0x3a67225a	0.00088170695
171	0xbd00a3ce	-0.031406216
172	0xbb11c798	-0.0022244211
173	0xbc628e5a	-0.013827885
174	0x3b1e3e3d	0.0024145984
175	0x3d1261e7	0.0357379
176	0x331892e5	3.5523858e-08
177	0xbd43d710	-0.04781252
178	0xb39ada3a	-7.210879e-08
179	0x828d7d5c	-2.079004e-37
180	0x3cfc078e	0.030765321
181	0x3d43233e	0.04764103
182	0x3c333e83	0.010940197
183	0x3cbb6745	0.022876391
184	0xbc45d18f	-0.012073888
185	0x3c6b2e4e	0.014354302
186	0x3950574d	0.00019868948
187	0xbcc18179	-0.023621308
188	0x24300491	3.8167784e-17
189	0xbc90211a	-0.017593909
190	0x3bf17b01	0.0073693995
191	0x3ba4c8c8	0.005028818
192	0x3959788f	0.00020739644
193	0x028b89e5	2.0503362e-37
194	0x3c257fb8	0.010101251
195	0xbb9d7801	-0.0048055653
196	0x3d8b681a	0.06806965
197	0x3d3c4f51	0.04597408
198	0xba23248e	-0.00062234036
199	0xbcae4f9f	-0.0212782
200	0x3c2d030c	0.010559808
201	0xbcb45782	-0.022014383
202	0x31b0a691	5.1412106e-09
203	0x3d038cb3	0.032116603
204	0xbc2024dc	-0.009774413
205	0x3b31cef0	0.00271314
206	0xbda592ff	-0.08084678
207	0xbca52345	-0.02015842
208	0x3c3ba2f8	0.011452429
209	0x3bb21436	0.0054345382
210	0xbd413bb9	-0.047176097
211	0x3b98bb1d	0.0046609775
212	0xb6a25711	-4.838112e-06
213	0xbcdf7131	-0.027275654
214	0xbcb1249d	-0.021623904
215	0xbd12759d	-0.035756696
216	0x3cb59df7	0.02217005
217	0xbcaeace4	-0.021322675
218	0xbd0431d3	-0.03227408
219	0x3b9c5d67	0.0047718766
220	0xbac5ed9a	-0.0015100718
221	0x3c84227d	0.016129727
222	0xbc7bbbb8	-0.01536458
223	0x3ae87bc5	0.0017737082
224	0x3cef1d11	0.029188665
225	0xbd38b9bd	-0.04509901
226	0x3c49fdbc	0.012328561
227	0xbc17ce6e	-0.009265525
228	0xbafbbde1	-0.0019206369
229	0x3d1aed8c	0.0378242
230	0xba8e0db7	-0.0010837828
231	0xbb3f20c0	-0.0029163808
232	0xbc369a85	-0.011145239
233	0x3d197b85	0.037471313
234	0xbb018219	-0.0019761382
235	0x3c134308	0.008988149
236	0x3c8711f9	0.016488062
237	0xbc032f9d	-0.008006957
238	0x3bb9cf08	0.005670432
239	0x3cbd27fa	0.023090351
240	0xba89d7b3	-0.0010516554
241	0xbd04274f	-0.03226405
242	0x37b3a252	2.141405e-05
243	0x27d1b3f5	5.8204263e-15
244	0x3c7cfb93	0.015440839
245	0x3d5335bc	0.051564917
246	0xbbab0e9d	-0.005220248
247	0x3cecab2f	0.02889022
248	0xbcf1eb71	-0.029531213
249	0xbc333169	-0.010937073
250	0x3b9c24a5	0.0047651106
251	0xba372417	-0.0006986274
252	0x33d989b3	1.0129897e-07
253	0x3cea7a44	0.028622754
254	0x3cbbc7cf	0.022922425
255	0x3c22f257	0.009945474

fc_mu.bias f4 [4]
0	0x3c5049fa	0.01271295
1	0x3d0f3c66	0.03496971
2	0xbd0fc5c3	-0.03510071
3	0xbca770d1	-0.020439537

fc_logvar.weight f4 [4, 64]
0	0x3d8c42a2	0.06848647
1	0x81f2825e	-8.908383e-38
2	0x3d87717b	0.066134416
3	0x3e7c8e24	0.24663597
4	0x3defbf3d	0.11706398
5	0x3e285254	0.16437656
6	0xbdb9f345	-0.09079603
7	0xbdca4b4f	-0.09877645
8	0xbd353f9f	-0.044250127
9	0x3e03c7c9	0.1286918
10	0x318a0168	4.0164885e-09
11	0x3e08265d	0.13295884
12	0x3e2481c8	0.16065133
13	0xbecdf84e	-0.40228504
14	0x3e1207e3	0.14260821
15	0xbe89db0a	-0.26924926
16	0xbdc7b6de	-0.09751676
17	0xb9b2cbfb	-0.00034102783
18	0xbe16bc02	-0.14720157
19	0x3afc7340	0.0019260421
20	0xbd867cdb	-0.06566783
21	0xbee3262a	-0.44365054
22	0xbe1a74f1	-0.15083672
23	0x3ba5ab72	0.0050558383
24	0xbe063ac3	-0.13108353
25	0x3dde4855	0.1085364
26	0x3b2cffb7	0.0026397535
27	0x3ce13981	0.02749324
28	0xbe22e89a	-0.15909043
29	0xbd73efb1	-0.05955476
30	0xbef160fd	-0.4714431
31	0xbdacdc95	-0.0844051
32	0xbdc18bda	-0.09450503
33	0x3ebece3f	0.37266728
34	0xbefc6181	-0.4929314
35	0x3bf091cb	0.0073415986
36	0xbe94f560	-0.29093456
37	0x3d451c4d	0.048122693
38	0xbef5967a	-0.47966367
39	0xbe6d0113	-0.23144941
40	0xbeb80db7	-0.35947964
41	0x3b9fac61	0.004872844
42	0xbe177f17	-0.14794575
43	0xbd6b6897	-0.05747279
44	0xbe28d465	-0.16487272
45	0xbf30cbb2	-0.69060814
46	0x3e65a0e3	0.22424655
47	0xbda729bd	-0.08162258
48	0xb56385c5	-8.475875e-07
49	0xbe09ae69	-0.13445438
50	0xb7377c3f	-1.0936578e-05
51	0xa0031cd6	-1.1105673e-19
52	0xbdff4110	-0.124635816
53	0x3c51e86d	0.012811762
54	0x3dd76b2a	0.10518487
55	0xbe134899	-0.14383163
56	0xbd615788	-0.055015117
57	0xbc3eb3ef	-0.011639579
58	0x3cbbc5b6	0.022921424
59	0x3bade938	0.005307343
60	0x25db2427	3.8014942e-16
61	0xbd9a9c80	-0.07549381
62	0xbd9d5b79	-0.07683463
63	0xbe3643fa	-0.17799369
64	0xba11ec7f	-0.00055665517
65	0x81ab9717	-6.303228e-38
66	0xbc36c0a0	-0.011154324
67	0xbcc5647a	-0.024095763
68	0xbccb391a	-0.024807502
69	0x3d034f11	0.032057825
70	0x3c65867a	0.0140091125
71	0xbcb9e886	-0.022693884
72	0x3c530226	0.01287893
73	0xbb21220f	-0.002458695
74	0x2d346cd9	1.0255984e-11
75	0xba9d7de6	-0.001201567
76	0x3aec2c89	0.0018018644
77	0x3c178307	0.009247548
78	0xbc041998	-0.008062743
79	0x3c557b9d	0.01302996
80	0xbcf6fc94	-0.030149736
81	0xbc891a20	-0.01673609
82	0xbbb9fcf5	-0.005675907
83	0xbcab8ed9	-0.020942139
84	0xb81da90b	-3.758915e-05
85	0xbd1c145f	-0.038105365
86	0xbccc3ead	-0.02493223
87	0xbd49b6c1	-0.049246553
88	0x3bb735f0	0.0055911466
89	0xbc857b81	-0.016294243
90	0x3bdaeefd	0.0066813217
91	0xbc2c0f7f	-0.010501741
92	0xbc187d0f	-0.00930716
93	0x3c9081a4	0.017639942
94	0xbb33366c	-0.002734567
95	0xbc07fb58	-0.008299671
96	0xbcce85a1	-0.025210204
97	0x3c87d4dd	0.016580993
98	0x3c71c403	0.0147562055
99	0x3ca54c29	0.020177918
100	0x3a65deb4	0.0008768842
101	0x3cd91cb7	0.02650295
102	0xbb2910e3	-0.0025797419
103	0xbb22e343	-0.0024854697
104	0x3c124639	0.008927875
105	0x3c99d626	0.018778872
106	0x3bc2de2f	0.0059468965
107	0x3c19e680	0.009393334
108	0x3c4753fc	0.0121660195
109	0x3bac20a3	0.005252914
110	0x3af7565d	0.0018870343
111	0xbaba76f7	-0.0014226128
112	0x37797785	1.4869384e-05
113	0x3cbf4de8	0.023352578
114	0xb6be4cd6	-5.671386e-06
115	0x200b969f	1.1823594e-19
116	0xbc0e8124	-0.008697782
117	0xbbb7b80d	-0.0056066574
118	0xbc215b81	-0.009848476
119	0xbb86c663	-0.004113005
120	0xbc276396	-0.010216614
121	0xba99ebb5	-0.001174322
122	0x3b6ab61e	0.0035814117
123	0x3c36fc5c	0.011168566
124	0xb0aaa660	-1.2416415e-09
125	0xbc7f7f4d	-0.015594316
126	0x3c672b5e	0.014109461
127	0xbba723d0	-0.0051007047
128	0xbbafce20	-0.005365148
129	0x005cc021	8.517789e-39
130	0xbbe22fd6	-0.006902675
131	0xbc7fd040	-0.0156136155
132	0xbc773e4a	-0.015090534
133	0x3c46034e	0.012085749
134	0xba8bb0dd	-0.0010657568
135	0xbcc4c4af	-0.024019567
136	0x3c841521	0.016123356
137	0xbb24ec63	-0.0025165312
138	0x9432eea7	-9.033769e-27
139	0x3cd5e3c4	0.026109584
140	0x3c0c1ff9	0.008552545
141	0xbb211640	-0.0024579912
142	0xbc9e3620	-0.019312918
143	0x3bf0aad9	0.0073445854
144	0xbc126c19	-0.008936905
145	0x3bb303ff	0.005463123
146	0xbc18ae77	-0.009318939
147	0xb9883f36	-0.00025987037
148	0xb4de89b3	-4.1450912e-07
149	0xbba43412	-0.00501109
150	0xbc342533	-0.010995197
151	0x3a45a6c4	0.00075398036
152	0xbb733910	-0.003711287
153	0xbb7ed9f2	-0.003888723
154	0x3bf8f2f3	0.007597321
155	0x38848ab0	6.320083e-05
156	0xbb706e07	-0.0036686675
157	0x3c0aa536	0.008462241
158	0x3a96be52	0.0011500812
159	0xbb5a4a55	-0.0033308465
160	0x3c7dd69c	0.015493061
161	0xbc12a639	-0.008950763
162	0x3b5bb2b4	0.0033523263
163	0x3b254490	0.0025217868
164	0xba263178	-0.0006339769
165	0x3bb1f3f3	0.0054306923
166	0xba92ea87	-0.0011208811
167	0xbc495054	-0.012287218
168	0x3b39a713	0.0028328344
169	0x3b958bb7	0.0045637744
170	0xb9d4757b	-0.0004052332
171	0xbc81436b	-0.015779218
172	0x3c8dd0c1	0.017311456
173	0xba8ab43a	-0.0010582276
174	0xbb80c11f	-0.003929272
175	0x3c15993e	0.009130774
176	0xaf27492e	-1.521456e-10
177	0xbc26da35	-0.010183861
178	0xb1b3524d	-5.218942e-09
179	0x81df4a36	-8.202375e-38
180	0x3c40d718	0.011770032
181	0x3c962a03	0.01833058
182	0xbae98773	-0.0017816856
183	0x3d127acb	0.035761636
184	0x3cb24183	0.021759754
185	0x3b4216d8	0.0029615667
186	0x37f9efce	2.979478e-05
187	0xbc21687d	-0.009851572
188	0x92b3c61d	-1.1345327e-27
189	0xbc835e34	-0.01603613
190	0x3a906f4e	0.00110195
191	0x3b4d7d6b	0.0031355273
192	0xbb800753	-0.003907123
193	0x01fdcd5e	9.323221e-38
194	0x3d099cd2	0.03359682
195	0x3ce6e150	0.02818361
196	0x3cc21b3e	0.02369463
197	0x3ad92145	0.0016565701
198	0x3bc12b18	0.0058950298
199	0xbcb2a439	-0.021806823
200	0x3cde2e2d	0.027121628
201	0xb99d34a2	-0.00029984588
202	0x1d8b56d0	3.6882756e-21
203	0x3cde7bb7	0.027158601
204	0xbd09263f	-0.03348374
205	0x3be20785	0.006897869
206	0x3b52012f	0.0032044163
207	0x3b46e050	0.0030346103
208	0x3bdb42cb	0.006691312
209	0x3bd1b975	0.006400282
210	0xbc65f610	-0.014035717
211	0x3bac8b21	0.005265609
212	0xb4992ac0	-2.8529576e-07
213	0xbbdc40f8	-0.006721612
214	0xbca1121d	-0.019661957
215	0xbc009617	-0.007848284
216	0xbb8f692c	-0.004376551
217	0xbcaf5f5b	-0.021407774
218	0xbc0d6ee6	-0.008632397
219	0x3933513f	0.00017101037
220	0xbbb6c0f9	-0.0055772034
221	0xbbbd5aac	-0.005778631
222	0x3aa16549	0.001231351
223	0x394ddcaf	0.00019632535
224	0x3b153096	0.0022764555
225	0xbd2ab4be	-0.041676275
226	0x3bc32b01	0.005956054
227	0x3a184f08	0.00058101164
228	0x3b43cd9f	0.0029877198
229	0x3cbfcdb0	0.02341351
230	0x39f9ea9a	0.00047667773
231	0xbc2fe40b	-0.010735522
232	0xbb0f44b1	-0.0021861012
233	0x3c8d3ed1	0.017241867
234	0xba805521	-0.0009790995
235	0xbc316b0e	-0.0108287465
236	0x3c86e7a4	0.016467877
237	0xbbcfe475	-0.006344373
238	0xb737f162	-1.0963851e-05
239	0xbc4d6cc7	-0.012538142
240	0xb2031306	-7.629529e-09
241	0xbc772b4f	-0.015086009
242	0xb3ebba1c	-1.0976893e-07
243	0x980e8f4b	-1.8425414e-24
244	0xbbbcf385	-0.0057663345
245	0xba2da911	-0.0006624619
246	0x3b1ab413	0.0023605868
247	0x3cbb6f30	0.022880167
248	0xbcc192d3	-0.023629582
249	0x3b26ed92	0.0025471193
250	0x397acf96	0.0002391919
251	0xba8eab39	-0.0010884769
252	0xa667f482	-8.0475594e-16
253	0xbcad0e94	-0.021125115
254	0x3c7d119e	0.015446095
255	0x3b06323e	0.0020476724

fc_logvar.bias f4 [4]
0	0xbe5a4ab7	-0.21317564
1	0x3cbe16d9	0.023204254
2	0xbcec27b4	-0.028827526
3	0x3ba4363c	0.005011348

decoder.0.weight f4 [64, 49]
0	0xbea6c573	-0.32572517
1	0xbc7a4b88	-0.015276797
2	0x3b916308	0.0044368543
3	0x3c2065e7	0.00978992
4	0x3da2d9e0	0.079517126
5	0xbcf5839d	-0.029969985
6	0x3e09d72a	0.13460985
7	0x3d2bf0a0	0.041977525
8	0x3dbf85b2	0.09351672
9	0x3d8911c8	0.06692845
10	0xbd8b7b81	-0.06810666
11	0x3d9eb81f	0.07749962
12	0xbd2be76e	-0.041968755
13	0x3d795f43	0.060881864
14	0xbc04d24a	-0.008106777
15	0x3d78f4c9	0.06078032
16	0xbd36be2e	-0.044614963
17	0x3d7d11cd	0.061784554
18	0x3ce8ce96	0.02841882
19	0xbd143d2b	-0.036191147
20	0x3c1a9516	0.009434959
21	0x3c2edafa	0.010672325
22	0x3d998713	0.074964665
23	0x3cf6483d	0.030063743
24	0x3e26c2fd	0.1628532
25	0xbda849b1	-0.082171805
26	0x3cfcb153	0.030846274
27	0x3d176203	0.036958706
28	0xbd8ca3d8	-0.06867188
29	0x3e30a508	0.17250454
30	0xbd0794f4	-0.033101037
31	0x3dadc725	0.084852494
32	0xbd110ac7	-0.03541067
33	0x3c470de5	0.012149309
34	0x3dbfd26b	0.09366306
35	0x3e05d95c	0.13071197
36	0x3e108c02	0.14115909
37	0x3dce4c52	0.10073151
38	0x3d37f4cb	0.044911187
39	0x3ad83818	0.001649621
40	0xbdb46be3	-0.0880964
41	0x3d13246c	0.035923406
42	0xbdcfd65c	-0.10148308
43	0xbc91d6ba	-0.017802585
44	0xbdc7634d	-0.09735737
45	0x3da5f56d	0.08103452
46	0x3dd47a13	0.10374846
47	0xbd9dff33	-0.07714691
48	0xbd792810	-0.060829222
49	0xbabb6213	-0.0014296196
50	0xbb086b2d	-0.0020815835
51	0xbc591b41	-0.013251127
52	0x3c3bdd5a	0.011466349
53	0x3c95629b	0.018235495
54	0x3d995f4c	0.074888796
55	0xbe968f9a	-0.29406434
56	0xbd081875	-0.03322645
57	0xbd98ac82	-0.07454778
58	0xbd57a224	-0.052644864
59	0xbd096c33	-0.033550452
60	0x3d5ecba9	0.054393444
61	0x3b0c27ea	0.0021386095
62	0x3e0f5618	0.13997686
63	0xbe02cf40	-0.12774372
64	0xbd497c6f	-0.049190935
65	0xbdb944e8	-0.09046346
66	0x3df5e6ad	0.120068885
67	0xbc3d5d84	-0.01155794
68	0xbccb7777	-0.024837239
69	0x3e0738b7	0.13205229
70	0x3cd3e2ad	0.025864923
71	0xbc77aedf	-0.015117376
72	0x3d288629	0.04114357
73	0x3da0e4a4	0.0785611
74	0x3da373a7	0.07981043
75	0xbde0b518	-0.10972041
76	0x3d31b20f	0.0433827
77	0xbc9bc014	-0.019012488
78	0x3d04a5c7	0.03238466
79	0xbd8fe731	-0.07026518
80	0xbcb5df5e	-0.022201236
81	0x3c12df9a	0.008964444
82	0x01721bcc	4.4468323e-38
83	0x8121e65d	-2.9736307e-38
84	0xbdb1f592	-0.08689417
85	0xbc322253	-0.010872441
86	0xbd71a306	-0.058993362
87	0x3c12df88	0.008964427
88	0x818ffb45	-5.289046e-38
89	0x0181b288	4.7643296e-38
90	0x01097f60	2.5254313e-38
91	0x3b1786b1	0.0023121054
92	0x3cdcfff4	0.026977517
93	0xbda3eb34	-0.08003846
94	0x3da0d341	0.078527935
95	0x3db15ee1	0.08660675
96	0xbac8ef55	-0.0015330116
97	0x3c130823	0.008974108
98	0xbe25d576	-0.1619471
99	0xbd07ca79	-0.033152077
100	0x3b029b86	0.0019929125
101	0xbbd38799	-0.0064553735
102	0x3cceb45c	0.025232486
103	0xbd9cbe93	-0.07653537
104	0x3e61f5cf	0.22066425
105	0x3d707210	0.05870253
106	0xbd04562a	-0.032308735
107	0xbe3f66a5	-0.186915
108	0xbe103733	-0.14083557
109	0x3dc42558	0.09577435
110	0x3cb170bb	0.0216602
111	0xbdfb7538	-0.12278217
112	0xbdf7b4f8	-0.12095064
113	0xbc6c6285	-0.014427786
114	0xbd9f9293	-0.07791629
115	0xbc6e3796	-0.01453962
116	0x3da4bc9a	0.080437854
117	0xbc420b48	-0.01184351
118	0x3dab241e	0.08356498
119	0xbd7b9441	-0.061420683
120	0x3cc24ced	0.023718322
121	0xbc735b5d	-0.014853326
122	0xbd856efc	-0.06515309
123	0xbccd1954	-0.025036491
124	0xbd0a503c	-0.033767924
125	0x3e27b348	0.16376984
126	0x3daa2c24	0.083092004
127	0x3e1ecd13	0.15507917
128	0x3e150b13	0.14555006
129	0x3e448041	0.1918955
130	0x3e031f54	0.1280492
131	0x8069a63c	-9.702361e-39
132	0x0149dbc5	3.7075546e-38
133	0x3cebbfca	0.028777976
134	0x3d6d94c3	0.0580032
135	0xbd1e2881	-0.038612846
136	0xbd608b66	-0.05482044
137	0x3d47eeae	0.048811607
138	0x816dcf60	-4.367881e-38
139	0x80f507d4	-2.2502505e-38
140	0xbdb33f9a	-0.087523654
141	0xbc09922f	-0.008396669
142	0x3e227c01	0.15867616
143	0x3d888944	0.06666806
144	0x3de3a560	0.11115527
145	0x3dc3f918	0.09568995
146	0x014e5adf	3.790142e-38
147	0xbcd45251	-0.025918158
148	0x3b981f1a	0.0046423795
149	0xbc6473c7	-0.013943619
150	0x3cc0e868	0.02354832
151	0x3dc27f0e	0.0949689
152	0x3d04b945	0.03240325
153	0x3b149847	0.0022673772
154	0x3da7dca7	0.08196383
155	0x3d0d8471	0.034550134
156	0xbd615481	-0.05501223
157	0xbc00ece3	-0.007868978
158	0xbd869ac0	-0.06572485
159	0xbd195b29	-0.037440453
160	0xbd1d6cae	-0.038433723
161	0x3d7cfbc0	0.061763525
162	0x3b8e7232	0.0043471092
163	0xbd0a1a5a	-0.033716537
164	0x3e07bd81	0.13255884
165	0x3d04a5c9	0.032384668
166	0xbb82a8da	-0.003987414
167	0xbd4fc078	-0.050720662
168	0x3dc0df7d	0.09417627
169	0x3da3a80e	0.07991038
170	0x3bf677c9	0.0075216037
171	0xbd469c93	-0.048489165
172	0x3c9f47aa	0.019443352
173	0x3ba0faea	0.004912724
174	0x3cb5c724	0.022189684
175	0xbe3d85e5	-0.18508108
176	0xbdf5ec04	-0.12007907
177	0x3ba4e181	0.005031765
178	0xbcbf44ac	-0.023348175
179	0x3cc595dd	0.024119312
180	0xbbc6c61e	-0.006066098
181	0xbc1434fa	-0.009045834
182	0x3cc07aa1	0.023495974
183	0xbd0d9514	-0.034566
184	0x3ddfc3e7	0.10926037
185	0xbcbc1d72	-0.02296326
186	0xbbbe5b63	-0.005809234
187	0xbc143505	-0.009045844
188	0x3d149041	0.036270384
189	0x3d696934	0.056985095
190	0xbdf16f71	-0.11788834
191	0xbc3513d9	-0.011052095
192	0xbd9a46f6	-0.07533066
193	0x3d6e2598	0.05814132
194	0xbd5ae47a	-0.05344055
195	0xbbee74fb	-0.0072771288
196	0x3d78c29e	0.060732476
197	0x3ce38065	0.027771184
198	0x3d0d5071	0.034500543
199	0x3c331534	0.010930348
200	0x3d177628	0.036977917
201	0x3d7d15f0	0.0617885
202	0x3ed91d58	0.424052
203	0x3d4042ed	0.046938825
204	0xbd07586e	-0.033043317
205	0x3de3939d	0.111121394
206	0xbdd9e666	-0.10639648
207	0x3d9fa988	0.077960074
208	0x3c61bc07	0.013777739
209	0xbd14f573	-0.03636689
210	0x3df2680e	0.11836253
211	0x3da2f62f	0.07957112
212	0x3c8e82a0	0.017396271
213	0x36daa292	6.515832e-06
214	0x3c9b4daa	0.018957932
215	0xbd055c2c	-0.032558605
216	0xbdb64638	-0.08900112
217	0xbd83eca9	-0.06441624
218	0xbdbe131a	-0.09280987
219	0x3cc7aa29	0.02437313
220	0xbde4b528	-0.11167365
221	0x3d6715c6	0.05641725
222	0x3daef4b3	0.085427664
223	0x3e303398	0.17207181
224	0x3cf47f01	0.029845716
225	0x3d820f26	0.063505456
226	0x3e4fe3d3	0.20301752
227	0x3e242de9	0.16033138
228	0xbc59cdf8	-0.013293736
229	0xbbfa5724	-0.0076397825
230	0xbd7c3e8a	-0.06158308
231	0x3d389d1c	0.045071706
232	0x3de073b6	0.1095957
233	0x3d8ae6b5	0.06782285
234	0x3e08037b	0.13282578
235	0xbc948b95	-0.018132964
236	0x3ae0f079	0.001716151
237	0x3d8febdd	0.07027409
238	0x3d40c820	0.047065854
239	0x3d14095a	0.03614173
240	0x3e59b801	0.21261598
241	0x3e202fc4	0.15643221
242	0x3e009bf8	0.12559497
243	0xbd9c8c8d	-0.076439954
244	0x3c25f123	0.010128292
245	0xbe9c99bb	-0.30586037
246	0xbb010406	-0.0019686236
247	0x3b2f9603	0.0026792295
248	0xbc917e76	-0.017760497
249	0x3da00f75	0.07815448
250	0x3dc7d9be	0.09758328
251	0xbd43da5d	-0.04781567
252	0xbd86e66a	-0.06586917
253	0xbe2b6204	-0.16736609
254	0x3c5f705f	0.013637631
255	0x3dc6e7ee	0.09712206

decoder.0.bias f4 [64]
0	0xbcf5d102	-0.03000689
1	0xbdc8bf95	-0.098021664
2	0x3d59e5e6	0.053197764
3	0xbe1cceff	-0.15313338
4	0x3dee63bd	0.11640117
5	0x3dfa12a3	0.12210586
6	0xbdb82e4e	-0.08993207
7	0x3d2f8412	0.04285056
8	0x3cb27a6c	0.02178689
9	0x3d9ee60f	0.07758724
10	0x3ccfdb63	0.025373166
11	0xbdd4f8ab	-0.10398992
12	0x3d89c5c0	0.06727171
13	0x3daa977a	0.08329673
14	0x3d7787ec	0.06043236
15	0x3bb36ed8	0.00547586
16	0xbd20a2cb	-0.03921775
17	0xbc0d47e2	-0.008623095
18	0x3d218567	0.039433863
19	0xbcc15202	-0.023598675
20	0xbe2c6fd7	-0.16839539
21	0x3c8dcd8c	0.017309926
22	0xbb21b51a	-0.0024674595
23	0xbdbb2f2d	-0.091398574
24	0x3d7b9471	0.06142086
25	0xbd934e3e	-0.07192658
26	0x3c38e4d0	0.011285022
27	0x3e140e90	0.1445868
28	0xbdccef52	-0.10006584
29	0x3d9eeb35	0.07759706
30	0x3db3743d	0.08762405
31	0xbc4d6de1	-0.012538404
32	0x3d1cc446	0.03827312
33	0xbd857287	-0.06515985
34	0x3e1f2b6c	0.15543908
35	0xbd5bd851	-0.053673092
36	0x3c88dfe3	0.01670832
37	0xbdb717c4	-0.0894008
38	0xbd9b7cf2	-0.07592191
39	0xbd2019e6	-0.0390872
40	0xbd45f6f3	-0.048331212
41	0x3c89c924	0.016819544
42	0x3de19b53	0.11015954
43	0x3e366dab	0.17815273
44	0x3e2db83d	0.16964813
45	0x3e241630	0.16024089
46	0x3e06ac8d	0.1315176
47	0xbc8fc795	-0.017551223
48	0xbd601bd8	-0.054714054
49	0x3d925e77	0.07146924
50	0x3dc1d8fa	0.09465213
51	0xb96feb70	-0.00022880523
52	0x3dd0b63b	0.10191008
53	0x3e8b51b7	0.2721078
54	0x3e31d672	0.1736696
55	0x3e1e8c6c	0.15483254
56	0xbb56c0f3	-0.0032768815
57	0x3be444bd	0.006966202
58	0xbdb904c6	-0.090341136
59	0x3e29a829	0.16568054
60	0x3e3bd2f6	0.18342194
61	0x3ce648d0	0.028110892
62	0x3dbca525	0.09211186
63	0x3e054d6a	0.13017812

decoder.2.weight f4 [64, 64]
0	0x3dd1772d	0.10227809
1	0x3c3f63de	0.011681525
2	0x3ce3f50b	0.027826807
3	0xbd163150	-0.03666812
4	0xbd8989e0	-0.06715751
5	0x3dc0266d	0.09382329
6	0xbdcda4d0	-0.10041201
7	0x3d274981	0.040841583
8	0xbd536953	-0.051614117
9	0xba8cd111	-0.0010743459
10	0xbd2fd6f7	-0.042929616
11	0x3e32ede8	0.17473567
12	0x3dfac493	0.12244525
13	0xbd597b4f	-0.053096112
14	0xbdb4c69b	-0.088269435
15	0x3d3f0435	0.04663487
16	0xbd819118	-0.063265026
17	0xbd37e344	-0.04489447
18	0xbde29f83	-0.11065581
19	0xbd348a85	-0.044077415
20	0xbd06038f	-0.032718237
21	0xbd293d32	-0.041318126
22	0xbce48ea6	-0.027900051
23	0x3d86bd42	0.06579067
24	0xbd0269c1	-0.031839136
25	0x3d9b3d2f	0.07580029
26	0xbc8d4200	-0.017243385
27	0x3d34a748	0.044104844
28	0x3d4bd893	0.04976709
29	0x3ddad853	0.10685792
30	0x3dc79a81	0.09746266
31	0x3e01aca1	0.12663509
32	0x3df80d04	0.121118575
33	0xbe088d12	-0.13335064
34	0x3d9d41e3	0.076785825
35	0x3e047a22	0.12937215
36	0xbd1c7745	-0.03819968
37	0x3ddc6238	0.10760921
38	0xbd57e8e5	-0.05271234
39	0x3bafe1cd	0.0053674937
40	0x3b8e5970	0.004344158
41	0xbd85c249	-0.065311976
42	0xbbb51278	-0.0055258833
43	0x3cbe000e	0.023193385
44	0xbc1deb73	-0.009638655
45	0x3e1181fa	0.14209738
46	0x3d933c89	0.071892805
47	0x3c285383	0.010273817
48	0xbdbf10d4	-0.093293816
49	0x3c996bbf	0.018728135
50	0x3d27f241	0.041002516
51	0x3e01072d	0.12600394
52	0x3c7ee160	0.015556663
53	0x3d1c37e3	0.038139235
54	0x3df39661	0.11893917
55	0xbdd142b3	-0.102178
56	0xbbc4f900	-0.0060111284
57	0x3dff758f	0.124735944
58	0x3d1e463b	0.038641196
59	0x3dee239e	0.11627887
60	0xbcb96841	-0.02263272
61	0xbda2338c	-0.07919988
62	0x3e0cddac	0.13756436
63	0xbc41f0c3	-0.011837187
64	0xbd1de259	-0.03854594
65	0xbd8c866d	-0.06861577
66	0x3c905227	0.017617298
67	0xbd81313a	-0.06308217
68	0x3d33575b	0.04378448
69	0xbcef7e02	-0.02923489
70	0xbd9a62a6	-0.07538347
71	0xbe0c9c68	-0.13731539
72	0xbd3e7d26	-0.04650607
73	0x3c281478	0.010258786
74	0x3db8f6fb	0.09031483
75	0x3e88d05f	0.26721475
76	0x3d951729	0.07279808
77	0x3dba4cec	0.09096703
78	0xbd6254bb	-0.055256587
79	0x3df83957	0.12120312
80	0xbdba206a	-0.09088214
81	0x3d5f08c5	0.054451723
82	0xbd091881	-0.033470634
83	0xbd62f7a5	-0.055411953
84	0x3c1b326d	0.009472472
85	0x3c4a04c1	0.012330235
86	0x3c14fe89	0.009093889
87	0xbdbad2f3	-0.091222666
88	0x3d66d149	0.056351934
89	0x3da9fb49	0.08299882
90	0x3ce27bc9	0.027646916
91	0x3d93cb49	0.07216508
92	0xbcf47278	-0.02983974
93	0x3e04d9f2	0.12973765
94	0x3b20263e	0.0024436857
95	0x3c3785f3	0.01120137
96	0x3dcf0035	0.10107461
97	0xbd27052b	-0.040776413
98	0x3b8a67c7	0.004223797
99	0x3d8779e0	0.06615043
100	0x3e016cfc	0.1263923
101	0x3e07f4f3	0.13277034
102	0x3db2c6d8	0.08729333
103	0x3da33f4e	0.07971059
104	0xbdbc4f5b	-0.09194823
105	0x3d9b91de	0.07596181
106	0xbd87126b	-0.0659531
107	0x3da283c0	0.079352856
108	0x3c417f86	0.011810189
109	0x3dc49f1f	0.096006624
110	0x3cdc06d3	0.026858723
111	0xbd86fc9a	-0.06591149
112	0x3cae6340	0.02128756
113	0x3cbf1a7f	0.023328064
114	0x3da1b734	0.07896271
115	0xbbcae47f	-0.0061917896
116	0xbda9b208	-0.0828591
117	0xbd07adaa	-0.033124603
118	0x3d3d4a86	0.04621365
119	0x3de2baa5	0.11070756
120	0x3dc04a64	0.09389189
121	0x3bcc2c87	0.006230894
122	0xbb2a81e2	-0.0026017358
123	0x3d80400b	0.06262215
124	0xbd347d92	-0.044065066
125	0x3dadc085	0.08483986
126	0x3d365c2e	0.044521503
127	0xbd6c82c6	-0.057741903
128	0xbc98afb9	-0.018638479
129	0x3dbc3664	0.09190062
130	0xbdd5dd49	-0.104425974
131	0xbd10912b	-0.035294693
132	0xbcb6986e	-0.022289481
133	0xbb8a3668	-0.0042179115
134	0x3d763f86	0.060119174
135	0x3e37d810	0.17953515
136	0x3dfa1fc5	0.12213091
137	0x3d6fe811	0.058570925
138	0xbdcc1ed2	-0.09966816
139	0xbe80def8	-0.25170112
140	0x3b25964a	0.0025266581
141	0xbe3640ab	-0.17798106
142	0x3e4a78a6	0.19772586
143	0xbd346efa	-0.044051148
144	0x3d33d947	0.043908384
145	0xbd3cd3f0	-0.046100557
146	0x3dc1620c	0.09442529
147	0x3dac1fb2	0.08404483
148	0x3cc8ea0a	0.024525661
149	0x3d67024d	0.05639868
150	0x3db372a0	0.08762097
151	0x3db62c72	0.08895196
152	0xbe33ab81	-0.17545892
153	0xbd318f4f	-0.04334956
154	0xbd63afbf	-0.055587526
155	0xbe209797	-0.15682827
156	0x3c92141f	0.01783186
157	0x3bf39f69	0.0074347747
158	0xbd8b4914	-0.06801048
159	0xbd7181da	-0.058961727
160	0xbd80c735	-0.06287996
161	0x3cccf48a	0.025018949
162	0xbca74e63	-0.02042312
163	0xbe002ea9	-0.125178
164	0xbe2ecc99	-0.17070235
165	0xbe280714	-0.1640895
166	0x3db21e28	0.08697158
167	0x3dafc8d4	0.08583227
168	0x3e717de7	0.23583184
169	0xbc47d964	-0.012197826
170	0x3da84f97	0.082183056
171	0xbe3c9f93	-0.18420248
172	0xbd244923	-0.04010881
173	0xbe6987f5	-0.2280577
174	0xbd83ea4d	-0.06441174
175	0xbc94ea95	-0.018178264
176	0x3dede794	0.11616436
177	0xbd693a2b	-0.05694024
178	0xbc8b2d5c	-0.016989402
179	0xbd685636	-0.056722842
180	0xbd9215ff	-0.07133102
181	0xbc320398	-0.010865115
182	0xbe09410c	-0.1340372
183	0x3dd5082e	0.10401951
184	0x3bbd5ce7	0.005778897
185	0xbd03154a	-0.032002725
186	0x3d1c82ae	0.038210563
187	0x3b0bd260	0.002133511
188	0xbd033167	-0.032029536
189	0xbd47c7e6	-0.048774622
190	0xbd5ddc7d	-0.054165352
191	0x3dc7e98f	0.09761345
192	0xbdcab665	-0.0989807
193	0x3d9322b1	0.07184351
194	0xbdf08db6	-0.11745779
195	0xbc154c01	-0.009112359
196	0xbe396d8e	-0.18108198
197	0xbdd5c5ce	-0.10438119
198	0xbd9346be	-0.071912274
199	0x3e09644e	0.1341717
200	0x3d97e922	0.074175134
201	0x3ad5c3de	0.0016308983
202	0x3caf9189	0.021431701
203	0xbe8f38de	-0.27973074
204	0xbd1202fe	-0.035647385
205	0xbd2c5a80	-0.042078495
206	0x3d86a193	0.065737866
207	0xbd2a9473	-0.04164548
208	0xbd81d580	-0.0633955
209	0x3dfea915	0.124345936
210	0x3de6b216	0.11264436
211	0x3e54c6b1	0.2077892
212	0xbccfe8fe	-0.025379654
213	0x3da8962e	0.082317695
214	0xbde13956	-0.10997264
215	0x3d7c6bcc	0.06162624
216	0xbcc05b99	-0.023481177
217	0x3dc284cd	0.09497986
218	0x3e04e8ae	0.12979385
219	0xbdb7af10	-0.089689374
220	0x3ca074eb	0.019587
221	0x3da289a9	0.07936413
222	0xbe360c74	-0.17778188
223	0xbdfe0638	-0.1240353
224	0xbc8447e9	-0.01614757
225	0x3dfa1dde	0.12212728
226	0xbc809324	-0.015695162
227	0xbdad92b2	-0.084752455
228	0xbdf60703	-0.12013056
229	0xbd4a6b55	-0.049418766
230	0x3c906fe7	0.017631484
231	0xbd212902	-0.03934575
232	0x3e2e07d5	0.16995175
233	0x3d9df87c	0.0771341
234	0xbd4c0194	-0.049806193
235	0x3d3bb023	0.045822274
236	0xbdaad7a6	-0.08341913
237	0xbe257dff	-0.16161345
238	0x3cd002ba	0.025391925
239	0x3d736f27	0.059432175
240	0xbc289336	-0.010289004
241	0x3dc778de	0.097398505
242	0x3d143d55	0.036191303
243	0xbd441667	-0.047872927
244	0xbe3580a9	-0.17724861
245	0xbdc2a6c4	-0.09504464
246	0xbdc5edfc	-0.096645325
247	0xbce5250e	-0.02797177
248	0xbd004f10	-0.0313254
249	0x3de73a5e	0.112904295
250	0x3d6e8034	0.058227733
251	0x3d89fd3e	0.06737755
252	0xbd7f4bfa	-0.062328316
253	0x3daf5721	0.085615404
254	0x3d1f2a40	0.038858652
255	0x3e0e2b70	0.13883758

decoder.2.bias f4 [64]
0	0x3d22e43c	0.039768443
1	0x3dc75ddd	0.097347
2	0x3d8bd500	0.06827736
3	0x3d1a1ae1	0.03762329
4	0x3d911168	0.07083398
5	0x3ac0bbbe	0.0014704389
6	0xbd70f2af	-0.05882519
7	0xbe1a2b2f	-0.15055536
8	0xbe300527	-0.17189465
9	0x3c60b7f6	0.013715735
10	0x3d5a258e	0.05325847
11	0x3e19f020	0.15033007
12	0x3ca2d899	0.019878672
13	0xbd0923a7	-0.033481266
14	0x3dc0237e	0.093817696
15	0x3d55bc3b	0.052181464
16	0x3d53724a	0.051622666
17	0xbaa9c610	-0.0012952704
18	0x3e02ce23	0.12773947
19	0xbd27244e	-0.040806107
20	0xbe679366	-0.22614822
21	0x3da1b0e5	0.07895068
22	0x3d58703d	0.052841414
23	0xbe0a19e1	-0.13486435
24	0xbda9b2f2	-0.08286084
25	0xbda28036	-0.079346105
26	0x3d4b0be7	0.049571898
27	0xba5f8b97	-0.00085275754
28	0x3d964ef2	0.073392764
29	0x3df99fd3	0.12188687
30	0xbd692bcf	-0.056926545
31	0xbc9e29b2	-0.019306991
32	0x3e1cde88	0.15319264
33	0x3de1b369	0.11020548
34	0xbcedbf0e	-0.029021766
35	0xbd07975a	-0.033103324
36	0x3df0f3ff	0.117652886
37	0xbbb949fd	-0.005654572
38	0x3e02c750	0.12771344
39	0x3d7d2694	0.06180437
40	0xbe15b47e	-0.14619634
41	0x3c1f3065	0.009716128
42	0xbc812ed6	-0.015769403
43	0x3d5ca2b3	0.0538661
44	0xbcbe9e8a	-0.023268957
45	0x3d963f5f	0.07336306
46	0xbc6b7039	-0.014370018
47	0xbcbea65e	-0.02327269
48	0x3e043c02	0.12913516
49	0x3d13bf73	0.036071252
50	0x3c4912cd	0.012272549
51	0x3da768dc	0.08174297
52	0xbcee0464	-0.029054828
53	0x3da36b70	0.079794765
54	0xbcc5a00d	-0.02412417
55	0x3c805487	0.015665306
56	0xbc52780b	-0.012846003
57	0xbd640353	-0.055667233
58	0xbc2bfed1	-0.010497765
59	0x3d9fa729	0.07795555
60	0x3d6f172a	0.0583717
61	0x3cba5b60	0.02274865
62	0x3d726f88	0.059188396
63	0x3d858929	0.06520302

decoder.4.weight f4 [1, 64]
0	0x3d74c9f2	0.059762903
1	0x3da57f50	0.080809236
2	0xbe15695e	-0.14590976
3	0xbe1ed5c7	-0.15511237
4	0xbd74609c	-0.059662446
5	0xbdcd24c0	-0.10016775
6	0xbe2eb79a	-0.17062226
7	0xbe295432	-0.16536024
8	0xbe8e2f72	-0.27770573
9	0xbe0239de	-0.12717387
10	0x3dbb093c	0.09132621
11	0xbdc762e7	-0.09735661
12	0xbd9a7a9f	-0.07542919
13	0xbe08cf74	-0.13360387
14	0xbde361ab	-0.11102613
15	0xbd6b7039	-0.05748007
16	0x3da79095	0.08181874
17	0x3dc97c42	0.098381534
18	0x3d19b5a4	0.03752674
19	0xbe0cc46c	-0.13746804
20	0x3eb91d9b	0.361554
21	0x3dd7a2a5	0.10529069
22	0xbdba2b4b	-0.09090289
23	0x3f04a30b	0.51811284
24	0x3d4371f8	0.04771611
25	0x3cab08b1	0.020878168
26	0x3da78f1d	0.081815936
27	0xbdd7730f	-0.105199926
28	0x3db097a7	0.086226754
29	0xbe2df020	-0.16986132
30	0xbe80dc03	-0.25167856
31	0xbdef1b2a	-0.11675103
32	0xbdd73329	-0.10507805
33	0x3dce2847	0.10066276
34	0x3d15c783	0.036567222
35	0xbe03d311	-0.12873484
36	0xbd8926fa	-0.06696887
37	0xbe0b38fc	-0.13595957
38	0x3df681a5	0.120364465
39	0xbddf4ca6	-0.109032914
40	0xbe5cd4e9	-0.21565594
41	0x3d75220b	0.05984692
42	0x3ef537ef	0.47894236
43	0x3e0d1e7c	0.1378116
44	0xbe517689	-0.20455374
45	0x3da27313	0.07932105
46	0x3df48a28	0.11940414
47	0x3e0a6686	0.13515672
48	0x3d13690c	0.035988852
49	0xbd3b8b82	-0.045787342
50	0x3cc5afa2	0.0241316
51	0x3d16f37c	0.0368533
52	0x3d8aa20e	0.06769191
53	0x3dc589a9	0.09645397
54	0x3d0bb927	0.034112122
55	0xbdad6a1e	-0.08467506
56	0x3d6ba2c6	0.05752828
57	0x3c2c9d66	0.010535574
58	0x3d328835	0.04358693
59	0x3d897549	0.067118235
60	0x3d4addc3	0.049527895
61	0xbd52ae37	-0.051435675
62	0xbe14f755	-0.14547475
63	0x3d313bdd	0.04326998
