models/cvae_L4_H32_B0.050_LR1e-03.pt (torch, 44213 bytes, 13 tensors)

encoder.0.weight f4 [32, 46]
-0.16220692 0.038057946 0.05163568 0.020974131 -0.04987086 0.17479923 0.04765032 0.041586205
0.002320584 -0.010890182 -0.052508626 -0.030804416 0.02049559 -0.0886091 0.0638523 0.037398662
-0.030342575 -0.004238507 -0.0031730481 -0.023002988 -0.03782414 0.01287814 -0.09126042 0.090169966
0.096814595 0.10682549 0.2168217 -0.04946985 0.18237343 0.06677317 0.04837187 -0.037559405
0.07956842 0.083803006 0.07640967 0.046051774 0.040690377 -0.03783264 0.040236555 0.11531017
0.08654955 0.08832585 0.026786298 0.06021404 0.09025627 -0.00249377 -0.007151172 0.043726902
0.08922895 -0.13890177 -0.043451287 0.034158904 -0.043479692 0.019667393 0.08994943 -0.07609828
-0.027435591 -0.025967373 -0.062258743 -0.0023620015 -0.069734484 -0.013368174 -0.0003398472 0.006647898
-0.034270752 0.0033535704 -0.008908422 0.05106551 0.0039626746 -0.009713191 0.011101361 0.21383004
0.3090499 0.064078726 0.015356056 0.024167277 0.005832952 -1.2229563e-38 0.019919774 0.11209876
0.010297224 0.015892161 0.025102701 2.415528e-38 -4.1896178e-38 0.037639994 -0.013138328 0.069775976
0.018613316 0.0390306 0.024167305 3.8620565e-38 -0.28461066 0.03137339 0.032826938 0.13109706
0.017383127 -0.06645455 0.10171062 0.06511395 0.057067677 -0.073269814 0.04127172 0.021851147
0.10444374 0.061921198 0.01777861 0.009143492 -0.012260542 0.030170338 0.03753088 0.09446655
0.02410401 0.06671675 -0.11153602 0.09718088 0.049837634 0.1172381 0.24856684 0.19134472
0.23528844 0.024782667 -0.08441642 0.027067063 0.20653385 0.20303601 0.23321615 -0.010327414
0.004001062 0.042986736 0.086020075 0.15342508 0.1600274 0.026443034 0.04033377 0.13099007
0.15253632 -0.064016744 -0.05951938 -0.05744505 -0.037030462 0.16363502 0.038324982 -0.091404445
-0.048696227 -0.06967593 0.049643748 -0.015182386 -0.010122235 -0.03852461 -0.11918539 -0.01926853
-0.0009691746 -0.045421638 0.053497013 0.011417401 -0.021342931 0.0069297794 -0.038469773 0.0049982285
-0.106280945 0.0768868 0.057723645 0.0123573 0.028375836 0.07794363 0.08617006 0.0022574074
-0.0081595685 -0.003415571 0.0028624886 0.0063577495 0.13542669 0.0023967358 0.00034970164 -0.0034155718
-5.466925e-10 0.09365035 0.105056904 0.09966425 0.0023236687 0.026524302 0.0022574074 -0.003469311
0.20416562 -0.00048237582 0.02045749 0.1848935 -0.015920477 0.02412557 -0.011179787 -0.024353296
0.071694024 -0.04286265 0.005268504 -0.036207978 -0.016142208 -0.13229774 0.03045433 -0.011824765
0.02978145 -0.00040261968 -0.0017392332 -0.045680366 -0.00048729268 -0.05166601 0.039022364 0.019345729
-0.05324203 0.24558017 0.14058703 -0.0071547627 0.017418485 -0.010468448 -0.009445617 0.025737975
0.11953227 0.032340582 0.073520355 -0.012566618 0.017814733 0.023898872 0.028768292 -0.025116077
0.020030992 0.21674763 0.053694006 0.099680275 0.015191232 0.020381574 0.047149017 -0.0037435682
0.010292909 -0.67198235 0.002071096 -0.030506048 0.00018597567 -0.007963306 -0.040835474 0.06338507
-0.049800545 0.004736102 0.05571207 -0.037977938 0.034401778 0.0036924335 -0.0017682791 0.025935592
-0.007473114 0.013295622 0.009517957 -0.10951724 -0.06570447 0.17132151 0.12639672 0.02859479
00000000: 9219 26be a6e2 1b3d ef7f 533d f1d1 ab3c
00000010: 6345 4cbd 92fe 323e fb2c 433d 4c56 2a3d
00000020: f014 183b bc6c 32bc 4913 57bd 8b59 fcbc
00000030: 5ee6 a73c b078 b5bd ffc4 823d 572f 193d
00000040: fe90 f8bc 2ce3 8abb eaf2 4fbb c370 bcbc
00000050: 7ced 1abd d6fe 523c bee6 babd 08ab b83d
00000060: bb46 c63d 53c7 da3d 8206 5e3e e6a0 4abd
00000070: 1ac0 3a3e 5fc0 883d 9521 463d e4d7 19bd
00000080: c5f4 a23d e9a0 ab3d ac7c 9c3d c9a0 3c3d
00000090: f4aa 263d 66f6 1abd 16cf 243d bd27 ec3d
000000a0: e440 b13d 2fe4 b43d f06e db3c ffa2 763d
000000b0: 47d8 b83d 856e 23bb 6154 eabb fb1a 333d
000000c0: abbd b63d 443c 0ebe faf9 31bd 35ea 0b3d
000000d0: c317 32bd 831d a13c 6837 b83d 6ad9 9bbd
000000e0: 9bc0 e0bc 87b9 d4bc 0603 7fbd cfcb 1abb
000000f0: f4d0 8ebd 3006 5bbc 852d b2b9 9cd6 d93b
00000100: 7d5f 0cbd 93c7 5b3b a1f4 11bc 112a 513d
00000110: 53d9 813b 1324 1fbc 7ce2 353c 43f6 5a3e
00000120: ca3b 9e3e b53b 833d f897 7b3c 74fa c53c
00000130: 5922 bf3b 0c2b 8580 cb2e a33c 0994 e53d
00000140: b0b5 283c 4730 823c 2ea4 cd3c 8c83 0301
00000150: c01a 6481 652c 1a3d 2442 57bc b5e6 8e3d
00000160: f47a 983c 8dde 1f3d 83fa c53c 3645 5201
00000170: 7db8 91be 6281 003d 8a75 063d 4f3e 063e
00000180: 0f67 8e3c 5319 88bd a84d d03d 765a 853d
00000190: ccbf 693d 7c0e 96bd 890c 293d 2d01 b33c
000001a0: 99e6 d53d 15a1 7d3d 73a4 913c 96ce 153c
000001b0: 71e0 48bc c927 f73c fbb9 193d ae77 c13d
000001c0: c675 c53c cba2 883d ff6c e4bd c506 c73d
000001d0: 8c22 4c3d 871a f03d 4e88 7e3e dfef 433e
000001e0: 74ef 703e 0505 cb3c 84e2 acbd bfbb dd3c
000001f0: 9c7d 533e ace8 4f3e 37d0 6e3e 5034 29bc
00000200: 571b 833b dc12 303d 4b2b b03d 771b 1d3e
00000210: 39de 233e 109f d83c 0635 253d 4322 063e
00000220: 7b32 1c3e 361b 83bd 98ca 73bd 804b 6bbd
00000230: 41ad 17bd f08f 273e a8fa 1c3d 4132 bbbd
00000240: b275 47bd 41b2 8ebd 3e57 4b3d 8bbf 78bc
00000250: bbd7 25bc fbcb 1dbd 7817 f4bd 09d9 9dbc
00000260: 3510 7eba 0a0c 3abd af1f 5b3d 0d10 3b3c
00000270: 5fd7 aebc 3413 e33b 7b92 1dbd 2ec8 a33b
00000280: d3a9 d9bd d476 9d3d a16f 6c3d 4676 4a3c
00000290: 7174 e83c e9a0 9f3d ee79 b03d 03f1 133b
000002a0: b6af 05bc c6d7 5fbb 9798 3b3b ab54 d03b
000002b0: 4bad 0a3e 8e12 1d3b 2958 b739 c9d7 5fbb
000002c0: 1146 16b0 c1cb bf3d 1328 d73d c51c cc3d
000002d0: b148 183b 7e49 d93c 03f1 133b 615d 63bb
000002e0: cb10 513e 63e7 fcb9 7796 a73c b954 3d3e
000002f0: a96b 82bc fda2 c53c 6d2b 37bc 9080 c7bc
00000300: 51d4 923d bf90 2fbd 6aa3 ac3b d14e 14bd
00000310: aa3c 84bc 0f79 07be 5c7b f93c a9bc 41bc
00000320: 3af8 f33c b316 d3b9 fbf6 e3ba 561b 3bbd
00000330: 517b ffb9 bd9f 53bd ead5 1f3d ef7a 9e3c
00000340: 5114 5abd 5e79 7b3e 0cf6 0f3e 8072 eabb
00000350: 36b1 8e3c da83 2bbc cac1 1abc 72d8 d23c
00000360: 56cd f43d 8f77 043d d791 963d 37e4 4dbc
00000370: 34f0 913c 91c7 c33c 7bab eb3c 3bc0 cdbc
00000380: 0918 a43c 17f3 5d3e 3fee 5b3d 2c25 cc3d
00000390: a5e4 783c 42f7 a63c 541f 413d a756 75bb
000003a0: 97a3 283c 0907 2cbf 3abb 073b d2e7 f9bc
000003b0: 7702 4339 8778 02bc 1943 27bd 08d0 813d
000003c0: a8fb 4bbd 4e31 9b3b 5732 643d c18e 1bbd
000003d0: e1e8 0c3d c1fc 713b 9ac5 e7ba e176 d43c
000003e0: 06e1 f4bb e1d5 593c 35f1 1b3c 934a e0bd
000003f0: 1190 86bd e86e 2f3e 246e 013e 9f3f ea3c

encoder.0.bias f4 [32]
0.1365185 0.011049001 0.16852671 0.12581027 0.058429006 0.12668039 0.06848764 0.11390284
0.15864336 0.22770117 0.19559708 0.04277923 0.07059465 0.10354544 0.15007646 0.15216444
0.17352109 -0.010192746 -0.027316246 0.19327849 -0.018768353 0.051959988 -0.0065080207 0.11682954
0.1823889 0.00068706484 0.17688245 0.15177129 -0.018573945 0.03905866 0.23489474 0.13748217
00000000: 81cb 0b3e de06 353c 4492 2c3e 68d4 003e
00000010: 4153 6f3d 81b8 013e 3f43 8c3d e445 e93d
00000020: 6873 223e 7f2a 693e 9a4a 483e 4639 2f3d
00000030: ee93 903d a20f d43d a5ad 193e ffd0 1b3e
00000040: 83af 313e 7aff 26bc 52c6 dfbc ccea 453e
00000050: 17c0 99bc ffd3 543d 3c41 d5bb 5344 ef3d
00000060: 28c4 3a3e 241c 343a ac20 353e ef69 1b3e
00000070: 6328 98bc f9fb 1f3d 3f88 703e 20c8 0c3e

encoder.2.weight f4 [32, 32]
-0.06962252 -0.060994178 -0.04925685 -0.01780535 0.014419003 0.02144794 0.17819408 0.1964781
0.19148812 0.0053396034 -0.12241015 -0.008345286 -0.0048475005 0.1712831 0.15866259 0.01625752
0.03801288 0.02165532 -0.019585254 0.028923916 -0.0025534302 -0.0032392093 -0.20112674 0.0022316498
-0.1372761 0.14755063 0.11411887 0.16991688 -0.23716724 0.23838319 0.022040429 -0.050737392
-0.029898059 0.016045278 0.16911767 -0.10365239 0.0049908846 -0.0039260285 0.15082988 -0.030768799
-0.04800563 -0.029987175 -0.09557987 0.10875976 0.13072196 0.124622986 -0.045754235 0.10533783
0.090686746 0.14419413 0.12590604 0.15443356 0.004797783 0.10971486 0.029290698 0.074045986
-0.018652527 0.11143939 0.06104838 -0.17556684 0.028814102 -0.111240365 0.010365134 0.022766773
0.13556187 -0.033925124 -0.15303968 0.08354901 0.05813679 0.2725541 0.009963995 0.13811116
0.19105993 -0.2642798 0.15003885 0.15153559 -0.20446582 -0.046021063 0.086851306 -0.109058894
0.15392321 0.12324052 0.072610885 0.16226184 0.03427495 -0.12280119 -0.060855664 0.013874386
0.08186625 0.104481004 0.09357867 0.31582987 0.21589892 0.15272549 0.002745308 0.14745559
0.032159097 -0.06575499 0.3234449 0.10717865 -0.060239192 -0.45058635 0.098382704 0.10779283
0.07743159 0.065464824 -0.281289 -0.3357666 0.39887276 0.004120976 0.06419052 0.18156995
0.19285206 -0.22900915 0.26186594 -0.037235986 -0.08384975 0.22453235 0.25865504 0.016677702
0.14676209 -0.059667256 0.033685535 -0.5684929 -0.47120982 -0.25357798 0.15175575 -0.22452018
-2.6351213e-17 -1.1785624e-20 -1.1850013e-11 -5.9688424e-21 -7.7921e-14 -3.587265e-10 -2.9028852e-13 -1.2364566e-14
-1.2694316e-10 -1.9786895e-16 -8.674324e-11 -2.1675726e-10 -8.8001286e-13 -1.4084539e-10 -5.9461824e-11 -1.0523257e-10
-1.1768837e-16 -1.05125556e-14 -1.4846981e-15 -1.0431668e-15 -7.936908e-14 -4.487744e-14 -1.2216043e-16 -1.2385271e-24
-7.0481754e-16 -6.450542e-15 -1.10507645e-13 -1.7978989e-08 -3.563295e-15 -2.8640188e-09 -3.663135e-13 -1.3294469e-11
0.12726155 0.14568497 0.12992337 0.13587035 0.016089894 0.15594532 -0.07965954 0.14494567
0.0905446 -0.11330232 -0.0045351065 0.036656704 -0.41487274 0.031640146 0.06721735 0.02309779
0.049197357 0.15582076 0.08544646 0.047062095 0.017143004 -0.015388037 -0.32181853 -0.0727253
0.10021304 0.11222206 -0.124 0.1682484 0.25004166 0.033064995 0.17215896 0.098538935
0.13778344 -0.14707847 0.19194396 0.011556574 -0.17196456 -0.3217754 0.08781241 -0.059380524
0.028234122 0.15456149 -0.31857884 -0.23839235 0.38428882 -0.085809186 0.03362084 0.11372255
0.076450445 -0.34440756 0.1712218 0.19014499 -0.05259865 0.18922438 0.15653862 0.16253942
0.057100277 -0.06553748 -0.004040901 -0.2845055 -0.19072142 -0.2446682 -0.010723909 -0.19552235
0.06596562 0.003182118 0.07533081 -0.03472235 0.20681432 -0.08187705 0.1969141 -0.053223077
-0.043835547 0.19594152 0.19270132 0.016324507 0.13498914 0.030643152 -0.03492056 0.14436853
-0.033498786 0.10551663 0.14587934 0.041149974 0.16435404 0.07379996 -0.025342584 -0.0014972762
-0.13478951 0.024419148 0.116594985 -0.04767953 0.016270215 0.06746328 -0.031813253 -0.10869693
00000000: 4096 8ebd 08d5 79bd 8dc1 49bd 86dc 91bc
00000010: af3d 6c3c 97b3 af3c 8278 363e 8e31 493e
00000020: 7615 443e d7f7 ae3b 2cb2 fabd abba 08bc
00000030: c8d7 9ebb d664 2f3e 7278 223e 7e2e 853c
00000040: 65b3 1b3d 7f66 b13c 4171 a0bc d9f1 ec3c
00000050: 7357 27bb ea48 54bb 2bf4 4dbe df40 123b
00000060: 1b92 0cbe 8317 173e 27b7 e93d b1fe 2d3e
00000070: f8db 72be b91a 743e 218e b43c 03d2 4fbd
00000080: c6ec f4bc 6371 833c 2f2d 2d3e b447 d4bd
00000090: 938a a33b eaa5 80bb 2673 1a3e d90e fcbc
000000a0: 8da1 44bd aaa7 f5bc 61bf c3bd 70bd de3d
000000b0: fadb 053e 563a ff3d cb68 3bbd 5cbb d73d
000000c0: f9b9 b93d a0a7 133e 83ed 003e d523 1e3e
000000d0: b936 9d3b 2fb2 e03d 0cf3 ef3c 6ca5 973d
000000e0: 2fcd 98bc 563a e43d de0d 7a3d cbc7 33be
000000f0: 8d0b ec3c fdd1 e3bd 86d2 293c 6281 ba3c
00000100: bbd0 0a3e 12f5 0abd 6fb6 1cbe be1b ab3d
00000110: d820 6e3d 368c 8b3e 0640 233c 036d 0d3e
00000120: 37a5 433e af4f 87be c9a3 193e 252c 1b3e
00000130: 7d5f 51be 9580 3cbd 19df b13d 455a dfbd
00000140: 0c9e 1d3e 8765 fc3d 04b5 943d f827 263e
00000150: e463 0c3d 317f fbbd ca43 79bd 6551 633c
00000160: 7ea9 a73d 23fa d53d 2ca6 bf3d 74b4 a13e
00000170: 9b14 5d3e 1264 1c3e a0ea 333b 99fe 163e
00000180: 42b9 033d 8daa 86bd 929a a53e 7b80 db3d
00000190: 5fbd 76bd 41b3 e6be df7c c93d 7dc2 dc3d
000001a0: 7494 9e3d 6c12 863d 1d05 90be 9ae9 abbe
000001b0: 0d39 cc3e 4109 873b 5276 833d 79ed 393e
000001c0: 037b 453e 6081 6abe 4b13 863e c384 18bd
000001d0: 6bb9 abbd cfeb 653e 6f6e 843e ad9f 883c
000001e0: cd48 163e a765 74bd d8f9 093d c088 11bf
000001f0: 6a42 f1be f9d4 81be dc65 1b3e 9ee8 65be
00000200: 0b0c f3a3 c89f 5e9e b777 50ad 1a7f e19d
00000210: 6676 afa9 4436 c5af fc6a a3aa 7fbd 5ea8
00000220: 5393 0baf 9b20 64a5 1ac0 beae bf53 6eaf
00000230: 9cb3 77ab 74dc 1aaf 08c2 82ae ac68 e7ae
00000240: 7aaf 07a5 9b60 3da8 b1f7 d5a6 1056 96a6
00000250: 29b9 b2a9 2a1c 4aa9 65d7 0ca5 1da7 bf97
00000260: 5b26 4ba6 c067 e8a7 52d7 f8a9 3770 9ab2
00000270: 9861 80a7 5ad0 44b1 5737 ceaa f7e0 69ad
00000280: da50 023e 712e 153e a20a 053e 9921 0b3e
00000290: f4ce 833c 21b0 1f3e 8a24 a3bd a36c 143e
000002a0: 726f b93d 0c0b e8bd 3b9b 94bb 5725 163d
000002b0: 336a d4be 1999 013d 40a9 893d 9437 bd3c
000002c0: 2b83 493d 7a8f 1f3e 8efe ae3d 2fc4 403d
000002d0: 7c6f 8c3c 1b1e 7cbc 66c5 a4be 01f1 94bd
000002e0: 7f3c cd3d aed4 e53d b6f3 fdbd 4f49 2c3e
000002f0: 7605 803e 296f 073d 704a 303e c8ce c93d
00000300: 1a17 0d3e bd9b 16be f58c 443e c957 3d3c
00000310: 7a17 30be bfbf a4be fed6 b33d fe38 73bd
00000320: 3f4b e73c 5e45 1e3e c41c a3be 201d 74be
00000330: 81c1 c43e babc afbd 02b6 093d 5ee7 e83d
00000340: 0d92 9c3d 3056 b0be c454 2f3e 5eb5 423e
00000350: af71 57bd 09c4 413e a94b 203e bc70 263e
00000360: fbe1 693d 8438 86bd 8969 84bb b4aa 91be
00000370: 7a4c 43be 4d8a 7abe 56b3 2fbc 0337 48be
00000380: fc18 873d 158b 503b 0a47 9a3d 0639 0ebd
00000390: 22c7 533e 28af a7bd daa3 493e 7100 5abd
000003a0: e78c 33bd e5a4 483e 7f53 453e f9ba 853c
000003b0: 983a 0a3e 5907 fb3c dc08 0fbd 58d5 133e
000003c0: 0636 09bd 1a19 d83d 6561 153e e08c 283d
000003d0: 6d4c 283e 6f24 973d 409b cfbc 4140 c4ba
000003e0: 4306 0abe aa0a c83c 5ac9 ee3d 9c4b 43bd
000003f0: 1d49 853c 302a 8a3d 9d4e 02bd 7f9c debd

encoder.2.bias f4 [32]
-0.023799587 -0.038456917 0.10564182 0.050842058 -4.34011e-10 0.044105392 0.011548565 -0.04248308
0.045331527 -0.04504801 0.15039557 -0.023231188 0.047117546 0.04368886 0.030173782 0.21698265
0.10015557 -0.0074380394 0.0726785 0.14287122 0.07390824 0.10375652 -0.09605734 -0.060014825
0.28367612 -2.02724e-37 -2.0209113e-26 0.08811447 0.22022708 0.22764951 0.25701696 0.11248524
00000000: 5af7 c2bc 0085 1dbd bd5a d83d c33f 503d
00000010: 9e99 eeaf dba7 343d 3136 3d3c bd02 2ebd
00000020: 8dad 393d 4384 38bd 4c01 1a3e 554f bebc
00000030: 54fe 403d 17f3 323d 022f f73c b330 5e3e
00000040: 5d1e cd3d ccba f3bb 77d8 943d d54c 123e
00000050: 345d 973d 4c7e d43d b6b9 c4bd 1bd2 75bd
00000060: ff3d 913e 81f7 8982 3024 c894 5c75 b43d
00000070: 3583 613e f41c 693e ba97 833e a95e e63d

fc_mu.weight f4 [4, 32]
0.18255728 -0.0601877 0.27432287 -1.0337011 -0.0027258669 0.0704067 -0.5709937 -0.13704649
-0.22631866 0.15306185 0.10092674 0.17786483 0.3808452 -0.41789362 -0.13183835 0.21462157
-0.16869177 -0.020750549 -0.33845443 -0.17233805 0.06425191 0.19869475 -0.15493672 0.299733
0.23942876 0.0001882067 0.00012523729 -0.1232781 -0.19666366 0.18314388 -0.19182198 0.28214782
0.0053748805 -0.011083057 0.004745369 -3.8362596e-05 -1.4504072e-37 -0.024092989 0.0038030387 -0.027568089
-0.011143403 -0.010608122 -0.023525614 0.025882905 -0.0049757175 -0.004708648 0.009535249 0.0016347767
0.012213074 -0.00467455 -0.008508171 0.0053189346 -0.00083172874 0.020814685 -0.009079377 -0.0048511545
-0.00892844 -2.1362321e-38 1.2320557e-37 0.016536476 -0.0012917196 -0.019090308 0.0029582363 -0.015375679
0.00019951057 0.0027613784 0.007848381 0.004818865 1.638509e-37 -0.033024445 -0.0021856974 0.0025109018
0.0035024635 0.0071259127 -0.014231017 0.024281254 -0.008894251 -0.00802471 -0.021635024 -0.015201105
0.009551424 0.0065133986 -0.008181152 -0.01932936 -0.019115802 -0.037942942 0.022567498 -0.008545533
0.029207548 -2.2588322e-38 -1.034856e-38 0.03125598 -0.032168206 0.007830041 0.010252553 0.004414207
0.0012891861 -0.043533772 0.023070876 -0.002206959 -1.7342888e-37 -0.00251053 0.0024384826 0.02320464
-0.00342812 -0.018084543 0.013903152 -0.01425417 -0.0009862263 -0.0036736403 -0.0038812791 0.012479231
-0.0009635993 0.0006959786 -0.0010190881 -0.00077202043 0.004617394 0.014382641 -0.017330198 -0.000969428
-0.025617892 -2.2132059e-38 5.0264783e-38 0.025473878 -0.03449586 -0.010664629 0.025112033 -0.017255811
00000000: 4cf0 3a3e 6187 76bd 0c74 8c3e 5150 84bf
00000010: 75a4 32bb 6331 903d a52c 12bf ea55 0cbe
00000020: 14c0 67be 3fbc 1c3e aeb2 ce3d 3322 363e
00000030: 24fe c23e 27f6 d5be a200 07be c2c5 5b3e
00000040: 89bd 2cbe 0efd a9bc e649 adbe 6379 30be
00000050: 8196 833d a376 4b3e bba7 1ebe 9b76 993e
00000060: d02c 753e 5a59 4539 2152 0339 3a79 fcbd
00000070: 3362 49be 128a 3b3e fb6c 44be ae75 903e
00000080: c41f b03b b695 35bc 0a7f 9b3b 86e7 20b8
00000090: 516b 4582 a95e c5bc 673c 793b 79d6 e1bc
000000a0: d292 36bc b0cd 2dbc cab8 c0bc 6308 d43c
000000b0: 580b a3bb 014b 9abb bc39 1c3c 0146 d63a
000000c0: 5819 483c f82c 99bb db65 0bbc 754a ae3b
000000d0: 5f08 5aba 8f83 aa3c abc1 14bc 6ff6 9ebb
000000e0: 9748 12bc 769d e880 e0b2 2702 8177 873c
000000f0: eb4e a9ba 4763 9cbc f8de 413b 46ea 7bbc
00000100: b633 5139 3ef8 343b 7f96 003c 92e7 9d3b
00000110: b505 5f02 a444 07bd eb3d 0fbb f18d 243b
00000120: 9689 653b 7d80 e93b 3629 69bc 7be9 c63c
00000130: 31b9 11bc 137a 03bc ef3b b1bc 0e0e 79bc
00000140: 937d 1c3c 596e d53b 3d0a 06bc 9b58 9ebc
00000150: be98 9cbc 0f6a 1bbd 79df b83c 9002 0cbc
00000160: ab44 ef3c 0df7 f580 93af 7080 4506 003d
00000170: cfc2 03bd 9349 003c 53fa 273c 0da5 903b
00000180: e8f9 a83a 7850 32bd 22ff bc3c a1a2 10bb
00000190: 250f 6c82 b487 24bb f3ce 1f3b a817 be3c
000001a0: 4faa 60bb 0926 94bc 0cca 633c 528a 69bc
000001b0: 4344 81ba 75c1 70bb 0f5d 7ebb b075 4c3c
000001c0: 0e9a 7cba 5572 363a ec92 85ba 6a61 4aba
000001d0: 824d 973b 2ba5 6b3c 0ff8 8dbc 3621 7eba
000001e0: 9ddc d1bc 2dff f080 71d5 8801 98ae d03c
000001f0: 884b 0dbd b2ba 2ebc c0b7 cd3c 0f5c 8dbc

fc_mu.bias f4 [4]
-0.012799494 0.029477715 0.033199217 0.023732843
00000000: f8b4 51bc 407b f13c e7fb 073d 616b c23c

fc_logvar.weight f4 [4, 32]
0.03133243 -0.07312498 -0.36931184 -0.8100521 1.1584149e-11 -0.55571496 -0.89478153 -0.11535073
-0.2532195 -0.25270325 -0.3089018 -0.4623282 -0.32872808 1.2081077 0.2097014 -0.18769221
-0.180082 -0.24195401 0.5223313 -0.09349481 -0.40920547 -0.41147912 0.018899273 -0.2479591
-0.56442255 2.2863297e-38 1.5364832e-26 -0.04321165 -0.12183382 -0.16231366 0.13022223 -0.2119918
-2.3030712e-05 -0.0014471947 -0.001410445 -0.000415986 -1.4828256e-37 -0.00081708643 1.3982222e-05 -0.00036826398
0.0010597315 0.00035485002 0.0008999252 -0.00068924535 0.0012045158 -0.0003094431 -0.00031243067 -0.00093977567
7.280118e-05 0.00056686794 3.0639556e-05 -0.00010335565 0.00061568373 0.002475487 7.104907e-05 -0.000103223065
-6.5445092e-06 -3.0005785e-38 8.0401495e-38 -0.00060085976 -1.518385e-06 -0.0002325603 -9.172036e-07 -0.00044112434
-0.000745768 -0.0013491692 -0.00019955159 -0.0002527455 -8.987729e-38 -0.0002709705 0.0011353451 0.000880683
0.0010809337 -0.0002803426 -0.0001839379 -0.0008121645 -0.0009454333 0.00012042949 -0.00045918586 -0.00033123413
-0.001833867 0.00086928846 0.00020566522 -0.00032942812 0.00031866238 0.0011835292 -0.00026250177 -0.0017119348
1.0447058e-05 2.3981637e-38 -9.759315e-38 0.00085151056 -0.00093737454 -0.00033012978 0.00020840348 -0.0002486608
0.0002644386 -0.003535789 -0.0003785658 -0.0005791985 -7.8160976e-38 0.00037288258 -0.00012311013 0.0007424231
2.5768486e-05 -0.00059281156 -0.00022360132 -0.0006613545 0.0001409633 3.5263998e-05 0.00074930437 0.00039633593
-0.0015578438 -2.2038981e-05 0.00057687564 0.00034411318 0.00095814286 0.0042795897 -0.0012793632 0.001321486
-0.0031570303 -3.9569987e-38 -5.019036e-38 0.0015037046 -0.0017858099 -0.0012191401 0.0011736563 -0.0030396252
00000000: 6f56 003d 8dc2 95bd 7116 bdbe 935f 4fbf
00000010: 5eca 4b2d 5643 0ebf 6710 65bf 013d ecbd
00000020: fca5 81be 5262 81be 6028 9ebe 48b6 ecbe
00000030: 0c4f a8be 46a3 9a3f f7bb 563e 6332 40be
00000040: 6a67 38be cbc2 77be 81b7 053f 357a bfbd
00000050: 6183 d1be 64ad d2be a6d2 9a3c fee8 7dbe
00000060: ff7d 10bf 92f5 f800 7a2a 9814 b3fe 30bd
00000070: 0384 f9bd 8d35 26be fa58 053e 6114 59be
00000080: 1432 c1b7 ccaf bdba aede b8ba b218 dab9
00000090: eed4 4982 be31 56ba 3095 6a37 8e13 c1b9
000000a0: b0e6 8a3a 2a0b ba39 f5e8 6b3a 79ae 34ba
000000b0: d8e0 9d3a c03c a2b9 bccd a3b9 475b 76ba
000000c0: d6ac 9838 dd99 143a f982 0038 a4c0 d8b8
000000d0: d665 213a c83b 223b 2e00 9538 7679 d8b8
000000e0: e898 dbb6 f65d 2381 aadf da01 0483 1dba
000000f0: 50cb cbb5 6edb 73b9 c035 76b5 b546 e7b9
00000100: a57f 43ba 9bd6 b0ba b93e 51b9 ed82 84b9
00000110: 54ab f481 0b11 8eb9 dccf 943a a3dd 663a
00000120: 1eae 8d3a f2fa 92b9 74df 40b9 70e7 54ba
00000130: f4d6 77ba 178f fc38 e2be f0b9 7ea9 adb9
00000140: 5e5e f0ba f6e0 633a d6a7 5739 18b7 acb9
00000150: 2412 a739 a620 9b3a 64a0 89b9 0063 e0ba
00000160: c645 2f37 8691 0201 40d6 0482 e837 5f3a
00000170: 24ba 75ba 4515 adb9 e286 5a39 b05e 82b9
00000180: 59a4 8a39 b2b8 67bb 3e7a c6b9 5ad5 17ba
00000190: 40c6 d481 747f c339 2017 01b9 2c9f 423a
000001a0: 6729 d837 e966 1bba 8676 6ab9 c05e 2dba
000001b0: 8ccf 1339 6ee8 1338 f76c 443a 4fcb cf39
000001c0: 9030 ccba 5ae0 b8b7 7839 173a 176a b439
000001d0: e12b 7b3a cd3b 8c3b 4eb0 a7ba b635 ad3a
000001e0: 2ee6 4ebb 8370 5781 93a1 8881 f417 c53a
000001f0: d611 eaba 8ecb 9fba 5fd5 993a 7334 47bb

fc_logvar.bias f4 [4]
-0.14773192 4.063891e-05 0.0013243051 0.0031679654
00000000: 0947 17be b373 2a38 4e94 ad3a a49d 4f3b

decoder.0.weight f4 [32, 49]
-0.3106916 0.0021763819 0.0011652124 0.00035790695 -0.009308993 -0.0077999462 -0.51179886 0.010894472
0.053057928 0.050226282 -0.069997765 0.043978304 0.03249471 -0.038457785 0.057359774 0.11186955
-0.099673174 0.010674316 0.009986566 -0.0022373563 -0.010779108 0.0031712165 0.033893898 -0.00409461
0.10391306 -0.024335088 -0.08818857 0.14978628 0.1386513 -0.14354794 -0.0053335205 -0.053710584
-0.03556971 0.012070667 0.04899018 0.040051106 0.040068064 0.035735402 0.08581193 0.08807567
0.027858503 0.072880045 0.034136094 0.040959068 -0.018060029 0.02355546 0.031825766 0.12366911
-0.045872547 -0.34022558 0.003066252 0.0014547544 -0.0016094095 -0.027598614 0.01146147 -0.31479076
-0.000819462 -0.047522303 0.014656584 0.06817726 -0.026131935 -0.06853706 0.06806548 -0.0863064
0.0423086 0.078183666 0.034186155 -0.05800395 0.058547918 0.0084186485 0.006335131 0.007880625
0.0011601272 0.026419079 -0.0069526727 -0.047473196 -0.12350561 0.025238916 -0.13591978 -0.041759662
-0.11815812 0.041101318 0.05182079 -0.0072496273 -5.5438646e-05 -0.008785231 -0.0065817763 -0.05218764
0.04008678 -0.008886017 0.0124229 -0.020196153 0.016898671 0.026456958 0.030583091 0.05831498
-0.049314722 0.005890125 0.028155595 -0.0021083995 -0.002792907 0.0010615449 0.008555019 -0.0027921586
-0.5387709 -0.011216946 -0.048349854 -0.028826999 -0.049664237 -0.006325126 0.02593895 -0.0004839574
-0.025438646 0.13540879 0.020843793 -0.097621575 0.0013578605 -0.021748155 -0.005416753 -0.02897167
-0.044102117 -0.0032952775 -0.0849742 0.039554548 0.048248984 0.15727171 0.08355299 0.07958059
0.044010676 0.13187279 -0.0142153185 0.068310186 -0.03507702 -0.084541775 -0.0833829 -0.01419904
-0.02818995 0.008255205 -0.04653445 0.058033317 0.01330892 0.061446663 0.09373647 0.036644306
-0.019447265 0.0784242 0.029698078 -0.34621075 0.0013901041 -0.0023732276 9.149909e-05 -0.018184176
-0.025328184 0.55767316 0.022473827 -0.027898557 -0.017775334 -0.071204394 0.02774374 0.020049578
0.0070879334 0.0001670053 0.006046362 0.03885033 0.028169261 0.0063393367 0.0005197239 -0.0050361706
0.0068719597 0.0036439963 0.005490405 0.053558324 0.0024570285 -0.069932625 0.14366221 0.029835863
-0.16337009 0.09912745 0.003574688 0.059242498 -0.008984506 0.12497764 0.13566288 0.050007906
0.03107287 0.0391055 0.0007557091 0.12374901 0.020175144 0.03259202 0.0199223 0.07565155
0.108827494 0.10943833 0.16823657 0.029542835 -0.1250522 0.002703482 -0.006145043 0.0018300788
-0.005811743 -0.0013496852 -0.3141471 -0.011780775 0.15045653 -0.07475897 -0.0018035026 -0.05451214
0.029212112 -0.025570353 -0.04011655 -0.060908258 -0.07087389 0.006630253 -0.013363659 0.007930535
0.0052120932 -0.03464209 0.03768737 -0.0016024167 0.06126546 -0.08863681 0.00023209966 0.04442066
0.24248433 -0.04199526 0.20465627 0.1721533 0.014068977 0.037063032 0.059208825 0.1313219
0.0049721966 0.06617642 0.093138136 0.079639584 0.08647817 0.102839135 0.029852174 -0.067590274
0.024591727 0.007966473 -0.012966126 0.00070461957 0.05391854 0.21069728 -0.0038219232 0.001049418
0.0016028004 0.014329003 -0.021051237 0.28254387 0.010532424 -0.07539024 -0.19181933 0.0107250195
00000000: f812 9fbe a1a1 0e3b 0aba 983a 75a5 bb39
00000010: bf84 18bc b196 ffbb 4005 03bf ba7e 323c
00000020: 4553 593d 13ba 4d3d fd5a 8fbd 9822 343d
00000030: 2c19 053d e985 1dbd 15f2 6a3d dd1b e53d
00000040: 7321 ccbd 54e3 2e3c b29e 233c 9ca0 12bb
00000050: db9a 30bc 2fd4 4f3b 54d4 0a3d 142c 86bb
00000060: 5fd0 d43d 615a c7bc 369c b4bd 9361 193e
00000070: 9bfa 0d3e 3bfe 12be d0c4 aebb a1ff 5bbd
00000080: 8bb1 11bd 0cc4 453c eda9 483d a10c 243d
00000090: 691e 243d 495f 123d 2abe af3d 0461 b43d
000000a0: 8437 e43c 2242 953d 4ad2 0b3d b2c4 273d
000000b0: a0f2 93bc 61f7 c03c bc5b 023d 3b46 fd3d
000000c0: dae4 3bbd 0c32 aebe 2cf3 483b 75ad be3a
000000d0: d2f2 d2ba 7d16 e2bc e4c8 3b3c 412c a1be
000000e0: 2ad1 56ba bfa6 42bd 2b22 703c 85a0 8b3d
000000f0: a412 d6bc 285d 8cbd ea65 8b3d 69c1 b0bd
00000100: c84b 2d3d c21e a03d c806 0c3d 8d95 6dbd
00000110: f1cf 6f3d 5fee 093c ee96 cf3b bd1d 013c
00000120: 690f 983a d36c d83c 3fd3 e3bb 4173 42bd
00000130: 82f0 fcbd d8c1 ce3c 8e2e 0bbe 2e0c 2bbd
00000140: e2fc f1bd db59 283d 0942 543d 488e edbb
00000150: cb86 68b8 eeef 0fbc f1ab d7bb b5c2 55bd
00000160: 0932 243d a896 11bc 6b89 4b3c 6772 a5bc
00000170: 156f 8a3c 43bc d83c 6489 fa3c b0db 6e3d
00000180: 3cfe 49bd f301 c13b 90a6 e63c 132d 0abb
00000190: 3409 37bb 8923 8b3a 5a2a 0c3c a6fc 36bb
000001a0: e4ec 09bf 48c7 37bc 7f0a 46bd 9926 ecbc
000001b0: ba6c 4bbd 0143 cfbb ec7d d43c aabb fdb9
000001c0: b564 d0bc 9aa8 0a3e 9ac0 aa3c d2ed c7bd
000001d0: 3dfa b13a 3029 b2bc 047f b1bb ff55 edbc
000001e0: 6ca4 34bd 95f5 57bb f406 aebd f303 223d
000001f0: baa0 453d d60b 213e d41d ab3d 26fb a23d
00000200: 8a44 343d a909 073e 5ee7 68bc 36e6 8b3d
00000210: ecac 0fbd 3d24 adbd a7c4 aabd 17a3 68bc
00000220: 9cee e6bc d740 073c e89a 3ebd 58b4 6d3d
00000230: a80d 5a3c 7faf 7b3d e8f8 bf3d 5718 163d
00000240: df4f 9fbc de9c a03d 6249 f33c 8942 b1be
00000250: 2734 b63a 2788 1bbb 33e3 bf38 fbf6 94bc
00000260: 0d7d cfbc abc3 0e3f 081b b83c 848b e4bc
00000270: 949d 91bc 9cd3 91bd d746 e33c 033f a43c
00000280: e541 e83b 251e 2f39 9020 c63b 8621 1f3d
00000290: 39c3 e63c 36ba cf3b 153e 083a 7606 a5bb
000002a0: 2d2e e13b 1dd0 6e3b dbe8 b33b f95f 5b3d
000002b0: 1906 213b d638 8fbd 301c 133e 576a f43c
000002c0: 7d4a 27be 5503 cb3d 5045 6a3b 43a8 723d
000002d0: c033 13bc 47f4 ff3d 36eb 0a3e 17d5 4c3d
000002e0: 888c fe3c 172d 203d c71a 463a 1f70 fd3d
000002f0: 5846 a53c 367f 053d 1734 a33c 33ef 9a3d
00000300: f3e0 de3d 3421 e03d 3546 2c3e d103 f23c
00000310: af0d 00be e72c 313b 5b5c c9bb 41df ef3a
00000320: 6f70 bebb ece7 b0ba e4d7 a0be 2704 41bc
00000330: 4711 1a3e 3b1b 99bd 8163 ecba 1f48 5fbd
00000340: 3d4e ef3c eb78 d1bc 4051 24bd f07a 79bd
00000350: 5426 91bd 9842 d93b 40f3 5abc 13ef 013c
00000360: 35ca aa3b dde4 0dbd 125e 1a3d 2f08 d2ba
00000370: 7ef1 7a3d 3787 b5bd c75f 7339 70f2 353d
00000380: d04d 783e 3903 2cbd 6a91 513e f448 303e
00000390: 9181 663c 68cf 173d f484 723d 4079 063e
000003a0: cfed a23b 8187 873d 35bf be3d 141a a33d
000003b0: 771b b13d 539d d23d 8c8c f43c c56c 8abd
000003c0: 9774 c93c cf85 023c e06f 54bc 38b6 383a
000003d0: b0d9 5c3d 07c1 573e 3b79 7abb a08c 893a
000003e0: 0f15 d23a 32c4 6a3c a573 acbc 97a9 903e
000003f0: 3090 2c3c 3366 9abd 496c 44be feb7 2f3c

decoder.0.bias f4 [32]
0.18558447 -0.17468412 0.03306622 0.21295251 0.22885858 0.17458564 0.023444112 0.027896224
0.20834607 0.1423306 0.057580642 -0.111078456 0.2602249 -0.00043789714 0.1098546 -0.06875101
-0.024313938 0.105912305 0.028125163 0.17985669 -0.13019891 0.043356657 0.04316642 0.026899515
0.16880102 0.01963108 0.015085575 -0.041800827 0.12220883 0.10704123 -0.15473388 -0.028660243
00000000: db09 3e3e 65e0 32be 7270 073d 3910 5a3e
00000010: e759 6a3e 94c6 323e de0d c03c 9f86 e43c
00000020: ac58 553e 1dbf 113e aed9 6b3d 1a7d e3bd
00000030: 333c 853e 8f95 e5b9 73fb e03d 54cd 8cbd
00000040: 062e c7bc 8de8 d83d be66 e63c 5a2c 383e
00000050: dd52 05be c096 313d 46cf 303d 5f5c dc3c
00000060: 2dda 2c3e 5cd1 a03c 7d29 773c 5837 2bbd
00000070: a048 fa3d 6f38 db3d 8f72 1ebe e3c8 eabc

decoder.2.weight f4 [32, 32]
0.01057857 0.04980519 0.2140434 -0.27604896 0.16138995 0.082669176 -0.11293887 -0.007944447
0.046674844 -0.032694966 -0.047316752 0.07919067 -0.09506321 9.900517e-06 0.051926114 0.20294315
0.22129612 -0.113413885 0.12649241 0.007307631 -0.03251831 0.0037589548 0.13616504 0.06175387
0.003455812 -0.09192325 0.019070113 0.057305004 -0.16192059 -0.01630606 0.0019014871 0.14534363
0.03284771 0.07649844 -0.0053228373 0.14194459 -0.15192357 0.054186273 0.16798547 0.04894362
-0.055284187 -0.105857275 -0.019851837 0.14412308 0.04426596 7.502141e-06 -0.29908693 0.03850924
-0.034131605 -0.03922403 0.16622406 -0.16724482 -0.014446451 -0.03406527 -0.010748166 -0.042836115
-0.08965941 0.14407286 -0.0043049087 0.010514094 0.06499999 0.059140563 0.03911149 -0.10247911
0.017808307 0.035698354 -0.13155763 0.040820904 -0.0097915055 -0.06115943 -0.06625712 0.1680552
0.01071186 -0.10781414 0.13799345 -0.026367519 0.06808696 4.9094056e-06 0.11678723 -0.21381049
-0.13898274 -0.0890538 2.519571e-05 -0.032822814 -0.18560405 -0.05079625 0.02865113 0.04214228
0.21620618 -0.13725846 -0.09404961 -0.037407286 -0.04757143 -0.16203873 -0.0035500654 -0.049327567
0.035392433 -0.07739678 -0.02353242 -0.004155196 0.023367032 0.11623717 0.17599043 -0.05082735
0.038109142 0.024260262 -0.045786016 -0.015844502 0.04477473 8.149043e-06 0.11714527 -0.060661424
-0.15886436 0.025325833 0.17410424 0.13905393 -0.11010892 0.10782307 -0.12495673 -0.11073939
0.20653161 -0.06561876 0.16036269 0.06786009 0.21269958 0.14920947 0.07658782 -0.11261097
-0.050899718 0.012477108 0.04555588 0.15706815 -0.121302955 -0.077841915 -0.042915925 0.1668494
0.12737776 0.19476427 0.16683374 -0.12679845 -0.056835547 4.508872e-06 -0.063267894 -0.06294205
-0.1357866 0.0914757 -0.098215126 -0.072967716 -0.026610732 0.1316524 -0.063244805 -0.04082765
0.07063568 0.033199817 0.07791429 0.06714043 0.053913955 0.052255537 0.12414325 0.12284641
-1.9074562e-20 -5.6771164e-23 -2.3333482e-23 -1.11300395e-35 -3.201338e-13 1.0770784e-38 -2.5022719e-29 -8.8028886e-30
-1.879212e-37 2.8901796e-21 -1.7357266e-32 -5.7857802e-11 -1.9289113e-37 -2.0864617e-37 8.158222e-34 2.1153455e-37
-1.0467205e-24 9.334702e-38 1.7029009e-13 -4.366835e-34 -2.0463034e-37 -4.6474374e-33 2.3651984e-16 -3.9093194e-16
-3.235563e-21 -1.4830497e-34 -3.4506868e-16 -4.180352e-38 -1.2628041e-38 6.593825e-38 1.8594882e-38 1.989077e-37
0.04987201 0.057945702 -0.10428023 -0.0062441146 -0.009627644 0.12295398 0.17645933 -0.04991847
0.13815394 0.027144492 -0.052362893 0.02672763 0.07376421 -7.09477e-06 -0.07936367 0.08723538
-0.10656988 -0.0063851248 -0.02679331 -0.048177093 0.02730543 -0.06696615 0.08884088 0.08362255
0.022482205 0.027403096 0.039693482 0.017859709 0.17605433 0.12492492 0.12734185 0.0011613937
-0.062781386 0.35819194 -0.018915635 0.20604967 -0.35596517 -0.095786296 -0.052476425 -0.018741546
-0.09537381 0.13545832 -0.0078038434 -0.04828256 0.17343445 1.9916819e-38 -0.18371375 -0.013030168
-0.033083312 -0.056275588 -0.047009412 0.051722202 0.006174508 0.02536344 -0.033550624 -0.08331362
-0.24519323 0.066178605 -0.014608962 0.103633195 -0.0065082363 0.052525766 0.00010120804 -0.11555212
00000000: bd51 2d3c 8700 4c3d 312e 5b3e 4a56 8dbe
00000010: 6843 253e 754e a93d 7f4c e7bd 6d29 02bc
00000020: 1f2e 3f3d 28eb 05bd 36cf 41bd b82e a23d
00000030: 80b0 c2bd 661a 2637 7ab0 543d 54d0 4f3e
00000040: 739b 623e 8a45 e8bd 3a87 013e da74 ef3b
00000050: eb31 05bd cc58 763b d96e 0b3e a0f1 7c3d
00000060: e87a 623b 4242 bcbd ed38 9c3c a7b8 6a3d
00000070: 83ce 25be 4994 85bc 523b f93a f6d4 143e
00000080: 528b 063d 37ab 9c3d 326b aebb ec59 113e
00000090: da91 1bbe 6df2 5d3d 6204 2c3e 1b79 483d
000000a0: ac71 62bd b3cb d8bd 52a0 a2bc 0095 133e
000000b0: 3950 353d e7ba fb36 ec21 99be ddbb 1d3d
000000c0: 95cd 0bbd 60a9 20bd a436 2a3e 3a42 2bbe
000000d0: cfb0 6cbc 0688 0bbd 1319 30bc ec74 2fbd
000000e0: 5a9f b7bd d687 133e 3110 8dbb 4e43 2c3c
000000f0: b71e 853d 603d 723d 5f33 203d 91e0 d1bd
00000100: bae2 913c 7038 123d 0bb7 06be d233 273d
00000110: 8d6c 20bc 4f82 7abd d0b1 87bd aa16 2c3e
00000120: cc80 2f3c a9cd dcbd 284e 0d3e b200 d8bc
00000130: 2d71 8b3d 79bb a436 252e ef3d 23f1 5abe
00000140: 7e51 0ebe d761 b6bd 605b d337 3771 06bd
00000150: fd0e 3ebe bb0f 50bd c6b5 ea3c 629d 2c3d
00000160: 2765 5d3e 7b8d 0cbe 159d c0bd 6238 19bd
00000170: 43da 42bd 7bed 25be 37a8 68bb b40b 4abd
00000180: a8f7 103d 3482 9ebd 10c7 c0bc 4f28 88bb
00000190: 386c bf3c c10d ee3d d636 343e 5730 50bd
000001a0: 5518 1c3d 75bd c63c 1e8a 3bbd 54cc 81bc
000001b0: b565 373d e0b7 0837 dce9 ef3d 1d78 78bd
000001c0: 57ad 22be 1f78 cf3c 6248 323e 2764 0e3e
000001d0: c980 e1bd 57d2 dc3d 50e9 ffbd 55cb e2bd
000001e0: 067d 533e 2163 86bd 1e36 243e 3bfa 8a3d
000001f0: ebcd 593e 5eca 183e 13da 9c3d 95a0 e6bd
00000200: 397c 50bd c96c 4c3c cd98 3a3d 79d6 203e
00000210: af6d f8bd 956b 9fbd 9cc8 2fbd 92da 2a3e
00000220: 516f 023e 4970 473e 77d6 2a3e 74d7 01be
00000230: 64cc 68bd ea4a 9736 9992 81bd c3e7 80bd
00000240: a40b 0bbe 9d57 bb3d 0325 c9bd 1970 95bd
00000250: c0fe d9bc e3cf 063e 7e86 81bd e53a 27bd
00000260: 70a9 903d 88fc 073d 8791 9f3d ec80 893d
00000270: e1d4 5c3d e709 563d d13e fe3d e696 fb3d
00000280: 7627 b49e a643 899a e7aa e199 b3b5 6c85
00000290: 2538 b4aa 9048 7500 b1c2 fd8f 368b 328f
000002a0: fbc8 7f82 3460 5a1d 873f b48a 1876 7eae
000002b0: 6046 8382 4aff 8d82 3d8d 8708 84f6 8f02
000002c0: dff8 a197 611d fe01 c7ba 3f2a ec1c 1188
000002d0: a243 8b82 080c c189 2b58 8825 5f5b e1a5
000002e0: e478 749d 9121 4587 26eb c6a5 9a99 6381
000002f0: d781 8980 4180 b301 f77a ca00 9c5e 8702
00000300: 9846 4c3d 7958 6d3d e090 d5bd 6e9b ccbb
00000310: 44bd 1dbc 4ccf fb3d c1b1 343e 4f77 4cbd
00000320: 3a78 0d3e 205e de3c 797a 56bd e7f3 da3c
00000330: b111 973d 9c0f eeb6 6b89 a2bd 77a8 b23d
00000340: 4f41 dabd 4f3a d1bb a57d dbbc 5855 45bd
00000350: a3af df3c 8d25 89bd 35f2 b53d 4d42 ab3d
00000360: 9a2c b83c 757c e03c a295 223d 864e 923c
00000370: 9647 343e a3d8 ff3d e765 023e e839 983a
00000380: 8793 80bd ef64 b73e f6f4 9abc affe 523e
00000390: 1141 b6be 9b2b c4bd 85f1 56bd df87 99bc
000003a0: 5853 c3bd 96b5 0a3e 62b7 ffbb efc3 45bd
000003b0: cd98 313e fddf d800 751f 3cbe 7c7c 55bc
000003c0: 5e82 07bd 3b81 66bd f18c 40bd a9da 533d
000003d0: 8753 ca3b fdc6 cf3c 616c 09bd 55a0 aabd
000003e0: ef13 7bbe a688 873d 6e5a 6fbc a43d d43d
000003f0: 0b43 d5bb 4225 573d a73f d438 97a6 ecbd

decoder.2.bias f4 [32]
0.026815826 0.025939673 0.010173001 0.15708208 0.04820912 -3.626893e-10 -0.018934565 -0.13534568
-0.007372312 -0.07067964 0.11713465 -0.15575688 0.039794464 0.11785288 -0.07133498 0.08238231
0.14185657 -0.09647103 -0.07650473 0.0834079 0.20392963 -0.21601135 0.04742449 -0.029047716
-0.061572783 0.0938907 -0.22049917 -0.26987898 -0.051592577 0.065487176 0.105083145 -0.08212423
00000000: ddac db3c 707f d43c a9ac 263c 20da 203e
00000010: ed76 453d fb63 c7af a91c 9bbc 0f98 0abe
00000020: 6f93 f1bb 7dc0 90bd 4be4 ef3d bb7e 1fbe
00000030: 85ff 223d da5c f13d 1318 92bd 0eb8 a83d
00000040: d942 113e 9a92 c5bd 83ae 9cbd c3d1 aa3d
00000050: eed2 503e 1432 5dbe 2f40 423d 7af5 edbc
00000060: be33 7cbd c449 c03d 89ca 61be 942d 8abe
00000070: bd52 53bd 241e 863d d535 d73d c030 a8bd

decoder.4.weight f4 [1, 32]
-0.17063889 -0.12623349 0.1805755 0.19608471 0.11368323 -6.9819803e-06 0.09956064 -0.40075594
-0.019238582 -0.24313442 0.22210535 0.310374 -0.21927881 -0.22047716 -0.23556536 0.031949736
-0.105790265 -0.20845507 0.12654948 -0.19315869 0.16412741 -0.17191663 -0.13230625 0.22449298
0.07835873 -0.13813727 0.49445987 0.5366707 -0.24075896 0.22320127 -0.16115242 0.19255747
00000000: f6bb 2ebe 5a43 01be c9e8 383e 6eca 483e
00000010: c1d2 e83d c146 eab6 73e6 cb3d e22f cdbe
00000020: 3b9a 9dbc 3bf8 78be 966f 633e 57e9 9e3e
00000030: a08a 60be c4c4 61be 0c38 71be badd 023d
00000040: 91a8 d8bd 3f75 55be 3096 013e 64cb 45be
00000050: 0411 283e ea0a 30be 4a7b 07be 7de1 653e
00000060: 8b7a a03d db73 0dbe d829 fd3e 4063 093f
00000070: 8489 76be e08e 643e 2405 25be c92d 453e
