models/cvae_L12_H256_B0.500_LR5e-04.pt (torch, 681885 bytes, 13 tensors)

encoder.0.weight f4 [256, 46]
0	0x3e8055b3	0.25065383
1	0xbdb271ca	-0.0871311
2	0x3c065dc7	0.008201069
3	0x3d530bdd	0.051524986
4	0xbd8d2467	-0.06891709
5	0x3d25393b	0.040337782
6	0xbc5b4f1c	-0.01338556
7	0xbe04d85c	-0.1297316
8	0x3dac6a56	0.084187195
9	0x3d94c121	0.07263399
10	0xbe1c0c68	-0.15239108
11	0x3ded1567	0.11576348
12	0xbde6434e	-0.11243306
13	0x3d9e3a9c	0.077260226
14	0x3d7d2fc1	0.06181312
15	0xbd4ebd94	-0.050473765
16	0xbc00ec4b	-0.007868837
17	0xbda634e2	-0.08115555
18	0xbd1df5ec	-0.038564608
19	0x3d9fbbc5	0.07799486
20	0xbc4f4712	-0.012651222
21	0x3b03fe74	0.002014068
22	0xbd507e06	-0.050901435
23	0x3d83d856	0.06437747
24	0x3d84edcb	0.06490668
25	0x3e2881d3	0.16455774
26	0xbd627ce6	-0.055294894
27	0x3e0d3240	0.137887
28	0xbdd484f4	-0.10376921
29	0x3ddc2f25	0.107511796
30	0x3d8940b8	0.06701797
31	0x3a436ee1	0.0007455182
32	0xbd53eee7	-0.051741507
33	0x3da37b6b	0.079825245
34	0x3d3f1b84	0.0466571
35	0x3c4e4496	0.012589594
36	0x3c4035b6	0.011731556
37	0xbcd51c55	-0.026014486
38	0xbdd14e0d	-0.10219965
39	0x389fd039	7.620495e-05
40	0xbca734af	-0.020410864
41	0xbcfca664	-0.03084106
42	0x3e1d9d38	0.15392005
43	0x3dc4ad1f	0.09603333
44	0xbda1576b	-0.07878002
45	0x3db1de02	0.08684923
46	0xbe0b54a0	-0.136065
47	0xbdc41022	-0.095733896
48	0xbdb15201	-0.08658219
49	0x3d5f190d	0.05446725
50	0x3cfdd079	0.030983197
51	0x3ddd0dc6	0.10793643
52	0x3dbda244	0.09259465
53	0xba4aa94b	-0.0007730915
54	0x3df7a852	0.120926514
55	0x3d8fad20	0.07015443
56	0x3dc326a3	0.09528854
57	0x3d45af14	0.04826267
58	0xbdf8177a	-0.12113853
59	0x3b9ec452	0.0048451805
60	0x3af83cc5	0.0018939009
61	0xbdaf4469	-0.0855797
62	0x3dc8553d	0.09781883
63	0xbda9bfca	-0.08288534
64	0x3d31d4e3	0.043415915
65	0xbd00ed83	-0.03147651
66	0x3c813ecf	0.01577702
67	0x3d1d057d	0.038335312
68	0xbd132849	-0.03592709
69	0xbd718294	-0.05896242
70	0xbd991836	-0.07475321
71	0x3db82a55	0.08992449
72	0xbd112e46	-0.03544452
73	0xbd28cbfc	-0.04121016
74	0x3d8043fd	0.06262968
75	0x3c8343cd	0.01602354
76	0xbd98d76f	-0.07462966
77	0xbc749ec2	-0.014930429
78	0x3d0fe1a9	0.035127316
79	0x3d5661d8	0.052339405
80	0x3d8758ee	0.06608759
81	0x3d27d675	0.040976007
82	0x3c09ae46	0.008403366
83	0xbc1a01e0	-0.009399861
84	0xbd17291d	-0.036904443
85	0x3d1bfc1a	0.03808222
86	0x3d9d240b	0.0767289
87	0xbd17d3e6	-0.037067316
88	0xbd02e618	-0.031957716
89	0xbc9868db	-0.018604686
90	0x3da39d91	0.07989038
91	0x3d4db320	0.050219655
92	0x3d183053	0.03715546
93	0xbdaed0b8	-0.08535904
94	0x3cbd9cd0	0.023146063
95	0xbe7b37d0	-0.2453301
96	0x3cbc88fe	0.023014542
97	0x3e0060bb	0.125369
98	0xbd120013	-0.035644602
99	0xbc1ec845	-0.009691303
100	0x3d851a4c	0.06499156
101	0x3dd2c2d8	0.1029107
102	0x3b9209c5	0.004456731
103	0xbd31fc8a	-0.04345373
104	0xbe0992ab	-0.13434856
105	0x3c737ea7	0.014861739
106	0xbc4baa65	-0.012430762
107	0x3da1602e	0.07879673
108	0xbdb71c3a	-0.08940931
109	0xbd0ee52f	-0.034886535
110	0x3d4662c6	0.04843404
111	0xbda6f6c4	-0.081525356
112	0xbdac16bf	-0.08402776
113	0x3ceeb15f	0.029137312
114	0xbda88d6d	-0.082301
115	0xbe1595f9	-0.14607991
116	0x3cd27b3c	0.025693528
117	0xbcbf6117	-0.023361726
118	0xbd60dcba	-0.054898
119	0x3dfd7782	0.1237631
120	0xbd93fea2	-0.07226302
121	0x3c366c80	0.011134267
122	0x3bfb59ef	0.007670633
123	0x3c787229	0.015163937
124	0x3d9b5e47	0.07586341
125	0x3d1b6583	0.037938606
126	0xbc902a0b	-0.017598173
127	0xbccacac1	-0.024754884
128	0xbcd67d4b	-0.026182791
129	0xbb8c9f65	-0.0042914622
130	0xbd61d51d	-0.05513488
131	0xbd7c3a1c	-0.061578855
132	0xbd28fd3d	-0.04125713
133	0xbdf8e520	-0.12153077
134	0xbda48aa6	-0.080342576
135	0xbdebf1a0	-0.11520696
136	0x3dc8d1dc	0.098056525
137	0x3d88f5a9	0.06687481
138	0xbdf5759e	-0.11985324
139	0x3be8ad0d	0.0071007074
140	0xbd09ebb5	-0.033672053
141	0x3d1fce63	0.039015185
142	0x3c30ca3e	0.010790406
143	0xbc2eb0d2	-0.010662274
144	0x3db57953	0.088610314
145	0x3d82c937	0.06386035
146	0x3d3aceb3	0.04560728
147	0x3cfa71c7	0.030571831
148	0x3d4efbb6	0.05053302
149	0xbb8b1ef9	-0.0042456356
150	0xbc34e2f3	-0.011040437
151	0x3d3d3e4f	0.046202
152	0xbb81c01d	-0.0039596693
153	0xbdaa1bd0	-0.08306086
154	0x3d94a74a	0.0725847
155	0xbc84bc14	-0.016202964
156	0x3e0afb4d	0.13572426
157	0x3ca350d6	0.019936007
158	0x3db72f00	0.089445114
159	0x3cc4ade4	0.024008699
160	0x3dc555c4	0.09635499
161	0xbdd5d195	-0.10440365
162	0xbcce9613	-0.025218045
163	0x3c4e4af0	0.012591109
164	0xbcf3d860	-0.029766262
165	0x3d9f09de	0.07765554
166	0xbdf123e0	-0.11774421
167	0xbc72f75e	-0.014829485
168	0x3c4037d4	0.01173206
169	0xbb81bd01	-0.0039592986
170	0xbca06a71	-0.019582005
171	0xbdcf74ff	-0.10129737
172	0xbcd8f698	-0.026484773
173	0x3d47751e	0.048695676
174	0xa9ac889f	-7.6620344e-14
175	0x3ade3b72	0.0016954972
176	0xbd2c216f	-0.042024072
177	0x3cc43f8e	0.023956086
178	0xbd5094c8	-0.05092314
179	0xbdc5f441	-0.09665728
180	0x3d2c692a	0.04209248
181	0xbd6164bf	-0.05502772
182	0x3c21305e	0.009838192
183	0x3cb2066c	0.021731578
184	0xbe15a0d7	-0.14612137
185	0xbb2bdb02	-0.0026223068
186	0xbd255a47	-0.0403693
187	0xbed24e8f	-0.4107556
188	0xbceb6cfd	-0.028738493
189	0x3cde5a08	0.02714254
190	0xbdc03a83	-0.0938616
191	0xbd0c2011	-0.03421027
192	0x3ddec369	0.10877115
193	0xbd984cce	-0.07436524
194	0xbca63cf1	-0.020292731
195	0xbc833735	-0.016017536
196	0xbe0cf67f	-0.13765906
197	0x3dde51e6	0.10855465
198	0xbb7995e7	-0.0038083734
199	0xbcf5dde5	-0.030013034
200	0x3d209f1f	0.03921425
201	0xbc1791a2	-0.00925103
202	0x3c4e8c44	0.012606684
203	0x3c0377dc	0.008024182
204	0xbd8b049f	-0.06787991
205	0x3dd4ff00	0.104002
206	0x3d0772b8	0.03306839
207	0xbe161e72	-0.14660051
208	0xbda2fa5d	-0.07957909
209	0xbe0c1d00	-0.13682938
210	0x3985e1e7	0.00025536047
211	0xbd318647	-0.043340947
212	0xbe19efa9	-0.1503283
213	0xbcc90545	-0.024538646
214	0xbd2c4dc9	-0.04206637
215	0x011cf7aa	2.8830365e-38
216	0x3d85fa5f	0.06541895
217	0x3dfe21e3	0.12408807
218	0x3da96fad	0.082732536
219	0xbcc90747	-0.024539603
220	0x020e37e1	1.0448549e-37
221	0x0197803a	5.5652636e-38
222	0x3ccefd06	0.025267135
223	0x3c12421f	0.008926897
224	0x3cad3e53	0.021147883
225	0xbd410710	-0.047125876
226	0x3d16f6c7	0.03685644
227	0x3db93a73	0.090443514
228	0xbcc9027c	-0.024537317
229	0x3d06dc27	0.032924797
230	0x3cdae956	0.026722591
231	0xbd54e945	-0.051980276
232	0x3bb7ac0b	0.005605226
233	0x3da350b4	0.07974377
234	0xbd25628b	-0.04037718
235	0xbd564a16	-0.052316748
236	0xba33654e	-0.00068434037
237	0x3dcd8e14	0.10036865
238	0xbcd15065	-0.02555103
239	0xbc8fc3bd	-0.01754939
240	0xbc3058ef	-0.010763391
241	0xbb2b87d9	-0.00261735
242	0xbd817ad3	-0.06322255
243	0xbc0536cb	-0.008130739
244	0x3d86d7d9	0.065841384
245	0xbd16c564	-0.03680934
246	0x3d7b4060	0.06134069
247	0x3c4d2c77	0.012522808
248	0x3d9962b0	0.07489526
249	0xbd29df5b	-0.041472774
250	0xbd5aad2f	-0.053387817
251	0x3d4226bf	0.047400232
252	0xbcd04262	-0.025422279
253	0x3d74e35e	0.059787147
254	0x3bac343f	0.0052552517
255	0x3db39a76	0.087696955

encoder.0.bias f4 [256]
0	0xbddc3e9a	-0.10754128
1	0xbdac3704	-0.08408931
2	0x3d0e9648	0.034811288
3	0x3da386a5	0.07984666
4	0xbe1316b7	-0.14364134
5	0x3e08d0a1	0.13360836
6	0xbddc23ad	-0.10748992
7	0xbde3dcf2	-0.11126126
8	0xbdb4923c	-0.088169545
9	0x3e1f2413	0.15541105
10	0xbd61c34b	-0.055117887
11	0x3dc3097d	0.09523294
12	0x3e3c08f4	0.1836279
13	0x3ddf86e2	0.10914399
14	0x3d9b6490	0.0758754
15	0xbdb24700	-0.087049484
16	0xbb739e97	-0.0037173384
17	0xbd90547d	-0.07047365
18	0x3c1e7a80	0.009672761
19	0x3ca5c63f	0.020236133
20	0x3e160899	0.14651717
21	0x3ca0bbe2	0.01962084
22	0x3e3a826c	0.18213814
23	0xbcfa5409	-0.03055765
24	0xbdb16817	-0.08662432
25	0xbd913968	-0.070910275
26	0xba577201	-0.0008218587
27	0xbdf1b415	-0.11801926
28	0x3dd70f06	0.10500912
29	0xbde0c855	-0.1097571
30	0x3dc54990	0.096331716
31	0xbd98926a	-0.07449801
32	0xbbe0f8e6	-0.0068656085
33	0x3dc30d9e	0.09524082
34	0x3de4d0a7	0.1117261
35	0x3e07276a	0.13198629
36	0x3d23816d	0.039918352
37	0xbd362bee	-0.04447549
38	0xbc959602	-0.018260006
39	0xbdd2bd85	-0.10290054
40	0x3d29f300	0.04149151
41	0xbccf4054	-0.025299229
42	0x3d73c2f6	0.0595121
43	0xbd3803af	-0.044925388
44	0xbd85e3da	-0.065376
45	0xbd051e0a	-0.03249935
46	0xbd96ba2b	-0.073597275
47	0xbd5bd368	-0.05366841
48	0x3bf8dfdf	0.007595047
49	0xbdb3aaff	-0.08772849
50	0x3d460165	0.048341174
51	0x3e345415	0.176102
52	0xbdd75000	-0.10513306
53	0x3cf9c6fa	0.030490387
54	0xbddc79a0	-0.10765386
55	0xbc45096a	-0.01202617
56	0x3e0984fd	0.13429637
57	0x3e043c20	0.12913561
58	0xbcf9d5ae	-0.030497398
59	0x3da6894b	0.08131655
60	0x3d8dd037	0.069244795
61	0xbd109e9e	-0.03530752
62	0xbe0487a9	-0.12942375
63	0xbd1573ca	-0.03648738
64	0x3df055a2	0.11735083
65	0x3d70bde1	0.058774833
66	0x3d2d4897	0.042305555
67	0xbd9b3bb2	-0.07579745
68	0xbde0eb48	-0.10982376
69	0x3dd1f4f9	0.10251803
70	0x3d059448	0.032612115
71	0xbd5a28d4	-0.053261593
72	0x3ca47b30	0.020078272
73	0x3dd4000c	0.103515714
74	0xbd6ba6ad	-0.057532
75	0xbdae7ff6	-0.085205
76	0x3d8777ee	0.06614672
77	0x3d31c352	0.043399163
78	0x3e1c6814	0.15274078
79	0xbdafb442	-0.08579303
80	0x3d3a382d	0.04546373
81	0xbd313ca0	-0.043270707
82	0xbd686c04	-0.056743637
83	0x3dd5736f	0.10422408
84	0x3b9b0033	0.0047302484
85	0xbdb8900f	-0.09011852
86	0xbd0ce4cb	-0.03439788
87	0x3e2c2687	0.16811572
88	0xbd28bfca	-0.04119853
89	0x3da101ca	0.07861669
90	0x3d096ed8	0.033552974
91	0xbd0c0aa9	-0.034189854
92	0xbde23c82	-0.11046697
93	0xbd52d0e8	-0.05146876
94	0x3d2a52eb	0.041582983
95	0xbd185e3c	-0.037199244
96	0x3dfffde9	0.124996014
97	0xbdad4b57	-0.084616356
98	0xbca50620	-0.020144522
99	0x3db05be1	0.086112745
100	0xbdb982d9	-0.0905816
101	0x3d3c4072	0.045959897
102	0xbc6735dd	-0.014111963
103	0x3dcefe56	0.101071045
104	0x3de5ac5b	0.11214515
105	0xbdc7ce79	-0.097561784
106	0x3d1b2230	0.0378744
107	0x3db0896d	0.08619962
108	0xbe047a15	-0.12937196
109	0xbc714aba	-0.014727289
110	0xbdac448a	-0.0841151
111	0xbc90e9df	-0.017689643
112	0x3e019491	0.1265433
113	0x3d889a6a	0.06670077
114	0xbd8d1d63	-0.06890371
115	0xbdf265a5	-0.118357934
116	0x3e05f706	0.13082513
117	0xbc8ad99e	-0.016949471
118	0xbdc4fcd3	-0.09618535
119	0x3c94bf54	0.018157639
120	0x3e306cf5	0.17229064
121	0x3b802b26	0.0039113937
122	0xbd22d845	-0.039757032
123	0x3da70478	0.08155149
124	0x3d549c06	0.051906608
125	0xbae835c6	-0.0017716221
126	0xbde3e4d8	-0.11127633
127	0xbdb88945	-0.09010557
128	0x3d435e91	0.047697607
129	0xbc4f7ee4	-0.01266453
130	0xbd8d8234	-0.069096
131	0xbdd90d51	-0.10598243
132	0xbb9a9b7e	-0.004718243
133	0xbbe45284	-0.0069678444
134	0x3cee2f59	0.029075311
135	0xbdc93462	-0.09824444
136	0x3df239b2	0.11827411
137	0x3e04d13e	0.12970445
138	0xbd9d443b	-0.076790296
139	0x3e389f6b	0.18029563
140	0xbdc2b6f7	-0.09507554
141	0xbbda8297	-0.0066683996
142	0x3d73de0b	0.05953793
143	0xbc9569d3	-0.018238937
144	0xbd8743e9	-0.0660475
145	0x3d20bcb7	0.039242472
146	0xbd6f0fda	-0.058364727
147	0x3daa4447	0.08313804
148	0x3e15b452	0.14619568
149	0x3d909fd8	0.07061738
150	0x3d3ef65d	0.04662167
151	0x3d4c7fd4	0.049926594
152	0x3dfc320b	0.123142324
153	0xbdf4ce5a	-0.11953421
154	0xbe12d6af	-0.14339708
155	0x3dc5226b	0.09625705
156	0xbc9da692	-0.019244466
157	0xbe09948e	-0.13435575
158	0xbb81a355	-0.0039562383
159	0xbd2482cb	-0.040163796
160	0xbc533ee0	-0.012893409
161	0xbd67a907	-0.05655768
162	0xbc415ac2	-0.0118014235
163	0x3d42abaf	0.04752701
164	0xbd95f056	-0.07321231
165	0x3db63631	0.08897055
166	0xbd957cae	-0.072991714
167	0x3d04f9b1	0.032464687
168	0xbdce82a1	-0.10083509
169	0x3dc481c0	0.0959506
170	0xbb437347	-0.002982335
171	0xbc0fd19b	-0.008778001
172	0xbdae2585	-0.0850325
173	0x3e26798a	0.16257301
174	0x3e0db5eb	0.13838927
175	0xbcfec599	-0.031100081
176	0x3d9409b7	0.072284155
177	0xbe3ef770	-0.18649077
178	0x3df9b30a	0.12192352
179	0x3db2a7d1	0.08723415
180	0x3c9aa82f	0.018879024
181	0xbe01e7ef	-0.12686132
182	0xbdd65132	-0.104647055
183	0xbdff5a0d	-0.12468348
184	0xbdd9c0a1	-0.10632444
185	0x3d6c9b3b	0.057765227
186	0x3c967f6c	0.018371306
187	0x3d7e19e4	0.06203641
188	0x3d667c75	0.056271035
189	0x3d03de85	0.032194633
190	0x3bdcbca2	0.006736354
191	0xbdaa278b	-0.083083235
192	0xbdd59c36	-0.104301855
193	0xbdc5fc26	-0.09667234
194	0x3df6c223	0.120487474
195	0xbd83b64d	-0.064312555
196	0x3dd00a47	0.1015821
197	0x3cff7a6e	0.031186309
198	0xbe089535	-0.13338168
199	0xbe0b1e52	-0.13585785
200	0xbdef703a	-0.116913274
201	0xbe23d0d0	-0.15997624
202	0xbce0c41f	-0.027437268
203	0x3d4c79a5	0.049920697
204	0x3c5653f4	0.013081539
205	0x3c6fe34c	0.014641594
206	0x3d452cac	0.048138306
207	0x3e264aa6	0.16239414
208	0x3bfb8827	0.0076761427
209	0x3db214e6	0.08695392
210	0xbcd28443	-0.025697833
211	0xbc907b82	-0.017637018
212	0x3d38ac20	0.045086026
213	0xbd0c6bb8	-0.034282416
214	0xbdeda1b7	-0.1160311
215	0x3d96c60f	0.073619954
216	0xbc1ddbf0	-0.009634957
217	0xbd51f680	-0.05126047
218	0x3e0d67fa	0.13809195
219	0x3bb3ab3c	0.005483059
220	0x3d81db86	0.06340699
221	0xbcac6a5a	-0.021046806
222	0xbc09cffc	-0.008411404
223	0xbd9e03ed	-0.077155925
224	0xba6a4c60	-0.00089377724
225	0xbe02cdda	-0.12773839
226	0x3d3101f1	0.043214742
227	0xbd965ae1	-0.073415525
228	0x3bb6f623	0.005583541
229	0xbdc09a89	-0.09404475
230	0xbddff4d5	-0.1093537
231	0xbd38397a	-0.04497669
232	0x3de6161c	0.11234686
233	0x3d2ad7b0	0.041709602
234	0xbc7bd59e	-0.0153707545
235	0x3cfdc12b	0.030975899
236	0x3da5cb39	0.08095402
237	0x3e327fe3	0.17431597
238	0x3d410836	0.04712697
239	0xbd191e4b	-0.037382405
240	0x3cdc4d9b	0.026892474
241	0x3c5db4d1	0.0135318795
242	0x3db4379b	0.087996684
243	0xbd152e02	-0.03642083
244	0xbd1eda34	-0.038782313
245	0xbdca9400	-0.0989151
246	0x3dbe3a0b	0.092884146
247	0x3d2bc3ac	0.041934654
248	0x3e2064e0	0.15663481
249	0x3dbd73cf	0.09250604
250	0x3e047226	0.12934169
251	0xbda624a4	-0.081124574
252	0x3a098826	0.0005246423
253	0xbd701cfe	-0.0586214
254	0x3d81ac4a	0.0633169
255	0x3d01af3a	0.03166125

encoder.2.weight f4 [256, 256]
0	0x3cbb3dd3	0.022856629
1	0x3c7611b6	0.015018871
2	0x3c9dc7e1	0.019260349
3	0xbd0040ab	-0.031311672
4	0x3cea8dbd	0.02863204
5	0xbd4abca3	-0.049496304
6	0x3b39eb68	0.0028369073
7	0x3a949a08	0.0011337409
8	0xbc11d84e	-0.008901669
9	0xbce89876	-0.028393012
10	0x3ce350cc	0.027748488
11	0xbbe00022	-0.0068359533
12	0xbcc964c8	-0.024584189
13	0xbcbfffa6	-0.023437332
14	0xbca53898	-0.020168588
15	0xbc9d8120	-0.01922661
16	0x3cd03340	0.025415063
17	0x3cb47171	0.02202675
18	0x3c86add0	0.016440302
19	0xbb933d32	-0.004493379
20	0x3d338bc1	0.04383445
21	0x3bda0d7b	0.006654439
22	0x3d6675ab	0.05626456
23	0x3bb34160	0.00547044
24	0xbcdcb4ed	-0.02694174
25	0xbbbcfe7f	-0.005767643
26	0x3ccc3647	0.024928225
27	0x3c14ef0d	0.009090197
28	0xbd4a896c	-0.049447462
29	0x3cb03dd8	0.021513864
30	0x3cdc5b9b	0.02689915
31	0xba02c338	-0.00049881963
32	0xbb6cc8fe	-0.0036130543
33	0x3caa2c56	0.020773094
34	0x3becd596	0.00722761
35	0x3cc54953	0.024082815
36	0x3bfe96dc	0.0077694487
37	0x3cc1f318	0.023675486
38	0xbca0b0e1	-0.019615592
39	0x3d12f848	0.03588131
40	0x3d5ebf78	0.054381818
41	0xbc87f176	-0.01659463
42	0xbd8e69ec	-0.06953797
43	0xbc83b6c4	-0.01607836
44	0x3c6b445b	0.014359559
45	0x3d2fc248	0.04290989
46	0xbcce9446	-0.025217187
47	0xbc8ffbdf	-0.017576156
48	0xbb9c57cc	-0.0047712084
49	0xbbfc3ca8	-0.0076976605
50	0xbce67122	-0.028130118
51	0x3b7441c2	0.003727064
52	0xbbd7d1de	-0.0065862974
53	0xba0dba4a	-0.00054064824
54	0xbc5571ae	-0.013027592
55	0xbd06c104	-0.032898918
56	0xbccd8c6a	-0.025091369
57	0xbc613ea5	-0.013747846
58	0xbd0cc926	-0.034371518
59	0xbcd3af2c	-0.025840364
60	0x3d3a3dd2	0.045469113
61	0xbcdbafff	-0.02681732
62	0xbc3de631	-0.011590526
63	0x3d9507e6	0.07276897
64	0x3d9c5e92	0.07635225
65	0x3ca712a6	0.020394634
66	0x3c178179	0.009247177
67	0x3b1d9fd1	0.0024051557
68	0x3c55c183	0.013046625
69	0x3cb3b78e	0.021938112
70	0xbc0d48e0	-0.008623332
71	0xbd05c79a	-0.032661058
72	0xbb3eed02	-0.0029132967
73	0x3a3c8560	0.0007191505
74	0xbab37d73	-0.0013694003
75	0xbc571df2	-0.013129698
76	0x3c0a58ae	0.008443994
77	0x3d34c085	0.044128913
78	0xbba1ab19	-0.0049337265
79	0x3c828896	0.01593427
80	0xbcf671fb	-0.030083647
81	0x3c07ac52	0.00828083
82	0xbd4ef637	-0.050527778
83	0xbcbf14f2	-0.023325417
84	0xbcb24d96	-0.021765511
85	0x3b479c59	0.003045818
86	0xbc7c95e5	-0.015416597
87	0xbcb36d7f	-0.021902798
88	0xbcdf5e04	-0.02726651
89	0xbb14f760	-0.0022730455
90	0xbc051b86	-0.008124238
91	0xbd20dcbe	-0.039273016
92	0x3d612037	0.054962363
93	0x3caf6ea1	0.021415057
94	0xbd16cec1	-0.03681827
95	0xbc80d034	-0.015724279
96	0xbcf89e18	-0.030348822
97	0xbc463b7d	-0.012099144
98	0xb790e3e4	-1.7272258e-05
99	0x3d2680d4	0.040650204
100	0xbcd24504	-0.025667675
101	0x3a9bb2c1	0.0011878834
102	0xbb01e559	-0.001982054
103	0x3bb677e6	0.005568492
104	0x3d80ad3e	0.06283043
105	0x3d3bdd53	0.045865368
106	0x3cea3509	0.028589742
107	0x3b11066e	0.0022129077
108	0x3d09df6a	0.03366033
109	0x3bb51821	0.005526558
110	0x3cc6e4d9	0.024279045
111	0xbce6dd0b	-0.028181573
112	0x3d0e697b	0.034768563
113	0x3d323bc0	0.043514013
114	0x3bf17072	0.007368141
115	0x3b1d319d	0.002398587
116	0x3bbbb119	0.005727899
117	0x3d420b2d	0.04737394
118	0xbc10ffbc	-0.008850034
119	0x3d32ab63	0.04362048
120	0xbdb19f17	-0.08672922
121	0x3d165c90	0.03670937
122	0xbca812f8	-0.020516858
123	0xbc73509c	-0.014850762
124	0x3c9e0627	0.019290043
125	0xbc445d38	-0.011985116
126	0x3c8dbdb2	0.017302368
127	0xbb81ab6c	-0.0039572027
128	0xbc933837	-0.017971141
129	0x3c6fee78	0.014644258
130	0xbd042a55	-0.032266933
131	0xbcafba3b	-0.021451106
132	0x3cfd3266	0.03090782
133	0x3cfe7a09	0.03106405
134	0xbd6bc012	-0.05755622
135	0x3c4d057a	0.012513513
136	0x3d70df59	0.05880675
137	0xbd0e8f2b	-0.034804504
138	0x3c328e24	0.010898147
139	0xbc96706d	-0.018364156
140	0xbb03659c	-0.0020049578
141	0x3c33c692	0.010972636
142	0xbcdc34d9	-0.026880668
143	0x3ca1478d	0.019687438
144	0xbacc90f6	-0.0015607167
145	0x3d0fe1ce	0.035127454
146	0x3ba4023f	0.0050051506
147	0xbb66c218	-0.0035210904
148	0x3d35b891	0.04436547
149	0x3d20bfe2	0.039245494
150	0xbc36b8d0	-0.011152461
151	0xbbe8f6fa	-0.00710952
152	0xbc91fade	-0.017819818
153	0x3cc7282f	0.024311153
154	0x3cc09372	0.023507807
155	0x3c1201b4	0.008911539
156	0xbd2acc5f	-0.04169881
157	0x3bd5a7f0	0.006520264
158	0xbcf9ed60	-0.030508697
159	0xbd173786	-0.036918186
160	0xbc255c6b	-0.010092835
161	0x3b9dfd29	0.004821439
162	0x3bf0aaa7	0.007344562
163	0x3b84c905	0.0040522837
164	0x3cbbbbdd	0.022916729
165	0xbce67d40	-0.028135896
166	0xbbafdc6b	-0.005366852
167	0x3d1d35ad	0.038381267
168	0xbc277942	-0.010221781
169	0x3ba2432e	0.004951856
170	0xbcf7abd9	-0.03023331
171	0x3acc38e5	0.0015580921
172	0xbd48da2e	-0.049036197
173	0xbcaad525	-0.020853588
174	0x3ce23f2c	0.027618013
175	0xbc722707	-0.014779813
176	0xbd207035	-0.03916951
177	0x3b35b21b	0.0027724567
178	0xbc6d0e8b	-0.014468799
179	0xbc98c83b	-0.018650165
180	0xbccfbf7a	-0.025359858
181	0x3b17315a	0.0023070187
182	0xbc2b4699	-0.0104538435
183	0x3ce9181e	0.028453883
184	0xbc545402	-0.012959482
185	0x3b8e67f7	0.0043458897
186	0xbb879b11	-0.0041383584
187	0xbcda067b	-0.026614418
188	0xbd382dd6	-0.044965588
189	0xbc19c8c2	-0.009386243
190	0xbcee18be	-0.029064532
191	0x3d195564	0.03743495
192	0xbcb7a852	-0.022419129
193	0x3c32619e	0.010887532
194	0x3d7fa8ab	0.062416714
195	0xbcbea73b	-0.023273101
196	0x3cd9ad4a	0.026571888
197	0x3d219e30	0.0394575
198	0x3bd0aeeb	0.006368508
199	0x3d03399e	0.03203737
200	0xbc54f5ce	-0.0129980575
201	0x39904e7f	0.00027524304
202	0x38d360ec	0.00010079317
203	0x3ca8b4c7	0.020594014
204	0xbbff1649	-0.007784639
205	0xbd0b1ab4	-0.033961013
206	0xbcd66a85	-0.02617384
207	0xbc9f9194	-0.019478597
208	0xbcb05892	-0.021526609
209	0xbcb3b9fe	-0.021939274
210	0xbc3b8085	-0.011444216
211	0xbb83bc7a	-0.004020271
212	0x3cbe6efa	0.023246277
213	0x3b2dce9c	0.0026520854
214	0x3da12c4e	0.078697786
215	0xbc01a846	-0.007913655
216	0xbd5cf656	-0.05394586
217	0x3c31534d	0.010823083
218	0xbcc2fe0a	-0.023802776
219	0x3c166f13	0.009181756
220	0x3b76732d	0.0037605271
221	0xbcf475a8	-0.02984126
222	0x388e934f	6.798526e-05
223	0xbccb8168	-0.02484198
224	0x3ab07a8f	0.001346426
225	0x3c08da91	0.008352892
226	0xbb23f4a8	-0.0025017653
227	0xbc6ff023	-0.014644655
228	0xbd586485	-0.052830238
229	0xb859ce3b	-5.19289e-05
230	0xb872ec18	-5.7917176e-05
231	0x3d5736d7	0.052542534
232	0x3d952760	0.07282901
233	0x3d342b09	0.043986354
234	0x3d7aa6e8	0.06119433
235	0xbb505a43	-0.0031792081
236	0x3cae0f03	0.021247393
237	0x3c83f2e9	0.01610704
238	0x3c99a643	0.018756038
239	0xbce184bd	-0.027529115
240	0x3c8ed576	0.01743577
241	0x3ca960cc	0.02067604
242	0x3ccd6cb8	0.025076255
243	0xbb553bdb	-0.0032536897
244	0xbcb2c8a5	-0.02182419
245	0xbcbb082b	-0.022831043
246	0x3ce4625c	0.027878933
247	0xbc959715	-0.018260518
248	0x3d28ad96	0.04118117
249	0xbc1c8088	-0.009552129
250	0xbd489be4	-0.048976794
251	0xbca725b0	-0.020403713
252	0x398c4b9f	0.00026759223
253	0xbc14f7d3	-0.009092289
254	0xbb02a218	-0.0019933041
255	0x3cd05c0a	0.025434513

encoder.2.bias f4 [256]
0	0x3c3d9ade	0.011572568
1	0xbcc25570	-0.02372238
2	0x3d117a02	0.035516746
3	0x3c09982a	0.008398095
4	0x3cf1e35e	0.029527362
5	0x3d41a24d	0.047273923
6	0xbc9fb1df	-0.019493995
7	0x3c8271bb	0.015923372
8	0x3c8f1b12	0.017468963
9	0xbc03cd9b	-0.008044626
10	0xbcf159d0	-0.029461771
11	0xba835aa5	-0.0010021521
12	0x3cb63033	0.02223978
13	0x3d578a9f	0.052622434
14	0xba49fe05	-0.00077053934
15	0x3d3ac350	0.04559642
16	0xbb87c217	-0.0041430104
17	0x3d2802f9	0.04101846
18	0x3d46990a	0.048485793
19	0x3a063aad	0.00051204377
20	0x3d3b3853	0.04570801
21	0xbca76843	-0.020435458
22	0xbd960443	-0.073250316
23	0x3d3d03ca	0.04614619
24	0xa8ae7a6e	-1.9370976e-14
25	0x3d887bca	0.06664236
26	0x3c2ad302	0.010426285
27	0x3dd245d6	0.102672264
28	0xba7d89e7	-0.0009671733
29	0x99ea75de	-2.4242639e-23
30	0x8248f5fc	-1.4764273e-37
31	0x3df81635	0.12113611
32	0x3cc0d075	0.0235369
33	0x9f1ee194	-3.3644395e-20
34	0xbd18ac97	-0.03727397
35	0xbceac974	-0.028660513
36	0xbd704d55	-0.0586675
37	0xa2ddfca4	-6.0169664e-18
38	0x3d055806	0.03255465
39	0xbca4aa72	-0.020100806
40	0xbcb25f68	-0.021774009
41	0x3dccc1a6	0.09997873
42	0x3bf9d5e2	0.007624374
43	0xbce94c16	-0.028478663
44	0x830341aa	-3.857282e-37
45	0x3c6eb4ea	0.0145695
46	0x838d959c	-8.321584e-37
47	0xbc7859dc	-0.015158143
48	0xbc6fdb9d	-0.014639762
49	0x3d95133f	0.072790615
50	0xba688094	-0.0008869257
51	0x3cac8848	0.021061078
52	0xbd9a2bbd	-0.07527874
53	0x3d6f7e76	0.058470212
54	0x3cebe452	0.028795395
55	0x85bd20c4	-1.7785511e-35
56	0xbcd8814f	-0.026428847
57	0x3d72f088	0.05931142
58	0x3ca0e6ce	0.019641306
59	0xbcea2471	-0.02858183
60	0xbd70f0fc	-0.05882357
61	0x3d371305	0.044695873
62	0x3d4f57fd	0.05062102
63	0x3d271750	0.040793717
64	0x3d424d7c	0.047437176
65	0x3d38b359	0.045092914
66	0x3d1a0d63	0.037610423
67	0x3ceb04f6	0.028688889
68	0x3d92c86d	0.071671344
69	0x3c1aabf7	0.009440414
70	0x3da0f57f	0.07859325
71	0xb5f00892	-1.7883888e-06
72	0x3c9b28a6	0.018940281
73	0x3d46e4e9	0.04855815
74	0x3d552df0	0.052045763
75	0xbc917fd1	-0.017761143
76	0x3de79c75	0.11309139
77	0x3b83b3c1	0.004019231
78	0x3bae39ef	0.005316965
79	0xbc1386e0	-0.009004325
80	0x3d4bfe2e	0.04980295
81	0xae9e848f	-7.208555e-11
82	0x829aa4c9	-2.2722848e-37
83	0x3692f56f	4.3797113e-06
84	0xbc851775	-0.016246537
85	0xbbe2c6ac	-0.006920656
86	0x3cbd0155	0.023071924
87	0x3d048220	0.03235066
88	0xbc203de4	-0.009780381
89	0x3bb2af59	0.005453032
90	0xb9e58a8a	-0.00043781503
91	0x3c637d98	0.013884924
92	0x3d5c7f7a	0.05383251
93	0x3cf361dc	0.029709749
94	0xbd6320df	-0.05545127
95	0x3cd4a201	0.025956156
96	0x3b9c4ec1	0.0047701304
97	0xac5740a4	-3.058922e-12
98	0xbbfda821	-0.00774099
99	0xaadacae2	-3.8865357e-13
100	0xbd6988d9	-0.057015274
101	0xbcac3bd4	-0.021024622
102	0xbaf35750	-0.001856545
103	0xbd6d30b1	-0.057907764
104	0xbcf35870	-0.029705256
105	0x3d28c61a	0.04120455
106	0x3d7ea24c	0.062166497
107	0xbd1c0a32	-0.03809566
108	0x3d403873	0.046928834
109	0x3c88accf	0.016683964
110	0x3d4933e2	0.049121745
111	0x3d42cf43	0.04756094
112	0xbbe45873	-0.006968552
113	0x3b5e4bda	0.0033919723
114	0x3c9fab5d	0.019490892
115	0xb9645603	-0.00021775816
116	0x3d8d1e67	0.068905644
117	0x3dab8122	0.083742395
118	0xbcbdd703	-0.023173815
119	0x3d42cf98	0.047561258
120	0x3d143e78	0.036192387
121	0xbcfc75b1	-0.030817838
122	0x3d9287e2	0.07154824
123	0x3d4ed75f	0.050498363
124	0x3db02b65	0.08602027
125	0x3d975e0f	0.07390987
126	0xbaa131a2	-0.0012298117
127	0xbcd8c9b8	-0.026463374
128	0xbcf6def8	-0.030135617
129	0x3d45e2ea	0.048312105
130	0x3c0d3f8b	0.008621107
131	0x823f2917	-1.4044256e-37
132	0x3c2021f1	0.009773717
133	0x3cb80f90	0.022468358
134	0x3c425580	0.011861205
135	0x3ccf7c31	0.025327774
136	0x3c9ab46d	0.018884862
137	0xba9f76c0	-0.0012166128
138	0xb9bfdbc3	-0.00036594094
139	0x3c9fe4dc	0.019518308
140	0x3d0f24f7	0.03494736
141	0x3c0f5e0b	0.008750449
142	0xba28ef57	-0.0006444356
143	0xbba1242f	-0.0049176435
144	0xbe09dd3d	-0.13463302
145	0xbd644b4e	-0.05573588
146	0xbb26af52	-0.002543409
147	0x3cd1af0e	0.025596168
148	0xba2f7b3f	-0.00066940853
149	0x3cd3f501	0.025873663
150	0xb82d3114	-4.129212e-05
151	0xb8a71e56	-7.968831e-05
152	0x3d393550	0.04521686
153	0x3d946934	0.072466284
154	0x3da9d11e	0.08291839
155	0x3d183dd3	0.037168335
156	0x3c321176	0.010868421
157	0x3ae8dd33	0.0017766118
158	0x3d95da3a	0.07317014
159	0xb73eb8f4	-1.1367945e-05
160	0x3a1a04ed	0.0005875368
161	0x3cae7c3e	0.021299478
162	0x3d7a9182	0.061173923
163	0xbcfc0b8c	-0.030767225
164	0x3b19be5d	0.0023459413
165	0xbc94fe23	-0.018187588
166	0x3c34e059	0.011039817
167	0xbd01760c	-0.03160672
168	0xbc9a525f	-0.018838106
169	0xbb676178	-0.0035305899
170	0xbc651f6c	-0.013984542
171	0x3cd2e0d7	0.025741978
172	0x3c4226a3	0.011850032
173	0x3ca41609	0.020030038
174	0x3d5a4c00	0.053295135
175	0x3d039871	0.0321278
176	0xbd0e7b0b	-0.03478531
177	0xbc61a071	-0.013771162
178	0xbbd53c1b	-0.0065074093
179	0x3ca441d7	0.020050926
180	0xbd489926	-0.04897418
181	0xbc8d6600	-0.017260551
182	0x3c9046d6	0.017611902
183	0xbcbda27e	-0.023148771
184	0x3d81e882	0.063431755
185	0xbc15cbf7	-0.009142867
186	0xb8dc3360	-0.00010499987
187	0xbcb1b378	-0.021692023
188	0xbbf27228	-0.0073988624
189	0xbd1c1622	-0.038107045
190	0xbd0010fd	-0.0312662
191	0x3c088a68	0.00833378
192	0x3d93fbc7	0.07225757
193	0xbc8c283b	-0.017109027
194	0xbcee9307	-0.029122842
195	0x3c4ebbe2	0.012618037
196	0x3c8d976f	0.017284123
197	0x3ccd10de	0.025032457
198	0x3dd31ce1	0.103082426
199	0xbc424f8c	-0.011859786
200	0x3983fea7	0.00025175998
201	0x3bbddae7	0.0057939175
202	0x3d6cd6b8	0.05782196
203	0xbd4439d4	-0.04790671
204	0xbafc91cc	-0.0019269525
205	0xbd1ca227	-0.038240578
206	0x3d9b9ca1	0.07598234
207	0xbce9c518	-0.028536364
208	0x3cb71ad6	0.022351664
209	0xbd531520	-0.05153382
210	0xbd12a95f	-0.035806056
211	0x3d173e30	0.03692454
212	0x3d18ed2f	0.03733557
213	0x3cc88f82	0.024482492
214	0x3cae1849	0.021251814
215	0xbbb4b1b0	-0.005514346
216	0x99cf0b55	-2.1407875e-23
217	0x3d4e08ff	0.050301548
218	0x9ad32778	-8.733132e-23
219	0x3d947f22	0.07250811
220	0x3da13c78	0.078728616
221	0xbdca4749	-0.09876878
222	0xba0c0888	-0.00053418474
223	0xbbf76e93	-0.0075510233
224	0x3ca09b7e	0.019605394
225	0xbca5a7b2	-0.020221565
226	0x3d81cbed	0.06337724
227	0xbc8cd475	-0.017191151
228	0x3d18b661	0.037283305
229	0x3cc13681	0.02358556
230	0xbd0846ae	-0.03327053
231	0x3cde64c6	0.027147662
232	0xaccb718c	-5.7822132e-12
233	0x3d6eacb8	0.058270186
234	0x3d3bf1e3	0.045884978
235	0xbcf2db6c	-0.029645644
236	0x3b316bcd	0.002707231
237	0xbcdcacc8	-0.026937857
238	0xa811abe4	-8.08639e-15
239	0x3c8d9f1e	0.017287787
240	0xbb70232b	-0.0036642055
241	0xbc510708	-0.012758024
242	0x3c6068ae	0.013696833
243	0x8305ac6b	-3.9283113e-37
244	0x3d3ef401	0.04661942
245	0x3d982b80	0.07430172
246	0x3c0dc0a1	0.008651883
247	0xbd21df3d	-0.039519537
248	0x3d943cce	0.0723816
249	0x3db2f2ff	0.08737754
250	0x39d39b22	0.0004036064
251	0xbaca43fa	-0.0015431636
252	0x3d04a439	0.032383177
253	0xbcf43f82	-0.02981544
254	0x3cd1f7a5	0.025630781
255	0x3d66ad95	0.056317884

fc_mu.weight f4 [12, 256]
0	0x3a795856	0.0009511759
1	0xbba908ee	-0.005158535
2	0x3b2c1723	0.0026258908
3	0x3b6b94e5	0.0035946902
4	0x3cbd681e	0.023120936
5	0xba9b3b72	-0.0011843278
6	0x3c410ba8	0.011782564
7	0xbc0411ee	-0.008060915
8	0x3c44b5fd	0.01200628
9	0xbc0b7fd3	-0.008514362
10	0xbbc6d9c9	-0.0060684425
11	0x3c13426d	0.008988005
12	0x3bcd66ba	0.0062683495
13	0x3c3dd742	0.011586966
14	0x3bed439d	0.007240726
15	0x3c31fed2	0.010863977
16	0xb6483bc4	-2.983711e-06
17	0x3ad9f077	0.001662745
18	0x3c43e2cd	0.011955929
19	0xb9ea6f40	-0.00044714846
20	0xbcd42d23	-0.02590043
21	0x3cca3f37	0.024688346
22	0x387bf4e0	6.007112e-05
23	0xbc013965	-0.007887219
24	0x056fa12c	1.12673286e-35
25	0xbbbd2925	-0.005772727
26	0x3c75cc8c	0.015002381
27	0xba3dd5a8	-0.0007241615
28	0xbc0fb66c	-0.00877152
29	0x96dc83a1	-3.5625986e-25
30	0x82a738b7	-2.4570997e-37
31	0xbca7c06d	-0.020477498
32	0x3c42a548	0.011880226
33	0x8fef6630	-2.360658e-29
34	0x3c5977c8	0.013273187
35	0xbbab19cd	-0.0052215816
36	0xbb95d5af	-0.004572592
37	0x9aafbc6c	-7.2682716e-23
38	0x3bb5fbd1	0.0055537005
39	0xbbe33403	-0.0069336905
40	0xbb97b048	-0.0046291687
41	0xbc27798d	-0.010221851
42	0xbcba2557	-0.022722883
43	0xb908eded	-0.00013058605
44	0x0192d623	5.39392e-38
45	0xbaddc8d3	-0.0016920812
46	0x019963ba	5.6346424e-38
47	0x3c2f7eaa	0.010711351
48	0x39f9ab18	0.00047620456
49	0x3ccd713d	0.02507841
50	0x3590ab47	1.0778684e-06
51	0x3b4186fa	0.0029529915
52	0x3a0de683	0.0005413072
53	0x3ac554ac	0.0015055141
54	0xbae16575	-0.0017196374
55	0xa41b0aea	-3.3619512e-17
56	0xbc0434b2	-0.008069204
57	0x3cc083a2	0.023500267
58	0x3bcfe441	0.0063443487
59	0xbca793c9	-0.020456212
60	0x3bed008b	0.0072327307
61	0x3bfc2d0b	0.007695799
62	0xbd15e5f0	-0.03659624
63	0x3c4064c3	0.0117427735
64	0x3b919e25	0.004443901
65	0xbbf439d5	-0.007453183
66	0xbbc964fb	-0.006146071
67	0xbbcc95c5	-0.00624344
68	0xbc0e8122	-0.00869778
69	0x3bc3fe74	0.005981261
70	0xbc3d147e	-0.01154053
71	0x29c807e1	8.883151e-14
72	0x3af7592f	0.0018871183
73	0x3bf5a753	0.0074967532
74	0xbca0246c	-0.019548617
75	0x3c8af59e	0.016962823
76	0x39b7bbfa	0.00035044533
77	0x3c366d50	0.011134461
78	0x3c5a6f6e	0.013332231
79	0x3d01b00d	0.031662036
80	0x39e4d0d9	0.00043643152
81	0x9c8e443c	-9.41441e-22
82	0x000a5870	9.5008e-40
83	0x360b87a5	2.079157e-06
84	0x3bce81d0	0.006302096
85	0x3c6003ba	0.0136727635
86	0x3c2fc09f	0.010727077
87	0xba533fe8	-0.0008058534
88	0x3a1851e6	0.00058105437
89	0x3cdf3ad5	0.027249733
90	0x360f58cd	2.136035e-06
91	0xbb545ab1	-0.003240269
92	0xbc1a78e4	-0.009428237
93	0x3c030e8e	0.007999076
94	0x3bae8243	0.005325587
95	0xbc90ded0	-0.01768437
96	0xb8bcf15f	-9.0094974e-05
97	0xa23087a6	-2.392426e-18
98	0xbafae482	-0.0019141587
99	0x83265922	-4.8885335e-37
100	0xbb6b19e3	-0.0035873584
101	0xbc821aca	-0.015881915
102	0x3babd0cb	0.005243396
103	0xba9e692a	-0.0012085785
104	0x3b864370	0.0040973946
105	0xbc1b03be	-0.009461341
106	0x3c423cce	0.011855317
107	0x3b8953fd	0.0041909204
108	0x3b8dbd99	0.0043255803
109	0x3d06aef4	0.032881692
110	0xbb38e2e1	-0.0028211402
111	0xbb38cb85	-0.002819748
112	0x3bd5ab44	0.0065206606
113	0x3bfab14d	0.0076505304
114	0x3b45887d	0.0030141168
115	0xab123654	-5.1945015e-13
116	0x3b18cd89	0.0023315868
117	0xbad93739	-0.0016572244
118	0x3bc3637f	0.0059627886
119	0x3c9f653d	0.019457454
120	0x372aaec3	1.01734795e-05
121	0xba30ab9a	-0.0006739438
122	0x3cc15e65	0.023604581
123	0xbbe9a7f5	-0.0071306177
124	0xbadcec5e	-0.0016855111
125	0x3abede55	0.001456211
126	0x3a28a64b	0.0006433471
127	0xbbc72583	-0.00607747
128	0x3c5db128	0.013531007
129	0x3ccf80ce	0.025329974
130	0xbc7d5ca9	-0.015463986
131	0x00609626	8.870071e-39
132	0xbb1ab8c6	-0.0023608669
133	0x3c04092f	0.00805883
134	0x3a29e223	0.00064805354
135	0xbbf84b9c	-0.0075773727
136	0x3c9a54c1	0.018839242
137	0xba1b35e0	-0.0005920809
138	0x3776f393	1.4719454e-05
139	0xbbf7bb09	-0.007560138
140	0xbb2fda92	-0.002683316
141	0x3b7b9e5f	0.0038393957
142	0xbb273d18	-0.0025518592
143	0x2f49a07f	1.8337863e-10
144	0x3b66276d	0.0035118714
145	0xbc2ba666	-0.010476684
146	0x3b253279	0.0025207086
147	0xbb7b47df	-0.00383424
148	0xbc6755f9	-0.014119619
149	0x3c1c5a8d	0.009543073
150	0xac4513a4	-2.8006287e-12
151	0x2aeb2721	4.1771537e-13
152	0xbc849c89	-0.016187923
153	0x3d0aea02	0.033914573
154	0xbd0855e6	-0.033285044
155	0x3bfa5e1b	0.007640613
156	0x3b315080	0.0027056038
157	0x3782989b	1.556827e-05
158	0xbb012eae	-0.001971166
159	0x39c8cbb3	0.0003829874
160	0xbc41a7db	-0.011819805
161	0x3c65ff34	0.014037896
162	0x3aebff1d	0.0018005107
163	0xbc8d9ff2	-0.017288182
164	0xbbe72e13	-0.007055053
165	0xbc723db2	-0.014785217
166	0xb981ab8b	-0.00024732607
167	0xbb555628	-0.0032552574
168	0xbc4aab3d	-0.012369928
169	0x3ca30808	0.01990129
170	0xbc6331e1	-0.0138668725
171	0x3cab1c1b	0.020887425
172	0xbbe2ec14	-0.0069251154
173	0x3c91e48b	0.017809173
174	0x3c51a5c9	0.012795874
175	0x3a86efb7	0.0010294829
176	0x3ba8b3aa	0.0051483708
177	0x3b94f50f	0.004545815
178	0xbb2df15d	-0.0026541569
179	0x3a1073a7	0.00055103976
180	0xbae6603e	-0.001757629
181	0x3bfeaad5	0.0077718296
182	0x3b9a7523	0.004713671
183	0xbbd2d3cc	-0.0064339396
184	0xbca6fad9	-0.020383285
185	0xbc45a924	-0.012064252
186	0x3bc7af69	0.0060939086
187	0x3b95f695	0.004576514
188	0x3b8f943a	0.0043816837
189	0x3a129bc1	0.0005592667
190	0x3b467000	0.003027916
191	0x375ca332	1.3151019e-05
192	0xba8ce1d1	-0.0010748451
193	0xbc3d55b9	-0.011556082
194	0xbb75f7ff	-0.003753185
195	0x3b372a9b	0.0027948979
196	0x3c0d2d90	0.00861682
197	0x3b8d8a05	0.0043194317
198	0xbc914b8d	-0.01773622
199	0xbacc84d4	-0.0015603551
200	0x3a23ebec	0.00062531116
201	0x3cbe6295	0.023240367
202	0xbbac2515	-0.005253444
203	0xbb991171	-0.0046712686
204	0xbb98598d	-0.004649347
205	0x3b4aff61	0.0030974972
206	0xbc017f97	-0.007903955
207	0xbcbc29cc	-0.022969149
208	0xbb2b4a43	-0.0026136793
209	0x3acb5a69	0.0015514615
210	0x3c5d2877	0.013498417
211	0xbb5ab33f	-0.0033371
212	0x3bd357e4	0.0064496864
213	0xbc73fc0a	-0.014891634
214	0xbc1fdf1e	-0.009757785
215	0xbc21bb33	-0.009871292
216	0x01651231	4.207371e-38
217	0xb808b33f	-3.2591863e-05
218	0x82f57749	-3.606798e-37
219	0xbccd85a2	-0.025088135
220	0x3a717810	0.0009211311
221	0xb8bb1891	-8.921431e-05
222	0x32ce5042	2.4018053e-08
223	0xbc19e98a	-0.009394059
224	0xbc921b63	-0.017835325
225	0xbc10629d	-0.008812574
226	0xbc019020	-0.007907897
227	0x3b19ef63	0.0023488633
228	0x3b44285f	0.002993129
229	0x3cc5b3fc	0.024133675
230	0xbaa57fa5	-0.0012626542
231	0x3b700cf4	0.0036628814
232	0x1f20eec4	3.407882e-20
233	0x3b28b54b	0.0025742825
234	0xbccae0ac	-0.024765335
235	0xbc9c87dd	-0.019107753
236	0x3b5b7e19	0.0033491908
237	0x3b1a7791	0.0023569802
238	0x0393ed78	8.694404e-37
239	0x3b68a95b	0.0035501334
240	0x39abe5fd	0.00032787016
241	0xbcc9187c	-0.024547808
242	0x3c8ce3f8	0.017198548
243	0x825f2f78	-1.6397075e-37
244	0xbca74666	-0.02041931
245	0x38c698af	9.469815e-05
246	0xb94e9a96	-0.00019703279
247	0xbbce896c	-0.006303003
248	0x3b42c774	0.0029720934
249	0x3b2f56e5	0.0026754674
250	0x396410c0	0.00021750014
251	0x3baefb05	0.0053399825
252	0xbba54eb1	-0.005044781
253	0x3b69dce1	0.0035684633
254	0xbba2e685	-0.0049713277
255	0x3b6a83fb	0.0035784233

fc_mu.bias f4 [12]
0	0xbcb61d3b	-0.022230735
1	0xbc96c3cd	-0.018403912
2	0x3c61cf3a	0.013782317
3	0xbd29b228	-0.04142967
4	0xbd2e29b8	-0.042520255
5	0xbd07a139	-0.03311274
6	0xbd06e779	-0.032935593
7	0xba78dac6	-0.0009493049
8	0x3cfa74bc	0.030573241
9	0xbc954f36	-0.018226247
10	0x3cd67642	0.026179437
11	0xbca1d20f	-0.019753484

fc_logvar.weight f4 [12, 256]
0	0x3baa25f2	0.0051925117
1	0x3b1f7a74	0.0024334462
2	0xba9eb9cc	-0.0012109815
3	0x3a97c9f1	0.0011580569
4	0x3bc4502c	0.0059910025
5	0xbb01adf3	-0.001978752
6	0x3ac07079	0.0014681957
7	0x3b1e0bb3	0.002411586
8	0x3bcf6ee5	0.0063303583
9	0x3a884d1b	0.0010398956
10	0x3bc92253	0.006138125
11	0x39fc9064	0.00048172765
12	0x3b187f11	0.0023269097
13	0x3c174bf5	0.009234418
14	0xbaaf5d7f	-0.0013379304
15	0xbb63fa17	-0.0034786516
16	0x2de49611	2.5987242e-11
17	0x3a0fa98b	0.0005480281
18	0xbb8450f1	-0.0040379693
19	0xb70bfd4a	-8.344019e-06
20	0x3b84b8b4	0.0040503386
21	0xbc091791	-0.008367435
22	0xbb166f46	-0.0022954508
23	0x3aafe3cb	0.0013419328
24	0x028606ff	1.9693546e-37
25	0xb9a0818c	-0.00030614098
26	0x3b040211	0.0020142833
27	0x3a310ca9	0.00067539007
28	0xbbcff223	-0.0063460036
29	0x13d3385a	5.3319455e-27
30	0x025be894	1.6156326e-37
31	0x3ac77f8c	0.0015220507
32	0xbb2fe7bf	-0.0026841012
33	0x8385e312	-7.86917e-37
34	0xba96c93a	-0.0011504062
35	0xba360967	-0.000694415
36	0xbb3afdd3	-0.0028532639
37	0x03661a96	6.7621444e-37
38	0x3b0ccc3e	0.0021484043
39	0xbabbf945	-0.0014341256
40	0x3b8aee3d	0.004239826
41	0xbb69eef2	-0.00356954
42	0x3babc9f5	0.005242581
43	0x3a0b54c1	0.00053150585
44	0x01a347ce	5.997978e-38
45	0xbc2b9b48	-0.010474034
46	0x8236045c	-1.3372499e-37
47	0x3ad82e2c	0.0016493252
48	0xb8dd632d	-0.00010556574
49	0x3bb95a78	0.0056565367
50	0xad16195e	-8.5321455e-12
51	0x3b1c2c2e	0.0023830044
52	0x3ba94d29	0.005166669
53	0x3a506cf1	0.0007950804
54	0x3a684d20	0.000886159
55	0x82496d48	-1.479851e-37
56	0x3bf33da2	0.0074231187
57	0xbb01a2f4	-0.0019780966
58	0xbac6ee26	-0.0015177175
59	0xbc8773ff	-0.016534803
60	0xbad5bc53	-0.0016306735
61	0xb979e9da	-0.00023833607
62	0xbc0453bc	-0.008076604
63	0xbaae2f07	-0.0013289162
64	0xb98ecd0e	-0.00027237128
65	0xba1a1b91	-0.00058787415
66	0xbbd6b175	-0.0065519162
67	0xba20daae	-0.00061361014
68	0xbad75191	-0.0016427507
69	0x3ae6bd45	0.0017604014
70	0xbb749baa	-0.0037324228
71	0xa0c3191c	-3.30509e-19
72	0xbad51323	-0.0016256314
73	0xbb99554c	-0.0046793576
74	0x3c12daf3	0.008963334
75	0xbbce195f	-0.0062896456
76	0x3b506fd9	0.0031804948
77	0x3a9d74e5	0.0012012987
78	0x3c1770c5	0.009243195
79	0x3c13d382	0.009022595
80	0xbb72a12a	-0.003702233
81	0x030a1f23	4.05903e-37
82	0x81380b18	-3.3803422e-38
83	0xafddb421	-4.0327655e-10
84	0x3a1d7a46	0.0006007295
85	0x3b18d86a	0.0023322352
86	0xbb6f3b8a	-0.0036503994
87	0x3b290c1b	0.002579457
88	0xbacd379d	-0.0015656833
89	0x3c6569e7	0.0140023
90	0x29216e5b	3.58449e-14
91	0x3c42ead4	0.011896808
92	0xbafa6b96	-0.001910555
93	0xb8b8a47b	-8.8044406e-05
94	0x3a91dda6	0.0011128678
95	0xbad594a4	-0.0016294909
96	0x3907c264	0.0001294702
97	0x03801a15	7.529152e-37
98	0x3a107de6	0.00055119244
99	0x8330dd5e	-5.197587e-37
100	0xba8dc8c3	-0.0010817278
101	0xbb2bf814	-0.0026240395
102	0x39d6c054	0.00040960556
103	0x3b676d4c	0.0035312949
104	0x3b6deb8f	0.0036303734
105	0x3ac7c856	0.00152422
106	0xbbbecc83	-0.0058227195
107	0xbb214636	-0.00246085
108	0xbb1c0663	-0.0023807518
109	0x3a58f664	0.0008276461
110	0xbb584428	-0.0032999609
111	0xba998bdf	-0.0011714658
112	0xbab78edb	-0.0014004366
113	0xbb35d971	-0.0027748013
114	0x3adf4c92	0.001703637
115	0x9d58171e	-2.8599313e-21
116	0x3b29ea98	0.0025927182
117	0x3bace6ed	0.005276552
118	0x39074b2b	0.00012902606
119	0x3c528848	0.012849875
120	0x39b27df2	0.00034044642
121	0xba27e1b8	-0.0006404179
122	0x3a64d315	0.00087289634
123	0x39b7a43b	0.0003502684
124	0xbbba39f1	-0.0056831767
125	0xbb7998c5	-0.0038085443
126	0x38e0907e	0.00010708066
127	0xbaedd1e9	-0.0018144223
128	0x3b59d89b	0.003324068
129	0xba8386d7	-0.0010034692
130	0xbba958a7	-0.005168039
131	0x822eaa90	-1.283245e-37
132	0xbae84965	-0.0017722069
133	0xbc2a4247	-0.010391778
134	0xb7c9aa76	-2.4040444e-05
135	0x3b055c36	0.0020349151
136	0x3b9cb8aa	0.004782756
137	0x3251f976	1.2222122e-08
138	0xb1a624de	-4.835427e-09
139	0x39c930de	0.00038374116
140	0x3b9e7550	0.004835762
141	0x3a044704	0.00050459825
142	0xbb91028e	-0.0044253534
143	0xa702f244	-1.8172457e-15
144	0x3a8a8b8d	0.0010570154
145	0xbb1cd2ab	-0.0023929279
146	0x37fd0360	3.0161522e-05
147	0xba86f24c	-0.0010295599
148	0xbaecb482	-0.0018059167
149	0x3b98e09b	0.004665447
150	0x841f2ab4	-1.8709968e-36
151	0x96099421	-1.1113513e-25
152	0xb9e7970b	-0.0004417229
153	0x3c49e651	0.012322978
154	0x3b140916	0.0022588423
155	0xbc341760	-0.010991901
156	0xba8e25dd	-0.0010845024
157	0x3771ae0c	1.4405243e-05
158	0xbb023a69	-0.001987124
159	0xae5041b9	-4.7352098e-11
160	0x3aa081b4	0.0012245686
161	0x3b5ea6fa	0.0033974038
162	0x3b6f404b	0.0036506827
163	0xbb646304	-0.0034849057
164	0xb980be55	-0.0002455587
165	0x3b34b6a9	0.0027574694
166	0xbb8ec009	-0.0043563885
167	0x3ab28031	0.0013618526
168	0x3c69c357	0.014267764
169	0x3b775db3	0.0037745058
170	0xbb0b47da	-0.0021252544
171	0xbaeb70e2	-0.0017962719
172	0xb9bf623d	-0.00036503552
173	0x3c1f2fff	0.009716033
174	0xbb8f141f	-0.0043664123
175	0xbb9cc8e0	-0.0047846884
176	0x3adad37f	0.0016695111
177	0x3404c1e4	1.2363995e-07
178	0x3b3eb3f0	0.002909895
179	0x39ec6c1f	0.00045093984
180	0xba9f1865	-0.0012138007
181	0x3a76d35e	0.00094156514
182	0xbad64c9a	-0.0016349733
183	0xbb9b364d	-0.0047366978
184	0x3b17d564	0.0023167962
185	0x3b210d08	0.0024574418
186	0xb99cb585	-0.0002988988
187	0x3b8de296	0.0043299897
188	0x3b75fa24	0.0037533129
189	0xb9fd4501	-0.00048307332
190	0xbaa19230	-0.0012326892
191	0xb181ea36	-3.781021e-09
192	0xb6e872de	-6.927511e-06
193	0xbbf862dd	-0.007580145
194	0x3b1ed3cd	0.002423513
195	0x39466973	0.00018922034
196	0x3aee5b78	0.0018185219
197	0xbbe29471	-0.0069146683
198	0xbc6d41d7	-0.0144810295
199	0xba94fcd8	-0.0011366857
200	0x3416f8c7	1.4060343e-07
201	0x3c0bbbb7	0.008528641
202	0xbaa3a233	-0.0012484252
203	0xba88753a	-0.0010410913
204	0xbb17f572	-0.0023187068
205	0x3882eb40	6.242702e-05
206	0xbc06b831	-0.008222626
207	0x3aa916f4	0.0012900517
208	0xbaaa1d4d	-0.0012978703
209	0xbb2b61e8	-0.0026150886
210	0x3b5a232c	0.0033285124
211	0xbaa282ca	-0.0012398597
212	0x3ae80466	0.0017701506
213	0x3b218c26	0.0024650185
214	0x39cc5771	0.0003897506
215	0xbb9e4227	-0.0048296633
216	0x82647395	-1.6783965e-37
217	0x3a541702	0.00080905866
218	0x82f3e5cb	-3.5837536e-37
219	0xbbbbf999	-0.0057365415
220	0x3accac2a	0.0015615274
221	0x3b403eb9	0.002933426
222	0x990ee88d	-7.388191e-24
223	0xbb662d80	-0.0035122335
224	0xbc0cde4d	-0.0085979225
225	0xbb056fa6	-0.0020360737
226	0x3b1547c7	0.0022778378
227	0xbb6b1f76	-0.0035876906
228	0x3ab57283	0.0013843331
229	0x3b89ef64	0.004209446
230	0xbada6549	-0.0016662265
231	0x3acbb87e	0.0015542654
232	0x038b080f	8.171536e-37
233	0xbb73f034	-0.003722203
234	0x398f5766	0.00027340202
235	0xbb8a3067	-0.004217196
236	0xbbd31ec0	-0.0064428747
237	0xbadc0416	-0.0016785886
238	0x01e07b16	8.2461224e-38
239	0x39aa77cb	0.0003251418
240	0xb7a0f882	-1.9189207e-05
241	0x3b366e5c	0.0027836775
242	0x3a0c14c3	0.000534367
243	0x02386ba9	1.3549082e-37
244	0xba1eb74f	-0.0006054537
245	0xbc100b60	-0.0087917745
246	0x38423e0c	4.631099e-05
247	0xbb04d97b	-0.002027123
248	0x39f2eae8	0.00046332856
249	0x3bb5debe	0.0055502346
250	0xb1cf3ce1	-6.031414e-09
251	0x3b6664d6	0.0035155318
252	0x3b801c67	0.003909636
253	0x3b49dc42	0.003080145
254	0xbaf2fad0	-0.0018537883
255	0x3ae0e2d9	0.001715745

fc_logvar.bias f4 [12]
0	0xbbe4a72c	-0.0069779363
1	0x3ba6daa2	0.005091981
2	0xbe1ab9d7	-0.15109955
3	0xbc4008dd	-0.011720863
4	0xbaa92b67	-0.0012906612
5	0x3bd58560	0.0065161437
6	0x3cd4dfb8	0.025985584
7	0xbc0e60e1	-0.00869009
8	0xbc1dc6e0	-0.009629935
9	0xbb177635	-0.0023111228
10	0x3be05364	0.0068458784
11	0x3bc5df58	0.0060385875

decoder.0.weight f4 [256, 57]
0	0x3ccbce1c	0.024878554
1	0xbc89e4d1	-0.016832741
2	0x3e5b8081	0.21435739
3	0x3d0a936b	0.033831995
4	0xbd73746d	-0.059437204
5	0xba9e5c7c	-0.0012082006
6	0xbcd421ce	-0.025895026
7	0x3b9fbf98	0.0048751347
8	0x3cdbdc51	0.026838453
9	0x3d488df9	0.04896352
10	0xbd40823d	-0.046999205
11	0xbc166120	-0.00917843
12	0x3bdc604a	0.0067253457
13	0x3d923982	0.07139875
14	0x3defb125	0.117037095
15	0x3cb11cd4	0.021620192
16	0xbd16c270	-0.036806524
17	0x3ce92a36	0.02846251
18	0x3c009ef0	0.007850394
19	0xbd43b8a3	-0.047783505
20	0xbd517670	-0.05113834
21	0x3ca14117	0.019684358
22	0xbdc2f0ff	-0.095186226
23	0xbdb4e18d	-0.08832083
24	0x3a4f9f90	0.00079202
25	0x3d0d22ec	0.034457132
26	0xbd4ece56	-0.050489746
27	0x3b32ba77	0.0027271786
28	0x3b3b074c	0.0028538285
29	0xbddec2bf	-0.108769886
30	0xbd2e54f5	-0.04256149
31	0xbda0b4d1	-0.07846988
32	0x3c6ee15b	0.014580096
33	0xbdeb70e3	-0.11496141
34	0x3dbb966a	0.091595486
35	0x3d5248d1	0.051338974
36	0x3d1927be	0.037391417
37	0x3da6d543	0.08146145
38	0xbdb08c58	-0.086205184
39	0x3d88dca1	0.066827066
40	0x3c93767d	0.018000836
41	0x3c133729	0.008985319
42	0x3c60c5f6	0.013719073
43	0xbd4cc3db	-0.04999147
44	0xbdab7f41	-0.08373881
45	0x3ced220b	0.028946897
46	0x3c3c1ab9	0.011480981
47	0x3b04cf7c	0.0020265272
48	0xbc1c1af0	-0.009527907
49	0x3d0e2564	0.034703627
50	0x3dc921ad	0.09820876
51	0x3dbde60f	0.09272396
52	0x3dc879c7	0.09788852
53	0x3d272c20	0.040813565
54	0x3c21c71b	0.009874131
55	0x3cb3d6d8	0.021953031
56	0x3d82719f	0.06369328
57	0x3cbeda30	0.0232974
58	0x3c86f3aa	0.01647361
59	0xbd236c62	-0.039898284
60	0x3c51755a	0.012784326
61	0x3c9e4b2a	0.01932295
62	0xbd0231a7	-0.031785633
63	0x3bc5eefd	0.0060404525
64	0x3d3b34eb	0.045704763
65	0xbc084161	-0.008316369
66	0xbcfd4b3a	-0.03091966
67	0xbb547fde	-0.0032424848
68	0xbccf9919	-0.025341557
69	0xbc3a9321	-0.011387617
70	0x396c7b6d	0.00022552694
71	0xbea751a3	-0.3267947
72	0xbd77a1ff	-0.060457226
73	0x3d557c15	0.052120287
74	0x3dab138c	0.08353338
75	0xbd81a7df	-0.06330847
76	0x3c8ec8b3	0.017429685
77	0x3bf607a1	0.0075082337
78	0xbd26a781	-0.040687088
79	0x3daaa22c	0.08331713
80	0xbdcd9cd1	-0.10039676
81	0x3d2d7b55	0.042353947
82	0xbdcfb1ec	-0.10141358
83	0x3d006b96	0.031352602
84	0x3a0ea344	0.00054411986
85	0x3d1c6644	0.038183466
86	0xbc0ef1d0	-0.008724645
87	0x3d42b530	0.047536075
88	0x3d91c4ec	0.07117638
89	0x3d8c6448	0.06855065
90	0xbda3eee3	-0.080045484
91	0x3d300429	0.042972717
92	0xbcb35868	-0.021892741
93	0x3dc715b4	0.097209364
94	0x3d3901d6	0.045167767
95	0x3e2bdb5e	0.167829
96	0x3da8aa03	0.08235552
97	0x3df438ed	0.1192492
98	0x3db5e9d1	0.088824876
99	0xbc88f068	-0.016716197
100	0xbd7aec9e	-0.061260812
101	0x3da4cf74	0.08047381
102	0xbd4506a3	-0.048102032
103	0x3d5d91cf	0.054094132
104	0xbd15091b	-0.036385637
105	0x3da0b8e4	0.07847765
106	0x3ddfe9f3	0.10933294
107	0x3ced419f	0.028961955
108	0xbca33426	-0.019922327
109	0x3d3562ea	0.044283785
110	0x3c13abd8	0.009013139
111	0x3cb821ca	0.02247705
112	0x3e00f019	0.1259159
113	0x3d202f1c	0.039107427
114	0xbca98c22	-0.020696703
115	0xbbb81deb	-0.005618801
116	0x3e6ddf8d	0.23229809
117	0x3c1af80d	0.009458554
118	0xbccd3f8b	-0.025054714
119	0xbd2c0c42	-0.042003877
120	0x3ae19392	0.0017210117
121	0x3d7614a6	0.060078286
122	0x3cc47090	0.023979455
123	0xbd78b1d7	-0.060716476
124	0xbd04ac3c	-0.032390818
125	0xbbfabaa4	-0.007651644
126	0x3c97efae	0.018546905
127	0xbc94fadd	-0.018186027
128	0xbe88ad5b	-0.2669476
129	0x3ce3e9fa	0.02782153
130	0xbdf7c90d	-0.12098894
131	0x3b24137b	0.0025036025
132	0xbd11491c	-0.035470113
133	0xbd17d820	-0.037071347
134	0x3cfbee62	0.030753318
135	0xbd086647	-0.033300664
136	0x3bc9c8a3	0.006157951
137	0x3de5b7a9	0.11216671
138	0xbc8bdee9	-0.017074065
139	0xbd006170	-0.031342924
140	0x3d881ad7	0.06645744
141	0xbdab9f63	-0.0838001
142	0x3c932137	0.017960174
143	0xbda865e2	-0.082225576
144	0xbda242b0	-0.07922876
145	0xbd0117ac	-0.031516716
146	0xbad5de37	-0.0016316836
147	0xbcaf31ab	-0.021385988
148	0x3d65a45d	0.056064952
149	0xbd531fe2	-0.051544078
150	0xbde5c01f	-0.11218285
151	0x3ddf9529	0.10917122
152	0xbd47a4f3	-0.048741292
153	0xbcabb1d4	-0.020958818
154	0x3d5e0b82	0.054210193
155	0xbb915cfd	-0.004436134
156	0x3c788505	0.015168433
157	0xbdea2d5d	-0.114344336
158	0x3d0dbc11	0.034603182
159	0xbdf63636	-0.12022059
160	0xbc79fadb	-0.0152575625
161	0xbc3ce4cf	-0.011529162
162	0x3c0622a2	0.008186968
163	0x3a964ea9	0.0011467534
164	0xbd1ac644	-0.037786737
165	0xbab792a4	-0.0014005494
166	0x3d46212a	0.04837147
167	0x3d7064a9	0.058689747
168	0x3d051e68	0.0324997
169	0xbdd744c7	-0.10511165
170	0x3d0d4b6e	0.034495763
171	0x3b0a0e43	0.002106563
172	0xbb4371c3	-0.0029822446
173	0xbe2e612d	-0.17029257
174	0xbc89eaae	-0.016835537
175	0x3b3fea99	0.0029284118
176	0x3c84da7e	0.016217466
177	0xbc26760c	-0.0101599805
178	0xbbd5d0d4	-0.0065251384
179	0x3c67ab46	0.014139956
180	0xbba70d02	-0.005097986
181	0x3bc53e2c	0.0060193744
182	0x3cb890ab	0.02252992
183	0xbdbf0d10	-0.09328663
184	0x3d090cdb	0.033459526
185	0xbe257d38	-0.16161048
186	0x3da72fad	0.0816339
187	0x3d2b70b6	0.041855536
188	0xbdbd8c7a	-0.092553094
189	0xbd5b1ea7	-0.05349603
190	0xbd008d67	-0.03138485
191	0x3ce072d9	0.027398514
192	0xbdc59a3d	-0.09648559
193	0x3d6e57fd	0.05818938
194	0x3dc5124c	0.096226305
195	0xbda42dd2	-0.08016552
196	0x3ddb0769	0.10694773
197	0xbd83f74a	-0.06443651
198	0x3dacc1c9	0.08435399
199	0x3d1f1018	0.038833708
200	0xbbb1d783	-0.0054273023
201	0x3de984e4	0.114023
202	0x3cbba6c8	0.022906676
203	0xbc731c33	-0.014838266
204	0x3de133af	0.10996186
205	0x3e016f07	0.1264001
206	0xbdfc536c	-0.12320599
207	0x3e168118	0.14697683
208	0xbdc0b30c	-0.094091505
209	0xbd6a2b31	-0.057170097
210	0xbd1b3a6d	-0.037897516
211	0x3d86b310	0.06577122
212	0x3da16638	0.07880825
213	0xbc9319ca	-0.017956633
214	0x3c6247f1	0.0138110975
215	0x3e0828f9	0.1329688
216	0x3aae77eb	0.0013310885
217	0x3d6b176e	0.05739539
218	0x3cc3c586	0.023897897
219	0x3be745d2	0.007057884
220	0x3da56b22	0.080770746
221	0x3d91f007	0.0712586
222	0x3c0770ef	0.008266672
223	0x3dc8d3b9	0.09806008
224	0xbc571e10	-0.013129726
225	0xbc64ae98	-0.013957642
226	0x3d8530be	0.065034375
227	0x3cc822d4	0.02443067
228	0xbcc6c15f	-0.024262128
229	0x3ce2102e	0.027595606
230	0xbdf18e5a	-0.117947295
231	0xbce6fb9d	-0.02819615
232	0xbcb55ec7	-0.02213992
233	0xbd2d1269	-0.042253885
234	0xbca1427d	-0.019685024
235	0x3cd64960	0.026158035
236	0xbca053b8	-0.01957117
237	0xbd59be90	-0.05316025
238	0xbbb38cfa	-0.005479452
239	0x3cf5ca51	0.030003699
240	0x3cef44ed	0.029207671
241	0x3dd4071e	0.1035292
242	0x3dd8c375	0.105841555
243	0xbd514446	-0.0510905
244	0xbdb2e5b3	-0.08735218
245	0xbde56431	-0.112007506
246	0x3d7d3ea7	0.061827328
247	0xbd671172	-0.05641312
248	0x3d1ef93f	0.03881192
249	0xbdd3b9ab	-0.10338148
250	0xbde6b3ab	-0.11264738
251	0x3d8f3852	0.06993164
252	0xbc107ccf	-0.008818819
253	0xbda29b51	-0.079397805
254	0x3b923bd6	0.0044626994
255	0xbbec4ede	-0.00721155
