models/cvae_L8_H128_B0.050_LR1e-03.pt (torch, 214729 bytes, 13 tensors)

encoder.0.weight f4 [128, 46]
0	0x3e2bc354	0.1677373
1	0x3da40616	0.08008973
2	0xbd7fdbf5	-0.062465627
3	0xbe4dac3a	-0.2008523
4	0xbb2ae7e1	-0.0026078152
5	0x3d72517b	0.059159737
6	0x3dc8201b	0.09771749
7	0xbd69d0f8	-0.057084054
8	0xbd29ee0c	-0.041486785
9	0x3d2ebede	0.042662494
10	0x3df65e14	0.12029663
11	0xbd0669c4	-0.03281571
12	0x3d5fd0d3	0.05464251
13	0x3d7b48cc	0.06134872
14	0xbd630056	-0.055420242
15	0xbcc07ee3	-0.023498004
16	0x3d734354	0.05939038
17	0x3d132cb6	0.03593131
18	0x3d90f0d5	0.07077185
19	0x3d01a3c7	0.03165033
20	0x3bb95f5f	0.005657121
21	0x3c9820ff	0.018570421
22	0x3cfd54f2	0.030924294
23	0x3d63036f	0.055423196
24	0xbd84d7fe	-0.0648651
25	0xbc24a965	-0.010050152
26	0x3d826255	0.063664116
27	0x3d7eab99	0.062175367
28	0x3d0c79ee	0.03429597
29	0x3d8d0167	0.06885033
30	0xbd86830e	-0.065679654
31	0x3b4764be	0.0030425037
32	0xbc3d41bf	-0.01155132
33	0xbc0075c3	-0.007840577
34	0xbd63bd93	-0.055600714
35	0xbcd9f77f	-0.026607273
36	0x3c189d9b	0.00931492
37	0xbc41ce91	-0.011829034
38	0xbd48dce4	-0.049038783
39	0x3cb3865e	0.021914657
40	0x3d88f05a	0.066864684
41	0x3db52c88	0.08846384
42	0xbd35c6c9	-0.04437903
43	0xbcd65372	-0.026162837
44	0xbdaa10a0	-0.08303952
45	0xbc6d90ef	-0.014499887
46	0xbe8465b7	-0.25858852
47	0x3c095e83	0.00838435
48	0xbd306e37	-0.04307386
49	0x3ea9d36a	0.3316911
50	0xbb5f52ce	-0.0034076455
51	0x3d970165	0.07373313
52	0xbca94572	-0.020662997
53	0xbd86eb32	-0.06587829
54	0x3d90019b	0.07031556
55	0x3cf90cfa	0.030401696
56	0xbd83f5eb	-0.064433895
57	0x3d983e29	0.07433731
58	0xbd5c143f	-0.053730246
59	0xbdb6e98a	-0.08931263
60	0xb99c8860	-0.00029856246
61	0x3c34eab8	0.011042289
62	0x3cea5bee	0.028608289
63	0x3acbd2c5	0.0015550485
64	0x3d2f318a	0.042771854
65	0xbc57dc02	-0.013175013
66	0xbc80c7cd	-0.015720272
67	0x3d808be5	0.06276683
68	0xbdbfd52c	-0.09366831
69	0xbbd20453	-0.006409207
70	0x3d7132a0	0.05888617
71	0xbd8b69a2	-0.06807257
72	0x3d9e3212	0.07724394
73	0x3ddf45ef	0.10902011
74	0x3ce26ebf	0.027640698
75	0x3d22ba73	0.039728593
76	0xbc694b11	-0.014239089
77	0x3d0f5e8a	0.03500227
78	0x3df81777	0.121138506
79	0x3dee62db	0.11639949
80	0x3dc29c2d	0.095024444
81	0x3dacd3d8	0.084388435
82	0x3d550b81	0.052012924
83	0x3d142a20	0.036172986
84	0xbc300ba5	-0.010744964
85	0x3e15bf5c	0.14623779
86	0x3c50f87d	0.012754557
87	0xbd5595ef	-0.05214494
88	0xbd2ddb2d	-0.04244535
89	0x3d8ae415	0.067817844
90	0xbd9f6862	-0.07783581
91	0x39d0844b	0.00039771418
92	0xbde3b2f3	-0.11118116
93	0x3d20e32c	0.039279148
94	0x3beb0ecb	0.0071733943
95	0xbe97f057	-0.29675552
96	0x3c221315	0.009892245
97	0xbcddd6ca	-0.027079958
98	0xbd231108	-0.039811164
99	0x3d49ffe3	0.0493163
100	0xbd107b98	-0.03527412
101	0x3cca0b93	0.024663722
102	0xbc6323fd	-0.013863561
103	0xbcc9c5b7	-0.02463041
104	0x3d24e61e	0.04025852
105	0x3b724b1e	0.0036971043
106	0xbd1c216e	-0.03811782
107	0xbb9a61fe	-0.0047113886
108	0xbbcc5a6a	-0.006236364
109	0xbb826cda	-0.0039802613
110	0x3c84689a	0.01616316
111	0x3c80b44c	0.015710972
112	0xbc7c18a6	-0.015386736
113	0x3bdae559	0.0066801724
114	0x3cc5bf14	0.024138965
115	0xbc528332	-0.012848662
116	0x3d86a0b0	0.065736175
117	0xbdc064e3	-0.093942426
118	0x3d49208a	0.049103297
119	0xbdd35fcb	-0.103210054
120	0xbd15eb40	-0.036601305
121	0x3b1a051d	0.0023501583
122	0xba72f8aa	-0.0009268621
123	0xbc4c436e	-0.012467248
124	0xbca5d685	-0.020243892
125	0xbc5a4129	-0.013321199
126	0xbc72d9f6	-0.014822474
127	0x3b2591cd	0.0025263906
128	0xba16a9e9	-0.00057473645
129	0xbc4c436a	-0.012467245
130	0xb2928521	-1.7057177e-08
131	0x3cb17b76	0.021665316
132	0x3b93467b	0.004494486
133	0xbc8e55b8	-0.017374858
134	0xbb2b4e09	-0.0026139042
135	0x3c05ce40	0.00816685
136	0xbc1fe159	-0.009758317
137	0xbc1c092c	-0.009523671
138	0xbe36abce	-0.17838976
139	0x3d758dfe	0.059949867
140	0xbd99500e	-0.07485972
141	0x3e1bba3a	0.15207759
142	0x3c0fe569	0.008782723
143	0xbda2e59c	-0.07953951
144	0x3d88ec66	0.066857144
145	0xbc04be29	-0.008101978
146	0xb9e72df5	-0.00044093994
147	0x3d8c475b	0.068495475
148	0xbd096b13	-0.03354938
149	0x3d95f40e	0.0732194
150	0x3dc88a97	0.09792059
151	0x3dcbf351	0.09958518
152	0xbe050e60	-0.12993765
153	0x3d057fd0	0.032592595
154	0xbc6accb6	-0.014331033
155	0x3d146b1f	0.03623497
156	0x3cf3088b	0.02966716
157	0xbcf78e74	-0.030219294
158	0x3d2fe132	0.042939372
159	0xbd493cfe	-0.049130432
160	0x3d08dc2d	0.0334131
161	0xbce472c5	-0.027886758
162	0xbcce48d4	-0.025181212
163	0x3d9c4db3	0.076320074
164	0xbd6d803d	-0.057983626
165	0xbda1d3a7	-0.079016976
166	0x3c49ffbe	0.01232904
167	0xbbff8db5	-0.007798875
168	0xbca04de3	-0.01956839
169	0x3b5c8945	0.0033651155
170	0xbd5b07f6	-0.05347439
171	0xbc23d0bd	-0.009998498
172	0xbbee6719	-0.007275474
173	0x3cd163b0	0.02556023
174	0x3c074c4e	0.008257939
175	0xba46d0eb	-0.0007584232
176	0x3c8a4d3c	0.016882531
177	0x3d985f23	0.07440021
178	0x3bafb24b	0.0053618304
179	0xbc1e0573	-0.009644854
180	0x3cf8f761	0.030391397
181	0x3d834628	0.064098656
182	0xbd27b13c	-0.04094051
183	0xbc832b52	-0.016011868
184	0xbde173ba	-0.11008401
185	0xbbde8a0a	-0.006791358
186	0xbcdab832	-0.02669916
187	0xbee5eb84	-0.44906247
188	0xbc5e3a73	-0.01356374
189	0xbd1521d5	-0.036409218
190	0xbd633c5f	-0.055477496
191	0x3bb2467c	0.0054405313
192	0xbd140532	-0.036137767
193	0xbc5c795e	-0.013456671
194	0x3c532837	0.012888006
195	0x3d0bc256	0.03412088
196	0xbd51b272	-0.05119557
197	0xbc6377de	-0.013883559
198	0x3d722b24	0.059123173
199	0x3ba1f11b	0.004942072
200	0xbc151dd0	-0.009101346
201	0xbc2ac2b5	-0.010422398
202	0x3c4d6590	0.012536421
203	0xb9938e7a	-0.00028144178
204	0x3d3b5b5a	0.045741417
205	0xbdf75583	-0.12076857
206	0x3d65bdc3	0.056089174
207	0x3d72c583	0.059270393
208	0xbd9b1f9a	-0.07574387
209	0xbdb8d47e	-0.09024905
210	0xbdb7b46c	-0.089699596
211	0xbd5223a1	-0.05130351
212	0x3d4eebc4	0.050517812
213	0x3c2dff2c	0.01061992
214	0xbb9fac40	-0.0048728287
215	0x019bfb42	5.7298545e-38
216	0x3d6a9d37	0.057278838
217	0xbcb3e282	-0.021958593
218	0xbd25801b	-0.040405374
219	0x3c8a9466	0.016916465
220	0xbc57bc6a	-0.01316748
221	0x01b39a66	6.5975766e-38
222	0x3ae15ccc	0.0017193793
223	0xbdbb3165	-0.09140281
224	0xbdae083c	-0.08497664
225	0x3ab61b26	0.0013893589
226	0x3d569d4c	0.052396104
227	0xbb8a966a	-0.0042293565
228	0x3c5e3bf4	0.013564099
229	0xbc83f035	-0.01610575
230	0xbe944598	-0.28959346
231	0xbcde0028	-0.027099684
232	0xbdd93b6c	-0.10607037
233	0x3e6b2c7c	0.22966188
234	0x3cb2f984	0.021847494
235	0xbdc86668	-0.097851574
236	0xbd8c001b	-0.068359576
237	0x3dceec17	0.10103624
238	0xbb884dec	-0.0041596796
239	0x3c88c949	0.016697543
240	0x3d8a5423	0.06754329
241	0x3dce8627	0.10084181
242	0x3d6a85cd	0.05725651
243	0x3d8d18ce	0.06889497
244	0xbb2242ab	-0.0024758975
245	0xbd480812	-0.04883582
246	0xbd6900aa	-0.0568854
247	0xbdd1c1f1	-0.102420695
248	0x3bbe1314	0.005800614
249	0xbcf4354c	-0.02981057
250	0xbd8cf885	-0.06883339
251	0xbd8f4da9	-0.069972344
252	0x3da74bd3	0.08168759
253	0x3cd4e02b	0.025985798
254	0xbbc7e920	-0.0061007887
255	0x3b51b8c4	0.0032000998

encoder.0.bias f4 [128]
0	0x3d2f1ca8	0.042751938
1	0x3c77bb1d	0.015120295
2	0xbd93bb3a	-0.07213445
3	0x3de5f8d7	0.11229103
4	0xbd71550f	-0.05891901
5	0x3c5cae3a	0.013469273
6	0x3dd660e5	0.104677
7	0xbdd3e2cc	-0.103459924
8	0x3e3fe795	0.18740685
9	0x3c8fae08	0.01753904
10	0xbdeccc52	-0.115624085
11	0xbaceda82	-0.0015781673
12	0x3d674f85	0.05647232
13	0x3e41dd7c	0.18932146
14	0x3d50af61	0.050948504
15	0xbcf3d45b	-0.029764345
16	0xbda040ae	-0.07824837
17	0xb9b7db1c	-0.0003506773
18	0x3cfa51a6	0.030556511
19	0x3e0ecf15	0.13946183
20	0xbd8ad7ba	-0.06779428
21	0x3e190417	0.14942966
22	0x3dca3cb5	0.0987486
23	0x3e08b01b	0.13348429
24	0xbd8cf0d8	-0.06881875
25	0x3d7a170e	0.061057143
26	0x3dcd7e41	0.10033847
27	0x3d193a59	0.03740916
28	0x3cffe8b6	0.031238895
29	0xbdd7681b	-0.105179034
30	0x3c054c7f	0.008135914
31	0xbd96824c	-0.07349071
32	0xbd158dc8	-0.036512166
33	0x3c067dc6	0.008208698
34	0xbd300453	-0.042972874
35	0xbc7197a5	-0.0147456275
36	0xbd69e148	-0.05709961
37	0x3dce6583	0.100779556
38	0x3d4ec66d	0.050482202
39	0x3d9ff376	0.07810108
40	0xbddd656e	-0.10810362
41	0xbce2b72a	-0.02767523
42	0xbd922aa9	-0.07137043
43	0x3de5a918	0.11213893
44	0x3de25189	0.11050708
45	0x3e35355a	0.17696133
46	0x3d96a7cd	0.07356224
47	0x3b59a744	0.003321127
48	0xbd23bd5b	-0.039975505
49	0xbb9790eb	-0.00462543
50	0x3e01f787	0.1269208
51	0x3db65671	0.08903206
52	0xbd2fe12f	-0.04293936
53	0x3de7f515	0.113260426
54	0x3e3fbd2b	0.18724506
55	0xbddecbea	-0.10878737
56	0x3d66f85c	0.056389198
57	0x3cd984bd	0.026552552
58	0x3dcecdc8	0.100978434
59	0x3e3e6455	0.18592961
60	0x3c67a563	0.014138552
61	0xbd3db684	-0.04631664
62	0xbd22f7a3	-0.039786946
63	0x3d17c8dd	0.037056793
64	0x3dde3779	0.10850424
65	0xbd650029	-0.055908356
66	0x3859ac27	5.189716e-05
67	0x3ce685b5	0.028139928
68	0x3c7d2156	0.015449842
69	0x3ded3b47	0.11583572
70	0xbd9e66f3	-0.0773448
71	0xbd826c37	-0.063682966
72	0x3d13006b	0.03588907
73	0xbd1025dd	-0.03519236
74	0xbcc5d4a8	-0.024149254
75	0xbdcd8503	-0.100351356
76	0x3d9423df	0.07233404
77	0xbd82ef53	-0.06393304
78	0x3e0e030a	0.13868347
79	0x3ccf5445	0.025308738
80	0x3d970854	0.07374635
81	0xbd92ca9e	-0.071675524
82	0xbe14531f	-0.14484833
83	0x3e113382	0.14179805
84	0x3e031d9c	0.12804264
85	0xbd87370f	-0.066022985
86	0xbd10eb3f	-0.0353806
87	0x3d88e661	0.06684566
88	0x3ddb7074	0.10714808
89	0x3de164a2	0.11005522
90	0xbd0fce2c	-0.03510873
91	0x3db0aa8f	0.086262815
92	0x3e3c2a48	0.18375504
93	0x3da4cb69	0.0804661
94	0xbd15d001	-0.03657532
95	0x3ce51ec3	0.02796877
96	0x3de9ecd0	0.114221215
97	0xbc19b8a9	-0.009382405
98	0xbb848f58	-0.004045408
99	0xbd652b5e	-0.05594956
100	0x3ca0b490	0.019617349
101	0xbcf97863	-0.030452913
102	0xbcaef2e4	-0.021356054
103	0x3ddd2b8c	0.107993215
104	0x3e07cc8c	0.13261622
105	0x3d3b1470	0.045673788
106	0x3d0d0a98	0.03443393
107	0xbccb1ba1	-0.024793448
108	0xbdf89f40	-0.121397495
109	0xbd1a6326	-0.03769221
110	0x3be9f9b1	0.0071403612
111	0xbc8ea45e	-0.01741236
112	0x3d29d965	0.04146709
113	0x3c37ee9b	0.011226322
114	0x3d09e8b7	0.0336692
115	0x3d7e3e0e	0.0620709
116	0x3dcf6caa	0.10128148
117	0x3d9bd336	0.07608645
118	0x3dff6cde	0.12471937
119	0xbc836ad9	-0.01604216
120	0x3e132cd3	0.14372568
121	0xbd812682	-0.06306173
122	0xbe14ed1a	-0.14543572
123	0x3d1b9a27	0.037988808
124	0x3b7228e4	0.0036950642
125	0x3db67996	0.089099094
126	0x3e15d6ac	0.14632672
127	0xbd4ebf97	-0.050475683

encoder.2.weight f4 [128, 128]
0	0xbc82af45	-0.015952716
1	0x3d130c73	0.035900544
2	0x3cc8b8f8	0.024502262
3	0xbbc8e75c	-0.006131096
4	0x3d4e7a00	0.050409317
5	0x3d5fee63	0.054670703
6	0x3de0399e	0.109484896
7	0xbba1828e	-0.0049288934
8	0x3ddb85f2	0.107189074
9	0xbb1eb696	-0.0024217716
10	0x3d460728	0.04834667
11	0x3d01efdf	0.0317229
12	0x3d806fd4	0.062713295
13	0x3b3dac83	0.0028941936
14	0x3bcb5a62	0.006205843
15	0x3d97058a	0.07374103
16	0xbd164b1f	-0.036692735
17	0x38fa6aa6	0.00011940794
18	0xbcdd9f26	-0.027053427
19	0xbba46ecf	-0.005018092
20	0xbb9b660d	-0.00474239
21	0xbcf6b361	-0.030114831
22	0x3d85f560	0.06540942
23	0xbc62d7da	-0.013845408
24	0xbcb8f023	-0.022575444
25	0x3b4b06a4	0.00309793
26	0xbb915331	-0.004434966
27	0x3c951f73	0.018203473
28	0x3cd0795a	0.02544849
29	0xbbf6e157	-0.007534187
30	0x3bdfdd09	0.0068317694
31	0xbd41b4a9	-0.04729143
32	0x3d12bc26	0.035823964
33	0x3cbdfce7	0.023191882
34	0xbc893e23	-0.016753262
35	0xbd186d86	-0.037213825
36	0x3c489919	0.012243533
37	0x3d6e4bb4	0.058177665
38	0x3d20bd01	0.03924275
39	0xbd64e40a	-0.055881537
40	0xbd513e84	-0.05108501
41	0xbcaacb4f	-0.020848898
42	0xbc9d2ac6	-0.019185435
43	0x3d17f2b1	0.037096683
44	0xbd293ab4	-0.04131575
45	0x3c6aa57f	0.014321684
46	0xbce6c26f	-0.028168885
47	0x3cb75d90	0.022383481
48	0xbd420752	-0.047370262
49	0x3c5d7323	0.01351622
50	0xbcb331fc	-0.02187442
51	0xbcdfdd9a	-0.027327348
52	0x3c67e57c	0.014153834
53	0xbc67876c	-0.014131408
54	0x3da660e8	0.08123952
55	0x3c315d5b	0.01082548
56	0x3d7ad9f2	0.061243005
57	0xbd93b5e9	-0.07212431
58	0xbd78121d	-0.06056415
59	0x3d504fcc	0.05085735
60	0x3c5467a7	0.012964166
61	0x3c8fa166	0.017533015
62	0x3cdbba22	0.026822153
63	0x3d38ff4e	0.045165353
64	0x3dc4b1aa	0.09604199
65	0x3d831079	0.06399626
66	0xbc0fac31	-0.008769081
67	0x3d19198f	0.03737789
68	0x3bbf8fbd	0.0058459924
69	0x3da0467f	0.07825946
70	0xbcde58e4	-0.027141996
71	0xbd0d01d4	-0.03442557
72	0x3d5cb24d	0.05388098
73	0x3cde2678	0.027117953
74	0x3d40e53b	0.04709361
75	0x3d485468	0.04890862
76	0x3bfd0849	0.007721935
77	0x3d477d08	0.048703223
78	0x3c05b7cc	0.008161496
79	0x3d4e7dd9	0.050412986
80	0x3d2ae325	0.04172053
81	0xbcd8ecf1	-0.02648017
82	0xbc6d2161	-0.01447329
83	0xbcd22178	-0.025650725
84	0x3d844ccc	0.0645996
85	0x3bf3682a	0.007428189
86	0xbbd57ebe	-0.006515353
87	0xbccdf705	-0.025142202
88	0xbbbe2180	-0.0058023334
89	0xbd09a38c	-0.033603236
90	0x3cfe02af	0.031007139
91	0x3c0afed1	0.0084836045
92	0x3cd743d1	0.026277455
93	0xbcd59133	-0.026070213
94	0xbb912f28	-0.0044306703
95	0xbce4a238	-0.027909383
96	0x3d0ba69a	0.03409443
97	0xbd51593d	-0.051110495
98	0x3da5ded2	0.0809914
99	0x3d163781	0.036674026
100	0xbcd64f4e	-0.026160862
101	0x3c29dde1	0.010367841
102	0xbb134051	-0.0022468755
103	0xbbfa8091	-0.007644721
104	0x3daf3ce6	0.08556537
105	0xbce8d1d2	-0.028420363
106	0x3d81fcbb	0.06347033
107	0x3bf513a2	0.007479147
108	0x3cb17f18	0.021667048
109	0xba787189	-0.0009477367
110	0x3b9f9073	0.0048695146
111	0x3ccfd29f	0.025368987
112	0xbd031904	-0.03200628
113	0x3d97063f	0.07374238
114	0xbc66c7a7	-0.014085687
115	0xbcc30d6e	-0.023810115
116	0x3d6c2a40	0.05765748
117	0x3b5dab41	0.0033824
118	0x3c0c08cb	0.008547018
119	0x3d00942a	0.0313913
120	0x3d3298b9	0.04360268
121	0x3d889c7b	0.06670471
122	0xbd7a7d5f	-0.06115472
123	0x3d9b5f5a	0.07586546
124	0x3dba81de	0.091068015
125	0xbb021c84	-0.0019853422
126	0x3d21f6fb	0.03954218
127	0x3d067323	0.032824647
128	0x3ce4bfd1	0.027923496
129	0x3c3b8769	0.0114458585
130	0x3b65d164	0.0035067433
131	0x3c6896ba	0.014196092
132	0xbc3b06aa	-0.011415163
133	0xbd332f88	-0.0437465
134	0x3db384dd	0.08765576
135	0xbbbe7719	-0.0058125374
136	0x3d1221cb	0.03567676
137	0xbcec4aa6	-0.028844189
138	0x3cb8fd93	0.022581851
139	0xbbe66a37	-0.0070317048
140	0x3cac383a	0.021022905
141	0x3ced7f35	0.028991321
142	0xbb8e648e	-0.004345483
143	0x3c227957	0.009916625
144	0xbb9c00db	-0.004760844
145	0xb83452eb	-4.2992568e-05
146	0x3d8a54cd	0.06754456
147	0x3c6abec6	0.0143277105
148	0xbba15db2	-0.0049244994
149	0x3bd9de83	0.00664884
150	0xbcf0e1f3	-0.029404616
151	0x3c873b70	0.016507834
152	0x3cce7ee7	0.025206996
153	0xbd066306	-0.03280928
154	0x3bcb425c	0.006202979
155	0x3c9ae9d5	0.018910328
156	0x3d537f4e	0.05163508
157	0x3cbb653d	0.022875423
158	0xbc22cfec	-0.009937268
159	0x3d54a844	0.051918283
160	0xbcaae3e7	-0.020860625
161	0x3aa71c98	0.001274961
162	0x3cd560dd	0.026047165
163	0x3b5d8fdc	0.003380767
164	0xbd526708	-0.05136779
165	0x3bc56dca	0.0060250508
166	0x3d6d84f1	0.05798811
167	0xbcac99ff	-0.021069525
168	0xbd0ac161	-0.033875827
169	0xbbf2ca8c	-0.0074093994
170	0xbc0fb6da	-0.008771623
171	0xbd017d14	-0.031613424
172	0xbd6808a1	-0.056648854
173	0x3d8ea062	0.06964184
174	0xbd4beefd	-0.049788464
175	0x3be70306	0.007049921
176	0x3cc39c9d	0.02387839
177	0x3c8eb012	0.017417941
178	0x3c30f211	0.010799901
179	0xbcce823e	-0.025208589
180	0x3c9233bd	0.017846936
181	0x3d8c83de	0.06861089
182	0xbca683d6	-0.020326536
183	0x3d768425	0.060184617
184	0x3d3e718a	0.046494998
185	0x3c0dd2f5	0.008656253
186	0x3d1b63ca	0.037936963
187	0x3ccb7648	0.024836674
188	0xbd83d07d	-0.0643625
189	0xbc7188ed	-0.014742118
190	0xbd985c57	-0.074394874
191	0x3cc1c851	0.023655089
192	0xbccb5c03	-0.024824148
193	0x3c03da11	0.008047597
194	0xbc5d40fa	-0.013504261
195	0x3bc87e9d	0.006118609
196	0x3c524992	0.012834923
197	0xbd448779	-0.04798076
198	0x3cf0f5cf	0.029414086
199	0xbd47ee73	-0.048811387
200	0x3c77178b	0.015081297
201	0x3c14202a	0.009040872
202	0xbb42adee	-0.002970572
203	0x3d0e76d7	0.034781303
204	0x3d8e7a6f	0.06956946
205	0xbc7dae6c	-0.01548348
206	0x3da68386	0.08130555
207	0xbcac0c01	-0.021001818
208	0xbd127d6a	-0.035764135
209	0xbb9b9486	-0.00474793
210	0xbd3f11e5	-0.046647925
211	0x3c2a879a	0.0104083065
212	0xbd3c08a3	-0.045906674
213	0xbb74270c	-0.003725472
214	0xbcce9bf7	-0.025220854
215	0x3b5bb877	0.0033526698
216	0x3d41415f	0.047181483
217	0xbc952816	-0.018207591
218	0x3c042009	0.008064278
219	0xbc198010	-0.009368911
220	0x3c177ca4	0.009246025
221	0xbd92d7ec	-0.0717009
222	0xbcdff4fe	-0.027338501
223	0x3cc8bbd8	0.024503633
224	0x3c958506	0.018251907
225	0x3c290e00	0.010318279
226	0xbcc7df47	-0.02439846
227	0x3d934234	0.071903616
228	0xbb8dd573	-0.0043284236
229	0xbcb3162b	-0.021861156
230	0xbbd60807	-0.0065317187
231	0xbcfda062	-0.030960266
232	0xbd2429ce	-0.04007893
233	0x3cb00dc5	0.02149094
234	0xbbd8b6e5	-0.0066135996
235	0xbd22378b	-0.03960375
236	0x3b24e16a	0.0025158771
237	0xbc88cee0	-0.016700208
238	0xbd106a5a	-0.035257675
239	0xbd282710	-0.041052878
240	0x3c923078	0.017845377
241	0xbc872da6	-0.016501259
242	0x3bdf2124	0.0068093706
243	0xbb638b43	-0.0034720458
244	0x3d75241d	0.059848893
245	0xbc18b424	-0.009320293
246	0xbce07674	-0.027400233
247	0xba1b5a37	-0.0005926224
248	0x3c7c9db7	0.0154184615
249	0x3d7614da	0.06007848
250	0xbd04b24e	-0.032396607
251	0x3c0bd1c1	0.008533896
252	0x3d11a239	0.0355551
253	0xbd09b6f6	-0.03362175
254	0xbbd91460	-0.0066247433
255	0xbc4224d2	-0.011849599

encoder.2.bias f4 [128]
0	0x3d82bec7	0.06384044
1	0x3db727c5	0.08943132
2	0x3da9b6b0	0.08286798
3	0xbd2051db	-0.039140563
4	0x3c8e7602	0.017390255
5	0xb064c78c	-8.322949e-10
6	0x3d83b05e	0.06430124
7	0xbc48de66	-0.012260055
8	0x82841102	-1.9405419e-37
9	0x3df2ef33	0.1186203
10	0x3ddf20e2	0.10894944
11	0xbc98f94b	-0.01867356
12	0x9a954a72	-6.174523e-23
13	0x3daff050	0.08590758
14	0x3ba22d7e	0.0049492707
15	0x3dae1389	0.0849982
16	0x3de75c78	0.11296934
17	0xbaa50bdb	-0.0012592034
18	0x3d543a2b	0.051813286
19	0x9aaac8d4	-7.063481e-23
20	0x3e06bd11	0.1315806
21	0x3d916a27	0.07100325
22	0xbcd0c18c	-0.025482915
23	0x3df9c405	0.12195591
24	0x3db23098	0.08700675
25	0xbc872e66	-0.016501617
26	0x3d6f9685	0.058493156
27	0x3cb5d8f6	0.022198182
28	0xbc2d5edf	-0.010581701
29	0xbd407f39	-0.04699633
30	0x3d81211f	0.063051455
31	0xbc70e816	-0.014703771
32	0x3dbfa28e	0.09357177
33	0x3dc6ee0d	0.09713373
34	0x3d2b3273	0.04179616
35	0xbc8bd870	-0.017070979
36	0xbd0db1e7	-0.03459349
37	0xbd2b4995	-0.04181822
38	0x3ddd8f2a	0.10818322
39	0xbd0501a7	-0.03247228
40	0x3e15dc50	0.14634824
41	0x3d2598cc	0.04042892
42	0x3db0d10e	0.08633624
43	0x3d3c1016	0.04591378
44	0x82943542	-2.1777214e-37
45	0xb989cfea	-0.00026285584
46	0x3cd7d894	0.02634839
47	0x3d44bce2	0.048031695
48	0x3d271b99	0.040797804
49	0x3dd511d7	0.10403793
50	0xbce8e654	-0.028430142
51	0x3d955be3	0.072929166
52	0x3c435085	0.011921053
53	0xab46a1f7	-7.05685e-13
54	0xbc692b87	-0.014231569
55	0x3c57c9fe	0.013170717
56	0x3d362cdd	0.04447638
57	0x3d7e3d51	0.062070195
58	0x9f6a036a	-4.955425e-20
59	0x3dbea323	0.093084596
60	0x3bb45300	0.0055030584
61	0xbd32939c	-0.043597803
62	0x3d91939a	0.07108231
63	0x3de0a0d0	0.109681726
64	0xbc27196a	-0.01019893
65	0xbd137217	-0.035997476
66	0xbc093c77	-0.008376232
67	0x3da0e7f3	0.07856741
68	0xbc403e69	-0.01173363
69	0x3d074ab0	0.033030212
70	0xbc8feff5	-0.017570475
71	0x3dd4c234	0.10388604
72	0xbd9bc358	-0.07605618
73	0xbd071ed4	-0.032988384
74	0x3d7ccd84	0.061719432
75	0x8227d68f	-1.2330798e-37
76	0xbc07a000	-0.008277893
77	0x3b557384	0.0032570073
78	0x3df9bbf5	0.12194053
79	0x3db9bac9	0.090688296
80	0x3b4962cf	0.003072906
81	0xbcfb0adb	-0.030644825
82	0xbac84bdf	-0.00152814
83	0x392a5fbc	0.00016248127
84	0x8289b0f8	-2.0231916e-37
85	0x3cdaf2cf	0.026727108
86	0x3d1440d5	0.03619464
87	0xbc00b3e6	-0.007855391
88	0xbc28d642	-0.010304989
89	0x3df1c6cb	0.11805495
90	0x3c8afec2	0.016967181
91	0xbdc0b829	-0.09410126
92	0x3df60bdc	0.12013981
93	0xbda902b2	-0.08252467
94	0x3da993e2	0.082801595
95	0x3db9ece7	0.09078389
96	0x3d26320b	0.04057507
97	0xb225a80e	-9.642475e-09
98	0x3a9b26e4	0.0011837152
99	0xbd3c7206	-0.04600718
100	0x3b4158c8	0.002950238
101	0xbcf71883	-0.030163055
102	0x39f9f335	0.00047674184
103	0xbd22e1d4	-0.039766148
104	0x3c534334	0.01289444
105	0xb7b00281	-2.0982001e-05
106	0x3d1d7be8	0.038448244
107	0x83020e1a	-3.8219754e-37
108	0x3d968a24	0.07350567
109	0x3c87f26b	0.016595086
110	0x3d92165a	0.071331695
111	0xbd2db509	-0.042408977
112	0x3b75036e	0.0037386077
113	0x3c8f90f7	0.01752518
114	0xbd322e1b	-0.043501
115	0x3da6cfc4	0.08145097
116	0x3d82ee03	0.063930534
117	0x3c0a1b8c	0.008429419
118	0x3da8c4de	0.082406744
119	0x3d2dd3ba	0.042438246
120	0xbd35718f	-0.04429775
121	0xbcd4ccbf	-0.025976537
122	0x3b83aeab	0.004018625
123	0xbc8b6aee	-0.017018761
124	0xbd215cfa	-0.03939531
125	0x3d24f80f	0.04027563
126	0xbd0f3dc7	-0.034971025
127	0x3db1e345	0.08685926

fc_mu.weight f4 [8, 128]
0	0xbc1db1bb	-0.009624894
1	0xbb808bd8	-0.0039229207
2	0x3ba5f26f	0.0050643007
3	0x3b83887d	0.0040140734
4	0xb94886c4	-0.0001912369
5	0x82b42cb9	-2.6474292e-37
6	0xbb32428c	-0.002720031
7	0x3b74d730	0.0037359707
8	0x01bd99da	6.96484e-38
9	0xbb64a615	-0.0034889032
10	0x3c2bfb6c	0.010496955
11	0x3c8d2253	0.017228281
12	0x8a978f89	-1.4594763e-32
13	0x38b54887	8.644262e-05
14	0xba3b3bb3	-0.000714238
15	0xbabeb735	-0.001455045
16	0xb92e8a24	-0.00016645394
17	0xbb48119d	-0.0030528076
18	0xbc934aae	-0.017979946
19	0x8c184ac7	-1.1732157e-31
20	0x3bcee6aa	0.0063141184
21	0x3bc9a079	0.006153163
22	0x3bd70600	0.0065619946
23	0xbcedab6f	-0.02901241
24	0x3b44d0e7	0.0030031742
25	0x3bc54fac	0.0060214605
26	0xbbe2f521	-0.0069261943
27	0xba8e3653	-0.001084993
28	0x3c042eab	0.008067767
29	0xb9a5161c	-0.00031487725
30	0x3c3c1484	0.011479501
31	0x3bbae67e	0.0057037463
32	0x390303d4	0.0001249456
33	0xbbc2077e	-0.0059213033
34	0xbadbd7a3	-0.0016772639
35	0x3b98de29	0.0046651554
36	0xbbc0e4cc	-0.0058866497
37	0x3ba73445	0.0051026666
38	0xb8eaa060	-0.00011187862
39	0xbb2551a8	-0.0025225673
40	0x3c436da0	0.011927992
41	0x3b306265	0.0026914116
42	0x3bf5c868	0.007500697
43	0x3c583114	0.013195295
44	0x821f6769	-1.1711152e-37
45	0xa2f6bd74	-6.6879025e-18
46	0xba968107	-0.0011482545
47	0xbb0b18c8	-0.0021224488
48	0x3c2dbf9b	0.010604764
49	0xba088233	-0.00052073895
50	0xb98fdbaf	-0.00027438762
51	0xbc986a87	-0.018605484
52	0x3b2cf998	0.0026393887
53	0x81109c1d	-2.656063e-38
54	0xbad9a74e	-0.0016605647
55	0x3c1cc49a	0.009568358
56	0x3af57922	0.0018728117
57	0x3b9e0562	0.004822419
58	0x802005b4	-2.940782e-39
59	0x3c3ce559	0.01152929
60	0xbb18f3bf	-0.0023338643
61	0x3bca4115	0.006172309
62	0xbbac70e3	-0.0052624806
63	0x3ac1e2c8	0.0014792318
64	0xbcccd9cf	-0.025006203
65	0xbbd59ed6	-0.006519179
66	0xbb36f1fb	-0.0027915228
67	0xbae1db2b	-0.0017231455
68	0xbc9ed33e	-0.019387837
69	0xbb7c0ff6	-0.0038461662
70	0xbbb98e73	-0.005662733
71	0x3c845179	0.01615213
72	0x3abc4963	0.0014365133
73	0x3b27a4cc	0.0025580404
74	0xbb1217c6	-0.0022292002
75	0x817b15e6	-4.611713e-38
76	0xbb6a8947	-0.003578739
77	0xbbba4475	-0.0056844302
78	0xbabbf8dd	-0.0014341135
79	0xbb565513	-0.0032704517
80	0x3b761369	0.003754819
81	0x3ae68c65	0.0017589448
82	0x3d16f20b	0.036851924
83	0x37ad3c01	2.0651149e-05
84	0x01a1b0e6	5.9395896e-38
85	0x3b2044ba	0.0024455027
86	0x3b04f07b	0.002028494
87	0x3c32ef3e	0.010921298
88	0xbb0c4688	-0.0021404345
89	0x3bf18347	0.007370386
90	0x3b7193a9	0.0036861694
91	0xba8a85fb	-0.0010568494
92	0x3bbe5a2e	0.00580909
93	0x38d2e8b8	0.000100569276
94	0x3bc7adf5	0.0060937353
95	0x3c91b364	0.017785735
96	0x3b1c2e30	0.002383124
97	0x39173e87	0.00014423775
98	0x3b01c04e	0.001979846
99	0x3b9a8ab0	0.00471624
100	0xba83f602	-0.0010067823
101	0xbbb8ea75	-0.005643184
102	0xba137bc9	-0.00056260504
103	0xbbfe8c8d	-0.00776822
104	0xbb935e36	-0.004497315
105	0x3331f6b9	4.1435417e-08
106	0x37ada474	2.0699787e-05
107	0xa97d6a88	-5.6269686e-14
108	0xbbc9aeb8	-0.0061548613
109	0x3b544440	0.0032389313
110	0xba1d2ada	-0.000599546
111	0x3a856437	0.0010176961
112	0xb9d6ed20	-0.00040993933
113	0xbb457284	-0.003012807
114	0xbc2505ee	-0.0100722145
115	0xbc8ce103	-0.017197138
116	0x3c011eed	0.007880908
117	0xbc3b0af4	-0.011416186
118	0xbbb7b6c7	-0.0056065056
119	0x3bcec473	0.0063100397
120	0xbc156595	-0.009118457
121	0xbad29f69	-0.0016069236
122	0xb930d424	-0.00016863697
123	0x3c832f2b	0.016013702
124	0xbad9586a	-0.0016582136
125	0x3910bb2c	0.00013802637
126	0xbb7b469b	-0.0038341645
127	0xbc1d2150	-0.009590462
128	0xba32c6de	-0.00068197947
129	0x3b6b37c3	0.003589139
130	0xbbb31e76	-0.0054662777
131	0x3aac61a4	0.0013151658
132	0xbbbe00c2	-0.00579843
133	0x81f51cb7	-9.003999e-38
134	0x3a6a64aa	0.0008941392
135	0x3ad4d187	0.001623676
136	0x8048ba72	-6.67904e-39
137	0x3c3e2002	0.011604311
138	0x3b0b2f68	0.0021237973
139	0x3c30ae78	0.010783784
140	0x898b2e39	-3.35065e-33
141	0xb9d98e37	-0.00041495424
142	0xba55392d	-0.0008133825
143	0x3902971f	0.00012454063
144	0xbb760357	-0.0037538612
145	0x390b4424	0.00013281457
146	0xbbd5568d	-0.006510562
147	0x82d5e750	-3.1430304e-37
148	0xbbf400f4	-0.0074464027
149	0xbb4d4845	-0.0031323594
150	0xbc220148	-0.009888001
151	0x3b0e9a79	0.0021759553
152	0x39a96afa	0.00032313896
153	0xba17ea32	-0.00057950907
154	0xbace9091	-0.0015759637
155	0xbacae2e7	-0.0015478999
156	0x3b2a0c78	0.0025947373
157	0xba67a30f	-0.00088362483
158	0x3b7ebff0	0.0038871728
159	0xba8d5091	-0.0010781457
160	0x3b89727a	0.004194555
161	0xba052972	-0.0005079723
162	0x3bc1eaef	0.005917899
163	0xbaaffac4	-0.0013426174
164	0x3b0e6d26	0.0021732538
165	0x3bd87b28	0.0066064782
166	0xba04a70f	-0.0005060294
167	0x3a204ab8	0.00061146496
168	0x3b0a0eb6	0.0021065897
169	0x3aa4b6b9	0.0012566663
170	0xbb7aaf9a	-0.003825164
171	0x3ba6b49a	0.0050874474
172	0x8155381b	-3.9162175e-38
173	0x9977f84e	-1.28197454e-23
174	0xba11df52	-0.00055645884
175	0x3a180453	0.0005798984
176	0xbc030975	-0.00799786
177	0x3a12d78b	0.00056015764
178	0xbaa01f20	-0.0012216307
179	0x3c1ce15a	0.009575212
180	0x3b49eb6f	0.0030810495
181	0x810fcd30	-2.6412167e-38
182	0xbc0cada1	-0.008586318
183	0xbaa9acf6	-0.0012945223
184	0xbb0a3c60	-0.0021093115
185	0x3b654b5f	0.0034987552
186	0x8235141d	-1.3303552e-37
187	0x3a5dfe21	0.0008468349
188	0xba28251d	-0.0006414222
189	0xb995cd0d	-0.0002857227
190	0x3aafb321	0.0013404825
191	0x3aff02bb	0.001945577
192	0xbb69164c	-0.0035566268
193	0xbaec340d	-0.0018020883
194	0x3bc1dec1	0.005916447
195	0xb886111a	-6.392803e-05
196	0xbb0d30e6	-0.0021544038
197	0x3a0efa4b	0.00054541667
198	0x3af1ae5e	0.0018438806
199	0x3b5aae49	0.0033368042
200	0x3a6e6fd6	0.00090956443
201	0xba96e50d	-0.0011512354
202	0xbc4af65f	-0.012387841
203	0x81d199da	-7.699524e-38
204	0x3b250cae	0.002518456
205	0xbb2aa58c	-0.0026038615
206	0x3aad462d	0.0013219767
207	0xba160ba6	-0.00057237817
208	0x3b609db0	0.0034273677
209	0xba5ad995	-0.0008348462
210	0x3bb8c648	0.0056388713
211	0x3321c311	3.7663145e-08
212	0x012f2774	3.217073e-38
213	0xbb053e90	-0.002033148
214	0x3af60980	0.0018771142
215	0xbb221a54	-0.002473493
216	0xb90db891	-0.00013515564
217	0x3bc5b877	0.006033953
218	0x3b6149d0	0.003437627
219	0xbae1954e	-0.0017210634
220	0xbb1cd619	-0.0023931323
221	0xb91ea50c	-0.00015129539
222	0xbbc02100	-0.005863309
223	0x3b466d63	0.0030277602
224	0xb90e3448	-0.00013561652
225	0xb0aaee23	-1.243681e-09
226	0xb9e73e0e	-0.00044105988
227	0xbb5e429b	-0.0033914212
228	0x3827ef70	4.0038896e-05
229	0x3b4867f9	0.003057955
230	0xb8eb801d	-0.00011229536
231	0x3bca25ca	0.0061690556
232	0x3b844b55	0.0040373006
233	0x2d8b9634	1.5869174e-11
234	0xbb32ec90	-0.0027301647
235	0x92e45eb9	-1.4412174e-27
236	0x3bd29fd1	0.006427743
237	0xba8b7d4c	-0.00106422
238	0xba83c04a	-0.0010051813
239	0x3c3a31c6	0.011364406
240	0xba722138	-0.00092365174
241	0x39f5e338	0.00046899333
242	0x3b7c41e4	0.0038491422
243	0x3a9f38e6	0.0012147694
244	0xbaa1397e	-0.0012300459
245	0xbbb1cb47	-0.005425844
246	0x3a8ead53	0.0010885395
247	0x3b527396	0.0032112352
248	0xb9e3be53	-0.00043438617
249	0xba4d5aee	-0.0007833679
250	0xbb040ba8	-0.002014855
251	0xbbc92e6a	-0.006139566
252	0x3a4ac2d9	0.0007734723
253	0xbad28d3c	-0.001606382
254	0xbb223a0b	-0.0024753835
255	0xbb6839ab	-0.0035434763

fc_mu.bias f4 [8]
0	0xbc995bfe	-0.018720623
1	0xbc89ebd5	-0.016836086
2	0xbc9ab9e5	-0.01888747
3	0x3d49ce8b	0.04926924
4	0x3c92712c	0.01787623
5	0x3855167f	5.080411e-05
6	0xbc96a375	-0.01838849
7	0xbb1a329c	-0.00235287

fc_logvar.weight f4 [8, 128]
0	0x38a849a1	8.024579e-05
1	0x3a0afa0c	0.0005301542
2	0x3a557fc8	0.0008144346
3	0x391cb617	0.00014945153
4	0x3794391d	1.766957e-05
5	0x02ab37c8	2.5158209e-37
6	0x38f0d5ed	0.000114839386
7	0xb9150083	-0.00014209938
8	0x80631c09	-9.101771e-39
9	0xba5ef719	-0.00085054483
10	0xba511f2c	-0.0007977362
11	0xb99fffc8	-0.00030517415
12	0x0a812c33	1.2438874e-32
13	0xb95554dd	-0.00020344877
14	0xb89213de	-6.965523e-05
15	0x3772f1d1	1.4480626e-05
16	0x38b5b527	8.664495e-05
17	0xb9d87563	-0.0004128619
18	0xb98b0f85	-0.0002652371
19	0x022e8472	1.2821511e-37
20	0x3a7cc145	0.00096418365
21	0x398721b0	0.00025774306
22	0xb8bf05c5	-9.1086644e-05
23	0x3acb567e	0.0015513448
24	0xb9244ce4	-0.00015668903
25	0xb9c17bdf	-0.0003690412
26	0xb8c50823	-9.3952076e-05
27	0xb902148e	-0.00012405423
28	0x39c05910	0.0003668745
29	0x3847d5f6	4.7644564e-05
30	0xb7a86f86	-2.0079093e-05
31	0xb9a0e320	-0.000306868
32	0x38f5a3f2	0.000117130476
33	0x39c1d6ab	0.0003697177
34	0x37d9aa94	2.5947847e-05
35	0x395ae5b9	0.00020875678
36	0x3899640e	7.314245e-05
37	0xb9a68d28	-0.00031767157
38	0xb933b312	-0.00017137479
39	0xb8802ac3	-6.1114806e-05
40	0x3940d201	0.0001838878
41	0x38a79440	7.990794e-05
42	0xba38ac9e	-0.0007044765
43	0x3a2d9794	0.0006622013
44	0x81396560	-3.4051867e-38
45	0x02165600	1.104494e-37
46	0xb55bc9b8	-8.1877397e-07
47	0x39a98ccb	0.0003233909
48	0x37b8394c	2.196119e-05
49	0x36580238	3.21878e-06
50	0x394f2097	0.00019753199
51	0x3965a9c5	0.00021902386
52	0xba100308	-0.0005493616
53	0x821fbc87	-1.173558e-37
54	0xb9c5ee17	-0.0003775216
55	0xb8d09edc	-9.947803e-05
56	0xb8a59f0e	-7.897439e-05
57	0xb7a33878	-1.945741e-05
58	0x012f152f	3.2157622e-38
59	0xb95d144d	-0.00021083765
60	0x39376bed	0.00017492445
61	0x3874bfc1	5.8352718e-05
62	0x399d92d9	0.00030054784
63	0xb8c10b28	-9.205035e-05
64	0xb9afe2fc	-0.00033547718
65	0xb9b00f68	-0.00033580814
66	0x391c9f09	0.00014936565
67	0xb729bf44	-1.01177175e-05
68	0x3982c924	0.00024945394
69	0x381b2004	3.6984697e-05
70	0xb8dde5bf	-0.00010580895
71	0x392c6166	0.00016439482
72	0xb9b0e66b	-0.0003374101
73	0xb9f5f8b7	-0.00046915349
74	0xb95074ee	-0.00019879985
75	0x014c1560	3.7484218e-38
76	0x39bf0e76	0.00036441133
77	0xb853f22d	-5.0531864e-05
78	0x3981a4ec	0.00024727674
79	0xb9a28cb5	-0.00031003883
80	0x38e40fa4	0.000108748005
81	0xb9935f52	-0.00028109044
82	0x3a1de4bc	0.0006023159
83	0x33b52e3e	8.436881e-08
84	0x81144238	-2.7230816e-38
85	0xb9414cff	-0.00018434598
86	0xb992203d	-0.0002787131
87	0x39907755	0.0002755473
88	0x395b7502	0.00020929056
89	0xb9b4ccd1	-0.00034484876
90	0xb9fc9e81	-0.0004818328
91	0xba08a300	-0.0005212277
92	0x390b5204	0.00013286626
93	0xb84446ab	-4.6795856e-05
94	0x39cf8f8c	0.00039589067
95	0x39501e95	0.00019847818
96	0x39885dd0	0.00026009837
97	0xaf39089f	-1.6828715e-10
98	0x393f8d38	0.00018267788
99	0xb9a5172b	-0.00031488514
100	0x390efdbb	0.00013636697
101	0xb8a8fa3e	-8.0574755e-05
102	0xb7b87002	-2.1986667e-05
103	0x397c912a	0.0002408667
104	0xb96c9840	-0.00022563431
105	0xa05fc090	-1.8952548e-19
106	0x3966e57a	0.00022019996
107	0x02631a54	1.6684882e-37
108	0x3a58c64e	0.0008269296
109	0xb9a2bff2	-0.00031042058
110	0xb8cb1932	-9.684487e-05
111	0x3a72adba	0.00092574547
112	0xb9cff15c	-0.00039661943
113	0xb997af3d	-0.00028931527
114	0x3887a447	6.467901e-05
115	0xb8b359a4	-8.552082e-05
116	0x3a2baacb	0.00065485825
117	0xb98235ec	-0.00024835707
118	0xb8c0917c	-9.182372e-05
119	0xb73874df	-1.0994466e-05
120	0xba0df465	-0.0005415141
121	0xb91c3d2b	-0.00014900106
122	0xb9d8a31d	-0.0004132026
123	0x3a494acf	0.0007678689
124	0xb75a25a2	-1.3002575e-05
125	0xb9a56396	-0.0003154545
126	0x3918af72	0.00014561208
127	0x3a8bf579	0.0010678015
128	0x38289e1e	4.020158e-05
129	0xb856a182	-5.117199e-05
130	0x381cafd4	3.735705e-05
131	0xb7659fd7	-1.3686679e-05
132	0x39416e32	0.00018446965
133	0x82151756	-1.0953488e-37
134	0x37503bf4	1.2411725e-05
135	0xb9a6ee35	-0.00031839465
136	0x81a1fac1	-5.9501874e-38
137	0x394c4086	0.00019478993
138	0xb90cdb26	-0.0001343308
139	0x362eb4f0	2.603334e-06
140	0x096cb148	2.8490824e-33
141	0x3806220d	3.1979802e-05
142	0x3970d063	0.00022965814
143	0xb82002bc	-3.814952e-05
144	0xb8f21f5c	-0.000115453004
145	0xb920832f	-0.00015307659
146	0x3890b7c5	6.900685e-05
147	0x8282b8ea	-1.9207919e-37
148	0x36dc76ce	6.5703416e-06
149	0x391ff935	0.00015256258
150	0xb7c8f2fe	-2.395501e-05
151	0x392241e6	0.00015474073
152	0xb998f13f	-0.00029171442
153	0xb96a7c44	-0.00022362272
154	0x37d95211	2.5906631e-05
155	0xb9758911	-0.00023416082
156	0x3925dd0a	0.0001581797
157	0xb9e8fbca	-0.00044438086
158	0x3899035b	7.2962335e-05
159	0x37030917	7.810325e-06
160	0x384b591a	4.8481954e-05
161	0x391a92de	0.00014741297
162	0x3988d9cb	0.0002610221
163	0x3a06916a	0.0005133363
164	0xb87f97e1	-6.0938186e-05
165	0xb8f64e3c	-0.000117447664
166	0x3a055c6a	0.0005087318
167	0x3985e41c	0.00025537692
168	0xb46e0c00	-2.2169843e-07
169	0xb9a47a92	-0.0003137184
170	0xb80d79d5	-3.3730485e-05
171	0xb8079168	-3.232193e-05
172	0x0223a83f	1.2023633e-37
173	0x820afc8a	-1.0211114e-37
174	0x3698445c	4.537911e-06
175	0xb755b291	-1.2737365e-05
176	0xb825816e	-3.9459606e-05
177	0xb9105255	-0.00013763581
178	0x39c85c25	0.00038215626
179	0xb88246fb	-6.212104e-05
180	0x39225f6d	0.00015485073
181	0x806d7bf6	-1.0054538e-38
182	0xb997c127	-0.00028944874
183	0xb92a5438	-0.00016243837
184	0xb9046c40	-0.00012628827
185	0xb81fa5f7	-3.806312e-05
186	0x810e8309	-2.6175294e-38
187	0xb8936b58	-7.0295006e-05
188	0x37fad731	2.9902529e-05
189	0x386cee1c	5.648854e-05
190	0xb976d25e	-0.00023538756
191	0x3926428f	0.00015855789
192	0xb8fa511d	-0.000119360375
193	0x3903acb3	0.00012557469
194	0xb8eee2e0	-0.00011390983
195	0x393cc11e	0.00018001019
196	0xb8c80e49	-9.539404e-05
197	0xb915952c	-0.00014265318
198	0xb922fd50	-0.0001554389
199	0xb8415092	-4.6089823e-05
200	0xb7a85a26	-2.006914e-05
201	0x3864f3fa	5.4586657e-05
202	0x39b2a48d	0.00034073406
203	0x818d882c	-5.1990617e-38
204	0x39b69d0b	0.0003483075
205	0xb94fc786	-0.00019815387
206	0xb91d422c	-0.00014997338
207	0xb816a931	-3.592036e-05
208	0xb7f75f43	-2.9489054e-05
209	0xb970facc	-0.00022981613
210	0x39281746	0.00016030399
211	0xb2383734	-1.0722761e-08
212	0x0064b715	9.249227e-39
213	0x394e34e0	0.00019665388
214	0x3913580f	0.00014051817
215	0x395e3d76	0.00021194466
216	0x38e03178	0.000106903666
217	0x38c5827d	9.417997e-05
218	0x39bfe691	0.00036602144
219	0xb8f08fec	-0.00011470899
220	0x36ff7b5c	7.613953e-06
221	0xb7836100	-1.5661586e-05
222	0x399e6229	0.00030209243
223	0x3865a0da	5.474766e-05
224	0x39091ad3	0.00013075331
225	0x9a06a194	-2.7841072e-23
226	0x391d7726	0.00015017073
227	0xb77bfd50	-1.5019745e-05
228	0xb86f0f65	-5.6996378e-05
229	0x39cb2954	0.0003874997
230	0x3a02b68e	0.0004986309
231	0x39a1f7fe	0.00030893082
232	0xb88b62d0	-6.646442e-05
233	0x205da00a	1.877238e-19
234	0xb761b9f9	-1.3454345e-05
235	0x826b7695	-1.7299105e-37
236	0x39206539	0.00015296497
237	0xb88a2596	-6.587354e-05
238	0xb8b15205	-8.455295e-05
239	0xb8a8b5a2	-8.044696e-05
240	0x379c19aa	1.86086e-05
241	0xb9ccb554	-0.00039045012
242	0xb96b9404	-0.00022466487
243	0x393c22ab	0.00017941992
244	0xb8cc347b	-9.737253e-05
245	0xb7810aa3	-1.5382951e-05
246	0xb943c51c	-0.00018670078
247	0xb597b758	-1.1303737e-06
248	0xb90bd875	-0.0001333671
249	0x38f46bc9	0.00011654903
250	0xb99edc08	-0.00030300044
251	0x398fbbe4	0.00027415075
252	0xb95ef4b9	-0.00021262736
253	0x39ac38ad	0.00032848623
254	0x38acac1c	8.233657e-05
255	0x39ca32ec	0.00038566382

fc_logvar.bias f4 [8]
0	0xbb9c750e	-0.004774696
1	0xb9befb23	-0.00036426735
2	0xbafabd9b	-0.0019129993
3	0xbe932f2b	-0.28746924
4	0x3aa020e6	0.0012216836
5	0xbace00b3	-0.0015716761
6	0x3ac7d5b5	0.0015246185
7	0x3a9c57c0	0.0011928007

decoder.0.weight f4 [128, 53]
0	0x3b6bcd47	0.003598051
1	0xbba1d257	-0.0049384045
2	0x3a2ad99c	0.00065174117
3	0xbe78e7ff	-0.2430725
4	0x3af56f2d	0.001872515
5	0x3abb1604	0.0014273529
6	0xbb9cb25d	-0.0047820047
7	0xbac0b314	-0.0014701807
8	0x3d4ecfbe	0.050491087
9	0x3be4f125	0.0069867545
10	0x3e36d382	0.17854121
11	0x3c91bed3	0.017791187
12	0xbd4bebca	-0.049785413
13	0xbd57927d	-0.052629936
14	0xbd9f3700	-0.07774162
15	0x3ce505d9	0.02795689
16	0x3caaf71d	0.020869786
17	0x3df7a431	0.12091864
18	0x3d324e68	0.043531805
19	0x3db4b61e	0.088237986
20	0xbd0314e6	-0.032002352
21	0x3cf33986	0.029690515
22	0x3cfb5e56	0.030684631
23	0xbc27aad9	-0.010233604
24	0x3c1b8569	0.009492257
25	0xbd914bd5	-0.07094542
26	0x3c965613	0.01835159
27	0xbdc29d13	-0.09502616
28	0xbd853e63	-0.0650604
29	0x3d490689	0.049078498
30	0x3dc2a613	0.095043324
31	0x3e0d381a	0.13790932
32	0xbd5eef9f	-0.05442774
33	0x3dda77bf	0.10667371
34	0xbd7f6e29	-0.062360916
35	0x3cffebf9	0.03124045
36	0x3d379003	0.044815075
37	0x3ce73dc2	0.02822769
38	0x3c29795e	0.010343878
39	0x3d4c48db	0.049874168
40	0xbd7aaac8	-0.061198026
41	0xbd4b2477	-0.049595322
42	0xbbe17d07	-0.0068813595
43	0x3c60472e	0.013688846
44	0x3c278aff	0.01022601
45	0x3cad29d0	0.021138102
46	0x3c0cdef4	0.008598078
47	0xbb225ec2	-0.0024775718
48	0xbcdf10ee	-0.027229752
49	0x3d3e38e3	0.04644097
50	0x3ceb1f92	0.028701577
51	0x3c23c1e0	0.009994954
52	0x3c7c9d31	0.015418337
53	0xbb86a64f	-0.004109181
54	0xbb117547	-0.0022195147
55	0x3aee23e6	0.0018168658
56	0xbe85e3cf	-0.26150367
57	0x3b900998	0.004395675
58	0x372faf84	1.0471678e-05
59	0xbb872ba7	-0.004125077
60	0xbb8e75ad	-0.004347524
61	0xbbcd37da	-0.0062627615
62	0x3d0cc9be	0.034372084
63	0x3e0bdb97	0.13657986
64	0xbc7797fa	-0.015111918
65	0x3aa15877	0.001230969
66	0x3ddfe1f9	0.10931773
67	0xbb5916a0	-0.0033125058
68	0xbcc8aa0e	-0.02449515
69	0x3b2e8535	0.002662969
70	0xbd1973b4	-0.03746386
71	0x3d1158a6	0.035484932
72	0x3c1d1e82	0.009589793
73	0xbd2dde02	-0.04244805
74	0xbd2f7e31	-0.042844955
75	0x3cd5944f	0.026071696
76	0xbc8718ee	-0.01649138
77	0x3cfcda39	0.030865775
78	0xbca4a51e	-0.020098265
79	0xbd04bfd3	-0.0324095
80	0xbbf350d7	-0.0074254083
81	0xbd24f7f0	-0.040275514
82	0xbd70ef73	-0.058822107
83	0x3c044f80	0.008075595
84	0x3e3afa89	0.18259634
85	0x3da79a58	0.081837356
86	0x3e0ed841	0.13949682
87	0x3be1d5c1	0.0068919365
88	0xbceac455	-0.028658072
89	0x3c792ac9	0.015207955
90	0x3d1ce0c2	0.038300283
91	0xbc61738e	-0.013760461
92	0xbd66ba7b	-0.056330185
93	0xbc7e6973	-0.015528071
94	0xbd8ba30d	-0.06818209
95	0x3d8de145	0.069277324
96	0x3c64ba80	0.013960481
97	0xbb8e2813	-0.0043382733
98	0xbc640eb2	-0.013919519
99	0x3cdfd0dc	0.027321272
100	0xbcbd244c	-0.023088597
101	0xbdc3b8b8	-0.09556717
102	0x3cc5f6fc	0.024165623
103	0x3da0ea05	0.07857136
104	0x3dc3eb1c	0.09566328
105	0x3cdce48f	0.026964454
106	0x3ba54e9c	0.0050447714
107	0xbbe0ffc7	-0.0068664285
108	0x3ba3c1e9	0.004997481
109	0x3e0db966	0.13840255
110	0x3bb3d2cc	0.0054877754
111	0xbc09f190	-0.008419409
112	0x3b1c7729	0.0023874736
113	0xbc058010	-0.008148208
114	0x3c2ee345	0.0106743025
115	0x3b843f20	0.0040358454
116	0x3dedd1c4	0.11612275
117	0x3cc71fc9	0.024307149
118	0x3ceabbc3	0.028653985
119	0x3cad5050	0.02115646
120	0xbc1842e6	-0.009293294
121	0xb9960b6d	-0.00028618742
122	0xbce58e85	-0.02802206
123	0x3ca5c2fd	0.02023458
124	0x3c152b97	0.009104631
125	0xbd042b85	-0.032268066
126	0x3c80a00c	0.015701316
127	0xbc8ac795	-0.016940871
128	0xbc627be0	-0.013823479
129	0x3b786fd4	0.0037908452
130	0xbc540b80	-0.012942195
131	0xba910d17	-0.0011066523
132	0x3bbecdd1	0.005822875
133	0x3cb9fcc8	0.022703543
134	0xbc046c64	-0.008082483
135	0x3cb7005b	0.022339037
136	0x3c73d333	0.014881897
137	0xbdc0bead	-0.094113685
138	0xbd95dab8	-0.07317108
139	0xbc2b8c90	-0.010470524
140	0xbde884b7	-0.11353438
141	0xbe047462	-0.12935022
142	0x3b184563	0.0023234717
143	0x3aac7996	0.0013158794
144	0x3bfd3a58	0.0077279024
145	0xbd642881	-0.05570269
146	0xbcbac440	-0.022798657
147	0xbd86e0f9	-0.06585879
148	0xbb17af60	-0.0023145303
149	0x3c3648d1	0.011125759
150	0x3bfd3600	0.0077273846
151	0xbb985a98	-0.0046494715
152	0xbd081eb7	-0.033232417
153	0xbc99629c	-0.018723778
154	0xbcd86ed8	-0.026420042
155	0xbd1ced4d	-0.038312245
156	0xbcd6f03a	-0.026237596
157	0xbb970d16	-0.0046097143
158	0x3bcf1dce	0.0063206917
159	0xbc019862	-0.007909866
160	0x3c3d6f99	0.0115622515
161	0x3b0baf5b	0.0021314237
162	0x3c51bfc7	0.012802071
163	0xbbf84fea	-0.007577886
164	0x3b0ab221	0.0021163302
165	0xbb5804c7	-0.0032961832
166	0xbb62a8d2	-0.0034585488
167	0xbcb6e8d4	-0.022327818
168	0x3bd020f9	0.006351587
169	0xbdb17342	-0.08664562
170	0xbb09704f	-0.0020971482
171	0x3c9015c7	0.01758851
172	0xbc101bad	-0.008795661
173	0x3d018179	0.031617615
174	0xbc1d038e	-0.009583367
175	0xb80386c5	-3.1358348e-05
176	0x3be4861d	0.0069739954
177	0xbc77e96c	-0.015131336
178	0xbcc864a4	-0.024462052
179	0xbaafcdb4	-0.0013412745
180	0xbc4e1f36	-0.012580683
181	0x3a52a948	0.0008036089
182	0xbd00913b	-0.031388503
183	0x3d0e0cd9	0.03468022
184	0xbc8f8d38	-0.017523393
185	0xbd41111b	-0.047135454
186	0x3cecb321	0.028894009
187	0xbc331a4f	-0.010931565
188	0x3ced5161	0.028969469
189	0xbd0abb77	-0.033870187
190	0xbd40d861	-0.047081355
191	0x3ca3756a	0.019953448
192	0xbc90e0d9	-0.01768534
193	0x3b31f441	0.0027153643
194	0xbd7e41d3	-0.062074494
195	0xba114ffb	-0.0005543229
196	0xbb08d22a	-0.002087722
197	0x80047ee4	-4.12862e-40
198	0xbbe7cc11	-0.007073887
199	0x3a1cd799	0.0005983054
200	0xbcd9a703	-0.026568895
201	0xb9333e54	-0.0001709399
202	0xabff7029	-1.814997e-12
203	0x8016ae2b	-2.08286e-39
204	0x00185ca2	2.237282e-39
205	0xbbd7cf99	-0.006586027
206	0xbbad18b8	-0.0052824877
207	0x3bc457c6	0.0059919087
208	0xbbbdca70	-0.0057919547
209	0xbc94546c	-0.018106662
210	0xba1d370e	-0.00059972785
211	0x821f04ec	-1.1682888e-37
212	0xbbd297d5	-0.006426791
213	0xbb7565d0	-0.0037444718
214	0xba5729dd	-0.0008207837
215	0x3e312aa6	0.17301425
216	0x3a003b10	0.00048916135
217	0xbab86d85	-0.0014070725
218	0xbb1b6639	-0.0023712052
219	0xba2f23ed	-0.00066810736
220	0xbd065711	-0.032797877
221	0x3d0c5de1	0.034269217
222	0xbebe9a7d	-0.3722724
223	0xbd3fa25b	-0.046785694
224	0x3c834b99	0.016027259
225	0xbd3de035	-0.0463564
226	0x3d804dd1	0.06264842
227	0xbd75921f	-0.059953805
228	0xbd3f6299	-0.04672489
229	0x3d027e66	0.031858824
230	0xbd367313	-0.044543337
231	0x3d1e149f	0.038593885
232	0x3d899d5d	0.06719468
233	0x3db82858	0.0899207
234	0x3d4c70bf	0.04991221
235	0xbcfcd984	-0.030865438
236	0xbd2cea16	-0.04221543
237	0xbcbf8a68	-0.023381427
238	0xbcfd4d27	-0.030920578
239	0xbd49fbda	-0.04931245
240	0x3d410889	0.04712728
241	0xbdbba35c	-0.09162018
242	0x3d212c9e	0.03934919
243	0xbe0ef78b	-0.13961618
244	0xbc8959b5	-0.016766408
245	0x3ce8fd51	0.028441103
246	0x3d970560	0.07374072
247	0xbd27a248	-0.040926248
248	0x3d39fcb7	0.045407023
249	0x3cd1573e	0.025554296
250	0x3bb32509	0.0054670614
251	0x3c900512	0.017580543
252	0x3df7fa67	0.12108307
253	0x3d8aad77	0.06771367
254	0x3cf503ef	0.029909102
255	0x3b3cc21b	0.002880222

decoder.0.bias f4 [128]
0	0x3ba09044	0.0049000103
1	0xbd7f6bc0	-0.062358618
2	0xbe289d3f	-0.16466235
3	0xbd301ba1	-0.0429951
4	0x3dfe2e1f	0.12411141
5	0x3dcab3d9	0.098975845
6	0x3dac2171	0.08404816
7	0x3df85f10	0.12127507
8	0x3daccb89	0.08437259
9	0x3dfc2603	0.12311938
10	0x3e3eb576	0.1862391
11	0xbd6b1c07	-0.057399776
12	0x3dfd4892	0.12367357
13	0x3e075f92	0.13220051
14	0xbd34e5a7	-0.044164326
15	0x3b5a1f52	0.0033282829
16	0x3d9450ee	0.072419986
17	0x3d78382c	0.060600445
18	0xbd6b30ea	-0.057419695
19	0xbd68c2ea	-0.05682651
20	0x3d4a7e8b	0.049437087
21	0xbcfce037	-0.030868633
22	0xbd4d1371	-0.05006737
23	0xbc68d019	-0.014209771
24	0x3e1126fa	0.14175025
25	0xbb157b34	-0.002280903
26	0xbcc6d439	-0.024271118
27	0xbcf21f6a	-0.029555995
28	0x3dc39f06	0.09551816
29	0xbce6be6a	-0.028166968
30	0x3d87bd3d	0.06627891
31	0x3ba8fd9f	0.005157187
32	0x3ddd26fc	0.10798451
33	0x3d1452ca	0.036211766
34	0x3c6cdc60	0.014456838
35	0xbd7ae348	-0.06125191
36	0xbd1b1cda	-0.037869312
37	0x3d8e2d50	0.069422364
38	0x3e2452ec	0.16047257
39	0x3d3ee6a3	0.04660667
40	0x3de1bb0d	0.11022005
41	0xbd1dc646	-0.038519166
42	0xbde7f47a	-0.11325927
43	0xbd0d05de	-0.034429424
44	0xbd2b5e8c	-0.041838214
45	0xbd93a39f	-0.072089426
46	0xbcf3b164	-0.029747672
47	0xbcc3ba50	-0.023892552
48	0xbe05edd8	-0.13079011
49	0x3d9a76a0	0.07542157
50	0x3dd456ce	0.10368119
51	0xbd3bde66	-0.045866393
52	0x3dfc16dc	0.123090476
53	0xbd9ad3b5	-0.07559911
54	0x3b7c60f4	0.0038509937
55	0xbe0165fe	-0.12636563
56	0x3de564f1	0.11200894
57	0xbd5b3725	-0.053519387
58	0x3a8417a6	0.0010077849
59	0x3d9c768f	0.07639801
60	0xbc994767	-0.018710805
61	0xbd9c47bc	-0.0763087
62	0xbd60460d	-0.054754306
63	0xbdc9a8f8	-0.09846681
64	0xbdf3197b	-0.118700944
65	0xbdba1427	-0.09085875
66	0x3ca51bea	0.020154912
67	0xbdc32e09	-0.09530265
68	0xbd104d87	-0.035230186
69	0x3e08375e	0.13302371
70	0x3d90867b	0.070569
71	0x3da36b79	0.07979483
72	0x3d47d116	0.048783384
73	0x3d79f834	0.06102772
74	0xbdb408bd	-0.08790729
75	0x3cb7525b	0.022378137
76	0x3c7ef395	0.015561004
77	0xbddbccc3	-0.107324146
78	0xbd2c713e	-0.042100184
79	0x3d4d4abc	0.0501201
80	0x3dcee97c	0.10103127
81	0x3d6cd238	0.057817668
82	0xbd26970c	-0.040671393
83	0xbb85f00a	-0.004087453
84	0x3e084220	0.13306475
85	0xbbf8c846	-0.007592234
86	0xbcb07838	-0.0215417
87	0xbd2be045	-0.041961927
88	0x3cc1c9a1	0.023655714
89	0xbd15eaf4	-0.036601022
90	0xbb3addc0	-0.002851352
91	0xbd9a6af3	-0.0753993
92	0x3d520122	0.05127061
93	0x3dca0e0a	0.09865959
94	0x3d155116	0.036454283
95	0xbd4bf199	-0.049790952
96	0xbb8e1afe	-0.004336714
97	0xbbd43a64	-0.0064766873
98	0x3cce2238	0.025162801
99	0x3dbf48bd	0.093400456
100	0x3cec4323	0.028840607
101	0x3e14b8c9	0.14523615
102	0xbcbdf3a6	-0.02318747
103	0xbcd040c8	-0.025421515
104	0xbe038d91	-0.12846972
105	0xbc861385	-0.01636673
106	0xbdd64061	-0.10461498
107	0x3daa7e23	0.0832484
108	0xbd90b822	-0.070663705
109	0x3d32e35c	0.043673858
110	0xbc08b312	-0.008343475
111	0xbdc9f99e	-0.09862064
112	0x3d1884f9	0.037236188
113	0x3e0a4908	0.13504422
114	0x3d8d7240	0.06906557
115	0xbd9d770c	-0.07688722
116	0xbdee0cad	-0.116235115
117	0x3daffeb8	0.085935056
118	0x3ba7b24b	0.0051176897
119	0x3e174942	0.1477404
120	0xbd863302	-0.06552698
121	0xbd663d5e	-0.056210868
122	0x3d5695e8	0.052389055
123	0xbd87b99e	-0.066272005
124	0xbbdf55b2	-0.0068156356
125	0xbdf91681	-0.121624954
126	0xbce80d5c	-0.028326683
127	0xbc8380b1	-0.016052576
