models/cvae_L16_H256_B0.500_LR5e-04.pt (torch, 694237 bytes, 13 tensors)

encoder.0.weight f4 [256, 46]
0	0xbdfb7186	-0.12277512
1	0xbd6e00bd	-0.058106173
2	0xbdf4f8e5	-0.11961535
3	0x3e38be16	0.18041262
4	0x3d838436	0.064217016
5	0xbe00d993	-0.12582998
6	0xbde96f31	-0.11398161
7	0xbd291986	-0.041284107
8	0x3bbc112c	0.0057393517
9	0x3d57556e	0.052571706
10	0x3d0a6647	0.033788946
11	0xbd50d882	-0.050987728
12	0xbd1c8420	-0.03821194
13	0x3d7d50f6	0.06184479
14	0xbd7e66df	-0.062109824
15	0xbde60fb6	-0.112334654
16	0xbd031ac5	-0.03200795
17	0xbc4861cf	-0.012230351
18	0x3da0a54f	0.0784403
19	0x3da714e3	0.08158281
20	0x3bea8644	0.007157119
21	0x3dce0152	0.100588456
22	0x3d410dbb	0.047132235
23	0x3d4ec3ea	0.050479807
24	0x3d859328	0.065222085
25	0x3dd35f76	0.10320942
26	0x3c84ef7a	0.016227473
27	0xbaa5a48c	-0.001263754
28	0xbdb67160	-0.08908343
29	0x3adbb6b7	0.0016762827
30	0x84227329	-1.9095887e-36
31	0x0219c921	1.1298386e-37
32	0xbd23a692	-0.039953776
33	0x3da33982	0.07969953
34	0x3d0ef4ef	0.034901556
35	0x3adbb68b	0.0016762776
36	0x8218c946	-1.1224959e-37
37	0x01fa14dc	9.186543e-38
38	0x042112da	1.8934115e-36
39	0xbd19cf3f	-0.03755116
40	0xbbe2f2ec	-0.006925931
41	0x3d6c2c4e	0.05765944
42	0x3b8f04e3	0.004364596
43	0xbc90f83a	-0.017696489
44	0x3adbb6a2	0.0016762803
45	0x041f8905	1.8753276e-36
46	0x3e6fa2e9	0.23401989
47	0x3d26e9ab	0.040750187
48	0x3bc62972	0.006047421
49	0x3e4b9cfe	0.19884107
50	0xbdab506c	-0.08364949
51	0x3d1aff99	0.037841413
52	0xbd189e05	-0.037260074
53	0xbd25222f	-0.040315803
54	0x3cfe7ec6	0.03106631
55	0x3d40d6be	0.047079794
56	0xbd4d7f3c	-0.05017017
57	0xbaf850b0	-0.0018944945
58	0xbda891a5	-0.082309045
59	0x3dcafcd1	0.09911502
60	0x3c261c0f	0.010138526
61	0x3d4c797b	0.04992054
62	0xbd21dcac	-0.03951709
63	0x3bfbdd7b	0.0076863146
64	0xbc40fcb7	-0.011779002
65	0x3d8b33eb	0.06797012
66	0x3bd78fef	0.0065784375
67	0x3c46dff4	0.0121383555
68	0xbab1bd8a	-0.0013560515
69	0xbd428222	-0.047487386
70	0x3c5a2774	0.01331507
71	0x3e083f4c	0.13305396
72	0x3e001e74	0.12511617
73	0xbdd07b98	-0.10179824
74	0x3e107b7f	0.1410961
75	0x3d36044c	0.04443769
76	0xbd4a9ad4	-0.04946406
77	0x3cd6f0ae	0.026237812
78	0x3dcde2b2	0.10053004
79	0xbd42b543	-0.047536146
80	0x3d13b340	0.036059618
81	0x3d8c62f0	0.06854808
82	0x3d6ddaa8	0.058069855
83	0x3ce0c2bf	0.027436612
84	0x3d9fa27d	0.07794664
85	0xbd50da7b	-0.05098961
86	0x3ca236c5	0.019801507
87	0xbc34c29a	-0.011032725
88	0xbd851214	-0.06497589
89	0xbd8aba1e	-0.0677378
90	0x3c138192	0.00900306
91	0x3d8af07a	0.067841485
92	0x3e2bf2a2	0.16791776
93	0xbdcfa57c	-0.101389855
94	0x3d2cbdb6	0.04217311
95	0x3e306ad4	0.17228252
96	0xbd67d644	-0.056600824
97	0xbe013e49	-0.12621416
98	0xbda00ac7	-0.078145556
99	0x3d592818	0.053016752
100	0x3cbbe850	0.022937924
101	0xbdd062c7	-0.1017509
102	0x3e226a8b	0.15860955
103	0x3bbf96a5	0.0058468156
104	0x3d86d419	0.06583423
105	0xbd869a74	-0.06572428
106	0x3c386bc2	0.01125616
107	0x3d89720c	0.06711206
108	0x3d602410	0.054721892
109	0xbdbeb6f9	-0.09312243
110	0x3d89fc9c	0.067376345
111	0x3d504e87	0.05085614
112	0x3d17768b	0.036978286
113	0xbdfd13c4	-0.123572856
114	0x3d731a9f	0.05935156
115	0x3da51bd1	0.08061946
116	0x3e0459e6	0.12924919
117	0x3db0de33	0.08636131
118	0xbe1b8fa8	-0.1519152
119	0x3d487495	0.048939306
120	0x3d4880c1	0.048950914
121	0x3c3ac1de	0.011398761
122	0x3bab4b57	0.005227487
123	0x3a8141ac	0.0009861491
124	0x3c4721c6	0.012154048
125	0x3c613c02	0.013747217
126	0x3dff79d2	0.12474407
127	0xbcc92cd2	-0.024557505
128	0x3c89856d	0.016787255
129	0x3ab9c2f2	0.0014172478
130	0x3b06f96a	0.002059544
131	0x3df21fdb	0.11822482
132	0xbce8e3fe	-0.028429028
133	0xbcac1bdf	-0.021009384
134	0xbdbf086f	-0.093277805
135	0x3c513bb6	0.012770584
136	0xbc5c5c54	-0.013449747
137	0x3b3a9897	0.0028472298
138	0xbd1ff448	-0.039051324
139	0x3da53490	0.08066666
140	0x3decdabd	0.115651585
141	0xbea591cd	-0.323378
142	0xbd52ea9f	-0.051493283
143	0xbd1e2c54	-0.038616493
144	0xbd418598	-0.047246546
145	0x3c8fe952	0.01756731
146	0xbdbffe1d	-0.0937464
147	0xbd784c2d	-0.060619522
148	0x3de3de8a	0.1112643
149	0xbc6e0106	-0.014526611
150	0x3ddc6dfc	0.10763165
151	0x3ae8eccf	0.001777077
152	0xbdeb3ba7	-0.11485987
153	0xbc4a8e04	-0.012362961
154	0xbd6f50da	-0.058426715
155	0xbd84df9f	-0.06487965
156	0xbdc3188f	-0.095261686
157	0xbd7e9147	-0.062150266
158	0x3cfee432	0.031114671
159	0x3d8c3957	0.06846874
160	0xbda886b8	-0.082288206
161	0x3d085503	0.0332842
162	0x3d9fd78c	0.07804784
163	0x3dee7647	0.11643653
164	0x3e2fb8b7	0.17160307
165	0x3c858cc3	0.016302472
166	0xbdbbce7b	-0.091702424
167	0xbd0e5be5	-0.034755606
168	0xbc85653a	-0.01628362
169	0xbd671bc6	-0.05642297
170	0xbd9cca9f	-0.076558344
171	0xbd747dd3	-0.059690308
172	0xbca586f5	-0.020205954
173	0xbddad29f	-0.10684704
174	0x3d96fdf2	0.07372655
175	0xbc9c0025	-0.019043038
176	0xba9a575d	-0.0011775304
177	0xbd5e71dd	-0.054307807
178	0xbd62cdf7	-0.055372205
179	0x3c90a9a5	0.017659018
180	0x3d93adcb	0.07210883
181	0xbc862c1d	-0.016378457
182	0xbdaffb40	-0.08592844
183	0x3ca8ea6f	0.0206196
184	0x3e3909be	0.18070123
185	0xbd22ce5d	-0.039747585
186	0xbdb4ced8	-0.08828515
187	0x3d5f8c10	0.054576933
188	0x3d739a1c	0.059473142
189	0xbcb63592	-0.022242341
190	0xbd76146c	-0.06007807
191	0xbd925223	-0.071445726
192	0x3ddfd13a	0.10928579
193	0xbd29c5bb	-0.041448336
194	0xbd992cb2	-0.07479228
195	0x3d24bfaf	0.040221866
196	0xbdf254d7	-0.11832588
197	0x3d16d58f	0.03682476
198	0xbd685344	-0.056720033
199	0xbd85fdb4	-0.06542531
200	0x3d4cf049	0.05003384
201	0xbcf63706	-0.030055534
202	0x3b99fa0b	0.004698997
203	0xbc94c0ba	-0.018158305
204	0xbd2856a1	-0.04109824
205	0x3dfcd05d	0.1234443
206	0x3c7b4e73	0.015338528
207	0x3d0c2b6c	0.034221098
208	0xbdd9966d	-0.106243946
209	0x3d032ef8	0.032027215
210	0x3d648edf	0.055800315
211	0x3dad9de3	0.0847738
212	0x3d4eb6dd	0.05046736
213	0x3c3a9b09	0.011389502
214	0x00524871	7.556498e-39
215	0x80aaf529	-1.5699981e-38
216	0x3d96606f	0.07342612
217	0xbd75530c	-0.059893653
218	0xbd404b30	-0.046946704
219	0x3c17ef55	0.00927337
220	0x3a96d3c7	0.0011507206
221	0x822da111	-1.2756256e-37
222	0x80efa5a0	-2.2008099e-38
223	0xbc2e22b9	-0.010628396
224	0x3d82eea5	0.06393174
225	0xbd84c5b4	-0.064830214
226	0x3e030cd9	0.1279787
227	0x3db6307a	0.08895965
228	0x3c3a8e23	0.011386427
229	0x018a0d8d	5.071264e-38
230	0xbca93b79	-0.020658242
231	0x3d874a99	0.06606025
232	0xbd41b770	-0.04729408
233	0xbeb36496	-0.35037678
234	0xbd62053f	-0.055180784
235	0xbc0fa4f8	-0.008767359
236	0xbdc85cd0	-0.097833276
237	0x3d689b12	0.05678851
238	0xbc99edc0	-0.018790126
239	0xbc19c3a5	-0.009385024
240	0xbd9d2200	-0.076725006
241	0x3dca2506	0.09870343
242	0x3c868248	0.016419545
243	0x3d1470b1	0.036240283
244	0x3dbba63a	0.091625646
245	0x3d6b5c2d	0.057460953
246	0x3c07ca0e	0.00828792
247	0xbcc9e3e4	-0.0246448
248	0xbd9b0299	-0.07568855
249	0xbd8ad31a	-0.06778546
250	0x3bae7cf4	0.005324954
251	0xbcbf65aa	-0.023363907
252	0xbdbbe1b3	-0.09173908
253	0xbd5ab3cc	-0.053394124
254	0x3ceba424	0.028764792
255	0x3cfa107f	0.030525444

encoder.0.bias f4 [256]
0	0x3cb037fe	0.021511074
1	0x3e22b23b	0.15888302
2	0x3c38d4ed	0.011281234
3	0x3de4a4fa	0.11164279
4	0xbe08ef6f	-0.13372587
5	0xbd2058be	-0.03914713
6	0xbd73d722	-0.05953134
7	0xbc8c8ce2	-0.017157022
8	0x3e01d2a6	0.12678012
9	0xbdd9d0ae	-0.106355056
10	0xbd6aaede	-0.057295673
11	0xbd3048bb	-0.04303811
12	0xbdf9f2fe	-0.1220455
13	0x3d9a3b5e	0.07530855
14	0xbc023956	-0.00794824
15	0x3e387120	0.18011904
16	0xbc0c94d1	-0.0085804025
17	0x3daca95a	0.08430739
18	0xbddf728a	-0.109105185
19	0x3de19bb5	0.11016027
20	0xbd78a34c	-0.060702607
21	0xbdae4433	-0.08509102
22	0xbd8b5f87	-0.0680533
23	0x3de2347a	0.11045165
24	0xbd6e5c35	-0.058193404
25	0xbdcdf742	-0.10056926
26	0x3c0fa3c0	0.008767068
27	0xbc787e82	-0.015166881
28	0xbd6feb6b	-0.05857412
29	0x3e061fe6	0.13098106
30	0xbd895960	-0.067065
31	0xbdccbd14	-0.09997001
32	0x3b13e430	0.002256643
33	0x3d7c7ac0	0.0616405
34	0xbd9c4fdd	-0.0763242
35	0xbd9f31a5	-0.07773141
36	0x3d815739	0.063154645
37	0x3da36d74	0.07979861
38	0xbc150131	-0.009094522
39	0x3d193292	0.037401743
40	0xb94b4e69	-0.00019388799
41	0x3c79f1ca	0.015255401
42	0x3d4446dd	0.047919143
43	0x3c06a60f	0.008218302
44	0x3d50dd16	0.050992094
45	0x3cda23dc	0.026628427
46	0xbc22c880	-0.009935498
47	0xbd0f757a	-0.035024144
48	0xbde88ad5	-0.11354605
49	0xbdefe595	-0.11713711
50	0x3c76b964	0.015058849
51	0x3d9e5beb	0.07732376
52	0xbdc7c941	-0.09755183
53	0xbd196443	-0.037449133
54	0x3d81f710	0.063459516
55	0x3d79f396	0.061023317
56	0x3dafbc13	0.08580794
57	0xbcfb9ee1	-0.030715408
58	0xbd3afee6	-0.045653246
59	0xbcd0dbcc	-0.025495432
60	0xbdb6aa4c	-0.089192
61	0xbe041c07	-0.12901317
62	0x3ce2e91b	0.027699044
63	0x3dad4871	0.08461083
64	0x3d975b04	0.07390407
65	0xbe1184ca	-0.14210811
66	0x3d88f384	0.06687072
67	0xbd297f96	-0.04138144
68	0x3d97684c	0.0739294
69	0x3d893736	0.06699984
70	0x3d6ae12d	0.05734365
71	0x3e24d642	0.16097358
72	0x3d5c614f	0.05380374
73	0xbd414d87	-0.047193076
74	0x3e07bb1e	0.13254973
75	0x3db60780	0.08888149
76	0x3d60eb8c	0.054912135
77	0x3ca9fa5d	0.020749265
78	0xbd3f408a	-0.04669241
79	0x3e036bea	0.12834135
80	0x3dec41d9	0.11535997
81	0x3d9b6b13	0.07588782
82	0x3d148aaf	0.03626507
83	0xbd5be025	-0.053680558
84	0x3e114d6d	0.14189692
85	0x3d1b1c14	0.037868574
86	0xbdb72535	-0.089426436
87	0x3dc99bb1	0.09844149
88	0xbd95486a	-0.072892025
89	0x3dc74525	0.09729985
90	0x3d988f75	0.07449237
91	0x3e332279	0.17493619
92	0xbe148530	-0.14503932
93	0xbd4ca1d0	-0.049959004
94	0xbd01c281	-0.031679634
95	0xbd8ac5b6	-0.067759916
96	0xbd523ee4	-0.05132951
97	0xbd84d0fe	-0.064851746
98	0xbdf2c66b	-0.118542515
99	0xbd5e2829	-0.05423752
100	0xbe27fa28	-0.16404021
101	0xbd8a326c	-0.067478985
102	0xbde604c4	-0.11231378
103	0xbd1181c2	-0.035524137
104	0xbd8ba41d	-0.068184115
105	0xbd30096a	-0.042977728
106	0x3d75089a	0.059822656
107	0x3e28556c	0.16438836
108	0x3e015114	0.12628585
109	0x3cc63253	0.024193918
110	0x3d20aaf5	0.039225537
111	0x3d68653e	0.056737177
112	0x3d1515be	0.036397688
113	0xbde2cec6	-0.11074595
114	0xbc1ab858	-0.009443365
115	0x3c79b9d3	0.015242058
116	0x3d29659c	0.041356668
117	0x3de10de0	0.109889746
118	0x3c41382b	0.011793177
119	0xbbd50568	-0.0065008886
120	0xbdb922c0	-0.09039831
121	0x3deb0c23	0.11476924
122	0xbc0563fb	-0.008141513
123	0x3d06b932	0.03289146
124	0x3e0d28a0	0.13785028
125	0xbcd76d25	-0.026297161
126	0x3ca1ac56	0.019735496
127	0x3e18fc0b	0.14939897
128	0xbdd87237	-0.1056866
129	0x3d88e543	0.06684353
130	0xbcecb2c4	-0.028893836
131	0x3bf2f47b	0.0074143982
132	0xbbe6d425	-0.0070443326
133	0x3d9ce18d	0.07660208
134	0xbe0780b6	-0.13232693
135	0xbdbeb4c6	-0.093118235
136	0xbcf4624b	-0.029832026
137	0xbd9dd3cf	-0.07706415
138	0x3cbc653d	0.022997493
139	0x3d2f680b	0.042823832
140	0x3dfa2b60	0.122153044
141	0x3cb17a7f	0.021664856
142	0x3d175b7f	0.03695249
143	0xbdbfcbc0	-0.09365034
144	0xbd797d70	-0.060910642
145	0x3de7194c	0.11284122
146	0x3d4f32f4	0.050585702
147	0xbdba23e4	-0.09088877
148	0x3db3ecb8	0.08785385
149	0xbb810cab	-0.0039382777
150	0xbdd7f1a5	-0.10544137
151	0x3cdb0673	0.026736474
152	0xbc9600b3	-0.01831088
153	0xbdca4bf4	-0.09877768
154	0x3db4c8cf	0.08827364
155	0xbd38537f	-0.045001503
156	0xbd8e0d70	-0.06936157
157	0x3dab1314	0.08353248
158	0x3df9c7eb	0.121963345
159	0x3e3026a8	0.17202246
160	0xbdbce79d	-0.09223864
161	0x3e1c5470	0.15266585
162	0xbe11512e	-0.14191124
163	0x3e0a28a1	0.13492061
164	0x3da7696e	0.08174406
165	0x3dc9d671	0.098553546
166	0x3d25d23a	0.04048369
167	0x3dfc7058	0.12326115
168	0xbdfddf23	-0.123960756
169	0x3e072088	0.13196003
170	0x3ca004a8	0.01953347
171	0x3d9429e7	0.07234555
172	0xbd1b0fac	-0.037856743
173	0x3d78d359	0.06074843
174	0x3bac46e8	0.005257476
175	0x3d0a18cf	0.033715066
176	0x3d4c0db5	0.04981776
177	0x3dac1570	0.084025264
178	0x3cee9bec	0.029127084
179	0xbd914928	-0.070940316
180	0xbcefd715	-0.029277364
181	0xbd971aec	-0.07378182
182	0xbde9b427	-0.114113145
183	0x3e2bf7e8	0.16793787
184	0x3dcf94a7	0.10135775
185	0x3dcb0e6e	0.099148616
186	0xbdc7b429	-0.0975116
187	0x3e0b8823	0.13626151
188	0x3ded1e5d	0.11578057
189	0x3df70867	0.120621495
190	0xbd806675	-0.06269542
191	0xbddadabe	-0.10686253
192	0xbd0cee2d	-0.03440683
193	0xbe03280c	-0.12808245
194	0xbdc8f95d	-0.09813187
195	0xbdc4b7c4	-0.09605363
196	0x3cc262fb	0.023728838
197	0x3c69724c	0.014248442
198	0x3d8e1a1a	0.06938572
199	0x3d02be8f	0.031920012
200	0xbca9494c	-0.020664833
201	0x3dc26123	0.094911836
202	0x3dc124b9	0.094308324
203	0xbb36c3b9	-0.0027887656
204	0x3b378a8c	0.0028006164
205	0xbd0c71e3	-0.0342883
206	0x3dfb6883	0.122757934
207	0x3e0679ba	0.13132372
208	0xbdadd813	-0.084884785
209	0x3cebbcd0	0.028776556
210	0x3cfc179a	0.030772973
211	0xbd2611fc	-0.040544495
212	0xbd863888	-0.06553751
213	0xbd3f4777	-0.046699014
214	0xbdecd7a7	-0.1156457
215	0xbd97fbe8	-0.07421094
216	0x3df8bb4d	0.121451
217	0x3cfa1cfc	0.030531399
218	0x3b1d5918	0.0024009403
219	0xbcb9ec20	-0.022695601
220	0x3e2c893d	0.16849227
221	0x3d389888	0.04506734
222	0xbd8b9f8a	-0.06817539
223	0xbd059ac3	-0.032618295
224	0x3dcdafbf	0.100432865
225	0xbd82e5ea	-0.06391509
226	0x3cfee8e5	0.031116912
227	0xbd48f5e7	-0.049062636
228	0x3c33cb99	0.010973834
229	0x3d051976	0.032494985
230	0xbe3aa6b6	-0.18227658
231	0x3de76985	0.11299423
232	0xbd01d33b	-0.031695586
233	0x3d7d05ac	0.061772987
234	0x3cc131bf	0.023583291
235	0xbd96b3d7	-0.073585205
236	0xbcf1713d	-0.029472942
237	0x3d56031b	0.052249055
238	0x3d5bf611	0.053701464
239	0x3c029355	0.007969697
240	0x3e12a7db	0.14321844
241	0xbd8ab9b7	-0.067737035
242	0xbd29347e	-0.041309826
243	0x3e0ecf24	0.13946205
244	0xbd2d3cd8	-0.042294353
245	0x3da46a03	0.08028033
246	0x3c97e04c	0.01853957
247	0xbe0f4ca4	-0.1399408
248	0x3d35e95f	0.044412013
249	0x3dff30a4	0.12460449
250	0x3ad8d861	0.0016543978
251	0xbdb3afa4	-0.08773735
252	0xbdbaac36	-0.09114878
253	0x3df0f859	0.117661186
254	0xbdba0a7d	-0.09084032
255	0x3da7e612	0.08198179

encoder.2.weight f4 [256, 256]
0	0x3bb8c8d1	0.0056391736
1	0xbb24eaa2	-0.0025164266
2	0xbae5de8c	-0.0017537638
3	0xbb418a8e	-0.0029532048
4	0xbb495507	-0.0030720846
5	0xb96c0717	-0.00022509355
6	0xbac794bd	-0.0015226823
7	0x38c879c7	9.559426e-05
8	0xbb07a264	-0.0020696158
9	0xbb55f42e	-0.0032646763
10	0x3addfcad	0.0016936265
11	0x3ad9e88a	0.0016625088
12	0xba8f0719	-0.001091215
13	0xbbf71da8	-0.007541377
14	0xbb01edc3	-0.0019825555
15	0x3bd201c2	0.006408901
16	0xba0cbe55	-0.0005368938
17	0xbb29bc68	-0.0025899652
18	0xba1c635e	-0.00059657346
19	0xbb0545e8	-0.0020335857
20	0x3abe4ae1	0.0014518165
21	0x38f498b6	0.00011663271
22	0x3a92abe0	0.0011190139
23	0x3adfdea1	0.0017079898
24	0xbb8dfe26	-0.0043332754
25	0xba4e533a	-0.0007870678
26	0xbc0acf88	-0.008472331
27	0x3a5f431b	0.00085167744
28	0x3b62e36a	0.0034620413
29	0x3c3a5280	0.011372209
30	0xb9cc9274	-0.00039019028
31	0xba7f8f02	-0.0009748788
32	0xbbe09e4e	-0.006854809
33	0xba9e19f3	-0.0012062177
34	0xbb5cc360	-0.0033685789
35	0x3a037437	0.0005014571
36	0x3bc2b65b	0.0059421486
37	0xbb3cfd11	-0.0028837363
38	0xba84f8e9	-0.0010144982
39	0x3bc905bf	0.006134718
40	0x3bfa911e	0.007646694
41	0xbaa16005	-0.0012311941
42	0xbac1a1f7	-0.0014773001
43	0xbab55ca1	-0.001383681
44	0xbb35d7e7	-0.0027747096
45	0x3bfc228d	0.0076945485
46	0xba037676	-0.00050149055
47	0x3a15ccae	0.00057143986
48	0xbbb2bf5e	-0.0054549417
49	0x3c1fffcd	0.0097655775
50	0x3aba9e91	0.001423793
51	0x3c3dfc34	0.011595774
52	0xba591519	-0.0008281037
53	0x3b007390	0.001960013
54	0xbacaec0a	-0.0015481722
55	0xbb179b58	-0.0023133364
56	0x3a6bde49	0.00089976616
57	0xbb587f56	-0.0033034883
58	0xba8d0d71	-0.0010761452
59	0x3b32140c	0.0027172593
60	0xbaf72c47	-0.00188578
61	0xbaed0e3c	-0.0018085907
62	0x3a1bbd33	0.00059409736
63	0x3b42d0b8	0.0029726457
64	0x39880234	0.00025941583
65	0x3af85694	0.0018946701
66	0xbb461e51	-0.0030230472
67	0x3a71eae5	0.00092284224
68	0x3abef95b	0.0014570163
69	0x3978eb88	0.00023738865
70	0x3ab91c7b	0.0014122868
71	0x3a907eae	0.0011024082
72	0xba4fa7a2	-0.00079214026
73	0xbac91a8a	-0.0015342992
74	0xbb938712	-0.0045021856
75	0xbb21ae2d	-0.0024670467
76	0x39d34ce9	0.0004030236
77	0xba16ec90	-0.00057572965
78	0x39b2508c	0.00034010818
79	0x3c1269ed	0.0089363875
80	0xbae7ca67	-0.0017684222
81	0xbb9c90d6	-0.004778008
82	0xbb34a9c1	-0.0027567002
83	0x389fbe96	7.61721e-05
84	0xbad4762c	-0.0016209534
85	0xbbfc270c	-0.0076950844
86	0xba656807	-0.0008751158
87	0x3b9e7afc	0.004836438
88	0xb9bd9db0	-0.00036166376
89	0x3b04a866	0.0020241975
90	0x3afc7481	0.0019260795
91	0x3a42011f	0.000740068
92	0xbb28a593	-0.0025733456
93	0x3a43ea05	0.00074735313
94	0xba7ec15b	-0.0009718143
95	0xb8d4e74e	-0.000101520316
96	0xbb7d1829	-0.0038619137
97	0xba4865da	-0.00076445716
98	0xba557049	-0.0008142037
99	0xbaade631	-0.0013267455
100	0xb88d461e	-6.736464e-05
101	0xb82835d8	-4.0104467e-05
102	0xbb894069	-0.0041885865
103	0x3b9545d2	0.0045554424
104	0x3b8c6e99	0.004285645
105	0xb9e5b38e	-0.00043812062
106	0x3b0b217b	0.0021229673
107	0x3c028a4d	0.007967544
108	0xbb8f5579	-0.004374203
109	0x3b31a8de	0.002710871
110	0xbb75b258	-0.0037490334
111	0xbad5ad9f	-0.0016302353
112	0x3ad7bf66	0.001646024
113	0xbb13119f	-0.0022440923
114	0x3a4235a7	0.00074085075
115	0x3c187cb5	0.009307076
116	0x39bb42b3	0.00035717114
117	0x3a629d7e	0.0008644684
118	0x39170b1e	0.00014404624
119	0xbbcdfdc3	-0.0062863543
120	0x3a744baf	0.0009319139
121	0xbb7b9f05	-0.0038394344
122	0xb9db36d5	-0.00041811788
123	0x3a6c0402	0.0009003283
124	0xbb09a02c	-0.002100001
125	0x39787b56	0.00023697069
126	0xbb89c668	-0.00420456
127	0xbb3be44b	-0.0028670009
128	0xb9f06fab	-0.00045859566
129	0x3bd18eef	0.006395213
130	0x3b989c1a	0.0046572806
131	0xba7b3303	-0.00095824915
132	0x3aa3254b	0.0012447027
133	0x382c789a	4.1120315e-05
134	0xb8be7aed	-9.082803e-05
135	0xbb22ffcc	-0.0024871705
136	0xb935953b	-0.00017317098
137	0xb7facc5a	-2.9897481e-05
138	0x3a45894d	0.0007535413
139	0x3b4b4803	0.0031018264
140	0xbadcb71e	-0.0016839241
141	0x3b68a39a	0.0035497905
142	0xba9d162a	-0.0011984755
143	0xba4729f2	-0.0007597498
144	0x39a2c923	0.00031048906
145	0x3b0841df	0.0020791215
146	0x3b8928cb	0.004185771
147	0xb9d310f8	-0.000402577
148	0x399d11a6	0.00029958523
149	0xbc16140b	-0.009160052
150	0x3a1446a8	0.00056562806
151	0x3a314ace	0.0006763161
152	0x3af4c14a	0.0018673327
153	0x3aa3b42a	0.0012489606
154	0xba468a0d	-0.0007573672
155	0xbc1c2f55	-0.009532769
156	0xba8b64b5	-0.0010634871
157	0x3c194db6	0.009356907
158	0x3aa5ae19	0.0012640386
159	0xb9cf0cc5	-0.0003949163
160	0xb9db147e	-0.00041786203
161	0x3b83d951	0.004023709
162	0xb91878fe	-0.00014540923
163	0xbb923bea	-0.0044627087
164	0xbb592e95	-0.0033139337
165	0xb9a9eb75	-0.0003240962
166	0xbb4e4499	-0.0031473993
167	0xbb1ff256	-0.0024405918
168	0xb9feaadf	-0.00048573964
169	0xb9444f3e	-0.00018721537
170	0xba009313	-0.0004904728
171	0xbac6c742	-0.0015165585
172	0xbb7215f7	-0.0036939362
173	0x3a9f4616	0.0012151625
174	0x37a6b81a	1.9874471e-05
175	0x3af48e13	0.0018658064
176	0x3bc33077	0.005956705
177	0x396f0926	0.00022796224
178	0x3b769bec	0.0037629558
179	0xbab7cc9d	-0.0014022772
180	0xb9a229b8	-0.0003093013
181	0x3acea6d5	0.0015766273
182	0xb9b5a043	-0.00034642415
183	0x3b42427e	0.0029641683
184	0xbbea8adb	-0.007157666
185	0x39eba670	0.00044946698
186	0xbb3a4f95	-0.0028428782
187	0xbc30f09a	-0.010799551
188	0x3bd63c02	0.006537915
189	0x3a42bb91	0.0007428462
190	0x3b8e04bb	0.00433406
191	0x3ab5cf78	0.0013871035
192	0xb7f45626	-2.9127183e-05
193	0xbadf881d	-0.0017054115
194	0x3ab62e5c	0.0013899314
195	0x3b426ecb	0.0029668089
196	0x3bb47c36	0.005507971
197	0xba262fe1	-0.0006339532
198	0xbb3cccb6	-0.002880854
199	0x3ab811a3	0.0014043342
200	0xbaf60c2b	-0.0018771937
201	0x3b87d501	0.004145265
202	0xbc07567d	-0.0082603665
203	0xbb68d80e	-0.003552917
204	0xb8f9fcc0	-0.000119203236
205	0x3b607654	0.0034250217
206	0x3ab41b79	0.0013741098
207	0xbb107c1c	-0.0022046631
208	0xb9f21eb9	-0.00046180727
209	0x3b6687c3	0.0035176135
210	0xbb49a528	-0.0030768607
211	0xbb0ed286	-0.0021792962
212	0xb8babdea	-8.9045454e-05
213	0xbb989e24	-0.0046575237
214	0x39927013	0.00027930792
215	0x38521f08	5.00968e-05
216	0xbb39ecdf	-0.0028369946
217	0xbaaccf3d	-0.001318432
218	0xbae2626a	-0.0017271761
219	0x3bd9a3e2	0.006641851
220	0xbb84a326	-0.004047769
221	0xbb217de3	-0.0024641685
222	0x3a417810	0.00073802564
223	0x39e00d7b	0.00042734653
224	0xbab17f96	-0.0013542052
225	0x3ba6145a	0.005068344
226	0xba7a3d80	-0.00095459074
227	0xb71b963d	-9.2737e-06
228	0xbaa287fc	-0.0012400146
229	0x39c14d79	0.0003686955
230	0xbaf47bd6	-0.0018652629
231	0xb92d9fde	-0.00016558121
232	0xbaea67fd	-0.0017883774
233	0x3beeac2e	0.007283709
234	0x3badc1e6	0.0053026555
235	0xbb85f5f2	-0.004088157
236	0xb9472b9c	-0.00018994365
237	0x39ebc659	0.00044970473
238	0x3b14dba0	0.0022713915
239	0xbbb47701	-0.0055073504
240	0x3c0b6df2	0.0085101
241	0xb9e5f179	-0.00043858195
242	0xbbb9e8b7	-0.0056734937
243	0x3bc7d761	0.006098673
244	0xba578b52	-0.00082223595
245	0x3c0c063b	0.008546407
246	0xba2ad01e	-0.0006515997
247	0xbb04a588	-0.0020240266
248	0xbae90766	-0.0017778694
249	0xba9e84c8	-0.0012094015
250	0x3ba03a40	0.0048897564
251	0x39cd8a2f	0.00039203602
252	0x39c58b05	0.00037678346
253	0xbbe4340b	-0.006964212
254	0xb9d0524e	-0.00039734173
255	0xbb2b33dd	-0.0026123442

encoder.2.bias f4 [256]
0	0xba4ac2c8	-0.0007734713
1	0x3d3ea307	0.046542194
2	0xbdb831d2	-0.089938775
3	0xbd863b7e	-0.06554316
4	0x3d860927	0.065447144
5	0x3cbd3c9c	0.02310019
6	0xbc3dfd60	-0.011596054
7	0x3be67a59	0.007033628
8	0x3c986f7a	0.018607844
9	0xbd5c2aff	-0.05375194
10	0x3d7fd880	0.06246233
11	0x3c45c3ac	0.012070578
12	0xbd17e3fd	-0.03708266
13	0x3bbb8463	0.005722569
14	0x3da021ce	0.07818948
15	0x3ccbd7de	0.024883207
16	0xbae9f9ae	-0.00178509
17	0x8826df67	-5.0216416e-34
18	0x3d888191	0.06665338
19	0xbc8befb3	-0.017082071
20	0xbd99f665	-0.07517699
21	0xb23cb57e	-1.0984307e-08
22	0x9041cb25	-3.8219036e-29
23	0x3b427702	0.0029672985
24	0xbcc035a4	-0.023463078
25	0xbbb71152	-0.0055867815
26	0x3c9b59a2	0.018963639
27	0x3c010335	0.0078743
28	0x3ca3a44e	0.019975808
29	0x3d348cb5	0.0440795
30	0xb0a49e0d	-1.1977491e-09
31	0x3d863a3d	0.06554077
32	0x3d534e18	0.051588148
33	0xa3125602	-7.932889e-18
34	0x3cb42fe0	0.021995485
35	0xb98a0ee0	-0.00026332494
36	0x3d050522	0.0324756
37	0xbd241659	-0.040060375
38	0xbd08a28e	-0.03335815
39	0x3c9f7930	0.019466966
40	0x3d4db42c	0.050220653
41	0xbc188cda	-0.009310925
42	0x3d15518e	0.03645473
43	0x3d8ad3e5	0.06778697
44	0xbd036d01	-0.032086376
45	0xb50d7be6	-5.270689e-07
46	0xbce3d3cd	-0.027810955
47	0xbc4b3bea	-0.012404421
48	0x3d6b246e	0.05740779
49	0x3c929f6f	0.01789829
50	0x3b6980fa	0.0035629855
51	0x3d690a07	0.05689433
52	0x3d87940e	0.06620036
53	0xbca5d942	-0.020245198
54	0x3ce03a28	0.027371481
55	0x3d8b8d43	0.06814053
56	0x3d97c685	0.074109115
57	0xbbcf2449	-0.006321464
58	0x3d843ff5	0.06457511
59	0x3d096294	0.033541277
60	0x3d9c4f9b	0.07632371
61	0x3d5469a1	0.051858548
62	0x3d0ee8fa	0.034890153
63	0xba1ac5bf	-0.00059041
64	0x3d15badb	0.036555152
65	0xbc6fa157	-0.014625869
66	0x9583fb95	-5.3307405e-26
67	0xbc52bad0	-0.012861922
68	0xbd33f620	-0.043935895
69	0x3bc7762f	0.0060870866
70	0x3d4a42f1	0.049380247
71	0x3d9407dc	0.072280616
72	0x3b07c800	0.0020718575
73	0xba080e92	-0.00051901594
74	0xbd06924b	-0.03285436
75	0xbcb0d656	-0.021586578
76	0x3d31df3f	0.043425795
77	0x3d1ed091	0.038773123
78	0x39daf4da	0.0004176263
79	0xbc9d3442	-0.019189958
80	0xbda58896	-0.08082692
81	0xba71a021	-0.00092172815
82	0x3d0a57e2	0.033775218
83	0xbcfd5979	-0.030926453
84	0xbc1877a8	-0.009305872
85	0x3ca828fe	0.02052736
86	0x3d960399	0.07324905
87	0x3d80a2f0	0.06281078
88	0xbcccdf6a	-0.025008876
89	0x3c7e3440	0.015515387
90	0x3d3041d6	0.043031536
91	0x3d938611	0.072033055
92	0xbcb61e95	-0.02223138
93	0x3d999f4b	0.07501086
94	0xae845a1a	-6.01867e-11
95	0xbcb75253	-0.022378122
96	0x3aabbd14	0.0013102614
97	0x3d84e244	0.06488469
98	0x3cd6b8a5	0.026211092
99	0x3d01368d	0.031546164
100	0x3ab204fe	0.001358181
101	0x3c9c0282	0.019044165
102	0xbc6cc729	-0.01445178
103	0xbc49aaae	-0.01230876
104	0xb4b2bb51	-3.3291374e-07
105	0xa7ef862a	-6.6481287e-15
106	0xb40b0a95	-1.2949234e-07
107	0xbd797409	-0.060901675
108	0xbd25b8f5	-0.040459592
109	0x3d4b0a08	0.049570113
110	0x3cbbf6f2	0.022944901
111	0x3d9d0a31	0.076679595
112	0x3d3c3298	0.045946687
113	0xbca92f21	-0.020652356
114	0xbcadb712	-0.021205459
115	0x3d28e9d9	0.04123864
116	0x3c40d909	0.011770495
117	0x3cde486a	0.02713414
118	0x3d4924ce	0.049107365
119	0xbc5dde84	-0.013541821
120	0x3da86b93	0.08223643
121	0xbcbef046	-0.02330793
122	0x3d4d6ae3	0.050150763
123	0x3d001e32	0.031278796
124	0xb1a22750	-4.71929e-09
125	0xbdcb4418	-0.09925097
126	0xbc616620	-0.013757259
127	0x3c7f355c	0.015576687
128	0xb2c9cb74	-2.3492e-08
129	0x3d0c34a0	0.034229875
130	0xbdc77449	-0.097389765
131	0x3d9898e7	0.07451039
132	0x3c3b7e19	0.011443638
133	0x3b61b35b	0.003443918
134	0xbc20f9c0	-0.00982517
135	0x3d37b69d	0.044851888
136	0x3d04b377	0.032397714
137	0x3c560640	0.013063014
138	0xbcd5d97e	-0.026104685
139	0xb56ff6e1	-8.9393694e-07
140	0xbd7dd10d	-0.061966944
141	0x3d052d99	0.03251419
142	0x3c860415	0.016359368
143	0x3d47b53d	0.048756827
144	0xbd20ec9d	-0.039288152
145	0xbd15649e	-0.03647291
146	0x3dad5538	0.0846352
147	0x3c4ddbc5	0.012564604
148	0x3d05c68f	0.032660063
149	0xbc4c7a95	-0.012480398
150	0x3cfd4e3e	0.030921098
151	0xbcff3e74	-0.03115771
152	0x3ccb2b5d	0.02480095
153	0x3d3eaf7d	0.046554077
154	0x3d69fa52	0.05712349
155	0xbc2f1c79	-0.010687941
156	0x3bcdde0c	0.0062825736
157	0x3da0eee4	0.07858065
158	0x3bffddf6	0.007808442
159	0x3c19e588	0.009393103
160	0xbcabb1e7	-0.020958854
161	0xbc8f2e6a	-0.017478187
162	0xbb49f3d0	-0.003081549
163	0x3d9d0aaa	0.0766805
164	0xac8e0d00	-4.037326e-12
165	0x3c74d4e1	0.014943332
166	0x3d6c553f	0.057698485
167	0xbde6f32e	-0.112768516
168	0x3d167277	0.036730256
169	0x3d1ea500	0.038731575
170	0xbbc7cc9b	-0.006097389
171	0xbca4b669	-0.020106511
172	0x9226fb46	-5.2690083e-28
173	0x3d04de81	0.03243876
174	0x3c9bf69e	0.019038495
175	0x3d788422	0.060672887
176	0x3d3d1fbd	0.046172846
177	0xbd946ca7	-0.07247286
178	0x3d9d312f	0.07675397
179	0x3b9f05dc	0.0048529934
180	0xbcbec44a	-0.023286957
181	0xbbbc2734	-0.005741978
182	0x3d3e4a56	0.04645761
183	0xbd192a07	-0.037393596
184	0x3d043519	0.0322772
185	0x3d20217c	0.039094433
186	0x3d8b6acc	0.06807479
187	0x3d832911	0.06404317
188	0x3cee82f1	0.029115172
189	0x3cefd317	0.02927546
190	0xbc477b3a	-0.012175376
191	0x3cc8d71c	0.024516635
192	0xb18cc453	-4.0968557e-09
193	0x3bfdb103	0.0077420487
194	0xbcb71003	-0.022346502
195	0x3da6e1e7	0.08148556
196	0xbc3d2d15	-0.011546393
197	0xb68a6c79	-4.1253484e-06
198	0x3d7d40a5	0.061829228
199	0x3da7c08c	0.08191022
200	0x8383a6af	-7.737757e-37
201	0xbd1157ef	-0.03548425
202	0x3d82da5e	0.063893065
203	0x3dc7db3f	0.09758615
204	0xbc8c4f09	-0.01712753
205	0xbd146f6b	-0.03623907
206	0x3cda3991	0.026638778
207	0x3d1cbe32	0.038267322
208	0xbd319149	-0.043351445
209	0x3d626970	0.055276334
210	0x3d71ab96	0.059001528
211	0x3bc00994	0.005860517
212	0xbc583a82	-0.013197543
213	0xbca2a45b	-0.019853761
214	0xbc2e4025	-0.01063541
215	0xa992cdbd	-6.5193924e-14
216	0x3db328d1	0.087480195
217	0x3d0897cb	0.033347886
218	0x3c9d09f4	0.019169785
219	0x3d671038	0.05641195
220	0xbd005835	-0.03133412
221	0x3cf2f3be	0.029657241
222	0x3ae6e031	0.0017614422
223	0xbd47acd5	-0.04874881
224	0xbbe3223a	-0.0069315704
225	0x3cd25cd3	0.025679028
226	0x3c415282	0.011799457
227	0xbd949423	-0.07254817
228	0xbc6c6fc8	-0.014430948
229	0x3d03153f	0.032002684
230	0xbaebe400	-0.0017997026
231	0xbd710ad1	-0.058848206
232	0x3d8d828f	0.06909668
233	0xbcd59642	-0.026072625
234	0xbe2a09bc	-0.16605276
235	0xbd4a6d6c	-0.04942076
236	0x3d61dffb	0.055145245
237	0x3d36a477	0.04459044
238	0xbcdc5dd7	-0.026900215
239	0xb28d652c	-1.6460568e-08
240	0x3cef6909	0.02922489
241	0xbd39451e	-0.04523193
242	0xbc4e7a6c	-0.01260243
243	0x3d949057	0.07254093
244	0x3d151156	0.036393486
245	0xbc1d07a7	-0.009584344
246	0xb31483bc	-3.4578747e-08
247	0xbcd101c9	-0.025513547
248	0x3c9c6496	0.019090932
249	0xbd56162e	-0.052267246
250	0x3d0d0f69	0.034438524
251	0x3b831dc7	0.0040013525
252	0x3ad1f72a	0.0016019095
253	0x3ca92a07	0.020649923
254	0xbc0b76f4	-0.008512247
255	0xbd881625	-0.06644849

fc_mu.weight f4 [16, 256]
0	0xbc6dfffb	-0.0145263625
1	0xbc4c3e65	-0.012466048
2	0xbac106ef	-0.0014726798
3	0xbb5e366b	-0.0033906947
4	0x3b2a1b7e	0.0025956328
5	0x3b62d401	0.0034611227
6	0x3ab1bc69	0.0013560179
7	0xbba2d619	-0.00496937
8	0xbc8c7425	-0.017145226
9	0x3bf63ffc	0.0075149518
10	0xba36977a	-0.0006965321
11	0x3b4e1efb	0.0031451571
12	0xbb99ed88	-0.0046975054
13	0xbb50b60b	-0.0031846787
14	0xbc0a782b	-0.008451502
15	0xbc1285cd	-0.008943033
16	0x38b141df	8.452287e-05
17	0x826b835f	-1.7302775e-37
18	0x3c9b96e3	0.018992847
19	0x3bb01209	0.0053732437
20	0xbbc2256d	-0.0059248717
21	0x18c95907	5.2047177e-24
22	0x000511d3	4.65572e-40
23	0x3b4ad74a	0.0030951076
24	0x3c908d03	0.017645365
25	0x3a80799c	0.0009801867
26	0x3b28cf8f	0.002575848
27	0xbc33c35c	-0.01097187
28	0xbaf6401e	-0.0018787419
29	0x3b718967	0.003685558
30	0x314b07db	2.9544853e-09
31	0x3c2ec57b	0.0106672
32	0xbc5c1393	-0.013432401
33	0x825b4fde	-1.61125e-37
34	0xbb5f7bf1	-0.0034100974
35	0xb9802968	-0.00024444913
36	0x3c9f25ed	0.019427264
37	0x3bca6f6d	0.006177834
38	0x3b7b7f8a	0.003837558
39	0x3ba7c69c	0.0051201116
40	0x3b293269	0.00258174
41	0x3b063961	0.0020480978
42	0xbb9a5cdc	-0.0047107767
43	0xbbedb2c8	-0.0072539784
44	0xbb9c8ec5	-0.0047777616
45	0x33419a7f	4.5076828e-08
46	0xbc34f501	-0.011044742
47	0x3c6518fd	0.013983008
48	0x3c3cbe8a	0.011520037
49	0xbc7e9367	-0.015538073
50	0x3c56dde2	0.013114424
51	0x3bec26db	0.0072067804
52	0xbc8cd1be	-0.017189857
53	0x3beb1cbc	0.0071750563
54	0x3a98690a	0.0011627984
55	0xbc07ecf5	-0.008296241
56	0xbc937cb1	-0.018003793
57	0xbb0d0bec	-0.0021521999
58	0x3d13dbf0	0.03609842
59	0xbcaa0a79	-0.020756947
60	0xbc391e8f	-0.01129879
61	0xbb9e7f64	-0.0048369635
62	0x3c1afae6	0.009459233
63	0x2e63e5e5	5.181801e-11
64	0x3b25a25e	0.002527378
65	0x3ae2e860	0.0017311685
66	0x03912379	8.530478e-37
67	0xbc1f0ce4	-0.009707663
68	0xb8ce4694	-9.835992e-05
69	0xbc0322e0	-0.00800392
70	0x3bb73931	0.0055915345
71	0xbbd099c3	-0.006365986
72	0xbbde0112	-0.00677503
73	0x3bdf7b99	0.006820154
74	0x3bdacd23	0.0066772862
75	0x383ca9d2	4.498085e-05
76	0x3c7d827a	0.015473003
77	0x3bac72b8	0.005262699
78	0x3c0cccbc	0.008593734
79	0x3be5ed80	0.0070168376
80	0xbc27a42c	-0.010232013
81	0xbb460b1f	-0.003021903
82	0x3a1370d1	0.0005624416
83	0x3b8304df	0.0039983834
84	0xbb64cce4	-0.0034912163
85	0x3bcfac08	0.0063376464
86	0x3ab203ae	0.0013581419
87	0x3bbf34a1	0.0058351313
88	0xbc103433	-0.008801508
89	0x3c7ebcca	0.0155479405
90	0xbb2ee4ba	-0.0026686625
91	0x3cd56f87	0.026054157
92	0xbbfcd71d	-0.007716073
93	0x3aa1e06e	0.001235021
94	0x1d5567e2	2.8244021e-21
95	0xbc47aca5	-0.012187158
96	0x3bb565cc	0.005535817
97	0x3bf1622c	0.0073664393
98	0x3b32eb95	0.0027301062
99	0xbc4c7717	-0.012479565
100	0x3b8c27cf	0.0042772065
101	0x3c149b53	0.009070235
102	0x3ba20e50	0.004945554
103	0xb9c35eac	-0.00037263834
104	0x227ef688	3.4553932e-18
105	0x93931dbe	-3.7137345e-27
106	0xad6a4789	-1.3317244e-11
107	0xbbba4f9f	-0.005685761
108	0xbb70265c	-0.0036643958
109	0x3782b794	1.5582693e-05
110	0xbbc5b64c	-0.0060336944
111	0xbca0c7fa	-0.019626606
112	0xbc5f136b	-0.013615469
113	0x3bf57173	0.007490331
114	0xbb6e7aeb	-0.0036389183
115	0xbb82a612	-0.0039870823
116	0x3b885925	0.0041610175
117	0xb9ddb029	-0.00042283654
118	0xba7da2c4	-0.0009675438
119	0x3bd03951	0.006354489
120	0x3ad424bb	0.0016185263
121	0x3a3733fc	0.0006988642
122	0xbbd13657	-0.0063846516
123	0x3c4d12e7	0.012516714
124	0x04159045	1.7581111e-36
125	0xbbbe3b78	-0.005805429
126	0x3c6061fc	0.013695236
127	0x3ba5b2d4	0.0050567184
128	0xa8245e0e	-9.124224e-15
129	0xbc4370a4	-0.011928711
130	0x3a2b865b	0.0006543153
131	0x3b08944d	0.0020840347
132	0x3c225dff	0.009910106
133	0xbc0848c9	-0.008318135
134	0x39501a2e	0.00019846178
135	0xbc8e512a	-0.017372686
136	0xbc3f6606	-0.011682039
137	0xbc8e6e20	-0.017386496
138	0x3c866ac7	0.016408337
139	0xaec2a648	-8.851636e-11
140	0x3be24f25	0.0069064074
141	0x3b0500f0	0.0020294748
142	0x3abbbc79	0.0014323137
143	0x3b9565f6	0.004559274
144	0x3c8ebf56	0.01742522
145	0x3ab8c426	0.0014096543
146	0x3c573d25	0.013137137
147	0x3c31326d	0.010815245
148	0x3b67faa5	0.0035397199
149	0xbc68fe98	-0.014220856
150	0xbbeace4f	-0.007165707
151	0x3b7e6a67	0.0038820745
152	0xbc5250f9	-0.012836688
153	0xbb8c9b41	-0.0042909686
154	0x3b0110a5	0.0019693759
155	0x3b9b6d2b	0.0047432384
156	0x39651932	0.00021848528
157	0x3cb1c0fb	0.021698466
158	0x3a697270	0.0008905297
159	0x3bc24478	0.0059285723
160	0xbc077d93	-0.008269685
161	0xbc86fa3a	-0.01647674
162	0xbca24bc5	-0.01981152
163	0xbb77a187	-0.0037785487
164	0x04187a44	1.7923656e-36
165	0x3c955293	0.018227851
166	0xbba56c30	-0.0050482973
167	0xbc64a6d8	-0.013955794
168	0x3bd486e5	0.0064858072
169	0x3b43ffcc	0.0029907105
170	0x3c283f19	0.01026895
171	0x3bbc6459	0.005749267
172	0x9fbc7280	-7.981052e-20
173	0xba83cc22	-0.0010055343
174	0x3afb7a61	0.0019186252
175	0x3beca646	0.00722197
176	0x3bdac384	0.0066761393
177	0xb9dac6eb	-0.00041728406
178	0x3b2a722a	0.0026007988
179	0x3c9f9577	0.01948045
180	0xbc1abc17	-0.009444258
181	0x3c914f32	0.017737959
182	0xbc2e1461	-0.010624976
183	0x3b7986e9	0.0038074797
184	0xbbb6df02	-0.005580784
185	0x3ad016e1	0.0015875959
186	0x39a4f7d9	0.00031465178
187	0x3bcce32e	0.006252668
188	0x3b9927f0	0.0046739504
189	0xbbd4f240	-0.006498605
190	0x3b215bd6	0.002462139
191	0xbc4b0166	-0.01239047
192	0x3712dd99	8.753873e-06
193	0x3c5ee38b	0.013604055
194	0xbb46eb38	-0.0030352604
195	0xbc1fba23	-0.009748968
196	0x3c9c9da8	0.019118145
197	0x36a8d236	5.031262e-06
198	0x3b1a2af9	0.002352415
199	0xbc337f82	-0.010955693
200	0x8168d38b	-4.2763445e-38
201	0x3c0b9e2b	0.008521597
202	0xbc757095	-0.014980455
203	0xbac98057	-0.0015373331
204	0x3baeac8e	0.0053306287
205	0xbb81eb36	-0.003964807
206	0x3cba83d2	0.022767935
207	0xb9a47a17	-0.00031371482
208	0x3b4d07d3	0.0031285181
209	0xbc21dd64	-0.009879444
210	0xbb9966ac	-0.004681429
211	0x3a8948dc	0.0010473984
212	0xbb8d1dc2	-0.004306526
213	0xbc363233	-0.011120367
214	0x3c4ab28e	0.012371672
215	0xa3d4897e	-2.3043316e-17
216	0x3b566714	0.0032715248
217	0xbb87a23c	-0.004139213
218	0xbc9d6099	-0.0192111
219	0x3a6002e2	0.00085453514
220	0xb93e1816	-0.00018128785
221	0xbb6b1992	-0.0035873395
222	0xbadd0a9e	-0.0016864126
223	0x3c0527c8	0.00812716
224	0xbc203898	-0.009779118
225	0xbbe5e4c6	-0.0070157973
226	0xbb21c8a0	-0.0024686232
227	0x3c2fc936	0.010729125
228	0xbbbda5ed	-0.005787602
229	0xbab2c05a	-0.0013637647
230	0xbab4451b	-0.0013753505
231	0xbb4f9c63	-0.0031678907
232	0xbc54a622	-0.012979062
233	0x3be80e2a	0.0070817666
234	0x3a23127f	0.00062207127
235	0xbc115757	-0.008870921
236	0x3b760216	0.0037537864
237	0x3c18bd08	0.009322412
238	0xbbb67ebf	-0.0055693085
239	0x14c89560	2.0253757e-26
240	0xbc2a3e76	-0.010390868
241	0x3afcc73c	0.0019285451
242	0xba800b99	-0.0009769081
243	0xbc42fa2b	-0.011900465
244	0x3b09d881	0.0021033587
245	0x3c4e6fb9	0.012599879
246	0x11dc37c7	3.4744255e-28
247	0xbb48e80f	-0.0030655896
248	0xbbf3a08c	-0.00743491
249	0xbbcb7a08	-0.0062096156
250	0xbc878905	-0.016544828
251	0x35ed98bc	1.7702328e-06
252	0x35e58f6a	1.7103569e-06
253	0xbbe0236f	-0.0068401615
254	0xbc4a82e2	-0.012360306
255	0x3bb7bb11	0.005607017

fc_mu.bias f4 [16]
0	0xbb8877f9	-0.0041646925
1	0x3baa63e0	0.0051998943
2	0xbcce32b5	-0.025170663
3	0xbbe0be72	-0.0068586404
4	0x3c937f15	0.018004933
5	0x3c954222	0.018220011
6	0x3cd34726	0.025790762
7	0xbcc39325	-0.023873875
8	0x3c84ff65	0.016235063
9	0xbca662bf	-0.020310758
10	0xbcaef529	-0.021357136
11	0x3bda7442	0.006666691
12	0xbbf995ff	-0.007616758
13	0x3d34e873	0.044166993
14	0xbcd64306	-0.026155006
15	0x3cf8b44d	0.030359412

fc_logvar.weight f4 [16, 256]
0	0xb97290e4	-0.00023132894
1	0x3b2fada3	0.0026806376
2	0xbbdbac1c	-0.0067038666
3	0x3b884b68	0.0041593798
4	0x39bf2877	0.00036460508
5	0xbb9d45df	-0.004799589
6	0x3b17f74a	0.0023188167
7	0x3bb2ed33	0.0054604053
8	0xbba83391	-0.0051331003
9	0xbba41833	-0.0050077676
10	0xbbd3a29d	-0.006458594
11	0xbacb5e40	-0.001551576
12	0xba8324d4	-0.0010005482
13	0xba5cdbfd	-0.0008425115
14	0xbb66999e	-0.0035186778
15	0xb7be2554	-2.2667147e-05
16	0x2f96faaa	2.7462949e-10
17	0x0231ecd6	1.3071875e-37
18	0xba9dd2e3	-0.0012040999
19	0xb9bbe674	-0.0003583912
20	0xb9b1beac	-0.00033902132
21	0x840e48b1	-1.6725398e-36
22	0x01cb74d0	7.473804e-38
23	0xb96618f9	-0.00021943812
24	0x3c1aa282	0.009438159
25	0xb9fe897e	-0.00048549095
26	0x3ac1b253	0.0014777876
27	0xba830be4	-0.000999805
28	0x3b520b8a	0.0032050335
29	0xbab77c24	-0.0013998789
30	0x95672362	-4.667799e-26
31	0xbb8ee9da	-0.0043613734
32	0x3af0b3fa	0.0018364184
33	0x0143d340	3.5967408e-38
34	0x3bea9f9f	0.0071601416
35	0xb0a9cc7b	-1.2354485e-09
36	0x3b100ad3	0.0021979108
37	0x3b0cc990	0.0021482445
38	0xba9664c9	-0.0011474128
39	0xbaf142b6	-0.0018406722
40	0xb998d8b4	-0.00029153156
41	0x3a2998e4	0.0006469621
42	0xb80f51ce	-3.4170043e-05
43	0xb99e9d6e	-0.00030253403
44	0x3a87cc02	0.0010360482
45	0x928c95ee	-8.872203e-28
46	0xba977ea6	-0.001155813
47	0xbb94b32e	-0.0045379614
48	0xbb98ef8c	-0.004667228
49	0xb9aa6fd4	-0.00032508245
50	0xbc04123a	-0.008060986
51	0x3ba1df85	0.0049399757
52	0xb9514570	-0.0001995766
53	0x3bc895c5	0.0061213695
54	0x3ae5bbe4	0.0017527309
55	0xbae0a64c	-0.0017139404
56	0x3b924766	0.0044640778
57	0x3afa21b1	0.0019083527
58	0x3b2239e0	0.0024753734
59	0x39957c64	0.00028512173
60	0xba41eda6	-0.0007397778
61	0xbbbfdcd8	-0.005855184
62	0x3a1b37c4	0.00059210905
63	0xa06fcdc1	-2.0312166e-19
64	0xbb1480ea	-0.0022659847
65	0x3921e2df	0.00015438673
66	0x8250bf18	-1.5336268e-37
67	0x3acc33a6	0.0015579357
68	0xba668109	-0.00087930314
69	0xbbe5df03	-0.0070151105
70	0xbaa7376e	-0.0012757608
71	0xbb06d1b4	-0.002057177
72	0x3b91abf0	0.0044455454
73	0x3aa5cfe4	0.0012650457
74	0xb9946cdd	-0.0002830987
75	0xba8aa843	-0.001057871
76	0x3917f5f8	0.00014492113
77	0xb864dc01	-5.456433e-05
78	0xba95da3f	-0.001143284
79	0x3b388419	0.0028154908
80	0x3c3010c5	0.010746186
81	0xba870f0e	-0.0010304169
82	0x393da1a2	0.00018084657
83	0xba9ceba6	-0.0011972084
84	0x3a0418c5	0.00050390913
85	0x3b1479eb	0.0022655677
86	0xbb2da82d	-0.0026497946
87	0x3a8f782c	0.0010945848
88	0xbbe50c8d	-0.0069900216
89	0x3a0ab784	0.0005291628
90	0x3ba0ce7c	0.0049074274
91	0x3acd9c49	0.0015686835
92	0xbab6ec4b	-0.0013955919
93	0x3b0db2c3	0.0021621443
94	0x030d5dd6	4.1543894e-37
95	0xba1fba13	-0.0006093096
96	0x39b45b92	0.000344005
97	0x3aba1f49	0.0014199998
98	0x39e1f353	0.00043096635
99	0xbb2fd166	-0.0026827692
100	0x38d54d0d	0.00010170983
101	0xbbd90e88	-0.0066240467
102	0xba3ed0eb	-0.0007279056
103	0xbb07807c	-0.0020675948
104	0x841c942b	-1.8405747e-36
105	0x83043efd	-3.886362e-37
106	0x8b2aa0a9	-3.2861676e-32
107	0x3a21dd96	0.00061746815
108	0xbb0d2a1d	-0.0021539994
109	0x3a4d120c	0.00078228186
110	0x3b4ceffa	0.0031270967
111	0x3a2c029e	0.0006561669
112	0x3afa5c2e	0.0019100958
113	0x3b5fb21a	0.0034133256
114	0x39ff8c08	0.00048741722
115	0x3b1a9f87	0.002359362
116	0x3b6b883b	0.0035939354
117	0x3b8d8147	0.0043183896
118	0xba087d97	-0.00052067026
119	0x3b697add	0.003562621
120	0x3b176651	0.0023101757
121	0x3a1500f5	0.00056840415
122	0xbb45f490	-0.0030205585
123	0x3b959009	0.0045642895
124	0x82db1850	-3.2193113e-37
125	0x3a30b7f0	0.0006741276
126	0xbb0dadff	-0.0021618602
127	0x3958b052	0.0002066505
128	0x0cfd4c76	3.902684e-31
129	0x3a61158b	0.0008586279
130	0x3b5d5cc5	0.0033777219
131	0xbad1a754	-0.0015995302
132	0xb9c61007	-0.00037777444
133	0x3be03d81	0.0068432693
134	0xbb3e8b83	-0.0029074855
135	0xb85fb3dd	-5.3334854e-05
136	0x39c451e5	0.0003744505
137	0x3bcb093a	0.0061961683
138	0xb8ffcb7a	-0.00012197248
139	0x8fd5c85f	-2.1080602e-29
140	0xba904812	-0.0011007807
141	0x3ac3f5f8	0.0014950624
142	0xba7d72e1	-0.00096683024
143	0xb9148efc	-0.00014167646
144	0x3b816bde	0.0039496263
145	0xbb329209	-0.0027247688
146	0xbb2a27a7	-0.0025963576
147	0xbb0cfa6d	-0.002151157
148	0xbb3e8ddb	-0.0029076252
149	0x3ac48643	0.0014993626
150	0x39845e83	0.0002524742
151	0xbba889ae	-0.005143366
152	0x3bc63f4c	0.006050026
153	0x3b0dce59	0.0021637885
154	0xbbbeeb22	-0.00582637
155	0xbafbdc32	-0.0019215404
156	0xb2c470bc	-2.2868669e-08
157	0xba1bfb2e	-0.00059502095
158	0x3645d35a	2.947831e-06
159	0xb5aa4844	-1.2687019e-06
160	0x3b07f8e9	0.0020747727
161	0xbb5163c5	-0.0031950336
162	0xba3ea0a8	-0.00072718645
163	0xbc935072	-0.017982695
164	0x001fe003	2.92726e-39
165	0x3b5c4127	0.003360817
166	0xbad2ae75	-0.0016073721
167	0xba039f8a	-0.00050210266
168	0x3a41c2fe	0.0007391422
169	0xbb5c1afd	-0.0033585422
170	0xbb2b9fc2	-0.0026187752
171	0x3a1fdd04	0.00060983025
172	0x041e90c0	1.8639277e-36
173	0xbb30ac5e	-0.0026958208
174	0x3b428810	0.002968315
175	0xbb0acaeb	-0.0021178077
176	0x3acc797a	0.0015600168
177	0xbb814a6f	-0.0039456408
178	0x3b9e1027	0.004823703
179	0xbad485a3	-0.0016214143
180	0x3a8638c7	0.001024031
181	0xbc58be1e	-0.013228921
182	0x3a5b86a7	0.0008374252
183	0x3a1e6b88	0.0006043245
184	0xbb4f6917	-0.0031648332
185	0x3a190342	0.0005836972
186	0xba75aaa0	-0.00093714334
187	0xba4f6d9b	-0.0007912756
188	0x3a9fd174	0.0012193159
189	0xba6ad873	-0.0008958645
190	0x3b1e83e7	0.0024187507
191	0x3b6c755d	0.0036080696
192	0xa9c2e2f3	-8.6547e-14
193	0xba02cb9b	-0.0004989446
194	0xbb1b68a9	-0.0023713505
195	0x3a1e2c75	0.00060338463
196	0x3a0b9439	0.0005324516
197	0x9d7b5eb0	-3.3268526e-21
198	0x3adfe160	0.0017080717
199	0xbbc5020c	-0.006012207
200	0x81c69fe6	-7.2963156e-38
201	0x3ae93935	0.0017793538
202	0xbb8d4fd0	-0.004312493
203	0x3aa3ad5c	0.0012487578
204	0x3a11c792	0.00055610493
205	0x3a06e02c	0.00051450985
206	0xbb09075d	-0.002090893
207	0x3afd0c6b	0.0019306069
208	0x3a0b0004	0.00053024315
209	0x3aeb4bee	0.0017951706
210	0x3b23e001	0.0025005343
211	0x3a1ce538	0.0005985084
212	0xb9802f4d	-0.00024449304
213	0xba50a2ef	-0.00079588493
214	0x3be05393	0.0068459003
215	0x04188045	1.7926413e-36
216	0xbb6e491b	-0.0036359492
217	0x3a9ab42e	0.0011802965
218	0x3b35816f	0.0027695557
219	0x3bae5ac2	0.005320878
220	0xb9c38667	-0.00037293436
221	0x3ab4a46a	0.0013781909
222	0xb94e384c	-0.00019666663
223	0xbadf2a3e	-0.0017026139
224	0xbba8ed36	-0.005155231
225	0x3ae05c78	0.0017117402
226	0xbafc285c	-0.0019238102
227	0x3a57166f	0.0008204942
228	0x3ab352e5	0.0013681321
229	0xba0eb7fa	-0.0005444285
230	0x33a08415	7.474606e-08
231	0xbaf6ac02	-0.0018819573
232	0x3af329a3	0.0018551837
233	0xba18228e	-0.0005803489
234	0x3b916b54	0.0044378433
235	0x3b099d36	0.0020998246
236	0xbae4f204	-0.0017467146
237	0x3af494da	0.0018660084
238	0xbb795f1e	-0.003805108
239	0x09e38ed6	5.4782584e-33
240	0x3a19d0c6	0.00058675965
241	0x3abbe708	0.001433582
242	0x399f4dcb	0.00030384804
243	0xbabc0afa	-0.0014346533
244	0x3ac01b84	0.0014656638
245	0xbb21d794	-0.0024695145
246	0x023b97aa	1.3782116e-37
247	0x3b88d139	0.004175332
248	0xbaf98fe4	-0.0019040075
249	0x3a407093	0.00073409936
250	0x3b310525	0.0027011123
251	0x3325c640	3.8597364e-08
252	0x330186d2	3.015777e-08
253	0x3b97c92e	0.004632137
254	0xbb333960	-0.002734743
255	0x38219492	3.8523758e-05

fc_logvar.bias f4 [16]
0	0x3c16d1cb	0.009205292
1	0xbc97410d	-0.018463636
2	0x3cbcf107	0.02306415
3	0x3c5afbec	0.013365727
4	0x3c36b4d1	0.011151508
5	0xbcdc0157	-0.026856108
6	0xbc6f7264	-0.014614675
7	0xbc1b86b6	-0.009492567
8	0x3c23e224	0.010002647
9	0x3c858834	0.016300298
10	0x3b855847	0.0040693614
11	0xbe673490	-0.22578645
12	0x3b8c0947	0.004273567
13	0xbbcf819b	-0.006332589
14	0x3ca5430a	0.020173568
15	0xbcdd632f	-0.027024833

decoder.0.weight f4 [256, 61]
0	0x3d4c51f8	0.04988286
1	0xbbf243a9	-0.0073933196
2	0x3d51e5f4	0.05124469
3	0xbb37eb1a	-0.0028063715
4	0xbb1a08fe	-0.0023503895
5	0x3cdc6785	0.02690483
6	0xbb76c172	-0.0037651923
7	0xbc911c60	-0.017713726
8	0x3c1d9d59	0.009620034
9	0x3cf785ed	0.030215228
10	0x3cb480b8	0.022034034
11	0x3e161bff	0.14659117
12	0xbc5ed68e	-0.0136009585
13	0x3ca9b768	0.020717338
14	0x3c44d403	0.012013438
15	0x3c804237	0.015656574
16	0xbc7e96f4	-0.01553892
17	0xbd70b3e8	-0.058765322
18	0xbe6fed1e	-0.23430297
19	0xbc8d3522	-0.01723725
20	0x3d9ee263	0.077580236
21	0xbd6d8140	-0.05798459
22	0x3d8d7110	0.069063306
23	0xbd52e21d	-0.05148517
24	0x3d02b10e	0.031907134
25	0x3d71e5f7	0.059057202
26	0xbbb7902a	-0.0056019025
27	0xbd69330e	-0.056933455
28	0xbdd40087	-0.10351663
29	0x3b982f29	0.004644294
30	0x3d4b0af7	0.049571004
31	0xbb992312	-0.00467337
32	0x3dd2415d	0.10266373
33	0x3c248975	0.010042538
34	0x3d753fc6	0.059875272
35	0x3c39b4c3	0.011334601
36	0xbcaf3fbb	-0.021392694
37	0x3d257b5d	0.04040085
38	0x3d879f6e	0.06622206
39	0x3d1c24db	0.038121086
40	0x3ddc66ef	0.107618205
41	0x3d6624da	0.05618749
42	0x3de2010b	0.11035355
43	0x3da3d758	0.08000058
44	0xbd5b2571	-0.053502504
45	0x3da22615	0.0791742
46	0xbce7ca53	-0.028294718
47	0x3de1888f	0.110123746
48	0x3dd7e381	0.1054144
49	0x3d860427	0.06543761
50	0xbd59cfaf	-0.053176578
51	0x3d2afbeb	0.041744154
52	0xbcb4b550	-0.022059113
53	0x3cefdc56	0.029279869
54	0xbd79ab30	-0.060954273
55	0x3d1d66d5	0.038428146
56	0x3d3ae891	0.04563195
57	0x3dba7605	0.09104542
58	0xbd292bb7	-0.041301455
59	0xbad50bf5	-0.0016254174
60	0x3d5fc2b1	0.05462903
61	0x3c2ac8c7	0.010423846
62	0xbd16075a	-0.036628105
63	0x3bcceee3	0.0062540635
64	0x3c997257	0.01873128
65	0x3d1ff019	0.039047334
66	0xbb5e1aa1	-0.0033890384
67	0x3bb0b84c	0.0053930636
68	0x3c19f420	0.009396583
69	0x3cc0e7b8	0.023547992
70	0x3c8e97cf	0.017406372
71	0x3d0505b5	0.032476146
72	0xbe0e2d74	-0.13884526
73	0xb9f63e65	-0.00046967264
74	0x3c801ddf	0.015639244
75	0x3ce6f700	0.02819395
76	0x3d643183	0.05571128
77	0x3c4d112f	0.012516304
78	0xbcab816a	-0.020935733
79	0xbe8705af	-0.26371524
80	0xbdff9f25	-0.12481526
81	0xbd827a90	-0.06371033
82	0xbc9fd25e	-0.01950949
83	0x3cf8b375	0.03035901
84	0xbd9544ef	-0.07288539
85	0x3d4b6087	0.049652603
86	0x3d5f1240	0.054460764
87	0xbd34c941	-0.044137243
88	0x3c89d1f7	0.016823752
89	0x3d828287	0.06372552
90	0xbde8e5d0	-0.11371958
91	0xbac74071	-0.00152017
92	0x3c517beb	0.012785892
93	0xbc832a82	-0.01601148
94	0x3cb20dac	0.021735035
95	0x3d4dc745	0.050238866
96	0x3d173360	0.03691423
97	0x3d3f5f92	0.046722002
98	0xbda3d39f	-0.07999348
99	0x3b1ff259	0.0024405925
100	0xbd833e71	-0.06408394
101	0x3ca35cb9	0.019941675
102	0xbc5c9660	-0.013463587
103	0xbd9f5739	-0.07780308
104	0xbd631c36	-0.055446826
105	0x3c3c323a	0.011486584
106	0xbc17b9b8	-0.009260587
107	0xbc19b6ba	-0.009381944
108	0xba85718f	-0.0010180938
109	0xbda11833	-0.07865944
110	0x3d5b9854	0.05361207
111	0xbc49ef4a	-0.012325117
112	0x3c9ecc7b	0.019384613
113	0xbc05236f	-0.008126124
114	0xbb8c3f9e	-0.0042800447
115	0x3d461087	0.048355605
116	0xbbaed8b8	-0.0053358935
117	0xbc1ec8c0	-0.009691417
118	0x3c16fbb1	0.009215281
119	0xbd07e44c	-0.033176705
120	0x3cd96bd3	0.026540672
121	0xbc4c2b2f	-0.012461468
122	0xbc56f1fd	-0.013119218
123	0x3cc29078	0.023750529
124	0xb9e61558	-0.0004388492
125	0x3c0f4db8	0.008746557
126	0xbc04c3b3	-0.008103299
127	0x3ae7da0f	0.0017688888
128	0x39778a19	0.00023607201
129	0x3bcba1a6	0.0062143384
130	0x3c0d2752	0.008615332
131	0x3d057beb	0.03258888
132	0xbc497ba0	-0.012297541
133	0xbe8b9792	-0.27264076
134	0x3c545c46	0.012961453
135	0x3c74776b	0.01492105
136	0xbcb93a83	-0.022610908
137	0x3cb2812c	0.02179011
138	0x3dc70b6e	0.09718977
139	0x3d782059	0.060577724
140	0xbc06a198	-0.008217238
141	0x3d4eb116	0.05046185
142	0xbd46f32f	-0.04857176
143	0x3c18fca1	0.009337575
144	0x3b6d0fc8	0.0036172736
145	0x3d37a1b7	0.044831958
146	0x3d8eb5cf	0.06968271
147	0xbce50f3c	-0.027961366
148	0xbb9dad28	-0.0048119016
149	0xbd5a580e	-0.05330663
150	0xbd8acf76	-0.06777851
151	0x3dbd286f	0.09236228
152	0x3cebee74	0.028800227
153	0xbc1cf722	-0.009580405
154	0x3d6011eb	0.054704588
155	0xbae5bfbf	-0.0017528458
156	0x3d7ec95f	0.06220376
157	0xbdd44345	-0.10364393
158	0x3decba01	0.11558915
159	0xbd892d65	-0.066981114
160	0x3ac68108	0.0015144655
161	0x3c8ae756	0.016956013
162	0x3d4d4206	0.050111793
163	0x3dc534ce	0.09629212
164	0xbe1fc80c	-0.15603656
165	0x3d746d8b	0.05967478
166	0x3dbbff61	0.09179569
167	0x3d019554	0.03163655
168	0x3bc750e6	0.006082642
169	0x3da32d3c	0.07967612
170	0xbde922a1	-0.11383558
171	0xbd67b1f9	-0.056566212
172	0xbcf8dff5	-0.030380229
173	0xbccf6193	-0.025315082
174	0x3b664830	0.0035138242
175	0xbd829412	-0.063758984
176	0xbd88ac8c	-0.06673536
177	0xbc1baa12	-0.009500997
178	0xbd452b26	-0.048136853
179	0x3d5d2774	0.053992704
180	0x3c281afa	0.010260338
181	0xbd98dd12	-0.07464041
182	0x3d2b576c	0.04183142
183	0xbb753974	-0.0037418278
184	0x3cdda61b	0.027056744
185	0x3cd7be43	0.026335841
186	0x3d30eae4	0.04319276
187	0xbd6e9d9c	-0.058255777
188	0x3b385e1b	0.0028132263
189	0x3af4e87e	0.0018685011
190	0x3d7d12b8	0.06178543
191	0x3c047215	0.00808384
192	0xbd081c35	-0.033230025
193	0x3c1e56f6	0.009664288
194	0x3d8d948b	0.06913098
195	0xbcbb1d3b	-0.022841087
196	0x3d014456	0.03155931
197	0x3cc6b2a9	0.024255114
198	0xbd8116e0	-0.06303191
199	0xbce39a4f	-0.027783541
200	0x3dc4bc60	0.09606242
201	0xbe1f291f	-0.1554303
202	0x3da19743	0.07890179
203	0xbd3a7d23	-0.045529496
204	0xbc1e8555	-0.0096753435
205	0x3c262448	0.010140486
206	0x3d4203d6	0.04736694
207	0xbc997cc1	-0.018736245
208	0x3dd18dc1	0.102321155
209	0xbd8df5f7	-0.0693168
210	0x3dca5608	0.098796904
211	0xbd1f7c84	-0.038937107
212	0x3d6b4be0	0.057445407
213	0x3aa16d23	0.001231585
214	0xbd5be5d7	-0.05368599
215	0xbdaf2b81	-0.085532196
216	0x3ca664bb	0.020311704
217	0x3d2e3592	0.042531557
218	0x3d5d6d0c	0.054059073
219	0x3dbe9a61	0.09306789
220	0xbb967d57	-0.0045925784
221	0xbd1b65cb	-0.037938874
222	0xbdf4568f	-0.11930572
223	0x3dd227f6	0.10261528
224	0xbd6df469	-0.058094416
225	0xbd105b48	-0.035243303
226	0xbda17933	-0.07884445
227	0xbda348c3	-0.079728626
228	0x3d18d23a	0.037309863
229	0xbd4f3349	-0.05058602
230	0x3ce7d78d	0.028301025
231	0xbdcb7ca6	-0.09935884
232	0x3b953a3d	0.0045540617
233	0xb894e5f3	-7.100021e-05
234	0xbcdf3d2b	-0.027250847
235	0x3caf7afd	0.02142095
236	0x3b58849b	0.0033038023
237	0x3d65c175	0.056092698
238	0x3dad1acb	0.08452376
239	0xbd539a86	-0.051661037
240	0x3c4aa3b9	0.012368136
241	0xbd8ba314	-0.06818214
242	0xbcb9355a	-0.022608448
243	0xbd06e7c7	-0.032935884
244	0xbcd27de8	-0.025694802
245	0xbd7ebc4c	-0.062191293
246	0xbccd68a9	-0.02507432
247	0x3d47b3b2	0.048755355
248	0x3d1f5c68	0.038906485
249	0xbd8edafb	-0.06975361
250	0x3d821906	0.06352429
251	0xbd3032f8	-0.043017358
252	0xbd1f3ea3	-0.038878094
253	0x3ca93f09	0.02065994
254	0xbd09572c	-0.0335304
255	0xbe03b625	-0.12862451
