models/cvae_L8_H128_B1.000_LR1e-03.pt (torch, 214857 bytes, 13 tensors)

encoder.0.weight f4 [128, 46]
000000 cb 70 79 3e be 04 fa 3b 8e e8 42 3b 7f 8e 05 3e
       0.24359433 0.00762996 0.0029740664 0.13042639
000010 40 09 42 3d 6a 90 42 bb 1c e4 68 3d 36 54 2d 3d
       0.047372103 -0.0029688128 0.056858167 0.042316638
000020 60 da f3 bd c5 60 bd 3d 50 49 d8 3d 36 18 c0 bc
       -0.11906886 0.09246973 0.10560858 -0.023449045
000030 2b 67 00 bd 67 2e f8 bc 53 a0 05 3d c1 e1 82 3d
       -0.03134839 -0.030295564 0.0326236 0.063907154
000040 be 2d 4f bb 5d 65 4d 38 03 de 28 3d a5 f6 75 bd
       -0.0031612958 4.897021e-05 0.041227352 -0.06004967
000050 39 83 82 bc 80 1c 13 3e c6 db ee bd 35 e4 0e bd
       -0.015931712 0.1436634 -0.11663012 -0.034885604
000060 62 bb 19 be 7b 68 38 bd c1 a7 29 be 1a 14 e6 bc
       -0.15012887 -0.045021515 -0.165679 -0.028085757
000070 1e 82 8e 3c ee 27 42 bd 0e 66 ba bd f8 e6 76 bb
       0.01739603 -0.04740136 -0.09101497 -0.003767429
000080 47 cb af 3c e9 94 43 3d ad 0e d7 bb e9 93 9f 3d
       0.021459235 0.047749434 -0.006563029 0.077918835
000090 89 31 ef bc 6a bf e8 3c 32 d2 94 bb 6e 0d 86 3d
       -0.029198425 0.028411586 -0.004541659 0.0654553
0000a0 89 05 59 3d 43 55 2d 39 ab 9a 3d bd 73 71 fc bc
       0.052983794 0.00016530328 -0.04629008 -0.030815816
0000b0 4c e0 2d bd 4a fd ef bd cc b9 2a be ae f3 5c bd
       -0.042450234 -0.11718233 -0.16672438 -0.05394333
0000c0 75 ec a6 bc c8 cc 94 3d 03 20 b0 3c ff 87 9f bc
       -0.020376423 0.072656214 0.02149964 -0.019474028
0000d0 ef 00 47 bd 9e 04 98 bd 1f ba 38 3d ec 97 c6 bd
       -0.048584875 -0.07422756 0.045099374 -0.096969455
0000e0 f3 bf 58 3d 04 3f 07 3d eb ee 57 3d 72 e2 78 bd
       0.052917432 0.03301908 0.052718084 -0.06076283
0000f0 42 35 9e 3d da 80 35 bd 8e 1a c0 3c bd 92 c9 3b
       0.07725002 -0.044312336 0.023450162 0.006151526
000100 67 22 87 bc bc be e7 ba 5c 6a 26 bd 4f 83 f5 3c
       -0.016495897 -0.0017680745 -0.040628776 0.02996984
000110 e9 74 62 3c 4a cf 9b bc f7 1c a7 bd b8 dd c5 bd
       0.013821819 -0.019019742 -0.081598215 -0.0966143
000120 1d 1c 01 bd db e2 cf bc 90 82 99 bd fd 1d ad 3c
       -0.03152095 -0.025376728 -0.07495606 0.021132464
000130 3b e5 ba bc 20 91 89 bc 7d 1b 52 bb c4 85 09 bd
       -0.022814384 -0.016792834 -0.0032059841 -0.033574834
000140 a4 8e 19 bd aa f7 55 ba 35 08 0c bc 95 2d 62 bc
       -0.03748955 -0.000816221 -0.008546879 -0.013804813
000150 1a 72 3d 3c bb 57 82 bc 00 5f dd 3c 7a 68 bb bc
       0.011562848 -0.015910974 0.027022839 -0.022876967
000160 6a 29 12 bd 68 bf 89 3c f6 c3 a8 3c ec 60 e6 3c
       -0.035684027 0.016814902 0.020601254 0.028122388
000170 4c 4c 9a be c0 a1 ce bc e6 68 98 bd 13 d6 a9 3e
       -0.30136335 -0.025223613 -0.07441883 0.33171138
000180 61 3f 2f 3d 23 79 7b 3d d5 52 8a 3d ca b1 e8 3c
       0.042785052 0.06139482 0.0675408 0.028405089
000190 63 5c 0a bd b7 0a 20 bb e3 1a 81 3c 41 f1 2e bc
       -0.033779513 -0.002442045 0.01575989 -0.010677637
0001a0 c9 1c a4 3c fd 1e 17 bd 30 a0 f0 bb 78 2c 46 3d
       0.020033257 -0.036894787 -0.0073433146 0.048382252
0001b0 d5 1e 9c bc 51 12 c4 3c 41 b8 27 3d bd a6 8e 3c
       -0.01905767 0.023934515 0.040947203 0.017413491
0001c0 d5 ec b8 3b 71 3c 61 3b f9 01 2d 3c e7 0c 3a bd
       0.005643467 0.0034368301 0.010559552 -0.04542246
0001d0 fc 74 52 3e 2d a8 53 3d b7 04 45 be 2b 89 85 3c
       0.20552438 0.051674057 -0.1924008 0.016300758
0001e0 20 c1 9b 3d 7f 10 1f bd 2e e9 cb 3d 29 5a 3e bd
       0.07605195 -0.03883409 0.09956585 -0.046472702
0001f0 6f ce 63 bd ff 95 3c bd 72 89 4e 3d a3 a9 52 3a
       -0.055616792 -0.046041485 0.050424047 0.0008036142
000200 1e e4 23 3c de 83 b2 3c 2c 60 47 bd 46 48 72 3d
       0.010003118 0.021791395 -0.0486757 0.059150957
000210 d1 81 d7 3d 52 68 fb 3d 6d 15 72 bc 44 6b ab 3d
       0.105228074 0.12275757 -0.014775616 0.08370069
000220 22 b5 15 bd 11 d3 aa 3c d7 33 ad ba 08 db 6a bd
       -0.036549695 0.020852597 -0.0013214302 -0.05733779
000230 7b 81 b2 3d 9f 66 03 3e a5 86 88 3d de cc 49 bd
       0.08716103 0.12832116 0.066663064 -0.049267642
000240 11 0b be bd 78 39 bd 3d a5 c1 3b bd 64 ad 7c bd
       -0.092794545 0.09239477 -0.04583897 -0.061688796
000250 eb c5 c9 ba ab ad bb bc 55 5a 21 3c ea 2d dc bc
       -0.0015394067 -0.02290996 0.009848197 -0.026877362
000260 89 80 7c bc 3a d3 ad 3d b7 24 ec bd 79 0f e4 39
       -0.015411505 0.08487554 -0.1153044 0.00043499077
000270 56 3e 95 bc 74 05 b7 3c e5 57 5a 3d e9 93 04 be
       -0.0182182 0.022341467 0.05330648 -0.12947048
000280 d2 07 cc 3d 0c fd 7c 3d 9c ed 80 3e 47 cf 3d bd
       0.09962429 0.06176476 0.25181282 -0.046340253
000290 69 0b d3 bd 02 5a 60 3e 13 ce 5c 3e 00 b1 28 3e
       -0.10304911 0.21909335 0.21562986 0.1647377
0002a0 98 b1 8b 3c 05 7c 60 bb 6c 22 3d 3e dd f7 01 3e
       0.017052457 -0.003425361 0.18470162 0.12692209
0002b0 25 04 85 bc 4f bd 21 3e 0d 43 c6 3c 07 7c 60 bb
       -0.016237328 0.15794872 0.024201894 -0.0034253614
0002c0 20 6f 85 02 c6 c3 21 bd b0 d8 2a bc 68 ea b7 3d
       1.9606376e-37 -0.039493345 -0.010427639 0.08980256
0002d0 20 53 65 3d 10 51 8e 3d e0 80 0c 3e e0 7b 60 bb
       0.055987477 0.06949055 0.13721037 -0.0034253523
0002e0 83 24 ea bd 79 c8 f2 bd a0 4b 0b be 89 1d 2c 3e
       -0.11432745 -0.118546434 -0.13603067 0.16808142
0002f0 47 fd bf 3d 21 35 84 bd 6c 41 87 bd 3b 3f f4 bc
       0.09374481 -0.06455446 -0.06604275 -0.029815307
000300 c1 81 fc 3c 1e 46 8f bd 26 42 3e bc 87 a4 54 3d
       0.03082359 -0.06995796 -0.011612451 0.051914718
000310 3c 89 8f bb 43 69 0a bd 81 56 b9 bc 38 a7 47 bc
       -0.0043803733 -0.03379179 -0.022624256 -0.012185864
000320 7e 00 1e 3d 51 aa 79 3d 1b b5 4e 3d b1 51 90 3d
       0.038574688 0.060953442 0.050465684 0.070468314
000330 0c ea e2 bd 1b ba 17 bd 7a 76 55 3d bf ae b8 3c
       -0.11079797 -0.03704272 0.05211494 0.022544263
000340 83 92 57 bd b7 b6 23 be df 47 c6 bc 36 8d 08 3d
       -0.05262996 -0.15987669 -0.024204193 0.033337794
000350 9f 0c a5 bd 59 1a 43 bd 68 81 cc 3a 60 b6 61 bc
       -0.08059048 -0.04763255 0.0015602531 -0.013776392
000360 40 50 36 3d 23 34 45 bd c8 5d 60 3d da 95 33 3d
       0.044510126 -0.048145425 0.054776937 0.04384408
000370 d0 d6 20 3d 06 c5 61 bc d6 d1 ea 3a 7a 12 de bd
       0.03926736 -0.013779884 0.0017915319 -0.10843368
000380 ee d8 f5 bc f0 95 cc bc 06 2f b9 bd ae cf d2 bd
       -0.030010667 -0.02497384 -0.09042172 -0.10293518
000390 43 73 11 bc 9d 30 33 bc c2 93 7e 3e c6 d3 87 bd
       -0.008877578 -0.010936883 0.24861053 -0.066321895
0003a0 2c 31 66 bd 67 10 93 3e 85 b1 d8 bc 06 d9 9f bd
       -0.056199238 0.28723451 -0.026451835 -0.07805066
0003b0 1a 7f ed bd fe e3 96 bd d2 00 58 3d 0f 59 2c 3c
       -0.11596508 -0.07367705 0.052735157 0.01051928
0003c0 1c a8 43 bd e3 5a a1 3c 03 cd af ba f6 10 c5 bd
       -0.047767743 0.019696658 -0.0013412539 -0.09622376
0003d0 f0 75 f3 bc 2b d4 e2 3c 91 3b 95 bc c0 ce 0f 3d
       -0.029719323 0.02768906 -0.01821688 0.03510928
0003e0 0b 0d 6f 3c 22 75 45 3d 87 f9 9d bc 22 82 4d bb
       0.014590512 0.04820741 -0.019284023 -0.0031358083
0003f0 8c 13 d0 bb 42 76 cc bd 99 f4 2a be c1 0e 11 3e
       -0.0063499864 -0.099834934 -0.16694869 0.14165784

encoder.0.bias f4 [128]
000000 40 f2 13 be 93 a2 ef bd 23 ce 4e 3d 87 d9 d4 3d
       -0.1444788 -0.117009304 0.050489556 0.103930525
000010 5c ea d3 3d 11 d7 87 3d c8 48 88 3d c2 78 db 3d
       0.10347435 0.066328175 0.06654507 0.10716392
000020 f5 02 80 3d 09 5f b6 3d 0b 57 2f bd e3 bf 19 be
       0.06250564 0.08904845 -0.04280762 -0.15014605
000030 c1 f3 4c 3d 81 7a 24 3e 99 ad dc 3d 02 12 20 3e
       0.05003715 0.16062357 0.107752986 0.1563187
000040 0f 80 99 3d f1 aa 5f bd ca 77 ca bd 33 c3 37 bd
       0.07495128 -0.05460638 -0.09886129 -0.04486389
000050 d0 0a 4f 3d 1c 7c 56 3e cc a4 f6 bc 8d e6 fa 3d
       0.05054742 0.20945781 -0.030107878 0.12251005
000060 3c 10 20 bd fa 97 e8 3c 50 35 e8 3c d4 23 06 3e
       -0.039077982 0.02839278 0.028345734 0.13099605
000070 25 bc 46 3d 22 43 20 3d aa 4f 6c bd cf 95 b1 bd
       0.048519272 0.039126523 -0.05769316 -0.08671152
000080 cc a8 69 3c 7a f3 11 3e 91 38 23 3e 46 da 38 3c
       0.014261436 0.14253035 0.15939547 0.011282509
000090 3c 21 0f 3e a8 66 21 be 87 d8 f3 3d 2c 53 df bc
       0.13977522 -0.15761817 0.11906534 -0.02726134
0000a0 31 76 d1 bd 4b b9 02 be 05 99 b8 bd c9 e9 87 bc
       -0.10227621 -0.12765996 -0.09013561 -0.01659097
0000b0 f8 44 fd bd b7 98 81 bd 78 c5 cd 3d 2b e4 97 3d
       -0.1236667 -0.06327956 0.1004743 0.074165665
0000c0 c0 6d 02 3e 97 78 17 3e 1c dc eb bd 9a f8 f7 bd
       0.12737179 0.14792095 -0.11516592 -0.12107964
0000d0 80 9d 64 bc c7 14 48 bd 70 4a 05 be 8b ad 59 bd
       -0.013953567 -0.04884794 -0.13016677 -0.05314402
0000e0 f4 d8 84 bd b2 3c f5 bc 57 f4 d5 3d a4 f2 92 3d
       -0.06486693 -0.029936168 0.10446995 0.07175186
0000f0 5d 65 46 3d 1b f6 12 3d 5c b8 64 bc be f2 27 bd
       0.04843651 0.035879236 -0.01395997 -0.04100298
000100 f7 b1 37 bc ce b4 77 3e c4 9f 87 3d 54 b3 84 bd
       -0.011211864 0.24190065 0.0662227 -0.064795166
000110 04 4a 59 bd 88 6f a5 bd 28 0d 6f 3d 59 88 d1 bd
       -0.053049102 -0.080779135 0.058362156 -0.102310844
000120 d9 80 a2 ba a2 3a 86 3d 66 22 66 3e 14 6f 40 be
       -0.0012398019 0.06554152 0.2247406 -0.18792373
000130 0d 06 16 be a6 3c 0c 3e ea b0 e3 3b 3a 06 a3 3d
       -0.14650746 0.1369501 0.00694858 0.07960172
000140 28 6f c7 3d 91 b6 ca bd 72 3c 3d 3e b9 af 78 3d
       0.09737998 -0.09898103 0.1848009 0.060714457
000150 b8 a5 07 3e ca 93 10 3e f3 e2 c1 3d 60 a2 08 3e
       0.1324681 0.14118877 0.09467115 0.13343191
000160 27 02 32 be d1 78 a7 3c b7 04 33 be d6 d4 db 3c
       -0.17383634 0.020443352 -0.17482267 0.026834887
000170 d9 a7 b4 bd 4e 02 4b bd d6 55 b5 bd ae 48 83 bc
       -0.08821077 -0.049562745 -0.088542625 -0.016025867
000180 8d 3f 57 bd a4 14 b9 3b 81 6a 63 bd 4b da d3 3c
       -0.05255084 0.0056482125 -0.055521492 0.025860926
000190 9f 7b f0 bd 3c e5 ab 3d f7 34 97 bd 21 70 8e 3d
       -0.11742329 0.08393332 -0.07383149 0.06954981
0001a0 ac cd 16 bd 51 d8 c4 3b d9 2a 41 bd 98 94 a5 3d
       -0.036817238 0.0060072322 -0.047160003 0.08084983
0001b0 c1 03 34 3e 5e 53 b1 bd 71 1e e7 bd 4e 52 00 be
       0.17579557 -0.08658479 -0.11285103 -0.12531397
0001c0 58 f9 fa bc 77 d4 82 bd f3 db c9 3d 11 31 f3 3c
       -0.030636474 -0.06388181 0.09856405 0.029686483
0001d0 ae 3e e7 3d 90 94 80 bc 09 9a b5 bd 88 e9 1c 3c
       0.11291252 -0.01569584 -0.088672705 0.009577163
0001e0 c2 4b 2c be fa 86 04 bd 25 9d a8 bd fb 8a 0e 3e
       -0.16825774 -0.032355286 -0.08233098 0.13920204
0001f0 53 a4 cd 3d 56 b4 10 3b 00 5f 95 3c 18 a5 c5 bd
       0.10041108 0.0022080145 0.018233776 -0.0965063

encoder.2.weight f4 [128, 128]
000000 88 25 94 2b 24 45 fc bb 68 66 ed 3c ce b8 06 3d
       1.052645e-12 -0.007698672 0.028979495 0.032891087
000010 92 11 24 3d 1d 9b f3 16 a0 96 b8 bc fb c5 1f 3d
       0.04005582 3.9356658e-25 -0.022532761 0.03900717
000020 7a 26 7a bd 6d 31 70 bb bc d0 47 bc 06 68 a6 bd
       -0.06107185 -0.0036650554 -0.012195762 -0.0812531
000030 e3 2e 5e bd e5 13 92 bd a7 a2 8c 3d 2b 08 a0 bd
       -0.054243933 -0.07132701 0.06866961 -0.07814058
000040 0d ee 83 bb e4 35 93 3c f0 31 1a bc 76 e5 d5 8f
       -0.0040261806 0.017970033 -0.00941132 -2.1091807e-29
000050 07 ed df bc c9 2e 5b 3c 35 50 7e 3d da 0e 07 be
       -0.027334703 0.013377854 0.06208821 -0.13189259
000060 fb e0 42 3c 20 9d c5 bc c8 4c 26 bb e1 cb 3a bd
       0.01189446 -0.024122775 -0.0025375355 -0.04560459
000070 77 e0 a1 bc cf 73 13 bb d8 89 94 94 25 b3 15 bc
       -0.019760353 -0.0022499447 -1.499855e-26 -0.00913695
000080 d5 4e 89 3c 05 d1 16 bd fe fb 8e bb 3f ef 07 bd
       0.016761223 -0.03682043 -0.004363536 -0.033187147
000090 84 7d eb bc 99 ba ca 38 e9 39 af 3b 51 7e f4 3a
       -0.028746374 9.666867e-05 0.0053474796 0.0018653368
0000a0 79 c8 5f 3c 2a 9b 04 3d 5e 2a c7 bb da 21 74 bd
       0.013658636 0.03237454 -0.0060780486 -0.059602596
0000b0 a5 33 c5 3d 7a 81 c6 bc af 21 82 3d ab eb 81 3c
       0.09628991 -0.024231661 0.06354081 0.015859446
0000c0 bf 19 ac bc fc 55 2a 3c d6 bc 78 3c 94 12 c8 3c
       -0.02100837 0.010396477 0.015181741 0.024422921
0000d0 36 47 a9 3b d1 64 42 3d 0f 66 29 bd 80 d5 6c 39
       0.0051659597 0.047459427 -0.041357096 0.00022586249
0000e0 0a ce 2b bd 8d 6f d8 bc c0 93 e1 bd a6 02 d4 3c
       -0.04194454 -0.026420379 -0.11014509 0.02588017
0000f0 9c 8f 14 3c a7 e2 05 bc 4f 80 c4 bd 8d 8c 70 3d
       0.009067442 -0.008171714 -0.095947854 0.05872779
000100 9c b5 bb 3a 23 d7 c9 bd d1 48 ab 3b 19 61 99 3d
       0.0014321092 -0.09855487 0.0052271863 0.07489223
000110 57 18 2f 3c 24 03 86 3d 1a b2 24 bc 09 26 0a b8
       0.010686955 0.06543568 -0.010052228 -3.2937187e-05
000120 1b 90 4b 3c 97 91 5a bb 84 45 2c bd bb 19 49 bc
       0.012424494 -0.0033350938 -0.042058483 -0.012274201
000130 ab ae 38 3b 7e bf 31 3c 0a 8c fb bc 83 f2 02 bd
       0.0028180282 0.010848878 -0.030706424 -0.03196956
000140 21 57 97 3d 92 23 fe 3c 8f 36 5b bd df 7a 6f 3d
       0.073896654 0.03102282 -0.053518828 0.05846679
000150 e5 4b ad bd 48 08 b8 bc e5 9d 3b bb fb 8e 82 bb
       -0.08461741 -0.022464886 -0.0028628048 -0.0039843298
000160 29 6e e4 21 25 59 a2 bc 7a 2f 65 ba 94 18 4f bd
       1.547904e-18 -0.019817898 -0.00087427313 -0.05056055
000170 01 88 1f bc f7 2b b8 3c 4b 50 74 bc 2d 38 d0 b7
       -0.009737016 0.022481902 -0.014911721 -2.4821691e-05
000180 c7 d0 5f 3c 83 20 b0 ba 5e 2b 06 3d df ed ed bc
       0.013660616 -0.0013437424 0.032756202 -0.02904409
000190 e4 7f 06 3d 61 77 ef bc 6b a5 9f 3d be 7e 29 3d
       0.03283681 -0.029231729 0.07795223 0.041380636
0001a0 63 f3 34 3d 98 06 9d bc 42 36 c9 bc 2b e7 3d 3a
       0.044177424 -0.019168183 -0.024562005 0.00072442245
0001b0 ae 1d 16 bd f2 77 a4 3c 25 81 8f 3b fc 2b e9 3c
       -0.0366494 0.020076726 0.004379409 0.028463356
0001c0 37 31 81 3c da 34 48 bd 89 69 bc 3c 21 c0 10 3d
       0.015770538 -0.04887853 0.022999542 0.03533948
0001d0 39 9f 44 bd 3b e3 76 3d af 6c 95 98 ee 9b 16 3d
       -0.04800341 0.060275298 -3.862534e-24 0.0367698
0001e0 6b d5 10 3a 06 c7 04 3c db ae 30 37 e7 ee 81 bc
       0.0005524966 0.0081040915 1.0531129e-05 -0.015860988
0001f0 f4 15 32 bd e0 40 64 3c 21 39 f8 3c 16 42 01 bd
       -0.043477967 0.013931483 0.030300679 -0.031557165
000200 53 bc 96 86 c7 51 cd 82 35 7d 5e a4 68 f4 7c b1
       -5.6700446e-35 -3.016898e-37 -4.824463e-17 -3.6809755e-09
000210 6f 74 13 84 94 31 8f 22 e0 62 dc aa c9 f3 bd 9e
       -1.733323e-36 3.881272e-18 -3.914846e-13 -2.011198e-20
000220 0c 6c db a4 72 aa 97 19 4b 4f 84 ae e5 4b 39 18
       -9.515915e-17 1.5681876e-23 -6.01675e-11 2.3949007e-24
000230 02 54 b7 2c f0 48 f5 a7 b2 36 c8 ac cc e5 e5 af
       5.2104996e-12 -6.808024e-15 -5.6904143e-12 -4.1818138e-10
000240 92 89 0b a4 45 d7 1f a3 3d df 8c a4 8d 85 97 8d
       -3.0257347e-17 -8.664992e-18 -6.10935e-17 -9.338245e-31
000250 dd 60 ab ac e0 8c da a6 1a e0 9f 9e ca 0f c0 2f
       -4.8708663e-12 -1.5164973e-15 -1.6927466e-20 3.4935815e-10
000260 bc 44 47 a3 1b 27 02 2d e3 3d a0 ae 28 c5 90 ae
       -1.0802367e-17 7.398328e-12 -7.286951e-11 -6.583384e-11
000270 f5 42 a4 29 85 e0 06 21 61 ff 15 84 35 f9 03 03
       7.294678e-14 4.5698115e-19 -1.763213e-36 3.8783516e-37
000280 db 7c 16 84 f0 21 a9 a9 25 59 88 b0 6b f8 4c aa
       -1.7689746e-36 -7.510995e-14 -9.920639e-10 -1.8205027e-13
000290 22 e6 72 af 81 c2 f8 9b c8 95 e1 a6 ae 9c 2b 02
       -2.2091531e-10 -4.1153854e-22 -1.565311e-15 1.2608061e-37
0002a0 9c f9 41 92 30 a4 03 8e e9 af 80 1a 46 41 8a a8
       -6.120773e-28 -1.622605e-30 5.322376e-23 -1.5349386e-14
0002b0 9c 26 06 9f 80 77 88 9d 97 e9 e1 af 4a 87 24 17
       -2.840754e-20 -3.612246e-21 -4.1093237e-10 5.3162017e-25
0002c0 86 4b 26 af e7 2a 68 aa e2 89 c2 82 77 77 a8 a6
       -1.5124443e-10 -2.0620624e-13 -2.8584879e-37 -1.1689723e-15
0002d0 fd 27 89 83 46 db 17 99 c8 e1 f8 99 4f 5e bc 04
       -8.061317e-37 -7.850799e-24 -2.5733791e-23 4.4285196e-36
0002e0 5a c0 eb a5 00 f1 07 9f 84 a4 dd a9 5e 95 16 ae
       -4.0896344e-16 -2.8786712e-20 -9.8429104e-14 -3.4238716e-11
0002f0 fb 24 a7 b2 2e a6 25 93 98 ef 19 b0 52 fa 99 a9
       -1.9458176e-08 -2.090786e-27 -5.600156e-10 -6.8379886e-14
000300 77 23 9c 9a c5 78 9c b0 b6 f1 0e 9e 53 94 15 a3
       -6.4577384e-23 -1.1384819e-09 -7.567402e-21 -8.108715e-18
000310 de 3a 83 03 03 d4 93 96 1d e5 92 a9 49 04 16 04
       7.713003e-37 -2.388293e-25 -6.523447e-14 1.7634383e-36
000320 24 1e 17 84 27 0a 0f 97 b5 ce a6 b3 3d 5e 8b 03
       -1.7763805e-36 -4.6218606e-25 -7.767577e-08 8.191322e-37
000330 51 a7 40 90 63 f5 83 9d 5d 24 1c a2 da ff f7 aa
       -3.799422e-29 -3.4929135e-21 -2.1161193e-18 -4.4053547e-13
000340 0e 15 a0 ac 58 19 d2 02 8a f9 09 aa 30 44 72 a8
       -4.549811e-12 3.0871273e-37 -1.225462e-13 -1.3448484e-14
000350 73 d7 32 a3 7f dc 4f ac fe 6f f7 ad 43 b0 0a 2c
       -9.6950225e-18 -2.953887e-12 -2.8130383e-11 1.9708824e-12
000360 64 39 07 89 f7 fe a7 9e 77 ca a7 18 9d ae e4 a2
       -1.6277019e-33 -1.7787264e-20 4.3372925e-24 -6.1984403e-18
000370 2b f0 14 84 98 40 12 91 47 29 d5 ad 3b b3 1e 02
       -1.7507596e-36 -1.1537274e-28 -2.4233627e-11 1.1659443e-37
000380 27 f9 40 a8 a3 e9 42 90 93 e3 8e a3 4d e8 8c ac
       -1.0712167e-14 -3.843974e-29 -1.5492052e-17 -4.00483e-12
000390 ec dc 13 84 64 95 0e ae 27 d2 4a a0 46 24 ca ab
       -1.738121e-36 -3.2419747e-11 -1.7179599e-19 -1.4363031e-12
0003a0 61 f7 37 aa 7c f3 01 2e 03 9d d3 9f bc 02 75 83
       -1.6339492e-13 2.954746e-11 -8.962173e-20 -7.200217e-37
0003b0 41 5c 8e ab bb 98 f4 a8 99 c6 0c af 37 48 e4 99
       -1.0115312e-12 -2.7155678e-14 -1.2803482e-10 -2.3603815e-23
0003c0 51 d4 87 23 a2 41 f6 96 77 cc e9 ab 4b 02 79 9c
       1.4726649e-17 -3.9784864e-25 -1.6612396e-12 -8.2390153e-22
0003d0 61 5b 40 a5 87 b5 01 a2 cf c2 9f 95 77 60 b0 a9
       -1.6684306e-16 -1.757886e-18 -6.452694e-26 -7.832704e-14
0003e0 69 0f 71 94 9f 9c 69 84 45 be fb 80 6b b9 93 2d
       -1.217043e-26 -2.7460935e-36 -2.3118965e-38 1.6794307e-11
0003f0 6d 01 85 97 21 9f 5c a7 d9 c7 40 93 d2 64 d8 a9
       -8.595283e-25 -3.0617397e-15 -2.433234e-27 -9.6098165e-14

encoder.2.bias f4 [128]
000000 3e 14 04 bd 87 43 64 b5 e4 a4 cd 3b 5d 88 bb 3d
       -0.032245867 -8.5034884e-07 0.00627576 0.091568686
000010 6a c4 03 3d bd ca 70 39 ae b9 1a bc 8f e9 d7 b5
       0.032169737 0.0002296371 -0.009443684 -1.6086723e-06
000020 ff 6c 18 bd 10 eb 8f bb 1f 6a dc ba 8d 5c c8 9d
       -0.03721332 -0.0043920353 -0.0016816295 -5.3035254e-21
000030 88 b0 62 ba e1 ba 7f ba 45 58 d6 bb 8f ac 06 bc
       -0.0008647521 -0.0009755325 -0.0065412843 -0.008219852
000040 3f 2c 03 bd e8 6d 1b 3e 2c 1d da 3c f1 f3 64 3b
       -0.03202462 0.15178645 0.026625238 0.003493544
000050 ee bb 95 3d 53 90 a6 bd 31 82 19 3b 6f 3a 56 3d
       0.07311235 -0.081329964 0.0023423547 0.05230182
000060 db 7b 87 b9 c3 6d 31 b5 35 9b 6e 3d 51 b5 a9 bc
       -0.00025841486 -6.609736e-07 0.058253486 -0.020716341
000070 0c 03 ba 3c bc de 16 3c 54 af ab 3d 21 2a 4a bd
       0.022706531 0.009208377 0.083830506 -0.049356584
000080 72 e1 3b bd 22 ab 4c 3d ac cf 3e bd 1f c6 de 37
       -0.0458693 0.049967892 -0.04658477 2.655672e-05
000090 5e 13 85 8f eb d5 bc bd 14 eb 09 3d 3f 9d 8d b8
       -1.3122273e-29 -0.09220489 0.033671454 -6.752693e-05
0000a0 ca d0 9a 3d d0 06 d3 3d 95 c3 ea bc 8f 5d 6b 9e
       0.075593546 0.10304034 -0.028657714 -1.2460144e-20
0000b0 50 56 1d 3e e2 db d8 bc ea d9 cd 3d e6 70 fe b2
       0.15364957 -0.026472036 0.100513294 -2.9620832e-08
0000c0 01 7c a6 bd bb 49 b4 b4 08 a8 15 3e 5b 2b 39 be
       -0.081291206 -3.358126e-07 0.1461488 -0.18082945
0000d0 be 97 84 bd e8 07 94 ac dd cf b1 3d 92 ae 6c 3d
       -0.06474255 -4.2072908e-12 0.08682225 0.05778367
0000e0 b3 30 e4 b8 21 79 57 3c 3c 65 12 3e 0c 4e 92 3d
       -0.00010880958 0.013151438 0.1429643 0.071437925
0000f0 51 c9 f7 3c 78 1b 9d bb b9 ee ac 3d 73 b9 a3 ba
       0.030247362 -0.0047945343 0.0844397 -0.0012491181
000100 27 92 fe 3d 54 0f ee 3c b1 11 67 3d 88 b9 57 3c
       0.1243022 0.029060043 0.056413356 0.013166793
000110 ac e1 31 bd 8f cb 4c 3d 24 f2 ac 3d 46 c6 4b ba
       -0.043428108 0.049998816 0.08444622 -0.00077733805
000120 e7 7f fe 3d 91 0e 28 3e e6 ce 0c be 51 91 29 3c
       0.12426739 0.16411807 -0.137508 0.010349588
000130 17 85 44 aa c6 c4 7e 3c 62 39 0d 3d bb 16 6b 3d
       -1.7454472e-13 0.015549844 0.034478553 0.057394724
000140 04 7a 99 3d be 3e 55 3d 41 04 c7 3d 01 fd 83 3d
       0.07493976 0.05206179 0.09717608 0.06444741
000150 0a 2e fb b0 9d 15 1e 3d 2b 4e b1 3c c7 1d 8d bd
       -1.8275739e-09 0.03859483 0.021643719 -0.06890445
000160 25 dc 34 bd 88 b1 02 3c 4e 18 cc 3d 98 bb 13 3d
       -0.04415526 0.007976897 0.09965573 0.036067575
000170 26 4a f1 3d 91 4c c2 3c 09 2b 91 3d 8e 84 e4 b7
       0.11781721 0.02371815 0.070882864 -2.7241444e-05
000180 86 b9 3e be fe a2 9b 3d c6 ec e4 3d 33 38 51 3c
       -0.18625459 0.07599448 0.111779734 0.012769747
000190 4c 5e 2a 3e 2b 8c 0c 3e 70 b3 76 3d b8 90 cf a6
       0.16637534 0.13725345 0.06022972 -1.4402736e-15
0001a0 48 05 a3 b9 0d a9 1f 3b 8c ba 93 3d e1 e8 de bb
       -0.00031093718 0.0024362237 0.07213315 -0.0068026637
0001b0 25 84 28 3c ce 94 55 ba dc 04 78 82 61 a6 e2 bc
       0.010285412 -0.0008147479 -1.8221557e-37 -0.027667226
0001c0 0e 14 a1 3b 3d c0 e7 b9 c9 87 c9 3c 73 38 9e ad
       0.004915721 -0.00044202982 0.02460088 -1.7987589e-11
0001d0 28 d6 e0 3b 81 c9 98 3d f2 94 b1 3d e3 98 41 3d
       0.006861467 0.07460309 0.08670987 0.047264945
0001e0 29 1c a5 3c ae cc 4a bd 00 38 5b 3d 76 bc 04 bd
       0.02015503 -0.049511604 0.053520203 -0.032406293
0001f0 c9 ba 84 be 8c 0f 00 3e 66 db c2 3c 40 f4 5e bd
       -0.25923756 0.1250593 0.023786258 -0.054432154

fc_mu.weight f4 [8, 128]
000000 00 cd d8 ba ff a9 5d a5 8a 1b 86 3b 98 e3 bf 3c
       -0.0016540587 -1.9226291e-16 0.0040926384 0.023423955
000010 de e6 3d 3b 07 5c d9 b5 49 77 41 bc 1d 8e 15 96
       0.002897672 -1.6194543e-06 -0.011808225 -1.2080967e-25
000020 80 3a b2 ba ca ce 0b 3b 9f 97 b6 33 fe 07 97 03
       -0.0013597757 0.0021332973 8.502615e-08 8.876817e-37
000030 20 a4 b4 2e e6 fb 57 3b 1d ff 06 bc 0c cf a2 bb
       8.214607e-11 0.003295654 -0.008239535 -0.0049685296
000040 68 c1 23 3b 07 d2 c8 bb 90 35 0f 3c ae e9 d1 39
       0.0024987105 -0.006128553 0.008740798 0.0004003769
000050 f7 e1 a2 bb f6 e4 2f 3c bc 92 1e 3b e7 d2 da 3b
       -0.0049707848 0.010735741 0.0024196347 0.0066779735
000060 6c 29 cb b3 24 ec 5d 2d 84 c6 b8 3b 82 3e 94 3a
       -9.460459e-08 1.2614829e-11 0.0056388993 0.0011310133
000070 c1 31 3d 3a 26 56 96 bc 76 b1 1b bc 24 22 a2 39
       0.0007217192 -0.018351626 -0.009502759 0.00030924485
000080 9c 7a 3f ba b0 d2 37 bc fd 55 af 3c 21 27 b0 b0
       -0.0007304342 -0.011219665 0.021403307 -1.2816807e-09
000090 46 16 82 02 0e 00 eb bb 54 40 99 3c 4d a3 a6 b2
       1.9114568e-37 -0.0071716374 0.018707432 -1.9399204e-08
0000a0 37 bb 10 3b 7d 70 89 3c b4 cc a6 b9 11 7a 29 99
       0.0022084245 0.016777271 -0.00031814503 -8.761746e-24
0000b0 28 f5 07 3c 07 a2 b5 b0 67 92 b2 bb 7f 80 80 ae
       0.008298196 -1.3215534e-09 -0.0054495814 -5.8435916e-11
0000c0 62 8b f6 ba fc 1d 6d 9f 0c 40 e3 3b 69 26 68 3b
       -0.001880985 -5.0211505e-20 0.006935125 0.0035423285
0000d0 7f 80 c5 38 6a 2b 21 14 de 3e cb 3c 5c 08 3e 3c
       9.417626e-05 8.136985e-27 0.02481025 0.011598673
0000e0 8e ed 13 aa cb f1 05 3a ff 2e bf 3a 6e b6 2e 3c
       -1.3138641e-13 0.00051095773 0.001458615 0.010663612
0000f0 28 e4 b9 3c 18 b3 c5 bb 75 96 ab bc 6a c0 8b 3b
       0.022691801 -0.0060333125 -0.020945767 0.004264881
000100 07 4f 9e bb 49 76 0e bc b7 6d 31 3a a8 91 5c bc
       -0.004831198 -0.008695194 0.0006768363 -0.0134624615
000110 5c ab 24 3c 40 12 13 3b ad 40 0c bc 1c 24 16 bc
       0.010050621 0.0022441298 -0.008560342 -0.009163883
000120 31 f5 9f bb 76 35 8b bc b9 f4 9b ba b8 60 d1 bb
       -0.004881524 -0.016993266 -0.0011898495 -0.0063897036
000130 b2 9e 76 02 09 38 07 3c 74 f4 c9 3b 62 a6 7c bc
       1.8118769e-37 0.008253106 0.0061631743 -0.015420528
000140 e9 bb e2 ba 3b 78 39 3b 3e 86 da 3a 42 7a f1 3b
       -0.0017298433 0.0028300423 0.0016672087 0.0073693106
000150 45 12 80 b3 09 b6 84 3a 8c ae 9b bc 41 81 be bb
       -5.963788e-08 0.0010125051 -0.019004129 -0.005813748
000160 32 8f 27 3c 20 6d 13 ba c2 c9 ce ba cd 34 2e bc
       0.0102270115 -0.0005623866 -0.0015776681 -0.010632706
000170 15 e8 7a bc 99 53 c5 bc 84 39 7e 3c 97 4e 88 b4
       -0.015314122 -0.024087714 0.0155166425 -2.5389156e-07
000180 99 a0 ae bb 54 11 67 3c 3d 72 87 bb 7d 94 85 bc
       -0.0053292033 0.014103252 -0.0041334913 -0.016306156
000190 a8 02 af 3c 94 9b 9d 3b 78 34 4d bc 12 6f af 11
       0.021363571 0.004809806 -0.012524717 2.7678584e-28
0001a0 48 49 84 b8 91 ed 7e b9 df a5 61 3c 35 04 a8 bb
       -6.3079e-05 -0.00024311828 0.013772457 -0.0051274546
0001b0 02 90 90 bb 3f e9 05 32 a7 bb b5 81 30 50 9b ba
       -0.0044116983 7.794653e-09 -6.6758167e-38 -0.0011849459
0001c0 ee a9 fb bb a5 a5 71 32 9f aa c4 3a 51 85 f3 82
       -0.0076801693 1.40657095e-08 0.0015004462 -3.578216e-37
0001d0 51 5f 21 3c 6a 16 67 bb 3c 1b b5 3b 38 ce 46 bb
       0.009849385 -0.0035261163 0.005526928 -0.0030335318
0001e0 72 4e 28 3c e6 ea 1e bb ec 71 cc bb ff f9 1f 3b
       0.010272609 -0.0024248897 -0.0062391665 0.0024410484
0001f0 47 91 1c 3b 12 19 ba 3c 5b de 75 3b 8c 72 4a 3c
       0.0023890303 0.022717033 0.0037516567 0.012356412
000200 d8 7c 07 3b 6b c0 01 27 67 c6 86 3a a9 4f b3 bb
       0.0020673778 1.8006656e-15 0.0010282517 -0.0054721427
000210 db 64 8b 3b 4d e5 38 b6 22 06 04 bc a0 2e 5d 19
       0.0042539663 -2.7551607e-06 -0.008058103 1.1434848e-23
000220 e5 64 5b bb 08 a6 36 bb d5 67 82 b4 a6 78 88 03
       -0.0033476886 -0.0027869958 -2.4289935e-07 8.021061e-37
000230 ef f5 cc 34 a7 02 c0 bb c9 aa 15 bc 31 c4 46 ba
       3.81769e-07 -0.005859691 -0.009134957 -0.00075823354
000240 f9 10 2f 3b 0c a5 ec b9 3a 4b 8e 3b 3b 62 43 39
       0.0026712997 -0.00045136397 0.004342464 0.00018633243
000250 da 0b c2 ba f6 61 2e bb c4 49 dd 3b c5 bf aa b9
       -0.0014804557 -0.0026608682 0.0067531783 -0.00032567806
000260 11 5f d3 33 0d b9 43 33 6b 96 0f 3c 4a e9 d6 ba
       9.8427456e-08 4.5570278e-08 0.00876389 -0.001639643
000270 94 51 d4 b9 47 02 43 bc e7 93 4e 3b 32 b7 03 bc
       -0.0004049657 -0.011902398 0.0031521262 -0.008039283
000280 a3 01 74 3a 83 62 b0 3b f7 55 01 bb 01 95 ef 30
       0.0009308105 0.0053828373 -0.0019735077 1.7431888e-09
000290 b1 2c 0f 03 53 03 ed ba 4f 3b bd bb a9 b1 6d 34
       4.2075226e-37 -0.0018082656 -0.0057748924 2.2136977e-07
0002a0 db e5 2d bc 11 ee 6d 3b c1 6a 61 bc 58 e6 d7 29
       -0.010613884 0.0036305229 -0.013758362 9.587876e-14
0002b0 81 1a 5e 3b e9 3d 40 b2 a8 37 de bb 9a 3b 64 33
       0.003389031 -1.1189948e-08 -0.006781537 5.3139594e-08
0002c0 0e 07 9f ba a4 4e fb 24 fa 19 ea bb 00 a8 91 3b
       -0.001213284 1.0898712e-16 -0.00714421 0.004445076
0002d0 24 90 8d bb 5f d9 a0 aa b3 24 9d bb 78 41 20 3b
       -0.0043201614 -2.857254e-13 -0.0047956347 0.0024453085
0002e0 c5 3a 34 ac 46 94 46 3b de 53 87 ba 27 59 14 3b
       -2.5612162e-12 0.003030078 -0.0010324677 0.0022636147
0002f0 68 9b 0a bb a1 33 91 3b b9 c4 b2 3a b0 e6 58 bb
       -0.0021149758 0.0044312035 0.001363895 -0.0033096485
000300 c4 49 c2 bb 68 4d 43 bc 01 ca c6 bb 5d bd df ba
       -0.0059292037 -0.011920311 -0.006066561 -0.0017069984
000310 95 06 63 3b c1 6f d5 3a 8a b8 2c 3c 72 b3 2b bb
       0.0034641374 0.0016283916 0.010542044 -0.0026199487
000320 e9 13 30 bb 03 de 2a ba b3 25 b3 3b 0d b0 b4 3b
       -0.0026867336 -0.00065180677 0.0054671406 0.005514151
000330 07 7f 14 03 81 5f 11 3b 5f 53 d2 3b 4b 41 0e 3c
       4.363911e-37 0.002218217 0.00641863 0.008682559
000340 76 3f 0d 3c e1 2b ac 3b ce 36 31 3c dd 2e 1c 3b
       0.008621087 0.005254254 0.010816289 0.0023831644
000350 58 cf aa 37 88 98 d7 3b 79 51 15 bb cc 8e 09 3a
       2.0362131e-05 0.0065794624 -0.0022784157 0.00052474136
000360 4c 47 a9 bb 01 8f 25 bb b8 53 03 bc 9d 9f 5d ba
       -0.00516597 -0.002526224 -0.008015566 -0.0008454265
000370 5a 76 c2 ba 40 ab 46 bc 72 9f 80 bb fa f3 d0 32
       -0.0014836297 -0.01212579 -0.0039252574 2.4325335e-08
000380 c5 82 f4 bb f2 ce 79 bb d0 7e 07 bb 6f 26 96 bb
       -0.007461878 -0.0038117734 -0.0020674951 -0.0045822184
000390 c0 f0 2f 3c 28 03 52 3c d1 0a c4 bb 7c 57 6d 90
       0.010738552 0.012818135 -0.0059827347 -4.6807404e-29
0003a0 7b 0a 27 b6 60 e8 24 b9 4e 77 8a 3b f3 ed c9 b9
       -2.489104e-06 -0.00015726825 0.004225648 -0.00038514994
0003b0 e1 d9 98 bb 48 86 64 af 41 37 de 81 70 87 1b bb
       -0.004664645 -2.0784185e-10 -8.1629206e-38 -0.002373185
0003c0 a9 34 90 3b 9e f6 a5 b4 64 c6 b7 bb 3e 3f 70 0f
       0.004400809 -3.0913083e-07 -0.005608367 1.18450936e-29
0003d0 91 e7 f1 ba f1 ca d2 3b 30 89 25 3b 1a 62 d9 ba
       -0.0018455853 0.006432884 0.0025258772 -0.0016585023
0003e0 a0 6d 94 ba 31 8d a3 bb ab 6d d1 bb c7 43 bd 3b
       -0.0011324175 -0.0049911966 -0.0063912473 0.005775902
0003f0 f2 ba ca ba 72 22 1f bc b7 44 05 3c bd fc 0b 3c
       -0.0015467091 -0.009712802 0.008134059 0.008544144

fc_mu.bias f4 [8]
000000 69 3a 31 bc 7e 46 0d 3c bf 36 a6 3c bb 29 13 3c
       -0.010817149 0.008622764 0.020289777 0.008982117
000010 d8 62 7c 3c c4 63 21 ba 31 22 da 39 33 85 d9 bc
       0.015404426 -0.0006156529 0.00041605675 -0.026552772

fc_logvar.weight f4 [8, 128]
000000 c4 7c 4a bb d9 d3 18 84 91 a2 6a bb ba ef a6 bb
       -0.003089712 -1.796479e-36 -0.0035802464 -0.0050944956
000010 6e f4 77 3b 5f 2c 09 b5 6a c8 6c 3a ff 04 8d 03
       0.00378349 -5.1101046e-07 0.00090325496 8.288382e-37
000020 b0 69 c6 3a 7f 2a 37 b6 45 4b 93 21 61 f9 89 82
       0.0015137699 -2.729386e-06 9.981031e-19 -2.0273477e-37
000030 1b d0 b1 95 91 03 e6 ba 17 7b b6 ba 1c ca df ba
       -7.1818063e-26 -0.001754867 -0.0013922182 -0.0017073783
000040 3d 4d d2 38 9e 12 43 3b 4a 0a 31 bb 6b c7 15 b4
       0.00010027967 0.0029765735 -0.002701419 -1.3949254e-07
000050 0d dc 4e 3b dc 6a 10 bb b6 e8 17 bb 77 9d 96 bb
       0.0031564266 -0.002203635 -0.0023179478 -0.004596408
000060 ce 4f 06 2a cb ee 01 9f 6f f9 e4 3a 19 ff 1f 3b
       1.1929279e-13 -2.7514337e-20 0.0017469357 0.0024413525
000070 80 37 38 3b fb 38 c9 3b 4f 80 87 3a eb bc ba 39
       0.0028109252 0.006140826 0.0010337922 0.0003561744
000080 f9 61 af ba 84 a7 c4 bb 79 3f 98 39 64 10 d2 af
       -0.0013380639 -0.0060014147 0.0002903899 -3.8210424e-10
000090 80 32 b8 01 86 50 53 b9 d2 8b 38 3b 1f ca ab 9f
       6.766339e-38 -0.00020152525 0.0028159511 -7.27557e-20
0000a0 83 61 22 bb 43 52 18 3b 68 9f 0e 3b b3 88 19 04
       -0.002477736 0.0023242391 0.0021762494 1.8047833e-36
0000b0 8b 8f 24 3a 27 25 3d 9d 2f c3 aa ba 37 f0 1e 84
       0.0006277493 -2.503315e-21 -0.001302814 -1.8683112e-36
0000c0 c9 7f 98 39 f9 1c 64 0e 33 b8 c6 bb 02 c2 f2 ba
       0.00029086907 2.811712e-30 -0.0060644387 -0.0018520954
0000d0 ce fb e6 ba 4a bf 87 83 d6 51 8f b9 20 ad 0c 3b
       -0.0017622651 -7.978505e-37 -0.00027336058 0.0021465495
0000e0 bb ff 54 10 fd 3f e0 ba e0 e5 af ba 89 6a 8a ba
       4.2006636e-29 -0.0017108914 -0.0013419949 -0.0010560314
0000f0 26 18 da 3b 6d 2b e0 b9 d4 4d 22 3a 18 3c 7f bb
       0.0066557107 -0.00042756964 0.0006191407 -0.003894573
000100 f2 55 69 3b 72 32 53 bb a1 9d 67 bb 09 1a bb ba
       0.0035604206 -0.0032226113 -0.0035341757 -0.0014274727
000110 92 05 74 ba 6d 2e eb 3a 97 8e c0 ba 43 d0 71 3b
       -0.00093086914 0.0017942913 -0.0014690933 0.0036897815
000120 70 08 5a 3b 35 b5 2f 3c b6 c4 10 bb 0a 1c b5 ba
       0.003326919 0.0107243555 -0.0022089905 -0.001381756
000130 32 d4 a5 01 76 a1 05 bb 7d a9 30 ba c0 31 32 3b
       6.0915913e-38 -0.0020390428 -0.0006739123 0.0027190298
000140 cf 7e 3a 3b bd ef d1 ba a1 4c 8f bb f0 aa 4d bb
       0.0028456931 -0.0016016882 -0.0043731485 -0.0031382404
000150 32 f2 00 29 31 df 67 39 10 4b b5 3a e3 68 e6 39
       2.863178e-14 0.00022113022 0.0013831574 0.00043947165
000160 2d eb 8d ba ff 44 1e 39 f6 c3 4c 3b 18 a4 0e 3b
       -0.0010827534 0.00015093757 0.0031244732 0.0021765288
000170 0e 52 77 bb 24 76 dd ba 3d 39 a9 ba 71 7a fb 9f
       -0.0037738117 -0.001689617 -0.0012910735 -1.065052e-19
000180 97 a4 47 3b 4e 63 56 bb 52 03 02 3b 13 83 93 ba
       0.0030463093 -0.0032712999 0.0019838405 -0.0011254273
000190 32 3d 53 ba 72 bf 89 39 f4 58 6d 3b 3f f7 06 04
       -0.000805813 0.00026273314 0.003621635 1.5865154e-36
0001a0 0a c0 66 2b a9 f1 d5 b2 58 ff d7 ba b4 ff a2 3a
       8.197892e-13 -2.4906358e-08 -0.0016479297 0.0012435825
0001b0 7a c9 34 3b 75 65 60 a8 39 4c 9b 81 d3 73 a7 bb
       0.002758591 -1.2456498e-14 -5.704738e-38 -0.005110243
0001c0 aa 24 34 ba 1e 39 6c 1c c5 35 60 ba 98 bb 03 83
       -0.00068719184 7.815967e-22 -0.0008552934 -3.8712787e-37
0001d0 f0 4a 6d 3b d4 8c 69 3a 81 37 73 b9 c2 f1 2d bb
       0.0036207996 0.00089092297 -0.00023194963 -0.0026541804
0001e0 c7 1d b6 3b dd 86 ed ba 19 2d 3f 3b 61 de 05 bb
       0.005557749 -0.0018121857 0.0029171167 -0.0020426738
0001f0 4a 31 0b 3b e3 c6 23 bc 9a 91 82 3a fe bd af bb
       0.0021239095 -0.009996149 0.0009961606 -0.005363225
000200 8f de ef 3a bc 47 40 8e 78 0e 2b bb 75 d8 af 38
       0.001830058 -2.3700366e-30 -0.0026101153 8.3849685e-05
000210 4d 54 37 3c 93 d5 14 b5 1e 18 20 3b 78 88 95 83
       0.0111895325 -5.544509e-07 0.0024428437 -8.788765e-37
000220 26 27 ee b9 24 ad ec 39 19 15 01 a4 a5 1b 89 02
       -0.00045424065 0.00045142428 -2.7990286e-17 2.0146208e-37
000230 a7 14 97 1e 73 d4 db 37 52 6e a1 b8 2d 48 94 bb
       1.5996288e-20 2.6205764e-05 -7.697627e-05 -0.0045252056
000240 f9 2d a0 3a 4f 83 d8 3a ba 77 d2 b9 74 e5 0c 35
       0.0012220732 0.0016518625 -0.00040143525 5.248796e-07
000250 c2 d7 cf b9 00 43 ac 3a 43 a7 3c bb 5c 75 ec 38
       -0.0003964287 0.0013142526 -0.002878622 0.00011275217
000260 e1 0e 9b 28 64 fe 81 a4 97 c5 98 3b 53 2e cd 3a
       1.721491e-14 -5.6375787e-17 0.0046622264 0.0015654064
000270 08 7d 3f 39 b4 28 17 bc 9b 86 67 3a f9 11 8a ba
       0.00018261757 -0.009226013 0.00088320085 -0.0010533921
000280 1a d1 e2 ba 89 4c c7 bb 90 5b bd 3a 7f ae 14 2f
       -0.0017304749 -0.0060821217 0.0014446843 1.3522515e-10
000290 9a 9b a7 01 99 61 66 b8 56 e3 57 39 24 ed d4 a6
       6.156939e-38 -5.4927168e-05 0.00020588687 -1.4774732e-15
0002a0 46 03 7f 3b 3b 5b 8d ba 75 4a aa 3a ec 6c 8f 8d
       0.0038911863 -0.0010784635 0.0012992161 -8.839277e-31
0002b0 59 35 1e ba 2c ac 1b 19 0f d7 a2 3a c7 66 0c 8c
       -0.0006035171 8.048082e-24 0.0012423712 -1.0816136e-31
0002c0 9b 00 e4 ba cf 5e 9d 10 54 3c cd bb 4f ce 47 bb
       -0.00173952 6.2071657e-29 -0.006263295 -0.003048796
0002d0 db 43 d8 ba 0c 35 1c 84 47 79 f1 3a 4e 1b 5a b8
       -0.0016499715 -1.836207e-36 0.0018422984 -5.200068e-05
0002e0 29 c4 39 a0 d2 ed d6 39 cb 68 46 3a c2 0f 3f 3b
       -1.5735013e-19 0.0004099445 0.0007568716 0.002915368
0002f0 b7 48 c9 3b 7d 88 b5 39 a4 ff d9 ba 80 97 ee 39
       0.0061427015 0.00034624702 -0.0016631973 0.00045507774
000300 b1 15 01 bb f9 f2 0c ba 5f 38 19 3a df 16 8f bb
       -0.0019696767 -0.0005376782 0.0005844887 -0.00436674
000310 be be f7 3b 46 df 15 3b 7f 14 83 3a ce 91 67 ba
       0.00756058 0.0022868677 0.0010000615 -0.0008833677
000320 66 b4 bd ba dd 71 ff 3b c6 41 4a bb b1 c2 02 bb
       -0.0014473319 0.007795556 -0.0030861958 -0.001995247
000330 dc 51 e8 81 d2 02 e2 bb 25 41 2c 3a 39 b8 77 ba
       -8.5340803e-38 -0.006897309 0.00065709866 -0.00094497536
000340 c8 ca 5a 3a 3a 0b fc 3a e0 6c 80 b9 d0 64 f3 3b
       0.0008346257 0.001922942 -0.0002449518 0.0074277893
000350 ae 20 80 2d 0e 24 62 ba 22 14 67 3b ac d4 92 39
       1.4566428e-11 -0.00086265884 0.0035259803 0.00028005743
000360 96 ee 32 bb e3 79 b0 39 09 c8 e7 3a a2 5e d9 ba
       -0.0027302853 0.0003366015 0.0017683516 -0.0016583989
000370 ca 9e 53 3b 92 31 bd bb 0a 9c 65 ba 8d 16 60 a3
       0.003229069 -0.0057737315 -0.00087589084 -1.214784e-17
000380 fa 45 e4 3a a8 59 d0 ba bf 14 9f 3a 05 7a d8 bb
       0.0017415874 -0.001589586 0.001213692 -0.0066063427
000390 ae b0 d4 3b 22 e5 36 bb ff b6 c8 39 74 e8 23 89
       0.0064907884 -0.002790757 0.00038283315 -1.972971e-33
0003a0 bb cd ea aa cd 26 7b b1 3a 20 05 bc 5c d5 69 ba
       -4.1709504e-13 -3.6547363e-09 -0.008125359 -0.00089200377
0003b0 ab ce 3c 3b a4 65 32 ab 0a db cd 81 46 58 17 bc
       0.0028809707 -6.337936e-13 -7.561941e-38 -0.009237355
0003c0 35 9a 65 ba 37 6e b3 9f e3 37 7d 3a 84 8d 7e 02
       -0.00087586354 -7.5991784e-20 0.0009659512 1.8701586e-37
0003d0 9f 9c 43 3b 25 91 a0 3a 9d 76 27 3b e3 8c 65 bb
       0.0029847992 0.0012250288 0.0025552877 -0.0035026602
0003e0 69 96 2b 3c b6 16 ad 3a b7 b9 86 3b 2b 67 6f bb
       0.010472872 0.0013205621 0.0041114944 -0.0036529999
0003f0 ca 11 84 3a b9 24 0b bc 29 28 ca 3a f5 69 80 3b
       0.0010076102 -0.008492642 0.0015423346 0.003918881

fc_logvar.bias f4 [8]
000000 bd 91 bc ba ad df 8e bb a6 4f 9d bb ed f1 f7 ba
       -0.0014386695 -0.0043601603 -0.0048007546 -0.0018916704
000010 10 1b 55 bc d2 8a 5e 3b 7a b6 26 bb f7 87 6e be
       -0.0130069405 0.0033957255 -0.0025438354 -0.23294054

decoder.0.weight f4 [128, 53]
000000 70 70 ea bb d8 e9 04 3b ee eb d1 3c 8f 6e 5e 3c
       -0.007154517 0.0020280983 0.025625195 0.013576164
000010 51 c1 48 3d 0f 49 d3 3a 02 c0 3e bb 8f 71 1f be
       0.049012486 0.0016119796 -0.0029106145 -0.15570663
000020 35 b0 4e bd 1c 31 b7 3d cb d9 40 3e 8c d4 49 3d
       -0.050461013 0.08944914 0.18833081 0.049274966
000030 0a 3a e0 bd 3c 58 30 bb 24 e4 80 bd 1e e2 be 3c
       -0.1094857 -0.002690806 -0.06293514 0.02330118
000040 6e ec 95 bc e1 7e 0e 3c fd 79 cd bd ee 1c e1 bc
       -0.018301215 0.0086972425 -0.10033033 -0.027479615
000050 9b 87 20 be 55 3b 1b bc b9 6f 88 3d 51 9b 00 bb
       -0.1567673 -0.009474595 0.066619344 -0.0019623826
000060 c2 03 06 3d ff ee dc bc 8c 34 f5 bd 4e 6d aa 3d
       0.032718427 -0.026969431 -0.11972913 0.083216295
000070 6b 94 6c bc 5e e5 07 3d 39 ac a4 3d d6 4a 98 3d
       -0.0144396825 0.033177726 0.08040661 0.07436149
000080 16 6a 00 3e 12 24 90 3e bf f1 87 3d 82 37 1f 3e
       0.12540469 0.2815252 0.06637906 0.15548518
000090 99 ab b7 bd a9 27 01 3d 42 58 f5 bc 60 19 cf bc
       -0.089682765 0.031531963 -0.029949311 -0.025280654
0000a0 f3 4b ff 3d 17 f3 a0 3b 21 89 73 bd b0 2c d0 bb
       0.12465658 0.004911791 -0.05945695 -0.0063529834
0000b0 c6 8b 28 3c 24 22 14 01 9e ee 93 bd 42 83 83 bd
       0.010287231 2.7207802e-38 -0.07223247 -0.0642152
0000c0 d6 60 df 3d 77 fb 0a 3e dc 03 2e 3e 58 a0 90 bd
       0.10907142 0.13572489 0.1699366 -0.07061833
0000d0 05 3d d8 bc ec 9d 9a bb a1 47 08 bc c2 3a 32 bb
       -0.026396284 -0.004718533 -0.008317859 -0.0027195667
0000e0 39 2e 71 3b 51 b3 a1 3b 92 a1 10 3a fd 85 2a 3c
       0.0036801232 0.0049347063 0.000551724 0.010407922
0000f0 b1 ba c4 be 40 2c 36 bd ac 68 9d 3c 7b e6 22 bd
       -0.38423684 -0.044475794 0.01921495 -0.039770585
000100 87 ab 6f bd 22 b9 95 bd 32 2d a5 bd 5c bd f8 3c
       -0.05851319 -0.07310702 -0.08065261 0.030363731
000110 6d 6c 18 3c 29 6e ca 3c 4d 71 a1 bd db 72 5a 3c
       0.0093031945 0.024710732 -0.078829385 0.013333048
000120 15 7b 95 bc 16 51 6e bc e6 55 a6 3c 9c 84 93 3c
       -0.018247167 -0.0145457 0.020304631 0.018007569
000130 66 6a 77 bd 2a ea cf 3c 99 6a 0a 3d 34 e8 9d bc
       -0.060404204 0.025380213 0.033793066 -0.019275762
000140 91 60 7f bc d5 a4 35 3d 06 ed 4a 3d 4f 1c 31 bd
       -0.015586988 0.04434665 0.04954245 -0.043239888
000150 96 84 46 3c 6d f0 92 3d 58 1f 89 3e 5e e0 45 be
       0.012116572 0.07174764 0.26781726 -0.1932387
000160 07 10 01 be a2 66 86 3d cf 7b 0b bd 70 81 26 bb
       -0.1260377 0.065625444 -0.03405362 -0.002540674
000170 e4 4a 20 be f0 f5 95 bc c5 f1 a5 bd 3c 31 3c bc
       -0.15653569 -0.018305749 -0.081027545 -0.011486348
000180 4c db 1c 3d 97 08 2e bb b0 86 82 39 73 b4 71 3d
       0.038295075 -0.0026555413 0.00024895882 0.05900998
000190 42 c6 b8 bc 64 63 8d 3d aa c7 d0 bd 0a 42 25 be
       -0.022555474 0.06903723 -0.10194333 -0.16138473
0001a0 40 b7 13 3d d3 79 96 bc a3 ac 5d 3c 65 b3 28 bb
       0.036063433 -0.018368637 0.013529929 -0.0025741693
0001b0 82 b8 00 3b 51 36 f4 bc 71 35 a9 bc cf 88 38 bd
       0.0019641225 -0.029811056 -0.020655366 -0.045052346
0001c0 66 ba 0f 3c a6 be 40 be f9 49 e7 3d ca 57 b6 3c
       0.008772468 -0.18822727 0.11293406 0.022258658
0001d0 c4 ad 85 3e 10 df e0 bc dc 73 57 3d 08 9a 4b 3d
       0.26109135 -0.027450114 0.052600726 0.049707443
0001e0 6c c7 b9 bc a9 f6 c2 3d a0 09 09 bd 23 82 25 bd
       -0.0226781 0.09519703 -0.033456445 -0.04040731
0001f0 14 19 76 3c 28 21 4b 3d 40 97 c2 3c cf 3b 7b 3d
       0.0150206275 0.049592167 0.023753762 0.061336335
000200 35 22 16 bd 8f 10 9a 3d b3 32 27 bd 6f 81 f5 bc
       -0.036653716 0.075226896 -0.040819835 -0.029968945
000210 f2 2a 98 bc f4 fe 96 bd 71 bf 22 3e 6d 99 7b bd
       -0.018575165 -0.07372847 0.15893342 -0.061425615
000220 77 27 85 bd 41 90 05 3e 46 8c a2 3d 48 15 13 3e
       -0.06501668 0.1304331 0.07936911 0.14363587
000230 cc d9 79 bd 37 fe 58 3b bf 7a d3 3d 9e a4 c1 bc
       -0.060998723 0.0033110508 0.10326146 -0.023638066
000240 16 85 c5 3d 40 78 24 3d 1c 9a 9c bd 65 75 2e bd
       0.09644525 0.04015374 -0.076465815 -0.042592425
000250 be 01 fa bd 3d 75 3f bd 37 82 8d bd 41 0c 71 3d
       -0.122073635 -0.046742667 -0.06909602 0.058849577
000260 6e 5d 4c bc 55 8e 9f bd af 27 f3 bc 8e f7 11 3e
       -0.012473447 -0.077908196 -0.029682009 0.14254591
000270 f5 23 e0 3d d6 3a b6 3c dd d9 2c bd 63 33 dd 3b
       0.10944358 0.022244852 -0.042199958 0.0067505105
000280 77 16 c6 bc f6 f4 cb 3c 90 55 09 3d 34 c5 69 3d
       -0.024180634 0.02489708 0.033528864 0.057072833
000290 ff ea 08 bb 78 b8 9e bb 62 e3 98 be e7 b2 0c 3e
       -0.0020892022 -0.0048437677 -0.2986098 0.13740121
0002a0 c3 81 ed 3d 0a 6a 0f 3e 7f c8 ce 3c f5 83 61 3d
       0.11597016 0.14005294 0.025242088 0.055057485
0002b0 f0 76 4e 3c 5b e7 f6 bd 5e 73 ee 3d b9 21 8d 3d
       0.012601599 -0.12055846 0.11643098 0.06891198
0002c0 26 46 dd bc 7d 89 16 bc 2c 98 a8 bb ff bd d7 bc
       -0.027010988 -0.009188053 -0.0051450934 -0.026335714
0002d0 a2 fa 47 bd eb d9 d4 3b 2e 72 16 3d 20 d8 4a bc
       -0.048823006 0.0064957044 0.036729984 -0.01238063
0002e0 c0 45 92 3c 51 89 01 3d cc 18 cc bd 47 bd f3 bc
       0.017855525 0.031625096 -0.09965667 -0.02975334
0002f0 92 4d 89 bc 4a c7 fe 3d 40 77 b7 3c 1d 25 ff bc
       -0.016760621 0.12440355 0.02239573 -0.031145627
000300 b0 68 15 3e 4f f8 9b bd 6d c9 ca bd 3e 59 b1 bd
       0.14590716 -0.076157205 -0.099017 -0.086596
000310 34 7e 06 3d a7 79 4a bd 8f 5b 00 3e 35 e0 58 3d
       0.0328352 -0.049432423 0.12534927 0.052948195
000320 ca 60 2c 3d f2 81 97 bd 9e 18 50 bc 25 03 b8 bd
       0.042084493 -0.07397832 -0.012701182 -0.08984975
000330 7b b3 fe 3b da e6 fb 3c d2 7a d0 3b a5 40 a3 3c
       0.0077728606 0.030749727 0.0063622976 0.019928286
000340 72 96 10 3e ae e3 03 3e fe 9e 77 3c 2c f7 47 bd
       0.1411989 0.12879822 0.01511359 -0.048819706
000350 22 ca e1 3b 9c 06 05 b9 82 04 ab bc 56 79 0a bc
       0.006890551 -0.0001268633 -0.020876173 -0.00845178
000360 16 13 4f 3c 68 8d eb ba 90 88 6c bc 6a 87 57 be
       0.012638828 -0.001797122 -0.014436856 -0.2104775
000370 8f 25 cd 3c c7 9a 54 bd d8 4d cf 3d 70 13 56 3c
       0.025042323 -0.05190542 0.101222694 0.013066158
000380 35 75 7c 3d bd f9 d1 bb bc 85 e7 bc 18 26 9c 3d
       0.061635215 -0.006407945 -0.028262012 0.07624453
000390 ce 8e b3 bd 72 7e 2f 3d 8b 32 d3 bd c5 96 03 be
       -0.08767472 0.042845197 -0.10312375 -0.12850483
0003a0 d7 f6 22 3d 04 be a9 bd 94 34 08 be 90 f4 e6 bc
       0.039786186 -0.08288196 -0.13301307 -0.028192788
0003b0 07 f8 11 bd 76 f9 31 3d 74 70 62 bc 04 bc 98 bd
       -0.035636928 0.043450795 -0.013820756 -0.07457736
0003c0 6a c5 c5 bc 3b 10 d0 3d 8c a2 1f 3d 18 42 b7 3d
       -0.024141986 0.10159346 0.038973376 0.08948153
0003d0 60 6f bd bb 89 4b e1 3d fe 33 aa bd 09 14 1a 3e
       -0.005781099 0.11000735 -0.08310698 0.15046705
0003e0 36 fc 63 bd fb 73 60 bc d3 1f c2 3c b7 d9 a9 3c
       -0.05566045 -0.013699527 0.023696816 0.020733697
0003f0 f5 8c 63 3d 53 50 93 bd 9b f7 30 bd 50 7f 05 3b
       0.05555435 -0.07193055 -0.043204885 0.0020370074

decoder.0.bias f4 [128]
000000 f5 b1 b6 3d 60 d4 14 be c0 d7 f9 bc 65 70 e8 bd
       0.08920661 -0.1453414 -0.030498385 -0.113495626
000010 5e 8f b0 3d 16 e7 cf 3d aa b7 08 bd 68 c6 2b 3d
       0.08621095 0.10151498 -0.03337828 0.04193726
000020 70 46 db bd 56 d2 64 bd f1 b1 5a 3c 1b 81 7a be
       -0.10706794 -0.055864654 0.013348089 -0.24463312
000030 92 fa e1 3d 34 cc dc 3c 2e e1 40 bd 2c b0 0f bd
       0.110341206 0.02695284 -0.047089748 -0.03508012
000040 d7 46 12 bd 93 6f 54 3c bd 6a b4 3d 79 7c ec 3d
       -0.03571209 0.0129660545 0.08809421 0.11547179
000050 0f 36 85 3c b0 2c 92 3d fd 1f 9e 3d 7d 2c 8e bc
       0.016261129 0.0713743 0.07720945 -0.017355198
000060 13 c9 12 3e bf 98 3c 3e 4d 1a 27 3e 9a 9d 8a bc
       0.14334516 0.18417643 0.16318627 -0.016920853
000070 7e b2 09 bd 13 a3 9c bc 5c 64 40 be d0 cd 91 bd
       -0.03361749 -0.019120729 -0.18788284 -0.07119334
000080 eb f3 e5 bd a9 3d 9a 3d 64 59 83 3c ff 48 5b bd
       -0.11228164 0.07531292 0.016033836 -0.05353641
000090 d1 a5 41 3b 59 9a 07 3e 2f e2 b4 bd c4 52 ff bd
       0.0029548297 0.13242473 -0.088322036 -0.12466958
0000a0 d0 9e b2 bc 0e f5 45 3e 5f 09 3c 3c b9 d1 e5 bc
       -0.021804243 0.19331762 0.011476844 -0.028054105
0000b0 f7 f2 3f 3d f0 57 07 3d 8f 42 99 bd 47 6e e1 bd
       0.04686257 0.033042848 -0.07483398 -0.11007362
0000c0 1d 94 4d bd 91 48 ea 3d d1 af 8a bd 10 f3 c4 bc
       -0.05019008 0.11439622 -0.067718156 -0.024041682
0000d0 f6 93 15 be c0 26 1c 3e 82 90 1d 3d cd ce 83 bd
       -0.14607224 0.15249157 0.03846789 -0.064359285
0000e0 4f 88 dd bc 2d 54 c9 bd 11 06 c9 bc fb c2 9d bd
       -0.027042536 -0.098305084 -0.024539026 -0.07703205
0000f0 66 0d 4f 3d e9 99 95 bc e6 6a c9 bc 21 b3 37 3e
       0.050549887 -0.018261867 -0.024587106 0.17939426
000100 37 30 95 3b 41 68 01 3d 01 65 90 3d fd a9 00 be
       0.004552867 0.031593565 0.07050515 -0.12564845
000110 87 65 ba 3d 75 71 9a 39 19 dc 1f be 37 45 c2 bc
       0.09101396 0.000294577 -0.15611304 -0.023714645
000120 53 13 e0 bd d5 83 1b bd 96 94 73 bd f5 1c 76 bd
       -0.10941186 -0.03796752 -0.059467874 -0.06008621
000130 ca b5 f5 3d 18 87 eb bd 1c 82 51 be 55 a3 20 3e
       0.11997564 -0.115003765 -0.20459789 0.15687306
000140 44 03 ae 3d 8e f4 c9 bc bd 0d 9a bd f6 46 01 bd
       0.084967166 -0.024652746 -0.075221516 -0.031561814
000150 86 f9 af 3d 3c 27 c6 3d f2 b6 1b 3e 6e d1 13 bd
       0.08592515 0.09675452 0.15206507 -0.0360884
000160 1f 32 96 bc 0e d7 bb ba 2a e6 4a 3d 07 ea 08 3d
       -0.018334446 -0.0014331059 0.049535908 0.03342631
000170 59 8e ad bd 94 e2 c8 bd 3c a6 99 bd de 39 64 be
       -0.08474416 -0.09808841 -0.0750241 -0.222877
000180 c5 59 fe 3c fa 1f f1 bc ed 8e f2 3d 45 2d c2 bc
       0.031048665 -0.029434193 0.11843667 -0.023703227
000190 9e 4e 19 be 5b cd 82 3d d4 2a 3a 3d ca 00 d7 3d
       -0.14971396 0.06386825 0.045451 0.104981974
0001a0 d3 9d 7f 3d ff 4b 4f 3d eb e0 28 bd b3 ae ee 3c
       0.062406372 0.050609585 -0.041230123 0.029136037
0001b0 0e ec ad 3d 0b 8b 97 3d 93 de 8b bd 03 5f 91 3c
       0.084922895 0.07399567 -0.06829562 0.0177455
0001c0 26 1a ec 3d 16 7f 87 3d 93 66 fa 3d 5c 78 08 be
       0.11528425 0.066160366 0.12226596 -0.13327163
0001d0 e9 d9 0e 3e 15 b7 37 bb 90 03 79 bd 98 f2 40 bc
       0.13950314 -0.002803271 -0.060794413 -0.011776589
0001e0 f1 63 9a 3d 58 5b 00 be fd 62 18 3b 02 9a d6 3c
       0.075385936 -0.12534845 0.002325236 0.026196484
0001f0 89 f7 8e 3c 0d a2 1f 3e d0 39 3f bd 3c a0 92 3b
       0.017452018 0.15589161 -0.046685994 0.004474668
