models/cvae_L2_H32_B0.100_LR1e-03.pt (torch, 42485 bytes, 13 tensors)

encoder.0.weight f4 [32, 46]
000000 3b f5 c8 be 0c 78 de 3c 84 8f df 3c 97 82 d3 3e
       -0.39249596 0.027156852 0.027290113 0.4131057
000010 0a 87 89 bc b2 af 87 bd f2 b2 84 3d 3b 60 32 bd
       -0.016788024 -0.06625308 0.064794436 -0.043548804
000020 b6 a7 38 3c 46 fd 38 3c da 13 bd 3c 40 77 6e bb
       0.011270454 0.011290854 0.023080755 -0.0036386997
000030 a6 c7 03 3e 04 de 0a 3d be 19 af bc e6 2d a3 3b
       0.12869129 0.033903137 -0.02137458 0.0049798368
000040 e5 1f 6e 3a 3c 0f 72 bc c5 4c 0c bd 9d 22 23 bd
       0.0009083732 -0.01477414 -0.0342529 -0.03982793
000050 eb 6b 1f 3d 9f ed 59 3d bd 58 b0 bd 5b fb 50 3d
       0.038921278 0.05320513 -0.086106755 0.05102096
000060 42 88 29 3e 22 86 6a 3d 6e eb b2 3d 7d f1 92 3c
       0.16555884 0.057256825 0.08736311 0.017937416
000070 df 10 3b 3e d3 b5 cb 3c cf eb 39 3d 74 15 99 3d
       0.18268155 0.024866974 0.0453909 0.07474795
000080 11 3b af bc 0c 4b d8 3d 57 06 8c 3c 3e 9a 0a 3e
       -0.02139047 0.10561189 0.017092867 0.13535401
000090 b3 ce e2 3d 26 e3 b9 3d 5f d7 fd bc fd af 33 3e
       0.11074581 0.09076528 -0.030986486 0.17547603
0000a0 3a 1c b1 3d 32 80 79 3d b8 6f 24 3e 46 dc cd 3d
       0.08647962 0.060913272 0.16058242 0.100517794
0000b0 ca e7 4f 3d cd 73 ba bc ba 12 a2 be d8 86 81 ba
       0.05075816 -0.022760296 -0.31654912 -0.0009882106
0000c0 05 b4 97 3c ff b4 96 bb df b2 e7 ba d7 e4 b0 bd
       0.018518457 -0.004599213 -0.0017677209 -0.08637398
0000d0 d1 f5 1e 3e c9 a8 b8 bc 2e e9 25 3d 19 6f 2b bb
       0.15523459 -0.02254142 0.04050558 -0.0026158749
0000e0 dd 54 ce ba 7d 77 58 3d 41 a6 3f bd e4 cf 9e bd
       -0.0015741844 0.052848328 -0.04678941 -0.07754496
0000f0 42 be c7 bd 04 68 a6 bb 2d 73 c5 3a 05 bb d1 3b
       -0.09753086 -0.0050783176 0.0015064232 0.0064004683
000100 4d 22 e3 bb 44 1b d1 3c 2d 7b 6a 3c 51 42 b9 3d
       -0.006931579 0.025525697 0.014311594 0.09045852
000110 21 e0 20 bd b3 39 1e bd 09 c0 b2 be dc 60 85 3d
       -0.039276246 -0.038629245 -0.34912136 0.06512615
000120 c5 bd f6 bd d3 79 10 be 59 22 39 b6 00 b8 8c bd
       -0.120479144 -0.14108972 -2.7587141e-06 -0.06871033
000130 42 5d e3 3c 53 1f 51 3d e2 33 60 bd bb 4b 3b bd
       0.02775443 0.051055264 -0.05473698 -0.04572652
000140 cb 25 95 bd 93 ce b1 bd b5 f1 d8 b4 c9 ce b7 3d
       -0.07282599 -0.08681979 -4.0409e-07 0.08974988
000150 e7 11 a6 bd b0 2d 45 3d 54 3a 89 3c 9b a8 08 3d
       -0.08108883 0.048139274 0.016751446 0.03336392
000160 65 a6 89 3d 54 88 16 3d 86 c5 9e bd 46 81 4b bc
       0.0672119 0.036751106 -0.07752518 -0.012420958
000170 7b aa 50 be 2f 0b 4d bd 9e 5c a9 b9 e7 ce ec 3d
       -0.20377533 -0.050059494 -0.00032303197 0.11562901
000180 d7 bb 5c bd cf 90 cb 3d f0 2a 5e bd 68 a7 fe bc
       -0.053890076 0.099397294 -0.054240167 -0.031085685
000190 76 25 61 3d e3 f5 a6 3d fd 06 b6 bd c8 43 38 3a
       0.054967366 0.08152368 -0.08888052 0.0007029143
0001a0 90 fa 7d 3d 12 f6 d4 3b d5 84 6f 3d 53 6e 68 3d
       0.062006533 0.0064990604 0.058476288 0.05674584
0001b0 d3 c8 28 bc d5 9f 95 3d 8a 4d 8a 3c a5 a4 93 bc
       -0.0103017865 0.07305876 0.016882677 -0.018022845
0001c0 4e 14 a2 bd a4 ee bb bc 44 b5 11 3d 69 90 7b bc
       -0.07914029 -0.022940941 0.03557326 -0.015354254
0001d0 96 33 6e be 3a 6d be bd f0 bb f9 3c 0b ca cb 3c
       -0.23261866 -0.09298177 0.030485123 0.024876615
0001e0 9c 70 2f be f9 6c 3b 3d 44 c6 a1 3d e5 90 f0 3d
       -0.17132801 0.04575822 0.07899144 0.117463864
0001f0 ce 37 90 bd 7b 6c de bc 7c 13 05 bd ee fa 98 3d
       -0.07041894 -0.027151337 -0.032489285 0.07469736
000200 14 54 6d 3b ed 70 f0 3d 30 6c 83 bc 76 2c 3a bd
       0.0036213445 0.11740289 -0.016042799 -0.045452558
000210 ab 40 9d 3c cd 68 ac bd 51 94 75 3a 2f 04 2d bd
       0.019195875 -0.08418427 0.0009368109 -0.042240318
000220 0d 5b 46 bc ab c4 e1 3d 64 02 39 3e 32 07 80 bc
       -0.012106669 0.110238396 0.18067318 -0.015628431
000230 e4 88 3a bd 27 e6 0d bf 35 05 54 3c 31 f7 2b bc
       -0.045540705 -0.5542931 0.012940695 -0.010495947
000240 2d 23 8a 3d df b4 63 bd 9c 58 85 3d 55 b6 50 3c
       0.067449905 -0.055592414 0.065110415 0.012738784
000250 e3 b7 9d 3c 7c 68 7c 3d e4 06 13 bd 84 17 24 3d
       0.019252723 0.06162308 -0.035895243 0.04006149
000260 f9 25 23 3d d8 62 3a 3d 07 d4 c4 bc 66 7d 70 bd
       0.039831135 0.04550442 -0.024026884 -0.05871334
000270 a3 6f 1c 3c 13 fc d3 bc 54 56 2c bd a0 cf 04 3e
       0.009548101 -0.025877034 -0.042074516 0.12969828
000280 0e da a1 bd 25 aa a2 bd 40 b6 39 bc 52 9e 90 bd
       -0.07902919 -0.07942609 -0.011334956 -0.07061447
000290 13 5a bd bd c4 0b f2 3d 81 f1 9d 3c 51 9a cb 3b
       -0.09245696 0.1181865 0.019280197 0.0062134643
0002a0 03 33 1f 3d a9 63 b1 3d f6 55 44 3c 50 75 20 3d
       0.038867008 0.08661587 0.011983385 0.039174378
0002b0 3f d5 d2 3d 5b a5 38 3d f3 12 f3 3b 75 ad 28 bd
       0.1029458 0.04507957 0.0074180304 -0.041181047
0002c0 c1 62 a4 bd e8 3b de 3d bd d6 9f bd bb 75 2e bd
       -0.08026648 0.1085127 -0.0780463 -0.042592745
0002d0 7e 56 07 be 9c a1 a7 bd fb 31 37 3e d1 d8 0a 3d
       -0.13216588 -0.081851214 0.1789016 0.03389818
0002e0 4c d5 e5 3d a4 fb a1 3b 9c 6d 34 3c 2d cf b9 be
       0.11222324 0.004943328 0.011012461 -0.36290875
0002f0 92 0c 79 bb 6f 33 c2 bd 76 26 d8 bd 5b 3e a1 3c
       -0.0038001877 -0.094824664 -0.10554211 0.019683054
000300 a5 43 11 3d 07 f3 bf bd 49 e1 e8 3d bc 43 95 bc
       0.0354649 -0.09372526 0.11371095 -0.018220775
000310 0f e9 6a 3d 0e 1b 74 bd bb 0a b2 bb 6c 77 9e bd
       0.05735117 -0.059596114 -0.005433408 -0.07737622
000320 8a 4b 91 3d 7f b1 6e bc b9 54 4d bd 4a 12 6b 3d
       0.07094486 -0.014568686 -0.050129626 0.05739049
000330 43 fe 29 3d dd 07 86 bd 64 ff cc bc ba d3 f4 3d
       0.04150225 -0.065444686 -0.025024123 0.11954446
000340 d1 38 7a 3c 09 32 07 3e 2f 34 91 bc 61 a8 8c 3d
       0.015272335 0.1320268 -0.017725078 0.06868053
000350 f3 7e b3 3d c8 aa 17 bd 89 1c c0 39 d4 02 44 bc
       0.08764448 -0.037028104 0.00036642354 -0.011963565
000360 3f 16 1d 3e f3 74 78 3d 60 a5 fc 3d 46 0e 89 3d
       0.15340517 0.060658406 0.1233623 0.066921756
000370 3a 11 5d 3d b8 6d 42 bc 1e 91 88 37 e0 e6 56 3d
       0.053971507 -0.011866979 1.6280039e-05 0.052466273
000380 79 21 dd 3d e3 15 89 3d 42 8e bc 3d ca 05 01 3e
       0.107974 0.06693628 0.09206821 0.12599865
000390 e6 36 e4 3d ff d0 29 bb 04 47 d8 bd a8 4e 41 bd
       0.111432835 -0.0025911925 -0.1056042 -0.047194153
0003a0 ed e5 d8 3d ba a4 62 bf 5f 38 5b bc f5 eb 04 3e
       0.1059073 -0.885326 -0.013380139 0.12980635
0003b0 dd fc 74 3c d8 5d e8 3d ed 03 d2 3c a9 a8 df bd
       0.014952865 0.11346024 0.025636638 -0.10920841
0003c0 0e 7a 35 bd 63 37 83 3d 11 a3 83 bd d0 8a 90 3c
       -0.044305854 0.064070486 -0.06427587 0.017644316
0003d0 83 aa 84 3c bd c0 41 3d 06 7b 34 bd c4 b9 3a bc
       0.016194588 0.04730295 -0.044062637 -0.011396829
0003e0 d3 e3 be bb 0c 85 a3 bd bd 4c ae bc 18 32 95 3c
       -0.0058254986 -0.07984361 -0.021276826 0.018212363
0003f0 17 4a 07 3e c1 35 c6 bd 0b 52 76 bd 3d 9b 00 3e
       0.13211857 -0.096782215 -0.060136836 0.12559219

encoder.0.bias f4 [32]
000000 19 a2 50 3d e9 89 4d be 55 5b 02 be ab 01 1c 3e
       0.05093584 -0.2007214 -0.12730153 0.15235011
000010 a3 ab 37 3e 3d 9f bd 3d ef 8b 20 3e bf 12 d0 bc
       0.17936568 0.09258888 0.1567838 -0.025399564
000020 22 e8 30 3e 50 fb d2 3a 67 30 fd bd 5c ee 24 3e
       0.17276052 0.0016096625 -0.12362748 0.16106552
000030 74 5b b9 3d 03 a6 8e 3d d5 3b 34 3e 44 c1 25 3c
       0.090506464 0.06965258 0.17600949 0.010116879
000040 86 d4 c2 3b 3f 27 82 3e 36 17 5d bd 0c a4 4f bd
       0.005945745 0.25420567 -0.053977214 -0.050693557
000050 28 fc 09 3e 4d eb 5b 3e c7 0c f7 3a 1b 4f d1 bd
       0.13475096 0.21476479 0.0018848412 -0.10220166
000060 62 06 a4 3c 33 d5 66 bc a2 6b 50 3e b1 2e 13 3e
       0.020022575 -0.014088917 0.20353559 0.1437328
000070 fa 0f ae 3d ad 2d 5f 3e 57 2f d7 3d ca 7c 00 bd
       0.08499141 0.21794768 0.10507076 -0.031369008

encoder.2.weight f4 [32, 32]
000000 c6 c6 af b6 96 04 3e 92 b6 eb e8 a3 9e 35 02 b9
       -5.2385467e-06 -5.995908e-28 -2.5253318e-17 -0.0001241774
000010 1a 43 57 b9 5d d1 29 ba 22 63 a4 b8 7a 8c a5 b7
       -0.00020528995 -0.0006478036 -7.838594e-05 -1.9734947e-05
000020 de 99 07 ba e1 36 19 b8 b7 d1 1e 0a 52 62 31 b8
       -0.00051727693 -3.6529153e-05 7.646866e-33 -4.2291656e-05
000030 1d 53 d5 b8 93 c4 40 b4 3c d7 ba b9 5c 18 2e ad
       -0.000101721125 -1.7952907e-07 -0.00035637047 -9.896164e-12
000040 43 aa b3 b2 47 f9 31 ba b3 89 0c b5 8a 7c 57 b6
       -2.0915769e-08 -0.00067891594 -5.2354443e-07 -3.2109988e-06
000050 5a 56 2e b3 4e cb d3 b5 8f 0c 60 b9 11 74 9f aa
       -4.059107e-08 -1.5779895e-06 -0.00021366983 -2.832461e-13
000060 ce 33 01 b8 b4 de 7d ad a6 8b a5 36 84 7f 4c b9
       -3.0804244e-05 -1.4430835e-11 4.9336404e-06 -0.0001950246
000070 ee 1a 35 b9 95 fc c6 b8 0a a0 40 b7 e0 c6 89 b5
       -0.00017271537 -9.488423e-05 -1.1481354e-05 -1.0265176e-06
000080 a9 cd 26 ba 9e 62 80 1f 0d af 42 38 8f 35 4c 3b
       -0.0006363043 5.437326e-20 4.6416233e-05 0.0031159853
000090 4e b3 4d bb 5f 58 d9 bb bb 54 a6 bb 52 90 33 bb
       -0.0031387392 -0.006632849 -0.0050760186 -0.0027399254
0000a0 45 2e a5 ba bc 78 37 bc 00 b5 12 34 43 01 4d 3a
       -0.001260229 -0.011198219 1.3663157e-07 0.00078203174
0000b0 88 b5 cf b8 da 33 ea b8 86 41 30 bb 10 d6 38 b7
       -9.904342e-05 -0.000111676476 -0.0026894524 -1.1017095e-05
0000c0 75 1f 41 b9 97 80 dd ba 61 c8 a1 b7 e0 b2 09 b0
       -0.00018417633 -0.0016899285 -1.9286004e-05 -5.0094506e-10
0000d0 a1 5d ce b8 54 e2 5d b9 03 64 03 b3 6e 18 90 b3
       -9.840285e-05 -0.00021160516 -3.0591774e-08 -6.709966e-08
0000e0 7e 0c 06 ba 41 07 06 b7 fa c2 73 ba 2a 82 84 bb
       -0.0005113556 -7.988711e-06 -0.0009298768 -0.004043837
0000f0 0a cd 91 ba 01 2b 83 bb 17 f1 33 bb db bf 21 b5
       -0.0011123728 -0.004002929 -0.0027456933 -6.025636e-07
000100 bf 6e 18 bc 26 1a a8 3c 40 75 a8 3d 52 56 9b bd
       -0.009303748 0.020520281 0.08225489 -0.07584824
000110 53 04 09 3e 4d 87 43 3e ab 82 a1 3c 45 93 85 3c
       0.13380556 0.19094582 0.019715628 0.016305575
000120 4b 1e d9 3c 19 39 dc bc e5 18 bf 3d 41 70 6f 3d
       0.026503703 -0.026882695 0.0933092 0.058456663
000130 bf 35 5e 3d b6 69 9c 3c 9c 50 33 3e 54 87 bd 3d
       0.054250475 0.019093376 0.17511219 0.092543274
000140 1d 81 86 bd fa 3a 81 3c 84 fd de bd 76 75 f7 3d
       -0.06567595 0.015775193 -0.10888198 0.12082951
000150 49 1b 1c bd a0 33 ee 3c 96 f5 95 bd 4b b3 eb 3d
       -0.03811196 0.029077351 -0.073222324 0.11508807
000160 de b1 58 3d 72 21 e5 3c 94 15 d9 bd 31 e2 ea 3d
       0.052904002 0.02797005 -0.10599819 0.11468924
000170 b5 c0 2e be 8d 54 da bd 5d 50 1b 3c b8 7d 9c bc
       -0.170657 -0.10660658 0.009479609 -0.019102916
000180 af ce 85 3e 43 03 d3 3d b2 c9 66 bd 54 9f 0a be
       0.2613425 0.103033565 -0.056344695 -0.13537341
000190 2e 21 02 be d1 04 56 be 1f de 7f bd 9f 1b 80 be
       -0.1270797 -0.20900275 -0.06246769 -0.25021073
0001a0 66 f2 81 bc 1c 8c 28 3c 37 10 bd 3d 67 14 05 be
       -0.015862655 0.010287311 0.09231608 -0.12996064
0001b0 27 08 4a bd d4 94 3f 3e 07 b2 54 3e e4 ac b0 3d
       -0.04932418 0.18709117 0.20771037 0.08626726
0001c0 71 cf a9 3e 07 48 cb 3d 0d fa 63 3d 8e 03 09 3e
       0.33166078 0.099258475 0.05565839 0.13380262
0001d0 d4 6a 67 3b 26 b9 47 bd 9d ac 01 bf 3c 0e 94 3c
       0.0035311477 -0.048760556 -0.5065401 0.018073194
0001e0 9e 52 0d 3e 9d 19 fe 3d cf 56 0c 3e fc a0 88 bd
       0.13801047 0.12407229 0.1370499 -0.0667133
0001f0 93 73 95 3c e7 ba 35 3d 0b 32 46 be 12 01 42 3e
       0.018243587 0.044367697 -0.19355027 0.18945721
000200 49 6a a5 3e ff 88 28 3c 47 46 ba bc 84 c4 85 bc
       0.32307652 0.010286569 -0.022738589 -0.016329058
000210 02 53 5b be 6a 3d 46 be 6f d8 40 be 6c 0e 36 be
       -0.21418384 -0.19359365 -0.18832563 -0.17778939
000220 1a 8b 74 3e 7c b8 a8 bc 4e 14 dd 3d 0a c4 48 3d
       0.23881188 -0.020595782 0.107948884 0.049015082
000230 90 e5 89 3d 5c 04 81 3d ab 72 39 3d d4 f9 55 3d
       0.06733239 0.062996596 0.04527537 0.052240208
000240 95 3d ad 3e 8e e0 d9 3d 31 47 f6 3c 66 fc 96 bc
       0.33836046 0.106385335 0.030063244 -0.0184309
000250 aa 1a 57 3e 9e e7 9c 3d 02 80 18 bf 2f b0 ec bd
       0.21006265 0.07661365 -0.59570324 -0.11557042
000260 86 cf 85 3e c6 a6 8c 3d 02 6d 0f 3d f6 9a d9 bd
       0.2613489 0.06867747 0.035016067 -0.106252596
000270 bc c4 d2 bd bb d4 13 3e f7 f9 18 be ed e6 84 3e
       -0.1029143 0.14436619 -0.14939104 0.25957432
000280 e4 f6 be 3b 04 82 4d b9 a2 3c ad 39 27 78 b8 bb
       0.0058277715 -0.00019598758 0.00033042306 -0.0056295577
000290 89 5c 12 bb 6c d1 39 3c 03 f2 03 bb 54 28 57 b4
       -0.0022332987 0.011341434 -0.0020133264 -2.0038107e-07
0002a0 0c 9b 1e bb ed 00 d1 b9 d6 98 79 b9 21 8d 9f b9
       -0.0024201302 -0.00039864276 -0.00023803426 -0.00030431992
0002b0 e9 8c 89 ba 17 ba 09 bb b8 58 ff bb 81 dd 3f b8
       -0.0010494265 -0.002101546 -0.0077925585 -4.574424e-05
0002c0 3d 7a bf ba ea be ad bb 44 f8 31 b8 75 03 39 b9
       -0.0014608573 -0.0053022997 -4.2431304e-05 -0.00017644263
0002d0 1e eb aa bb ad e4 67 b9 62 52 92 aa 8a d4 9d ba
       -0.0052160164 -0.00022115065 -2.5991974e-13 -0.0012041491
0002e0 bb 6d 31 3b 6f 6b 52 39 b2 de 7c bb 36 06 42 3b
       0.002707346 0.00020067183 -0.0038584885 0.0029605753
0002f0 96 e9 bf ba 04 1a 0f 3a 80 16 90 bb b3 d0 0e b9
       -0.0014641758 0.0005458894 -0.0043972135 -0.00013619922
000300 fa 22 88 3d fb 4f 31 be a8 46 ea bd 58 07 81 3e
       0.06647296 -0.17315666 -0.11439258 0.25200915
000310 df fd 10 3e b6 77 05 be 0a a8 91 bd 20 08 3c 3e
       0.14159344 -0.13033947 -0.07112129 0.18362474
000320 08 d1 b9 bc 65 62 1d 3e fe 3e bf bd 8e a5 e6 3d
       -0.022682682 0.15369566 -0.09338187 0.11262046
000330 e5 f9 ab 3d 06 26 9b bc 6c 48 18 3e 95 7c 73 bd
       0.08397273 -0.01893903 0.14871377 -0.059444983
000340 03 40 cb bd 10 11 5e 3e 86 64 70 3c 75 12 03 3e
       -0.09924319 0.21686196 0.014672404 0.1280001
000350 f3 68 ec 3d 5a 39 91 3d c6 89 79 3e ca 02 16 3d
       0.11543455 0.07091017 0.24368963 0.036623754
000360 17 c6 c7 bd 37 78 be bd 76 1c 17 3e a1 a7 4c 3e
       -0.097545795 -0.09300273 0.1475695 0.1998582
000370 b1 d1 79 3e 93 c7 7a 3d ee 4b be 3d 02 7b 6d be
       0.24396397 0.061225485 0.09291826 -0.23191455
000380 13 0f 26 3c 16 30 85 3c 91 08 bf bc 97 72 2a 3d
       0.01013543 0.01625828 -0.023319514 0.041613188
000390 91 4a 21 3e c7 d5 92 bd 23 85 ba 3b 76 1e 75 3e
       0.15751101 -0.07169681 0.0056921407 0.23937401
0003a0 e6 5f af 3d 8f a3 97 3d 4e 2e d8 bc 6a 1a c4 3d
       0.08563213 0.07404243 -0.026389267 0.095753506
0003b0 6c 36 dd 3d 4e db 57 3b 7a ff da 3d f0 66 ba bd
       0.10801396 0.0032937112 0.106932595 -0.09101665
0003c0 92 a2 9b bb e5 35 48 bd 37 b2 1b 3e df 88 32 3e
       -0.0047496045 -0.048879523 0.15204702 0.17435025
0003d0 b1 0a 4f bd 7b 25 14 be 4d e6 83 3e 84 33 8f 3d
       -0.050547305 -0.14467423 0.25761643 0.06992248
0003e0 0f b1 09 3e bc fe 7d bd 44 08 48 3e e4 74 80 3e
       0.13446449 -0.06201051 0.19534403 0.2508918
0003f0 f5 2e 56 3e 26 e6 90 bd 40 46 ed 3d 60 3d 1d be
       0.2091635 -0.07075147 0.11585665 -0.15355444

encoder.2.bias f4 [32]
000000 22 29 d1 39 7d 60 98 bb 08 cf 90 3d 35 22 d6 3c
       0.00039894233 -0.004650174 0.07070738 0.026139358
000010 87 61 2d 3d 65 b7 d2 bc d5 a7 11 3e 6c 49 a6 3d
       0.042329337 -0.025722215 0.14224179 0.08119473
000020 cb b5 0b 3e b2 51 5d bc 21 3e 50 3e 7d 63 07 3e
       0.13643567 -0.013508247 0.203362 0.13221546
000030 22 74 0f 3d 18 a3 10 bd 86 24 a8 3d cf c1 3e 3e
       0.035022862 -0.03531179 0.08210091 0.1862862
000040 10 dd c9 b0 57 77 13 3d de f4 83 3c 6f 39 9d bd
       -1.4687505e-09 0.036002483 0.016107973 -0.0767697
000050 31 b8 88 3d 43 67 82 3d 30 25 df 3d 8e 98 a2 3d
       0.06675757 0.06367352 0.10895765 0.07939254
000060 01 12 71 bd 8b 9d 05 3e a1 d9 7c 3e f6 bf 0c bd
       -0.05885506 0.13048379 0.24692394 -0.034362756
000070 2c 69 28 3e 1f 58 80 3e b8 67 f4 bd f1 82 88 bc
       0.1644637 0.2506723 -0.11933845 -0.016664

fc_mu.weight f4 [2, 32]
000000 95 a1 e6 39 48 0b b1 ba 80 27 dd bd 11 99 bd be
       0.00043989407 -0.001350739 -0.1079855 -0.37030843
000010 29 11 a7 be 8e b9 0c bd aa cd 1d 3e 09 04 17 3e
       -0.3263028 -0.034356646 0.15410486 0.14747633
000020 c1 e3 31 3e d3 53 aa be a7 b7 d8 be bc b0 c2 be
       0.17372037 -0.33267078 -0.42327616 -0.38025463
000030 5d 5c 59 be 83 8c 3d 3e b9 61 06 bf 0b 58 76 be
       -0.2122664 0.18510632 -0.5249286 -0.24057023
000040 f8 96 17 32 e8 5e 18 be 99 18 03 be 36 11 a7 be
       8.823683e-09 -0.14879954 -0.12802352 -0.32630318
000050 90 18 6d bd 0c b8 54 3e e2 06 11 be 35 c4 32 be
       -0.057884753 0.20773333 -0.14162782 -0.1745766
000060 78 cd 8d 3e df 64 b4 bd 03 bf 82 3e 8c 51 d6 be
       0.27695823 -0.08808302 0.25536355 -0.4185909
000070 26 9e 74 be af 4a 0e 3e 69 33 fd 3e 44 14 87 3e
       -0.23888454 0.13895677 0.49453285 0.2638265
000080 b9 51 a4 b7 51 b2 73 af 3e 2e e5 ba 20 a2 01 bd
       -1.9588379e-05 -2.2164072e-10 -0.0017485095 -0.031648755
000090 26 80 00 bb 25 3a f9 bc aa b3 a6 bd 6a 04 31 3c
       -0.0019607632 -0.030423233 -0.08139737 0.010804275
0000a0 aa a3 f8 b9 6f 14 6b bc ee a4 aa bc eb 6f ac 3c
       -0.00047424185 -0.0143481335 -0.020830598 0.02104946
0000b0 a1 d8 8d 3c 2f ad 53 bc 65 21 c8 bc dd 3c 9a 3b
       0.01731521 -0.012919708 -0.024429986 0.0047069625
0000c0 10 5e e0 ab 4a fe f3 bb 4e 27 6e 3b 17 b3 46 bc
       -1.5942265e-12 -0.007446085 0.0036339345 -0.012127659
0000d0 b9 e6 90 bd 7c cf 74 3d e7 a3 25 3d 0a 4a 95 bc
       -0.07075257 0.059768185 0.040439513 -0.018223781
0000e0 47 08 47 bd 9d 22 b5 bc a8 84 60 3d 65 b3 4b 3b
       -0.04859188 -0.022111231 0.05481401 0.003108227
0000f0 a1 0f 3d 3d e2 72 e7 3c a8 16 17 3c 9b dd 60 bb
       0.046157483 0.028253023 0.00922171 -0.0034311775

fc_mu.bias f4 [2]
000000 7f 3d d1 3d 5b 54 52 3c
       0.102168076 0.012837495

fc_logvar.weight f4 [2, 32]
000000 ee 36 98 35 43 87 51 33 09 d2 a5 bc 73 f6 ef 3d
       1.1340869e-06 4.8784624e-08 -0.020241754 0.11716928
000010 39 0d 10 3f 2b 2a 67 b9 f5 44 7e be 72 22 15 bd
       0.56270176 -0.00022045586 -0.24830993 -0.036409803
000020 be a7 59 bf 98 2a 50 3f 06 34 8b be 83 d8 a8 3d
       -0.8502158 0.8131499 -0.27188128 0.08244421
000030 22 69 0d be 57 b7 87 be 19 92 81 3d 98 9d 40 be
       -0.13809636 -0.26507065 0.06326694 -0.18810117
000040 5b 08 54 29 0d 24 52 3d cf de 54 bc a7 35 6f bf
       4.7080703e-14 0.051303912 -0.012992575 -0.9344124
000050 2b 2b 5e be 40 b4 b2 be 6b 4b 3e bf 7b 5f c7 3e
       -0.21696155 -0.34903145 -0.7433383 0.38940033
000060 f7 b9 38 be 9b b6 6f be c6 25 8b be 14 d3 38 bf
       -0.1803969 -0.23409502 -0.27177256 -0.7219708
000070 20 77 c1 3e 8a d6 71 be c4 c0 43 be 19 d4 88 be
       0.37786198 -0.23616996 -0.19116503 -0.26724318
000080 1c a0 f3 31 9a 85 8b a2 7a fc d1 b9 59 ac 42 3b
       7.090433e-09 -3.781748e-18 -0.00040051696 0.0029704778
000090 8a 96 bc 3a 03 f0 27 3a e8 41 5e 3c 6b dc 5e 3c
       0.0014388126 0.0006406309 0.013565518 0.013602356
0000a0 72 6f 86 3b 06 59 93 3b 39 d0 3a ba 22 c8 6a bb
       0.004102641 0.0044966964 -0.00071263645 -0.0035824855
0000b0 03 ac fc 3b 5e 8b 41 bb 65 1e b6 3a 31 5b 58 3c
       0.007710935 -0.0029532532 0.0013894556 0.0132053355
0000c0 fe 41 8b a7 d7 04 af ba 94 60 7c bc 8f 50 98 3a
       -3.86518e-15 -0.0013352883 -0.015403885 0.0011620688
0000d0 ba dc 86 bc db 5d a8 3b 91 2c f2 39 96 c4 6c 3a
       -0.016462673 0.0051381416 0.00046191041 0.0009031979
0000e0 cb 6d 2a 3c c3 4f 92 3c a2 59 b4 bc d1 28 52 3a
       0.010402153 0.017860299 -0.022015397 0.00080169464
0000f0 23 19 e8 bb a2 85 8d 3a 03 78 2a bb 4c 79 0e bc
       -0.0070830747 0.0010797272 -0.0026011474 -0.008695912

fc_logvar.bias f4 [2]
000000 1f b6 c2 be ba cd 50 bc
       -0.38029572 -0.012744362

decoder.0.weight f4 [32, 47]
000000 83 40 90 bd 60 67 86 bb 35 ee 62 3c 44 98 7d 3d
       -0.07043555 -0.0041016787 0.013850738 0.06191279
000010 f7 e2 43 bd 93 e0 de ba 7f 5d 6c 3d 89 6a 26 bd
       -0.047823872 -0.0017004184 0.057706352 -0.040628944
000020 af dd 2a 3d 22 36 37 3c ab 5c d0 3d 43 d0 d0 bd
       0.04171532 0.01118234 0.10173925 -0.10195973
000030 9a 7a 25 3d dc ee 17 3e f4 f9 5c be c6 4e 39 3e
       0.040400125 0.14837211 -0.21579725 0.18096456
000040 3c e1 35 bd 65 64 c9 3b 84 f5 0d bc d3 46 c5 3b
       -0.044404253 0.006146001 -0.0086644925 0.006020406
000050 50 dd 33 3c e8 c8 dc 39 2c 47 d0 3d b5 b7 36 bd
       0.010978058 0.00042111357 0.10169825 -0.04460879
000060 f5 c9 67 3d 7a 8c af 3b 5c 98 d3 3c 4e ce 4e bc
       0.056589086 0.0053573223 0.025829487 -0.012622429
000070 e4 48 59 3e da a4 5c 3e b6 d0 3a 3d d7 4c 81 3d
       0.21219212 0.21547261 0.0456092 0.06313484
000080 0f d8 69 bc fa 51 0d 3d bc dd 0e 3e 18 69 a0 3d
       -0.014272704 0.034502007 0.13951772 0.07832545
000090 73 d4 13 bc 0d 71 b9 3d d7 d5 69 bc 69 a2 8e 3c
       -0.00902282 0.09054766 -0.014272175 0.017411428
0000a0 7b 4e 99 3d a5 00 fc 3d 6e b0 04 3e c1 97 b4 3d
       0.07485672 0.123048104 0.12957928 0.08818007
0000b0 9c 5e cb 3d 82 72 d8 3d 9d ea 95 3c b9 a0 a1 3e
       0.09930155 0.10568716 0.018300349 0.31567934
0000c0 7d 53 11 bb d1 ec a5 3d b8 c5 ac 3c bb d6 98 3d
       -0.0022175007 0.0810181 0.021090373 0.074628316
0000d0 fe 11 c0 3d 65 8f d7 3d 26 5a 87 3d 3b ea 52 bc
       0.09378432 0.10525397 0.06608991 -0.012873228
0000e0 2b a6 b4 3d 45 3a bd bd 05 91 2a 3d 20 3b b2 3c
       0.088207565 -0.0923963 0.041642208 0.021756709
0000f0 89 5e a7 3d 94 04 d2 bc 0f a9 c5 3c bd 93 21 bd
       0.08172328 -0.025636949 0.024128465 -0.039447535
000100 ae 43 8b 3d d8 65 8f bb 61 f9 8f bc 8e 4d f6 bc
       0.06800018 -0.0043761544 -0.017574968 -0.030066278
000110 78 1e 09 3a f8 9a 8a 3d 4e 58 c7 bd 08 da 0d 3d
       0.00052306755 0.06767839 -0.0973364 0.03463176
000120 bf 48 ba 3c dc 1d 1c 3d 7d 04 c2 3d bc 92 38 bd
       0.022739766 0.038114414 0.09473512 -0.04506181
000130 96 8e b5 3d 59 b4 7c 3d 8c 91 83 3d 1c 4d 3e 3d
       0.08865087 0.06169543 0.06424245 0.046460256
000140 79 d4 b7 3b a8 ef ca bd dd 6e e1 bc b8 49 d3 3c
       0.0056100455 -0.09908992 -0.027518684 0.025791988
000150 ed 73 a6 3c bb 0c 09 3c c1 94 93 3d cc 29 0b bd
       0.02031895 0.008364852 0.07206107 -0.033975407
000160 9c a1 c0 bc 3f 81 e7 3c 7a 68 82 bd a7 4b e9 3c
       -0.023514561 0.028259872 -0.063675836 0.028478457
000170 13 0e 8d 3b da d4 c1 bc 87 af e3 3c 83 0e 31 3b
       0.0043046563 -0.023661066 0.027793659 0.0027016706
000180 b3 21 ee bc 2a fe ed 3c 4a 4e f2 3d fd ae 85 bd
       -0.029068803 0.029051859 0.11831339 -0.06527517
000190 4e 0f 2c bd d5 75 a4 3d dc 3d 94 3d f6 65 f4 bd
       -0.042006783 0.08030287 0.07238361 -0.1193351
0001a0 e4 3c 9e 3c 90 96 91 bd 3e e9 82 bd 9c ba 94 3c
       0.019316144 -0.07108796 -0.06392144 0.018155389
0001b0 f9 e4 eb bd e7 57 9c 3c 7a e5 34 bc 86 5e 0d 3b
       -0.115182824 0.019084884 -0.01104104 0.0021571233
0001c0 5c cf a6 3b 1a 55 d7 bc bb 42 bc ba 64 62 d1 bc
       0.005090637 -0.026285697 -0.0014363149 -0.025559612
0001d0 69 66 21 bc fd 01 68 bd 7a ce ec bb cd 5f a8 3e
       -0.009851077 -0.05664252 -0.0072267624 0.3288559
0001e0 da 44 38 be dc 34 91 3c 49 38 b6 bc 01 bb a5 bc
       -0.17995015 0.0177254 -0.022243636 -0.020230772
0001f0 c6 51 09 3d 30 af 79 3c e7 bd 6c bd 78 00 a0 3d
       0.03352525 0.015239522 -0.057798292 0.078125894
000200 86 59 a4 bd 1d 50 9c 3d 4e f8 32 3d b2 89 db 3d
       -0.08024888 0.07632468 0.043693833 0.10719623
000210 24 2b f0 bc 84 dd e9 bd 0c 71 d6 3d 4a 14 e2 bc
       -0.029317446 -0.11419204 0.10470781 -0.027597565
000220 5f 89 a7 3d a2 5a 86 3d d6 fd 04 be 4a ad 61 3d
       0.08180498 0.065602556 -0.12987456 0.055096902
000230 84 20 fb bd 90 58 a3 bc 8a 04 1b 3a be 0c 8b 3b
       -0.12262061 -0.01993969 0.0005913457 0.0042434623
000240 3b 56 18 ba 63 45 bf be f6 7d 1d bd 65 ae da bb
       -0.0005811189 -0.37357625 -0.038450204 -0.0066736215
000250 e3 1d c5 bb 1b 8d 31 bd 6e 9e 0b bd 2b 74 82 3d
       -0.0060155257 -0.04334746 -0.034086637 0.063698135
000260 74 90 92 bc c8 0f 1f bd f9 88 8a 3d 15 b7 ac 3d
       -0.017891146 -0.03883341 0.06764407 0.084333576
000270 b6 24 61 bd c3 f6 38 bc 21 45 e0 39 ef c8 27 3c
       -0.05496665 -0.011289301 0.00042776114 0.010240777
000280 10 a1 84 bd d9 49 e4 bc 7f 14 81 3d 9d 3b 2e 3d
       -0.06476033 -0.027867245 0.063027374 0.04253732
000290 cc aa c0 bc cd 48 97 bd 3a d9 71 bd b3 d3 bf 3c
       -0.023518942 -0.073869325 -0.059045054 0.023416376
0002a0 4f 6c dd 3d 2a 12 e9 3d 3f 98 91 3d 1f 9d 15 3c
       0.10811674 0.11380418 0.07109117 0.009131699
0002b0 80 68 50 bc 71 c2 c4 3d 33 f2 f6 bc 34 51 44 bc
       -0.012720227 0.09607399 -0.030144786 -0.011982251
0002c0 8a 1d e5 3d 2f cb fe 3c 10 7b c9 bd 1f 0c a0 bd
       0.11187275 0.031102745 -0.098379254 -0.07814812
0002d0 e4 6e c5 3d 22 bf f4 3d 53 16 db 3d 26 8d e0 3d
       0.09640291 0.11950518 0.106976174 0.10964422
0002e0 df 27 48 bd 49 b8 85 3d c5 1f 1e 3e a6 bf b5 3d
       -0.04886615 0.0652929 0.15441807 0.08874445
0002f0 d0 6b 9e 3d 15 14 cf bb 4f 93 30 3d b3 56 74 bd
       0.07735407 -0.0063195326 0.043109234 -0.059652995
000300 ae ab 28 3e 62 25 81 3c 70 a2 a4 3d 9e 2a de bd
       0.1647174 0.015764896 0.08038795 -0.10847972
000310 a0 1c 85 3b 47 bc 57 3b d2 85 3a 3d 69 15 a6 3d
       0.0040622503 0.0032918619 0.045537777 0.081095524
000320 40 04 8b bc cc c8 c8 bd b6 80 11 bd 78 40 70 3d
       -0.0169698 -0.09803924 -0.03552314 0.058655232
000330 2a 3b 2e 3c f6 05 3f 3d e5 a2 55 bc f5 1f 08 3d
       0.010634223 0.046636544 -0.013039325 0.0332336
000340 a1 0c 7c 3c ab 40 ef bc 9e 0f a7 bd 14 8c 25 bd
       0.01538387 -0.02920564 -0.081572756 -0.040416792
000350 c7 b0 ca 3c 30 29 cd 3d 15 94 16 bc f4 00 72 bd
       0.024742497 0.100176215 -0.009190579 -0.05908294
000360 a8 18 8e 3c 12 08 a1 3b 58 80 aa bd 2e 15 fc b9
       0.017345741 0.004914292 -0.08325261 -0.00048080966
000370 04 cd 26 3c ad d1 e6 3d 63 53 13 bc 0c 7d 08 bd
       0.0101807155 0.11270461 -0.008992049 -0.03332238
000380 52 58 12 3d 56 2e 64 3c 04 cd 26 3c 9f 5b e9 3b
       0.03572876 0.013927063 0.0101807155 0.007121518
000390 52 9a f5 3c ab cb c1 bc a5 83 89 bc 92 d4 ce 3d
       0.029980812 -0.023656687 -0.016786406 0.10099138
0003a0 99 67 19 3d d6 93 9a 3c 1d bb ed 3c ab ba 44 bd
       0.037452314 0.018869322 0.029019887 -0.048029583
0003b0 e3 2c 61 ba fa 24 8b 3b ed c7 cc bc 96 34 01 bf
       -0.00085897575 0.0042463513 -0.024997676 -0.50470865
0003c0 26 3f 72 bc b3 e4 9b 3d 94 45 b5 bd 37 8d d2 bd
       -0.014785564 0.0761198 -0.088511616 -0.10280841
0003d0 89 5c 14 3d 52 5f c5 3d 92 5e ad bd 68 1a 98 3d
       0.03622106 0.096373215 -0.084653035 0.074269116
0003e0 51 39 b7 3b 5b fe fd bb 55 d3 d7 3d 27 18 1a 3d
       0.0055915494 -0.007751269 0.10538355 0.03762069
0003f0 95 38 f6 bc 9f ec 37 bc 06 78 f4 ba 70 9b f6 bc
       -0.030056277 -0.011225848 -0.0018651492 -0.030103415

decoder.0.bias f4 [32]
000000 3a f0 af 3c 47 a6 40 3d f2 df 95 bd 59 93 9f 3d
       0.021476854 0.047033574 -0.07318105 0.07791776
000010 63 bc 57 3e 90 e4 ba 3c 9b fa 4e 3e 01 c1 13 3e
       0.21067958 0.022814065 0.20212786 0.14429094
000020 49 0d 67 3e 67 99 54 3e 10 81 3a 3e 9b da 99 bb
       0.22563662 0.20761643 0.18213296 -0.0046952493
000030 97 7f 46 bd e3 7a 9a 3d 44 06 92 3b 0c c8 a5 3b
       -0.048461523 0.0754297 0.0044563133 0.005059248
000040 d3 7b 8a be 97 83 6a 3e 49 60 a9 bd f0 6b 10 be
       -0.27047595 0.2290176 -0.08270318 -0.14103675
000050 30 42 ac 3d d9 d8 c7 bd 53 64 97 3d a0 00 af 3d
       0.08411062 -0.09758157 0.07392182 0.08545041
000060 84 c1 25 3d f1 39 25 bd 90 86 90 bd 0f cd 24 3e
       0.040467754 -0.04033846 -0.07056916 0.16093849
000070 2d a4 9d 3c eb 89 b8 bb 25 08 98 bc 7a dc ee bd
       0.019243324 -0.0056316755 -0.018558571 -0.11663146

decoder.2.weight f4 [32, 32]
000000 88 0d 0d 3d 29 6f 7d 3c ae 8a 61 bd ee f5 83 3c
       0.034436733 0.015468397 -0.055063896 0.01610848
000010 f5 78 6a bd 30 a0 72 bc a7 c7 51 3e 0f 10 da 3d
       -0.05724426 -0.0148086995 0.20486318 0.10647594
000020 48 02 af 3d a4 dc 49 3e 20 f5 ec 3c 78 d9 90 bd
       0.08545357 0.19713074 0.028925478 -0.07072729
000030 55 82 47 3d a6 fc 1e 3d 0c 36 b5 bd d8 f4 3e 3e
       0.04870828 0.038815163 -0.08848199 0.18648088
000040 86 7a a1 3e 7a 7c 86 bd 7d 9f 81 bd 06 0a e9 3d
       0.3153879 -0.06566711 -0.06329248 0.11378865
000050 b1 b9 a0 3d 6f 71 12 3e b1 87 95 3d e4 a5 08 bd
       0.07847918 0.14301084 0.07301272 -0.03336133
000060 c7 fa 50 3d 70 8b 32 3e 18 8a 80 3e d4 e8 6d 3c
       0.05102041 0.17436004 0.25105357 0.014520843
000070 3c 3e 10 be 52 5f 00 3e 90 99 2c 3d 34 41 0f 3d
       -0.1408624 0.12536362 0.042138636 0.034974292
000080 32 a2 a8 3d e3 8f 35 3e 6f 32 3d bd 43 68 c4 bd
       0.08234061 0.1773067 -0.046190675 -0.09590199
000090 8d 25 b0 3d 0e e9 f3 bd 25 52 02 bd de 3c 32 3e
       0.08600912 -0.11909686 -0.03181662 0.17406031
0000a0 a8 8a 4d 3e 2b 9b 17 3d 45 f5 d2 3d 66 cb da 3c
       0.20072424 0.037013214 0.10300688 0.026708316
0000b0 c7 f3 59 3d d0 fc 42 be aa eb 70 be 2c 9b 30 3e
       0.053211 -0.19041753 -0.23527399 0.17246693
0000c0 25 62 a4 3e d5 14 62 bd 90 0b ea 3d 4d 43 6a 3e
       0.32106128 -0.05519565 0.114279866 0.22877236
0000d0 1f 0d 4b 3d 5a c2 17 bc ca 8a 20 bd 16 03 0a 3d
       0.04957306 -0.009262646 -0.03919486 0.03369435
0000e0 05 85 fe 3b fd b2 14 3c 80 08 67 3e f0 75 00 3e
       0.007767322 0.009075877 0.22561836 0.1254499
0000f0 a8 18 d0 3c f9 70 03 3e 5b b2 58 3d 28 e5 3f 3c
       0.025402382 0.12836064 0.052904468 0.01171235
000100 30 e5 32 3e 50 c5 9a bc 0d 1a 04 3d 1c 62 88 bd
       0.1747024 -0.018892914 0.032251406 -0.06659338
000110 09 ef 5d 3d ed 45 ec 3c c7 13 3f be 7b 55 ab bd
       0.05418304 0.028841937 -0.18659888 -0.083659135
000120 09 94 18 3e dc 9d cf bc 9a 21 4f 3e 6b 9f 4e 3d
       0.14900221 -0.025343828 0.20227662 0.050445
000130 ec 3e 9e bd 30 b7 47 bd 27 05 1a 3e be a0 40 bd
       -0.07726845 -0.048758686 0.15041028 -0.047028296
000140 35 0e 50 be c3 49 04 3e d8 a1 45 3e bc a8 1a 3d
       -0.2031792 0.12918763 0.1930002 0.037758574
000150 62 a3 37 be 1b ca 9e 3b ae c5 3e 3e bd 7f 74 3e
       -0.1793342 0.00484587 0.18630096 0.23876853
000160 c8 a9 34 bd c9 f6 3c 3e 46 e5 5e bd b0 14 c8 3d
       -0.04410723 0.18453516 -0.05441787 0.09769571
000170 fa 87 0d 3e 8c 04 73 bc 96 33 5e 3d 33 33 94 bd
       0.13821402 -0.014832627 0.054248415 -0.07236328
000180 3b cb 9f bd 5d 64 68 bd 9e ab 8e 3c 91 36 cf 3c
       -0.07802435 -0.05673634 0.017415818 0.025294574
000190 87 aa 22 3d 70 70 0a 3e fa 98 8d bd ff 69 c8 3c
       0.03971341 0.13519454 -0.069139436 0.024464605
0001a0 6f eb 33 be ca 81 60 bd eb 87 18 3e d3 5a 52 3d
       -0.1757028 -0.054811276 0.14895599 0.051356148
0001b0 00 7c b2 3d dc 35 29 3d 3e 03 9a 3e 60 42 ab bc
       0.087150574 0.04131113 0.300806 -0.020905674
0001c0 e0 fe 65 bc 4b bf a3 bd ba 4f 36 3e 42 55 c0 bd
       -0.014037818 -0.079954706 0.17803851 -0.09391262
0001d0 20 3b 2b be 4f d4 a0 bd f7 26 ba 3d c6 d2 56 bd
       -0.16721773 -0.07852995 0.09089463 -0.052447103
0001e0 4b b9 22 bd 6e 1c 74 bd 12 de 25 be e8 3e 19 bd
       -0.03972749 -0.059597425 -0.16197994 -0.037413508
0001f0 a3 66 9d 3d e7 42 ff bc db d3 02 bd 63 db a0 3d
       0.07685592 -0.031159831 -0.031940322 0.07854345
000200 ac ea 7a bb 42 3a 91 3c e2 58 21 3d 5f 53 02 3d
       -0.0038286848 0.017727975 0.039391406 0.03181779
000210 7e 57 1d bc a6 b0 0b be 44 00 99 bd fe 7d be bd
       -0.009603379 -0.13641605 -0.07470754 -0.09301375
000220 a0 24 e7 bd fd 54 0b bd 7c a0 63 bd e4 cf 0a 3e
       -0.112862825 -0.034016598 -0.05557297 0.13555866
000230 bb b8 67 3c a5 11 45 3c 91 7d 2b be 51 a3 f6 bb
       0.014143164 0.012028133 -0.16747119 -0.007526793
000240 3c 1d 50 3f 79 84 04 3e 2f 8f f3 3d 9b dd de 3e
       0.8129461 0.1294116 0.118925445 0.43528447
000250 51 32 b7 3d 95 86 14 be b9 68 1e 3e 7a c9 a2 3c
       0.08945144 -0.14504464 0.15469636 0.019871462
000260 58 38 81 3b 9d e4 39 3d ab 1b 8e 3e 0c d9 40 be
       0.0039434843 0.04538404 0.27755484 -0.18832797
000270 45 48 a2 3c 07 81 f4 bd f6 9d 7c bd 83 a4 4f 3e
       0.019809851 -0.119386725 -0.06167408 0.202776
000280 bf 75 45 3e 43 16 c7 3d f0 e4 78 bd 1d 58 dd 3d
       0.19283198 0.09721043 -0.060765207 0.10807822
000290 1f c2 90 bc b0 76 40 3d ba b2 c0 bd 2d 5d a4 bd
       -0.01767069 0.04698819 -0.094090894 -0.08025584
0002a0 7f 3a 85 3c 4f e7 20 3e 14 d5 9d bd 84 54 6a 3e
       0.016263245 0.15713237 -0.07706657 0.22883803
0002b0 87 d3 ae 3d b7 e1 aa 3d 85 87 38 3e 21 a4 e9 3c
       0.085364394 0.08343833 0.18020447 0.028520646
0002c0 19 c9 dc be d5 68 83 3e fd 62 eb 3d bd b2 74 be
       -0.43122175 0.25665918 0.1149349 -0.23896308
0002d0 d7 e1 3f bd 2d 5e 01 be ee 16 6c 3e 5a e8 34 bd
       -0.046846237 -0.12633581 0.23055622 -0.0441669
0002e0 63 17 a0 3d da 79 4c 3d 79 73 35 bd 32 31 87 3d
       0.07816961 0.049920894 -0.044299576 0.0660118
0002f0 92 29 12 3e 0b c5 df bd d7 44 ab bd bf dc d3 bd
       0.1427367 -0.10926255 -0.083627395 -0.10344838
000300 13 0f 31 3e 59 7c 81 bd b9 43 c8 bd 70 46 f2 bc
       0.17290907 -0.063225456 -0.09778542 -0.029574603
000310 2b dd cf 3d 2e df ee bd 8e 55 e5 3d 8c 47 27 bc
       0.10149606 -0.11663662 0.11197959 -0.010209929
000320 b6 3c a1 bd 1e c5 99 3d 07 42 ec 3c 13 87 32 3c
       -0.07872908 0.075083 0.028840078 0.010896462
000330 b3 20 89 3d af 93 d0 3d c4 71 1a bd 8a 35 53 bd
       0.0669569 0.101844184 -0.03770615 -0.05156473
000340 5f 53 08 3f 9f 19 0e be b7 c4 50 bd 18 de f3 3d
       0.53252214 -0.13876961 -0.050968852 0.119075954
000350 8d d4 e2 3c d1 fb 2f 3e 4b 6b 1f 3e 9e cc 68 3d
       0.027689243 0.17185904 0.15568273 0.056835763
000360 b3 d3 f1 bc 17 d4 01 be 47 f1 3a 3e 3f 69 54 3e
       -0.029519891 -0.12678562 0.18256103 0.20743273
000370 b9 cc f3 3d fc 2d 3a 3d f7 1a ef bb a6 f7 67 3d
       0.11904282 0.04545401 -0.0072969156 0.05663266
000380 64 a1 b8 bb 43 bf ef 3c 27 b3 f2 3d 54 58 97 bd
       -0.0056344736 0.029266005 0.11850577 -0.07389894
000390 6a 2b c4 3d 19 a9 5d be f0 69 10 3e f3 b4 43 3e
       0.09578593 -0.21646537 0.14102912 0.19111995
0003a0 f0 17 99 bd 20 47 52 3e 88 0d 72 3d 9e 09 dc 3d
       -0.07475269 0.20534945 0.059094936 0.10744022
0003b0 37 fd bd 3d 16 00 2b be 65 4b 74 be 5d 99 dc 3c
       0.092768125 -0.16699252 -0.23856886 0.026928598
0003c0 3d fb e7 3e 2c 3e 74 bd 89 df 07 3e f5 0d 90 3d
       0.45308867 -0.059629604 0.13268866 0.07033912
0003d0 3a 5c 1c 3e ab 3f a9 3c 89 46 df bb 0b ee a3 3c
       0.15269557 0.020660242 -0.0068138284 0.020010969
0003e0 53 86 3b 3d 86 2b e6 3d 1b 8b 2e bd cd cb 40 3e
       0.0457824 0.1123877 -0.04261313 0.18827744
0003f0 7f 2e 19 be bf 7d db bd 84 f4 62 3d dc 5c a2 3d
       -0.14959143 -0.107173435 0.05540897 0.07927868

decoder.2.bias f4 [32]
000000 04 16 0b 3d 85 6d 3e bd 4b 24 7d 3e 9e df 13 be
       0.033956543 -0.046491165 0.24720876 -0.14440772
000010 39 e2 22 be 76 af 08 bd c8 a1 a1 bd c4 9a 6d 3e
       -0.1590661 -0.033370458 -0.078921854 0.2320357
000020 78 07 18 bd ce b8 54 bd 38 80 63 b6 f1 cb 3d 3e
       -0.037116498 -0.051934056 -3.390027e-06 0.18534829
000030 b7 ff b6 bd a6 03 fe 3d d0 0f 23 3e 08 6d 83 bd
       -0.089354925 0.1240304 0.15924 -0.064172804
000040 af b0 43 3e 52 df 02 be ad 34 49 bd 0d e3 4d 3e
       0.19110368 -0.12780502 -0.0491225 0.20106144
000050 35 c1 ac 3c 21 00 21 bd b3 a4 08 bd 49 96 58 3b
       0.021088222 -0.039306764 -0.033360194 0.0033048561
000060 a5 19 2d bd d3 29 c6 3c 8e 4a 8c bd 66 b6 5e 3d
       -0.042260785 0.024189865 -0.06850158 0.054373167
000070 3c ca 2c 3e 4a d2 82 bc 39 27 a7 bd c8 65 8c 3d
       0.16874021 -0.015969414 -0.08161778 0.06855351

decoder.4.weight f4 [1, 32]
000000 88 11 fa 3d 29 ce c6 3d 4a 2e 0e be 2e f0 21 be
       0.12210375 0.09707291 -0.13884845 -0.15814278
000010 46 88 c1 3e 25 85 3c be f9 4e 48 3e 5a 49 64 3e
       0.3779928 -0.18410166 0.19561376 0.22293606
000020 57 65 aa be c0 ac 34 3e b4 ba 41 b7 10 f5 0d 3e
       -0.3328044 0.17644024 -1.1547167e-05 0.13863015
000030 55 48 65 be 9c 65 a2 3d 35 45 47 3e 3e 0d 91 be
       -0.22390874 0.07929537 0.19459994 -0.28330415
000040 9e c0 8a be f6 3f 83 3e 78 a3 15 be fc c4 65 3e
       -0.2710008 0.25634736 -0.1461314 0.22438425
000050 aa 7f 24 3e 9d 62 9a bd d8 7f ae be 23 c0 e3 3d
       0.16064325 -0.0753834 -0.34081912 0.111206315
000060 b1 c9 3d 3e 7c 80 d6 be 3c 2f e8 bd b6 1f 1d be
       0.1853397 -0.418949 -0.11337134 -0.15344128
000070 3a 42 2e be 71 e5 5e bc 3d a3 8d be 25 b4 57 3e
       -0.17017451 -0.013604508 -0.27663603 0.21064813
