models/cvae_L4_H64_B0.010_LR1e-03.pt (torch, 82613 bytes, 13 tensors)

encoder.0.weight f4 [64, 46]
00000000: b9ac 643e 1649 bebc 9adc 9b3b be83 acbe
00000010: 6cac c4bc 8e64 0b3d 99e5 8fbd 2fb6 273d
00000020: 4fe9 cdbd 05da 02bd 4139 49bd bab1 433d
00000030: 1b95 bb3d c956 593d 9684 053e a9b0 923d
00000040: 13db d9bd dce4 0d3b ff60 99bd f30f 443d
00000050: 4747 bcbd de1b 56bd 7697 45bd f0f3 c73d
00000060: 54f0 b4bc 1aa3 7b3d d4fc 4b3d 6d56 323e
00000070: 360e 7abc 0940 b63d 5eb6 d53c 0f5b e83b
00000080: 6c62 a73d c3ad b13d 44b0 f43d d49f c03d
00000090: f465 0f3c b760 ca3b 1a1a 3a3d 0f00 ad3d
000000a0: a2a3 853d 555f 4d3b c31b 5f3d 13b2 4d3b
000000b0: ca2d 44bd 5786 903d 4308 efbd fb52 3c3c
000000c0: a4fc e43c f46d ed3d 4a9d cb3c f117 a03c
000000d0: cf81 533d 2038 cb3d 467a 6fbd 7342 b7bd
000000e0: 7a61 3ebb f40e f4bd 083f 1cbe 39bf 4bbd
000000f0: 9532 aebd b5e9 0abc b2a8 96bc 8ae3 113c
00000100: be41 71bd 543e a1bd c723 4e3c 2aa1 1c3e
00000110: 7ed8 7ebd 45a1 bdbd 3495 e53d a64f 68bd
00000120: e058 3b3e 6ad6 353e 4988 b23d efee 0080
00000130: 30fb 0e3c de09 82bc 0571 433d 75aa 393d
00000140: 9fc3 b83d 4370 be80 2b33 4681 af5e 91bc
00000150: 7063 8d00 c6a7 573d 3ae7 133d 2510 4c3e
00000160: 77b7 453d 3ae9 553d 1ff0 1b00 5d26 6cbc
00000170: 7035 bdbd 0109 6c3c f576 e23c df9d 183e
00000180: 5450 8d3d db01 cebd c8d2 93bd 91e9 3dbd
00000190: 6051 943d 0bde 55bd c409 28bd ccf6 9abd
000001a0: f16d 8dbd 5552 33bd b637 6d3d c594 4bbc
000001b0: 661a 49bc 6274 0abd 6aa4 3dbd f407 24bd
000001c0: 73b3 7a3d 760f 6d3d 8b9e 8fbd debe a43c
000001d0: 5bc4 c53d 1178 0f3c 5892 6f3d e679 753d
000001e0: 57ba 2f3d 26f0 8001 d862 5401 0c17 bb01
000001f0: d227 7e3d 687f 603d e53b 073e 4437 9e01
00000200: c88d 6001 1547 9401 c7b4 9b00 0c51 1dbc
00000210: 56c6 aebc aafc ed3d ab9f 543d ead7 123c
00000220: 0e8f 0901 2712 2301 1c04 993e dfb9 c5bc
00000230: e820 40bb 976e 9b3e 2424 a2bb 1da9 9cbd
00000240: abba 84bd ba33 60bc f9ea 15bb 63b3 7b3c
00000250: d9ac bcbc de89 cfbc 5d80 cabd 27b7 a03c
00000260: ebd2 24bd f1ed 3c3c 2f8c c0bb 6cd8 62bc
00000270: 9bf9 f23b 5c36 a73c b0f1 1fbc 094d 723d
00000280: 2d5d ccbd 620a fe3c f203 183d 0e21 043e
00000290: 6036 d1bc effe 403c 214d 9abd 906d 8abc
000002a0: 2a26 44bc d839 84bb 91ff 013c 0214 83b9
000002b0: 77e0 dcbb a1af 0dbd 1bef af3c d839 84bb
000002c0: a968 863c 3a63 f83a 3dab 5b3c 5bc9 55bd
000002d0: 7b37 bebc f403 eebb cd29 bfbc 6d0f b83c
000002e0: 467b 9cbe 97df 5e3b 8c2e 3abb 7056 ae3e
000002f0: 31d0 a33b 3ed2 033d fe2a 583d 5fcb 56bd
00000300: 1717 3b3d d8d2 58bb 5c2a 873c 6d46 4cbd
00000310: 7a37 a03c 6051 4e3d fc2b b2bc 70c2 6bba
00000320: b43e ba3b 81e9 76bb 002f a7bb 97ed 35bc
00000330: 68d8 503c 821a 243b 5736 e3bc 3fcf 153d
00000340: cd62 9a3d 58e1 783d 23ac b03c cb3c 1a3d
00000350: d680 3bbd c0de 793d 96bd f5bc 825d 9dbc
00000360: 9ca2 bc3d 94bb cf3d c04f 91bc 221b 303d
00000370: 1202 7e3c b3c5 b4bc 7d27 913b 2bb1 1bbd
00000380: bb24 c8bb 2cdd 143d 65ec a33d 47fc c33d
00000390: fb38 213d 5fe5 b83c de81 16be eb06 853c
000003a0: b6d2 273d aadd 283e 7e99 1fbd ded4 3dbe
000003b0: f001 e2bd 1b6d 013e 4095 ccbd 6afd 1fbd
000003c0: 16eb 82bd aa59 97bd d890 09be 3103 0abc
000003d0: 639f ad3c 55e1 4f3d beac 91bd 9e1a 323d
000003e0: d6d0 46bd 2b68 30bc ae0d a4bc 344d 01be
000003f0: 6a20 623d 1088 813d 5fbc 373d b9b0 efbc
0.22331513 -0.02322821 0.0047565224 -0.3369426 -0.024007998 0.034031443 -0.07026214 0.04094523
-0.10054266 -0.0319462 -0.049126867 0.047776915 0.09159299 0.05306128 0.13038859 0.071626015
-0.10637488 0.0021651303 -0.07489204 0.047866773 -0.091932826 -0.05227267 -0.048240148 0.09763324
-0.022087254 0.061434843 0.049801663 0.17415781 -0.015262177 0.088989325 0.026087936 0.007090933
0.08173069 0.086757205 0.119476825 0.09405485 0.008752335 0.00617608 0.04543505 0.08447277
0.06525351 0.003133734 0.054469835 0.0031386658 -0.04789523 0.07056873 -0.11671498 0.011494393
0.0279525 0.115932375 0.024855275 0.019542666 0.051637467 0.09922814 -0.05846622 -0.08948221
-0.00290498 -0.119169146 -0.1525842 -0.04974291 -0.085057415 -0.008478572 -0.018390987 0.008904347
-0.058900587 -0.07873216 0.012581772 0.15295854 -0.06221818 -0.09259275 0.11210099 -0.056716584
0.18295622 0.17757574 0.087174006 -8.5713e-41 0.00872688 -0.015873846 0.047715206 0.045328576
0.09021687 -1.7489016e-38 -3.6403568e-38 -0.017745344 1.2984476e-38 0.052650236 0.036109187 0.19928034
0.04827067 0.052224375 2.565698e-39 -0.014413443 -0.09238708 0.014406444 0.027644614 0.14903973
0.06900087 -0.10058948 -0.07217938 -0.046365324 0.072420835 -0.05221371 -0.04102494 -0.07566604
-0.06905735 -0.04377969 0.05791446 -0.012425606 -0.01227436 -0.033802398 -0.046299376 -0.040046647
0.061206292 0.057876073 -0.070126615 0.020110544 0.096565925 0.008756653 0.058489174 0.059930705
0.042902317 4.736437e-38 3.9009167e-38 6.872602e-38 0.062049694 0.054809004 0.13206442 5.8119336e-38
4.1244025e-38 5.446861e-38 1.4299353e-38 -0.009601843 -0.021334808 0.116204575 0.051910084 0.008962611
2.5265563e-38 2.9951395e-38 0.29885948 -0.024136482 -0.0029316489 0.3035781 -0.004948156 -0.07649443
-0.064809166 -0.013684208 -0.002287565 0.015362593 -0.023031639 -0.025334295 -0.098877646 0.019618584
-0.04024021 0.011531339 -0.005876086 -0.013845544 0.007415009 0.020411663 -0.009762213 0.059155498
-0.09978709 0.03101081 0.037113138 0.12903234 -0.025538623 0.011779531 -0.075342424 -0.016897947
-0.01197199 -0.004035216 0.007934467 -0.00025001174 -0.0067406255 -0.03459132 0.021476319 -0.004035216
0.016407328 0.001895047 0.013407526 -0.05219398 -0.023219815 -0.007263655 -0.023335362 0.022468293
-0.305628 0.0034007782 -0.0028409092 0.34050322 0.0049991836 0.032182924 0.052775376 -0.052440044
0.045676317 -0.0033084657 0.01649969 -0.04987185 0.019557703 0.050370574 -0.021749489 -0.0008993512
0.0056837443 -0.00376758 -0.0051020384 -0.011104009 0.012746908 0.0025040214 -0.027735872 0.0365746
0.07538376 0.06076178 0.021566456 0.037655633 -0.045777164 0.061003447 -0.029997628 -0.019209627
0.09210703 0.101431996 -0.017738223 0.042994626 0.015503423 -0.022066927 0.004429756 -0.038010757
-0.0061078942 0.03634374 0.08004073 0.095696025 0.03936098 0.02257031 -0.14697978 0.01623865
0.040972434 0.16490808 -0.03896474 -0.18538234 -0.11035526 0.12639277 -0.09989405 -0.039060034
-0.06392495 -0.07390149 -0.1343416 -0.008423612 0.021194166 0.050752003 -0.07113026 0.043482415
-0.048539005 -0.010767023 -0.020026054 -0.12627107 0.055206694 0.0632478 0.04485738 -0.029259073

encoder.0.bias f4 [64]
00000000: 5e06 3f3e 5141 103d 232b 49bd 681d bbbd
00000010: b950 d2bc ba5e 8f3d bdf0 a43c 81f5 92bd
00000020: 99b1 093d efdb e23d 2797 393d d289 40bb
00000030: 161d 073d c8bd bc3d 8c1c 893d 55c2 de3d
00000040: e2ed 2dbe 127f d73d 9b35 d03d 43d2 dfbc
00000050: 0faa 2f3e 1e03 85bc 9df3 523e dc2f 243e
00000060: 2a0d 33bc 9dbc 873c ffae 423e 628f 9b3d
00000070: eb18 4fbc 6c48 a5bc 0fd2 f63d 9ce6 d93d
00000080: d409 20bd ca6a a03d fdde 993d 76a3 0cbb
00000090: 26d7 b73c 6b8d 4dbc 25df 4f3d 1181 223e
000000a0: 1c50 753d 2116 823d 820e dfbc ea28 473e
000000b0: 47df e13b 3cec 003d 8920 073e 13b3 9b3d
000000c0: b174 203d dd6a 8a3d 3c59 3a3e 34aa 5c3c
000000d0: fc26 8cbd 0bbf 323e 7632 383e 7aba 493c
000000e0: 54c2 e93d bc66 453d a0ed 083d 1035 81bd
000000f0: 0fee 023e 69c1 e33d 5408 a33d 4e24 64bc
0.18654773 0.03521854 -0.049113404 -0.09136468 -0.025673257 0.070004895 0.020134324 -0.071757324
0.033616636 0.11077105 0.045310166 -0.0029379022 0.032986723 0.092158854 0.06694898 0.1087691
-0.16985276 0.105222836 0.101664744 -0.02732194 0.17154716 -0.016236838 0.20600744 0.16033882
-0.0109284315 0.01656943 0.19012068 0.075957075 -0.012640218 -0.020176135 0.12051784 0.106396884
-0.039071873 0.078328684 0.07513235 -0.0021459735 0.022441458 -0.012545924 0.050749917 0.15869547
0.05989085 0.06351877 -0.027228598 0.19449201 0.006893072 0.03147529 0.13196005 0.07602515
0.039173786 0.06758664 0.18198103 0.013468314 -0.06843373 0.1745569 0.17988 0.012312526
0.11414018 0.04819368 0.03342974 -0.06308949 0.12786125 0.111208744 0.07960573 -0.013924671

encoder.2.weight f4 [64, 64]
00000000: a4cb 1fb5 b35c a5b3 c99c b7ad ce42 cb9f
00000010: 343c 810d 54e5 ebb1 1c6a 9500 ee59 2191
00000020: d622 b427 5f1f 77b3 d71a 4481 7e1c 98a1
00000030: e5f3 2db2 9972 4ab2 b369 07b5 9421 e7b5
00000040: 0b2f 0d91 6503 04a8 1e4b 8eb1 57c7 2caf
00000050: 02aa 9c31 5cef 2e81 492b 39b5 0429 02b6
00000060: c2fe 0f88 3c86 4d80 4407 77b5 6d65 b1ad
00000070: d054 abaa 640e 8701 d20b f59c f192 7282
00000080: 5f98 0eae 5b1e efa4 4438 c6a6 9844 1781
00000090: 034b 9ca4 e71e b691 783a 74a7 75ba 79b0
000000a0: 643f ccb3 d1b6 c296 2e30 9601 2024 17b2
000000b0: 5640 d02e 5f91 05a5 b32f f6a7 e8bf 1291
000000c0: 0f90 2eaf da97 b698 c05c e8b5 48c8 ef98
000000d0: 9efd 1d01 5dde 3baf 6009 20b1 a244 40b4
000000e0: c618 3b01 e284 7280 0de0 5f81 bdf6 bb00
000000f0: f799 faaf 400a b0b4 a75b 7cb4 003f 4100
00000100: f4ba c83d 2007 3d3d 78cd e33d 46ed 86bd
00000110: 1553 823d 3c61 ad3c 50d0 c1bc b788 afbd
00000120: b3aa 31bd 9bad ff3d c8c0 debc 489b fc3c
00000130: 6d53 76bc b7e4 ef3d 8f1c 953d 1ca8 04bd
00000140: c39a d2bd 4d44 18bd e30e fd3c 316d 6e3d
00000150: f8b4 943c d451 1bbc 4181 bd3c b3d2 cd3d
00000160: 71fa 04bd 1cd9 143d 3471 703d a474 623d
00000170: 69d4 7b3d b005 0c3c 5ccf 1cbc c94a 2e3c
00000180: 1237 70bc 1ab3 d73a c8d9 0cbd bcdd 9c36
00000190: ddb6 4a3d 63f1 163d fc93 2ebd 34d0 cf3d
000001a0: 3584 3c3b 17fb 993d 9d52 61bd d29b 383d
000001b0: e74f 893d e7fc 973d 5562 da3c 7492 d53b
000001c0: 91bc 5d3c 7201 c03d 9883 a13c 2dfb c93d
000001d0: 6fd5 cdbc e60f 053d 376b b33d 347f 8b3d
000001e0: c73b c73c dbd2 2a3d 432e 9dbc 55d2 433c
000001f0: bd64 4c3d d843 873b f4e3 fbbc 861f 62bc
00000200: 090b 4dbc 17e9 ed3d 899a 0cbd 2f08 99bd
00000210: ab60 453d 8681 02bc d48e 0bbc 970b d8bd
00000220: b4a9 193a 48bc ab3d 3662 9ebb 59fd 3fbd
00000230: fdf8 9f3c 4f25 04bd 8f01 b4bc 0bcc bcbd
00000240: 78e3 a7bd 587b fb3c 447f 23bd e135 4cbd
00000250: e9e9 843d bb1a b43b 6cd5 493d 52bf 833d
00000260: 39d2 c73c d061 983c 17a6 de3c 465b 2f3d
00000270: 7ba5 e73d 0336 133d c08c 04ba 8f39 40bd
00000280: 73a6 50bd ad87 b73c 30c0 353d 0771 cfb8
00000290: 6a75 90bb 4972 b13d 9cb5 0fbd 1ba1 46bc
000002a0: 944c eb3d 73b9 e43d cae4 5ebc 0532 293c
000002b0: 9caf 323d dca7 023d 7af6 0e3e a5de 583d
000002c0: 8cdb 403d 585d 5e3d 3085 cc3b f166 7b3d
000002d0: 5ba8 14bd 3d72 cb3d 793c 993d 805c f73a
000002e0: 0922 583d 3b99 073b 8145 92bc a47b d93c
000002f0: 67bc 213d 8d24 993c dc28 d2bc 7a4c 01bd
00000300: 5621 543d 349e a83a 6fe7 8d3d 2f3c 503d
00000310: 068b 7bbc 9de3 c5bc 5efc a5bc 6311 713d
00000320: 29c4 523d 8461 b83d e2b7 66bc d14c 8b3d
00000330: d548 b5bc 21d0 113d 31d8 753d ea95 023e
00000340: 8d36 b93c b252 feb9 dddc 023e 0acf e63d
00000350: 0a0e cd3c 757e 0a3c 7c4b 373c 8a62 5b3d
00000360: e552 993c f909 b0bc e9c0 4f3d de65 b43c
00000370: 0dbc d9bc 90d3 f1bb 4edd 17bd 7c92 9c3b
00000380: f3be a83d 47b4 573d 3a93 993a d685 93b8
00000390: ca0a 873b 21e7 733d 50c3 cbbc 86b1 763d
000003a0: 30cb d33c d583 aa3c 15d3 59bc 76e6 d63c
000003b0: 4c5f 90bd 95da 15bd 9d3c 03be a6c9 183d
000003c0: 5e10 0d3e c11e 9d3c 81ea 8fbd 9da3 493d
000003d0: eb62 a63c 3c6e b1bd 95cc edbb 4c12 af3c
000003e0: 2b3e 253c 0a3e d33c b7cb 603c 4c53 acbc
000003f0: aa06 e43d 0569 30bd ceba a63d 9433 69bc
-5.952845e-07 -7.700273e-08 -2.0874318e-11 -8.608436e-20 7.964732e-31 -6.8654717e-09 1.3721554e-38 -1.2728372e-28
4.9997805e-15 -5.75377e-08 -3.601877e-38 -1.0307462e-18 -1.01253805e-08 -1.1784004e-08 -5.044523e-07 -1.7220614e-06
-1.1137435e-28 -7.328208e-15 -4.1412838e-09 -1.5714129e-10 4.559525e-09 -3.2130485e-38 -6.898086e-07 -1.9395384e-06
-4.3331964e-34 -7.119487e-39 -9.2025243e-07 -2.0167612e-11 -3.0434552e-13 4.961182e-38 -1.6215795e-21 -1.7821522e-37
-3.2422395e-11 -1.0370115e-16 -1.3754261e-15 -2.7783533e-38 -6.778129e-17 -2.8733582e-28 -3.3893498e-15 -9.0850644e-10
-9.511021e-08 -3.1457764e-25 5.517043e-38 -8.797571e-09 9.470173e-11 -1.1585165e-16 -6.833043e-15 -1.1576505e-28
-1.5876388e-10 -4.719923e-24 -1.7312341e-06 -6.1982284e-24 2.9018307e-38 -1.708655e-10 -2.3288393e-09 -1.7906362e-07
3.436425e-38 -1.0516916e-38 -4.111938e-38 1.7261751e-38 -4.5584134e-10 -3.2790012e-07 -2.3502672e-07 5.991907e-39
0.098012835 0.046149373 0.111231744 -0.06588225 0.06363503 0.021164529 -0.023658901 -0.08570998
-0.043375682 0.124842845 -0.027191535 0.030835763 -0.015034539 0.11713546 0.07280838 -0.032386884
-0.10283425 -0.03717451 0.030890888 0.0582096 0.018152699 -0.009479959 0.023132922 0.10049953
-0.032465402 0.036339864 0.05870171 0.05528702 0.061481867 0.008546278 -0.009570923 0.010637947
-0.014661567 0.0016456575 -0.03438738 4.6749756e-06 0.0494908 0.036851298 -0.042621598 0.101471335
0.0028765325 0.07518595 -0.055010427 0.045070477 0.06704693 0.07421284 0.026658216 0.0065177027
0.013533727 0.09375276 0.01971607 0.09862361 -0.025126187 0.032485865 0.08760684 0.068113714
0.024320496 0.041704994 -0.019187098 0.0119520025 0.04990076 0.0041279607 -0.030748345 -0.013801461
-0.012514838 0.11616724 -0.034327064 -0.07472264 0.048187893 -0.007965451 -0.00851794 -0.105490856
0.00058617746 0.08385521 -0.004833485 -0.04687247 0.019527907 -0.032262143 -0.0219734 -0.092186056
-0.08197683 0.030698463 -0.03991629 -0.04985607 0.06489927 0.0054963506 0.0492758 0.06432976
0.024392234 0.018601328 0.027178807 0.042811655 0.1131086 0.03594018 -0.0005056374 -0.046929892
-0.05093999 0.022403562 0.044372737 -9.891582e-05 -0.004408528 0.08664376 -0.035085306 -0.0121233715
0.114892155 0.11168184 -0.013604352 0.010326867 0.043624505 0.031898364 0.13961211 0.052946705
0.047084376 0.05428824 0.006241463 0.06137747 -0.03629337 0.099338986 0.07482237 0.0018872172
0.052766833 0.0020690698 -0.017855408 0.026548214 0.039486315 0.018694187 -0.025654249 -0.031567074
0.051789604 0.0012864531 0.06928908 0.050838646 -0.01535297 -0.024156386 -0.02026194 0.058854472
0.051456604 0.09002975 -0.014081927 0.06801761 -0.022129456 0.035598878 0.06002063 0.127525
0.02260902 -0.00048508268 0.12779565 0.11269958 0.025031108 0.008453001 0.0111874305 0.05356077
0.018716285 -0.02148913 0.050721083 0.02202123 -0.026578927 -0.0073799565 -0.037076287 0.0047782045
0.08239546 0.05266216 0.001171685 -7.034435e-05 0.004121159 0.059546594 -0.024873406 0.060227893
0.025853723 0.020814816 -0.013294955 0.02623294 -0.070494264 -0.03658541 -0.12816091 0.037301682
0.13775775 0.019179704 -0.0702715 0.0492283 0.02031084 -0.08663604 -0.007257054 0.02137103
0.010085623 0.025786418 0.013720444 -0.021035813 0.111340836 -0.043068904 0.08141099 -0.014233489

encoder.2.bias f4 [64]
00000000: 1b13 a3b7 489a 453e 9688 523d 8fd1 d13d
00000010: c803 a23c a412 49b6 0b66 f13d eddc f73d
00000020: a123 0f3e c37e b03d bd5a 0b3c ef85 9c3d
00000030: 2d4d 26bc 6a42 09bd 5d4d 513d d2bf 9c3c
00000040: 4949 35bd a913 5d3b 32dd bd3d f3af 38bc
00000050: f5df cd3d cb73 1c3d f334 26bd 95e8 6e3d
00000060: 5743 053e 3f04 1d3c e817 f2bb b80d b73d
00000070: 8492 553d 88a7 8f3d 4fb1 c93d dab0 0f3e
00000080: 4042 a3bc 4154 0d3e 47b3 833d cc16 463d
00000090: 26ed a73d 89de 153e 0678 85bd 11e3 3fbc
000000a0: 0349 04bd 37a5 f93d eb62 3e3d f3ce 24be
000000b0: 3a5d fdab d710 d0bd f3ce 80b2 4e1f 80b7
000000c0: feaa 2cbd b638 553b 2097 5e39 1724 e83d
000000d0: 39ae a43c 5dc3 0a3d fd5c 0c3c b184 233e
000000e0: f72a bbbc 7884 08bc cedc 5c3d d26b 80bc
000000f0: 0122 ca3d 0c65 8f3d f561 163e 4de0 bd3d
-1.944001e-05 0.19297135 0.05139979 0.10245048 0.019777194 -2.9962184e-06 0.11787041 0.12102685
0.13978435 0.08617928 0.00850552 0.07642733 -0.010150236 -0.033510603 0.05109917 0.019134436
-0.044259343 0.0033733642 0.09270705 -0.011272418 0.10052482 0.038196366 -0.04057784 0.058327276
0.1301397 0.009583532 -0.0073881038 0.089381635 0.05214168 0.07014376 0.09848272 0.14032307
-0.019929051 0.13801672 0.06430679 0.048361585 0.08199529 0.14635672 -0.06517033 -0.011711852
-0.032296192 0.12189715 0.046481054 -0.1609457 -1.8002607e-12 -0.10159462 -1.499527e-08 -1.5273366e-05
-0.04215526 0.0032535023 0.00021227868 0.113350086 0.020102607 0.03387772 0.008567092 0.15968587
-0.022847636 -0.008332364 0.053921513 -0.015676413 0.09869767 0.07001695 0.14685805 0.092712976

fc_mu.weight f4 [4, 64]
00000000: 46b7 76a9 d481 273b 60c2 a5b9 e3a7 d1ba
00000010: 41b3 1eba c1cd 5689 f3b7 ec39 120e 69b9
00000020: 504b 47bb de0d af3a b260 84ba e292 3b3b
00000030: 1107 adb9 6334 bc3a b4ee f0ba e15f 223b
00000040: 6d31 2b3a 5e3d f73a 2b82 98bb 847a 4dba
00000050: 6c06 bd3b 505c 95ba 54fb 843b d23b 23ba
00000060: 23ef b339 8d72 c93a 864c 12bb 4d39 dc3a
00000070: 0ad8 9ebb 6683 053a 68d6 2cbb 0431 88bb
00000080: 8eb8 0cba 65f3 62bb 2d94 d93a b19d bc3a
00000090: a52b a03a 1cb5 53bb f305 5f3b f5ce 0db4
000000a0: bfb6 cfba 7d43 22bb eac2 8f39 c837 023a
000000b0: 3b48 2981 961a db3a 5182 f296 9317 2212
000000c0: 8a19 d13a c363 d33a 749e 3a39 74e3 4e3b
000000d0: 10a5 a1ba 7bd6 393a 9da0 3cba 0a38 313b
000000e0: 1b5d f539 35a5 9739 250d 26bb ff7f 8ab9
000000f0: 47ce 413a a32f edb8 0001 473b 2fc4 943b
00000100: da40 82ab d892 76bb d886 d738 52b1 dc3a
00000110: 77de a53a e732 2309 e932 2d3a ea49 153a
00000120: 09d5 31bb 0e1e 91ba f8f7 cdba eb8e 26bb
00000130: f9c0 ceba 00b8 953a 52b9 6eba ca26 0a3b
00000140: 4eca 15bb 1b64 ddb9 de23 6d38 edc3 fb38
00000150: 7c26 063b f93a 5fba 31a5 e93a 2757 20ba
00000160: 5d4d 603a f2bb 7d3a d405 08ba dd15 013b
00000170: b83b 1fba 1ffa 943a 1250 a13a 5af8 3fba
00000180: ee54 f9ba 132a 4b3a 4475 5539 3943 2ebb
00000190: 0eea cb3a 04d6 0d3a 1759 b9bb 35c7 f732
000001a0: af0f 6cba fecf 3dba 3e54 0238 e2c1 a2ba
000001b0: 2605 3b01 709f 5e38 00aa 0ca4 c541 8193
000001c0: edb5 c8ba b76a 163a 6c51 b339 3b14 a13a
000001d0: e78f 183b 9ccb f639 0bed d8b9 bfb7 45bb
000001e0: 89a7 37ba 16bb b739 e97a c8ba e7b2 c6ba
000001f0: e21c 1e3b c30a 8f3a e47b 25ba f7d4 5f3b
00000200: ec78 45bb acc0 423d 5227 b13d e9f7 afbd
00000210: 8bd6 153e e04a 413c 5cd5 ee3d a9bf 133d
00000220: 0c56 033e 2969 d3bd 1f6e fabd ff02 ae3e
00000230: c0bc 6f3e 53d5 e5bc c1ef 00be 4d63 313e
00000240: 7789 40bd 8e84 3ebd 5631 383e 1329 e03c
00000250: 20ff 1ebe 5581 313e 240b c7bd 6c68 15be
00000260: f8eb 1d3e 86ca 903e 8c1d ac3d e145 e63d
00000270: 670f d6bd 396a 06be 8931 423e 08e4 97bd
00000280: b8f3 39bd a0d4 c63d 2f85 31be 148f 07be
00000290: 355a 653e 2b07 e23d a45b ab3e 974c ea3c
000002a0: 5b16 a53e c7d9 16be 5e24 1cbe a924 a1be
000002b0: 9cd0 38b8 e713 94be ec37 443c 14b7 fc39
000002c0: 6fec fc3d 7af5 38be fcea 203e 1eee 2f3e
000002d0: 0226 373c 70f2 5bbd bad3 6a3d 8413 923d
000002e0: 3172 e7bd 5b6d 743d 0c45 f1bd 61fd 753d
000002f0: 8392 02be b769 27be c32d aa3d 0304 243e
00000300: abc2 9aaf 5a60 303c b039 0dbb e6dc 83ba
00000310: 64f4 6a3a eec3 6889 c641 ae39 9860 caba
00000320: cd54 163b 5f91 6cbb 30b4 6dbb a4f2 393a
00000330: 00a5 063a 5550 14ba f5dd ddb8 28dd 943b
00000340: f9b6 0fbb cacb 403b cdf1 b9bb a1e3 8c3a
00000350: 91d8 0e3c f027 6dbb 5d0e dfbb 4cb3 ab3a
00000360: 17a6 4f3b 543e a63a 8459 a2ba a811 25bb
00000370: c9e6 3abc be54 01bc 8a76 a53b 9fad 84bb
00000380: 1661 fcba 1d4c c6bb 5401 9638 167b f93b
00000390: c0ad 513a d545 deba ef79 e53b 4997 8932
000003a0: 679d 0e3a 4e81 8739 68f3 00bb 01a9 2639
000003b0: c2e5 5c01 eb22 0c3b 1a04 0f2f 2efb 2593
000003c0: b502 e4ba 773d e03a e68e c1b8 f305 383b
000003d0: a356 8c3a 4b2e a6b9 cedc 36bb e7b5 963b
000003e0: 8fd2 b9ba 0213 2dbb 113a 683b 511d dbba
000003f0: 80dc 353b bd8b 2c3b 0178 38bb d6cc 45bb
-5.4781937e-14 0.0025559561 -0.00031616073 -0.0015995469 -0.00060539326 -2.5856058e-33 0.0004515048 -0.00022225853
-0.003040988 0.0013355573 -0.0010099618 0.0028621485 -0.00033002396 0.0014358874 -0.0018381686 0.0024776387
0.00065304973 0.0018862893 -0.004654189 -0.00078383856 0.005768588 -0.0011395309 0.004058281 -0.00062268705
0.0003431971 0.0015369222 -0.0022323444 0.0016801745 -0.004847531 0.0005093127 -0.0026372913 -0.0041562337
-0.0005368077 -0.0034629938 0.0016599946 0.0014390257 0.0012220038 -0.0032303995 0.0034030646 -1.3206939e-07
-0.0015847309 -0.0024759464 0.00027420308 0.00049674185 -3.109222e-38 0.0016716297 -3.917945e-25 5.1147244e-28
0.0015953046 0.0016127754 0.0001779737 0.0031568678 -0.0012332518 0.000708915 -0.0007195564 0.0027041459
0.0004679941 0.00028924053 -0.0025337425 -0.00026416776 0.00073931034 -0.00011309914 0.0030365586 0.0045399885
-9.255055e-13 -0.0037624147 0.000102771155 0.0016837514 0.0012654801 1.9644345e-33 0.00066070125 0.0005694913
-0.0027135035 -0.0011071579 -0.0015714159 -0.0025414776 -0.0015774063 0.0011422634 -0.00091065944 0.002108025
-0.0022856179 -0.0004222699 5.6538607e-05 0.00012005107 0.0020469716 -0.00085155625 0.001782572 -0.00061165023
0.000855645 0.000967919 -0.0005188857 0.001969687 -0.00060742674 0.0011366046 0.0012307188 -0.0007323079
-0.0019022503 0.0007750105 0.00020356948 -0.002659036 0.0015557425 0.0005410614 -0.0056563723 2.8845173e-08
-0.00090050226 -0.0007240771 3.1072872e-05 -0.0012417401 3.435017e-38 5.3077412e-05 -3.0501656e-17 -3.2629032e-27
-0.0015313007 0.00057379476 0.00034202205 0.0012289354 0.0023279132 0.00047072477 -0.0004137534 -0.0030169336
-0.00070058607 0.0003504387 -0.0015295419 -0.0015159518 0.0024126102 0.0010913241 -0.00063127116 0.0034154037
-0.003013189 0.047547027 0.08650078 -0.08592207 0.14632623 0.011797637 0.11661789 0.036071453
0.12825793 -0.10322792 -0.12228035 0.3398666 0.23411846 -0.028055822 -0.12591459 0.17323036
-0.047006097 -0.046513133 0.1798757 0.027363336 -0.1552701 0.17334493 -0.09718922 -0.14590615
0.15422046 0.28279513 0.08404073 0.11243797 -0.104521565 -0.13126458 0.18964209 -0.074165404
-0.045398444 0.09708524 -0.17335962 -0.13238174 0.22397693 0.110365234 0.33468354 0.028600974
0.32243618 -0.14731513 -0.15248248 -0.31473282 -4.40633e-05 -0.28921434 0.011976223 0.0004820159
0.12349784 -0.18062392 0.1571464 0.17180678 0.011178495 -0.053698003 0.057330824 0.071326286
-0.11301077 0.059674602 -0.11780748 0.060056094 -0.12751202 -0.16348921 0.083095096 0.16017155
-2.8150757e-10 0.0107651595 -0.0021549277 -0.001006034 0.00089628086 -2.801811e-33 0.0003323687 -0.0015440164
0.0022938729 -0.003609739 -0.003627073 0.0007093346 0.0005136281 -0.00056577224 -0.00010579444 0.0045429654
-0.0021929129 0.0029418343 -0.005674577 0.0010748991 0.008718626 -0.0036187135 -0.006807132 0.0013099699
0.003168469 0.001268337 -0.0012386297 -0.0025187526 -0.0114075625 -0.007893739 0.0050495313 -0.0040490176
-0.0019255008 -0.006051554 7.152805e-05 0.00761355 0.0007998608 -0.0016958067 0.007003061 1.6017696e-08
0.0005440325 0.00025845546 -0.0019676331 0.00015893953 4.0572461e-38 0.0021383117 1.3007231e-10 -2.094977e-27
-0.0017395826 0.0017108162 -9.229574e-05 0.0028079718 0.0010706972 -0.00031696478 -0.0027902606 0.004599321
-0.0014177131 -0.0026409035 0.0035435 -0.0016717111 0.0027749836 0.0026328408 -0.00281477 -0.0030181906

fc_mu.bias f4 [4]
00000000: b779 1dbb c242 13bb 1c4e b0bd 4fe0 d83a
-0.0024028847 -0.002247021 -0.08608648 0.0016546341

fc_logvar.weight f4 [4, 64]
00000000: 8849 4000 38ce b6b9 1492 7a3a dd05 8bba
00000010: 4e18 ff38 4a52 3984 5074 a339 d886 503a
00000020: 8963 07b8 fdac e2ba 716b 3fba 5f3e e938
00000030: 403e bfb7 d662 a1b9 a7a0 0fb9 ab0a 7e39
00000040: a722 dbba 68cc df39 b224 bf39 7c83 053a
00000050: ba31 70ba 06e7 563a 9b9a e438 f10d 9bba
00000060: 25ed 973a 4077 deb9 047b 4a38 69da 803a
00000070: 2ea2 e4b9 76ad 50ba 2c92 263a f002 c9ba
00000080: 4eba 013b 5002 b639 d5d0 b8b9 a9de c1ba
00000090: 66a5 843a f87d 5a3a a07d d73a 1f41 5233
000000a0: 7038 6bb8 2eea cdb8 5a31 f7ba 7ace d539
000000b0: b06d 1b80 63a5 e43a 21da 0d90 4efc 3112
000000c0: d063 c3b7 55f2 9a38 d2a2 44b9 b46c 0039
000000d0: 8961 283b 2b83 3ebb e20d 9fb8 e64f 2a3a
000000e0: 27f9 8fb9 b265 013a bebd 61b9 17a4 133a
000000f0: 5468 75ba 24c8 8db9 7731 0e3a f1cf da39
00000100: 3875 3a00 abf9 6b39 92da 07b8 cb6b 0f39
00000110: 4a5c 28ba 8cf1 b386 aa58 1939 178e fe39
00000120: a44e f8b8 b974 eeba 299c 37b9 33cd 1bbb
00000130: 18be 61ba 0327 e739 e0df 133a 2b27 44ba
00000140: efc7 01ba 090b 37b8 f2fc 6539 30fc c439
00000150: 2f32 bb39 f22e bdb6 442a 8b3a e21d c4b9
00000160: 39aa 4bb9 36c9 3a3a fc2b d738 1294 3b3a
00000170: d731 ed38 2272 4a38 d795 0d3a 8687 d8b9
00000180: b768 05bb df91 87b9 bd7a f339 62ee 76ba
00000190: 46c8 9c3a e1a7 e938 44fb c139 b1ff ab32
000001a0: 5c29 a7ba 834c c639 1805 9bba 596c 39bb
000001b0: 80e7 cd00 6a42 d5ba e61f 9a0e 7242 7610
000001c0: 2ff3 8cba 32cc fbb9 aa73 d13a 08e6 80b9
000001d0: c0c3 943a 21ab 63ba 0af2 73ba 41a7 7239
000001e0: d05d 8cba 511c 7bb8 751f c4b9 1b4a 9139
000001f0: edb4 8639 ca6f be39 24ff a6b8 2830 e237
00000200: 0071 7135 6113 a0be a19d fabd 0e98 64be
00000210: 405e c0bd 845f 6289 5688 56bd 8709 cfbd
00000220: d0c5 f7bc dc4e 68be 4a4b 96be 77ad bcbe
00000230: 0125 ffbd fc3f 80be c29e 57be da6a a6bd
00000240: dbf7 8bbe d016 a4be 3418 17be ac7b b1bd
00000250: 7804 a2be 2c14 98bd 88bd d0be 21a6 77be
00000260: 5293 5f3c 5f38 73be ca7a 93bd 2457 6abe
00000270: 45ae afbe ce80 76be 1a79 acbd 4e5c 81be
00000280: dc08 d43e 491d 28be e7b2 adbd 233a 95be
00000290: 1b63 853d 3225 21be 510b 84bc dc4f 59b4
000002a0: f90d 8fbc b93a bdbe 8cac 59be cb9a a5bd
000002b0: 2eed 3181 830f 8abd 21f8 d1b4 dbbf 6c14
000002c0: fc64 95bd 31c8 98be 7e76 2ebd 152c c9bd
000002d0: 0cf8 ab3e 8dd1 efbe 264d 42bd 2c3a 65be
000002e0: daf7 8bbe 96df 17bd 1316 d4bd d1e0 073c
000002f0: 930c 90be 2af8 8bbe ec0e 3cbe 897a aabc
00000300: 53c5 792e 105d 27ba 03fa b0b9 528c 32ba
00000310: 1635 2e38 90bd 7a88 949a f439 c9df 79b9
00000320: 30d0 78b9 b138 62ba b622 70b9 88c9 10bc
00000330: 5e40 0bbb ce68 14bb 7769 3cba e45a 30b9
00000340: 25ee 7abb 570c 9cba 99ca a7b9 ca46 31ba
00000350: b00b 84b7 c278 9d39 3265 b2ba 2665 73ba
00000360: af2c b439 e223 d0bb f0ff c339 9e89 b339
00000370: d237 40ba 68d5 8a39 5818 1a39 9c76 eeb9
00000380: fb95 4c3b b2c2 b0b9 fffe ee39 f24c 1eba
00000390: efd1 21bb 650d f9b9 e812 40bc bcf9 df33
000003a0: de8b 99ba 4437 22b9 53b9 80ba 98bf 06ba
000003b0: 329b 0781 24d1 ccba 6003 97ad 23b1 1f12
000003c0: 631f 33ba 3e94 96ba 2092 98bb b57f 8eba
000003d0: fa93 21b9 b82a 8cbb 31eb 52b9 a4f1 bab8
000003e0: 79d7 a6ba a444 2f3a f2c9 a239 48ff 72b9
000003f0: 7187 aeba 323c 7bb9 5062 3d39 c0a2 9c39
5.90385e-39 -0.0003486739 0.00095585105 -0.0010606606 0.000121638746 -2.178443e-36 0.00031176442 0.00079546636
-3.2279208e-05 -0.0017293986 -0.0007302082 0.00011121923 -2.2797962e-05 -0.00030781952 -0.0001369739 0.00024227302
-0.0016718701 0.0004268617 0.000364577 0.000509314 -0.0009162683 0.00081978773 0.00010900685 -0.0011829716
0.001159106 -0.00042431988 4.827512e-05 0.0009830716 -0.00043608382 -0.0007960418 0.0006354179 -0.0015335958
0.0019794884 0.00034715468 -0.00035250807 -0.0014791089 0.0010120093 0.0008334811 0.0016440637 4.8953662e-08
-5.6080928e-05 -9.818781e-05 -0.0018859312 0.00040780363 -2.518907e-39 0.0017444309 -2.7975387e-29 5.616234e-28
-2.329229e-05 7.38843e-05 -0.00018752672 0.00012247526 0.00256929 -0.0029069881 -7.584297e-05 0.0006496891
-0.00027460718 0.0004936113 -0.00021528357 0.0005632056 -0.00093615544 -0.00027042732 0.0005424241 0.0004173513
5.368509e-39 0.00022504355 -3.2390068e-05 0.00013677699 -0.00064224435 -6.768724e-35 0.00014624247 0.0004855252
-0.000118402095 -0.0018192745 -0.00017510414 -0.0023773431 -0.0008611395 0.0004408882 0.0005640965 -0.0007482643
-0.0004950752 -4.3640877e-05 0.00021933371 0.00037571928 0.0003570481 -5.638104e-06 0.0010617455 -0.00037406298
-0.00019423002 0.00071253197 0.000102601916 0.0007155548 0.00011310324 4.8266847e-05 0.0005401051 -0.00041299703
-0.0020356604 -0.0002585789 0.0004644002 -0.0009419677 0.0011961542 0.00011141576 0.00036999036 2.0023295e-08
-0.0012753415 0.0003782251 -0.001182708 -0.002829334 1.8909323e-38 -0.0016270403 3.799465e-30 4.8566133e-29
-0.0010753627 -0.00048026588 0.0015979905 -0.0002458545 0.0011349842 -0.0008684863 -0.0009305781 0.00023141225
-0.0010709111 -5.9869435e-05 -0.0003740747 0.00027711768 0.00025693272 0.00036322913 -7.9630205e-05 2.6963724e-05
8.994393e-07 -0.31264785 -0.122370966 -0.2232363 -0.09392977 -2.7248672e-33 -0.052376114 -0.10109239
-0.030245692 -0.22686332 -0.29354316 -0.36851093 -0.1245823 -0.25048816 -0.21056655 -0.08125849
-0.27337536 -0.32048655 -0.14755327 -0.08666167 -0.31644034 -0.074257225 -0.407696 -0.24184467
0.013645964 -0.23751973 -0.072011545 -0.22884804 -0.34312645 -0.24072573 -0.08421536 -0.25265735
0.4141301 -0.16417421 -0.084813885 -0.29145917 0.065130435 -0.15736845 -0.016118677 -2.0238753e-07
-0.017462717 -0.36958864 -0.21257228 -0.08086165 -3.2679934e-38 -0.0674124 -3.910982e-07 1.1952792e-26
-0.07294652 -0.29840234 -0.04259347 -0.09822861 0.33587682 -0.46839562 -0.047436856 -0.22385472
-0.27337533 -0.037078463 -0.10355773 0.0082933465 -0.28134593 -0.27337772 -0.18365067 -0.020810382
5.6791304e-11 -0.0006384412 -0.0003375561 -0.00068110705 4.1534273e-05 -7.545447e-34 0.00046654476 -0.00023829857
-0.00023728679 -0.00086296635 -0.00022901114 -0.008837111 -0.0021248083 -0.0022645476 -0.00071873463 -0.00016818527
-0.0038288918 -0.0011905533 -0.0003200367 -0.00067625626 -1.5741069e-05 0.00030035345 -0.0013610481 -0.00092847866
0.00034365567 -0.006351934 0.00037383987 0.00034244073 -0.00073325366 0.0002648041 0.00014695653 -0.00045483268
0.0031217325 -0.00033714395 0.00045584884 -0.00060386874 -0.002469178 -0.0004750296 -0.011723258 1.0429673e-07
-0.0011714657 -0.00015470112 -0.0009820856 -0.0005140244 -2.490693e-38 -0.0015626294 -1.7168211e-11 5.038989e-28
-0.0006832985 -0.0011488271 -0.0046560913 -0.00108718 -0.00015409282 -0.0042775534 -0.00020114776 -8.91418e-05
-0.0012729011 0.00066859485 0.0003104951 -0.00023174018 -0.0013315511 -0.0002395965 0.00018061069 0.00029875897

fc_logvar.bias f4 [4]
00000000: 804c 3b3a 326c bd3a 04e8 bebe c142 983a
0.0007144883 0.00144518 -0.3728639 0.0011616574

decoder.0.weight f4 [64, 49]
00000000: 6972 433b a442 c5b9 d247 153e efb4 11bb
00000010: bf9c a0bc b8fe e3bb 5033 e1be 69fc 5dbc
00000020: f2d0 80bd 37d3 dc3d 64bd df3c 5a2f 8abd
00000030: 8ba7 f13c 6f2b a73b c0c3 9e3c f143 ea3c
00000040: b721 63bd 1eb3 173d 5b30 633b 6a3e 8abb
00000050: 66bf 273c c077 183c 7d9b 01bd 2bbf 84bc
00000060: aa6d 17bd 1e65 a5bc 715d 203d 7213 543d
00000070: 128b 803d 42b0 303d de87 0b3e 8969 7d3c
00000080: 4fbc 9bbc 7a1b 04bc 18c7 0e3c 8f0b 423d
00000090: d65b 63bc 43ab 0c3d dbfd 293d ce30 e0bc
000000a0: 4078 ca3a 5c68 ecbc f53c f83b 3c53 a83b
000000b0: 733d 043e 9ed6 b83d c198 403d f4a3 223d
000000c0: d1a8 843d 7115 ddbb 837f a23b f231 eb3d
000000d0: c0aa 543c fa68 a93a 9daa 563d c34a 55be
000000e0: 0a5f 953c 33c3 c03d ca4e 6ebd abac c23b
000000f0: 075f e7bc 94fe dcba 12e1 463d 0304 20bd
00000100: 13ab 1c3d c84b fa3c cda9 1b3d db62 ab3a
00000110: 5e01 35bc d194 893c 516c cabc 5afc eaba
00000120: 6929 0cbd b074 a2bc 49b6 2f3d 08cc bd3b
00000130: 0872 4ebd da8e 013d 9ca7 2abd 442c cabd
00000140: 2897 ba3a 69ac 98bc cf8d 013c 397d b93b
00000150: 9c66 1dbd 03a3 2dbd a71f bdbc bcff 08bc
00000160: 4f38 a6bb 3c7d b93b fbcb 2eb8 bdee 24bd
00000170: c828 963b 64c9 c0bc 96e8 ce3a 3f0a 46bc
00000180: 4b69 01bd 128a f0bb 2798 153b 71ad 273b
00000190: 3780 46be 08b4 873b 8cda f13b d486 463d
000001a0: 8993 773e 6299 0c3d 53c4 053c 9be5 273d
000001b0: 8b33 e53d 2b1a 86bd 7f23 dabc 706c e0bc
000001c0: 74d9 b73c 73e9 36bd f7b3 b13d 82a0 b13d
000001d0: 5e67 11bd fe16 913c 56b6 b038 550f 0e3b
000001e0: 3dbd dfbc d96b 923d 913c 8b3c afa0 573d
000001f0: 1420 9dbd 37f1 673d eb97 fcbd abd5 e23d
00000200: f0ab fc3c 914c 273e 7b65 f83b b780 7abc
00000210: 1a2c 2c3c 9697 6d3b ba22 023d 66bf d23d
00000220: 05c5 22ba fe54 4039 12fe 2d3c b1a1 283c
00000230: c1e5 a13d 9371 853d 5e77 8a3d 5eb1 7a3d
00000240: a1a2 dc3b 666e 953c 1d1d c43b dd9b cebb
00000250: acd4 5ebc 375a babd 36b8 3d3c cf40 d03b
00000260: 7333 a1bb c870 0a3e b4a7 50bd 24cc 1abd
00000270: 2e42 f4bc 9e3d c7bb baab 09bd 4e23 023d
00000280: 0de4 483c af48 9fbc c6e9 86bd 7750 94bb
00000290: e960 1c3c d615 b8bc b8ce 31bb c97c 733b
000002a0: d294 023c e61a 713d e17b 0fbb aa3a 213d
000002b0: ce2d d63b ae65 a8bc 3ab5 853c 0e4e 9bbd
000002c0: 8dcc 503c 8be8 97bd 5c95 acbb d095 56bc
000002d0: 2bae 1a3b c15c 703b b8db dc3c 6e41 4a3c
000002e0: 6794 1ebd 8e96 8ebc c4ac 983b c15c 703b
000002f0: 2d71 9b3b c2ad c73c 3124 d53c c7e9 8abd
00000300: c82f ce3c cb26 50bc 04e5 29bc 682e 343b
00000310: c5cc f73a c978 e5ba 3dc2 1b3e 5f51 9a3a
00000320: 0e8c 23bc 89b6 c0bb 5fd8 e7be 8cb4 43bb
00000330: 3686 f53d 4fc5 993d b32d 31bd 02c3 473d
00000340: 6527 f2bc 6e13 35bb 221f ac3d 7c39 08be
00000350: 9477 b63d fe52 c9bd 867f 863c 2c4c 81bc
00000360: b77a 1c3c d020 ffbb f3d8 873d 8b67 32bd
00000370: ec11 8cbd f399 d13d eef3 5ebd ddca 1dbd
00000380: 6cac 043c db01 2fbd 7ef4 2b3c 493b adbd
00000390: e8d9 93bc 390b 2abc 2ce6 05bc d2ca 703c
000003a0: 6689 fdbc 0dd5 f4bc d2b1 ea3b 8217 3fbc
000003b0: de12 e6bb 9abb 393c 6cbe 0c3d 785f 423d
000003c0: 32cc a0bb 3983 a03d e929 763d d16a 383d
000003d0: ed11 fe3c f216 d83a 734a 973a ee28 943d
000003e0: e170 2439 84fc 253c 7f3e cabc 65ac f8be
000003f0: eeb4 4cbc 043e d93d 9ab1 9bbc 39f1 e7bc
0.0029822832 -0.0003762442 0.14578179 -0.002223309 -0.019605992 -0.006957855 -0.4398446 -0.013548949
-0.06289853 0.107824735 0.027311988 -0.06747313 0.029498836 0.0051016132 0.01938045 0.02859685
-0.055452075 0.037036054 0.0034666273 -0.004218866 0.010238504 0.009305894 -0.031642426 -0.016204437
-0.03696982 -0.020189818 0.039151613 0.051776357 0.062765256 0.043136843 0.13626048 0.015467056
-0.019010691 -0.008063192 0.00871446 0.047374304 -0.013876876 0.034343015 0.04150186 -0.027367022
0.0015447214 -0.028858356 0.007575626 0.0051368754 0.12914066 0.0902531 0.047020677 0.03970714
0.06477512 -0.006746941 0.0049590482 0.11484136 0.012980163 0.0012924962 0.052408803 -0.208293
0.018233795 0.09412231 -0.058180608 0.005940994 -0.028243555 -0.0016860538 0.048554488 -0.039066326
0.038249087 0.030553713 0.03800373 0.0013075726 -0.011047689 0.016794594 -0.024709852 -0.001792799
-0.03421918 -0.019831032 0.04289845 0.0057921447 -0.050401717 0.031630374 -0.04166375 -0.09871724
0.0014235722 -0.0186369 0.007907345 0.0056606797 -0.038427934 -0.04239179 -0.023086382 -0.008361753
-0.0050726305 0.005660681 -4.1674804e-05 -0.04026674 0.004582498 -0.02353353 0.0015785869 -0.012087404
-0.031594556 -0.007340678 0.0022826286 0.0025585557 -0.19384848 0.0041413344 0.007380789 0.048468426
0.24177374 0.034325965 0.008164483 0.040990453 0.11191472 -0.0654796 -0.026628254 -0.027395457
0.022442557 -0.04465623 0.08676904 0.086731926 -0.03549897 0.017711159 8.426297e-05 0.002167662
-0.027311916 0.071494766 0.016996654 0.052643474 -0.07672134 0.056626525 -0.123336636 0.1107591
0.030843705 0.16337802 0.007580457 -0.015289477 0.0105085615 0.0036253682 0.0317714 0.102904126
-0.0006209168 0.00018342209 0.010619657 0.0102924565 0.0790515 0.06515803 0.06761049 0.061204307
0.006733254 0.018241119 0.005984916 -0.0063052014 -0.01360051 -0.09099238 0.011579564 0.006355382
-0.0049194633 0.13519585 -0.050941184 -0.03779234 -0.029816713 -0.0060803434 -0.033611037 0.03177195
0.012261403 -0.019443838 -0.065875575 -0.0045261937 0.00954459 -0.02247135 -0.002713127 0.0037153235
0.007970052 0.058863543 -0.0021893906 0.039362587 0.006536222 -0.020556297 0.016321767 -0.07583247
0.012744081 -0.07417401 -0.0052668285 -0.0130972415 0.0023602347 0.003667638 0.026960239 0.012344701
-0.038715746 -0.017405774 0.004659267 0.003667638 0.004743716 0.024374846 0.026018234 -0.06782871
0.025169268 -0.012704561 -0.010369543 0.002749348 0.001890563 -0.001750731 0.15210815 0.0011773518
-0.009982122 -0.005881135 -0.45282266 -0.0029862253 0.11988489 0.07508337 -0.043256473 0.04876996
-0.0295598 -0.002762999 0.084043756 -0.13303179 0.089095265 -0.09830283 0.01641823 -0.015783392
0.009550742 -0.007785894 0.06633177 -0.043555778 -0.06839356 0.102344416 -0.05443185 -0.038523544
0.008097749 -0.04272638 0.010495303 -0.08458573 -0.018048242 -0.010378652 -0.008172553 0.014696794
-0.030949306 -0.029886747 0.007162311 -0.01166332 -0.007021292 0.011336232 0.034361288 0.047454327
-0.0049071545 0.07837529 0.060098562 0.045023743 0.031014407 0.001648633 0.0011542573 0.07234369
0.0001568231 0.010131005 -0.024688004 -0.48569027 -0.012494309 0.10607532 -0.019005585 -0.028313266

decoder.0.bias f4 [64]
00000000: fb74 ed3d 3838 96bd f4d0 143a 834c d73d
00000010: 495e 8bbd d4d6 833d 604f 7ebc 54fb b1bd
00000020: e76d 5a3d 8c8c 07bd fe88 c43d c0a8 b83d
00000030: fedd f9bd e4c7 b33d 520c 2e3a c719 34bd
00000040: e9e6 f63d 3a44 c7bc b2a7 99ba 8114 fcbd
00000050: 7ce2 d7bd a80d 8dbd b337 b63b f0a8 c9bd
00000060: 7e39 37bd ac7b 853d 88d9 3a3d 01f6 0e3d
00000070: 789e 3d3e 5e92 c1bd 2c33 343e f311 dd3d
00000080: e96d 213e 9d66 b5bc 304f d2bd 83b9 c73d
00000090: ee41 7b3d 4c84 60bd 34cf 91bd 3545 13bd
000000a0: 01d9 993d 10d3 e439 26d2 943d 1263 c8bd
000000b0: a09b 7abd 253f 0d3e 23f9 debc 21c5 213c
000000c0: 8211 35be d826 96bd 77f0 d13c 8a08 99bd
000000d0: 36e6 383d 2e9d a8bd 760b bebd 34e6 183d
000000e0: cbc8 12bc ab6a 85bd bf10 7f3d 2d1c 05bc
000000f0: f1cb 2fbd 0fe2 a43c 5c00 9cb9 3565 23bd
0.11594578 -0.073349416 0.00056768884 0.1051264 -0.06805093 0.064374596 -0.015521854 -0.08690515
0.053327467 -0.03309302 0.09596442 0.090165615 -0.12200545 0.087783605 0.0006639409 -0.043969896
0.12055761 -0.024324525 -0.0011722951 -0.12308598 -0.10541245 -0.0688737 0.005560839 -0.098466754
-0.044732563 0.06517729 0.04561761 0.034902576 0.18517482 -0.094517455 0.17597646 0.10794439
0.15764584 -0.022143656 -0.1026901 0.097521804 0.061342172 -0.054813668 -0.07119599 -0.035954673
0.07512093 0.00043644803 0.07266645 -0.09784521 -0.06118357 0.13793619 -0.027218407 0.009873659
-0.1768246 -0.073316276 0.025627358 -0.07472332 0.04514142 -0.08233105 -0.0927953 0.037328914
-0.008959006 -0.06514486 0.06227183 -0.008124393 -0.042919103 0.020127324 -0.00029754906 -0.03989144

decoder.2.weight f4 [64, 64]
00000000: c3cb ec3b 0ca2 683d b2b8 c33d b184 a73d
00000010: 476d 9b3d b5a5 8dbd d9f2 c7bd cac7 053d
00000020: 46c2 fa3b 6574 873c 3504 84bd e898 af3c
00000030: 3217 313d d49c 9bbc e4c5 fa3c 1c63 383d
00000040: ebf3 6bbd f924 493b f3aa 853d 1072 e63c
00000050: be14 d33b d094 91bd fcfe 4d3c 7c8c 00bc
00000060: ae0b 063d fd4c 7cbd e9ee bfbb f9e8 263c
00000070: c579 8b3d 0e51 38bd 35e8 043e 83f8 94bc
00000080: 9e63 883c af5a edbc df19 4cbb a980 273d
00000090: 19db e03d 1688 adbb 1047 723d a950 663b
000000a0: d3f7 7bbd 7206 53bc 1154 c73c 025a d33c
000000b0: 907c c7bc f9a8 5a3c 9169 1b3c 0e31 56bd
000000c0: 4534 bc3d 3d6b 0d3c b82b 253d a194 803d
000000d0: 0b26 b4bb d2e8 ed3c b34b 33bc 5281 67bb
000000e0: 3306 9bbc 1385 4e3d fa9a a83d 1e80 15bd
000000f0: 27cc b73d 5d46 3fbc e57b 88bd 73ff 9a3d
00000100: 9e15 623d c2e7 933c c053 5abd 8e13 fcbc
00000110: 0c72 ca3c a27a b73d 1c6e c1bc 4307 ccbc
00000120: 338f 423d 05f6 3ebc 09a2 d23d afea 013d
00000130: 5f4b 9bbc be68 96bc 1406 6fbc 1553 69bc
00000140: adcd 4ebd 7fd0 b4bc 5207 60bd dfac 8fbb
00000150: 8063 9e3c 140e acbd 380d 83bc 929b 88bc
00000160: c2c3 e139 ccdb 06ba 5849 a23d dd07 113d
00000170: ab27 393c 0227 873d d5f8 a63b f6d6 70bd
00000180: 7abd e1bc 4da0 d9bc aae8 aebb 0990 d2bc
00000190: 0826 11bd 54f6 09bc f74d c93b febb 423c
000001a0: 8168 bb3c c1fd 2a3e 9b77 3dbd f96a 5f3d
000001b0: f0bf 9c3c 27a2 65bd 0bac 83bc 9a66 11bc
000001c0: 0975 a0bd 9f44 f33d ada4 4e3b e196 2dbb
000001d0: 9ba1 96bc 6d99 243b 33bc bfbc 560d 75bd
000001e0: 42aa f5ba b796 ff3b d2cd 2fbc 61e5 40bd
000001f0: 4398 03bd 1320 35bd e5a1 f9bb b94c 4cbc
00000200: e0a2 ceba 4c4b 9b3c fb59 5bbd bd4c 98bc
00000210: 4a25 fdbb 196d b93d 04e6 3d3d 77f5 72bb
00000220: 6267 953b da28 b03c 0eac cc3d d981 bb3d
00000230: 37ae 8ebd 246b 0b3d 2e18 9abc 54df f53b
00000240: 3481 413c fba5 ddbb e80b 743c 99e4 febc
00000250: c371 2abb f7db 04bc 9024 7738 65cd d43c
00000260: eecb 793a 5b0c c43c 48f8 813d 140e dd3c
00000270: e895 85bd 1919 2d3d 2101 3dbd 519f 543d
00000280: 8e78 273d 0eab c63c 793c 763c 92f8 0bbd
00000290: 9a36 98bc 4f34 ccbb 2747 073d a92e 00bc
000002a0: aa8e b9bc 86a8 663d b048 3c3b fcd4 9ebc
000002b0: 599d d53c e20a 9fbb 47c6 45bd 01a4 ec3c
000002c0: 1c19 a1bd 561c 003e be3c 3a3b d25b 2fbd
000002d0: 5863 5e3d 49e4 71bc edff 75bc 5ce2 4d3d
000002e0: 58ad f4bc fbc3 d83c 43a0 233d 8191 d7bc
000002f0: bf95 0cbd 82b7 47bc 4a44 183d 0fb7 7f3c
00000300: 33ca b7bd b07d 823c 46ce 30bd 8e66 fbbc
00000310: f883 4b38 eb17 f5bb 0310 00bc 3bd4 133e
00000320: 77db a8b9 6eed f83c 2bfe 0100 4584 2db8
00000330: dc00 0281 bec2 0b3d 31a2 41bc bfe7 a23d
00000340: 3f8e dbbd 8655 29bb f0b4 5d3d ca53 a000
00000350: f6ab e306 55e7 f13d 3047 d13b 920b 163e
00000360: b06d 9dbb 608b a3bd af68 053a f1e6 1bbd
00000370: db70 ddbd 377e 7c3c 55bb 1dbd 1ad7 4cbc
00000380: 2340 0dbe 582e 2b3e 76d8 8cbb 0904 7cbc
00000390: ee89 68bd e2c5 2700 1c57 393b d8f3 c03b
000003a0: e61b bdbc 1bdf 68bc aa6a 6ebd f548 973d
000003b0: 9cad a181 e432 8abd efec fdbc e9ec a1bc
000003c0: f6e8 8001 c38e 8dbd f3f1 58ba 1227 d23d
000003d0: 9f31 26bd 7a5d ef3c 5c3d 8636 5e6c 86bc
000003e0: 233b 073d f6b5 ef3b 392f 86b1 7a65 22bd
000003f0: 8cf8 ef1b d3c5 1abd cc44 7fbc 4b78 41bc
0.0072264387 0.056795165 0.09556712 0.08179606 0.075892024 -0.06916372 -0.097631164 0.032661237
0.0076525537 0.016534993 -0.06446115 0.021435216 0.04323501 -0.01899568 0.03061194 0.045016393
-0.057605665 0.0030692203 0.065267466 0.028130561 0.0064416816 -0.07108462 0.012573 -0.007845994
0.032725982 -0.06159686 -0.0058573377 0.010187381 0.06810335 -0.044999175 0.12979205 -0.018184906
0.016649064 -0.028973905 -0.003114335 0.040894184 0.109792896 -0.0052957637 0.0591498 0.0035143292
-0.06151564 -0.012879955 0.024332078 0.025799755 -0.024351388 0.01334595 0.009485618 -0.052292876
0.09189657 0.008631525 0.040324897 0.06278349 -0.005497699 0.029041681 -0.010943341 -0.0035324884
-0.018923854 0.05041988 0.082326844 -0.036499135 0.08974486 -0.011674491 -0.06664256 0.07568254
0.055196397 0.018054847 -0.053302526 -0.030771043 0.024712585 0.08958937 -0.023612075 -0.024905806
0.047499847 -0.011655335 0.10284812 0.031717952 -0.018956838 -0.018360492 -0.0145888515 -0.014241
-0.050489116 -0.022072075 -0.05469448 -0.0043846215 0.019334555 -0.08401123 -0.015997514 -0.016675744
0.00043061195 -0.00051444466 0.079241455 0.03540789 0.0113009615 0.06599237 0.005095581 -0.058798753
-0.02755617 -0.026565695 -0.0053377943 -0.025703447 -0.03543666 -0.008420546 0.0061433273 0.011885641
0.02287698 0.16698362 -0.046256643 0.054545376 0.019134492 -0.056062844 -0.016073247 -0.00887456
-0.07834823 0.11878323 0.003153126 -0.0026487636 -0.018387606 0.0025115863 -0.02340517 -0.05982717
-0.0018742757 0.007799949 -0.010730224 -0.047093753 -0.03212763 -0.04422004 -0.0076181763 -0.012469464
-0.0015765093 0.018956803 -0.05355261 -0.01859128 -0.0077253925 0.09054012 0.046361938 -0.0037072578
0.0045594433 0.021503855 0.09993754 0.09155626 -0.069668226 0.034037724 -0.018810358 0.0075034294
0.01181059 -0.006764171 0.014895417 -0.031114863 -0.0026007749 -0.008109084 5.892344e-05 0.025976846
0.0009528984 0.023931673 0.06346184 0.026984252 -0.06522733 0.042260263 -0.046143655 0.05190975
0.040886454 0.024251487 0.015029066 -0.034172602 -0.018580724 -0.0062318216 0.03302684 -0.007823625
-0.022651035 0.05631306 0.0028729849 -0.019388668 0.026076006 -0.0048535923 -0.048284795 0.028886797
-0.07866117 0.1251081 0.0028417553 -0.042812176 0.05429396 -0.0147639 -0.015014631 0.0502647
-0.029867813 0.026460638 0.03994776 -0.026314499 -0.034322497 -0.012189748 0.0371745 0.015607609
-0.08974113 0.015929073 -0.043165468 -0.03068855 4.8521877e-05 -0.007479658 -0.0078163175 0.14436428
-0.0003220697 0.030386653 1.83014e-40 -4.13696e-05 -2.3877846e-38 0.034121267 -0.011818455 0.07954358
-0.10720491 -0.002583833 0.054127634 1.4723737e-38 8.5640584e-35 0.11811701 0.00638666 0.14652851
-0.0048043355 -0.07985568 0.00050891464 -0.03806204 -0.10812541 0.015410951 -0.038508732 -0.012502456
-0.13793997 0.16716897 -0.004298265 -0.015381821 -0.056772165 3.652571e-39 0.002828068 0.0058884434
-0.023084592 -0.014213349 -0.05820719 0.07386962 -5.9391177e-38 -0.06747988 -0.030996768 -0.019766288
4.7354057e-38 -0.06911995 -0.00082757993 0.10261358 -0.040574666 0.029219378 4.0006544e-06 -0.016409095
0.03301538 0.0073153926 -3.905282e-09 -0.039647557 3.9699853e-22 -0.037786316 -0.015580367 -0.011808465

decoder.2.bias f4 [64]
00000000: ef7c e83d a34f 143d eafa 963c 3636 0bbe
00000010: bbd6 223d 07be 16be 4b8f 4abe a2dc bcbb
00000020: 7b66 9cbd f3b5 893b e311 a23d 570d f43d
00000030: 78c1 9d9e 59ab 3c3e 79f2 88bd d353 0c3e
00000040: ff62 b1b9 7fe9 c7bd 2eea 7fbd 2950 acbd
00000050: 574c efbd 80de fcbd 4947 b23d d315 b63d
00000060: 5985 4dbd 91eb d5bc 03cb 323d 64f3 0dbe
00000070: b8da a43d 3602 7ca1 bc0c 883d cbef a0bd
00000080: b066 ba3b 6085 bd3d 729f dcbb cf80 e73b
00000090: 93bc 01be fee2 313d 5439 14be a9b3 35bd
000000a0: ed61 3d3e 4765 acaf 7457 29be de22 6e3d
000000b0: 6c02 f1bc ad56 c53c d716 64bd 7ead adbd
000000c0: 5094 febd e3d4 06be 82e7 b2bd 8116 17be
000000d0: 9a99 7e3d 8486 febd 2acb ac3c 0869 9ebd
000000e0: 8eb4 b7bd 05a8 683d fbb1 813d ce6d 0db6
000000f0: f5e7 723c 1f28 bdac 19d8 3bbd 4c7e 3abd
0.11351954 0.03620876 0.018430192 -0.13594899 0.039755564 -0.14720927 -0.19781224 -0.005763606
-0.07636734 0.0042025982 0.07913568 0.11916607 -1.6703038e-20 0.18424739 -0.06686873 0.13703851
-0.0003383383 -0.09761333 -0.06247919 -0.08413727 -0.116844825 -0.12347126 0.08705003 0.088908814
-0.050176 -0.026113303 0.04365064 -0.13862377 0.0804953 -8.5383847e-19 0.06643054 -0.07858237
0.005688511 0.09253955 -0.0067328745 0.0070649157 -0.12669592 0.043429367 -0.14474994 -0.04436079
0.18494387 -3.135858e-10 -0.16537267 0.05813872 -0.0294201 0.024089182 -0.055685844 -0.08480357
-0.12430632 -0.13167147 -0.08735563 -0.14754678 0.062158205 -0.124280006 0.02109297 -0.07734877
-0.08969985 0.05680086 0.06332775 -2.1074552e-06 0.014825811 -5.3761574e-12 -0.045860384 -0.045530602

decoder.4.weight f4 [1, 64]
00000000: 2869 cd3d 44ce 95bd 9575 51bd fd46 bcbe
00000010: 5cd1 8fbd 0828 303e 02ce 2bbe 714f 96bd
00000020: 0f8c 19be eb06 fcbd 8107 d03d 71f4 aa3d
00000030: 4b8b bfb5 e8bf f63d 28ca fa3d f205 233e
00000040: 0179 30b9 9e67 0cbe 4814 77bd 1a39 dc3d
00000050: 9bda d2bd 248c a7bd 61d7 af3c 8ccd ac3d
00000060: 2009 a3bd 8e55 dd3d 038a 093d 7de7 86bd
00000070: 8592 1d3e 32c5 1a33 2e8b fc3d 47da 063e
00000080: 2613 873d d7d0 ed3d a425 7a3e b69d a2bc
00000090: d05a c9bd a008 e6bd 792e fbbd 86dd 52be
000000a0: f7b1 003e 0b99 a82c 5c04 bebd 01aa e43d
000000b0: 9994 d5bd 28a1 2abe f828 00be 3e94 02be
000000c0: 6c91 dfbd 6c92 b0bd aa40 0e3e b466 24be
000000d0: da9f 183e 6e6c 54bd bcd2 59bd a87a 6d3d
000000e0: bc94 c0bd 51d0 d6bd 69ec 0d3e 7e75 9db7
000000f0: afac c83d 6f08 e62d a310 b23d 8aaa c3bd
0.100298226 -0.07314733 -0.051137526 -0.3677291 -0.07022354 0.1720277 -0.16777804 -0.07339371
-0.14994834 -0.12306007 0.10157681 0.08347405 -1.4271149e-06 0.12048322 0.122455895 0.15920237
-0.00016829745 -0.13711402 -0.060322076 0.10753079 -0.10295602 -0.081810266 0.021465005 0.084376425
-0.07960725 0.10807334 0.033578884 -0.06587122 0.15387924 3.6035267e-08 0.12331234 0.13169204
0.06595449 0.11612099 0.24428421 -0.019850593 -0.09831774 -0.11232114 -0.12264723 -0.20592317
0.12567888 4.7918384e-12 -0.09278175 0.11165238 -0.104287334 -0.16663039 -0.12515628 -0.12751862
-0.10916409 -0.08621678 0.13891855 -0.16054803 0.14904729 -0.05186122 -0.053179488 0.057978302
-0.09403369 -0.10488952 0.13859715 -1.877057e-05 0.09798562 2.6151718e-11 0.086945795 -0.09554012
