models/cvae_L8_H64_B0.500_LR1e-03.pt (torch, 85749 bytes, 13 tensors)

encoder.0.weight f4 [64, 46]
000000 4f 43 8f 3e 6d 3b 8c bd 4f 80 08 bd d6 8a a8 3b
       0.2798104 -0.06847272 -0.03332549 0.0051435037
000010 7c 3d 88 3d d1 cc 1b bd 32 bf 9e bc fe 54 97 bb
       0.06652352 -0.038037125 -0.019378278 -0.004618286
000020 1b 29 03 be 69 a7 bd 3d 1c 44 c0 bc ea dd 7c 3d
       -0.12808649 0.092604466 -0.023469977 0.06173507
000030 2c e6 e1 3d 7e ff 67 3d ad 36 58 bc f4 0f d8 bc
       0.1103023 0.05664014 -0.0131966295 -0.026374795
000040 57 d1 9f bb dc eb 06 3d 04 5e af bc 75 8b 1f 3d
       -0.00487725 0.032939777 -0.021407135 0.038951356
000050 95 a2 78 3c 96 a6 4b bd 81 db d1 bd cc 94 c6 3d
       0.015175481 -0.049719416 -0.10246945 0.096963495
000060 e7 06 90 3d 29 e1 b9 3d f1 b6 be bd e1 6a 4e 3e
       0.070325665 0.09076149 -0.09312237 0.20157959
000070 ac f1 33 3e 85 e6 8e 3d a6 47 90 bd c8 2a 14 3d
       0.17572659 0.06977562 -0.07044916 0.036173612
000080 10 2d 39 3e c3 17 e4 bc e7 c8 f4 3d 97 8b 69 3d
       0.18083596 -0.027843362 0.119523816 0.05701789
000090 c0 2f 0a 3a 95 25 9e 3a 75 84 1f 3d 38 94 42 3d
       0.00052713975 0.0012065644 0.03894468 0.047504634
0000a0 df 0f 36 3d 61 b8 ed 3c 0b 91 de 3c e2 63 2a 3d
       0.04444873 0.029018583 0.027168771 0.041599162
0000b0 37 fe bb bc 17 fd c0 3d cd 3b a7 be 41 13 e3 3b
       -0.022948368 0.09423273 -0.32662812 0.0069297855
0000c0 91 cf 85 b8 eb 10 f7 3e e2 d4 b2 bb 8f 74 3d 3d
       -6.3805965e-05 0.48255095 -0.0054575065 0.046253737
0000d0 5a 06 29 bd 70 89 6a 3d 8a c2 c2 bc 85 dd 88 bc
       -0.041265823 0.057259977 -0.023774404 -0.016707191
0000e0 c4 ce dc 3c 6e 7b cc 3b 02 c1 d1 3c db 9c 67 3c
       0.026954062 0.0062403 0.025604729 0.014136518
0000f0 59 9a e2 3c 69 16 dc bc 07 ea 2a 3d 8c 9e 6a 3b
       0.02766149 -0.026866155 0.041727092 0.0035800068
000100 69 88 05 3d de 8c c6 3c e6 9d 01 bc 1f 22 0c bd
       0.032600794 0.024237093 -0.007911181 -0.034212228
000110 f9 bf d1 bd 9e 37 05 3e 59 64 d9 3d c7 72 53 bd
       -0.10241694 0.13009498 0.10614843 -0.051623132
000120 e4 6f 05 3e 10 f1 86 3d 69 75 8c 3c 4d 82 86 3d
       0.13030964 0.06588948 0.01714583 0.06567822
000130 99 19 20 3d a1 a1 f1 3d ae dd 3d 3e 0a f6 03 3e
       0.03908691 0.117984064 0.18541595 0.12886825
000140 d5 5e 0d 3e 1d 66 74 bd 0f 3b 5b 3d 42 8c fd 3d
       0.13805707 -0.059667695 0.05352312 0.12380268
000150 bb c5 2f bd ed ce 3a 3e 43 20 c3 3d 3e 76 d9 3d
       -0.04291318 0.18242998 0.09527638 0.10618256
000160 97 85 35 3e 51 a6 ef 3d 4e 73 53 bc 5d 87 5e bb
       0.17726742 0.11701644 -0.012905909 -0.0033955195
000170 d8 ef a1 be 67 8e 8a bc e9 ca b8 3b c9 2f bd 3e
       -0.316283 -0.016913606 0.005639423 0.3695052
000180 98 be f4 3c 44 34 0a be b6 a6 02 3b 13 f1 a4 bd
       0.029876038 -0.134965 0.0019935793 -0.08053794
000190 9d 2b 37 3d fc 5d e4 3c b2 02 53 bd 2b 59 a1 bb
       0.044719327 0.027876846 -0.051516242 -0.0049239597
0001a0 ed 7b a5 3d b2 20 55 bd a2 5f 9e 3c be 55 a1 3c
       0.080802776 -0.052033134 0.01933271 0.019694205
0001b0 36 5b b0 bc 4b 9b c5 ba 98 b2 93 ba 94 13 08 3d
       -0.021527868 -0.0015076188 -0.0011268435 0.033221796
0001c0 0a 8c f7 bc 98 ba b2 bd 72 0d a2 3d a0 2f 36 3c
       -0.030218143 -0.08726996 0.07912721 0.011119753
0001d0 65 d4 49 3e b2 3d e6 3b b2 74 0d bd ea 82 2b 3e
       0.19709928 0.0070263976 -0.034535117 0.16749159
0001e0 6c b4 8b 3c b1 9a 99 3d f3 7d bf 3c 52 ba 85 3d
       0.017053805 0.07500208 0.023375487 0.065296784
0001f0 54 35 99 3d da 0d bb bc 85 fb 45 bd 17 15 a4 3d
       0.07480875 -0.022833753 -0.04833557 0.08011835
000200 7a 3a 3b 3d 8c 8b 96 3d b5 24 81 3c 38 c9 8e bd
       0.045710064 0.07350835 0.015764574 -0.06971973
000210 69 0d 75 bb 4a 8f 45 bd 3c c5 ae 3d fc 4a ea 3d
       -0.0037392026 -0.048232354 0.08533713 0.114400834
000220 38 1b 55 3d f4 6b 63 3d c6 9f 5f 3e 85 69 71 3b
       0.05202791 0.055522874 0.21838292 0.0036836576
000230 6c 22 29 bc 41 a8 99 be d5 9f 55 3d 1f a1 12 3a
       -0.010323148 -0.3001118 0.05215438 0.0005593467
000240 c0 51 68 3a bb fe f4 bc f8 87 0a 3b 70 cd e4 3b
       0.00088622794 -0.029906621 0.0021138173 0.006982498
000250 f6 82 bf 3c 8e 27 8d ba f3 12 09 3c 5e 2d c7 3c
       0.023377877 -0.0010769235 0.008366334 0.024313625
000260 54 fe e9 bc 41 58 3e bd c6 61 f4 3c e8 56 14 3d
       -0.028563656 -0.046470884 0.029831778 0.036215693
000270 6e aa a1 3c f1 7b 81 3d 75 f7 8d 3c 92 f1 b0 3d
       0.019734588 0.06322468 0.01732991 0.08639826
000280 26 7e 88 bd 36 16 9d bc 24 2e c6 3d 41 ac 02 3c
       -0.06664686 -0.01917563 0.096767694 0.007975639
000290 e1 5d e0 3b 30 f6 68 3e 6a 87 59 3d d0 aa 68 3d
       0.0068471287 0.22750163 0.053107657 0.056803524
0002a0 d6 82 83 3d cf d6 63 3d 54 2a 1c 3e e2 8e 68 bc
       0.06421439 0.05562478 0.15250522 -0.014194222
0002b0 86 7f 19 3e 46 40 1d 3e bf e4 6b bc 7f bd 1c 3d
       0.14990053 0.1535655 -0.014397799 0.038266655
0002c0 15 b4 88 3d a4 53 1a 3d 4c 9b 04 3d f4 ec d4 3d
       0.06674973 0.037677422 0.032374665 0.10396758
0002d0 bc e1 9b bc 80 aa 08 bd 43 e5 0f 3c 6b 06 d5 3d
       -0.019028537 -0.033365726 0.008782688 0.10401615
0002e0 99 7f 69 3e e5 2a 82 bd ea ad 54 3d c3 6e 46 3e
       0.22802581 -0.06355838 0.05192367 0.1937819
0002f0 24 f5 4f 3c c4 59 db bd 94 ed 6c bc 46 01 50 bd
       0.012692723 -0.10710481 -0.01446094 -0.050782464
000300 7d 05 3a 3d 07 ad c8 bd c7 b7 c1 3d 66 a2 0d 3d
       0.04541539 -0.09798627 0.09458881 0.034578703
000310 88 dc 4c 3d 98 d2 c9 bc ff 8b 1e 3d b0 2c 48 3d
       0.050015002 -0.024636552 0.03870773 0.048870742
000320 39 a5 20 bd 4f 13 fe 3b 28 c3 02 bd 0f c0 b2 3d
       -0.03922007 0.0077537666 -0.031924397 0.087280385
000330 3a 0c 2f 3c 0f 28 fc bc db c4 d8 bc 41 47 87 3d
       0.010684067 -0.03078082 -0.026461056 0.066053875
000340 c2 21 f7 bb 24 22 17 3e 0f 4c 91 bb 9b b1 de 3d
       -0.007541866 0.14759117 -0.0044341157 0.10873719
000350 3a c0 cc bb 9a 35 46 3b d4 ce e9 3c e6 c4 5e 3c
       -0.006248501 0.0030244351 0.028541006 0.013596749
000360 fb 08 35 bd 4c f7 12 bd d1 58 c9 3d 9e 71 2a 3c
       -0.044198018 -0.035880372 0.098313935 0.010403065
000370 25 d2 92 bc 25 a5 36 3c 89 0a 2f 3d 0e b3 0c 3b
       -0.01792247 0.011147772 0.042734656 0.002146903
000380 49 d1 e7 3d 86 02 0f 3d 32 b2 3f bd 2d c5 00 39
       0.11319215 0.034914516 -0.0468008 0.00012280485
000390 fe bd a6 bc 01 26 59 3c 91 ce e1 3c 39 28 39 bc
       -0.020354267 0.01325369 0.027564319 -0.011301094
0003a0 55 9a c1 3c 12 b7 12 bf e6 af 0a bc b3 68 45 bd
       0.023633162 -0.57310593 -0.008464789 -0.048195552
0003b0 11 59 ae bd c4 79 d1 3d 19 13 ed bc 68 47 ed bc
       -0.08513082 0.10228303 -0.02893977 -0.028964713
0003c0 e1 dc 11 3d 8c a2 69 bd 9a ec 11 be af 79 e7 bd
       0.035611037 -0.057039782 -0.14250413 -0.11302506
0003d0 07 e0 b9 3d bc e8 89 bc f1 f3 17 3c 3f 86 66 3c
       0.09075933 -0.01683461 0.009274469 0.014070093
0003e0 b3 34 56 3c a0 15 09 ba 28 fd 99 3d 46 f6 25 3d
       0.013074088 -0.00052293576 0.07518989 0.040518068
0003f0 e7 ec e4 bc a0 80 b8 bc 95 70 8c 3d 95 7b 0b 3d
       -0.027944995 -0.02252227 0.06857411 0.034053404

encoder.0.bias f4 [64]
000000 30 62 0e 3e 2e cb b0 3c e0 10 ad 3d 27 1e aa 3d
       0.13904643 0.021581259 0.08450484 0.08306532
000010 c7 3e 2f 3d 46 70 1f 3e c4 29 95 3d e7 40 4d 3e
       0.04278448 0.15570173 0.07283357 0.2004429
000020 9a 8d 5b 3d 84 b1 39 3e 0a 94 d3 bd b0 31 ba 3d
       0.05360184 0.18134123 -0.103309706 0.090915084
000030 e9 2a 10 bd dd e2 45 3e c6 c2 1e 3d a6 8a e7 bc
       -0.035197172 0.19324823 0.03875997 -0.028264355
000040 fb 84 f5 bd 1b 96 b7 3c 33 70 62 bd f9 21 56 3e
       -0.11988255 0.022410443 -0.055282783 0.20911397
000050 3d 6e e1 3d 4f bf 9b ba 59 ec d9 bd b8 f7 75 bc
       0.110073544 -0.0011882576 -0.10640783 -0.015012674
000060 86 d9 23 be 63 f2 ef bd 44 33 8f bd 5a 9d 03 3e
       -0.16000947 -0.117161535 -0.069922 0.12852994
000070 d7 2e a4 bd 1b 52 03 bd a1 af 6a 3e 28 ad 70 bc
       -0.080167465 -0.032060724 0.2291856 -0.014689721
000080 00 4c 21 3e ac 53 72 3d e6 5b 53 3e c2 3c 02 be
       0.15751648 0.059161827 0.20640525 -0.1271849
000090 40 23 1a 3d 98 d4 d8 3d 2f 09 b0 3d a0 65 d6 3d
       0.037631273 0.10587424 0.08595502 0.10468602
0000a0 93 89 db 3d bd a0 90 be 6a d1 f2 3d d5 d7 e6 3b
       0.107195996 -0.28247634 0.11856349 0.007044772
0000b0 16 64 10 be 1a 65 28 3e 02 eb f4 bd 37 66 25 3e
       -0.1410068 0.16444817 -0.11958887 0.16152273
0000c0 63 0e 60 bd 9a 0e 45 3d e3 f8 04 3e 0b aa ab 3d
       -0.05470122 0.04810963 0.12985568 0.083820425
0000d0 ba 4f ca bd 16 a9 a3 3d 2f 70 3d 3e d0 fd 3b bb
       -0.09878488 0.07991235 0.18499826 -0.002868522
0000e0 bb b7 a2 bb 80 22 f8 bd 51 3e 1a 3d a3 ad 8d bd
       -0.00496575 -0.12115955 0.037657086 -0.06917884
0000f0 b7 3c 51 3e ed b4 7c 3c f4 0c 8a 3d 20 2f 90 bd
       0.20433317 0.015423995 0.06740752 -0.070402384

encoder.2.weight f4 [64, 64]
000000 94 9f 64 bd 1f d0 e6 bd c9 ed 9f bd 6b 13 de 3d
       -0.055816248 -0.11270165 -0.07809026 0.108435474
000010 7e 78 b3 3d c7 a6 fc 3c 92 27 bf bc 86 8f c3 3d
       0.087632164 0.030841244 -0.023334298 0.09548859
000020 58 44 98 bd 30 e3 b8 bc 7f 69 60 3d 06 be 4a bd
       -0.074349105 -0.022569269 0.05478811 -0.049497627
000030 c3 f9 ba bd 7e 23 85 bc 51 ac 66 3d 0c bc c3 3c
       -0.091296695 -0.016252276 0.056316677 0.023893379
000040 fb 17 00 3d f8 12 92 3c b2 49 8e 3c 9b 6f 3d bd
       0.03127287 0.01783131 0.017369125 -0.046249013
000050 59 57 1a bd ac 09 6f be 2b 1f b3 3b 38 3d b8 bd
       -0.037680957 -0.23343533 0.005466362 -0.089960515
000060 f5 72 98 bd 48 b5 11 3d 93 ca af 3c b5 ae 07 3e
       -0.07443801 0.035573274 0.0214589 0.13250239
000070 03 b7 56 3d a6 5d f4 bc 1d f0 e6 3d 69 df cf 3d
       0.052420627 -0.029829811 0.11276267 0.10150034
000080 c4 b0 2f bc c8 f9 0b 3d d0 2a a8 3d 86 dd 42 bc
       -0.010723297 0.034173757 0.08211291 -0.011893636
000090 06 34 df 3d 90 55 72 bd 6c 8e b1 bd 30 b4 e4 3d
       0.108985946 -0.05916363 -0.08669743 0.111671805
0000a0 20 94 8d bc 40 80 88 bc 10 6c 12 bc dd df 03 3d
       -0.017282546 -0.016662717 -0.008936897 0.032195915
0000b0 b6 82 8b bc 42 13 eb 3d d7 18 6c 3d 3d c4 0a 3d
       -0.017030101 0.114782825 0.057640877 0.033878554
0000c0 d9 21 9c 3d 02 8a 97 3d aa 2a f2 3d f3 76 be bd
       0.076236434 0.0739937 0.11824544 -0.093000315
0000d0 e5 20 87 bd f3 ad 1d 3e 7b f6 cd bd 5a 99 4c bc
       -0.06598071 0.15398388 -0.10056778 -0.012487734
0000e0 5a 74 88 3b f1 0b 73 bd 70 38 af 3b 97 96 ce bc
       0.004164261 -0.05933756 0.005347304 -0.025218291
0000f0 b2 fe ae 3d 2d d2 8e 3c 35 74 dd 3d 79 31 f3 bd
       0.08544673 0.017434204 0.1081318 -0.118746705
000100 34 72 0f 3e 0b 82 8e 3c de 3a c6 3c 72 54 c7 3d
       0.14008409 0.017395994 0.024197992 0.097329035
000110 ed 88 02 3a 9b 60 86 3b 14 cf f7 bc 67 97 16 3e
       0.000497951 0.0041008717 -0.03025011 0.14706193
000120 e0 ec 98 3d 5b 88 4c 3d 7d c8 4a bc 90 84 11 3e
       0.07467055 0.049934726 -0.012376902 0.14210725
000130 55 e3 5e bc e0 0a 6a 3d 60 21 95 bd db 75 41 bd
       -0.013604005 0.057139277 -0.072817564 -0.047231536
000140 a2 d6 20 bc d8 36 22 3e e0 6e e5 3d db e8 eb 3d
       -0.009816797 0.15841234 0.11202788 0.11519023
000150 6d ae 73 bd b9 5b fc bd c9 e5 a5 3c e0 69 6e bd
       -0.059492517 -0.12322182 0.020251172 -0.05820644
000160 c6 6f 0f 3d 14 6d 00 3c f6 58 8e 3c 80 8a 9f 3d
       0.035018705 0.007838506 0.017376404 0.07790089
000170 92 9d f1 3d 81 5f 09 3e e2 8a b6 3c fd 36 eb 3d
       0.11797632 0.13415338 0.022283021 0.114850976
000180 e3 b3 1e 3d c1 26 d5 3b 7f b9 d7 bc 10 a3 83 3c
       0.038745772 0.006504864 -0.026333569 0.016068965
000190 de d9 b1 3d 25 5f 2a bd 4b 7c c2 3d fa 14 e7 3d
       0.08684133 -0.041594643 0.09496363 0.11283298
0001a0 a0 9f ce 3d 7d 5b 5d 3d b4 e2 51 3d fd 81 5a 3d
       0.1008904 0.05404233 0.05124159 0.053346623
0001b0 0a 54 3c bd c1 f2 3b 3e 20 48 00 bd 0f af 18 bd
       -0.045978583 0.18354322 -0.031318784 -0.037276324
0001c0 51 18 b8 bc bd 9c fe 3d b1 cd 45 bc f6 1d 0a 3e
       -0.022472532 0.12432239 -0.012072966 0.13487992
0001d0 a7 49 80 3d f9 64 de 3d 6b 9f f7 bc 20 0a 9d 3c
       0.06264048 0.10859103 -0.030227384 0.019169867
0001e0 39 25 2a bd d6 ac 1f bd b0 0a ca bc 8a 72 18 bd
       -0.041539405 -0.03898319 -0.0246633 -0.037218608
0001f0 c6 9e 1a bd c3 23 94 bd 27 e6 bc 3b 9c df 22 bd
       -0.037749074 -0.072333835 0.005764741 -0.03976403
000200 91 e3 25 3e c6 28 ae bd 7f d4 eb 3c 47 83 a7 3d
       0.16200091 -0.08503871 0.02878785 0.08179336
000210 19 89 de 3d 14 4c bd 3d 86 30 87 3d e6 a5 29 bd
       0.10865993 0.092430264 0.06601052 -0.04141798
000220 87 d2 8e bd 5c bd ec 3d e0 63 59 3d 67 6b 38 3d
       -0.06973749 0.11559555 0.053073764 0.0450243
000230 a3 52 9b 3c 18 e4 1f 3e 1f f7 52 bd c6 98 cd 3c
       0.018960303 0.15614355 -0.051505204 0.025097262
000240 a7 fc 10 3e 8b 8e 1a 3d 8f dd 9b bd a7 1e f3 3d
       0.14158879 0.037733596 -0.07610618 0.11871081
000250 7d 00 20 3d 00 c4 80 be 00 8f 0e 3c cf 8f b3 bc
       0.039062966 -0.25149536 0.008701086 -0.02191916
000260 b8 73 59 bc e9 ab 3f bd f0 e4 ed 3b 66 58 1c 3e
       -0.013272218 -0.046794806 0.0072599575 0.15268096
000270 54 ac 87 3d ba b1 0a 3e 05 b7 fc 3d 9b 33 b3 3c
       0.06624666 0.1354436 0.12339596 0.021875193
000280 06 e7 0b 3d 7c f8 b9 3d 7b 75 b7 3d b4 9f 7c 3d
       0.034155868 0.09080598 0.089579545 0.061675742
000290 ce 83 f0 bc b5 87 99 3d 60 d8 1a b9 41 08 e8 3d
       -0.029359724 0.07496587 -0.0001476719 0.11329699
0002a0 b4 ab 34 3d 8e 5b 42 3e 87 a5 69 bd 4f ac 2e bc
       0.04410906 0.18980238 -0.057042625 -0.010661199
0002b0 be 5c 55 bd 68 b5 01 3e 33 41 b6 bd b0 84 61 bd
       -0.0520904 0.12666857 -0.088991545 -0.05505818
0002c0 79 00 a1 3d a1 a4 85 bd 59 5a 91 3d 0a fd e4 3d
       0.07861418 -0.06525541 0.070973106 0.11181076
0002d0 fe 92 7e 3d fe 92 85 3d 25 aa fb 3c b2 e2 f8 bc
       0.0621519 0.06522177 0.03072078 -0.030381534
0002e0 bd 32 8e 3c 52 55 f8 3c f2 73 3d 3d a4 87 71 bc
       0.017358178 0.030314121 0.046253152 -0.014741812
0002f0 b7 56 9f bc 3e fc 02 3d c3 0d 2d 3e 2d 81 97 bd
       -0.019450529 0.03197884 0.16899781 -0.07397685
000300 5b c5 31 3e 56 18 ea bd c9 a3 8c bc 30 eb 02 bd
       0.17360441 -0.11430423 -0.017167943 -0.031962574
000310 90 5c 95 bc 1c 06 28 bd 9e 41 e5 3b fa f2 b5 3c
       -0.018232614 -0.04102145 0.0069963476 0.022210587
000320 89 a6 04 3d 81 c5 a8 bc 7c 33 2b 3d 16 56 10 bd
       0.032385383 -0.02060199 0.041797146 -0.035238348
000330 ea e6 de bd 42 9f ac 3c 87 c8 f4 bc b5 1f ca bb
       -0.10883887 0.021072034 -0.029880775 -0.0061683306
000340 db 4a 2a 3d be 32 86 3e 3e c9 05 3c 34 57 e0 3d
       0.041575294 0.26210588 0.008165656 0.10954133
000350 ec 6e 49 3d 0a 9f e3 bd 41 c7 98 3d 34 fa 32 be
       0.04917805 -0.11114319 0.0745988 -0.17478257
000360 bc 4a 36 3d 4b d1 aa 3a 59 a4 33 3d f3 cb 09 3e
       0.044504866 0.0013032345 0.043857906 0.13456707
000370 52 dd 25 bd 81 4d fa bb 21 fe 88 bd 71 ae 02 3e
       -0.04049427 -0.0076386337 -0.06689096 0.12761857
000380 56 6c 80 bd 7b 7c d7 3c 72 98 63 3c a2 9e 10 bb
       -0.062706634 0.026304474 0.013891326 -0.0022067209
000390 5a d4 1c 3d b3 ae 91 3d 40 7d 2f 3d f5 05 c9 3d
       0.03828845 0.07113399 0.042844057 0.09815589
0003a0 28 39 e9 3d 58 b4 b4 3d c8 90 86 3d d5 b1 a0 bd
       0.11387855 0.0882346 0.065705836 -0.07846419
0003b0 c2 2c 88 bd 44 8c c1 3d 79 b4 31 3d e8 30 81 bd
       -0.06649162 0.09450582 0.043385003 -0.06308156
0003c0 af b8 87 3d c3 96 28 3a 25 b2 4a 3c 79 0e 19 bc
       0.066270225 0.00064311567 0.0123715745 -0.009341829
0003d0 bc 4e 83 3c b4 58 f7 3d dd 60 c8 3d ef 53 76 ba
       0.016028754 0.12077466 0.097841 -0.00093966624
0003e0 4a 89 18 3c 96 e4 64 bd 4a d5 b7 3c a1 3f dc bc
       0.009310076 -0.05588206 0.022440571 -0.02688581
0003f0 d3 01 cb 3c 1b 0f 87 3d b9 79 6a bd aa c0 e4 3c
       0.024781143 0.06594678 -0.05724499 0.0279239

encoder.2.bias f4 [64]
000000 63 bf cb bc 27 42 b7 bc 2c da 47 bd f0 cc 0f 3e
       -0.024871534 -0.022370411 -0.04879205 0.14043021
000010 c8 5d 38 3e d0 b2 00 3d f5 66 44 3d 38 82 24 3d
       0.18004525 0.03142053 0.04794975 0.04016325
000020 6c fc 1b 3d 9f 2e e5 3c 62 02 88 bd 3a 78 7e 3d
       0.038082525 0.027976332 -0.066410795 0.062126376
000030 ec 57 1c 3d f1 db 0e 3d 35 54 04 3e 03 57 2e 3e
       0.038169786 0.03487772 0.12922747 0.1702538
000040 20 71 a2 3d cc 44 bd b4 b6 ec 54 bd bd c6 9d 3d
       0.07931733 -3.525405e-07 -0.051983558 0.07703922
000050 0a 6a a8 3c 0e 27 13 3e f6 88 01 3e 5d 00 19 3e
       0.020558376 0.14370367 0.12649903 0.14941545
000060 e1 10 24 3e cd 8d 10 bb a2 1a 33 3e 9d 33 d6 3d
       0.16022064 -0.0022057176 0.17490628 0.10459063
000070 5b 52 81 3d 2b 9f 03 3d 84 05 16 3e 3b 1d 0a 83
       0.06314536 0.032134216 0.14650542 -4.058811e-37
000080 e5 27 73 82 c1 b7 39 be 93 b8 25 3e aa bd b4 3d
       -1.786427e-37 -0.18136503 0.1618369 0.08825238
000090 a9 b1 63 3d 19 0f 5c bd ae dd fa ba 9e 44 07 83
       0.05558935 -0.053725336 -0.0019139552 -3.9751703e-37
0000a0 20 b4 28 a5 38 94 f7 3d 98 88 00 3e ca 82 1f 3e
       -1.4632706e-16 0.12088817 0.12552106 0.15577236
0000b0 08 80 2e bd a1 1f 17 3e 1a f2 46 bd 82 ce 10 bd
       -0.04260257 0.14758159 -0.04857073 -0.03535319
0000c0 df 3d c7 3b 6a 1e 40 3e 88 f2 1c 3e 87 7a 6b 3b
       0.0060803737 0.18761602 0.15326893 0.0035931186
0000d0 3d f7 1e 3d 6a 81 a9 3d b3 40 10 be fb 29 d2 3d
       0.038810004 0.08276637 -0.14087181 0.102619134
0000e0 64 6f 15 a1 53 2f a1 3d ad 73 16 3e 3e 8f 42 3c
       -5.063059e-19 0.078703545 0.14692564 0.011874972
0000f0 bb be 02 bc e4 ca e1 b9 de fd a9 3d c4 2f 0c 3e
       -0.007980044 -0.0004306651 0.083003744 0.13690096

fc_mu.weight f4 [8, 64]
000000 e4 2a 1c bb 95 92 bf bb 06 df f7 bb 6a 7e 63 3c
       -0.0023829276 -0.0058463314 -0.0075644283 0.01388512
000010 9c 5e ad 3b 67 e3 81 3b 28 10 39 bd 5d c6 c9 bb
       0.0052908193 0.003963876 -0.045181423 -0.00615768
000020 8c 50 77 3c d7 86 07 3c 96 4c 7d b9 08 53 a4 3c
       0.015094887 0.008271894 -0.0002415649 0.020059124
000030 db da 21 bd 5e 9c 97 3b 89 4f 4b 3a 8f aa d3 bc
       -0.039515357 0.0046267947 0.0007755687 -0.025838165
000040 e6 c3 f5 3b e7 1e 83 b7 2e c3 6b 3c d1 a0 37 3b
       0.0075001596 -1.5630807e-05 0.014389796 0.0028019438
000050 03 f3 09 3b c4 3c 0a 3d ce 8f aa 3c 09 17 b5 bb
       0.0021049387 0.033749357 0.020820525 -0.0055264276
000060 06 f7 11 bc db 4f 35 bc 5c 98 55 39 c5 ed 8c 3b
       -0.008908993 -0.011066402 0.00020370021 0.0043008053
000070 05 94 d3 bb b2 a9 56 bb 54 2c 07 bc 67 a6 e2 81
       -0.0064568543 -0.0032754955 -0.008250315 -8.3258064e-38
000080 c8 01 a3 00 6f af 7e bb f6 1d 39 3d c2 26 b9 3c
       1.4969825e-38 -0.003886189 0.04519459 0.022601489
000090 17 43 af 3b a8 94 a0 3c 09 dd 97 3c 9c f8 ce 00
       0.005348574 0.019602135 0.018538015 1.9007296e-38
0000a0 08 44 02 82 03 bb 85 3c 85 a1 a6 bc 45 bf 3d bb
       -9.570416e-38 0.016324526 -0.02034069 -0.0028953117
0000b0 1f b8 17 3d fe 65 1e bd 0f c2 2f 3c 27 d3 f7 ba
       0.037040826 -0.038671486 0.0107274195 -0.0018907533
0000c0 78 77 5a bc b7 2e 27 bb 12 64 7f bc 4b 51 11 3b
       -0.013334148 -0.0025510022 -0.015587823 0.0022173699
0000d0 85 c0 08 bc 03 c5 0f bb 9e 76 cd bb 4c c7 96 bb
       -0.0083466815 -0.0021937496 -0.006270244 -0.0046013948
0000e0 21 64 32 82 fb 7a 62 3c 7d c7 fe bb 61 df 6c bb
       -1.310611e-37 0.013823266 -0.0077752457 -0.0036143886
0000f0 8d 4c c5 3c 1e 21 10 b6 34 6a 49 38 12 54 f7 3b
       0.024084354 -2.1476949e-06 4.8021044e-05 0.0075478638
000100 32 4f fc bb a1 5d 97 3b 0e 4f c7 3c a2 6a 81 3b
       -0.0076998705 0.0046193157 0.024329688 0.003949479
000110 f0 7f 02 bc d8 c3 af bc 00 87 72 3b 43 53 10 bc
       -0.007965073 -0.02145569 0.0037006736 -0.008808914
000120 0c 4b a1 3a 3e 46 19 3b 41 a3 c0 3b 66 8a dd bb
       0.0012305691 0.0023387815 0.0058788364 -0.006760883
000130 b8 cf 97 3c f7 b6 c4 bb f3 15 29 3c 40 91 70 3c
       0.018531665 -0.0060032564 0.0103201745 0.014683068
000140 09 76 98 bb 7c 4a c4 aa 78 80 3d 38 ba c9 11 3b
       -0.0046527428 -3.4868278e-13 4.5180757e-05 0.0022245483
000150 df 0b 0b bb 8b 04 df bc a5 2e d1 bc 66 27 87 bc
       -0.0021216793 -0.027223846 -0.025534937 -0.016498279
000160 19 ee 8f 3b f5 15 c0 3a 2d e0 ad 3a b1 53 89 3b
       0.004392397 0.0014654981 0.0013265662 0.004190885
000170 75 ff 5a bb c9 58 ad 3a 25 fc 98 3b a5 24 c2 01
       -0.0033416424 0.0013225313 0.00466873 7.131693e-38
000180 21 5e 00 02 3f 97 d9 3a 9c 74 a9 bc f8 81 26 bc
       9.430968e-38 0.0016600861 -0.020685486 -0.010162823
000190 2b 7f b7 3a 60 1f 9b 3b 16 67 60 bb 92 b8 0e 00
       0.0013999691 0.004733965 -0.0034241132 1.351908e-39
0001a0 8e 2f dc 81 26 6c 78 3b 7b fe 37 3c 95 bb c9 bb
       -8.0883474e-38 0.0037906258 0.011230106 -0.0061563947
0001b0 b7 a4 c3 bb 88 d2 2c 3d d4 0d bc bb 45 35 0a bc
       -0.0059705633 0.042192966 -0.005738953 -0.008435552
0001c0 ef a0 b1 bb 6f 75 8e 3b ef 64 de 3a 1b e8 55 3b
       -0.005420796 0.0043474953 0.0016967336 0.0032639566
0001d0 0d 30 c5 3b 84 18 02 3d 36 54 e6 bb c8 4e 9e 3a
       0.006017691 0.03176166 -0.0070290817 0.0012077922
0001e0 7b f2 36 81 bb 4a 29 bb 6c a7 d6 3a 34 14 b7 3b
       -3.3602092e-38 -0.0025831896 0.00163768 0.005587125
0001f0 51 d0 3b bb 7a c1 61 2d 04 b7 fd 3b ec 05 49 bb
       -0.0028658102 1.283273e-11 0.0077427644 -0.0030673696
000200 ab a4 4a 3b 65 60 29 bc 55 68 94 bc 58 ff 0f bc
       0.0030920904 -0.010337924 -0.018116156 -0.008788906
000210 0d bb 90 3b 2c 69 3b 3c fb 63 11 3b 02 e9 52 3b
       0.0044168294 0.011438649 0.0022184837 0.003218234
000220 6e c1 7e 3c 3a bb 2a 3b 90 1a e5 ba 2a 01 00 3c
       0.015549047 0.0026051537 -0.001747923 0.0078127775
000230 8d df f2 3a 77 75 06 3c 51 de 8e 3b 4b 0b 75 bb
       0.0018529758 0.008206717 0.0043599983 -0.0037390764
000240 32 01 8d 3b e7 ba 60 aa 6e 51 1b bb 3a a0 a1 bb
       0.004303121 -1.9960041e-13 -0.002369966 -0.0049324306
000250 be 8b f3 bb 77 a6 8d 3c d9 88 61 3c 45 07 1e 3b
       -0.00743243 0.01729129 0.013765537 0.002411322
000260 4a 7c 3c bc 17 d5 09 bb 50 cd 4d 3c 88 fe eb ba
       -0.011504242 -0.0021031552 0.012561157 -0.0018004933
000270 7d e9 48 3b c2 82 a8 bb 3e 92 52 bc fd 06 21 81
       0.0030656748 -0.0051425407 -0.01285225 -2.9576044e-38
000280 1e 2a 9c 81 a7 c2 21 bb 3a f9 89 3c c9 60 00 3c
       -5.7365785e-38 -0.0024682672 0.016842473 0.007835575
000290 87 93 88 bb e8 0a 2f bc d8 e2 0c 3c a1 d4 c0 00
       -0.0041679773 -0.010683753 0.008599006 1.7708692e-38
0002a0 9e 6e d1 01 18 85 7a 3b 03 5c 1f bc 7d 4b 20 bb
       7.69332e-38 0.0038226303 -0.009726527 -0.0024459057
0002b0 72 0a 43 bc 20 aa 79 bc 21 12 53 3b d6 06 50 3b
       -0.011904346 -0.015238315 0.003220685 0.0031742356
0002c0 30 80 ff 3b 1c 89 81 bb 1c e1 1b 3b 87 0a 47 ba
       0.0077972636 -0.0039531123 0.0023785299 -0.0007592816
0002d0 e2 7b 60 3b d7 e8 36 3b c9 e9 95 ba c2 0f b1 3b
       0.0034253527 0.002790978 -0.0011437471 0.00540349
0002e0 97 81 5e 02 a4 e6 b0 ba dd a7 1f bc 83 94 29 bc
       1.6347175e-37 -0.0013496471 -0.009744612 -0.010350349
0002f0 b0 95 cc ba ce 73 6d 2f cb 7a ee ba cf 72 26 3b
       -0.0015608575 2.1596167e-10 -0.0018194554 0.002539802
000300 3d 5c b1 bc 35 5b ac 3a 99 79 c2 3c 7c 3e 0a bc
       -0.021650428 0.001314974 0.023739623 -0.008437749
000310 ae 67 0e 3a 46 19 68 bc 50 bb 3f 3d 4b c8 b3 bb
       0.00054323196 -0.014166182 0.046809494 -0.0054865233
000320 ab a2 46 bc 8d f9 d2 3b bf 08 c0 3b d3 e0 ac bc
       -0.012123744 0.00643844 0.0058604176 -0.021103298
000330 e5 b0 05 3d cc 94 75 3b 39 eb 1e 3c a6 96 3b 3d
       0.032639403 0.0037472723 0.009699636 0.045797966
000340 df da cc bc fe 30 16 34 ac e0 12 bc 55 02 ea bb
       -0.02500671 1.3987662e-07 -0.008964699 -0.0071413913
000350 0e 4f 24 bb b3 ca 62 bd ad a2 41 bd 12 d3 67 3c
       -0.0025071534 -0.05536909 -0.04727428 0.014149444
000360 a7 7f e4 3b 29 27 37 3c fb 8b 2f ba 03 9f 0c bc
       0.006973225 0.01117877 -0.0006696579 -0.008582833
000370 c2 de 01 3b 91 5f 96 3c f7 c9 8f 3c 9c 9d 90 01
       0.0019816612 0.018356116 0.017552359 5.3123404e-38
000380 20 93 83 01 ad 88 5d bb 68 27 84 bd 9e d0 b7 bc
       4.8332914e-38 -0.003380339 -0.06452829 -0.022438344
000390 8b b6 d0 3b 12 a3 39 bc 57 09 2a ba bf 87 d5 00
       0.006369417 -0.011330383 -0.0006486377 1.9609657e-38
0003a0 e0 82 bf 01 44 ae 5f bb fa 59 41 3d fa 8c 22 3c
       7.0350115e-38 -0.003413097 0.04720495 0.009921307
0003b0 c6 cc b7 bc cf 87 ef 3c 96 ec a3 bb 25 47 f2 3a
       -0.02243651 0.029239563 -0.0050025685 0.0018484337
0003c0 c7 5b 33 bb 25 5b 20 3c ac f4 ff ba 17 f0 09 bb
       -0.0027367936 0.009787356 -0.0019527874 -0.0021047646
0003d0 53 52 c6 3c bd 59 4f 3b 6d 91 96 bb c0 1b f7 3b
       0.024209177 0.0031639182 -0.004594973 0.00754115
0003e0 6c 45 8a 81 89 0d 91 bc 99 16 e6 3c 3f 54 37 3c
       -5.079281e-38 -0.01770665 0.028086947 0.011189519
0003f0 f9 64 be bc a2 4f 26 b0 d3 37 11 39 25 7e cf bb
       -0.023241507 -6.0503613e-10 0.00013849074 -0.0063321763

fc_mu.bias f4 [8]
000000 07 cd f3 3b 44 e7 b1 bc 26 74 97 3b 2e c1 91 bc
       0.0074402126 -0.021716721 0.0046220003 -0.01779231
000010 ba bc 5f bb d2 d2 f4 bc c6 02 1d 3b 12 17 71 bd
       -0.003413959 -0.029885683 0.0023957952 -0.058859892

fc_logvar.weight f4 [8, 64]
000000 70 52 aa 3b 8a ef 78 bb bc e6 e6 3b 79 46 a3 bb
       0.0051978156 -0.0037984573 0.0070465486 -0.004982766
000010 47 4d 68 ba 11 e4 a8 ba a1 7b c5 3b 96 72 7b 3b
       -0.0008861613 -0.0012885352 0.0060267006 0.003836786
000020 f5 63 f6 3a 4e 6e 04 3a c9 de 39 ba d8 72 a5 3b
       0.00187981 0.0005051837 -0.00070903875 0.005049091
000030 b8 d4 6c b9 66 b1 ec b9 f3 b4 11 3a f6 a3 6e 3b
       -0.00022585958 -0.000451456 0.00055582746 0.0036413646
000040 e2 09 15 39 00 eb 89 a8 a1 35 a5 b9 a9 49 0a 3a
       0.00014213429 -1.531197e-14 -0.0003151121 0.00052752584
000050 de 97 b6 ba 29 72 1f 3b 4f 17 33 bc 6a fe 9b bb
       -0.0013930758 0.002432952 -0.01093085 -0.004760553
000060 f4 a0 73 ba 24 45 b5 3a 63 ad 45 3a 30 fa 1b ba
       -0.0009293698 0.001382981 0.000754079 -0.00059500616
000070 85 27 01 3b f3 f3 25 3a bc f2 82 3b b7 44 9b 01
       0.0019707393 0.0006330602 0.0039962213 5.703661e-38
000080 d2 bf 5f 80 98 03 24 39 b3 ef 19 bc 4d 01 74 bb
       -8.793184e-39 0.00015641598 -0.009395528 -0.003723222
000090 29 da 52 ba 52 2d 9d bb e3 44 6d ba d0 cd 2c 01
       -0.00080433727 -0.0047966624 -0.00090510974 3.1739074e-38
0000a0 b6 09 8a 01 d9 9b d4 3a fa 7b ab bb 04 3d 52 39
       5.070713e-38 0.0016220763 -0.005233285 0.00020049891
0000b0 f1 5b 86 3a b6 7e 91 3b e8 d6 65 ba bf 81 93 b9
       0.0010250789 0.004440154 -0.000876768 -0.00028134693
0000c0 32 c8 97 3a 33 c1 b4 39 ae 57 35 3a 18 12 05 3b
       0.0011580049 0.0003447622 0.00069176673 0.0020304974
0000d0 50 93 35 ba 55 e3 ab 3b de 8a 37 38 78 4b 71 ba
       -0.00069265533 0.005245606 4.375993e-05 -0.0009204666
0000e0 7c 2e 2d 02 f1 f6 ab bb b9 80 bf bb f9 09 0e 3a
       1.2723373e-37 -0.0052479436 -0.0058442024 0.0005418356
0000f0 3b f6 86 bb e2 15 36 88 5f dc c7 ba 7a 7f ac b9
       -0.0041187084 -5.4794356e-34 -0.0015248171 -0.00032901374
000100 8b 6b e0 38 df ef 18 3b 94 44 00 3c 9e ea a8 3a
       0.00010701184 0.0023336334 0.00782885 0.0012887304
000110 5c 67 34 ba df 43 9b bb a9 6b 7b 3a 65 97 85 39
       -0.0006881857 -0.0047383155 0.0009590933 0.00025480535
000120 19 13 9e ba 37 10 b0 b9 ea 3a c8 39 dc 52 91 bb
       -0.0012060135 -0.00033581417 0.00038190867 -0.0044349264
000130 4f 35 5b ba d2 30 c7 36 72 d7 98 3a f5 a4 7c 3b
       -0.00083621306 5.9363456e-06 0.0011660887 0.003855047
000140 11 58 3d ba 43 b6 b9 a0 8c 71 01 39 45 db 5d 3a
       -0.0007222901 -3.146083e-19 0.00012344698 0.00084631547
000150 d6 df e9 39 66 a7 01 bb 20 85 97 bb aa f6 29 3a
       0.00044607994 -0.0019783615 -0.004624024 0.0006483594
000160 58 c8 e0 38 47 62 02 3b 1f 7c 37 3a 88 10 97 39
       0.00010718469 0.0019895004 0.00069993915 0.0002881328
000170 fc 54 b2 3a df 90 47 3a 01 66 4e 3b e0 bd 2b 82
       0.001360565 0.0007612835 0.0031493905 -1.2617587e-37
000180 9d aa 8f 80 a8 a7 3d ba c2 4f 99 bb 7d a5 15 bb
       -1.319368e-38 -0.00072347606 -0.0046786973 -0.0022834234
000190 42 d6 b5 3a 53 5f 6a bb 54 cf 1e ba e3 0f 27 80
       0.0013873058 -0.0035762384 -0.0006058116 -3.587283e-39
0001a0 9b 96 85 00 49 fd 11 ba ca bd 91 3a 87 0d d6 39
       1.2268148e-38 -0.00055690535 0.0011119184 0.0004082734
0001b0 f4 1d 8c b9 8e 9c 4b 3b 04 15 2c ba de c6 6a 37
       -0.00026725198 0.0031068656 -0.0006564411 1.3993789e-05
0001c0 4b 80 be 39 4e b4 c6 36 c4 2c 2e 3a 85 f5 2d ba
       0.0003633521 5.92185e-06 0.0006644244 -0.00066360115
0001d0 50 f9 a0 ba b6 f1 02 ba e3 7d f4 b9 a0 54 ac 3a
       -0.0012281332 -0.0004995124 -0.000466331 0.0013147779
0001e0 21 bc e9 01 8a 7b 36 38 5e 60 1a 3b a6 e7 c3 39
       8.5860634e-38 4.3507236e-05 0.0023555974 0.0003736589
0001f0 e8 23 db ba 4f c7 1d 01 f7 32 21 ba 43 c4 71 ba
       -0.0016719075 2.8979343e-38 -0.0006149257 -0.00092226657
000200 4e 3b b7 3a 89 76 99 ba 3f 14 5d 3a b5 e3 2e ba
       0.0013979466 -0.00117083 0.0008433498 -0.0006671504
000210 20 b6 34 39 b7 05 75 ba c6 85 bc 3a 49 8b e8 3a
       0.00017233985 -0.000934686 0.0014383129 0.0017741706
000220 85 17 63 b9 11 7c 9e 39 86 dc 08 3b 10 82 a3 3a
       -0.00021657169 0.00030228545 0.0020883395 0.0012474675
000230 1e f0 94 ba bf 28 4a b9 16 9e 90 3a 2a 60 40 3a
       -0.0011363064 -0.000192794 0.0011033441 0.00073385483
000240 2b e0 73 3a a5 37 b8 9b fa 0f 27 39 29 81 98 3a
       0.0009303118 -3.0476206e-22 0.00015932313 0.0011635172
000250 e2 98 74 b9 bf 85 49 3b 58 17 07 bb 68 a8 a7 ba
       -0.00023326607 0.0030749885 -0.002061328 -0.0012791278
000260 76 2c c9 b9 f0 2c b8 39 38 82 29 ba 22 ee e4 b9
       -0.00038370833 0.00035128696 -0.00064662425 -0.00043664972
000270 26 fd 63 3a 77 cb 17 3a 36 4c df 3a 86 ac a1 80
       0.0008697085 0.00057905115 0.0017036262 -1.4847405e-38
000280 02 09 75 00 ac 31 b1 b6 c0 96 0a bb e6 b7 3f ba
       1.0747984e-38 -5.2807936e-06 -0.0021146983 -0.0007313475
000290 a0 8d 2c b9 c8 57 2a bb 70 7b 56 39 14 c1 8d 81
       -0.00016455958 -0.0025992263 0.00020454614 -5.2072273e-38
0002a0 bc b2 ca 80 d3 e2 7f 3a 6d 77 42 bb 29 b6 83 3a
       -1.8614888e-38 0.00097612775 -0.0029673234 0.0010048795
0002b0 ff ac a9 b9 6f 51 02 ba bc 64 a0 3a 1b e5 b8 3a
       -0.00032363084 -0.0004971241 0.0012237052 0.0014106365
0002c0 d0 3c 3f 3b 0b df af b9 4a 99 a0 b9 3e 0d ac 37
       0.0029180534 -0.0003354478 -0.00030631787 2.0510164e-05
0002d0 81 11 45 b9 a1 3a 71 ba e5 47 0b ba 26 b1 87 ba
       -0.00018793905 -0.0009202157 -0.00053131423 -0.0010352477
0002e0 c4 bc 1f 82 f9 52 9b ba 5b 0e 25 bb e3 d5 13 39
       -1.1735648e-37 -0.0011850289 -0.0025185558 0.00014098691
0002f0 91 0d 77 ba d7 cf 18 06 b0 d8 d4 ba 52 7e 89 38
       -0.0009424324 2.874072e-35 -0.0016238894 6.556198e-05
000300 42 60 65 3b 23 14 9e 3b ac 59 d8 3a 49 30 f9 b9
       0.0035 0.004824178 0.0016506216 -0.00047528956
000310 aa 8b f4 ba a2 aa 11 ba 86 b7 05 3b d5 5e 05 3b
       -0.0018657346 -0.00055567373 0.0020403578 0.0020350714
000320 54 91 62 3a 22 33 e8 b9 63 c3 90 ba f6 34 62 bb
       0.00086428714 -0.00044288585 -0.0011044558 -0.003451643
000330 a0 73 b3 ba d5 0e c9 b9 6e 8e b0 3a 18 83 2f bb
       -0.0013691075 -0.00038348758 0.0013470182 -0.0026781019
000340 02 69 51 3a 70 fb 25 aa 22 f1 e2 b9 45 ec af b8
       0.00079883647 -1.4742179e-13 -0.00043285737 -8.388659e-05
000350 a3 8a 46 3a 40 84 0b ba cc c0 38 3b d2 bc 29 3a
       0.0007573759 -0.0005322136 0.0028191088 0.0006474975
000360 b9 27 de b9 ba 36 af 3a f6 2d bf b9 03 45 27 3a
       -0.00042372735 0.001336775 -0.00036464602 0.0006380828
000370 60 4f 61 3b b6 a1 54 39 91 91 7e ba 91 7a 97 81
       0.0034379587 0.00020278138 -0.0009711022 -5.5644514e-38
000380 17 91 4d 00 11 dc a0 3a d1 ec fd 39 c5 4d 11 3a
       7.123382e-39 0.0012272616 0.00048432362 0.00055428996
000390 f6 0e 0e b9 55 9a 84 bb ae 68 bf ba 15 a2 99 01
       -0.00013547749 -0.004046718 -0.001460334 5.64359e-38
0003a0 cc a3 23 81 c2 e7 06 bb 1f 87 7c bb 5a 42 a2 3a
       -3.005589e-38 -0.0020584916 -0.0038532687 0.0012379393
0003b0 41 f2 31 ba 32 1c df ba 76 44 4b bb 76 55 5c 39
       -0.0006788113 -0.0017021953 -0.0031016148 0.00021012672
0003c0 dc 09 a1 ba 35 ca e3 39 91 88 23 3b 92 74 b2 3a
       -0.0012286264 0.0004344747 0.0024953226 0.0013615063
0003d0 8f e3 b6 bb d2 61 df b9 53 c1 cd b9 ef 2c 08 b8
       -0.0055813263 -0.00042606756 -0.00039244685 -3.2466774e-05
0003e0 eb cb 9e 81 c4 f8 be b8 98 f9 d5 ba d8 9d c1 ba
       -5.833264e-38 -9.106242e-05 -0.0016324995 -0.0014771773
0003f0 59 4c 3a bb a9 93 29 83 ad 18 be ba 94 d2 9a 39
       -0.0028426854 -4.983414e-37 -0.0014503204 0.00029530062

fc_logvar.bias f4 [8]
000000 f1 4a 9f 3b 7b 7d ec ba 05 25 81 3b 9d 0a 91 3b
       0.0048612286 -0.0018042767 0.0039411807 0.004426314
000010 1a 43 54 3b d2 21 82 3c 2a 47 b1 bb 3f b9 63 be
       0.0032388628 0.015885267 -0.0054100947 -0.22238635

decoder.0.weight f4 [64, 53]
000000 f6 81 26 3b 10 bf 9d bb 87 92 61 bb 12 19 32 bb
       0.0025407053 -0.004814036 -0.0034419612 -0.0027175588
000010 96 ee 13 3b a4 0d 76 3b d3 9f 9d ba 21 17 c2 be
       0.0022572628 0.0037544752 -0.0012025781 -0.3790827
000020 50 5d 68 3d 3e 56 ce 3c 7f 16 45 3e c7 22 03 bd
       0.056729615 0.025187608 0.19246863 -0.032015588
000030 45 48 76 3d 97 8d 08 bd c2 85 0c bb bb a9 55 3d
       0.060127515 -0.033338156 -0.002144203 0.05216382
000040 b6 d1 f7 3b b2 7e 07 ba 0c 0a 7f bd 48 6f 96 3d
       0.0075628413 -0.00051687204 -0.06226544 0.07345444
000050 99 ae a6 3d 70 17 31 3b 6c 70 a9 3c 86 7e 15 3c
       0.081387706 0.0027022026 0.02068349 0.009124404
000060 e3 cc 85 bc 24 9e d9 3b 30 4b bf bd db dc 8e 3c
       -0.01633305 0.0066411663 -0.09340513 0.017439296
000070 7f 76 98 bd 7a c5 ff 3d 07 41 3f bc ff 4c 2d 3e
       -0.07444476 0.124888375 -0.011673219 0.16923903
000080 19 78 b0 bc 44 06 a1 3e 95 cf 65 bd c0 69 3b 3d
       -0.021541642 0.31450093 -0.05610617 0.045755148
000090 1d be 85 bb 30 1d a0 bc fd 4d 23 bd 9b b0 9a 3d
       -0.004081501 -0.019545168 -0.039869297 0.07553216
0000a0 5f 66 65 3b f7 c8 ba 3c 04 af e6 3c d0 cf de 3c
       0.0035003645 0.022800906 0.028159626 0.027198702
0000b0 f1 82 a7 bc e1 d7 08 bd eb a3 e8 3d e2 bb 67 bd
       -0.02044818 -0.033409003 0.1135939 -0.056575663
0000c0 10 a5 3d 3e 72 61 1a 3e 8e c6 a0 3d b5 45 83 bc
       0.18519998 0.15076235 0.07850371 -0.01602445
0000d0 06 07 8f bd d7 6a 68 bb ce c5 ac b8 6a 4d a2 bb
       -0.069837615 -0.0035464072 -8.238443e-05 -0.004953076
0000e0 e0 d9 49 bb 8f 24 dc ba a6 4d 60 bb eb e5 6d 3a
       -0.003080003 -0.0016795563 -0.003422597 0.0009075093
0000f0 ec 54 e4 be 6f 81 8a bc 7a 8a e0 3d a0 bc 95 bd
       -0.4459604 -0.016907422 0.10963912 -0.07311368
000100 c2 d1 3c bd 0d 18 5b 3d 7d 76 5b bc 6b 81 6a 3d
       -0.04609848 0.053489733 -0.013394949 0.05725233
000110 1d 2c 2d 3d 2a 59 b9 bd f1 f8 89 3d b0 14 e8 bc
       0.042278398 -0.0905021 0.06736935 -0.028330177
000120 24 24 1e bd 0c 91 64 bd 40 37 40 3d 33 f6 84 bd
       -0.038608685 -0.05580239 0.04692769 -0.06492271
000130 10 74 78 3b 7e 7d 1a 3c ce 8e 39 bd a5 a4 a5 bd
       0.0037910976 0.009429334 -0.045302205 -0.08088044
000140 07 bd 77 3c cf 8b a6 3d a3 11 3e bd d7 7c 52 3d
       0.015120751 0.08132135 -0.04640354 0.051388588
000150 24 23 7c bd 18 65 bf 3d c0 1d 31 3e 8d 49 5b be
       -0.06155695 0.09345454 0.17296505 -0.21414776
000160 1b 0d be bd ce 85 d4 3a 50 e0 55 bc 5c fa 14 bc
       -0.092798434 0.0016214193 -0.013053969 -0.009092893
000170 63 f1 9f bb 6e 94 7b 3d ae 01 05 3d f1 3d bf 3d
       -0.0048810705 0.06142085 0.032472305 0.09337986
000180 bb 88 8a 3c a4 ec 88 3b 70 6d 65 3c 96 7d 97 bd
       0.016910901 0.0041786004 0.014003143 -0.073970005
000190 65 3f 89 3c c7 95 09 3e 18 52 29 bd 5f 5a 5d 3d
       0.016753862 0.13436042 -0.041338056 0.054041263
0001a0 d4 8b 64 3d 5c 93 4b ba 84 87 91 3b 7f b0 93 ba
       0.055797413 -0.00077657937 0.0044412035 -0.001126781
0001b0 d5 99 39 bb 83 30 70 3a 7a cd 21 3b ee d2 cf 39
       -0.002832045 0.0009162502 0.0024689124 0.00039639272
0001c0 52 4c c5 39 fc 15 b2 3d 69 f1 ca 3d 9b 9a f7 3c
       0.0003763163 0.086955994 0.099093266 0.030225089
0001d0 18 fd ee be d8 b8 47 bd 90 35 9c 3d 92 08 47 bd
       -0.4667747 -0.048760265 0.07627404 -0.048592158
0001e0 8d 28 06 bd c3 06 33 bc 09 26 d9 3d d4 57 cf bc
       -0.032753516 -0.010926905 0.10602958 -0.025310434
0001f0 7a a6 9b bd b3 4f 46 3d 8a 31 48 bd ea f7 68 3d
       -0.07600112 0.04841585 -0.04887537 0.056877054
000200 3a 3f 37 3b 60 3f 0d bd 3c c3 3e 3c e1 07 1b bb
       0.002796127 -0.034484267 0.011643227 -0.002365582
000210 ef 19 30 bd 3c 81 8c bd a9 fe 88 bc 85 c1 01 3e
       -0.042993482 -0.06860587 -0.016722994 0.12671478
000220 e3 c5 00 be 87 1e ed 3d 01 92 8e 3d a2 c8 c5 bd
       -0.12575488 0.11578088 0.06961442 -0.09657408
000230 96 e4 5e bd f1 90 1f 3e 19 7b 84 3c 49 af 87 bb
       -0.054417215 0.15582635 0.016171979 -0.0041407687
000240 2e 93 84 bc 21 f0 4e 3c 5c 86 11 3d f2 b5 d4 3d
       -0.016183462 0.012630493 0.035528526 0.10386266
000250 6b 41 ca 3d 77 46 dc 3c 3e f9 83 bc f3 11 4b 3d
       0.09875759 0.026889069 -0.016110059 0.049577665
000260 bb c6 91 3d 66 d2 05 3e 21 d6 b3 3d c0 43 57 bd
       0.07117983 0.13068542 0.08781076 -0.052554846
000270 6f f4 d0 3d f3 ff cf 3d 5c 5a 39 bd ac 00 ca bb
       0.10202872 0.1015624 -0.04525219 -0.006164631
000280 01 bc 37 3b 1e 45 d2 ba 3e ec 2e 3c 0a 5d 44 bc
       0.0028035643 -0.0016042327 0.010676442 -0.011985073
000290 57 b2 33 bb 2e de 3b 3b c4 8f 23 3d 0a 34 f0 bc
       -0.0027419531 0.0028666365 0.039932027 -0.02932169
0002a0 09 a9 c2 bb 31 7a 31 bd b0 54 69 bb 7c ef 95 3c
       -0.0059405607 -0.04332942 -0.0035603456 0.018302672
0002b0 d6 16 8a 3d 91 90 d7 bd 9c ca c0 bd 82 6c 8c 3c
       0.06742637 -0.10525621 -0.09413645 0.017141584
0002c0 bf 81 8e 3d 98 af d1 3c a5 76 be bd 95 27 ea bc
       0.06958341 0.025596425 -0.092999734 -0.028583327
0002d0 f4 34 3a bd ea 4a 05 bd 7a a2 7f bd d0 bd 51 3d
       -0.045460656 -0.032542147 -0.06241081 0.05120641
0002e0 4e f5 18 bd 41 e9 62 3d 8a 9d b6 3d af 15 71 3c
       -0.037343316 0.05539823 0.08916767 0.014714642
0002f0 6b c3 60 bc f6 14 91 3b 16 c3 98 3e a1 7e d5 bd
       -0.013718466 0.0044275476 0.2983634 -0.10424543
000300 30 5c 79 bd d2 87 23 bd 51 ea c8 3d 6a 7d 2c b9
       -0.060878932 -0.03992445 0.09810317 -0.00016449919
000310 1e d3 4b 3b 24 57 01 3c c7 f3 29 3d de 1b f8 bc
       0.0031101177 0.007894311 0.04149225 -0.030286726
000320 1b 70 70 bd f4 c7 76 bd be 8b 88 3d 9d 19 ff 3b
       -0.058700662 -0.060249284 0.06667279 0.0077850358
000330 44 11 12 3c 30 83 fb bc 78 ee ce 3d 37 4c 7d bd
       0.008915249 -0.030702204 0.10104078 -0.061840262
000340 c1 35 1f 3c 39 3a 1f 3e c9 fb 24 3c 69 e6 37 bc
       0.009717406 0.15549554 0.010069796 -0.011224368
000350 0b 0c a8 bb 14 e9 94 bb 07 9a 49 3c b8 76 e5 3b
       -0.0051283888 -0.0045443866 0.012304789 0.007002678
000360 a2 38 56 3b 63 1c 22 bc 04 f7 28 3b 3d 2b b3 bd
       0.0032687564 -0.009894463 0.0025781998 -0.087484814
000370 7d de 10 3d 7f a5 53 3c ca 68 0b bf a2 74 c7 bc
       0.03536843 0.012917875 -0.5445677 -0.024347607
000380 d2 46 7c bd 89 dd 0e 3d c8 9a 59 3d ff 6d a7 bd
       -0.061590977 0.03487924 0.053126127 -0.08175277
000390 71 e1 9a bb 65 af 9e 3d 60 f8 1d 3d 31 88 38 3d
       -0.0047265817 0.077482976 0.038566947 0.045051757
0003a0 27 8d b8 bd fb 23 15 bd 37 64 aa bd a8 11 45 3d
       -0.09011298 -0.036411267 -0.08319896 0.04811254
0003b0 f1 c9 b8 3d b9 95 17 bd 79 bf 87 bd 15 28 ba bb
       0.09022892 -0.03700802 -0.066283174 -0.0056810477
0003c0 40 77 81 bd 3f c5 80 3d ba dc bd 3b 37 99 b0 bd
       -0.06321573 0.06287622 0.005794135 -0.086229734
0003d0 ce 8e 79 bd 83 3b ab bd 8d 98 90 bd fc 8e ae bc
       -0.060927205 -0.0836096 -0.07060347 -0.021308415
0003e0 75 56 aa 3c f5 a1 80 bd 27 27 87 3c 07 b1 04 bd
       0.020793179 -0.06280891 0.016498161 -0.03239539
0003f0 54 8c ba bd 92 6a b3 bd d2 12 88 bd 52 5d 97 3b
       -0.09108797 -0.08760561 -0.06644215 0.004619279

decoder.0.bias f4 [64]
000000 35 7e ca 3c 7b 88 bf bc a3 2d 6f 3d af 60 f8 bc
       0.024718383 -0.023380509 0.058393132 -0.03031954
000010 8f 52 04 be 40 a4 99 bc 4f f4 f2 3c 08 ad f9 3c
       -0.12922119 -0.018755078 0.029657511 0.030478016
000020 d9 19 4e 3e af 87 33 bd fd 9f 0c 3e 1e c8 45 3d
       0.20127048 -0.04383057 0.13732906 0.04828655
000030 4c 8c 53 bc 36 22 b2 3b 47 4f 9b bd c5 78 22 bd
       -0.012911867 0.005436207 -0.0758348 -0.039665956
000040 76 66 61 3d 1d 13 5c 3d 90 bf 2e 3d ed d6 cd bd
       0.055029355 0.053729165 0.042663157 -0.100507595
000050 90 a5 1a 3d d1 b8 2b be a2 b1 47 3d e2 76 fa bd
       0.03775555 -0.1676972 0.04875339 -0.12229706
000060 fd 64 a9 bc b0 ab 29 3e a8 c0 4b be 85 83 ca 3d
       -0.020678038 0.165694 -0.19897711 0.098883666
000070 c6 c8 9c bd 8a 92 34 bb 43 e4 47 3d 8b 33 03 3e
       -0.07655482 -0.0027553164 0.04880167 0.12812631
000080 9a 7b ae bd 0d 74 61 3d 60 9a bb 3c 1a d3 b6 3d
       -0.08519669 0.055042315 0.02290076 0.08926983
000090 c0 49 34 bd a3 06 1f 3e d7 73 dc 3c 39 14 0e be
       -0.044015646 0.15529875 0.026910705 -0.13874902
0000a0 74 2a 67 bc 13 eb ef bd ac b3 21 be 9d fe ef 3d
       -0.014109243 -0.11714759 -0.15791196 0.117184855
0000b0 4e f3 1b 3d dd f1 16 3e e5 2f 41 bd 4c f4 41 3d
       0.03807383 0.14740701 -0.047164816 0.04735212
0000c0 8b b4 10 3e 5a 7a d6 bc 9d 03 5f 3d be d5 14 3d
       0.14131372 -0.026181389 0.054446805 0.036336653
0000d0 8b 7c 47 3d 11 d1 86 bd 8b c0 64 bd 17 4a 00 be
       0.048702758 -0.06582845 -0.055847686 -0.12528263
0000e0 98 1a 58 bd ad e6 15 bd a7 2c 92 3c f5 07 08 be
       -0.052759737 -0.036596943 0.017843558 -0.13284285
0000f0 ac f0 0a bd 81 03 14 be f5 6a 86 3d c7 8d 8b be
       -0.03392093 -0.14454462 0.06563369 -0.27256605

decoder.2.weight f4 [64, 64]
000000 ac 54 07 be f2 ed a6 bd 23 dd ec 3d 55 61 a4 bb
       -0.13215894 -0.08150853 0.11565616 -0.0050164857
000010 58 66 b5 3d 76 60 4e 3d 44 c3 14 3e ea a2 32 bc
       0.08857411 0.05038496 0.14527613 -0.0109031
000020 af de 2e be bc f4 48 bc 2f 7d 33 be 14 fd fc 3c
       -0.17077135 -0.0122653805 -0.17528223 0.030882396
000030 b4 c3 07 bd ce ea 9f b9 d1 eb 8f bd 70 b2 19 3d
       -0.03314562 -0.00030501786 -0.070274 0.037523687
000040 73 2c b4 bc 55 82 97 3d ec 8b ce 3d 9b 4f 27 3d
       -0.021993851 0.07397906 0.10085282 0.040847402
000050 fe db 53 be 38 b0 80 bc aa ad 9c 3c 5a 60 cb 3d
       -0.20689389 -0.015709028 0.019125778 0.09930487
000060 70 49 09 bd e6 7a fa bd 59 33 d0 bd 2f 82 b2 3b
       -0.0335173 -0.12230472 -0.10166044 0.005447648
000070 93 07 c3 bc e5 4b cb 3b 6a bb 7a bd 0a 8f 8b bd
       -0.023807323 0.0062041157 -0.06121389 -0.06814392
000080 fa 3e 95 bd 6f 2c ea 3d 18 09 dc 3d 4d 9a 36 3d
       -0.072874025 0.11434256 0.10743922 0.044580746
000090 6f 8f 83 bd 99 94 a7 3c c3 b4 83 3c c2 21 2a 3c
       -0.06423842 0.0204566 0.016077405 0.010384025
0000a0 fd 70 7d 3d 06 5d e1 bc cb d4 e5 3c 52 69 5a bd
       0.061875332 -0.027510177 0.02805557 -0.053323098
0000b0 be 6e 12 3d 0f bc ea bc b6 8c ae 3d a9 6a 35 be
       0.035750143 -0.028654126 0.08522932 -0.17716469
0000c0 80 6d 25 3d 81 43 4e 3d 14 72 5d bd 78 b6 88 bc
       0.04038763 0.050357345 -0.05406387 -0.01668857
0000d0 1f b3 ac bd c7 2b b5 bc d5 14 0e bd df 38 8f bc
       -0.08432602 -0.022115601 -0.034687836 -0.017483173
0000e0 50 cc 8c 3d 41 79 21 bd 56 f0 cf bc e8 a1 1f bc
       0.06874907 -0.039422277 -0.025383156 -0.009743191
0000f0 79 00 f3 3d 0f a6 9a 3c 15 cf 9b bd 01 38 83 bd
       0.118653245 0.018878011 -0.07607857 -0.06407166
000100 34 7e 36 3e 73 4a 60 bc c9 93 ec 3c 0d 28 af 3d
       0.1782158 -0.013689625 0.028879063 0.08552561
000110 1f 13 db 3c ba a1 87 bd 15 cb c6 bc 42 c7 0b 3c
       0.026742516 -0.06622644 -0.024266759 0.0085313935
000120 5a f9 9b 3d f4 ff e2 3d 3c 39 b1 3d 8d 65 82 3d
       0.076159194 0.110839754 0.08653495 0.063670255
000130 c3 79 d6 bc b8 e8 32 bd 53 90 9a 3d d8 06 6e bd
       -0.026181107 -0.04367897 0.07547059 -0.058111995
000140 48 30 88 bd 18 c2 c0 3d 35 c6 80 bc 25 bb 61 3d
       -0.06649834 0.094120204 -0.015719512 0.055110116
000150 9b cd ee 3d 8e 6b 05 3d ea 30 ab bc 76 d4 c0 3c
       0.1166031 0.032573275 -0.020897347 0.02353881
000160 71 4c 48 3d 8b 99 82 bc 52 55 4f bd b3 f7 16 bd
       0.048901025 -0.015942356 -0.050618477 -0.036857318
000170 bc 41 e1 3d cb e2 5d 3d 87 ff c4 bc 22 20 ef 3d
       0.10998866 0.054171365 -0.024047626 0.11676051
000180 ec fe 31 bd 27 47 2f 3d eb 44 62 3d 02 0d 10 be
       -0.043456003 0.042792466 0.055241507 -0.14067462
000190 1c 07 d5 3d 07 0d 2a bc a1 28 1b 3d e6 6e de 3c
       0.10401747 -0.0103790825 0.037880544 0.02715249
0001a0 34 d5 b5 3d 36 c4 97 3b e8 1a 8f 3d 95 67 a2 3d
       0.08878556 0.0046315445 0.06987554 0.07929913
0001b0 ed 1c 71 3a f1 22 d2 3d 59 60 b2 3d 33 cb b7 3d
       0.00091977307 0.10260571 0.08709783 0.08974304
0001c0 8c db 67 bd 73 cf ea 3d 43 64 8b bd d1 74 b1 bc
       -0.05660586 0.11465349 -0.06806233 -0.021662148
0001d0 d6 0e 3f 3c b8 1f 1e bd 1c eb 8d bd 19 48 a6 3d
       0.011661252 -0.038604468 -0.06929609 0.0811922
0001e0 4f 10 c9 bd 7f e8 b6 bc 22 90 92 bd 94 9f 36 3d
       -0.09817564 -0.02232766 -0.071563974 0.04458578
0001f0 1e a2 1e be a0 4a 81 bd 11 a7 69 bd 0e 79 0f 3e
       -0.1549153 -0.06313062 -0.057044093 0.14011022
000200 9a 98 86 3d d4 0d 3d be 14 b8 d7 3d 85 3e c9 3c
       0.06572075 -0.18462306 0.10533157 0.024565944
000210 00 e8 1e 3d f8 cb 4e 3d 21 24 b9 3d 6b 0c e3 bd
       0.03879547 0.05048749 0.09040094 -0.11086353
000220 f8 96 be bd 31 04 bd 3d b3 8c 3b be 4a 99 41 3d
       -0.09306139 0.09229315 -0.18315391 0.04726533
000230 d0 91 cd bc 13 83 45 bd de a1 cc 3c b9 8c 9d 3d
       -0.025093943 -0.048220705 0.024979528 0.07692856
000240 a3 b2 19 3d f2 43 de 3d f5 7d f1 3d 97 9c 97 3c
       0.037523877 0.10852803 0.117916025 0.018507285
000250 20 27 07 bc ea 7e 20 bd 38 cf 2b bd 42 a8 4e 3e
       -0.008249074 -0.039183535 -0.041945666 0.20181373
000260 e9 3d 0e bd 3c 13 ed bb c3 0e 74 be 5f ba 4e bd
       -0.03472701 -0.007234959 -0.23833756 -0.050470706
000270 6d 0c 5b 3d e1 66 85 3d 76 fe 20 bb 1d 42 37 be
       0.053478647 0.06513763 -0.0024565733 -0.17896314
000280 c0 fa b6 3c 25 37 9b 3d 35 be 73 3d b3 81 ce 3d
       0.022336364 0.07578877 0.059507567 0.10083332
000290 d8 85 b0 3b 32 de a8 bc 0e eb d0 bd ce e6 cb 3c
       0.005387049 -0.020613763 -0.10201083 0.02489033
0002a0 dd e3 34 bc 66 eb 2f bc a6 8e 98 3d ea 4c e8 bd
       -0.011040655 -0.010737276 0.07449083 -0.11342795
0002b0 2d 3b 45 bd 61 76 88 bd 15 7d a6 3d 69 51 11 3c
       -0.048152138 -0.06663204 0.08129326 0.008869507
0002c0 fd 26 05 bd 2f 1e 7c bd 29 c7 42 be 05 f6 e3 3d
       -0.032507885 -0.061552223 -0.19021286 0.11130909
0002d0 2f 0a eb bd 83 9a 10 bb a8 96 11 3e 55 a2 95 3d
       -0.11476552 -0.0022064752 0.14217627 0.07306353
0002e0 ca 66 66 3d 78 d8 9c bc c2 ea 9b 3b 74 5e 8e 3d
       0.05625037 -0.01914619 0.00475821 0.06951609
0002f0 74 1a 91 3e 6c b9 07 3e 0c c4 00 be 4c 9b 66 be
       0.28340495 0.13254327 -0.12574786 -0.22520179
000300 2f 16 bd bd c0 fd c8 3c bd 9e 6b bd 6b 27 80 bc
       -0.09232747 0.02453506 -0.05752443 -0.015643796
000310 1f 20 56 bd 5d 90 a8 bc bd 21 16 3e 8b 81 0f bc
       -0.052276727 -0.02057665 0.14661308 -0.008758913
000320 9b 9d 15 3d e4 a8 a8 3d f3 20 38 3d f1 e0 24 3c
       0.036527257 0.08235338 0.044953298 0.010063396
000330 31 b7 36 bd a8 0c 06 bc dc b4 dd bc 2c 69 6a bd
       -0.0446083 -0.008181728 -0.02706378 -0.057229206
000340 df 4c eb bc 37 13 57 bd 41 9c ae 3d 28 22 25 ba
       -0.028723178 -0.05250856 0.08525897 -0.000629934
000350 88 01 a0 bb 43 2c 5c bd 11 d0 90 3d 59 35 fb 3d
       -0.004882995 -0.05375315 0.070709355 0.12266035
000360 7f 49 99 3d 1c f8 fe 3d 4d 7e 30 be 80 e1 a3 3d
       0.074847214 0.12449667 -0.1723568 0.08001995
000370 2f 13 be 3d 65 67 00 bd a2 44 15 3e 9a 14 07 be
       0.09281003 -0.031348605 0.14576963 -0.13191453
000380 cf 50 45 3d b6 cc 17 3e ae 4f 94 3c 7e de 09 3c
       0.04817277 0.14824185 0.0181044 0.008414863
000390 71 62 3e bd 6d 12 c1 3d 7e 0f 93 3d fb 49 2d 3d
       -0.0464806 0.094273426 0.07180689 0.04230688
0003a0 aa bb f5 3d 86 d5 0d 3d 06 ea 91 bc f7 87 1a bc
       0.11998685 0.03462746 -0.017811786 -0.009431831
0003b0 4d 2d 87 bd 58 5e 49 bd b2 fa 65 3d 75 e9 16 3c
       -0.06600437 -0.04916224 0.056147285 0.009210934
0003c0 c6 e1 1c 3e d2 5d 08 3d de ed 9f 3d 61 2c 87 bd
       0.153205 0.0332926 0.078090414 -0.066002615
0003d0 a8 0c 86 3d c1 9d ed 3c d1 f3 73 bd f2 e6 7e bd
       0.06545383 0.029005887 -0.059558693 -0.062231965
0003e0 7b d6 2c 3d 47 2d 0b 3e 7f b6 17 3e 4b fc 27 bd
       0.042196732 0.1359149 0.1481571 -0.04101209
0003f0 57 45 49 3d 74 82 97 3c 73 fd a7 3d 85 3a fb be
       0.049138393 0.018494822 0.082026385 -0.49068084
