models/cvae_L12_H128_B0.100_LR1e-03.pt (torch, 220957 bytes, 13 tensors)

encoder.0.weight f4 [128, 46]
-0.15377359 -0.026988741 0.029009279 0.14225699 -0.0028441066 0.05262861 -0.026582148 0.011866268
0.016206542 -0.048793122 -0.010710935 0.009911119 0.054756828 0.07150786 -0.085175194 -0.0031024371
-0.03309228 -0.013037891 0.0037357032 -0.06271851 -0.023663443 -0.017929615 0.07996318 -0.0148027735
0.002246422 0.044215586 0.11061254 -0.074741036 -0.024606228 -0.0048180567 -0.0040825442 -0.0037021644
0.051658425 0.050408356 0.079259284 -0.007166215 0.004621568 -0.0037895208 -0.0010621569 -0.00010861894
0.0027878108 -0.0012021417 -0.00615369 0.0018439965 -0.0047743237 -0.00983571 0.097852826 -0.005225562
0.0061340164 0.016951993 0.0013109777 -0.052165978 0.03270713 0.021048728 -0.024527129 0.009124501
-0.036927007 -0.011616607 -0.024115993 -0.010623758 -0.010645756 -0.014682953 0.003386018 -0.013711253
0.011663967 0.010608413 -0.015874824 0.005447558 -0.008206628 -0.001819566 0.003800776 -0.049038135
-0.019571047 -0.0045754053 -0.038243376 -0.0007094252 -0.0022294826 -0.0037467533 -0.029592078 -0.025387289
-0.030191705 -0.00070943 1.5937801e-38 -0.0037470895 -0.006368427 -0.0059161135 -0.0028033287 -0.017727382
-0.01758637 0.0068105436 -0.0021470846 -0.009126682 -0.3403139 -0.027134297 -0.017943323 0.32746026
-0.016363814 0.12970711 0.041136164 -0.057533905 -0.012372793 0.101961166 -0.075157695 0.040677767
-0.08661297 0.033978827 -0.011356526 0.007606721 0.02533799 -0.0063405386 0.011972636 -0.03243675
-0.014107828 -0.011100703 -0.051817093 0.022560336 0.06381811 0.007960193 -0.053168986 -0.03621965
-0.0066196774 0.0063152695 -0.06961079 -0.0057946146 -0.019761143 0.11405669 0.006129771 0.08518495
-0.0087835025 -0.009216357 -0.0023856373 0.12746938 0.10750439 0.06224541 0.0968149 0.07679065
-0.07230365 0.069503106 0.012810009 0.0063856887 0.024367243 -0.24023919 -0.06015892 0.05407282
-0.07396046 0.07283101 -0.014725491 -0.055332527 0.07608904 -0.00716879 -0.031166445 -0.03394477
0.013486503 0.02885552 -0.03643436 0.05058741 -0.020935504 0.039114602 0.054146998 -0.0064171455
-0.028081093 -0.024129499 0.07185231 0.10417774 0.01175216 0.10411935 0.13625312 0.019350141
-0.0075423555 -8.639173e-08 -0.0017083955 -0.040347353 0.015202768 0.0032591086 -0.0013737368 -8.639173e-08
-0.00030668988 0.029276188 0.050382324 0.00798663 -0.044856627 0.03004665 -0.011177579 -0.00075473683
-0.012267238 0.026239557 0.06473588 0.11949596 -0.019946516 -0.011928069 -0.0137858465 -0.01420432
0.102214634 -0.0386391 -0.03815935 0.010435961 -0.0037352492 -0.010987202 0.005856698 0.013047843
-0.008920275 -0.027405633 -0.018310744 -0.014110773 -0.024626328 0.053965796 -0.019586798 -0.057123672
0.011149343 0.1554889 0.14645678 -0.09524545 0.07198756 0.02130582 -0.0008894247 0.0023816286
0.06523105 0.049362812 0.079386964 0.013713218 0.009168104 0.0023816286 -0.0029187736 0.044262875
0.016911943 0.09146356 0.024275206 0.0010058285 0.022075433 0.0037613083 -0.022001406 -0.0070624705
-0.0031608236 0.14082333 -0.0051730336 -0.0090494 -0.0036828301 0.003710276 0.00019997463 -0.0124200685
0.006808632 -5.1426807e-05 -0.019021172 -0.011197352 -0.007625822 -7.1437134e-05 -0.00951877 -0.01923218
0.005092911 -0.013735024 -0.026357057 -0.00524739 -0.0039100735 -0.013528802 -0.064084716 -0.036789197
00000000: d376 1dbe 7e17 ddbc dea4 ed3c d1ab 113e
00000010: 3164 3abb 1991 573d cec2 d9bc bc6a 423c
00000020: 95c3 843c 4cdb 47bd eb7c 2fbc 3f62 223c
00000030: b248 603d b772 923d 5570 aebd 4252 4bbb
00000040: c58b 07bd e19c 55bc b3d2 743b 9072 80bd
00000050: d6d9 c1bc 21e1 92bc bcc3 a33d 5587 72bc
00000060: b538 133b 671b 353d d488 e23d d411 99bd
00000070: 0093 c9bc cae0 9dbb ddc6 85bb 03a0 72bb
00000080: c997 533d fe78 4e3d b152 a23d 92d2 eabb
00000090: 8670 973b 9c59 78bb 1238 8bba 59ca e3b8
000000a0: b4b3 363b 2f91 9dba e5a4 c9bb 41b2 f13a
000000b0: ee71 9cbb f525 21bc 1067 c83d 313b abbb
000000c0: dcff c83b e8de 8a3c 1dd5 ab3a feab 55bd
000000d0: e9f7 053d 626e ac3c 1eed c8bc ee7e 153c
000000e0: c640 17bd 9553 3ebc e78e c5bc 450f 2ebc
000000f0: 896b 2ebc c590 70bc f5e7 5d3b 2aa5 60bc
00000100: 391a 3f3c e9ce 2d3c eb0b 82bc 6e81 b23b
00000110: 1875 06bc 817e eeba 7116 793b 36dc 48bd
00000120: 7653 a0bc 48ed 95bb 16a5 1cbd b8f8 39ba
00000130: 831c 12bb 178c 75bb 166b f2bc 01f9 cfbc
00000140: 9854 f7bc 0bf9 39ba 1b8c ad00 bb91 75bb
00000150: 3dae d0bb f5db c1bb 0db8 37bb 0439 91bc
00000160: 4b11 90bc fb2a df3b 1ab6 0cbb 1488 15bc
00000170: a03d aebe bf48 debc e0fd 92bc dfa8 a73e
00000180: 680d 86bc f1d1 043e 657e 283d aca8 6bbd
00000190: 41b7 4abc 04d1 d03d 47ec 99bd bb9d 263d
000001a0: 2462 b1bd 622d 0b3d b910 3abc cd41 f93b
000001b0: 9e91 cf3c 4bc4 cfbb e028 443c 66dc 04bd
000001c0: 8524 67bc b9df 35bc 293e 54bd 74d0 b83c
000001d0: 12b3 823d 786b 023c b9c7 59bd 0e5b 14bd
000001e0: e1e9 d8bb 52f0 ce3b 1a90 8ebd c0e0 bdbb
000001f0: 1fe2 a1bc 8e96 e93d 3fdc c83b 7275 ae3d
00000200: aee8 0fbc 3400 17bc 5a58 1cbb 5587 023e
00000210: 432b dc3d 0bf5 7e3d e446 c63d 6b44 9d3d
00000220: f013 94bd a557 8e3d 12e1 513c 0a3f d13b
00000230: d09d c73c 4301 76be 3369 76bd 767b 5d3d
00000240: 9578 97bd 6d28 953d 3043 71bc 5ca4 62bd
00000250: 92d4 9b3d 2be8 eabb c650 ffbc ac09 0bbd
00000260: 7ef6 5c3c 6962 ec3c 323c 15bd be34 4f3d
00000270: ef80 abbc a236 203d 3ec9 5d3d eb46 d2bb
00000280: 520a e6bc 3aab c5bc 4e27 933d 245b d53d
00000290: 228c 403c 873c d53d f085 0b3e 3084 9e3c
000002a0: dd25 f7bb 5b86 b9b3 3eec dfba 4443 25bd
000002b0: 0815 793c c596 553b f50e b4ba 5b86 b9b3
000002c0: 38cb a0b9 9ed4 ef3c b25d 4e3d 5bda 023c
000002d0: 95bb 37bd 6424 f63c 2a22 37bc 88d9 45ba
000002e0: 87fc 48bc 57f4 d63c 3f94 843d 4cba f43d
000002f0: e066 a3bc f36d 43bc 08de 61bc 3cb9 68bc
00000300: e855 d13d 0844 1ebd fb4c 1cbd 98fb 2a3c
00000310: 15cb 74bb aa03 34bc 8be9 bf3b 9fc6 553c
00000320: 5826 12bc c781 e0bc 6a00 96bc df30 67bc
00000330: 27bd c9bc 3d0b 5d3d 7e74 a0bc 83fa 69bd
00000340: bcab 363c 7b38 1f3e c4f8 153e 0c10 c3bd
00000350: 376e 933d 8b89 ae3c 4828 69ba 1915 1c3b
00000360: db97 853d a930 4a3d a295 a23d 68ad 603c
00000370: d135 163c 1915 1c3b e548 3fbb fd4c 353d
00000380: ea8a 8a3c 3f51 bb3d ccdc c63c 01d6 833a
00000390: 8ad7 b43c 4880 763b 4b3c b4bc 4c6c e7bb
000003a0: d225 4fbb fe33 103e 8d82 a9bb ef43 14bc
000003b0: a35b 71bb 1a28 733b 48b0 5139 8b7d 4bbc
000003c0: f21a df3b 1db3 57b8 4ad2 9bbc 1975 37bc
000003d0: 08e2 f9bb 85d0 95b8 9df4 1bbc ce8c 9dbc
000003e0: 6fe2 a63b de08 61bc c1ea d7bc 4cf2 abbb
000003f0: 1320 80bb e9a7 5dbc d93e 83bd 45b0 16bd

encoder.0.bias f4 [128]
0.028454086 -0.076312676 0.101250455 -0.05204593 0.050826427 -0.09660133 0.14279748 -0.06998273
-0.0802175 0.07877182 0.1497272 0.08725044 -0.0033715244 0.0699327 -0.10635614 0.095002316
-0.025266241 -0.02361999 -0.08847394 -0.06867812 -2.517854e-05 -0.109837525 -0.05337676 -0.11947941
0.050310977 -0.21904607 0.05468996 -0.042247143 -0.11283076 0.0807083 0.1605028 0.1557882
-0.028429888 -0.03453366 -0.068535015 0.002663662 0.029851044 -0.0653275 -0.09620542 0.032693714
0.075995296 -0.03319743 -0.08790718 -0.0062682 -0.026601985 0.124295786 -0.1037587 0.13994475
-0.07673206 -0.03035732 -0.083886966 0.059108388 0.18821228 -0.0025232267 0.15918352 0.09432307
-0.076702155 0.11924541 -0.07158994 -0.032500442 0.15856557 0.005879199 0.09450245 0.120530196
0.009556984 0.012509348 0.09013339 -6.366401e-06 0.05356024 -0.087451085 0.15799601 -0.06127786
-0.03508497 0.06887375 -0.11576248 -0.13431847 0.12754345 -0.09375726 0.07113257 0.12349653
0.07652427 0.076949716 0.095233746 0.073812135 -0.09179704 0.024168339 -0.08236781 0.12957856
-0.045911755 0.0053079254 -0.06130069 -0.014290284 0.089836605 0.053446777 0.0020584972 -0.014646974
-0.046582185 0.036617287 -0.055196673 -0.037708852 -0.02180238 0.14504261 0.08139271 -0.0833774
0.13981318 0.012062469 -0.06113495 0.16498181 -0.06811706 0.06569551 0.1389549 0.05549485
0.02876611 -8.721306e-05 0.14101629 0.05234147 0.005422434 -0.050469786 -0.090127714 0.107617505
-0.0071026767 -0.10252435 -0.09706734 0.19182584 0.07300945 -0.032727435 0.087459736 0.10415863
00000000: 8b18 e93c d249 9cbd 665c cf3d 1d2e 55bd
00000010: 5f2f 503d ebd6 c5bd 8139 123e 1b53 8fbd
00000020: 1349 a4bd 1f53 a13d 1652 193e 5cb0 b23d
00000030: cbf4 5cbb e038 8f3d 3fd1 d9bd 9390 c23d
00000040: 26fb cebc b67e c1bc d331 b5bd 1da7 8cbd
00000050: 8136 d3b7 7ff2 e0bd 97a1 5abd 9fb1 f4bd
00000060: e212 4e3d 9d4d 60be 9402 603d 570b 2dbd
00000070: d013 e7bd 654a a53d d95a 243e f186 1f3e
00000080: cce5 e8bc 2b73 0dbd 165c 8cbd d590 2e3b
00000090: 2d8a f43c 6dca 85bd 5907 c5bd d8e9 053d
000000a0: 6ca3 9b3d 07fa 07bd ae08 b4bd 7965 cdbb
000000b0: 68ec d9bc ca8e fe3d 717f d4bd ad4d 0f3e
000000c0: b325 9dbd eaaf f8bc eecc abbd a31b 723d
000000d0: b8ba 403e b85c 25bb 0101 233e 742c c13d
000000e0: 0516 9dbd f036 f43d bf9d 92bd 2f1f 05bd
000000f0: 035f 223e 4ca6 c03b 808a c13d 89d8 f63d
00000100: e594 1c3c 02f4 4c3c db97 b83d f89e d5b6
00000110: fb61 5b3d 8e19 b3bd b5c9 213e 7efe 7abd
00000120: 42b5 0fbd ae0d 8d3d e114 edbd c88a 09be
00000130: c09a 023e ce03 c0bd f4ad 913d c0eb fc3d
00000140: c2b8 9c3d d097 9d3d e909 c33d d12a 973d
00000150: 1600 bcbd aefc c53c 74b0 a8bd 3eb0 043e
00000160: f70d 3cbd 1bee ad3b 6f16 7bbd cc21 6abc
00000170: 41fc b73d 02eb 5a3d dae7 063b ddf9 6fbc
00000180: f6cc 3ebd 02fc 153d e815 62bd 9974 1abd
00000190: e89a b2bc 0d86 143e 39b1 a63d c5c1 aabd
000001a0: 302b 0f3e a9a1 453c a468 7abd fef0 283e
000001b0: f580 8bbd 5e8b 863d 314a 0e3e 914e 633d
000001c0: e8a6 eb3c 28e6 b6b8 9366 103e 0264 563d
000001d0: acae b13b 68b9 4ebd e194 b8bd 9166 dc3d
000001e0: 92bd e8bb 49f8 d1bd 3ecb c6bd fe6d 443e
000001f0: fb85 953d 340d 06bd 171e b33d 1f51 d53d

encoder.2.weight f4 [128, 128]
2.2724555e-20 -4.016572e-37 -1.8128604e-30 -1.2112763e-12 -7.7850806e-13 -2.1045064e-37 -4.4737512e-12 -2.8792715e-12
3.8125313e-37 -5.212846e-12 -5.3780097e-12 -9.2723416e-30 -4.1643663e-18 -1.4441689e-15 -2.612348e-16 -1.8893575e-21
-1.1727466e-21 -6.767128e-16 -4.250728e-37 -1.3696295e-23 -9.582406e-33 -3.0638846e-17 -4.3031504e-37 -1.7702112e-32
-1.8998047e-18 -3.774464e-37 -4.0854556e-16 -6.5042813e-29 -3.39627e-29 -1.4578377e-16 -3.1415766e-11 -2.3697896e-16
6.699949e-32 -1.9071603e-28 8.889044e-21 -1.0421735e-24 9.079105e-31 -1.6545797e-18 5.653817e-15 -1.7247045e-36
-6.6947115e-17 -4.546286e-28 -1.4429612e-28 -1.7073236e-17 -3.9665116e-14 -1.148504e-15 -4.3790854e-19 -9.827728e-15
-9.497763e-35 1.6998273e-30 -4.5336558e-20 -8.435354e-14 -2.944908e-13 -4.7889413e-25 -4.776321e-17 -3.824865e-37
-5.296282e-24 -8.241703e-15 4.095687e-39 -2.2966414e-20 -5.544456e-23 1.9650387e-16 -5.217898e-21 -2.4748294e-12
-6.170832e-38 -1.4987669e-36 -4.482532e-28 -3.9616838e-37 -2.599589e-22 -5.6795177e-19 -2.1609296e-11 -3.3490806e-19
-1.3650702e-12 -1.0640921e-15 -8.6689004e-14 -2.0205105e-20 -2.4059578e-27 -3.710832e-37 -1.2849867e-17 -1.7699734e-12
-2.293769e-13 -2.3910917e-20 -3.2077016e-13 -7.4955206e-13 -3.930422e-37 -7.477838e-18 -3.1369707e-25 -9.675752e-22
-3.196254e-14 1.00666386e-26 2.4830224e-22 -1.3778071e-18 -6.6873886e-16 -1.4262567e-13 -3.2510842e-21 8.6220596e-24
-1.2736845e-20 -2.603261e-19 -3.7142086e-37 5.6335185e-33 -8.330259e-16 -5.4356066e-22 -5.3612264e-15 -3.369811e-21
-6.901385e-13 -3.5036427e-15 -1.6751505e-29 -8.659632e-17 -1.194046e-14 5.2430942e-33 -1.8438456e-12 -1.7582695e-14
8.167715e-23 -2.9964172e-24 -3.185931e-22 -1.856558e-18 -5.266941e-19 -2.1865389e-27 -3.751086e-24 -1.1554033e-28
-4.7382573e-17 4.1609847e-37 1.40244e-23 -2.6752812e-11 -5.315343e-15 3.8039025e-37 -1.1354497e-12 3.6297018e-37
0.014681874 0.0004351624 -0.025811583 0.024466584 -0.033722803 -0.0057227546 0.0424278 -0.052910056
0.0142954495 0.0069826865 0.04668613 -0.016531272 0.023690829 0.044893958 -0.01642264 0.053705607
0.0040970934 0.00907384 -0.0018896504 -0.012497985 8.561284e-09 -0.016229693 -0.0047170073 -0.0016464479
0.01986487 0.0062318873 -0.010025627 0.039545666 0.022537295 0.035183076 0.022252943 -0.03290843
0.0013876891 0.0488343 0.0065884735 0.010366493 -0.006169551 0.0155356405 0.041385815 0.0037332182
0.018516487 -0.0019498242 -0.022946963 -0.0133664785 0.02912348 -0.022925546 0.059471335 0.07189146
-0.011111329 -0.009284183 0.032104086 -0.014738194 0.040264286 0.02409872 -0.019387703 -0.005221968
0.02279929 0.026735919 -0.0052775824 0.014583487 -0.018814227 -0.012497513 0.018155344 0.02319253
0.034165252 -0.0032056298 0.0062021115 -1.9330882e-08 -0.029840251 0.011532559 0.07505214 -0.036957294
0.010796112 -0.035688736 -0.028340777 0.017507162 0.042101488 -0.016903628 0.008187396 -0.023745963
0.049807422 0.02765715 0.047579158 -0.012039395 0.018170264 0.008249394 -0.020204883 -0.03164336
0.039966233 -0.044151235 -0.035243638 0.0008268386 0.072783455 0.030703455 0.00032273305 -0.0076862415
-0.06491529 -0.03778147 -0.0032717446 -0.000827169 -0.020768661 -0.016284343 0.03243252 -0.000640816
0.020757709 -0.0069242413 0.01503846 -0.007740289 0.028281275 -0.006557116 -0.0002336633 -0.04317878
-0.028357351 -1.009007e-07 -0.014144434 0.06801388 0.009696126 0.010119959 -0.006647501 -0.06240545
-0.016552268 -0.0064216806 -0.003589465 0.012996748 -0.007323034 -0.009289033 -0.027776608 -0.03409258
00000000: 9aa0 d61e 47ad 0883 a313 138e d478 aaab
00000010: 6b21 5bab ac39 8f82 f867 9dac 589c 4aac
00000020: d5bb 0103 2569 b7ac ce38 bdac c010 3c8f
00000030: 54a3 99a2 6e20 d0a6 7497 96a5 7dc1 0e9d
00000040: 7038 b19c 970c 43a6 10a5 1083 6276 8499
00000050: cf04 478a f74b 0da4 ba6d 1283 49d4 b78a
00000060: 4c2e 0ca2 3870 0083 af82 eba5 33e7 a490
00000070: 1b36 2c90 c613 28a5 022b 0aae ec9b 88a5
00000080: cdf0 ad0b e4c2 7191 c7e8 271e bf44 a197
00000090: 2051 930d 412c f4a1 42b3 cb27 bdb8 1284
000000a0: 9a5e 9aa4 db13 1092 c5ea 3691 0a79 9da3
000000b0: c4a2 32a9 5284 a5a6 6f3f 01a1 650a 31a8
000000c0: 6d7e fc86 08e8 090e 8918 569f 81f2 bda9
000000d0: 99c8 a5aa e735 1497 d844 5ca4 4627 0283
000000e0: d6e3 cc98 2678 14a8 1c99 2c00 62e9 d89e
000000f0: 850e 869a b58d 6225 6a20 c59d 9026 2eac
00000100: 6cfc a781 8100 ff83 9f0e 0e92 22cf 0683
00000110: b122 9d9b 39a1 27a1 cf13 bead e0b1 c5a0
00000120: d61d c0ab 125a 99a6 cf34 c3a9 f2d4 be9e
00000130: 9f9e 3e93 d08b fc82 c809 6da3 031a f9ab
00000140: b220 81aa 0dd5 e19e da93 b4aa ebfa 52ab
00000150: cebe 0583 17f1 09a3 492b c296 4137 929c
00000160: 4df2 0fa9 ec63 4714 e916 961b 1554 cba1
00000170: 38c0 40a6 0d95 20aa 1da5 759d 5fc6 2619
00000180: 9a97 709e 5eab 99a0 a4c6 fc82 d801 ea09
00000190: 761a 70a6 f847 249c 9628 c1a7 a09d 7e9d
000001a0: b841 42ab cd76 7ca7 65e1 a98f 72ad c7a4
000001b0: a719 57a8 24ca d909 c5bf 01ac ef5e 9ea8
000001c0: b57b c51a 28d6 6798 e593 c09b 64fd 08a2
000001d0: e273 1ba1 473c 2d93 f51c 9198 fb76 1291
000001e0: 7883 5aa4 4a97 0d03 bca2 8719 fa51 ebad
000001f0: 6381 bfa7 aa70 0103 e3cc 9fab 5306 f702
00000200: 3e8c 703c 8226 e439 d072 d3bc 256e c83c
00000210: ec20 0abd f285 bbbb c6c8 2d3d 37b8 58bd
00000220: 7637 6a3c 05cf e43b f539 3f3d 976c 87bc
00000230: 4513 c23c bae2 373d c688 86bc 69fa 5b3d
00000240: e940 863b 72aa 143c 25ae f7ba 59c4 4cbc
00000250: ed14 1332 22f4 84bc 2091 9abb a0cd d7ba
00000260: a7bb a23c dc34 cc3b 8742 24bc a3fa 213d
00000270: 22a0 b83c 211c 103d ce4b b63c fdca 06bd
00000280: 1fe3 b53a 7a06 483d 1fe4 d73b 39d8 293c
00000290: f229 cabb 3389 7e3c 2c84 293d 02a9 743b
000002a0: e3af 973c 3e91 ffba 45fb bbbc 13ff 5abc
000002b0: 5d94 ee3c 5bce bbbc 3798 733d d43b 933d
000002c0: 4b0c 36bc b01c 18bc 937f 033d 7778 71bc
000002d0: 2aec 243d ae6a c53c f6d2 9ebc 0b1d abbb
000002e0: 94c5 ba3c 4905 db3c 92ef acbb 94ef 6e3c
000002f0: 4b20 9abc 5ec2 4cbc 84ba 943c 43fe bd3c
00000300: ddf0 0b3d 8b15 52bb 153b cb3b 0f0d a6b2
00000310: 8b73 f4bc 0ff3 3c3c f0b4 993d 8860 17bd
00000320: 2de2 303c 5a2e 12bd eb2a e8bc 2e6b 8f3c
00000330: 9c72 2c3d 7a79 8abc 6e24 063c e586 c2bc
00000340: de02 4c3d 3f91 e23c 5de2 423d e240 45bc
00000350: ced9 943c 7728 073c b684 a5bc 789c 01bd
00000360: a2b3 233d edd7 34bd a25b 10bd 33c0 583a
00000370: 7e0f 953d d085 fb3c 7f34 a939 dedc fbbb
00000380: 4ff2 84bd bec0 1abd c46a 56bb 5fd6 58ba
00000390: 0a23 aabc be66 85bc f6d7 043d 6ffc 27ba
000003a0: 120c aa3c bfe4 e2bb df63 763c 40a2 fdbb
000003b0: 22ae e73c 13dd d6bb 8403 75b9 3bdc 30bd
000003c0: ad4d e8bc bfae d8b3 0ebe 67bc dc4a 8b3d
000003d0: 80dc 1e3c 2fce 253c 48d3 d9bb db9c 7fbd
000003e0: 9f98 87bc f66c d2bb 3b3d 6bbb 50f0 543c
000003f0: 10f6 efbb 0731 18bc c58b e3bc a9a4 0bbd

encoder.2.bias f4 [128]
-5.4129973e-08 0.051298007 0.085068546 -0.019806799 0.039690286 0.22162937 -0.009446207 -0.029801283
-8.036409e-15 -2.7283191e-37 0.11675812 0.08769567 0.106246136 -7.3013435e-38 0.0033935094 0.10460125
0.012070153 0.08849915 0.010278928 -0.0009503165 0.022017747 0.07984807 0.03579869 -0.055587515
0.06264473 -0.071167134 -1.3356517e-07 -0.00897635 0.06999905 -1.8954925e-37 -0.031815782 0.074019715
0.09699841 0.05019978 0.05702522 0.006199533 -0.044276822 0.08554776 0.021222608 -0.032894425
0.023246981 -0.050384004 -0.019300777 0.011161023 0.043308757 0.055661235 -0.07865518 0.055574603
0.09450437 0.072884984 -7.8108455e-38 0.08286107 0.006107971 0.011284595 0.021625146 -0.009096486
0.108020574 0.0008583038 0.119427815 0.10887714 0.03942777 -0.027278319 0.048357446 0.03160718
0.014237806 -9.156924e-05 0.117892474 0.024515847 0.021515334 0.070008926 0.12802649 0.06368966
-0.068960786 -0.06713017 -2.1925937e-09 0.06999787 0.15505138 -8.542123e-11 0.10907508 0.10275866
0.01420236 -0.051831115 0.003334693 0.11789062 0.060682923 -0.0059255743 0.009450467 0.10138701
-0.03640861 0.012198156 0.07221272 0.010239439 -0.032680143 -0.060176328 -0.033245645 -0.021680592
0.035327982 0.16322239 -0.01776293 0.06721732 -0.23143978 -0.015093496 0.067981236 -0.015835684
0.06173286 -0.009305593 0.1313596 0.10630364 0.029136505 0.11349335 -0.0009861224 0.019472048
-0.005528697 0.13526043 -8.2575265e-05 0.04816999 0.06720278 0.044196017 0.067950435 0.015534616
0.049552064 0.009976478 0.0055750534 -0.11527137 0.085480325 0.0710057 0.0073118503 0.058041386
00000000: 897c 68b3 dc1d 523d 6b38 ae3d de41 a2bc
00000010: 4892 223d cff2 623e 44c4 1abc d221 f4bc
00000020: 65c5 10a8 06ae b982 e21e ef3d ca99 b33d
00000030: 9397 d93d f0c2 c681 a465 5e3b 2e39 d63d
00000040: e4c1 453c 0b3f b53d f368 283c a91e 79ba
00000050: 905e b43c 6387 a33d a6a1 123d bcaf 63bd
00000060: e14b 803d 13c0 91bd 1d6a 0fb4 8a11 13bc
00000070: a95b 8f3d 2300 8182 4451 02bd a697 973d
00000080: 1aa7 c63d 499e 4d3d 4793 693d 7425 cb3b
00000090: 9d5b 35bd aa33 af3d 09db ad3c 4ebc 06bd
000000a0: 7470 be3c 755f 4ebd aa1c 9ebc b9dc 363c
000000b0: 8664 313d 09fd 633d f815 a1bd 32a2 633d
000000c0: 828b c13d b944 953d a6a1 d481 11b3 a93d
000000d0: 6025 c83b 06e3 383c 3827 b13c 6d09 15bc
000000e0: e439 dd3d cbff 603a 9296 f43d fafa de3d
000000f0: 037f 213d c876 dfbc 7512 463d 8876 013d
00000100: b045 693c dd08 c0b8 9c71 f13d 75d5 c83c
00000110: ed40 b03c d760 8f3d 6019 033e b96f 823d
00000120: 503b 8dbd 8b7b 89bd 84ac 16b1 0b5b 8f3d
00000130: cac5 1e3e e1d7 bbae c162 df3d 2273 d23d
00000140: 04b1 683c dd4c 54bd dd8a 5a3b a370 f13d
00000150: a88e 783d 522b c2bb 22d6 1a3c fea3 cf3d
00000160: 3221 15bd c6da 473c 43e4 933d 52c3 273c
00000170: 9ddb 05bd 747b 76bd 962c 08bd 7f9b b1bc
00000180: 13b4 103d c523 273e 9083 91bc 3ca9 893d
00000190: 8dfe 6cbe b64a 77bc bf39 8b3d d6b9 81bc
000001a0: 98db 7c3d 7c76 18bc 2283 063e b9b5 d93d
000001b0: aeaf ee3c 346f e83d c740 81ba d883 9f3c
000001c0: 122a b5bb b681 0a3e 422c adb8 e54d 453d
000001d0: 9ca1 893d e206 353d 9929 8b3d e784 7e3c
000001e0: 1bf7 4a3d 6274 233c f0ae b63b 6513 ecbd
000001f0: 4f10 af3d 706b 913d 3f98 ef3b cebc 6d3d

fc_mu.weight f4 [12, 128]
4.3458437e-09 0.00032723896 -0.009201355 -0.0032993874 0.00013465236 0.01956523 0.013776324 0.004494937
1.0101591e-37 1.7365808e-38 -0.013100999 0.0017229847 0.0005891919 -2.1031036e-38 1.0109596e-05 0.0041774414
-0.00096673553 0.0020641037 0.0041528363 -0.004399197 -0.0008054512 -0.0021138329 -0.0056459303 0.0013331105
0.00014362531 -0.0012773185 8.3820955e-38 0.00064863503 -0.006183166 1.9585209e-37 -0.00067907403 0.0052549527
-0.0006867727 0.015907118 0.010781844 -0.00048187777 -0.0028506876 0.0043620057 0.011978839 -0.004495399
0.003988226 -0.0036909636 0.005749303 0.0032528113 -0.0046065394 -0.001631019 -0.0009366409 -0.0013844497
-0.0054099523 -0.009168039 1.3316797e-38 0.003388333 -0.0032190508 -0.0010205896 -0.008103588 0.0017253334
-0.0046028774 1.3663304e-05 -0.007402306 -0.0012791818 0.0017035046 -0.002483218 0.0027946327 0.0006073798
-0.00064322824 2.458915e-25 0.0048993872 0.0009235414 0.007050294 0.0040243366 0.00027673342 -0.0031932122
-0.004281782 0.00085913163 -5.845502e-11 4.8694543e-05 0.0032803095 6.429537e-15 -0.000566361 0.0028228404
0.0032108787 0.0009480996 0.0034572643 0.00589592 0.00065892894 -0.00023023397 0.00044882818 0.0040242383
-0.0026868389 -0.00973007 0.009908258 -0.0010675308 -0.0017448708 -0.001943055 0.0016380601 -0.007310772
0.0010202982 -0.04562565 -0.0020112353 0.0014416698 0.009665241 0.0014569017 0.0004992393 -2.3355318e-05
0.00074456836 -0.0008319351 0.0022675649 -0.0005424277 0.005124189 0.0017829667 0.0077804644 -0.0012906606
0.0006220367 -8.9992885e-05 2.3121215e-21 0.0008680484 -0.0015538508 0.0025562525 -0.00022862345 -0.001396996
0.0010544363 0.0023299782 0.0030775222 0.0009638022 -0.002443587 -0.008138296 0.006113423 0.0049693943
-3.233321e-21 -0.00039271143 2.5350388e-05 -0.0014450791 -0.0019699654 -0.007160162 0.0071634315 -0.00052439305
-1.8223146e-37 8.8413716e-38 0.00042991436 -0.0027337326 -0.0053561577 4.1755617e-38 -1.2623237e-05 -0.001139826
0.00074757996 0.001983424 0.0047838623 0.0005694217 0.0015511897 -0.00032070914 -9.348625e-05 0.0005394836
0.0014283867 0.00035364836 -3.3395364e-38 -0.004217039 -0.00060346234 -1.993655e-37 0.0008294073 0.0017546021
-0.0015826822 -0.0048356415 -0.0037481443 -0.000116023926 0.002758177 0.006939779 -0.0054407483 -0.0014114
-0.0031783942 -0.0013825039 0.0032657913 -0.0018364565 0.0013778585 -6.1251325e-05 0.0003975969 -0.00043892837
-0.00089488365 0.0002924322 7.9915973e-38 -0.0058486126 0.0005230247 4.1879244e-05 0.00049124495 0.00091765507
-0.004268295 6.6306297e-06 -0.0020151127 -0.0045684115 0.00012733361 0.001320304 -0.0012806884 -1.6652692e-05
0.00069339207 -6.1280655e-31 0.005520002 0.00089934625 -0.00044289103 -0.004692714 0.0009112869 7.780195e-05
0.001788647 0.00040139933 -5.1138077e-15 -0.0006511723 0.0008494238 -8.606193e-22 0.002118833 -0.0035187623
0.00020225253 -0.0022300736 -0.0014123067 -0.0023850051 0.00042631302 0.002271062 0.000689551 -0.00218508
-0.0007848364 0.0016331609 0.005594446 0.0007467091 0.0018160072 -0.0013393202 -0.00031706507 -0.0021479826
-0.0015386944 0.0026300475 -0.002507873 -0.0013277337 0.001010026 0.00038448448 -0.00058138074 -0.0027294
-0.0013186918 0.00054651406 -0.0024315529 -0.001079855 -0.0023527537 0.0018324904 0.00058020704 -0.0006995339
-0.0014555102 -0.0056608003 8.614564e-29 -0.00053472805 -0.00046249985 -0.0043764333 0.0004377645 0.00023703574
-0.0012089135 -0.003652069 -0.0028162634 0.002245876 -0.00016994312 -0.0008192135 0.00032139977 0.0036334977
00000000: 7252 9531 4591 ab39 48c1 16bc 893a 58bb
00000010: 7831 0d39 4347 a03c 17b6 613c 444a 933b
00000020: e87e 0902 cf18 bd00 93a5 56bc c6d5 e13a
00000030: 0074 1a3a f901 e580 629c 2937 ebe2 883b
00000040: 866c 7dba ea45 073b 8414 883b 2427 90bb
00000050: ea24 53ba 3b88 0abb 7f01 b9bb c4bb ae3a
00000060: 209a 1639 b26b a7ba ae2e e401 2909 2a3a
00000070: 289c cabb 3f4a 8502 e303 32ba bd31 ac3b
00000080: 8908 34ba a54f 823c 55a6 303c 8aa4 fcb9
00000090: 9ad2 3abb 28ef 8e3b e442 443c 244e 93bb
000000a0: aaaf 823b 18e4 71bb a664 bc3b 1e2d 553b
000000b0: 74f2 96bb ebc7 d5ba e888 75ba 6c76 b5ba
000000c0: f845 b1bb 8b35 16bc d001 9100 cb0e 5e3b
000000d0: b6f6 52bb 4ec5 85ba e9c4 04bc 9524 e23a
000000e0: bcd3 96bb 723b 6537 0b8f f2bb 38aa a7ba
000000f0: 2148 df3a 7cbd 22bb 2826 373b 9238 1f3a
00000100: 519e 28ba 1033 9816 0a8b a03b d019 723a
00000110: 2706 e73b 95de 833b 8816 9139 3645 51bb
00000120: 314e 8cbb 5937 613a 408b 80ae 5e3d 4c38
00000130: 76fa 563b 03a6 e727 d877 14ba 67ff 383b
00000140: 9b6d 523b e389 783a 4593 623b 9032 c13b
00000150: f9bb 2c3a f66a 71b9 b350 eb39 c2dd 833b
00000160: ad15 30bb df6a 1fbc 3f56 223c 64ec 8bba
00000170: 26b4 e4ba 1bae feba 2db4 d63a 338f efbb
00000180: 87bb 853a f6e1 3abd eece 03bb 69f6 bc3a
00000190: f65a 1e3c 82f5 be3a 62df 023a 2aeb c3b7
000001a0: 232f 433a 3816 5aba 6d9b 143b b531 0eba
000001b0: d0e8 a73b 6fb2 e93a 44f3 fe3b 622b a9ba
000001c0: 2d10 233a 90ba bcb8 efb2 2e1d be8d 633a
000001d0: 95aa cbba cd86 273b a4ba 6fb9 681b b7ba
000001e0: 0335 8a3a 8cb2 183b 41b0 493b aca7 7c3a
000001f0: 9624 20bb 7d56 05bc 1c53 c83b 4dd6 a23b
00000200: 864d 749d d6e4 cdb9 8ba7 d437 cf68 bdba
00000210: 891a 01bb cb9f eabb 38bb ea3b 6c77 09ba
00000220: 650a 7882 5eaf f001 2166 e139 6c28 33bb
00000230: b582 afbb d656 6301 64c8 53b7 3766 95ba
00000240: 3ef9 433a 55fc 013b f2c1 9c3b 3e45 153a
00000250: 4a51 cb3a da24 a8b9 0c0e c4b8 226c 0d3a
00000260: b438 bb3a e169 b939 58d2 3581 162f 8abb
00000270: ac31 1eba 5eae 8782 956c 593a adfa e53a
00000280: 0172 cfba 4d74 9ebb 6da3 75bb df51 f3b8
00000290: 88c2 343b 1667 e33b 4e48 b2bb bafe b8ba
000002a0: 9b4c 50bb 2235 b5ba e306 563b 41b5 f0ba
000002b0: 4299 b43a 0e74 80b8 8d74 d039 f81f e6b9
000002c0: a096 6aba 9651 9939 4e8d d901 b8a5 bfbb
000002d0: 981b 093a 7fa7 2f38 e4c6 003a ca8e 703a
000002e0: 0edd 8bbb ad7c de36 fb0f 04bb 9db2 95bb
000002f0: db84 0539 0d0e ad3a c6dc a7ba 62b1 8bb7
00000300: c1c4 353a fadd 468d 22e1 b43b 1bc2 6b3a
00000310: d433 e8b9 57c5 99bb 6ee3 6e3a 9b29 a338
00000320: 0971 ea3a e872 d239 8d3e b8a7 6fb3 2aba
00000330: deab 5e3a 990d 829c 1edc 0a3b 099b 66bb
00000340: c013 5439 6d26 12bb 261d b9ba bf4d 1cbb
00000350: c482 df39 19d6 143b fcc2 343a 8f33 0fbb
00000360: 7bbd 4dba c90f d63a 9d51 b73b cdbe 433a
00000370: 1707 ee3a 218c afba c13b a6b9 2bc5 0cbb
00000380: 04ae c9ba e05c 2c3b 215b 24bb 5a07 aeba
00000390: d962 843a a294 c939 cd67 18ba bcdf 32bb
000003a0: f4d7 acba f043 0f3a b05a 1fbb ec89 8dba
000003b0: a830 1abb 2d30 f03a 0919 183a ed60 37ba
000003c0: d1c6 beba 3c7e b9bb b867 da10 fe2c 0cba
000003d0: ae7b f2b9 2f68 8fbb c283 e539 cc8c 7839
000003e0: 6874 9eba 8d57 6fbb 0f91 38bb 8c2f 133b
000003f0: c232 32b9 7dc0 56ba 8c81 a839 fa1f 6e3b

fc_mu.bias f4 [12]
0.004165191 0.013857829 0.009548516 -0.008017629 0.022228375 -0.0074557574 -0.011220502 -0.0026842067
0.0035561724 -0.010797975 0.020529492 -0.018489337
00000000: 287c 883b f30b 633c 6171 1c3c 605c 03bc
00000010: 4818 b63c 6d4f f4bb 32d6 37bc 84e9 2fbb
00000020: ac0e 693b fde9 30bc 772d a83c f376 97bc

fc_logvar.weight f4 [12, 128]
1.2977694e-30 4.647066e-05 -0.00043984607 -3.9495644e-05 -0.00014841679 0.00010175712 5.320023e-05 0.00014777585
2.5880427e-37 -4.2855737e-38 -0.00029081292 -0.0003028015 -0.00038783584 1.0504429e-38 3.1303116e-05 -0.00015540642
2.4924399e-05 0.00019504681 0.0001449602 -4.5306813e-05 -3.8417398e-05 -6.579854e-05 -0.00012560349 -0.00014732384
4.7926784e-05 -0.00036463057 -2.0925031e-38 -0.00044586457 -0.00026148246 3.0209904e-38 0.00026681102 -2.1404087e-05
-1.3593073e-05 -0.00012673273 0.00028980462 1.0831767e-06 0.00035337286 0.00017779757 -2.0531928e-05 3.6101825e-05
3.941826e-05 -0.00015517815 1.6342485e-05 -0.00010641015 0.00015163272 -0.000605269 -1.1525979e-06 -0.00011632025
-0.00017379594 -0.00055881 -8.258187e-38 0.00027377924 -0.0006780357 -7.851762e-05 2.5731926e-05 0.00012024383
9.100981e-05 -9.7392515e-08 0.0005020818 -0.00028750606 -4.874146e-05 -0.00035770726 -0.000100141115 -0.0003463893
-0.0002675143 -2.2740933e-38 -0.00020800994 -0.00013833305 -7.377349e-05 2.2097076e-05 0.0002917793 0.00016367482
0.00022234477 0.00020262625 9.309433e-16 0.00027320068 0.00015457306 -3.8558685e-37 -0.00020122468 -0.00020809674
-0.00023141266 0.00020152575 4.0294595e-05 3.4170607e-06 -0.00012424766 0.00019175244 -0.0001749604 -0.00022531481
-3.4814504e-05 -0.00020013153 -9.2127404e-05 -0.00017192669 -0.00023663699 -0.00017348838 5.7979618e-05 -6.902578e-05
-0.0002470342 -0.00089480024 -4.7252906e-05 1.4045672e-06 0.00070272747 0.00012189068 -9.691932e-05 -0.0003343666
-0.00029468525 6.826469e-05 -4.5205277e-05 -9.886926e-05 -7.437404e-05 0.00043368075 -1.0662048e-05 -0.0002776726
-0.0001134974 -1.2888294e-05 1.7070567e-37 -2.99569e-05 -0.00014462974 -0.00025615466 0.000149484 0.0003091783
-0.00017317149 -0.0004158105 -0.00035673403 0.00028485496 -0.00013508275 -0.00018282913 0.0003301914 0.00013389111
8.7375135e-38 -0.0001298303 -0.00025169828 -6.393177e-05 -0.00025706552 -0.00054007344 0.00018081004 -2.9385814e-05
4.978053e-38 -7.630436e-39 -0.0001332993 -0.00035781553 -0.00011084958 2.7535302e-38 3.3687695e-05 5.0776118e-05
8.819054e-06 -0.0001878848 -9.256052e-05 1.5802216e-05 -2.7009664e-05 0.00020797102 -9.522081e-05 -0.00067606405
-3.8971844e-05 -0.00037876796 1.586511e-39 -0.000417896 -0.00018780887 1.1283657e-38 0.00029039988 4.28968e-05
-9.015868e-05 6.195494e-05 0.0001926464 5.7872203e-05 -0.00012036923 4.320706e-05 0.00017613436 4.9885035e-05
-5.600776e-05 -9.991649e-05 0.0001217793 -0.00015915523 -0.000110802 -0.00013271022 0.00010428681 0.00015965289
-7.4762786e-05 -3.41458e-05 1.2364946e-37 0.00018921016 -0.00013925726 7.5111224e-05 0.000107172666 -0.00031662747
-5.577353e-06 -1.1201475e-05 3.89652e-06 0.00015714075 -0.00034120868 -0.00021475294 -0.00018532954 -7.879948e-05
-0.00020223824 -3.684272e-37 1.5891101e-06 0.00036680486 -0.00018400353 6.0394914e-06 -0.00014031232 -0.00012388141
7.223814e-05 -0.00015459767 -2.0839124e-37 -3.494477e-06 0.00017163942 -6.2426804e-38 -0.00023502696 0.00029039473
-4.765826e-05 -5.920807e-05 -0.00017822627 9.157152e-05 -0.00019977456 0.00014970712 9.4846364e-05 0.00021114053
-0.00013091936 -4.9495568e-05 3.727075e-05 -0.00024459517 7.83252e-05 -0.00018989509 0.00011900004 4.2948806e-05
-9.996963e-05 -0.0005003128 -1.1992519e-05 -0.00010405844 0.00049493916 0.0005723417 1.2511628e-06 -3.9228777e-05
-0.00018379695 -0.00047786222 -0.000107112086 0.00027880757 0.00012862656 0.000490892 -0.00028319462 8.424775e-05
8.215978e-05 6.7922374e-05 6.401526e-38 -0.000101527025 7.3361836e-05 -6.9735244e-05 5.2802105e-05 2.8533985e-05
-3.7306927e-05 0.00016278634 4.6218433e-05 0.0007638727 -6.927743e-05 9.812946e-05 -1.4152047e-05 -0.00013634659
00000000: 3b93 d20d 7ee9 4238 249b e6b9 20a8 25b8
00000010: 54a0 1bb9 7066 d538 5023 5f38 47f4 1a39
00000020: 1022 b002 2e54 6981 4078 98b9 54c1 9eb9
00000030: 7256 cbb9 1362 7200 774b 0338 98f4 22b9
00000040: bd14 d137 7b85 4c39 7500 1839 d207 3eb8
00000050: 5e22 21b8 52fd 89b8 6eb4 03b9 f17a 1ab9
00000060: fe04 4938 e32b bfb9 79da e380 eec2 e9b9
00000070: 9517 89b9 767a 2401 c5e2 8b39 ed8c b3b7
00000080: ce0d 64b7 8fe3 04b9 ebf0 9739 ab61 9135
00000090: e744 b939 2c6f 3a39 fb3b acb7 0a6c 1738
000000a0: 0955 2538 51b7 22b9 3817 8937 8428 dfb8
000000b0: 99ff 1e39 eaaa 1eba f6b2 9ab5 f5f0 f3b8
000000c0: fe3c 36b9 1b7d 12ba 2acf e081 078a 8f39
000000d0: 35be 31ba d4a9 a4b8 e4da d737 6a2b fc38
000000e0: 85dc be38 1a26 d1b3 249e 033a 69bc 96b9
000000f0: bf6f 4cb8 a88a bbb9 da02 d2b8 969b b5b9
00000100: 2941 8cb9 78a0 f780 3e1d 5ab9 7f0d 11b9
00000110: d7b6 9ab8 1c5d b937 f4f9 9839 20a0 2b39
00000120: 3825 6939 1278 5439 bf29 8626 603c 8f39
00000130: e414 2239 5a35 0383 d7ff 52b9 8b34 5ab9
00000140: 5da7 72b9 a850 5339 fe01 2938 a850 6536
00000150: 7a48 02b9 2711 4939 9375 37b9 7c42 6cb9
00000160: ca05 12b8 66da 51b9 8634 c1b8 3847 34b9
00000170: c221 78b9 6fea 35b9 242f 7338 efc1 90b8
00000180: 5e84 81b9 0791 6aba 6c31 46b8 9084 bc35
00000190: 3e37 383a 8f9f ff38 2a41 cbb8 ed4d afb9
000001a0: fc7f 9ab9 5429 8f38 cc9a 3db8 0858 cfb8
000001b0: 42f9 9bb8 a55f e339 26e1 32b7 9694 91b9
000001c0: 7405 eeb8 cd3a 58b7 3f5a 6802 f44b fbb7
000001d0: c0a7 17b9 7f4c 86b9 cebe 1c39 3519 a239
000001e0: 5e95 35b9 2401 dab9 0808 bbb9 9658 9539
000001f0: 00a5 0db9 d2b5 3fb9 8a1d ad39 1f65 0c39
00000200: 95db ed01 0e23 08b9 5ff6 83b9 1c13 86b8
00000210: c0c6 86b9 b793 0dba d397 3d39 8e81 f6b7
00000220: f783 8701 8d16 5380 42c6 0bb9 3099 bbb9
00000230: ea77 e8b8 9cea 1501 e34b 0d38 71f8 5438
00000240: 8cf5 1337 f102 45b9 0d1d c2b8 008f 8437
00000250: d092 e2b7 cc12 5a39 48b1 c7b8 e439 31ba
00000260: b375 23b8 6095 c6b9 8c46 1100 0d19 dbb9
00000270: 8fee 44b9 3fde 7a00 d040 9839 17ec 3338
00000280: 9313 bdb8 ceed 8138 2001 4a39 cebb 7238
00000290: bd6e fcb8 3a39 3538 b5b0 3839 a63b 5138
000002a0: e0e9 6ab8 428a d1b8 c463 ff38 e8e2 26b9
000002b0: 5f5e e8b8 2128 0bb9 8eb4 da38 7f68 2739
000002c0: f7c9 9cb8 c637 0fb8 8c4d 2802 b766 4639
000002d0: 9605 12b9 0885 9d38 e3c1 e038 0501 a6b9
000002e0: 1925 bbb6 f8ed 3bb7 dabe 8236 26c6 2439
000002f0: 41e4 b2b9 4e2f 61b9 0555 42b9 2641 a5b8
00000300: ea0f 54b9 12bd fa82 6849 d535 b74f c039
00000310: 12f1 40b9 d6a6 ca36 cd20 13b9 2ae6 01b9
00000320: 8e7e 9738 7f1b 22b9 e0d2 8d82 a882 6ab6
00000330: 1bfa 3339 22f1 a981 9271 76b9 1f40 9839
00000340: abe4 47b8 2e56 78b8 40e2 3ab9 160a c038
00000350: 937a 51b9 b3fa 1c39 41e8 c638 9b65 5d39
00000360: 6647 09b9 7699 4fb8 2a53 1c38 023d 80b9
00000370: 8642 a438 931e 47b9 a98f f938 ee23 3438
00000380: c9a6 d1b8 6c27 03ba 7a33 49b7 f339 dab8
00000390: cebe 013a 3409 163a a0ed a735 9489 24b8
000003a0: 9eb9 40b9 9589 fab9 5da1 e0b8 eb2c 9239
000003b0: eedf 0639 34af 003a bd79 94b9 2bae b038
000003c0: 324d ac38 8c71 8e38 2044 ae01 e8ea d4b8
000003d0: d6d9 9938 d33e 92b8 d477 5d38 445c ef37
000003e0: 027a 1cb8 a0b1 2a39 aada 4138 a13e 483a
000003f0: 0949 91b8 daca cd38 946e 6db7 42f8 0eb9

fc_logvar.bias f4 [12]
0.0017657336 0.00054345373 -0.00259742 -0.0060134027 -0.0031810594 -0.2937147 0.0006585861 -0.00076843303
-0.0003297199 -0.0013946786 -0.0046758577 -0.0017620522
00000000: 3070 e73a 9076 0e3a 7a39 2abb 140c c5bb
00000010: 5279 50bb c661 96be f7a4 2c3a ab70 49ba
00000020: 41de acb9 a6cd b6ba f037 99bb a9f4 e6ba

decoder.0.weight f4 [128, 57]
0.002061052 -0.0014908536 -0.0023679067 -0.0018149613 -0.0024914318 0.17344572 -0.0012697838 0.0022343826
0.006605039 0.004225252 0.0073742014 0.0077264938 0.008799116 -0.048375666 0.2445668 0.0015216868
-0.018934233 -0.08926225 0.052166387 -0.027201323 0.013836333 0.031797256 0.005514184 -0.024008507
-0.044159982 -0.0443254 0.02637272 0.025761096 0.00075053395 0.034139425 -0.015273343 -0.01994072
0.03471103 -0.04557735 -0.010184073 0.028593477 0.066276886 -0.04870116 0.18152058 0.17811172
0.011339124 -0.0023115587 -0.0040385756 0.11340112 0.08489464 0.021716777 -0.0026572496 -0.010906872
-0.004038575 -0.002541287 0.09078934 0.022420274 0.08917609 0.1170307 0.1636614 0.06226326
-0.005280991 -0.009441566 0.0024015086 0.007347419 -0.0028323808 -0.0063430555 0.01901227 -0.0065259994
-0.005591509 0.011659258 0.0047984277 0.0043294984 -0.0035484862 0.023287816 -0.0034232102 -0.0554218
-0.012788088 -0.0028990058 0.00028459393 0.019847658 0.014275889 -0.033438865 -0.005507327 -0.013303719
-0.018968815 -0.0050345804 -0.007109551 0.01372731 -0.027587526 -0.008414085 0.009050634 0.031890977
-0.01545573 -0.010398747 -0.0085501745 0.0083680935 -0.006853252 -0.016070344 -0.011618654 -0.037830442
-0.0585723 -0.00060450076 0.0007685046 -0.001971578 -0.008288106 -0.0046619535 -0.021118179 -0.00056530995
0.0006986052 -0.0019717256 -0.00020515555 -0.0034777734 -0.0022144448 -0.0061843023 -0.007770221 0.0010827282
-1.4163277e-05 -0.002796294 -0.0045240023 -0.0015899773 -0.008083735 0.0042715715 -0.0009675837 -0.3142828
0.005339475 -0.00015627395 0.0011430997 0.00037886613 0.0011442146 0.0057756742 0.03699972 0.060503617
-0.12810561 -0.01167936 0.07938936 -0.048134174 0.023903333 -0.039295353 0.029109515 -0.025073752
0.0069462466 -0.019783692 0.055936527 -0.013152419 -0.009632177 0.023334326 -0.047994517 0.00890443
-0.02968551 -0.005445614 0.101473 0.014060803 -0.062004913 -0.026313221 -0.0030293267 -0.014783713
-0.12765199 -0.082189135 -0.0033124527 -0.014839882 -0.0032954714 -0.014441763 -0.03337948 0.027929254
-0.03786992 -0.0062694964 -0.0031974658 -0.012272198 -0.0085236905 -0.0033733982 -0.005157157 -0.04753863
-0.06087378 -0.018434076 -0.0053564133 0.006671307 -0.011574277 0.0053543895 -0.0058118403 0.003387457
0.04542221 0.013199412 -0.0006299292 -0.0051126475 0.0012445197 0.013148603 0.009055591 0.014377241
0.009503159 0.15947992 -0.022512333 0.018537369 0.000392739 0.012711943 -0.07244976 0.021994663
0.015205632 -0.03412772 -0.030567242 -0.009276288 -0.039936393 -0.041575413 0.007046358 -0.009695097
-0.021211358 -0.032123357 -0.010095035 0.0037145915 -0.050927695 0.024915047 -0.07671068 0.0065044146
0.0057267593 -0.060445365 -0.08270065 -0.0024004343 -5.6691628e-05 -0.006458658 -0.021157816 -0.007072455
-0.07660401 -0.0027523406 0.0045697354 -0.006458522 0.002220074 -0.05936901 -0.005853583 0.0010033011
-0.01673942 -0.045763116 -0.006144851 -0.005574486 0.0047335285 -0.0070620803 0.00888251 -0.010830357
0.0089265695 -0.01231316 -0.0055981195 0.008338658 -0.010247131 0.0068625845 -0.0017317383 0.0012915854
0.06557182 0.024253532 -0.47484142 -0.052442424 0.014501083 -0.017729701 -0.027635345 0.02453475
0.08425852 0.06332214 -0.0066769808 -0.0024207935 0.023382805 0.01238094 -0.017794877 0.029451061
00000000: b712 073b bf68 c3ba e22e 1bbb ffe3 edba
00000010: 4a47 23bb c19b 313e e06e a6ba b86e 123b
00000020: 156f d83b fc73 8a3b 49a3 f13b 872e fd3b
00000030: 2b2a 103c 9025 46bd b86f 7a3e 5673 c73a
00000040: f71b 9bbc 20cf b6bd 6cac 553d 4fd5 debc
00000050: c9b1 623c d73d 023d 54b0 b43b 7dad c4bc
00000060: 19e1 34bd 8d8e 35bd 9a0b d83c ef08 d33c
00000070: 7bbf 443a c8d5 0b3d 0b3d 7abc b95a a3bc
00000080: 272d 0e3d 51af 3abd 19db 26bc de3c ea3c
00000090: 2dbc 873d de7a 47bd 88e0 393e eb62 363e
000000a0: bcc7 393c 857d 17bb 0756 84bb d93e e83d
000000b0: 3edd ad3d 62e7 b13c 4025 2ebb bdb2 32bc
000000c0: 0656 84bb b98b 26bb c3ef b93d b9aa b73c
000000d0: f4a1 b63d cbad ef3d db96 273e c307 7f3d
000000e0: 2a0c adbb ccb0 1abc a162 1d3b 9ec2 f03b
000000f0: 779f 39bb 68d9 cfbb 9fbf 9b3c 0dd8 d5bb
00000100: fa38 b7bb 7906 3f3c 213c 9d3b 77de 8d3b
00000110: b88d 68bb 17c6 be3c f057 60bb f801 63bd
00000120: 2185 51bc 3ffd 3dbb 8d35 9539 8e97 a23c
00000130: 6be5 693c 31f7 08bd cf76 b4bb d8f7 59bc
00000140: 7d64 9bbc 1ff9 a4bb 3df7 e8bb 83e8 603c
00000150: 3cff e1bc 3bdb 09bc 1c49 143c 1da0 023d
00000160: 083a 7dbc 825f 2abc 0816 0cbc 541a 093c
00000170: 3f91 e0bb f4a5 83bc 2b5c 3ebc 18f4 1abd
00000180: 82e9 6fbd 5c77 1eba 7875 493a 9735 01bb
00000190: d6ca 07bc 4dc3 98bb 0800 adbc 4f31 14ba
000001a0: 9a22 373a 1138 01bb 061f 57b9 5beb 63bb
000001b0: 3820 11bb b0a5 cabb 579d febb 54ea 8d3a
000001c0: d09e 6db7 0742 37bb 153e 94bb c966 d0ba
000001d0: a471 04bc 8af8 8b3b 71a5 7dba ade9 a0be
000001e0: c3f6 ae3b 78dd 23b9 10d4 953a 8da2 c639
000001f0: 79f9 953a de41 bd3b 058d 173d a4d2 773d
00000200: 1e2e 03be c95a 3fbc e496 a23d 5728 45bd
00000210: ecd0 c33c 2af4 20bd 1477 ee3c 7867 cdbc
00000220: 579d e33b 6911 a2bc b31d 653d 3e7d 57bc
00000230: 47d0 1dbc a127 bf3c e695 44bd e3e3 113c
00000240: 072f f3bc 1f71 b2bb 14d1 cf3d 485f 663c
00000250: ddf8 7dbd d38e d7bc ab87 46bb 6337 72bc
00000260: 34b7 02be c752 a8bd bc15 59bb fa22 73bc
00000270: d6f8 57bb 259d 6cbc ecb8 08bd e4cb e43c
00000280: 7d1d 1bbd 5970 cdbb 938c 51bb 5411 49bc
00000290: f3a6 0bbc 3b14 5dbb 5efd a8bb deb7 42bd
000002a0: c956 79bd 0f03 97bc da84 afbb fb9a da3b
000002b0: 09a2 3dbc e073 af3b 4071 bebb 1900 5e3b
000002c0: a40c 3a3d 5942 583c d521 25ba ff87 a7bb
000002d0: 271f a33a 3d6d 573c e75d 143c 858e 6b3c
000002e0: 23b3 1b3c b44e 233e c96b b8bc aedb 973c
000002f0: 89e8 cd39 c145 503c 8a60 94bd 272e b43c
00000300: 0b21 793c 82c9 0bbd 2768 fabc 92fb 17bc
00000310: 5894 23bd fb4a 2abd 23e5 e63b 2fd8 1ebc
00000320: 71c3 adbc c893 03bd a565 25bc 8170 733b
00000330: 8f99 50bd a41a cc3c 7d1a 9dbd fc22 d53b
00000340: 8aa7 bb3b 8f95 77bd f55e a9bd 9b50 1dbb
00000350: 2cc8 6db8 26a3 d3bb 2853 adbc 0dc0 e7bb
00000360: 90e2 9cbd 9d60 34bb b8bd 953b 02a2 d3bb
00000370: a97e 113b eb2c 73bd 6acf bfbb 3381 833a
00000380: 1c21 89bc 1b72 3bbd bf5a c9bb 2eaa b6bb
00000390: b71b 9b3b 0669 e7bb f287 113c cf71 31bc
000003a0: bf40 123c 23bd 49bc 6e70 b7bb de9e 083c
000003b0: 95e3 27bc 88df e03b 7ffb e2ba 6a4a a93a
000003c0: 854a 863d 58af c63c 6a1e f3be decd 56bd
000003d0: f395 6d3c e13d 91bc 8563 e2bc 1afd c83c
000003e0: bb8f ac3d 0aaf 813d 93ca dabb 2da6 1ebb
000003f0: 4c8d bf3c 6dd9 4a3c 90c6 91bc 5a43 f13c

decoder.0.bias f4 [128]
0.0744135 -0.009876054 0.030904759 -0.06970871 0.10631742 0.17205672 0.09156965 0.07776616
-0.16846386 -0.072524555 0.032606382 -0.035202947 -0.036462717 -0.040152967 -0.07118694 -0.05567163
-0.0021872574 0.047389224 0.12795675 -0.08681917 0.024839405 0.14156263 0.10660536 -0.22144985
0.01849161 -0.008717979 0.14485049 -0.023726506 -0.01201617 0.038239088 0.02934588 -0.026314037
0.07877951 -0.038414538 0.06438215 0.050788086 -0.014416575 -0.008274409 0.07867288 -0.06945085
-0.10656905 0.06982745 -0.11937338 0.046466243 0.04981378 -0.03935994 0.060653437 0.030393831
-0.04955625 -0.021651633 -0.05502046 0.09062094 -0.0026462546 0.12541528 0.060048126 -0.03335879
-0.017539175 0.10420384 0.08499907 0.03237874 -0.049024522 0.055334557 -0.0880856 -0.040846378
-0.069978744 -0.021570902 0.048059452 -0.0070703663 0.07378459 -0.087971844 -0.017141622 0.06862352
0.1825874 0.105555415 0.08883259 0.012925433 -0.006067402 0.059864856 -0.050476056 0.04433416
-0.013581484 -0.08458593 0.025722045 -0.06687797 -0.08868012 -0.066093534 0.15831234 0.05085875
-0.117412165 0.11150486 0.12343051 -0.008069127 -0.026426269 -0.017589612 0.19419481 -0.0024750053
-0.019329581 -0.07179202 -0.005130583 -0.061461836 -0.03201911 -0.014276282 -0.042160854 0.08786766
0.06732537 -0.047882423 -0.0149343 0.06449901 -0.08501123 -0.12004598 -0.03942501 0.039433546
-0.041476168 -0.10612581 0.13200088 0.13081634 0.040068462 0.12033547 -0.050963342 0.018957028
-0.002816489 -0.0090162745 0.03584007 0.08573765 -0.046462454 0.08320624 0.15437017 0.010200836
00000000: 1b66 983d 2ccf 21bc fa2b fd3c 71c3 8ebd
00000010: f3bc d93d a32f 303e de88 bb3d dd43 9f3d
00000020: ca81 2cbe c187 94bd 458e 053d f730 10bd
00000030: ee59 15bd 7077 24bd 75ca 91bd ef07 64bd
00000040: 1758 0fbb 341b 423d 1807 033e 40ce b1bd
00000050: 027c cb3c cbf5 103e e953 da3d c0c3 62be
00000060: b87b 973c dbd5 0ebc b053 143e 175e c2bc
00000070: 78df 44bc 97a0 1c3d c566 f03c 8990 d7bc
00000080: 2757 a13d 9058 1dbd cada 833d 2b07 503d
00000090: 8033 6cbc 6391 07bc 3f1f a13d 3f3c 8ebd
000000a0: e040 dabd b201 8f3d 087a f4bd 6353 3e3d
000000b0: 8909 4c3d e337 21bd bd6f 783d 7cfc f83c
000000c0: 7ffb 4abd c45e b1bc 225d 61bd 7997 b93d
000000d0: c96c 2dbb dd6c 003e 06f5 753d 3aa3 08bd
000000e0: 51ae 8fbc d368 d53d fe13 ae3d 929f 043d
000000f0: f0cd 48bd 7da6 623d 3966 b4bd 884e 27bd
00000100: 0451 8fbd 76b5 b0bc fdd9 443d 88ae e7bb
00000110: 601c 973d 952a b4bd 966c 8cbc 7d8a 8c3d
00000120: 31f8 3a3e 702d d83d dced b53d 32c5 533c
00000130: 0fd1 c6bb da34 753d fbbf 4ebd bc97 353d
00000140: df84 5ebc 633b adbd 0ab7 d23c 51f7 88bd
00000150: ec9d b5bd 0c5c 87bd a11c 223e 4451 503d
00000160: ca75 f0bd a95c e43d 23c9 fc3d 5f34 04bc
00000170: e77b d8bc 1718 90bc 01db 463e b333 22bb
00000180: 1259 9ebc b207 93bd 731e a8bb 68bf 7bbd
00000190: 7826 03bd 11e7 69bc dcb0 2cbd f6f3 b33d
000001a0: e2e1 893d 5c20 44bd ffae 74bc 0f18 843d
000001b0: 5e1a aebd abda f5bd 1f7c 21bd 1285 213d
000001c0: eae2 29bd 7d58 d9bd 3d2b 073e b8f4 053e
000001d0: d41e 243d 7172 f63d f0be 50bd c54b 9b3c
000001e0: d894 38bb ffb8 13bc 0acd 123d 3997 af3d
000001f0: 6a4f 3ebd 0868 aa3d 3713 1e3e 6821 273c

decoder.2.weight f4 [128, 128]
0.082012914 -0.0002925478 -0.028445581 -0.03759274 -0.050917488 0.10312655 0.0027621922 -0.009403487
0.030258544 0.0028943613 -0.015953861 -0.0016283486 -0.020192798 -0.008926615 0.030207478 -0.003837702
-9.623916e-05 0.047761325 0.0022987772 0.04246823 0.07616638 -0.0025615483 0.09742046 0.065269664
-0.04043242 0.014271208 0.013383671 0.0068342146 2.8812632e-05 0.052320093 0.014571083 0.0032455549
0.052814223 0.04768885 0.029053792 -0.004337341 -0.049518112 0.001733918 0.015677102 -0.028768506
-0.017486608 -0.00789818 -0.052166924 0.009609251 0.055702835 -0.043008193 -0.01943865 0.016748467
-0.003191376 0.038807355 -0.039530266 0.020382581 0.0010192125 -0.06844444 -0.037095204 0.016169244
0.016092489 0.04379554 0.05196963 -0.026920399 -0.0027137676 0.02936144 0.0020641757 0.00677346
0.020159416 -0.02600296 0.00630752 0.00036891236 -0.008350959 -0.06527064 -0.050991382 0.071266726
-0.017404823 0.0084557105 -0.08010696 0.025291394 -3.8963324e-05 -0.05359707 -0.026391128 0.022783455
0.008683055 0.007115908 -0.0019157485 -0.021196377 -0.023656087 0.023927586 0.044354968 0.034914594
0.03057403 -0.034905683 -0.01410925 9.241328e-05 0.06426513 0.001418697 0.090098076 0.018138612
0.004253192 -0.00068640703 0.044994645 0.020607375 0.0060160984 0.06740604 -0.04023294 0.035641097
0.0009582179 0.05866206 0.08004714 -0.023115011 0.041351326 0.021886833 -0.005306607 -0.06315127
0.014420306 -0.0032350505 0.08193816 0.12321179 -0.015435471 0.024849437 -0.020823754 -0.0131024895
0.0009772074 0.0709289 0.034655515 -0.013439919 0.0025986645 0.0056311702 -0.06805058 -0.028312445
0.018042862 0.00020634403 -0.016320769 -0.0059595313 -0.01924274 -0.027425172 -0.004405728 -0.0073877177
-0.0034902317 -0.0015032664 0.0013128921 -5.5048095e-05 -0.0011417345 -0.016186329 -0.0040414482 0.024038257
-1.7355711e-07 0.011005741 0.0013593258 0.0025287974 0.047764268 -0.007185001 0.06559196 -0.0019790716
-0.00464784 -0.0046567833 -0.00016738026 2.9171099e-05 -0.0001791893 0.008486904 -0.0004485694 -0.008738336
0.004959079 -0.017520076 -0.0032751071 -0.004486486 0.0028505304 -6.6129114e-06 -0.007819701 0.0007356582
-0.00030476207 -0.0015893229 -0.0034403782 0.0030609432 -0.004849724 -0.004858738 -0.031385776 -0.0007563095
-0.0036335038 0.005094174 -0.005157983 0.004723242 5.72226e-07 -0.021772303 -0.007520023 -0.004582916
0.00040180798 -0.022034261 -0.029039744 0.019528875 1.6256767e-05 -0.03382935 -0.004561685 -0.0026579862
-0.003176045 -0.013906398 -0.003155064 7.236198e-05 0.0042426945 -0.0076807337 -0.003953797 0.018114
0.015157368 -0.019529345 -0.0017633118 -0.009075938 -0.00018741799 -0.0054669897 0.00072211295 0.000989097
0.0009821393 -0.00463677 -0.0080507705 -0.0008910584 -0.0018365044 -0.0025423453 -0.025908345 0.024323419
-0.0025654063 -0.033453856 -0.015983736 6.7961105e-06 0.007795125 -0.0041441927 -0.011967559 0.0022679232
-0.0013077237 -0.00016860609 0.019113269 0.0017709902 8.420042e-06 0.022104254 -0.0037305648 -0.004711226
-3.5051537e-05 0.020545283 0.0192901 -0.018711202 0.00032687976 -0.0005499355 0.0076093017 -0.00730452
-0.00010683142 -0.013755783 0.011527655 0.0088250395 -0.005605687 -0.0025200984 -0.0025767996 -0.00057562214
-3.6161156e-05 -0.023280274 -0.006558178 0.0034422192 -0.00011180854 0.030617911 0.0014050417 -0.015369544
00000000: 63f6 a73d 1a61 99b9 b506 e9bc d8fa 19bd
00000010: db8e 50bd 0334 d33d e505 353b 1511 1abc
00000020: c4e0 f73c 53af 3d3b acb1 82bc 506e d5ba
00000030: 5e6b a5bc f040 12bc ac75 f73c f581 7bbb
00000040: 01d4 c9b8 61a1 433d 15a7 163b 2bf3 2d3d
00000050: 1efd 9b3d a6df 27bb 6184 c73d 1aac 853d
00000060: 779c 25bd c9d1 693c 2f47 5b3c 8cf1 df3b
00000070: a8b2 f137 984d 563d 8dbb 6e3c 60b3 543b
00000080: ba53 583d 6255 433d 3802 ee3c 4120 8ebb
00000090: 81d3 4abd a244 e33a 446d 803c eeab ebbc
000000a0: 1340 8fbc 5e67 01bc fcac 55bd 1f70 1d3c
000000b0: a828 643d 5c29 30bd ce3d 9fbc 1534 893c
000000c0: 6826 51bb 76f4 1e3d 7dea 21bd 5ff9 a63c
000000d0: 1997 853a 992c 8cbd 24f1 17bd 5d75 843c
000000e0: 65d4 833c f462 333d 1bde 543d 2b88 dcbc
000000f0: 77d9 31bb 6787 f03c 1f47 073b e7f3 dd3b
00000100: 5c25 a53c 2904 d5bc 50af ce3b 946a c139
00000110: 76d2 08bc 9dac 85bd 57dc 50bd 4af4 913d
00000120: 8f94 8ebc d289 0a3c 1e0f a4bd e62f cf3c
00000130: 8d6c 23b8 9a88 5bbd 3532 d8bc 5ea4 ba3c
00000140: 5f43 0e3c 902c e93b da19 fbba 06a4 adbc
00000150: 69ca c1bc c903 c43c 8ead 353d 9b02 0f3d
00000160: 6376 fa3c 43f9 0ebd 7c2a 67bc 00ce c138
00000170: 709d 833d 92f3 b93a 5785 b83d 6d97 943c
00000180: 5c5e 8b3b ffef 33ba 4e4c 383d ccd0 a83c
00000190: b122 c53b 2e0c 8a3d 4ccb 24bd 66fc 113d
000001a0: ea30 7b3a a147 703d c1ef a33d b15b bdbc
000001b0: 0260 293d 044c b33c 0ce3 adbb 7455 81bd
000001c0: 2643 6c3c 2403 54bb 32cf a73d 7756 fc3d
000001d0: 0fe5 7cbc 0c91 cb3c 9496 aabc d3ab 56bc
000001e0: a415 803a 2c43 913d f1f2 0d3d 1b33 5cbc
000001f0: 5b4e 2a3b ae85 b83b 1a5e 8bbd 80ef e7bc
00000200: a0ce 933c 0e5e 5839 22b3 85bc 2c48 c3bb
00000210: f3a2 9dbc c1aa e0bc ed5d 90bb ab14 f2bb
00000220: 5fbc 64bb 4009 c5ba 5915 ac3a 71e3 66b8
00000230: 41a6 95ba 3199 84bc 206e 84bb e1eb c43c
00000240: 045b 3ab4 6c51 343c 682b b23a 2eba 253b
00000250: 77a4 433d 2870 ebbb 1455 863d 50b3 01bb
00000260: e84c 98bb ee97 98bb cc82 2fb9 75b4 f437
00000270: c3e4 3bb9 a80c 0b3c f72d ebb9 3d2b 0fbc
00000280: c57f a23b 4386 8fbc 2ea3 56bb 5f03 93bb
00000290: f7cf 3a3b 7ae4 ddb6 341e 00bc 30d9 403a
000002a0: 79c8 9fb9 d450 d0ba f877 61bb 1b9a 483b
000002b0: 6fea 9ebb 0c36 9fbb 5f8e 00bd 1243 46ba
000002c0: 1420 6ebb 07ed a63b 4c04 a9bb 6dc5 9a3b
000002d0: 129b 1935 d45b b2bc 866a f6bb 492c 96bb
000002e0: c1a9 d239 3281 b4bc c2e4 edbc 05fb 9f3c
000002f0: 245f 8837 a590 0abd 307a 95bb 9c31 2ebb
00000300: 3125 50bb a9d7 63bc 31c5 4ebb 0bc1 9738
00000310: 4d06 8b3b aaae fbbb da8e 81bb d063 943c
00000320: 9c56 783c 01fc 9fbc ed1e e7ba 3eb3 14bc
00000330: a285 44b9 6f24 b3bb 2e4c 3d3a 97a4 813a
00000340: 20bb 803a 0cf0 97bb 61e7 03bc eb95 69ba
00000350: ddb6 f0ba 7a9d 26bb bd3d d4bc e841 c73c
00000360: 6020 28bb e906 09bd 53f0 82bc 250a e436
00000370: 3f6e ff3b 02cc 87bb 9513 44bc 70a1 143b
00000380: ed67 abba dacb 30b9 6e93 9c3c 9220 e83a
00000390: ce43 0d37 fb13 b53c 7e7c 74bb a160 9abb
000003a0: 4d04 13b8 954e a83c 4606 9e3c 3c48 99bc
000003b0: 0f61 ab39 8c29 10ba 7357 f93b c15a efbb
000003c0: af0a e0b8 f05f 61bc 7dde 3c3c e696 103c
000003d0: e9af b7bb 3c28 25bb 86df 28bb 59e5 16ba
000003e0: bfab 17b8 46b6 bebc fce5 d6bb db96 613b
000003f0: c17a eab8 6ad2 fa3c 6029 b83a 8ad0 7bbc
