models/cvae_L8_H64_B0.010_LR1e-03.pt (torch, 85493 bytes, 13 tensors)

encoder.0.weight f4 [64, 46]
0	0x3c66e1a6	0.014091885
1	0xbb008aa5	-0.0019613889
2	0xbd5b44c1	-0.053532366
3	0xbe0dba07	-0.13840495
4	0xbcc82d32	-0.024435613
5	0x3ba2308b	0.0049496344
6	0xbcd62c73	-0.026144242
7	0xbd2bfa23	-0.041986596
8	0x3d294be9	0.04133216
9	0x3bde0c91	0.0067764004
10	0x3d3d762a	0.04625527
11	0xbd09254d	-0.03348284
12	0xbd655ebb	-0.055998545
13	0xbb217c0c	-0.0024640588
14	0x3ba18753	0.004929462
15	0x3d045a91	0.032312933
16	0xbd118c38	-0.035534114
17	0x3ca949c5	0.020665059
18	0x3d27dadb	0.0409802
19	0x3d0b229e	0.03396856
20	0x3bbbcd56	0.005731265
21	0xbd6d8240	-0.057985544
22	0x3cb23475	0.02175353
23	0xbd66432d	-0.056216408
24	0x3d2d4fdc	0.042312488
25	0x3d4341e9	0.04767028
26	0xbd3bfec9	-0.04589728
27	0xbdc39da9	-0.09551556
28	0x3dd9dd2d	0.10637889
29	0xbb4a8fb0	-0.0030908398
30	0xb08cb967	-1.0239035e-09
31	0xba861e6d	-0.0010232456
32	0xbd8ed6f0	-0.0697459
33	0xbd7f5cf3	-0.062344503
34	0xbca4b0df	-0.02010387
35	0x3af3f96a	0.001861376
36	0xbc0e00d8	-0.008667193
37	0xba861e6c	-0.0010232455
38	0x01abde82	6.313476e-38
39	0x3aa66e14	0.0012697601
40	0xbcc88892	-0.024479184
41	0xbd4dd219	-0.050249193
42	0x3d977a71	0.07396401
43	0xbc9033b2	-0.017602775
44	0xbaa78904	-0.0012781923
45	0xbbbae0c6	-0.0057030646
46	0x3e85b21a	0.26112443
47	0xbbff3a85	-0.0077889585
48	0xbd3840d7	-0.04498371
49	0xbe4cacee	-0.19987842
50	0xbc31ff91	-0.010864154
51	0x3dac42ed	0.084112026
52	0xbd72ce6e	-0.059278898
53	0x3cc17d71	0.023619385
54	0x3cc73412	0.024316821
55	0x3da163e7	0.07880383
56	0x3c942577	0.01808427
57	0x3cd074d9	0.025446342
58	0xbdb4a9b8	-0.08821434
59	0xbdc8aab7	-0.09798186
60	0xbdfccba4	-0.12343529
61	0x3af2b06b	0.0018515711
62	0x3d027841	0.031852964
63	0xbd5ce19e	-0.053926103
64	0x3bd8f099	0.0066204784
65	0xbd403105	-0.04692175
66	0xbd16ceb1	-0.03681821
67	0x3c0dbc00	0.00865078
68	0xbcd3c059	-0.025848554
69	0xbd1c5e17	-0.03817567
70	0x3df75b32	0.12077941
71	0x3e34369c	0.17598957
72	0xbdafcbf7	-0.08583825
73	0xbceed6ec	-0.029155217
74	0xbd82560b	-0.06364068
75	0x3df03098	0.117280185
76	0xbcd7170f	-0.026256112
77	0x3c460ef1	0.012088523
78	0xbd1e9b31	-0.03872222
79	0x3d85dd8b	0.065363966
80	0x3caa7a20	0.020810187
81	0x3ca437e0	0.020046175
82	0xbc5bb14c	-0.01340897
83	0x3c460ef1	0.012088523
84	0xbc28346e	-0.010266406
85	0x3d6063a6	0.054782532
86	0x3cbe3ffe	0.023223873
87	0xbdc22310	-0.09479344
88	0xbb8f0ea3	-0.0043657585
89	0xbcec0586	-0.028811228
90	0xbd526632	-0.051366992
91	0x3c460ef1	0.012088523
92	0xbe602629	-0.21889557
93	0xba867622	-0.0010258595
94	0xbb2179d1	-0.0024639259
95	0x3e47a40c	0.19496173
96	0x3c2a1277	0.010380379
97	0xbd4b1f8e	-0.04959064
98	0xbbecf1b0	-0.00723096
99	0xbd122b34	-0.035685733
100	0x3ca4b8f5	0.020107726
101	0x3d001ceb	0.03127758
102	0xbd2f6881	-0.042824272
103	0xbd49fe95	-0.049315054
104	0x3d8a4a59	0.06752462
105	0x3d5af8be	0.053459875
106	0xbd814415	-0.06311814
107	0x3baf081a	0.005341542
108	0xbbda97b2	-0.0066709155
109	0x3b972de1	0.0046136235
110	0x39b1b0eb	0.00033891885
111	0x3d27c73e	0.040961497
112	0xbd40acee	-0.04703992
113	0x3d0d8b14	0.034556463
114	0x3cdc8afd	0.026921744
115	0xbd2a99c7	-0.04165056
116	0x3c5e1e1a	0.013556981
117	0x3c0af1bd	0.008480486
118	0x3d116e55	0.03550561
119	0x3cb22f08	0.021750942
120	0xbd7b5fc4	-0.061370626
121	0x3c43ce86	0.0119510945
122	0x3c2ea540	0.010659516
123	0x3c661df0	0.014045224
124	0x3d88202d	0.06646762
125	0x3d2a06d4	0.041510418
126	0x3d261fe6	0.040557764
127	0xbb2a609f	-0.0025997532
128	0xbb7c163d	-0.0038465403
129	0x3c661df0	0.014045224
130	0xbbd92cca	-0.0066276537
131	0x3ac096f6	0.0014693427
132	0x3d2687c4	0.04065682
133	0xbb888195	-0.004165838
134	0x3c8f5099	0.017494487
135	0x3c7d19ea	0.015448073
136	0x3cbfd195	0.023415366
137	0x3b584a91	0.003300343
138	0x3c417481	0.011807562
139	0x3c3efd32	0.011657046
140	0xbca7e83b	-0.020496478
141	0xbe8df9ce	-0.27729648
142	0x3ba0a6c8	0.0049026944
143	0xbd16bc19	-0.036800478
144	0xbcb5ded1	-0.022200974
145	0x3d0ab65b	0.033865314
146	0xbcb17543	-0.02166236
147	0xbbccc58e	-0.0062491363
148	0x3ccd6718	0.025073573
149	0x3d561a6f	0.052271303
150	0xbd0c1527	-0.03419986
151	0xbd3836d5	-0.044974167
152	0x3b268bae	0.0025412845
153	0x3c8b58cd	0.017010117
154	0xbc790def	-0.015201076
155	0x3c114672	0.008866893
156	0x3c1dd13c	0.009632405
157	0x3d164e17	0.036695566
158	0x3c02cce9	0.007983425
159	0x3befe388	0.007320825
160	0xbc18aa53	-0.009317952
161	0x3d2a2ec6	0.041548513
162	0x3d124c6b	0.03571741
163	0x3d474d13	0.048657488
164	0x3ca1c874	0.019748904
165	0x3da83b50	0.08214438
166	0xbd7176b9	-0.058951113
167	0x3bfd860e	0.007736928
168	0xbc49e31b	-0.012322213
169	0x3c3842d1	0.011246399
170	0x3c9fcc21	0.019506516
171	0xbbadd11e	-0.0053044697
172	0x3d51ba26	0.051202916
173	0xbbd712ec	-0.006563535
174	0x3c92009c	0.017822556
175	0x3c3842d1	0.011246399
176	0xbc658139	-0.01400786
177	0xbacc8c11	-0.0015605708
178	0x3ced4420	0.028963149
179	0x3a49e927	0.0007702284
180	0x3ca2bfd6	0.019866865
181	0x3c72d143	0.0148204
182	0x3c0f23e4	0.008736584
183	0xbaece5ef	-0.0018073897
184	0xbe863fd7	-0.2622058
185	0xba9625c6	-0.0011455349
186	0x3cd11bd3	0.025525963
187	0x3e56a6b8	0.20962036
188	0x3be1f81d	0.0068960325
189	0x3cbadce5	0.022810409
190	0x3d7513ac	0.059833214
191	0x3c20ebb2	0.009821819
192	0x3d0ddf07	0.034636524
193	0xbd525056	-0.051346146
194	0xbc3a0aeb	-0.011355142
195	0xbba65323	-0.0050758286
196	0xbd98a6db	-0.074537
197	0xbc314ae0	-0.010821074
198	0x3d17d552	0.037068672
199	0x3c5d84cf	0.013520434
200	0xbc9674f9	-0.018366324
201	0xbb18ad7a	-0.002329676
202	0x3cd8f76f	0.026485173
203	0x3ce26e20	0.027640402
204	0xbd209f87	-0.039214637
205	0x3cf21a20	0.029553473
206	0x3b4d1595	0.0031293381
207	0xbcb40e7b	-0.021979561
208	0x3dd52935	0.1040825
209	0x3ccdff10	0.025146037
210	0x3e2fd735	0.17171939
211	0x3df8b542	0.12143947
212	0xbd1e9126	-0.038712643
213	0xbcd1c8a9	-0.025608378
214	0x3d214c3d	0.039379347
215	0x3bf6ac96	0.007527898
216	0x3e183501	0.1486397
217	0x3d555e7c	0.05209206
218	0xb98dd27b	-0.00027050436
219	0xbd32a9bc	-0.043618903
220	0x3c9d47cf	0.01919928
221	0x3c0c82b7	0.008576087
222	0x3d127460	0.035755515
223	0x3e28e377	0.16493021
224	0x3d456e77	0.04820105
225	0xbcf0ad73	-0.029379582
226	0x3d899f3e	0.06719826
227	0x3c54097a	0.0129417125
228	0xbd151802	-0.03639985
229	0x3d33f778	0.043937176
230	0x3e06975e	0.1314368
231	0x3c1a123d	0.009403762
232	0x3c618f2b	0.013767044
233	0xbd0a6ecc	-0.03379707
234	0x3c8c7e4c	0.017150067
235	0xbd989ee5	-0.07452182
236	0xbd077a5e	-0.033075683
237	0x3d271ff4	0.040801957
238	0xbb828ed0	-0.0039843097
239	0xbc9c90d4	-0.019112028
240	0x3d0622a8	0.032747895
241	0xbd3046a7	-0.04303613
242	0xbdce641e	-0.100776896
243	0x3c17b8c3	0.009260359
244	0x3cf9465f	0.030429063
245	0xbc9c18dc	-0.019054823
246	0x3ba96f4b	0.005170738
247	0xbbcc6fe8	-0.006238926
248	0xbc2bfd55	-0.010497411
249	0xbdbcbd9c	-0.092158526
250	0x3d096591	0.033544127
251	0x3d9d92ad	0.07693992
252	0x3cc7cea7	0.024390532
253	0xbdb01d7e	-0.08599375
254	0x3c69f2ee	0.01427911
255	0x3d50e3bf	0.050998446

encoder.0.bias f4 [64]
0	0x3d66daaa	0.056360878
1	0xbbe131c1	-0.006872386
2	0xbac19f8a	-0.0014772278
3	0x3cfae748	0.030627862
4	0x3d9de6dc	0.077100486
5	0x3e10229f	0.14075707
6	0xbcfa0d12	-0.03052381
7	0x3e15a7ad	0.14614744
8	0xbc23abab	-0.009989659
9	0x3e006476	0.12538323
10	0xbc2acee5	-0.010425304
11	0x3e260220	0.16211748
12	0x3d632992	0.055459566
13	0xbd0e47f3	-0.034736585
14	0x3e20acaa	0.15690866
15	0x3dd0b140	0.10190058
16	0xbca75794	-0.020427503
17	0x3c8d698f	0.017262248
18	0x3e4a463d	0.19753356
19	0xbce82e73	-0.028342461
20	0xbc65dc08	-0.01402951
21	0x3d339816	0.043846212
22	0x3dd9b645	0.10630468
23	0xbd597548	-0.053090364
24	0x3df17be4	0.117912084
25	0x3e3bda81	0.18345071
26	0x3d83fab5	0.06444303
27	0x3e591e68	0.21203005
28	0x3d802453	0.06256928
29	0x3df02031	0.1172489
30	0x3c2d87fb	0.010591502
31	0x3e03a3f4	0.12855512
32	0x3d547d5c	0.051877365
33	0x3d7729d6	0.060342632
34	0xbcd0b071	-0.025474759
35	0xbdbe4a08	-0.09291464
36	0x3c3c75df	0.011502712
37	0xbb421767	-0.0029616
38	0x3e6789b5	0.22611125
39	0xbd4eb8b7	-0.050469127
40	0x3dbe877c	0.09303185
41	0xbd4748d6	-0.048653446
42	0xbc0987c4	-0.008394185
43	0x3d7057d1	0.0586775
44	0x3e6736bd	0.22579475
45	0xbc0e11e2	-0.008671256
46	0xbd738036	-0.059448443
47	0x3e0a0ff5	0.1348265
48	0x3cb94a88	0.022618547
49	0xbddb4733	-0.107069395
50	0x3d0f6292	0.035006113
51	0xbcf2f706	-0.029658806
52	0xbd19fb5f	-0.03759324
53	0x3e0760c8	0.13220513
54	0x3dc0eee5	0.094205655
55	0xbd3710de	-0.04469382
56	0x3e32bd60	0.17455053
57	0xbd5d1997	-0.053979483
58	0x3d379cae	0.044827156
59	0xbca2bd97	-0.019865794
60	0x3dbf232a	0.09332879
61	0x3df0ac20	0.1175158
62	0xbc7b38bc	-0.015333351
63	0x3de72323	0.11285999

encoder.2.weight f4 [64, 64]
0	0x3ce23539	0.02761327
1	0x3ddabcd1	0.10680545
2	0xbd7cfd6f	-0.06176513
3	0xbd066aed	-0.032816816
4	0xbdc19134	-0.094515234
5	0xbc6439d9	-0.013929808
6	0xbc8acfff	-0.016944883
7	0x3c83ce45	0.016089568
8	0x3ddeffef	0.10888659
9	0x3db8d00b	0.09024056
10	0xbb8abb09	-0.004233722
11	0x3c0aedc5	0.00847954
12	0x3da4663b	0.080273114
13	0xbcc1da32	-0.023663614
14	0xbb9fb2ca	-0.0048736082
15	0x3d9b8ef6	0.07595627
16	0x3d0beaab	0.034159344
17	0xbdb9a0d1	-0.090638764
18	0xbdc2826c	-0.09497532
19	0x3d988b9c	0.074485034
20	0x3df33021	0.11874414
21	0xbcce5596	-0.025187295
22	0x3bfd26be	0.0077255657
23	0x3d457639	0.04820845
24	0x3e0f75d1	0.14009787
25	0xbc8a6604	-0.016894348
26	0x3d7727d9	0.060340736
27	0x3c8f959c	0.017527394
28	0x3df14c96	0.11782186
29	0x3cc336e7	0.02382989
30	0xbca98ad8	-0.020696089
31	0xbcfb6bfa	-0.030691136
32	0x3d3aadfd	0.045576084
33	0x3d403781	0.046927933
34	0x3dada5e2	0.08478905
35	0xbd409877	-0.0470204
36	0xbd02a4be	-0.03189539
37	0xbceaaaa6	-0.028645825
38	0xbd816403	-0.06317904
39	0x3caaeb6e	0.020864215
40	0x3d0db851	0.034599606
41	0x3c1fc9d8	0.009752713
42	0xbda8cea2	-0.08242537
43	0xbbb8cef4	-0.005639905
44	0x3dd571cd	0.104220964
45	0x3d78646a	0.060642637
46	0x3d8b9b2b	0.06816705
47	0x3d833bc7	0.06407886
48	0x3cb598db	0.022167614
49	0xbd07671b	-0.033057313
50	0xbc690b2c	-0.014223855
51	0xbd2f4b9a	-0.04279671
52	0x3dba4f9d	0.09097216
53	0x3de8940e	0.11356364
54	0x3dc3ac6d	0.09554372
55	0xbc23b8ef	-0.009992822
56	0x3dbdc955	0.09266917
57	0x3d9ae56d	0.07563291
58	0x3df256ab	0.11832937
59	0x3d648acd	0.055796433
60	0x3cdf8d97	0.027289195
61	0x3dff0f7f	0.124541275
62	0xbdabfdcb	-0.083980165
63	0xbd13a562	-0.036046393
64	0x3c81a9c5	0.015828023
65	0x3b4dc1ff	0.0031396148
66	0x3d5c8c41	0.053844694
67	0xbc57a3c1	-0.013161601
68	0x3d6ecd15	0.05830105
69	0xbd3f9677	-0.046774354
70	0xbc259938	-0.010107331
71	0x3e29734f	0.16547893
72	0xbc7a4b32	-0.015276717
73	0xbbe70f51	-0.0070513864
74	0x3d735ece	0.059416585
75	0xbd07b5b7	-0.03313228
76	0xbc51d43b	-0.012806947
77	0x3d4900d7	0.049073067
78	0x3e17907e	0.14801213
79	0x3c3e56ca	0.011617372
80	0x3c321d4a	0.010871241
81	0x3e35317a	0.17694655
82	0x3e0989bd	0.13431449
83	0xbde46371	-0.111517794
84	0x3d2d3909	0.04229072
85	0xbd5530e0	-0.052048564
86	0x3d7819fa	0.06057165
87	0xbcc90ae2	-0.024541322
88	0xbc04a667	-0.008096314
89	0x3d20a863	0.039223086
90	0x3d90f090	0.07077134
91	0x3dc59539	0.096476026
92	0xbe04d27b	-0.12970917
93	0xbd8c83e8	-0.068610966
94	0xbc8373df	-0.016046463
95	0x3e14413c	0.1447801
96	0x3c5e384e	0.013563229
97	0xbcf0ddf1	-0.029402705
98	0xbc1acf99	-0.009448909
99	0xbb02d7db	-0.0019965086
100	0x3ce0eda3	0.027457064
101	0x3e2cc540	0.1687212
102	0x3cde8a36	0.027165513
103	0xbca3173f	-0.019908546
104	0x3c3d794e	0.011564566
105	0x3c4d7020	0.01253894
106	0xbc6321d1	-0.013863043
107	0xbc0a1129	-0.008426943
108	0x3db76699	0.08955116
109	0x3dc5d8f4	0.09660521
110	0xbd500633	-0.050787162
111	0xbc86b02f	-0.016441433
112	0xbce51d65	-0.027968118
113	0x3d3b56f6	0.04573723
114	0x3d1cb945	0.038262624
115	0x3d8f0860	0.06984019
116	0x3d19d8ec	0.03756039
117	0x3d0cc21e	0.034364812
118	0x3d760f29	0.06007305
119	0x3c16a0fe	0.009193657
120	0x3e0b1bcb	0.13584821
121	0x3c94d08b	0.018165847
122	0xbd0e4f23	-0.03474344
123	0xbd9f5d59	-0.077814765
124	0x3d222e8f	0.039595183
125	0xbd4b90e5	-0.04969873
126	0x3cad3af3	0.021146273
127	0x3d0410f7	0.03224274
128	0x3ba9b196	0.0051786406
129	0xb99f9771	-0.00030439676
130	0xbb4f7e68	-0.0031661037
131	0x3bc74294	0.006080935
132	0xbc739382	-0.014866712
133	0x3bf26b33	0.007398033
134	0x3c675fb1	0.014121936
135	0xbd119269	-0.03554002
136	0xba9ebbe2	-0.0012110437
137	0x3ae6c50a	0.001760633
138	0xbac2cdc5	-0.001486235
139	0x3c92ee10	0.017935783
140	0x3c9069e0	0.01762861
141	0xbb39e321	-0.002836414
142	0x3c2dedf8	0.010615818
143	0xbb158aed	-0.0022818402
144	0xbc958ff4	-0.018257119
145	0xba3f2ede	-0.00072930555
146	0x3bad5d0a	0.005290632
147	0xbcb11737	-0.021617515
148	0x3c11c3f0	0.008896813
149	0xbb1e330b	-0.002413931
150	0xbc609b9a	-0.013708973
151	0xbc07b378	-0.008282535
152	0x3c7e51bb	0.015522416
153	0x3c077274	0.008267034
154	0x3c27d0aa	0.0102426205
155	0x3ca528b4	0.02016101
156	0x3c9a10f1	0.018806906
157	0x3c60eab4	0.013727833
158	0x3c29207b	0.010322685
159	0x3c122d0c	0.008921873
160	0x3bcf0ad7	0.006318431
161	0xbb46edaa	-0.003035406
162	0xbc22b350	-0.009930447
163	0xbc2abf61	-0.010421605
164	0xbb789991	-0.003793333
165	0xbce13cdc	-0.02749484
166	0x3c0b35ad	0.008496684
167	0xb8422880	-4.6290923e-05
168	0xbb210e9e	-0.0024575363
169	0xbc22b239	-0.009930187
170	0xbcbd545c	-0.023111515
171	0x3c034983	0.008013132
172	0x3c6bffe0	0.014404267
173	0xbc95870b	-0.01825287
174	0xbb12e3b1	-0.0022413547
175	0x3b8dd523	0.0043283864
176	0xbb901267	-0.004396725
177	0xbbc12b77	-0.005895074
178	0xba8ee731	-0.0010902641
179	0x3b635d66	0.003469312
180	0x3b73d172	0.0037203697
181	0x3c885aa8	0.01664479
182	0xbc42f3f7	-0.011898986
183	0xba059b7f	-0.0005096718
184	0x3cb85683	0.02250219
185	0xbc402613	-0.011727828
186	0xbd1b41b5	-0.03790446
187	0xbd195031	-0.037429992
188	0x3c1d9b20	0.009619504
189	0x3ba42250	0.005008973
190	0xbc2fd728	-0.01073245
191	0x3c5b258e	0.013375653
192	0xbc6ef9f0	-0.014585957
193	0x3df76324	0.120794564
194	0x3be8ac4f	0.007100619
195	0xbbc38791	-0.0059670885
196	0xbd9c5f5c	-0.07635376
197	0x3dc4bb94	0.0960609
198	0x3dfe408f	0.12414657
199	0xb91a69c2	-0.00014725982
200	0x3e02526d	0.12726755
201	0x3c1c1607	0.009526736
202	0xbd75c7ab	-0.06000487
203	0x3da25a59	0.07927389
204	0x3d871d2f	0.06597363
205	0x3d06a043	0.03286768
206	0x3d8438cc	0.06456146
207	0xbd1471d3	-0.036241364
208	0x3cb8cb7d	0.022557968
209	0xbc5823f7	-0.013192168
210	0x3e07c9f6	0.13260636
211	0x3d800b83	0.06252196
212	0xbcf14e82	-0.02945638
213	0x3cb70d5f	0.022345243
214	0xbc77ddbe	-0.015128551
215	0xbc7c3592	-0.0153936315
216	0x3de622d2	0.1123711
217	0xbc97adde	-0.018515524
218	0xbc53d318	-0.012928747
219	0x3d8cd399	0.068762966
220	0x3e3b5832	0.18295363
221	0x3e32837a	0.17432967
222	0x3e09e819	0.13467444
223	0x3cae73e7	0.0212955
224	0x3d84947b	0.06473633
225	0xbcb5ff92	-0.022216592
226	0x3d9d7994	0.07689205
227	0xbd40ab5b	-0.047038417
228	0x3c048b3d	0.008089838
229	0xbd6be1fe	-0.05758857
230	0x3cb19fec	0.021682702
231	0x3cce37fa	0.025173176
232	0xbc53882c	-0.012910884
233	0xbd1f98a9	-0.038963947
234	0x3da0bf05	0.07848934
235	0xbc9a25b4	-0.018816806
236	0x3e2baed5	0.16765912
237	0xbe0081bf	-0.12549494
238	0x3d5e33a6	0.054248475
239	0x3d76cd04	0.060254112
240	0xbcddd7d3	-0.027080452
241	0x3ce9d53f	0.028544066
242	0x3c39eb76	0.011347642
243	0x3cfb7489	0.030695217
244	0x3d8780a1	0.06616331
245	0x3d23f78c	0.040031
246	0xbc4fe794	-0.01268949
247	0xbc36a924	-0.011148725
248	0xbc52e8e2	-0.012872906
249	0xbd17a094	-0.037018374
250	0x3d1047fd	0.035224903
251	0x3d2f4d92	0.042798586
252	0x3dc0d560	0.09415698
253	0x3cba78d4	0.022762693
254	0xbc6487c0	-0.013948381
255	0x3c33254a	0.010934183

encoder.2.bias f4 [64]
0	0x3de96721	0.113966234
1	0x3e1137d5	0.14181454
2	0x3cf4f6de	0.029902872
3	0xbd5e7533	-0.05431099
4	0xba870d2a	-0.0010303606
5	0x3c0b0e57	0.008487306
6	0x3d4ba4c1	0.04971767
7	0x3c3d4342	0.01155168
8	0xb61e01d9	-2.354491e-06
9	0x3e10e162	0.14148477
10	0x3e030510	0.127949
11	0x3d3f4833	0.046699714
12	0x81ba8b37	-6.852537e-38
13	0xbb6d4f6b	-0.0036210667
14	0x3e0ad484	0.13557631
15	0xbd4ea5d3	-0.05045111
16	0x3dfd252f	0.12360608
17	0x3e18845c	0.14894241
18	0xbddb5018	-0.10708636
19	0x3d4d8cb2	0.050183006
20	0x3bb35ba5	0.0054735714
21	0x3cd3ce46	0.025855195
22	0x3e14082c	0.14456242
23	0xbd413f04	-0.047179237
24	0x3d8dc9b3	0.06923237
25	0x3c2662f7	0.010155431
26	0x3da4accb	0.0804077
27	0x3e1d742c	0.15376347
28	0x3d78b069	0.060715113
29	0x3dc012c4	0.09378579
30	0x3de686c9	0.11256177
31	0x3e39e616	0.18154177
32	0x3dae6318	0.085149944
33	0x3d1dfdd4	0.038572147
34	0xab0fc24a	-5.1073436e-13
35	0x3d41bcb8	0.047299117
36	0xbc9840f0	-0.018585652
37	0x3d49cbdd	0.049266685
38	0xbd433842	-0.047661074
39	0x3c41e4a2	0.0118342955
40	0xbd8e132e	-0.06937252
41	0xbd25a2af	-0.04043835
42	0x3d7ba78b	0.06143908
43	0x3dbaa06f	0.091126315
44	0x3dfa4d7b	0.122218095
45	0x3de8f4c2	0.11374809
46	0x3d429a37	0.047510352
47	0x3e068664	0.13137203
48	0xbcc18741	-0.023624064
49	0xbce6d204	-0.028176315
50	0x3e0d750e	0.13814184
51	0x3dd77a86	0.10521416
52	0xbd7fce78	-0.062452763
53	0x3cf388ff	0.02972841
54	0x3d455565	0.04817714
55	0xbd9ca0cd	-0.07647858
56	0x3cd34682	0.025790457
57	0x3da61289	0.08109004
58	0x3cd13309	0.02553703
59	0x3dd74769	0.10511667
60	0x3df38833	0.11891212
61	0x3ce47d76	0.027891856
62	0x3dc8fef0	0.098142505
63	0x3d84cf75	0.06484882

fc_mu.weight f4 [8, 64]
0	0xbb12a5b5	-0.00223766
1	0x3a828666	0.0009958267
2	0x39117b7c	0.00013874279
3	0x3afd5f2d	0.0019330733
4	0xa7b2c26a	-4.961571e-15
5	0xb9b9f4ab	-0.00035468242
6	0xb9cc44d2	-0.00038961187
7	0xb91c442e	-0.00014902718
8	0xb36ef6b1	-5.5638058e-08
9	0xbab21dc7	-0.0013589197
10	0x399da924	0.00030071393
11	0x3a96a13e	0.0011492146
12	0x8048a428	-6.671044e-39
13	0x36960f66	4.472141e-06
14	0x3b0b0658	0.0021213498
15	0x3a73abbb	0.0009295304
16	0x3b309d3a	0.0026949183
17	0xbb7baf6d	-0.0038404122
18	0xba8200c8	-0.0009918446
19	0xbb786dae	-0.003790717
20	0x39026adb	0.00012437573
21	0xbaa9c12a	-0.0012951244
22	0xbb0d9666	-0.0021604537
23	0xbb4bf044	-0.0031118551
24	0x3acfee68	0.0015863897
25	0xbacdf6ca	-0.0015713808
26	0x3804eea1	3.1693493e-05
27	0x3b1d2205	0.0023976576
28	0xba4b43db	-0.00077539467
29	0x3a950b3e	0.0011371148
30	0xb9bb69ae	-0.00035746157
31	0xbc1aa20e	-0.009438051
32	0x3b1eaca2	0.0024211784
33	0xb9defaf5	-0.00042530117
34	0x1a06f2d7	2.7906715e-23
35	0x39015069	0.00012332354
36	0xbb20b554	-0.0024522142
37	0xb93aa277	-0.00017798865
38	0xbaeed4f1	-0.001822142
39	0x3a128a26	0.0005590044
40	0xb9876351	-0.00025823203
41	0xba1be8d8	-0.0005947477
42	0x3bb365dd	0.0054747895
43	0xb9a5cbd0	-0.00031623105
44	0x39f5b5ff	0.0004686564
45	0x3b18a882	0.0023293798
46	0x3b8f573f	0.004374414
47	0xbaa65b0d	-0.001269193
48	0xbae84987	-0.0017722108
49	0xbad96b07	-0.0016587683
50	0xba7d6369	-0.00096659973
51	0xb9093a29	-0.00013087004
52	0xbb1bf28b	-0.002379569
53	0x3bc0ac86	0.0058799414
54	0x3bf9b762	0.007620738
55	0xb958a0de	-0.00020659293
56	0xba189ab3	-0.0005821392
57	0x3b048552	0.0020221067
58	0x3a997fe3	0.0011711087
59	0x3a1f2d7d	0.0006072147
60	0xba0a5c6e	-0.00052780553
61	0x3ab71d97	0.001397061
62	0x3b0d8d39	0.0021599068
63	0xba21b7b6	-0.00061690377
64	0xba556703	-0.0008140655
65	0x39df87d2	0.00042635069
66	0xb804fd02	-3.1706884e-05
67	0x3a70495d	0.00091662054
68	0x27019343	1.7982177e-15
69	0xb9df9228	-0.0004264277
70	0x37d5d23c	2.5489477e-05
71	0xba099088	-0.0005247672
72	0x293df353	4.217748e-14
73	0xbb01f936	-0.001983238
74	0xb988edc8	-0.00026117102
75	0xb84f8d58	-4.9484282e-05
76	0x80b2e594	-1.6429075e-38
77	0x38a36765	7.7917044e-05
78	0x3a580e60	0.0008241888
79	0x38a87eb2	8.034463e-05
80	0x39cf1a6a	0.00039501797
81	0xb9908053	-0.0002756143
82	0x3aef59d4	0.0018261024
83	0x3a5fb6ad	0.0008533996
84	0xba2b7252	-0.00065401674
85	0x3a827804	0.000995398
86	0x39486dc0	0.00019114371
87	0xbb290a3a	-0.002579345
88	0x380754b4	3.2265394e-05
89	0x399a38b5	0.0002941542
90	0xb80bf7d9	-3.337101e-05
91	0x39828cfc	0.00024900574
92	0xba4516d7	-0.0007518357
93	0x3a107007	0.00055098574
94	0x3a0d4af1	0.000538989
95	0x3ab0e31c	0.0013495418
96	0xb90b4aee	-0.00013283986
97	0x380a2ceb	3.2943597e-05
98	0x0a21b786	7.786385e-33
99	0x38934969	7.02318e-05
100	0x39cd6f59	0.00039183607
101	0xb88b613a	-6.646146e-05
102	0x394d1747	0.00019558995
103	0x395d9c5c	0.00021134451
104	0xb9117b95	-0.00013874315
105	0xbaa70e29	-0.0012745309
106	0xbaef0e9c	-0.0018238607
107	0xb9620db2	-0.00021558141
108	0x38cf4d7b	9.884961e-05
109	0x39db941e	0.0004188129
110	0x3a5a063d	0.00083169696
111	0xb8ae838e	-8.3214705e-05
112	0x398366d5	0.00025062883
113	0xb9af9ce0	-0.00033495482
114	0x3afb30b5	0.0019164296
115	0x3ad7912d	0.0016446464
116	0xb87f95e4	-6.0936334e-05
117	0xba2f4d38	-0.00066872267
118	0xbac97e01	-0.0015372635
119	0xb9b699c9	-0.00034828324
120	0x3a319303	0.00067739206
121	0x3a168cd4	0.0005743031
122	0xb98f224c	-0.0002730064
123	0xb78dad36	-1.6889167e-05
124	0x398292cc	0.00024904904
125	0x3907b0cc	0.00012940465
126	0xb95f2f0d	-0.00021284465
127	0x3954dfda	0.00020301287
128	0x3a6a44a2	0.00089366187
129	0x3a73b3d5	0.00092965114
130	0xb6259416	-2.4673113e-06
131	0xb90638c0	-0.00012800377
132	0xa8b0255a	-1.9556124e-14
133	0x39698722	0.00022270952
134	0x39b84020	0.00035142992
135	0x397323c5	0.00023187611
136	0x2efd120d	1.15083144e-10
137	0x399430f3	0.0002826523
138	0xb963fd1d	-0.00021742699
139	0x3877adad	5.9051137e-05
140	0x0207c1ac	9.973815e-38
141	0xb6c79cc1	-5.9489107e-06
142	0xbabe544c	-0.0014520972
143	0xba3ee57e	-0.0007282122
144	0xba1848cc	-0.00058091874
145	0x3b5e1406	0.0033886447
146	0x394ecc52	0.00019721806
147	0xba15fadd	-0.00057212805
148	0x38b1939d	8.467513e-05
149	0xba971a90	-0.0011528302
150	0x3a8967b6	0.0010483179
151	0x3a544bae	0.00080984354
152	0xb90cfd8d	-0.00013445895
153	0xb85801da	-5.1500137e-05
154	0xb89c5a9d	-7.455538e-05
155	0xbaf9a9c6	-0.0019047789
156	0x3a7cb832	0.00096404843
157	0x38bab878	8.903531e-05
158	0x39e0f9ed	0.0004291082
159	0x3be64c0f	0.00702811
160	0xbab89438	-0.0014082259
161	0xba79f7f7	-0.0009535546
162	0x8e3211ff	-2.1948859e-30
163	0x39e26a59	0.00043185314
164	0xba0d10b3	-0.00053812115
165	0xb954d674	-0.00020297786
166	0x3860762c	5.3515818e-05
167	0x3a6cc710	0.0009032348
168	0xb8933897	-7.020047e-05
169	0xbaab8e2d	-0.0013088636
170	0xbb38ba9b	-0.0028187397
171	0x39376166	0.00017488524
172	0xba4e121a	-0.0007860974
173	0xba860a26	-0.0010226413
174	0x390a5ca7	0.00013195221
175	0x39c90003	0.00038337716
176	0x3a5fd43e	0.00085384015
177	0xbb37eda8	-0.0028065238
178	0x3ac31bf3	0.0014885649
179	0x3b22a260	0.0024816021
180	0x3aa65f3a	0.0012693175
181	0xbb54cfc4	-0.003247247
182	0xba4da64c	-0.00078449096
183	0xb78038b6	-1.5285197e-05
184	0x39f74e7b	0.00047169984
185	0xba041e84	-0.00050399476
186	0x3a18c66d	0.00058279076
187	0xb9875265	-0.00025810595
188	0x397764e8	0.00023593346
189	0xba83724e	-0.0010028572
190	0xb99fd636	-0.00030486443
191	0x3a2ec349	0.0006666673
192	0xba1e67b1	-0.0006042673
193	0xbbe46135	-0.006969596
194	0x3a340e25	0.0006868563
195	0xbb360031	-0.002777111
196	0x27ee7599	6.618577e-15
197	0xba20a8a2	-0.0006128644
198	0x3a1a5040	0.0005886592
199	0x3a04423c	0.000504527
200	0x35722f8a	9.0221204e-07
201	0xbb35c660	-0.002773665
202	0x382a22ac	4.056345e-05
203	0x3a38a323	0.0007043352
204	0x82235cb8	-1.2001958e-37
205	0xb81e7cd1	-3.778638e-05
206	0x3aae4a31	0.0013297257
207	0x380dc411	3.379962e-05
208	0x3b34b407	0.0027573125
209	0x39411570	0.000184139
210	0xba12bff9	-0.0005598064
211	0xbb7cd198	-0.0038577076
212	0x3a3fca15	0.00073161843
213	0xbb90c38e	-0.004417843
214	0xbb1afac2	-0.0023647998
215	0x3a333e1c	0.0006837563
216	0x3a700b75	0.00091569807
217	0xba7afe14	-0.0009574604
218	0x39c3fe23	0.00037382645
219	0x3a8feba2	0.0010980258
220	0xb970e2b4	-0.00022972637
221	0x3b0bb80d	0.002131942
222	0xbab825ff	-0.001404941
223	0xbc1641f6	-0.009171
224	0x3ac998ee	0.001538066
225	0x3aed4237	0.0018101399
226	0x232f09ee	9.488872e-18
227	0x3adc4af6	0.0016807008
228	0x3b8868db	0.0041628904
229	0xba97517e	-0.0011544672
230	0x3997f17d	0.00028980887
231	0xbaa8744c	-0.0012852042
232	0x39f341f0	0.000463977
233	0x3b331c92	0.0027330262
234	0x3ba9213a	0.0051614316
235	0x3aec08f1	0.0018008036
236	0x3adef47b	0.0017010117
237	0xbba9c746	-0.005181226
238	0x3b0657ac	0.0020499034
239	0x3b298951	0.00258692
240	0x3a524bd5	0.0008022164
241	0x3a28a4be	0.000643324
242	0xb9f26628	-0.0004623395
243	0xbb4a7e89	-0.0030898175
244	0x3b3a2c57	0.0028407776
245	0x3bec37c1	0.007208795
246	0x3bbe7cf6	0.0058132363
247	0x3a76eb6b	0.0009419235
248	0xbb748d6d	-0.0037315742
249	0xbb0a4b9b	-0.0021102193
250	0xba855dd8	-0.0010175062
251	0xba98bb79	-0.0011652551
252	0xbb5e0902	-0.003387988
253	0x3b1bc4b0	0.0023768358
254	0xb9d2e28a	-0.00040223106
255	0xbace2496	-0.0015727456

fc_mu.bias f4 [8]
0	0xbb34aa4c	-0.0027567325
1	0xbb25390d	-0.0025211007
2	0xbb43662a	-0.0029815533
3	0x3b011926	0.0019698828
4	0x3da67eb4	0.081296355
5	0xbb802e08	-0.0039117374
6	0x3b5b4a5e	0.0033461074
7	0xba9bf032	-0.0011897145

fc_logvar.weight f4 [8, 64]
0	0x3a0c36b6	0.0005348729
1	0x393b3008	0.00017851603
2	0x3930ec6f	0.00016872746
3	0xb98cf79f	-0.00026887373
4	0xa5ed4e7f	-4.1166137e-16
5	0x38c66631	9.4604104e-05
6	0x39b6f18f	0.0003489372
7	0xba050c1b	-0.0005075351
8	0x99cd70d0	-2.1242068e-23
9	0xb8bfeb36	-9.151401e-05
10	0x39a421f4	0.00031305815
11	0x399cbf61	0.00029897227
12	0x80ff3300	-2.3436347e-38
13	0xb7866ae4	-1.602382e-05
14	0x3922c414	0.00015522569
15	0x38aa6022	8.124138e-05
16	0x3984d2e2	0.00025334122
17	0x38cc0edc	9.730246e-05
18	0xbae58625	-0.0017511292
19	0xb886152a	-6.39356e-05
20	0x3a30db38	0.00067465333
21	0x39dec3ac	0.00042488927
22	0xb912ffe5	-0.00014018973
23	0xb9f67bac	-0.0004701292
24	0x385399b0	5.0449453e-05
25	0xba04e2db	-0.00050692045
26	0x398f9764	0.0002738788
27	0x37d7e7a4	2.5737863e-05
28	0x393ad49e	0.00017817548
29	0x3a0554de	0.00050861936
30	0xb882cada	-6.236667e-05
31	0x383e46fa	4.5365632e-05
32	0x3a065faa	0.00051259494
33	0x3a2bffcc	0.0006561249
34	0x0971813d	2.9070087e-33
35	0x39973649	0.0002884141
36	0x3997e3d4	0.0002897071
37	0x397804d9	0.00023652929
38	0xb8dfa301	-0.000106638305
39	0x3a37e3f3	0.0007014863
40	0x3827d8cc	4.001781e-05
41	0xb8979cb4	-7.229429e-05
42	0xb9447d9f	-0.00018738814
43	0x38f78f68	0.00011804589
44	0xb88218ac	-6.2034786e-05
45	0x39dcf9d2	0.000421478
46	0x39bc89b3	0.00035960748
47	0x393903f3	0.00017644446
48	0x393a5e3f	0.00017773452
49	0x3a268a47	0.00063530024
50	0x39609424	0.00021417491
51	0x39403b51	0.00018332644
52	0x392f7f5f	0.0001673675
53	0x361ace00	2.3067696e-06
54	0x3949d852	0.0001924944
55	0xb9960922	-0.00028617034
56	0x39da56a8	0.00041644764
57	0x396ef89e	0.00022790066
58	0x3979da52	0.00023827821
59	0x393139a4	0.00016901508
60	0x3994ce46	0.00028382445
61	0x39af00a0	0.00033379067
62	0x391ef766	0.00015160217
63	0xb855ba1a	-5.0956478e-05
64	0x38e57d6b	0.00010942932
65	0x392706cf	0.00015928897
66	0xb93db27c	-0.00018090935
67	0x38644646	5.4424883e-05
68	0xa724b1e4	-2.2856007e-15
69	0x384a5b56	4.8245616e-05
70	0x3a34300f	0.00068736164
71	0x3a4a6cf5	0.00077219243
72	0x1a4609f8	4.0953493e-23
73	0xb81dcdda	-3.762343e-05
74	0x37e5b220	2.7381873e-05
75	0x38f75992	0.000117945616
76	0x0226a526	1.2243149e-37
77	0xb68f4c50	-4.270616e-06
78	0xb895b810	-7.139158e-05
79	0xba890eac	-0.0010456643
80	0x39857ad2	0.00025459245
81	0x38c31239	9.301719e-05
82	0x3ae8085c	0.0017702687
83	0xb8a26973	-7.7444034e-05
84	0x39011035	0.00012308436
85	0x39cfc69c	0.00039630092
86	0xb7b6b1b0	-2.1778833e-05
87	0x39c2a693	0.0003712667
88	0x389e9341	7.561455e-05
89	0x399d07b0	0.000299511
90	0x38f91184	0.00011876508
91	0xba073a52	-0.0005158532
92	0xb956502a	-0.00020438494
93	0x39d232ba	0.00040092116
94	0x39587fb8	0.00020646944
95	0xb905eded	-0.00012772503
96	0xb70ff730	-8.581017e-06
97	0x396f09f0	0.00022796518
98	0x88b98496	-1.1165453e-33
99	0x39121e12	0.00013934847
100	0x38cb1350	9.6833915e-05
101	0x390be65f	0.00013341893
102	0xb8498ff6	-4.805621e-05
103	0x38b8312f	8.782965e-05
104	0xb851dcbd	-5.003506e-05
105	0x390c7274	0.00013394078
106	0x38df7a23	0.000106562184
107	0x379e4b04	1.887e-05
108	0x39687e23	0.00022172234
109	0xb9348220	-0.00017214613
110	0x3910abbd	0.00013796888
111	0x3972cd44	0.00023155386
112	0x37d297a0	2.5104557e-05
113	0x38edc287	0.00011337274
114	0xb90b759a	-0.00013299883
115	0xb92feea6	-0.00016778204
116	0xb981b60a	-0.00024740427
117	0xb94b37aa	-0.00019380325
118	0x381e362c	3.7720587e-05
119	0x394f3624	0.00019761227
120	0x38b5dc06	8.671735e-05
121	0x3909bfea	0.00013136832
122	0x397c729a	0.00024075285
123	0x3980b032	0.00024545338
124	0x392ec284	0.00016666396
125	0x399a439b	0.0002942354
126	0xb82825fd	-4.00897e-05
127	0x39e5f162	0.00043858128
128	0xb99a2b03	-0.00029405215
129	0x397322a9	0.00023187198
130	0xb8046373	-3.156387e-05
131	0xb9638b24	-0.00021700241
132	0xa6621a1a	-7.8444875e-16
133	0xb941251f	-0.00018419743
134	0xba2fc840	-0.000670556
135	0xba15c78a	-0.00057136326
136	0x997362f4	-1.2582789e-23
137	0xba03eeab	-0.0005032818
138	0xb9540729	-0.00020220563
139	0xb91d718f	-0.0001501499
140	0x01faedce	9.217673e-38
141	0x36e5f04d	6.8527065e-06
142	0xb878b13e	-5.9292877e-05
143	0x3a459713	0.00075374654
144	0xb9703b16	-0.00022910195
145	0x3945212f	0.00018799746
146	0xb9fef80d	-0.00048631468
147	0xb884f48f	-6.339803e-05
148	0xba4d5d64	-0.00078340457
149	0x395d107c	0.00021082343
150	0xb82da898	-4.140343e-05
151	0xb96f1566	-0.00022800788
152	0xb9952fea	-0.00028455193
153	0xb937980e	-0.00017508885
154	0xb941713a	-0.00018448094
155	0xb9cd52a4	-0.0003916222
156	0xb9b00f09	-0.00033580538
157	0xb925b84c	-0.00015804282
158	0x39bbb461	0.00035801812
159	0xb99097db	-0.0002757896
160	0xb9310cd6	-0.00016884817
161	0xb73ff8f8	-1.1442455e-05
162	0x083c1f80	5.661122e-34
163	0xb91479c1	-0.00014159737
164	0xba0eec6d	-0.00054521003
165	0xb910427d	-0.00013757679
166	0xb9b0f9bc	-0.00033755403
167	0xb9239e0d	-0.0001560377
168	0xba0f8d45	-0.0005476068
169	0x38eb07c4	0.0001120712
170	0xb963994a	-0.00021705512
171	0xb96a873b	-0.00022366356
172	0xba40b1ff	-0.0007350742
173	0xb9e941f3	-0.0004449036
174	0x37bd0d97	2.2536884e-05
175	0xb9f6f119	-0.00047100408
176	0x39aa22f1	0.0003245096
177	0xb91b2b3e	-0.00014798061
178	0xb9d329c8	-0.00040276186
179	0x37d91ad2	2.5880905e-05
180	0xb9c29c2c	-0.0003711892
181	0xb8a68928	-7.941044e-05
182	0x379f329c	1.8977844e-05
183	0xb9f697b0	-0.00047033792
184	0x378a01f0	1.6451784e-05
185	0xba268260	-0.0006351825
186	0xb6c2e010	-5.807735e-06
187	0x37e6cd46	2.7513724e-05
188	0xb8e3a8b6	-0.00010855628
189	0xb7cc758e	-2.4373436e-05
190	0xb999c25d	-0.00029327246
191	0x39857a62	0.0002545892
192	0x39d42bb8	0.00040468364
193	0xba193f13	-0.00058458856
194	0xba782e5b	-0.0009467357
195	0xba41905c	-0.0007383877
196	0xa6b3f778	-1.2487697e-15
197	0xba325085	-0.00068021595
198	0x39f38448	0.0004644713
199	0xba8194bb	-0.0009886244
200	0x1a2708b0	3.4541808e-23
201	0xba2bacae	-0.00065488636
202	0xba584831	-0.00082505035
203	0xba78ad50	-0.0009486275
204	0x01cdb050	7.5558103e-38
205	0x372a3dde	1.0147194e-05
206	0xb89a277f	-7.350649e-05
207	0x3a1fb0c1	0.0006091707
208	0xb9fc37a7	-0.0004810665
209	0xb8cdbbcc	-9.810142e-05
210	0xb996e4ec	-0.0002878079
211	0xba025d28	-0.0004972988
212	0x3966b16b	0.00022000603
213	0x3975f615	0.00023456693
214	0xb9ab50ac	-0.00032675767
215	0x381985e8	3.6602753e-05
216	0x3a4b17f9	0.00077474077
217	0xba4241e2	-0.000741033
218	0xba7a1dfc	-0.0009541211
219	0xba5f7c77	-0.00085253216
220	0xb97d57da	-0.00024160687
221	0xb9dfefef	-0.0004271264
222	0xb935300c	-0.00017279404
223	0xba48d1ca	-0.00076606555
224	0x399f1f3e	0.0003035012
225	0x3950479c	0.00019863102
226	0x09bed5f6	4.5942044e-33
227	0xba6b21a2	-0.000896955
228	0xba06efcd	-0.00051474274
229	0xba236e9e	-0.000623444
230	0xb9906a5c	-0.00027545064
231	0x39480066	0.00019073635
232	0xb973fa21	-0.00023267466
233	0xba8c8d98	-0.001072335
234	0xba609f7b	-0.00085686863
235	0xba757eff	-0.0009364932
236	0xbab34f01	-0.0013680161
237	0xb986626a	-0.00025631796
238	0xb91c2b37	-0.00014893418
239	0xb9eb6ab6	-0.000449022
240	0x38c5fc3f	9.4406765e-05
241	0xb7d60ee4	-2.5517722e-05
242	0xba17be86	-0.0005788583
243	0xb9bfa46f	-0.00036552871
244	0xba3d5242	-0.0007222035
245	0xba1a197e	-0.00058784324
246	0xb7962c00	-1.7901883e-05
247	0xba2cd7d6	-0.00065934414
248	0xb99a2763	-0.00029402514
249	0xb9a7b90a	-0.00031990587
250	0xb7b2bc60	-2.1306972e-05
251	0xba1804cb	-0.0005799054
252	0xb9abd07e	-0.00032771
253	0xba39c966	-0.00070872006
254	0xb9f1ac91	-0.00046095674
255	0xb9b53564	-0.0003456279

fc_logvar.bias f4 [8]
0	0x39c30250	0.0003719502
1	0x3907e9db	0.00012961721
2	0x39a19fab	0.00030827275
3	0xb8ed7afe	-0.0001132395
4	0xbe932b3d	-0.28743926
5	0x39b818b8	0.00035113632
6	0x39c6c5ea	0.0003791296
7	0x39ed72f7	0.00045289818

decoder.0.weight f4 [64, 53]
0	0x3b0e76da	0.0021738322
1	0x3984f745	0.00025361232
2	0xbb44cdb1	-0.0030029828
3	0x3b271121	0.0025492387
4	0x3e77a6b1	0.24184681
5	0xb9ebdc18	-0.00044986675
6	0xba2525c2	-0.0006299877
7	0xb97b8f3c	-0.00023990584
8	0xbc9c5ea9	-0.019088106
9	0x3d194315	0.03741749
10	0x3e4f69fc	0.20255274
11	0xbca4c1b2	-0.020111892
12	0xbd2c4789	-0.04206041
13	0xbd80cf39	-0.062895246
14	0xbd85e577	-0.065379076
15	0x3d95e6ca	0.0731941
16	0x3c639712	0.013890998
17	0xbb019233	-0.001977098
18	0xbd31848a	-0.04333929
19	0x3d74f759	0.0598062
20	0xbbdacf9b	-0.0066775805
21	0xbd6f6342	-0.05844427
22	0xbbd0772d	-0.006361863
23	0xbb18dd19	-0.0023325144
24	0x3bd33c42	0.0064463923
25	0xbc3bf056	-0.011470875
26	0xbd064884	-0.032784
27	0xbb3e227b	-0.0029012251
28	0x3d531ec5	0.051543016
29	0xbd0f30e0	-0.03495872
30	0x3d999a2d	0.0750011
31	0x3daf52be	0.08560704
32	0x3caa48f9	0.02078675
33	0x3dd287cc	0.102798074
34	0xbd05395e	-0.032525413
35	0x3c54235e	0.012947885
36	0xbd02905e	-0.03187596
37	0x3c02c1b9	0.007980757
38	0xbc13884c	-0.009004664
39	0xbd9a1bf8	-0.07524866
40	0x3d5765f7	0.052587476
41	0xbdb30b1e	-0.08742355
42	0x3c8e815e	0.017395671
43	0xbc271621	-0.010198147
44	0xbc144b12	-0.009051101
45	0x3bb821a9	0.005619247
46	0x3cbdff98	0.023193166
47	0x3c206dd4	0.00979181
48	0xbd24f842	-0.04027582
49	0xbc9080ec	-0.0176396
50	0xbc7f08ff	-0.01556611
51	0x3cfa551c	0.030558161
52	0xbaab61c9	-0.0013075407
53	0xba01db22	-0.0004953613
54	0x3b3b8074	0.00286105
55	0x39ccd6de	0.0003907
56	0x3a039a76	0.000502027
57	0xbe53f0dd	-0.20697351
58	0xbac61d0e	-0.001511486
59	0xbb1388a0	-0.0022511855
60	0xba4d6276	-0.0007834801
61	0xbb4b285f	-0.0030999405
62	0x395e84dc	0.00021221064
63	0xbec76e3c	-0.3895129
64	0xbc033e3c	-0.008010443
65	0xbe0259fb	-0.12729637
66	0x3d5d84af	0.054081615
67	0xbcb0b0b4	-0.021568634
68	0xbc85957d	-0.016306633
69	0x3d598045	0.053100843
70	0x3c12f448	0.008969374
71	0x3d881e3b	0.06646391
72	0x3d956362	0.072943464
73	0x3d91b82b	0.071152054
74	0xbbf8e476	-0.007595594
75	0xbae5888b	-0.0017512006
76	0x39ccfcbe	0.0003909822
77	0x39937aa4	0.000281294
78	0x3ce6ebb4	0.028188564
79	0x3aace771	0.0013191534
80	0x3c1edc12	0.009696024
81	0xbd4d8e2c	-0.050184414
82	0xbbbbaafa	-0.005727169
83	0x3d86bf9e	0.06579517
84	0x3d3c2fd0	0.045944035
85	0x3d8bbccf	0.06823122
86	0xbd44f74e	-0.04808741
87	0x3c23676c	0.009973388
88	0x3d39cb1d	0.04535972
89	0x3d48859d	0.04895555
90	0xbbbf5077	-0.0058384496
91	0xbc17db93	-0.009268659
92	0xbd361f47	-0.044463422
93	0xbc4c513a	-0.012470538
94	0x3d88dedf	0.06683134
95	0xbbebbdc1	-0.0071942513
96	0x3989310b	0.00026167216
97	0xbb5b66e8	-0.0033478085
98	0xbb4a5b6d	-0.0030877248
99	0x3e01ad7b	0.12663834
100	0x3d3345ae	0.043767624
101	0xbd0c9840	-0.034324884
102	0x3c8329ca	0.016011138
103	0xbd3cb792	-0.046073504
104	0xbc19c2e9	-0.009384849
105	0x3d357f95	0.044311125
106	0xbadd939c	-0.0016904953
107	0x3b02a823	0.0019936643
108	0x3b32a712	0.0027260226
109	0x3a79355d	0.0009506548
110	0xbde9a67e	-0.11408709
111	0x3b22ff6e	0.0024871486
112	0x3aabd980	0.0013111085
113	0xb8e2c6f1	-0.000108135755
114	0xbd20ad32	-0.039227672
115	0xbc917ef5	-0.017760733
116	0xbe3af428	-0.182572
117	0xbc65195a	-0.013983095
118	0xbe20928f	-0.15680908
119	0xbdf1c241	-0.11804629
120	0xbc19bf1d	-0.009383944
121	0xbd8586c7	-0.06519847
122	0x3d01a7d1	0.031654183
123	0xbd5dae22	-0.054121144
124	0xbdc41a9f	-0.0957539
125	0xbcf4c474	-0.029878832
126	0xbd8910da	-0.06692667
127	0x3ba76ceb	0.0051094196
128	0x3912dac5	0.00014005143
129	0x3b8c3e6d	0.0042799027
130	0xb72a82d4	-1.016325e-05
131	0xbd340a35	-0.043955047
132	0xbd15e333	-0.036593627
133	0xbcbc4616	-0.022982638
134	0xbd21d2ca	-0.039507665
135	0xbc80e293	-0.015733039
136	0x3cabab71	0.020955773
137	0xbd67c729	-0.05658642
138	0x3cf493e6	0.02985568
139	0x3d9a8565	0.07544974
140	0x3e5cd4e1	0.21565582
141	0x3e634c79	0.22197141
142	0x81cce6fb	-7.5269206e-38
143	0x81316b94	-3.258695e-38
144	0x013cae37	3.465514e-38
145	0x3d81b555	0.063334145
146	0x3e0f1e7e	0.13976476
147	0x3c310feb	0.010807018
148	0x011fc9af	2.934839e-38
149	0x02023217	9.565267e-38
150	0x00266bc0	3.528402e-39
151	0x809315bf	-1.3507619e-38
152	0x3d909852	0.07060303
153	0xbbf156d8	-0.007365089
154	0x3ddc46de	0.10755704
155	0x3db54373	0.088507555
156	0x3ddc1405	0.10746006
157	0x02303055	1.2944308e-37
158	0x00285898	3.705201e-39
159	0xba981ea6	-0.0011605814
160	0xbc198ad8	-0.009371482
161	0xb983c463	-0.00025132587
162	0xb9239a96	-0.00015602479
163	0x3dd50782	0.104018226
164	0xbb54f560	-0.0032494888
165	0x3c1aa181	0.00943792
166	0x3af4b478	0.0018669507
167	0x3b1846a4	0.0023235464
168	0xbc0a9290	-0.008457795
169	0x3dcf27c8	0.101150095
170	0xbcd5dfbb	-0.02610766
171	0x3c40239c	0.01172724
172	0xbc4cc9d9	-0.012499296
173	0xbadc478f	-0.0016805994
174	0x3c2bd624	0.010488067
175	0x3c28c797	0.010301492
176	0xbd801fd1	-0.062560685
177	0xbd5deb4b	-0.05417947
178	0x3d07cadb	0.033152442
179	0xbcea6194	-0.028610982
180	0x3d857746	0.0651689
181	0x3c304ee3	0.010760996
182	0x3c2fc846	0.010728901
183	0xbcdfec34	-0.02733431
184	0x3c9d3fcd	0.019195462
185	0xbc476371	-0.012169705
186	0x3cab4d5a	0.020910908
187	0x3cb4e4c0	0.022081733
188	0x3d355336	0.04426881
189	0xbc7d7e73	-0.015472042
190	0x3d4a9980	0.049462795
191	0xbd301278	-0.042986363
192	0x3d4c89b7	0.049936023
193	0x3d298585	0.0413871
194	0xbd92b78d	-0.07163916
195	0xbbdfbc1f	-0.0068278457
196	0xb859a906	-5.1894247e-05
197	0x3aa69d26	0.0012711629
198	0xbbb97c8d	-0.0056605996
199	0xbc98b306	-0.018640053
200	0xbc436aa3	-0.01192728
201	0xbc11607f	-0.008873104
202	0x3c06c553	0.008225757
203	0x3aa69d26	0.0012711629
204	0x3a0b53c5	0.0005314912
205	0x3c19eaa9	0.009394326
206	0xbb8fd56c	-0.0043894555
207	0xbcbde51b	-0.023180535
208	0x3d4711a5	0.04860081
209	0x3cc59a1e	0.02412134
210	0xbbb4bcea	-0.0055156844
211	0x3ac587c4	0.0015070369
212	0x394aa688	0.00019326259
213	0xba8da240	-0.00108058
214	0xb8942c82	-7.06548e-05
215	0x3b7d2b83	0.0038630671
216	0xbe7afb2f	-0.24509881
217	0x3b7773a3	0.0037758134
218	0x3b80eeeb	0.0039347312
219	0xbb802167	-0.003910232
220	0xbd70d98e	-0.058801226
221	0x3d1dca64	0.038523093
222	0xbea6692d	-0.32502118
223	0xbda4e5a0	-0.0805161
224	0x3d3988eb	0.04529659
225	0x3d4c5ea9	0.049894962
226	0xbca1b885	-0.019741306
227	0xbc34d2e2	-0.0110366065
228	0xbcfb081e	-0.030643519
229	0xbdc997ce	-0.098434076
230	0x3cdeffda	0.027221609
231	0x3d5f154b	0.054463666
232	0x3daec51f	0.085336916
233	0xbe03348c	-0.12813014
234	0xbc942665	-0.018084714
235	0xbbb7e61a	-0.005612147
236	0xbd1d7c40	-0.038448572
237	0xbd09130e	-0.033465438
238	0xbd46cfd3	-0.04853804
239	0xbd4a2ebf	-0.049360987
240	0xbc088971	-0.00833355
241	0xbccb5fa8	-0.024825886
242	0x3d1f30f4	0.038865045
243	0xbcacfdae	-0.021117058
244	0x3cdeb436	0.02718554
245	0xbde14ad3	-0.110006
246	0xbd4e8ce8	-0.050427347
247	0xbd1ed1de	-0.038774364
248	0x3d3b0d32	0.04566688
249	0x3d0e330c	0.03471665
250	0x3c544170	0.012955055
251	0xbcc6f031	-0.024284454
252	0x3d6bca0a	0.057565726
253	0xbc53866b	-0.012910466
254	0x3d591948	0.053002626
255	0xbc0131e9	-0.007885435

decoder.0.bias f4 [64]
0	0xbc5fe0b8	-0.013664417
1	0x3dc19bcd	0.09453545
2	0xbb9f4522	-0.004860536
3	0xbc580352	-0.013184385
4	0x3e00f64f	0.1259396
5	0x3e1a4518	0.1506542
6	0xbe038881	-0.12845041
7	0xbca90ed1	-0.020636948
8	0x3e352779	0.17690839
9	0xbd30762f	-0.04308146
10	0x3dfb3d55	0.122675575
11	0xbcb7d143	-0.022438651
12	0x3d45a66b	0.04825441
13	0xbe263e9a	-0.16234818
14	0x3df60040	0.120117664
15	0x3c8bd362	0.017068569
16	0xbdf68db9	-0.1203875
17	0xbdd8114d	-0.10550175
18	0xbd53957b	-0.051656228
19	0x3d87c97a	0.066302255
20	0x3cbc7227	0.02300365
21	0x3d1421ff	0.036165234
22	0xbb1e2c6e	-0.002413537
23	0xbdbdc3a7	-0.09265833
24	0x3ce41fcb	0.027847191
25	0xbd05ad35	-0.032635886
26	0xbd53fc70	-0.051754415
27	0x3c48b542	0.0122502465
28	0xbcd12639	-0.025530921
29	0x3e47f472	0.19526842
30	0xbd3d6ee2	-0.046248324
31	0xbde0ce73	-0.10976877
32	0x3c6d5c7b	0.014487381
33	0xbda7538a	-0.08170231
34	0x3dc96916	0.09834497
35	0xbdd5cd28	-0.10439521
36	0xbc20db6d	-0.00981794
37	0xbc92fccd	-0.01794281
38	0xbbf4d2a8	-0.0074714012
39	0x3b8d05e1	0.0043036793
40	0x3e24375a	0.1603674
41	0x3dce30ce	0.100679025
42	0xbb29c1e6	-0.0025902926
43	0x3e11d2cb	0.14240567
44	0xbd18bdc2	-0.037290342
45	0x3c366ef2	0.01113485
46	0x3d3930c1	0.04521251
47	0x3cdb549e	0.026773747
48	0x3deeb392	0.11655344
49	0xbd462e02	-0.04838372
50	0x3e075229	0.13214935
51	0xbba72780	-0.0051011443
52	0xbc4187b2	-0.011812137
53	0xbc020ec8	-0.007938094
54	0x3cbb6d3c	0.022879235
55	0xbdb6c7b4	-0.08924809
56	0xbcff4c49	-0.031164305
57	0xbd97e7c6	-0.07417254
58	0xbce16e29	-0.027518349
59	0x3d1152cb	0.03547935
60	0x3c0416f7	0.008062116
61	0xbd34c613	-0.04413421
62	0x3e173fb1	0.1477039
63	0x3cf7c80c	0.030246757

decoder.2.weight f4 [64, 64]
0	0x3d85ae8d	0.065274335
1	0xbd19db89	-0.03756288
2	0x3cb7f265	0.02245445
3	0x3d8ddb0e	0.06926547
4	0xbd68aa75	-0.056803185
5	0x3e3392dd	0.17536493
6	0x3d8bb328	0.06821281
7	0x3cfaf541	0.030634524
8	0x3d802a94	0.06258121
9	0x3d236a24	0.039896145
10	0x3c1d2374	0.009590972
11	0x3d9e2ba8	0.077231705
12	0xbd322f2d	-0.04350202
13	0xbc8d874c	-0.017276429
14	0x3d3597d1	0.044334237
15	0xbdad9da4	-0.08477333
16	0xbceb07c0	-0.028690219
17	0x3d1cb69c	0.038260087
18	0xbcf4fde8	-0.029906228
19	0xbc82e1e2	-0.01597685
20	0xbc984032	-0.018585298
21	0x3ddc3308	0.10751921
22	0xbd8654e3	-0.065591596
23	0x3c15a9ca	0.009134719
24	0x3ca8475c	0.02054184
25	0x3cbbd4ab	0.022928556
26	0x3dd1c2a0	0.102422
27	0xbb16e9a3	-0.0023027442
28	0x3c4c865c	0.012483206
29	0x3de67e96	0.11254613
30	0xbc3de2cb	-0.011589716
31	0xbca6d6e6	-0.020366143
32	0x3c3c9e76	0.011512389
33	0x3de0a13a	0.109682515
34	0x3d5c544a	0.05379132
35	0x3dd17c08	0.10228735
36	0x3d80d2d8	0.06290215
37	0x3cbf9de8	0.023390725
38	0x3cec25a5	0.028826544
39	0xbd46d806	-0.04854586
40	0x3d611411	0.054950777
41	0x3ddf990f	0.109178655
42	0x3dca7d8c	0.098872274
43	0xbd82d1ba	-0.063876584
44	0xbb92ebee	-0.0044836914
45	0x3cfcb5af	0.030848352
46	0x3d4125a5	0.04715504
47	0x3d6385e4	0.05554761
48	0x3d183262	0.037157424
49	0xbc461012	-0.012088792
50	0x3c957e96	0.018248837
51	0xbb07e27c	-0.002073436
52	0x3c5136df	0.01276943
53	0xbcef9729	-0.029246883
54	0xbd84e4c8	-0.06488949
55	0x3d183d30	0.037167728
56	0x3dc7e6f7	0.0976085
57	0xbdf174c7	-0.11789852
58	0x3c1ab415	0.009442349
59	0x3c96362f	0.018336384
60	0x3d5a4809	0.053291354
61	0xbd10f842	-0.035393007
62	0xbc12fe3f	-0.00897175
63	0xbcaa18be	-0.020763751
64	0x3e0a35ca	0.13497081
65	0xbdf49f33	-0.11944427
66	0xbd03f588	-0.03221658
67	0xbd08fb1f	-0.033442613
68	0xbd1b0ef7	-0.03785607
69	0x3dd823fc	0.105537385
70	0x3dce22ba	0.10065217
71	0x3cf6a798	0.030109212
72	0x3e144601	0.1447983
73	0xbc8da3a1	-0.017289938
74	0xbbe90951	-0.0071117063
75	0x3decdbe1	0.11565376
76	0x3d4b195f	0.049584743
77	0xbd89adb6	-0.06722586
78	0xbdb43991	-0.088000424
79	0x3d4bcd9d	0.049756635
80	0xba04b5c6	-0.0005062487
81	0x3d0af0b5	0.033920962
82	0xbca10917	-0.019657655
83	0x3bbc7398	0.0057510845
84	0xbd81bec3	-0.06335213
85	0xbd8e44e3	-0.06946733
86	0xbd2023ac	-0.03909652
87	0xbbc97520	-0.0061479956
88	0xbd5cd033	-0.05390949
89	0x3cb4670a	0.02202179
90	0x3dd068fa	0.10176273
91	0xbcab73ab	-0.020929178
92	0xbb338215	-0.0027390767
93	0x3d940635	0.072277464
94	0xbb3bbca7	-0.002864638
95	0x3bda58d5	0.0066634216
96	0x3cec8e85	0.028876552
97	0xbd82c857	-0.06385868
98	0xbd17a964	-0.037026778
99	0x3c1d61fa	0.009605879
100	0xbd80de7e	-0.06292437
101	0xbc49973e	-0.012304125
102	0x3ca7c3b7	0.020479066
103	0xbd8f592e	-0.069994316
104	0x3c2566e5	0.010095333
105	0xbdaf061b	-0.085460864
106	0x3d9005a6	0.07032327
107	0x3ca78a91	0.020451816
108	0x3a2af30b	0.00065212016
109	0x3dae294b	0.0850397
110	0x3cf5dfd1	0.03001395
111	0x3ddbc7a7	0.1073144
112	0x3dc340ed	0.09533868
113	0xbce836c3	-0.028346425
114	0x3c0c7f7a	0.008575315
115	0xbb83c4e1	-0.0040212725
116	0x3af4cb9c	0.0018676403
117	0x3d805e6c	0.062680095
118	0x3cc425d7	0.023943825
119	0xbbe5d604	-0.007014038
120	0xbd1a2bdf	-0.037639495
121	0x3d5af098	0.053452104
122	0x3ca4eafe	0.020131584
123	0xbba83e00	-0.005134344
124	0x3da3782d	0.07981906
125	0xbac47f69	-0.0014991584
126	0x3b509e00	0.0031832457
127	0xbcda45a7	-0.026644541
128	0x3d8235ed	0.06357942
129	0x3d13e0ed	0.036103178
130	0x3c9a0b82	0.018804315
131	0xbab7f79f	-0.0014035589
132	0xbd51483f	-0.05109429
133	0x3d9490e4	0.07254198
134	0x3dc7e30e	0.09760104
135	0xbcfef68b	-0.03112342
136	0x3e248289	0.1606542
137	0xbcfe2de3	-0.03102774
138	0x3d3a4e93	0.04548509
139	0x3bb47409	0.0055069965
140	0x3c7c0b19	0.015383505
141	0xbd08ba87	-0.03338101
142	0x3d377bb2	0.0447957
143	0x3d0991f2	0.03358645
144	0xbcdca1f8	-0.026932701
145	0xbd0d366a	-0.03447572
146	0xbb3fcc0c	-0.0029265909
147	0xbb444e01	-0.002995372
148	0x3d2aed3f	0.04173016
149	0xbb85e697	-0.0040863263
150	0xbbb6e0b1	-0.0055809845
151	0x3d119c52	0.03554947
152	0xbcbeae00	-0.023276329
153	0xbd060ede	-0.032729022
154	0xbd0568e5	-0.03257074
155	0x3c0c9e0b	0.008582602
156	0xbae37cad	-0.0017355882
157	0xba9d3d1b	-0.001199636
158	0xbc2ac33f	-0.010422527
159	0xbd4afcd2	-0.049557514
160	0xbc12fb4f	-0.008971049
161	0x3dcadc8f	0.099053495
162	0x3d93480a	0.07191475
163	0x3ceab96f	0.028652875
164	0xbd05f538	-0.032704562
165	0xba74bb36	-0.0009335758
166	0x3ce5db32	0.028058622
167	0x3d18473d	0.037177313
168	0x3d8817cb	0.06645163
169	0x3d9e8f23	0.07742145
170	0xbca30d8c	-0.01990392
171	0xbdbd5b13	-0.09245887
172	0x3d4099ca	0.047021665
173	0x3c9e7b0f	0.019345788
174	0xbd516b12	-0.0511275
175	0x3e0e4f92	0.13897541
176	0x3debeb38	0.11519474
177	0xbc1732c8	-0.009228416
178	0xbd8b3583	-0.06797316
179	0x3b1ac5e2	0.0023616483
180	0x3b86c55d	0.004112883
181	0x3bcc1291	0.006227799
182	0x3cf664c6	0.03007735
183	0x3de2d34e	0.110754594
184	0x3d1becac	0.038067505
185	0x3d112b41	0.03544164
186	0xbc0c8f30	-0.00857906
187	0x3e01b5cd	0.12667008
188	0xbd38b32a	-0.04509274
189	0xbd1c6992	-0.038186617
190	0xbd5e2be7	-0.054241087
191	0xbbfd9812	-0.0077390755
192	0xbc925946	-0.017864835
193	0xbddde74d	-0.10835133
194	0x3d8aa868	0.06770402
195	0xbccf88ef	-0.02533385
196	0x3bb0d124	0.0053960253
197	0x3de4d4f1	0.11173428
198	0x3dc5040e	0.09619914
199	0xbb11f733	-0.0022272586
200	0xbc651b87	-0.013983614
201	0xbbd55a34	-0.006510997
202	0xbcdb08c8	-0.026737586
203	0x3c1b80c4	0.009491149
204	0xbc833ee8	-0.016021207
205	0xbc9d6c2f	-0.019216625
206	0xbbffb08d	-0.007803029
207	0xbd0b803b	-0.034057837
208	0xbbf031ea	-0.007330169
209	0x3c4794f3	0.012181508
210	0x3caf1ece	0.021376994
211	0xbc492bec	-0.012278538
212	0xbd189e08	-0.037260085
213	0x3dc1fd34	0.09472123
214	0xbceb68f3	-0.028736567
215	0x3b90a778	0.004414495
216	0x3bf05fee	0.0073356545
217	0x3b6018d3	0.0034194484
218	0x3dc96aa3	0.098347925
219	0xbc1b588d	-0.009481561
220	0xbb94251c	-0.0045210253
221	0x3dcb8686	0.09937768
222	0x3ab35d1a	0.0013684363
223	0x3c38d234	0.011280585
224	0x3b4bbfbf	0.0031089631
225	0x3dc256a4	0.09489182
226	0xbd68f1e2	-0.056871302
227	0x3b3fb084	0.0029249499
228	0x3cd90d17	0.0264955
229	0xbb698078	-0.0035629552
230	0x3c2bb7f6	0.010480871
231	0xbd531ba2	-0.051540025
232	0xbb59ad31	-0.0033214802
233	0xbd99487e	-0.0748453
234	0x3d8d679a	0.06904526
235	0x3c2ba1e2	0.010475608
236	0xbb12c448	-0.0022394825
237	0x3c9ef6c5	0.019404778
238	0xbd1947c0	-0.03742194
239	0x3d901abc	0.07036349
240	0x3daae8b0	0.08345163
241	0x3e176495	0.14784463
242	0x3c841a15	0.016125718
243	0x3abd3826	0.0014436289
244	0xbb86fc58	-0.004119437
245	0xbd7c1bcb	-0.061549943
246	0x3b969c9e	0.004596307
247	0x3a003b20	0.0004891623
248	0xbd6a43f2	-0.057193704
249	0xbd0b25ea	-0.033971705
250	0x3bc69b2d	0.006060979
251	0x3cfa9cdc	0.030592375
252	0x3d689bc8	0.05678919
253	0xbd1ea5fb	-0.03873251
254	0x378fcee4	1.714327e-05
255	0xbbcc1571	-0.006228142

decoder.2.bias f4 [64]
0	0xbc43bc36	-0.011946728
1	0x3d4aa26e	0.04947131
2	0x3c453fe3	0.012039158
3	0xbda1978a	-0.07890232
4	0xb59aa1a2	-1.1520935e-06
5	0x3d5b1068	0.053482443
6	0x3bfe50a0	0.007761076
7	0x3ccc9eee	0.024978127
8	0xb710e65f	-8.636706e-06
9	0x3d764a17	0.06012925
10	0xbd9c6795	-0.07636944
11	0xbd039406	-0.032123588
12	0xbbb08ab9	-0.005387631
13	0x3c199749	0.009374448
14	0xbdb8c45d	-0.09021828
15	0x3d9944fc	0.07483861
16	0x3db6632e	0.08905636
17	0xbd843e1b	-0.06457158
18	0xbdb3e59c	-0.08784029
19	0xbda0f3c9	-0.07858998
20	0x3d45e26c	0.048311636
21	0x3dc39432	0.095497504
22	0xbe18b140	-0.14911366
23	0x3cb84ddf	0.02249807
24	0xbd8a646d	-0.06757436
25	0x3c3df32f	0.011593624
26	0x3c380773	0.011232245
27	0x3caafbf6	0.020872097
28	0xbddd1661	-0.10795284
29	0x3d4ebb93	0.050471853
30	0x3cff5441	0.031168105
31	0x3d328d6e	0.04359191
32	0x3e181066	0.14850006
33	0xbd0baaab	-0.03409831
34	0xbde56d52	-0.11202492
35	0x3db968a6	0.09053163
36	0x350aa9b9	5.1655985e-07
37	0x3da3a5a9	0.079905815
38	0xbe313672	-0.17305925
39	0xbdb9c57b	-0.090708695
40	0xbc24621f	-0.0100331595
41	0xbcc2f4a9	-0.023798304
42	0xbd5414fb	-0.05177782
43	0xb501be4a	-4.833315e-07
44	0xbd8bc54b	-0.0682474
45	0xb06d69b7	-8.637033e-10
46	0x3d27db29	0.04098049
47	0xbbc6c7c5	-0.006066295
48	0xbdd88cf7	-0.10573762
49	0x3ce7cd2f	0.028296081
50	0x3d3d81bd	0.046266306
51	0xba1a9790	-0.00058972184
52	0x3d82b19c	0.063815325
53	0xbe075c2e	-0.13218758
54	0xbcc16d0b	-0.023611566
55	0x3dd26db6	0.10274832
56	0xbdab53e0	-0.08365607
57	0xbd831367	-0.06400185
58	0x3de3d74f	0.11125051
59	0xbdb52937	-0.08845752
60	0x3d27367c	0.040823445
61	0xbd1ca580	-0.03824377
62	0xbdf0d23c	-0.11758849
63	0x3d1d0037	0.038330283
