models/cvae_L24_H256_B1.000_LR5e-04.pt (torch, 718813 bytes, 13 tensors)

encoder.0.weight f4 [256, 46]
-0.0603829 0.07151677 0.07932818 -0.026930228 -0.020369522 0.05472322 0.023055788 0.05033746
0.010692741 -0.00954493 -0.033642083 -0.053322744 0.06881818 0.051890746 -0.045769308 0.05970945
-0.09261461 0.036399316 0.056779757 -0.05653412 0.07031634 0.05666241 -0.053151667 -0.030354412
-0.13203049 -0.007842121 0.12789802 -0.082879245 -0.06948921 -0.0033146082 -0.004482249 -0.007889466
-0.019036824 -0.006851289 -0.01319473 -0.017082822 0.010334888 -0.0070315613 -0.0013528193 0.003917338
-0.039006576 -0.011868873 0.033076487 -0.020439062 -0.026893286 -0.00526041 0.21451211 -0.024823794
0.09526296 0.14455643 0.019259743 -0.097153574 0.05022343 -0.14801273 -0.026226785 0.14060988
-0.10376403 -0.03281509 -0.030482527 -0.028776664 0.0094620995 0.07976297 -0.06225032 -0.069468595
-0.053814523 -0.06930351 -0.0882515 0.03647443 0.038889144 0.00019180737 -0.13056731 0.08261124
0.117874436 0.1967826 -0.0935486 0.063990235 0.021102086 0.07712504 0.041539926 -0.088774644
0.02947225 -0.03342825 -0.025321523 0.041458707 -0.06891346 -0.026689332 0.001621858 -0.03143613
-0.010906955 0.10791987 0.10462988 0.012689343 0.23756869 0.06825607 -0.07931743 0.240813
-0.0036194937 -0.06484878 0.012709855 0.00084325473 0.009707987 -0.023919916 0.09136034 -0.025890945
0.10405578 0.038967364 -0.08132099 -0.10552569 -0.045641072 -0.02949166 0.06024257 -0.05674075
0.0147140585 0.019467754 -0.015311932 0.030019073 -0.0020877463 -0.025653906 0.008671277 -0.036183782
0.14061558 0.10843104 0.058819484 -0.0532436 0.088216595 0.030243352 0.13473243 0.12650986
-0.046700187 0.022002 0.030711057 -0.070222355 -0.06887112 -0.053153485 -0.10741387 -0.0811605
0.0036340028 0.0023191043 0.036482207 -0.01034255 -0.0663772 0.074635245 -0.02733882 -0.04386466
0.010516163 -0.07186448 0.07286467 -0.00482529 -0.024905307 0.02761355 0.009520206 0.06546997
-0.09660593 0.1024665 -0.06492482 -0.0053325407 0.07534529 -0.008683171 -0.072397165 0.0447724
-0.044842836 -0.026647437 0.13723825 -0.04110898 0.051749058 -0.038384736 0.08229675 0.021371216
0.0013706742 -0.0004995065 -0.06215651 0.04114329 0.038284313 -0.009147197 0.016947918 -0.0002594661
-0.00948439 0.024562728 -0.031080736 0.025385957 -0.022853848 0.00090323336 0.00038323877 -0.007895642
-0.19281223 0.08055255 -0.013396053 0.10264166 0.0036437844 0.059988566 0.050051905 0.099412136
-0.010948157 -0.1318743 -0.02129613 0.061847717 -0.06150059 0.06849641 -0.0220338 -0.03388809
-0.13464198 0.09661324 -0.084985994 0.10838093 -0.11323275 0.10085944 0.06874436 -0.08982966
0.08866 0.107089736 0.15839598 -0.025430948 -0.067194074 -0.044774234 -0.10362559 0.0104727065
0.052194946 0.13755587 -0.07670718 0.008658276 0.014618647 -0.0057594553 0.0072194627 0.06831698
-0.06898035 -0.012502736 0.07049149 0.075900786 -0.05644453 0.016170187 0.26167277 0.011770785
0.064621314 0.14568318 -0.002607094 0.028304562 0.052400745 -0.050734118 0.04391552 -0.058574144
0.075913146 -0.047865838 0.02896055 0.10246424 -0.059445903 -0.030899992 0.04869119 0.0011490629
-0.040160954 0.09044797 0.07224953 -0.05405763 -0.029775193 0.096710995 0.007855277 -0.114253975
00000000: 0f54 77bd 6277 923d d076 a23d c89c dcbc
00000010: fcdd a6bc 7525 603d 7edf bc3c a72e 4e3d
00000020: 9b30 2f3c 5762 1cbc 48cc 09bd f368 5abd
00000030: 8cf0 8c3d 648b 543d 9978 3bbd e591 743d
00000040: bbac bdbd 7317 153d e491 683d 5290 67bd
00000050: 0302 903d d816 683d 90b5 59bd d1a9 f8bc
00000060: 0033 07be 3d7c 00bc b3f7 023e 98bc a9bd
00000070: 5c50 8ebd e639 59bb d4df 92bb d242 01bc
00000080: 1df3 9bbc c780 e0bb b52e 58bc 46f1 8bbc
00000090: a953 293c 0369 e6bb 1551 b1ba 035d 803b
000000a0: 5cc5 1fbd a975 42bc 367b 073d d26f a7bc
000000b0: 4f4f dcbc 845f acbb 10a9 5b3e 455b cbbc
000000c0: 3a19 c33d 9a06 143e 9cc6 9d3c 74f8 c6bd
000000d0: 15b7 4d3d a690 17be 8ed9 d6bc 09fc 0f3e
000000e0: 3c82 d4bd 1e69 06bd 7eb6 f9bc 0abd ebbc
000000f0: ec06 1b3c c55a a33d 31fa 7ebd 8d45 8ebd
00000100: 9e6c 5cbd 00ef 8dbd 34bd b4bd 3666 153d
00000110: 394a 1f3d e61f 4939 70b3 05be 1530 a93d
00000120: 2768 f13d 6181 493e 6996 bfbd 500d 833d
00000130: 48de ac3c bcf3 9d3d c525 2a3d 7bcf b5bd
00000140: ca6f f13c 10ec 08bd 156f cfbc 9bd0 293d
00000150: 8022 8dbd 96a3 dabc 8694 d43a 2cc3 00bd
00000160: 16b3 32bc 1805 dd3d 3148 d63d f6e6 4f3c
00000170: 3545 733e d7c9 8b3d 2d71 a2bd af97 763e
00000180: 0735 6dbb 70cf 84bd ff3c 503c de0d 5d3a
00000190: 400e 1f3c b3f3 c3bc 211b bb3d 3f19 d4bc
000001a0: 321b d53d 3e9c 1f3d 9f8b a6bd da1d d8bd
000001b0: 22f2 3abd 7e98 f1bc eac0 763d fd68 68bd
000001c0: 3c13 713c d77a 9f3c e6de 7abc 8fea f53c
000001d0: 92d2 08bb 2428 d2bc f911 0e3c 7235 14bd
000001e0: 88fd 0f3e 1811 de3d b3ec 703d f615 5abd
000001f0: e7aa b43d e8c0 f73c 4cf7 093e cd8b 013e
00000200: b248 3fbd 8a3d b43c c195 fb3c bdd0 8fbd
00000210: 4d0c 8dbd 78b7 59bd cefb dbbd 7a37 a6bd
00000220: 7328 6e3b 1dfc 173b 5e6e 153d cd73 29bc
00000230: c5f0 87bd 5dda 983d a9f5 dfbc 6eab 33bd
00000240: fc4b 2c3c af2d 93bd 123a 953d 771d 9ebb
00000250: 3706 ccbc d035 e23c a3fa 1b3c 1f15 863d
00000260: 54d9 c5bd f5d9 d13d 4ef7 84bd 98bc aebb
00000270: a24e 9a3d dc43 0ebc f744 94bd 4463 373d
00000280: 1fad 37bd ba4b dabc 2f88 0c3e e461 28bd
00000290: d2f6 533d 5039 1dbd 338b a83d b012 af3c
000002a0: 32a8 b33a 50f1 02ba d397 7ebd de85 283d
000002b0: 03d0 1c3d 20de 15bc 5cd6 8a3c f308 88b9
000002c0: 6a64 1bbc c637 c93c 079d febc 36f6 cf3c
000002d0: fe37 bbbc f7c6 6c3a 70ed c839 b95c 01bc
000002e0: 9270 45be bcf8 a43d 1e7b 5bbc ca35 d23d
000002f0: 8fcc 6e3b 92b6 753d 3a03 4d3d 9798 cb3d
00000300: e65f 33bc 0e0a 07be 3975 aebc 0854 7d3d
00000310: 0be8 7bbd d947 8c3d 3a80 b4bc 3dce 0abd
00000320: 96df 09be 2add c53d 230d aebd d2f6 dd3d
00000330: 92e6 e7bd 658f ce3d d8c9 8c3d 9df8 b7bd
00000340: 6093 b53d dd51 db3d 8e32 223e 9054 d0bc
00000350: 0c9d 89bd 3065 37bd a739 d4bd b795 2b3c
00000360: 5eca 553d 72db 0c3e a718 9dbd 71db 0d3c
00000370: 0d83 6f3c d0b9 bcbb 3e91 ec3b c6e9 8b3d
00000380: 9245 8dbd 47d8 4cbc d85d 903d df71 9b3d
00000390: 6132 67bd 5777 843c f9f9 853e 40da 403c
000003a0: 2e58 843d f92d 153e c7db 2abb f8de e73c
000003b0: 2aa2 563d 94ce 4fbd c3e0 333d 71eb 6fbd
000003c0: 5a78 9b3d f80e 44bd ad3e ed3c c5d8 d13d
000003d0: 8c7d 73bd fb21 fdbc 6a70 473d 279c 963a
000003e0: d07f 24bd c93c b93d 90f7 933d 896b 5dbd
000003f0: 1beb f3bc 6a10 c63d 6bb3 003c fdfd e9bd

encoder.0.bias f4 [256]
-0.10190354 -0.047741372 -0.100540124 0.017737728 -0.084618315 -0.14728503 -0.14821932 -0.15237546
-0.078506924 0.029106872 0.12365162 0.022819487 0.10671557 0.12916411 -0.11415858 0.02727581
-0.12702194 0.19798143 0.01789589 -0.111819424 0.033814035 0.0013516616 -0.023943793 -0.056750804
0.1446727 -0.073452644 -0.12867144 -0.0036988524 -0.03911612 -0.018798662 -0.017587127 -0.11434548
-0.08435681 -0.034175172 0.101960294 0.08270884 -0.042033076 0.10048209 -0.012291973 -0.121194884
0.07038024 0.0066084163 0.02906227 0.08155738 0.048804965 0.023464104 -0.0831669 -0.16716154
0.18307467 0.06093891 0.12404755 0.022727111 0.010882941 -0.10688816 0.12337341 -0.05678847
-0.04297171 0.025089081 -0.06824845 0.037178703 -0.07033118 0.07429674 0.13696146 -0.10852059
0.13520856 0.032491747 0.011465358 0.14317906 0.044085324 0.12757741 0.019991916 0.09126292
0.0068258895 -0.07204092 0.021744993 -0.11603326 0.044489715 -0.053519677 -0.10679195 -0.023700017
-0.0030749862 -0.029335938 -0.105844826 0.19109058 -0.07291692 0.1844427 0.10083518 0.06929933
0.027927434 -0.13156728 0.0070144297 -0.07229954 -0.10156793 0.14063555 -0.0037974215 0.110481456
0.12342412 0.15439466 -0.08491986 0.03353298 -0.13884762 -0.019500148 0.09709075 -0.090380125
0.06417306 0.14280361 -0.11199187 -0.008200936 -0.036745895 -0.04637648 0.010728941 0.086963564
-0.071368955 0.08800856 -0.07228504 0.05235361 0.026490055 0.13811813 -0.08262738 0.031540748
0.09515703 0.047169734 -0.0761116 0.056586504 -0.06961112 -0.012324629 -0.11813359 -0.034689512
0.09939235 0.1436948 0.07560389 0.1491257 -0.082322344 0.0058722044 0.0013409646 0.005351456
0.17560284 -0.028586116 -0.06341812 -0.113608986 -0.0494954 0.012884612 0.009432454 -0.021666082
-0.013205624 0.071890935 -0.11058957 0.03219461 -0.1451449 0.07458882 0.14711764 -0.05633346
-0.011731553 -0.04927765 0.024524136 -0.034463443 -0.04163964 0.0474455 0.09099829 -0.004347589
-0.0590489 0.14036018 -0.022964738 0.13308053 -0.059247743 -0.084459856 -0.07364371 -0.08146456
-0.023030344 0.014397804 0.001681504 -0.08181919 -0.0060316147 0.11627878 0.07977005 -0.01196543
0.10579455 0.15320666 -0.029541168 0.1453576 -0.010346006 0.15816984 -0.0051219855 -0.107846975
-0.043113213 -0.06118989 -0.049524095 0.09559279 0.112609826 -0.023488015 -0.054147333 0.12522094
-0.031665124 0.08635794 -0.016705383 0.058168393 0.0015638783 -0.09587443 0.034534454 -0.02715932
0.068405755 0.089920044 0.08118232 0.04319754 0.1217509 0.036532667 -0.024867145 0.113056846
0.031280663 -0.11093967 -0.021574685 0.13312098 -0.05850891 0.09267101 -0.018977555 -0.116533615
-0.03237469 0.048688605 -0.031158635 0.051355015 0.0539435 0.0704239 -0.028333958 0.011581226
-0.05343771 0.05721337 0.086491466 0.18607165 -0.10393317 -0.062270876 -0.1341178 -0.09235298
0.012806523 0.12734345 0.10613891 -0.06743694 0.048518002 -0.13146405 0.013741396 0.019825976
0.11619544 -0.12281947 0.13092318 0.102789536 -0.08387452 0.009418364 -0.0439292 -0.02027112
0.123710215 0.017049568 -0.042407423 0.15398902 0.03224089 0.09672127 -0.09572195 -0.040039577
00000000: ceb2 d0bd 758c 43bd fbe7 cdbd b64e 913c
00000010: 5e4c adbd e3d1 16be cec6 17be 5008 1cbe
00000020: 3dc8 a0bd 8971 ee3c 0f3d fd3d efef ba3c
00000030: b18d da3d 9943 043e f9cb e9bd 8571 df3c
00000040: 0a12 02be a5bb 4a3e 679a 923c 9501 e5bd
00000050: 9680 0a3d 3d2a b13a c625 c4bc 8873 68bd
00000060: 1525 143e 576e 96bd 72c2 03be 7268 72bb
00000070: 3a38 20bd a7ff 99bc e112 90bc f72d eabd
00000080: 43c3 acbd 44fb 0bbd 8fd0 d03d 4163 a93d
00000090: e02a 2cbd 8ec9 cd3d 4664 49bc 0635 f8bd
000000a0: 8423 903d 6a8b d83b ff13 ee3c 8e07 a73d
000000b0: b7e7 473d cb37 c03c 6853 aabd 652c 2bbe
000000c0: ed77 3b3e 149b 793d a40c fe3d 352e ba3c
000000d0: 5d4e 323c 2ee8 dabd 33ab fc3d 079b 68bd
000000e0: 1b03 30bd 9e87 cd3c d8c5 8bbd b248 183d
000000f0: cb09 90bd e428 983d a03f 0c3e 0b40 debd
00000100: 1d74 0a3e 1116 053d 32d9 3b3c 889d 123e
00000110: d092 343d a7a3 023e 16c6 a33c 0ee8 ba3d
00000120: b6ab df3b 318a 93bd 8e22 b23c d9a2 edbd
00000130: d93a 363d 7337 5bbd bdb5 dabd 8a26 c2bc
00000140: b585 49bb ec51 f0bc 2cc5 d8bd 40ad 433e
00000150: 7755 95bd 8cde 3c3e ad82 ce3d cfec 8d3d
00000160: 13c8 e43c 93b9 06be 4dd9 e53b c811 94bd
00000170: d902 d0bd c402 103e 29de 78bb 1a44 e23d
00000180: c9c5 fc3d a219 1e3e 77ea adbd e159 093d
00000190: 122e 0ebe c6be 9fbc 84d7 c63d 3719 b9bd
000001a0: 2a6d 833d 1c3b 123e fe5b e5bd 385d 06bc
000001b0: dd82 16bd 44f5 3dbd 71c8 2f3c f419 b23d
000001c0: e329 92bd d53d b43d 2e0a 94bd bd70 563d
000001d0: ac01 d93c d76e 0d3e 8b38 a9bd df30 013d
000001e0: b0e1 c23d 0d35 413d 66e0 9bbd 40c7 673d
000001f0: 4690 8ebd 3eed 49bc 06f0 f1bd 9716 0ebd
00000200: 378e cb3d bb24 133e 36d6 9a3d 68b4 183e
00000210: 9e98 a8bd 9f6b c03b 4ec3 af3a 445b af3b
00000220: 3bd1 333e 6e2d eabc 5ce1 81bd d4ab e8bd
00000230: b0bb 4abd fb19 533c 948a 1a3c 117d b1bc
00000240: 675c 58bc 8e3b 933d c97c e2bd 7fde 033d
00000250: dda0 14be 06c2 983d 02a6 163e eabd 66bd
00000260: b335 40bc 5cd7 49bd d7e6 c83c 8a29 0dbd
00000270: 548e 2abd 3656 423d 505d ba3d 3876 8ebb
00000280: 42dd 71bd 94ba 0f3e 8c20 bcbc 4346 083e
00000290: c3ad 72bd 4af9 acbd 83d2 96bd e4d6 a6bd
000002a0: 22aa bcbc c4e4 6b3c e965 dc3a d290 a7bd
000002b0: daa4 c5bb 9223 ee3d 7b5e a33d a70a 44bc
000002c0: d0aa d83d 35e2 1c3e 5200 f2bc 9fd8 143e
000002d0: 4b82 29bc 46f7 213e 54d6 a7bb e0de dcbd
000002e0: 7b97 30bd 40a2 7abd c7d9 4abd 27c6 c33d
000002f0: fb9f e63d f069 c0bc 98c9 5dbd eb39 003e
00000300: 4ab3 01bd 6fdc b03d bad9 88bc fb41 6e3d
00000310: 0cfb cc3a d059 c4bd 0074 0d3d 397d debc
00000320: 5118 8c3d 0028 b83d eb42 a63d e7ef 303d
00000330: 8958 f93d 47a3 153d 2fb6 cbbc 598a e73d
00000340: 2720 003d 5634 e3bd 65bd b0bc de50 083e
00000350: 0aa7 6fbd 4cca bd3d d176 9bbc 2da9 eebd
00000360: 539b 04bd b46d 473d 6540 ffbc a359 523d
00000370: dcf3 5c3d 683a 903d 9e1c e8bc 2fbf 3d3c
00000380: 80e1 5abd 9158 6a3d 7022 b13d 9189 3e3e
00000390: eada d4bd bf0f 7fbd 2d56 09be 8f23 bdbd
000003a0: 73d2 513c 5266 023e 5b5f d93d 611c 8abd
000003b0: d0ba 463d 839e 06be 9823 613c 166a a23c
000003c0: e0f7 ed3d c688 fbbd ba10 063e 5283 d23d
000003d0: 68c6 abbd 7b4f 1a3c 1bef 33bd 9f0f a6bc
000003e0: c85b fd3d 89ab 8b3c 68b3 2dbd 4caf 1d3e
000003f0: 060f 043d cd15 c63d df09 c4bd 8a00 24bd

encoder.2.weight f4 [256, 256]
-0.014469931 0.051864214 -0.0018809326 -0.031561445 -0.035236865 -0.006737637 0.019668194 0.0045856214
-0.050652903 -0.012380472 0.06812269 0.0051920325 0.004992433 0.017179664 -0.0032258965 -0.030615995
0.018132433 0.0057970895 -0.023832114 -0.017548747 0.018689673 -0.0056718774 0.036364306 0.023848346
0.037316643 -0.013192366 0.017684769 0.0755294 0.024879614 0.018650167 -0.005365546 0.03430964
0.003672469 0.016729807 -0.0439319 0.016373035 0.012391831 -0.016411621 -0.01898415 0.020235932
-0.024546714 0.02195035 -0.046267457 0.007558416 -0.02007077 -0.014013535 0.01678214 0.0004858626
-0.012910873 0.0061751883 -0.013887183 -0.01375263 0.05828759 0.0267877 0.030664165 -0.007292977
0.05658833 0.05310918 -0.00094402354 -0.04834516 0.021210639 0.04178573 0.009384483 0.00129612
0.07678709 0.012525922 -0.01160038 -0.0063059614 0.024024794 0.038376562 0.029378826 0.05602293
0.014320938 -0.011788805 -0.02497945 0.0020106267 -0.026694274 0.042848494 0.0121248625 -0.007223654
0.011307547 0.017251566 -0.06408973 -0.064448826 0.02537099 0.010086982 0.011495645 -0.047922496
0.024576738 0.043485664 -0.021312395 0.0015619571 0.01454284 0.047018003 -0.04727226 0.0065748733
0.056481387 0.035173375 -0.033643432 -0.034799427 0.024991373 0.03166271 0.055165704 0.05744367
-0.028482482 0.071518496 0.031144436 -0.011496282 -0.028814156 0.02502553 -0.006830671 -0.014226521
-0.004008603 0.0004223843 -0.015556526 -0.068417706 0.00085150724 0.0027672919 0.024351591 0.05482238
-0.02645527 -0.037054077 -0.0052306037 0.042372134 -0.008281341 0.026924776 0.039171923 0.023241214
-0.00983734 -0.0035652763 0.0451166 -0.025664879 0.049969282 0.04830524 -0.03532268 0.019320164
-0.053701967 -0.019008076 0.014498737 0.06271836 -0.0013186197 0.048421796 0.020081373 -0.015889535
0.041132458 0.06284076 -0.032839183 0.020749044 -0.027949052 -0.035696484 -0.03455065 0.029477911
0.042123083 0.017462688 0.03343696 0.026173402 0.047397662 0.030297576 -0.027446054 0.01851428
-0.0076006316 -0.026126401 -0.01656985 0.016927758 0.02642407 -0.05896847 0.03296986 0.004171048
0.008059915 0.03827714 0.007720372 0.015338768 0.0044941185 0.034141578 -0.039664734 0.032299567
0.04886366 -0.013604237 -0.028097907 -0.024411585 0.046397373 0.033536065 -0.007985709 -0.009365941
0.06726592 0.04915741 0.0154630095 0.042316142 0.056932203 0.0012175721 0.008605339 0.005744608
-0.005034961 -0.015874749 -0.029332153 0.01421778 -0.0059504258 -0.032201745 -0.053089704 -0.029678192
0.034343652 0.058866605 0.063588805 -0.02670311 -0.031065479 0.029865146 0.031238312 -0.0018864301
0.019907592 -0.033011075 0.009254741 -0.063861534 0.032248706 0.024177972 -0.0015459872 -0.043120943
0.028983038 0.0048988336 0.057042483 -0.011665977 -0.010109679 0.04559509 0.07790941 0.023535399
-0.014379954 -0.040294286 -0.02170008 0.053329486 0.011737968 -0.04199981 -0.040715825 0.035832573
0.041271694 0.022127692 -0.0010783612 -0.023230538 0.030960796 0.032227468 -0.033936407 0.0017453164
0.0902424 0.0074726352 0.002385558 0.06361255 -0.05743803 0.01094341 -0.049978726 0.04728925
0.03217633 -0.028936455 2.1760605e-05 -0.010335371 0.06450224 -0.016680185 -0.01325483 -0.02541826
00000000: 4a13 6dbc 926f 543d a089 f6ba 9346 01bd
00000010: 8854 10bd 65c7 dcbb 311f a13c fb42 963b
00000020: 6b79 4fbd 77d7 4abc e983 8b3d ed21 aa3b
00000030: 9097 a33b 5ebc 8c3c 9069 53bb 65ce fabc
00000040: 788a 943c 83f5 bd3b 913b c3bc 64c2 8fbc
00000050: 161b 993c 28db b9bb bdf2 143d 9b5d c33c
00000060: 56d9 183d cb24 58bc a6df 903c 28af 9a3d
00000070: 55d0 cb3c 3cc8 983c 76d1 afbb 4488 0c3d
00000080: cead 703b f30c 893c f0f1 33bd be20 863c
00000090: 1b07 4b3c aa71 86bc a684 9bbc d3c5 a53c
000000a0: 3116 c9bc 38d1 b33c f282 3dbd 97ac f73b
000000b0: 756b a4bc 0799 65bc b37a 893c 60bb fe39
000000c0: 2088 53bc 3c59 ca3b 1187 63bc b652 61bc
000000d0: f8be 6e3d e171 db3c 6a33 fb3c edf9 eebb
000000e0: 2ac9 673d 0389 593d 5978 77ba 9305 46bd
000000f0: efc1 ad3c 8327 2b3d 60c1 193c 92e2 a93a
00000100: 8d42 9d3d 8639 4d3c 850f 3ebc 3da2 cebb
00000110: a5cf c43c be30 1d3d ddab f03c 4d78 653d
00000120: 5ea2 6a3c d525 41bc b4a1 ccbc b8c4 033b
00000130: f3ad dabc e781 2f3d 5ca7 463c 67b4 ecbb
00000140: 4a43 393c 2853 8d3c 7a41 83bd bffd 83bd
00000150: d3d6 cf3c de43 253c 3b58 3c3c 614a 44bd
00000160: 2855 c93c 061e 323d 5597 aebc 95ba cc3a
00000170: 1845 6e3c f395 403d 8fa0 41bd 0972 d73b
00000180: 0759 673d f511 103d b2cd 09bd d889 0ebd
00000190: b5ba cc3c c2b0 013d 6ff5 613d 0e4a 6b3d
000001a0: 1854 e9bc 4a78 923d 9e22 ff3c e75a 3cbc
000001b0: aa0b ecbc 5702 cd3c d2d3 dfbb 5b16 69bc
000001c0: 995a 83bb 7673 dd39 cde0 7ebc 951e 8cbd
000001d0: af37 5f3a 745b 353b fd7c c73c 6f8d 603d
000001e0: b9b8 d8bc 04c6 17bd 7c65 abbb 678e 2d3d
000001f0: 76ae 07bc 5991 dc3c bd72 203d 5c64 be3c
00000200: cb2c 21bc 69a7 69bb 2fcc 383d 273f d2bc
00000210: 97ac 4c3d b7db 453d 84ae 10bd 5245 9e3c
00000220: 98f6 5bbd d3b6 9bbc 1c8c 6d3c 7c72 803d
00000230: 89d5 acba ef55 463d b181 a43c c52a 82bc
00000240: 827a 283d a8b2 803d 6182 06bd e6f9 a93c
00000250: 69f5 e4bc 7a36 12bd fb84 0dbd a97b f13c
00000260: 4189 2c3d e90d 8f3c 32f5 083d 9a69 d63c
00000270: 0d24 423d 9f32 f83c 8cd6 e0bc 42ab 973c
00000280: b80e f9bb 0907 d6bc 7ebd 87bc 15ac 8a3c
00000290: 4b77 d83c ec88 71bd 670b 073d 49ad 883b
000002a0: bc0d 043c 7ec8 1c3d 2dfb fc3b 754f 7b3c
000002b0: 6643 933b 0ad8 0b3d 7d77 22bd 8d4c 043d
000002c0: 4325 483d 4ee4 5ebc 952d e6bc cefa c7bc
000002d0: 2c0b 3e3d 1d5d 093d 7ed6 02bc 9b73 19bc
000002e0: b7c2 893d 4859 493d 9058 7d3c b153 2d3d
000002f0: be31 693d f196 9f3a 68fd 0c3c 443d bc3b
00000300: 50fc a4bb c30b 82bc fc49 f0bc b1f1 683c
00000310: cafb c2bb fae5 03bd 9774 59bd ae1f f3bc
00000320: eeab 0c3d 1c1e 713d d93a 823d 7bc0 dabc
00000330: 087d febc c0a7 f43c 7de7 ff3c 1742 f7ba
00000340: 3f15 a33c 9f36 07bd 32a1 173c d6c9 82bd
00000350: 3817 043d e210 c63c b9a2 caba 969f 30bd
00000360: d66d ed3c 6586 a03b 61a5 693d a722 3fbc
00000370: 11a3 25bc ebc1 3a3d f88e 9f3d 4fcd c03c
00000380: e699 6bbc 9f0b 25bd 5ec4 b1bc 0570 5a3d
00000390: 9b50 403c fe07 2cbd a3c5 26bd 2dc5 123d
000003a0: 820c 293d 2245 b53c cc57 8dba f84d bebc
000003b0: 7fa1 fd3c f300 043d e700 0bbd 1ac3 e43a
000003c0: 02d1 b83d 02dd f43b 0657 1c3b 4c47 823d
000003d0: 2444 6bbd fd4b 333c 7eb6 4cbd 5fb2 413d
000003e0: 54cb 033d 250c edbc 8b8a b637 b055 29bc
000003f0: c019 843d e2a4 88bc c92a 59bc f439 d0bc

encoder.2.bias f4 [256]
0.076855786 -0.00441799 0.048892852 0.06479934 0.03636179 -0.029587878 -0.053361345 -1.7413081e-19
-0.1223009 0.07514346 0.055811416 0.08290419 -1.2652588e-19 0.012356899 0.002564132 -0.03903019
9.324477e-05 -3.912454e-37 -0.006018602 0.04344426 -0.050511263 -1.8909038e-36 -0.029537946 -0.0033122306
0.09770146 0.09130589 0.035065662 0.07057523 0.077944286 0.0068488987 -2.0602807e-36 0.10141796
-6.425744e-15 0.057486013 -0.0072498466 -1.4760322e-07 0.06229272 0.0014134697 0.015050575 -0.00023826632
0.08435558 0.05924379 -0.060254302 0.025235856 -0.08531797 -0.03678108 -0.006911367 -5.7345946e-09
0.040783644 0.043973997 0.0006625893 -0.00096022675 0.057460602 0.05421866 -0.0058750226 0.045738865
-0.0004905271 -0.000100073 0.022718431 -0.08911448 -0.019182472 -0.014929615 0.018941185 0.00032480084
0.07156259 -7.3590074e-34 0.058334045 -0.013277721 0.045422193 0.06240104 0.04044574 0.024624014
-0.018033363 0.09249472 -0.030527314 0.011657303 -2.4477322e-08 0.013798481 0.07053771 0.06723902
-0.00026082824 -0.0020665321 0.0384792 -0.0188233 0.020882396 0.017420411 -0.01891716 -2.1117758e-30
0.08971756 -0.013028533 -0.04904384 0.02770243 -0.021731207 -5.1206228e-14 -0.0002637352 -0.0055651837
0.0057813665 -0.10590677 0.00413115 0.060984053 0.062951915 -0.027560094 0.027042886 -7.0220274e-08
0.044440318 -0.03170198 -0.03301122 0.012667362 -0.031628106 0.039395854 -0.015402339 -0.009633968
-0.049053293 -0.023919925 -0.043617286 -3.3085827e-05 -0.04337207 0.031650223 0.016362377 -0.0024144938
0.014025846 0.04359596 0.030799963 0.029711558 -0.006593713 -0.012795142 0.007857323 -0.026984012
0.07272803 0.03512356 0.042863134 -0.024612067 0.016858207 0.012386797 0.05338738 0.03628716
-0.015749192 0.03142406 -0.0039035971 -7.097819e-32 -0.008246798 0.038333148 0.0043971315 0.060479723
0.021398067 0.043203853 0.026237618 -0.115015976 -1.8523245e-36 0.057446927 0.031469766 0.010800589
-6.1521765e-05 0.06507775 -0.0049510803 0.08054318 0.014021221 -4.038936e-27 -0.0375367 0.0028391376
0.0052952673 0.070401914 0.060331307 -0.001114765 -0.0037690897 0.097452976 0.006945589 -0.058130655
-0.033243973 -9.939723e-14 0.014194765 -1.6291965e-20 0.062424738 0.066042595 0.037338953 -0.0001278158
0.054293744 0.0016735502 -5.8660555e-22 -1.8445088e-36 -4.4952305e-08 0.037701868 0.0014217941 0.07593189
-5.2954827e-37 0.04732035 0.10882267 0.051806435 0.06185372 0.009056263 0.043832324 -0.07341376
-0.0074255276 0.028239455 0.0450005 -0.0060778563 -0.042282566 0.06503855 -0.041855145 0.032269735
0.08315786 0.01870707 -9.117704e-05 -0.03591963 0.07314427 -0.0011006463 0.06541849 -0.008761089
-0.039179783 0.005750112 -8.9505676e-27 -2.4504439e-20 0.025946394 -0.11626672 0.016744731 -0.002475913
0.061304584 0.033152856 0.03308298 -0.00013666801 0.024975767 0.046871077 0.013943362 -0.000828
-0.023666147 -8.1278895e-06 -0.0156119475 0.07616398 -7.565771e-18 0.035956535 0.08111479 -0.01958874
0.05423411 -9.574462e-21 0.023096034 0.0063713393 0.009844462 0.02852875 -0.017256867 0.06926856
0.021865672 0.030658603 -1.6832293e-07 0.06269282 0.07496536 0.073686704 -0.00035926412 0.02587467
-0.005690106 0.022633294 -0.0059012882 0.062225126 -0.032701522 -0.020056685 0.102540456 0.069431715
00000000: 9166 9d3d c9c4 90bb df43 483d 84b5 843d
00000010: 1af0 143d 4762 f2bc 6d91 5abd cf93 4da0
00000020: e578 fabd d0e4 993d 839a 643d acc9 a93d
00000030: 1a60 15a0 9774 4a3c ff0a 283b 1fde 1fbd
00000040: 688c c338 4822 0583 b137 c5bb 9cf2 313d
00000050: e6e4 4ebd 3ddc 2084 90f9 f1bc 0212 59bb
00000060: b417 c83d 95fe ba3d 03a1 0f3d bf89 903d
00000070: 41a1 9f3d ba6c e03b f144 2f84 38b4 cf3d
00000080: 0783 e7a7 7476 6b3d 1f90 edbb dd7c 1eb4
00000090: a726 7f3d 2c44 b93a b096 763c 21d7 79b9
000000a0: 9ec2 ac3d 9ea9 723d 37cd 76bd 6dbb ce3c
000000b0: 30bb aebd c2a7 16bd c078 e2bb 070a c5b1
000000c0: c00c 273d 141e 343d 9db1 2d3a bab7 7bba
000000d0: cf5b 6b3d 6314 5e3d 4383 c0bb ad58 3b3d
000000e0: b796 00ba 48de d1b8 011c ba3c a781 b6bd
000000f0: 8f24 9dbc 589b 74bc 8b2a 9b3c 084a aa39
00000100: 688f 923d 838b 7488 aeef 6e3d cc8a 59bc
00000110: 9f0c 3a3d 3c98 7f3d 6faa 253d 4db8 c93c
00000120: b4ba 93bc df6d bd3d 6b14 fabc 46fe 3e3c
00000130: 3342 d2b2 0613 623c 1376 903d 9cb4 893d
00000140: c6bf 88b9 a86e 07bb 5e9c 1d3d 5233 9abc
00000150: 8f11 ab3c 40b5 8e3c 29f8 9abc de53 2b8e
00000160: d7bd b73d a175 55bc 32e2 48bd 35f0 e23c
00000170: a505 b2bc c39c 66a9 f045 8ab9 255c b6bb
00000180: 9e71 bd3b a6e5 d8bd 995e 873b 6aca 793d
00000190: efec 803d b5c5 e1bc 0b89 dd3c 01cc 96b3
000001a0: 0d07 363d efd9 01bd c636 07bd c48a 4f3c
000001b0: 798c 01bd 8c5d 213d 185a 7cbc cad7 1dbc
000001c0: 1bec 48bd b8f3 c3bc 0aa8 32bd a3c5 0ab8
000001d0: e9a6 31bd aaa3 013d 640a 863c 7c3c 1ebb
000001e0: a9cc 653c ad91 323d 3450 fc3c a765 f33c
000001f0: 1310 d8bb b7a2 51bc 00bc 003c 930d ddbc
00000200: 6ff2 943d b9dd 0f3d 4191 2f3d 3f9f c9bc
00000210: 391a 8a3c fef1 4a3c baac 5a3d d8a1 143d
00000220: 7304 81bc 84b6 003d 7ed3 7fbb 1945 b88b
00000230: 941d 07bc 3803 1d3d d015 903b 96b9 773d
00000240: 004b af3c 86f6 303d 46f0 d63c 7f8d ebbd
00000250: 0e94 1d84 784d 6b3d 71e6 003d f4f4 303c
00000260: 3f05 81b8 7c47 853d ac3c a2bb d3f3 a43d
00000270: 43b9 653c adff 9f93 15c0 19bd d310 3a3b
00000280: ec83 ad3b e12e 903d f61d 773d 4e1d 92ba
00000290: d502 77bb 6d95 c73d d397 e33b 691a 6ebd
000002a0: d52a 08bd 9ad2 dfa9 2991 683c 8edf 999e
000002b0: 15b1 7f3d 5741 873d bbf0 183d 4b06 06b9
000002c0: 1e63 5e3d 075b db3a 684a 319c d8e9 1c84
000002d0: 9511 41b3 466d 1a3d 7e5b ba3a 2e82 9b3d
000002e0: 2932 3483 fcd2 413d 6cde de3d fc32 543d
000002f0: 545a 7d3d b860 143c 8689 333d f459 96bd
00000300: d751 f3bb 6e56 e73c 7252 383d c128 c7bb
00000310: 7c30 2dbd ee32 853d 4d70 2bbd 452d 043d
00000320: ab4e aa3d 923f 993c 4d36 bfb8 7620 13bd
00000330: aacc 953d 9043 90ba 21fa 853d ac8a 0fbc
00000340: fb7a 20bd 6f6b bc3b c548 3194 1970 e79e
00000350: 888d d43c 3f1d eebd 3f2c 893c ed42 22bb
00000360: 841a 7b3d 4acb 073d 0582 073d 8a4e 0fb9
00000370: fb99 cc3c e3fb 3f3d b372 643c 240e 59ba
00000380: 82df c1bc 055d 08b7 41c9 7fbc dcfb 9b3d
00000390: 5890 0ba3 2947 133d 831f a63d 9178 a0bc
000003a0: 9624 5e3d 42db 349e e533 bd3c abc6 d03b
000003b0: ab4a 213c 20b5 e93c 465e 8dbc addc 8d3d
000003c0: a31f b33c c027 fb3c 41bc 34b4 1865 803d
000003d0: 7087 993d 0ee9 963d 9d5b bcb9 1ef7 d33c
000003e0: 1274 babb 7569 b93c 985f c1bb c6df 7e3d
000003f0: 08f2 05bd eb4d a4bc bb00 d23d 3732 8e3d

fc_mu.weight f4 [24, 256]
-0.013134873 0.008364064 0.0019103676 -0.0009857912 -0.0038683848 -0.0003262716 -0.0148663 3.6959424e-37
0.005828919 0.008776135 -0.0039159413 -0.0062638745 9.2629024e-35 0.008430669 0.010749596 0.00080730155
2.996131e-12 1.0426686e-38 0.01550003 -0.0069693374 0.008335206 4.5793033e-38 0.004659556 0.014096778
0.00948514 -0.02094096 -0.00071002723 0.0042382823 -0.012628837 0.0020853777 -1.8336855e-38 0.015679065
-1.3635448e-37 0.007829431 0.004475642 1.0939018e-17 -0.015100175 -4.5672314e-06 0.008115601 -2.3086166e-07
0.008667595 -0.00027909785 -0.0044228467 -0.004673465 0.0018049405 -0.015388499 -0.009496272 -9.231916e-21
-0.010676951 -0.0055634333 2.5353172e-06 -0.00421408 -0.0021192373 -0.0012921182 -0.016266648 0.0031263218
3.791451e-10 1.5014195e-10 -0.012481091 0.0072373375 -0.015677122 -0.004404357 -0.0037742017 -8.415565e-07
0.0124599 8.012951e-38 0.011780722 -0.0029998217 0.0009584257 -0.011377137 0.01642511 -0.008311252
-1.9346837e-06 -0.0013548373 0.0021398047 0.0026061258 1.6270782e-17 0.0009027802 0.0064271973 -0.0072534163
-0.00378346 0.001091977 -0.00091250637 -0.0012003464 0.020582786 0.0079406025 0.00047245255 -3.509275e-37
-0.004852212 -0.002234754 0.0011172295 0.010640402 -0.0012393638 2.9894245e-35 2.025301e-11 0.004759013
0.0011520889 0.006649236 -0.0045912047 0.016392274 0.0037487273 -0.0036971737 -0.0096702725 7.130351e-30
-0.009941694 -0.0069443616 0.0019221439 -0.0012238821 0.0017461661 -0.001759304 0.011709073 0.019011246
0.008973102 -0.00047493353 -0.003233519 -3.1069589e-10 0.008868586 -0.0065476764 -0.0039672074 -3.1547679e-16
0.004877699 0.011289534 6.2019884e-05 0.007193424 6.7273872e-15 0.0020529625 0.012439646 0.009404661
-0.013701295 0.018603036 0.0043833414 0.005241086 -0.0033410667 0.0016688384 -0.009396461 -0.016656635
0.004879083 -0.0033167305 -1.3778975e-06 -1.3190315e-37 0.019923516 0.010432323 0.0047387863 0.0010518098
0.0007470976 -0.0015122677 0.009535621 0.0020600506 1.4364067e-37 -0.0018712211 0.013687449 -0.0013327718
3.0413617e-07 0.013582908 -0.008148703 -0.028793968 0.002034441 -8.1773456e-38 -2.3514369e-05 -0.002712034
-0.0011488869 0.006839639 0.0119838165 1.0118178e-08 7.604835e-07 -0.0056158216 -0.0012374413 0.00061175803
-0.0004153193 -4.4854256e-25 0.00048783995 1.5371061e-37 -0.005447261 -0.020402914 0.0012588225 1.9365602e-10
-0.0090032425 -0.0072956495 -1.2846678e-37 -1.7714873e-37 -2.1973038e-08 5.332726e-05 -0.00053928106 -0.006739595
-4.7606475e-38 0.007746022 -0.0069276625 0.006919916 0.007941409 -0.006460921 -0.0026062154 -0.0026101482
-0.000568107 -0.005513377 -0.0017051355 5.1173737e-07 0.0005891165 -0.004921827 0.0009606343 0.013235207
0.0076249447 0.0027406446 1.00108104e-16 -0.004450677 0.0153092705 1.6218628e-08 0.004685202 -0.011120369
-0.0076140384 0.0010715191 3.114183e-39 9.062814e-39 -0.01072843 -0.002813971 0.01400074 -1.0136234e-06
0.0048141335 0.0016846999 0.008145878 1.9693987e-08 -0.014393959 -0.008002051 0.01213546 0.0027328248
0.0059907264 -1.267968e-19 -0.004644293 -0.00031776007 3.7441404e-37 0.003959736 0.004456116 -0.010082836
-0.006997715 8.004967e-37 -0.0014745737 0.010387191 -0.0022458276 0.008032825 0.007967415 0.00051224226
-0.0131780645 0.0015183131 3.4651651e-37 0.021096986 -0.008651763 0.006052084 8.240824e-06 -0.0017430731
-0.011741392 0.004846911 -0.0054991157 0.0109694945 0.008923574 0.00065019616 0.015047039 -0.016012385
00000000: a633 57bc 6d09 093c 4d65 fa3a aa35 81ba
00000010: ba84 7dbb 6f0f abb9 c891 73bc 6688 fb02
00000020: 8400 bf3b c7c9 0f3c 4c51 80bb 3041 cdbb
00000030: 0c40 f606 ca20 0a3c 131f 303c 17a1 533a
00000040: 7fd5 522c 5c89 7100 d6f3 7d3c 0a5f e4bb
00000050: 6390 083c 2c52 7901 30af 983b 2cf6 663c
00000060: 9067 1b3c 608c abbc 1f21 3aba 4ae1 8a3b
00000070: 2ee9 4ebc d5aa 083b b1ab c780 6271 803c
00000080: 9a98 3982 0447 003c 68a8 923b 0dca 4923
00000090: b966 77bc 3840 99b6 4cf7 043c c5e2 77b4
000000a0: 8702 0e3c e153 92b9 87ed 90bb de23 99bb
000000b0: c193 ec3a 0b20 7cbc 4096 1bbc ce62 2e9e
000000c0: 61ee 2ebc 764d b6bb 6b24 2a36 4416 8abb
000000d0: e7e2 0abb 4b5c a9ba a241 85bc fae2 4c3b
000000e0: ee6f d02f 3415 252f 7d7d 4cbc 3027 ed3b
000000f0: 4f6d 80bc 6d52 90bb 9958 77bb 53e7 61b5
00000100: 9c24 4c3c 1e22 da01 ee03 413c a898 44bb
00000110: dc3e 7b3a 2c67 3abc f48d 863c eb2b 08bc
00000120: 9dd5 01b6 cc94 b1ba f73b 0c3b 89cb 2a3b
00000130: 4c12 9623 8ea8 6c3a 3d9b d23b 11ae edbb
00000140: edf3 77bb ab20 8f3a 4435 6fba f154 9dba
00000150: 3b9d a83c 4d19 023c 82b3 f739 32d4 ee82
00000160: 4eff 9ebb f374 12bb 0070 923a 1555 2e3c
00000170: 2672 a2ba f0f1 1e06 b925 b22d 7ff1 9b3b
00000180: b001 973a d6e1 d93b d171 96bb 1749 863c
00000190: 35ad 753b 484c 72bb 1070 1ebc e69e 100f
000001a0: 7de2 22bc 878d e3bb 72f0 fb3a ab6a a0ba
000001b0: 9ddf e43a 7298 e6ba 69d7 3f3c 79bd 9b3c
000001c0: eb03 133c 8000 f9b9 72e9 53bb 8fce aaaf
000001d0: 8c4d 113c e48d d6bb 59ff 81bb 28dc b5a5
000001e0: 1bd5 9f3b bdf7 383c ac10 8238 d0b6 eb3b
000001f0: 3261 f227 ff8a 063b a8cf 4b3c 0216 1a3c
00000200: 657b 60bc 6565 983c 22a2 8f3b 6abd ab3b
00000210: ccf5 5abb edbc da3a 9df3 19bc 7f73 88bc
00000220: b7e0 9f3b 815d 59bb 33f0 b8b5 8a89 3382
00000230: a436 a33c 56ec 2a3c d247 9b3b e1dc 893a
00000240: dfd8 433a 4937 c6ba 4b3b 1c3c ea01 073b
00000250: 7883 4302 c343 f5ba 5241 603c 67b0 aeba
00000260: 2848 a334 d88a 5e3c 2382 05bc 54e1 ebbc
00000270: 4254 053b c89b de81 b940 c5b7 61bc 31bb
00000280: 3f96 96ba 0d1f e03b c557 443c 38d4 2d32
00000290: 0724 4c35 ed04 b8bb a431 a2ba 635e 203a
000002a0: 36bf d9b9 34d1 0a97 c5c4 ff39 5538 5102
000002b0: f07e b2bb 0324 a7bc 13ff a43a 53ed 542f
000002c0: 5682 13bc 5810 efbb 24dc 2e82 531f 7182
000002d0: 39bf bcb2 b6ab 5f38 8a5e 0dba d2d7 dcbb
000002e0: df98 8181 58d2 fd3b 7201 e3bb 76c0 e23b
000002f0: af1c 023c 22b6 d3bb 0acd 2abb 050f 2bbb
00000300: 04ed 14ba 8fa9 b4bb da7e dfba 535e 0935
00000310: f06e 1a3a 4747 a1bb 14d3 7b3a 7bd8 583c
00000320: acda f93b 639c 333b 65d5 e624 fcd6 91bb
00000330: bcd3 7a3c 2451 8b32 5386 993b 3532 36bc
00000340: 2f7f f9bb 3772 8c3a 13e9 2100 70af 6200
00000350: 4cc6 2fbc 996a 38bb 5c63 653c d60b 88b5
00000360: e1bf 9d3b 26d1 dc3a 4a76 053c 892b a932
00000370: a4d4 6bbc 091b 03bc cfd3 463c 3119 333b
00000380: db4d c43b fbb1 15a0 272f 98bb 0999 a6b9
00000390: 20d0 fe02 acc0 813b 9c04 923b 7b32 25bc
000003a0: 174d e5bb 8c32 8803 7c46 c1ba 092f 2a3c
000003b0: bc2e 13bb 1c9c 033c c389 023c ff47 063a
000003c0: cfe8 57bc 2202 c73a b1d3 eb02 96d3 ac3c
000003d0: 20c0 0dbc 8f50 c63b 1242 0a37 d477 e4ba
000003e0: f85e 40bc d6d2 9e3b ed31 b4bb 65b9 333c
000003f0: 2f34 123c ed71 2a3a db87 763c 682c 83bc

fc_mu.bias f4 [24]
-0.004648043 -0.03153286 0.008609641 -0.016872853 -0.031136557 0.014777189 0.014564903 -0.008958637
-0.014559067 0.02590596 -0.0072183195 0.013174629 -0.012776424 -0.031306453 -0.02939787 -0.028789544
0.03791691 -0.0017239101 -0.0126019195 0.013776009 -0.045096416 0.025133312 -0.02943284 0.019368224
00000000: 9c4e 98bb 9a28 01bd 740f 0d3c f038 8abc
00000010: 1812 ffbc 061c 723c a2a1 6e3c 3fc7 12bc
00000020: 2789 6ebc bc38 d43c a787 ecbb 66da 573c
00000030: 3554 51bc 323b 00bd cdd3 f0bc 0dd8 ebbc
00000040: c34e 1b3d d3f4 e1ba 4878 4ebc c5b4 613c
00000050: 05b7 38bd 60e4 cd3c 241d f1bc 1caa 9e3c

fc_logvar.weight f4 [24, 256]
0.0047073145 0.00034605115 2.342288e-05 0.00051192066 0.00070402026 2.6312542e-05 -0.00010883012 -1.6718401e-37
-0.00040515905 -0.0068031475 -0.00051892817 0.0031116821 4.007298e-35 -0.004535658 0.000325511 -0.002553702
-1.9462783e-14 3.0532192e-38 0.0013749159 0.0010344958 -0.0020014578 -6.7220977e-38 0.00015822703 0.0020778864
0.0010594794 0.002619269 -0.007770142 0.0029486662 0.0068089743 -0.0001566628 6.9711925e-38 6.334513e-05
-2.867903e-39 -0.0039724726 -4.5945046e-05 7.673219e-37 -0.006043749 -8.137962e-11 0.0004045834 3.3102773e-14
8.385025e-05 0.00010675723 -0.000117949174 -0.005547893 0.0016175442 -0.0013244087 -0.0012372083 -3.3178277e-37
-0.00012394362 0.0011591977 -4.186801e-06 0.0005772973 0.003810453 -0.00023293903 0.0044048787 0.0045105866
-5.1678952e-18 1.809733e-36 0.007206553 -0.0025544162 0.0020461665 -0.0042314953 0.0017358799 -1.1252894e-14
-0.0056069614 8.92606e-38 0.009137875 -0.0019407097 0.00278091 0.0083260005 0.0013657692 0.0013270333
6.569572e-10 0.0010289288 0.002323795 0.00089166383 3.3483948e-37 -0.008883254 0.00011000878 -0.0034577625
0.0017066948 0.0018313295 0.0026938613 0.0010751997 0.008963889 0.001050226 -0.0004007088 1.1221464e-37
-0.011626113 -3.2312437e-05 -0.00052846514 -0.0006283848 0.0034396672 2.1025064e-37 1.5354681e-26 -0.00031631507
0.0026837455 0.004178599 -0.0041339155 -0.0032429162 0.005266748 0.0019755245 0.0031191944 1.3409645e-37
0.0036162226 0.005828356 -0.0022518365 -0.0041334704 -0.0028697704 0.00074196456 -0.0015726265 0.0044445614
0.0017498609 -0.006397778 0.000952471 4.004251e-36 -0.004189283 0.0017446787 -0.0029806474 -1.8029159e-36
0.00013390329 -0.00030983312 -0.0054208664 -0.002309806 8.735092e-25 0.0031198405 -0.0057100123 -0.0035884061
0.010445938 -0.0007489353 0.002907744 -0.001750628 -9.892413e-05 0.00058784755 -0.0009662146 0.0031493437
0.0036780606 -0.00097474415 -9.95745e-11 -4.6062132e-38 0.007845433 -0.0045836526 0.0026390562 0.009875709
-0.0022176038 -0.0039226534 -0.0068747476 -0.009194814 -4.4331865e-38 0.004182802 0.002512538 0.00030800924
-2.8378735e-20 0.004295755 -0.00059952703 0.015968282 -0.0016291263 1.303945e-39 0.00019533273 -0.003659116
0.0044301697 -0.003661513 0.0012421254 -9.914447e-14 -7.945614e-11 -0.0025724603 -0.004059755 0.0013212918
0.005041145 3.9407297e-37 -0.00079382135 3.8491102e-38 -0.00839992 -0.00030287524 -0.009451567 7.159284e-37
-0.0050793155 -0.00022511977 1.69671e-37 2.4714785e-38 -1.2379638e-24 -4.272025e-05 -0.00044643995 0.00046155302
-2.790685e-38 -0.008000081 0.0034399857 0.00026255636 0.000102188314 0.0011269946 0.0027962849 -9.938623e-05
-0.0022433437 0.002952387 -0.005232318 1.5786584e-13 0.001975949 0.009153006 -0.003063169 -0.008362511
-0.0048875953 -0.0016619998 8.3099285e-29 0.00012110736 0.005233095 1.9206867e-12 -0.0012565956 -0.0007986514
0.0016560265 0.00075075775 9.719893e-38 5.3157187e-38 0.0053187716 7.9121426e-05 0.0058574644 -6.2596272e-18
0.002634976 0.00026622377 0.0009801391 -1.24258135e-20 -0.01155816 0.005182066 -0.0022144525 0.00035107997
-0.0033015423 -7.651872e-37 0.0012083936 6.582938e-05 -1.2689883e-38 0.0034563602 0.0077937907 -0.011671549
0.00072666665 4.367033e-38 -0.00030612547 -0.00070579763 0.0032235873 -0.0028590153 -0.005389474 -0.0007982223
0.0075572236 0.0038721971 1.5410487e-37 0.003580279 0.0028067143 -0.0035635584 6.799503e-08 -0.002631164
0.005972841 -0.0022121614 -0.0009162848 -0.0050207605 -0.004253909 0.0018570108 -0.0009568177 0.0094288075
00000000: d13f 9a3b 336e b539 407c c437 6a32 063a
00000010: 008e 383a c1b9 dc37 ba3b e4b8 208f 6382
00000020: 876b d4b9 f0ec debb ae08 08ba 5ded 4b3b
00000030: 8410 5506 db9f 94bb 59a9 aa39 035c 27bb
00000040: 1f4e afa8 aa3b 2601 8636 b43a eb97 873a
00000050: e42a 03bb 2ffe b681 bfe9 2539 262d 083b
00000060: 3bde 8a3a 0ba8 2b3b ad9c febb 693e 413b
00000070: d11d df3b da45 24b9 1fc6 bd01 28d8 8438
00000080: 8c3a 1f80 842b 82bb 1eb5 40b8 958d 8203
00000090: a40a c6bb a7f4 b2ae 441e d439 e614 1529
000000a0: c3d8 af38 dae2 df38 7b5b f7b8 19cb b5bb
000000b0: c703 d43a c897 adba d229 a2ba b6cc e182
000000c0: ddf6 01b9 38f0 973a 597c 8cb6 c455 173a
000000d0: cbb8 793b 1841 74b9 cd56 903b 8bcd 933b
000000e0: 64a9 bea2 7ff4 1904 f324 ec3b fe67 27bb
000000f0: fa18 063b 5ba8 8abb 7786 e33a d0b6 4aa8
00000100: 9aba b7bb 8ffd f201 07b7 153c 695f feba
00000110: ee3f 363b c769 083c 9c03 b33a d9ef ad3a
00000120: 4195 3430 1fdd 863a d04a 183b 8cbe 693a
00000130: 44e1 e302 118b 11bc 84b4 e638 a19b 62bb
00000140: 2db3 df3a 3909 f03a 7e8b 303b b7ed 8c3a
00000150: 47dd 123c bda7 893a 3a16 d2b9 18bd 1802
00000160: 747b 3ebc 3787 07b8 b288 0aba 31ba 24ba
00000170: 0a6c 613b d416 8f02 be10 9814 17d7 a5b9
00000180: c7e1 2f3b a1ec 883b cc75 87bb 1b87 54bb
00000190: af94 ac3b cd77 013b 666b 4c3b cb85 3602
000001a0: 26fe 6c3b cbfb be3b 8c93 13bb 1072 87bb
000001b0: c212 3cbb 6680 423a 9720 ceba afa3 913b
000001c0: 975b e53a 74a4 d1bb 3faf 793a 6f52 aa04
000001d0: 4146 89bb b4ad e43a f756 43bb 0860 1984
000001e0: 6468 0c39 1971 a2b9 86a1 b1bb 1d60 17bb
000001f0: 442b 8717 3d76 4c3b 0e1b bbbb 772b 6bbb
00000200: 7125 2b3c 3254 44ba d98f 3e3b 5475 e5ba
00000210: 7d75 cfb8 c819 1a3a 9049 7dba 3865 4e3b
00000220: 9e0b 713b f985 7fba 76f7 daae 3ec9 7a81
00000230: 228a 003c 7732 96bb 04f4 2c3b bacd 213c
00000240: 3855 11bb 9a89 80bb 9045 e1bb d8a5 16bc
00000250: 9a5d 7181 e30f 893b 65a9 243b 4d7c a139
00000260: c903 069f 68c3 8c3b 9429 1dba eacf 823c
00000270: 6888 d5ba de32 0e00 3bd2 4c39 c8cd 6fbb
00000280: f52a 913b fff5 6fbb d0ce a23a e540 dfa9
00000290: d5b9 aeae b996 28bb b107 85bb 322f ad3a
000002a0: 3030 a53b 9918 0603 7318 50ba c490 5101
000002b0: d19f 09bc 3acb 9eb9 bfda 1abc 299e 7303
000002c0: 6370 a6bb 210e 6cb9 b7f1 6602 628f 0601
000002d0: cc90 bf97 852e 33b8 2810 eab9 99fc f139
000002e0: 79f0 1781 c612 03bc 6271 613b b8a7 8939
000002f0: ef4d d638 aab7 933a e041 373b 936d d0b8
00000300: 1005 13bb d67c 413b dd73 abbb bbbd 312a
00000310: ec7e 013b 7df6 153c 73bf 48bb ea02 09bc
00000320: 1f28 a0bb 76d7 d9ba 85ae d210 05fb fd38
00000330: 627a ab3b 0428 072c 5ab4 a4ba 975c 51ba
00000340: 070f d93a 80ce 443a e24c 0402 27b5 9001
00000350: 1749 ae3b feed a538 f9ef bf3b 82f0 e6a2
00000360: 90af 2c3b f393 8b39 0378 803a 8cb7 6a9e
00000370: 705e 3dbc 52ce a93b 5920 11bb 2811 b839
00000380: b05e 58bb 9a30 8283 f662 9e3a e10d 8a38
00000390: 3b2e 8a80 1a84 623b 0e63 ff3b 063a 3fbc
000003a0: c67d 3e3a 8ec3 6d01 777f a0b9 4705 39ba
000003b0: d242 533b 515e 3bbb 2f9a b0bb cb3f 51ba
000003c0: 96a2 f73b b0c4 7d3b b6c1 5102 1da3 6a3b
000003d0: daf0 373b 978a 69bb aa04 9233 9b6f 2cbb
000003e0: d2b7 c33b e9f9 10bb d532 70ba 3185 a4bb
000003f0: 6064 8bbb f166 f33a f3d2 7aba 497b 1a3c

fc_logvar.bias f4 [24]
-0.012706361 -0.0125394305 -0.0046345415 0.010672568 -0.011617365 0.016848564 0.00530232 0.003407148
0.00052115746 -0.0007877887 0.005814451 0.009109029 -0.0094454205 -0.0045622652 0.011715064 0.015740018
0.004685594 0.0027520761 0.010549538 0.0031651328 -0.18366069 -0.010987743 -0.004400073 0.0027045957
00000000: 572e 50bc 2f72 4dbc 5add 97bb ffdb 2e3c
00000010: c356 3ebc 0006 8a3c 15bf ad3b 754a 5f3b
00000020: 499e 083a 9b83 4eba 2687 be3b 093e 153c
00000030: f7c0 1abc 0e7f 95bb 8af0 3f3c 36f1 803c
00000040: 9c89 993b 2d5c 343b f8d7 2c3c 1e6e 4f3b
00000050: 8c11 3cbe ef05 34bc 7d2e 90bb 963f 313b

decoder.0.weight f4 [256, 69]
-0.047034424 0.03721468 -0.02729001 0.04711381 -0.039280843 0.008444002 0.014441991 -0.05278273
-0.009121361 0.031576835 -0.023991166 -0.024786865 0.041693646 0.041284587 0.0018876091 0.025251575
-0.025565535 0.027348524 -0.03613678 -0.038881574 0.005117688 -0.022644848 -0.056068588 -0.011577825
-0.009182818 -0.058019157 -0.2860838 -0.047424577 -0.072302885 0.02864528 0.081922054 -0.036046047
-0.037514217 0.09284726 0.03210283 0.08405083 0.017082017 -0.032876946 -0.023264313 -0.010250202
-0.034573987 0.011924032 -0.04140811 -0.00054661784 0.04404235 0.062157515 0.03791072 0.057816446
-0.088516064 -0.14366207 0.027340954 -0.08967704 -0.036593694 0.046697944 0.02151173 -0.030420313
-0.0634936 0.039521005 0.007744849 0.008150237 -0.0039740694 -0.044450197 -0.021650998 0.021412272
0.028781956 -0.10245629 -0.023033518 -0.012847503 -0.0033648452 -0.016657505 0.013258924 0.012635589
0.023923045 0.00772356 -0.014932984 -0.020089678 0.0022693719 0.0149011 0.008672401 0.017452808
0.017197564 -0.0029427132 0.006135145 0.0019248327 -0.024377374 0.008678479 -0.019371582 -0.0026926144
0.013372822 0.040998943 -0.0067501334 -0.010762828 0.003929497 0.033051543 -0.019962965 -0.4859057
0.012921643 -0.004959215 0.034540806 0.07016571 -0.054805122 -0.05945615 0.08091089 0.033566948
-0.054992817 0.09191565 -0.042497974 -0.012485503 -0.014783862 -0.015434585 0.006892736 0.0032400738
-0.0028501805 -0.009974065 0.044944312 -0.048203878 -0.00055869395 0.06157384 0.0049403454 0.038924277
-0.0035171402 -0.002780162 -0.014232523 0.10041165 -0.007739542 0.025867831 0.04477049 0.12891184
0.034710202 -0.022617059 0.1166981 0.085639894 9.109257e-05 0.010858117 -0.011329375 -0.031253163
0.026848968 0.0662576 -0.021267211 0.016320406 -0.034554444 -0.016158018 -0.020422567 0.055818997
-0.02474206 -0.0153678395 -0.041475385 0.0147483805 0.061837632 0.023551026 -0.02761158 0.0032730417
-0.02341262 0.046273172 0.020226581 0.01730277 0.013660915 -0.025901781 -0.07177299 0.041545853
-0.009026256 0.019586664 -0.046383046 0.01247596 0.16802268 -0.048383713 -0.012025596 0.0034689496
-0.06910544 -0.07171521 0.06849264 0.05910134 0.04072404 -0.024445359 0.050954666 -0.0641304
0.030522909 0.055696517 -0.017952492 0.07572027 0.027761346 -0.04502955 0.04897481 -0.056357004
0.09160091 0.19437534 -0.10793941 0.08348325 -0.04024696 -0.015108282 0.012728782 0.07576319
-0.0031151983 -0.045826558 0.0526148 0.06385357 -0.0038118178 -0.009379143 -0.01535912 0.020003933
0.008565631 0.032382775 0.08037654 0.028145399 -0.018303635 -0.013873723 0.062201798 0.007672223
0.0011764425 0.0014815716 0.0044114515 0.0048226146 -0.0052689435 0.0023633242 0.0054760976 -0.00028578323
-0.0060351496 -0.00034134404 -0.005533863 -0.0020549174 0.0063280403 -0.0013029218 0.005282957 0.0039609945
0.0042411494 0.0006364294 -0.0011784746 -0.39665228 -0.00074450776 -0.0019416313 -0.0011625063 0.070084296
0.018433202 -0.20310044 0.0065160966 0.00048390563 -0.020879904 -0.0015955343 0.038790923 -0.022488635
0.025887584 0.0028766878 -0.062445916 -0.00913952 0.013792259 -0.0033959479 0.011273578 -0.001148198
-0.0035107827 0.048580386 0.00048130946 0.038323093 -0.08799017 0.08073607 -0.14687848 0.014197855
00000000: 2ba7 40bd 6c6e 183d 4d8f dfbc 69fa 403d
00000010: f3e4 20bd b658 0a3c 1a9e 6c3c b432 58bd
00000020: c371 15bc b656 013d 1f89 c4bc d30d cbbc
00000030: f5c6 2a3d 071a 293d a769 f73a 64dc ce3c
00000040: d06e d1bc 030a e03c 2904 14bd 4942 1fbd
00000050: 47b2 a73b b081 b9bc 2da8 65bd ebb0 3dbc
00000060: 8873 16bc 7fa5 6dbd 9379 92be 4640 42bd
00000070: 8913 94bd 82a9 ea3c c0c6 a73d 05a5 13bd
00000080: 82a8 19bd b426 be3d 427e 033d d722 ac3d
00000090: 96ef 8b3c faa9 06bd cd94 bebc 77f0 27bc
000000a0: 749d 0dbd 045d 433c 8d9b 29bd e74a 0fba
000000b0: c065 343d e198 7e3d 4548 1b3d f0d0 6c3d
000000c0: e947 b5bd 261c 13be 23fa df3c 99a8 b7bd
000000d0: 45e3 15bd 5846 3f3d 5e39 b03c 0534 f9bc
000000e0: ef08 82bd c7e0 213d 81c8 fd3b 9288 053c
000000f0: e938 82bb 6911 36bd 6f5d b1bc ca68 af3c
00000100: 23c8 eb3c 9ad4 d1bd cab0 bcbc 557e 52bc
00000110: bc84 5cbb 5275 88bc f53b 593c 8005 4f3c
00000120: 43fa c33c eb15 fd3b 79a9 74bc 1c93 a4bc
00000130: beb9 143b be23 743c b016 0e3c 31f9 8e3c
00000140: e8e1 8c3c 89da 40bb 5409 c93b ab4a fc3a
00000150: 0fb3 c7bc 2e30 0e3c 27b1 9ebc 9376 30bb
00000160: ae19 5b3c 82ee 273d 3930 ddbb 9356 30bc
00000170: 03c3 803b 0e61 073d 5f89 a3bc a2c8 f8be
00000180: 4db5 533c e980 a2bb a97a 0d3d 0ab3 8f3d
00000190: 567b 60bd 4b88 73bd 9cb4 a53d 7f7d 093d
000001a0: 2640 61bd 463e bc3d 5b12 2ebd ff8f 4cbc
000001b0: 0338 72bc 57e1 7cbc 76dc e13b 6b57 543b
000001c0: 18ca 3abb 436a 23bc 8717 383d 6e71 45bd
000001d0: 5175 12ba da34 7c3d 9fe2 a13b 106f 1f3d
000001e0: d27f 66bb 6133 36bb 872f 69bc a0a4 cd3d
000001f0: fc9b fdbb c6e8 d33c 4361 373d 7701 043e
00000200: 492c 0e3d 6947 b9bc 6aff ee3d f863 af3d
00000210: f308 bf38 3ee6 313c d89e 39bc 5103 00bd
00000220: 5ef2 db3c 11b2 873d 9338 aebc 5fb2 853c
00000230: f688 0dbd d25d 84bc 3a4d a7bc 76a2 643d
00000240: dcaf cabc 64c9 7bbc 18e2 29bd 31a3 713c
00000250: 7549 7d3d 15ee c03c ae31 e2bc 8780 563b
00000260: d3cb bfbc f088 3d3d 37b2 a53c 8abe 8d3c
00000270: 08d2 5f3c f92f d4bc b8fd 92bd fc2b 2a3d
00000280: dde2 13bc 3674 a03c 26fc 3dbd f867 4c3c
00000290: 230e 2c3e 002e 46bd 0107 45bc 5157 633b
000002a0: 2787 8dbd 6ddf 92bd df45 8c3d 3f14 723d
000002b0: 40ce 263d a241 c8bc d7b5 503d cd56 83bd
000002c0: 2e0b fa3c 0822 643d 1b11 93bc 3b13 9b3d
000002d0: c36b e33c e870 38bd cf99 483d 9ad6 66bd
000002e0: 4299 bb3d 540a 473e 560f ddbd 44f9 aa3d
000002f0: ffd9 24bd ba88 77bc 628c 503c bb29 9b3d
00000300: 5b28 4cbb a1b4 3bbd 9e82 573d a9c5 823d
00000310: b1cf 79bb faaa 19bc d2a4 7bbc 4adf a33c
00000320: dc56 0c3c cda3 043d 759c a43d 2e91 e63c
00000330: 81f1 95bc 9d4e 63bc 50c7 7e3d 4567 fb3b
00000340: dc32 9a3a 4b31 c23a f08d 903b 0607 9e3b
00000350: 1aa7 acbb 00e2 1a3b d670 b33b 2dd5 95b9
00000360: 81c2 c5bb 6cf6 b2b9 6855 b5bb cbab 06bb
00000370: 735b cf3b cdc6 aaba a81c ad3b 3bcb 813b
00000380: 57f9 8a3b 0ed6 263a 0c77 9aba 0216 cbbe
00000390: 122b 43ba 567e feba 3d5f 98ba 5b88 8f3d
000003a0: 3a01 973c 90f9 4fbe fb84 d53b b7b4 fd39
000003b0: 550c abbc 3f21 d1ba 3be3 1e3d 163a b8bc
000003c0: 3312 d43c d086 3c3b 4ac7 7fbd edbd 15bc
000003d0: edf8 613c 8d8e 5ebb d0b4 383c 227f 96ba
000003e0: 2915 66bb 3afc 463d 4358 fc39 adf8 1c3d
000003f0: 3134 b4bd f458 a53d 5067 16be 1f9e 683c
