models/cvae_L8_H128_B0.100_LR1e-03.pt (torch, 214729 bytes, 13 tensors)

encoder.0.weight f4 [128, 46]
0.0863943 -0.0011322028 -0.016863383 -0.13757533 0.083912626 0.03978908 0.017312447 0.017893065
0.025175609 0.006305851 -0.07733568 -0.022424264 -0.047563042 -0.018253865 -0.052972414 0.0088628465
0.004239147 0.02184802 0.05523246 0.010081745 0.05954064 -0.01763165 0.04150601 0.036051784
-0.083742276 -0.07599182 0.059442494 -0.08167179 -0.030878508 8.783852e-06 -0.00735575 0.006128893
0.0072034025 0.050085563 -0.04748004 0.00025223818 -8.18139e-10 0.006128893 5.4726714e-38 -0.09935276
-0.028965438 0.030611217 -0.026390709 -0.0049978797 8.737304e-06 0.006128893 0.255298 -0.0029485999
-0.0104522975 0.04229097 -0.02008585 -0.09466737 0.03809997 0.076244034 -0.09855568 0.004626969
-0.0071255392 -0.062486384 0.039800014 -0.07793133 0.053543165 -0.040581465 0.031232297 0.015611625
-0.009955043 -0.02607612 0.004201154 -0.041290917 -0.011485141 0.02803932 -0.11206439 0.19940409
-0.01876833 0.09548993 0.04587029 0.10630081 0.080822125 4.7866346e-05 0.07575695 0.031188238
0.07712828 0.031615186 0.011222385 -0.0022240572 0.04820455 -0.026408063 -0.049094845 0.055497758
-0.018013712 -0.014910183 0.02571999 -0.042851865 -0.13872516 -0.01595702 -0.02801536 0.13197772
-0.0034116777 -0.013987174 -0.02693948 -0.0031239523 0.021188732 0.021261396 0.018935656 -0.025261372
0.047873955 -0.00037685927 -0.02352266 -0.027082346 0.08966025 -0.03130798 0.052607656 0.026515407
0.005163121 0.06761868 -0.025753887 -0.0403512 0.004907927 -0.009080194 -0.00355179 -0.08021118
-0.04311291 0.00412153 -0.0016856352 0.0029645816 0.0071536642 -0.0275717 -0.018006466 -0.0052730865
-0.0028080274 0.0029645816 -0.0016856352 0.056990694 -0.007686431 -0.03036882 0.00395702 -0.003997197
-0.005814226 0.00081336865 0.16049351 -0.05169542 -0.04927358 -0.38852632 0.016522484 0.09006365
0.022732466 0.065118715 -0.114047326 0.05387453 0.046836246 -0.051371183 0.031484492 0.01735938
-0.10482626 0.013129377 -0.012639132 0.06519152 0.03331036 0.0106246965 -0.048903402 -0.0037269476
-0.111057036 0.0852899 -0.017467428 -0.011099293 -0.031319216 0.12095837 0.08142374 -0.0690808
-0.044036195 0.021458508 0.124489546 0.027997132 0.15725307 0.052297145 0.008058947 0.005659581
-0.0523361 0.0094791595 0.0072065876 0.11521275 0.122711435 -0.015995836 0.07273664 0.034532078
0.040064 0.057149075 -0.11144104 -0.29002658 -0.013809756 0.120624565 -0.0380164 0.0076950137
0.052076403 -0.04255269 0.09579787 -0.049679752 0.04490622 0.062425595 -0.015118417 0.018063026
-0.02785981 0.039445084 0.095053025 -0.07288241 -0.05522326 -0.027184911 0.117632255 -0.058745395
-0.022529447 0.005894173 0.001998277 0.04872086 0.046822894 0.030195553 0.03441364 -0.004400644
0.037964363 0.011668591 0.11439499 0.0688207 -0.015501297 -0.006190814 -0.012503392 0.036730744
0.08212368 -0.0014391128 -0.04272124 0.009228746 -0.000305774 -0.004514239 0.061583534 0.077152014
0.053835995 -0.070624314 -0.016154135 -0.0526656 -0.008629421 -0.051230203 0.06760532 0.04585493
-0.0044155 -0.011265002 -0.054915372 0.0015695933 0.053326618 -0.05847708 0.09911194 -0.009818579
0.0023162756 -0.013032402 -0.035322502 0.01953354 -0.065005414 0.08937877 0.0042230925 0.21013163
00000000: 7fef b03d 6c66 94ba 1425 8abc 8ce0 0cbe
00000010: 62da ab3d e0f9 223d d5d2 8d3c 7a94 923c
00000020: 143d ce3c 50a1 ce3b 2b62 9ebd 17b3 b7bc
00000030: 77d1 42bd 2189 95bc 9af9 58bd 7935 113c
00000040: 8be8 8a3b 9efa b23c 6f3b 623d e72d 253c
00000050: e3e0 733d 4070 90bc 3502 2a3d 09ab 133d
00000060: 1281 abbd 99a1 9bbd f979 733d 8a43 a7bd
00000070: edf4 fcbc 5b5e 1337 8108 f1bb e1d4 c83b
00000080: 850a ec3b 8526 4d3d 6e7a 42bd d63e 8439
00000090: 6ae3 60b0 e1d4 c83b f4fa 9401 7679 cbbd
000000a0: ed48 edbc 60c4 fa3c 5431 d8bc 41c5 a3bb
000000b0: 6f96 1237 e1d4 c83b 6bb6 823e 4c3d 41bb
000000c0: 1d40 2bbc 4c39 2d3d 158b a4bc f7e0 c1bd
000000d0: b70e 1c3d d525 9c3d 8fd7 c9bd d49d 973b
000000e0: 5b7d e9bb b9f1 7fbd 5705 233d 769a 9fbd
000000f0: 1450 5b3d c038 26bd e0da ff3c e7c7 7f3c
00000100: 7a1a 23bc 969d d5bc d6a9 893b aa20 29bd
00000110: 2c2c 3cbc b7b2 e53c 0482 e5bd 9630 4c3e
00000120: 0ac0 99bc 3990 c33d 7ce2 3b3d 3db4 d93d
00000130: 1286 a53d 19c4 4838 7626 9b3d 7a7e ff3c
00000140: 6ff5 9d3d ed7e 013d 18de 373c 7dc1 11bb
00000150: 2272 453d b955 d8bc ad17 49bd 9e51 633d
00000160: 7e91 93bc d749 74bc bab2 d23c 7085 2fbd
00000170: f80d 0ebe 4cb8 82bc 7880 e5bc 2b25 073e
00000180: 7496 5fbb 762a 65bc 2fb0 dcbc 39bb 4cbb
00000190: fe93 ad3c 612c ae3c f31e 9b3c f0f0 cebc
000001a0: 7b17 443d 3295 c5b9 98b2 c0bc ccdb ddbc
000001b0: cb9f b73d cc3c 00bd 207b 573d d736 d93c
000001c0: 662f a93b aa7b 8a3d d1f9 d2bc 4d47 25bd
000001d0: add2 a03b 18c5 14bc 26c5 68bb c245 a4bd
000001e0: 2a97 30bd e60d 873b 88f0 dcba 6d49 423b
000001f0: 4969 ea3b 0cde e1bc 4c82 93bc dbc9 acbb
00000200: e206 38bb 6d49 423b 88f0 dcba 136f 693d
00000210: 75de fbbb 08c8 f8bc e4a9 813b ebfa 82bb
00000220: 4385 bebb 3f38 553a 6958 243e 94be 53bd
00000230: 18d3 49bd ecec c6be 295a 873c 4a73 b83d
00000240: 7039 ba3c f65c 853d a591 e9bd 8aab 5c3d
00000250: 5dd7 3f3d 976a 52bd e2f5 003d 4235 8e3c
00000260: 26af d6bd 991c 573c 5d14 4fbc 2283 853d
00000270: 7270 083d 3513 2e3c ef4e 48bd ce3f 74bb
00000280: df71 e3bd 79ac ae3d da17 8fbc cfd9 35bc
00000290: 9448 00bd 06b9 f73d 7dc1 a63d 3c7a 8dbd
000002a0: 4c5f 34bd c1c9 af3c 60f4 fe3d 3e5a e53c
000002b0: f306 213e 8835 563d ac09 043c 0274 b93b
000002c0: 615e 56bd 7a4e 1b3c 3d25 ec3b aaf4 eb3d
000002d0: 2250 fb3d b309 83bc f3f6 943d 8271 0d3d
000002e0: 261a 243d 2615 6a3d 333b e4bd 5d7e 94be
000002f0: 5142 62bc 030a f73d 16b7 1bbd 7426 fc3b
00000300: 114e 553d bb4b 2ebd ac31 c43d ff7c 4bbd
00000310: 96ef 373d fbb1 7f3d 3db3 77bc e9f8 933c
00000320: 423a e4bc 2b91 213d 29ab c23d 5f43 95bd
00000330: c931 62bd e4b2 debc 2ee9 f03d 039f 70bd
00000340: ad8f b8bc e823 c13b 86f5 023b 868f 473d
00000350: 5dc9 3f3d aa5c f73c 51f5 0c3d 4733 90bb
00000360: 8580 1b3d 9e2d 3f3c ec47 ea3d def1 8c3d
00000370: 27f9 7dbc 50dc cabb 07db 4cbc fa72 163d
00000380: 7630 a83d 9da0 bcba 78fc 2ebd 2b34 173c
00000390: 4b50 a0b9 2eec 93bb 043f 7c3d e001 9e3d
000003a0: 2283 5c3d 7ba3 90bd ad55 84bc e2b7 57bd
000003b0: 6a62 0dbc c3d6 51bd a874 8a3d 61d2 3b3d
000003c0: e6af 90bb d890 38bc f1ee 60bd d0ba cd3a
000003d0: 036d 5a3d aa85 6fbd 33fb ca3d 1bde 20bc
000003e0: a8cc 173b db85 55bc 54ae 10bd cd04 a03c
000003f0: 8f21 85bd 370c b73d de61 8a3b bf2c 573e

encoder.0.bias f4 [128]
0.12072416 0.14562272 -0.06524208 -0.04662134 0.09579741 0.145559 0.08844973 0.047189243
0.07877717 0.068376526 0.013801344 0.17188597 -0.06300402 -0.12858239 0.16343264 -0.07988342
-0.006151126 -0.06700069 -0.071711995 0.106902964 0.1312726 0.15174894 -0.043128423 0.13011381
-0.0846718 -0.009218328 0.10209557 0.07881876 -0.09776809 0.09396061 0.051400624 0.031668127
0.04291607 0.14867406 0.07866319 0.07268467 -0.049783945 -0.14333011 -0.037333373 0.05350389
-0.03934982 -0.11416556 0.0145143 -0.019316249 -0.1103882 -0.017675517 -0.006974151 0.123313114
-0.036563896 0.026191475 -0.038260624 -0.013949708 -0.0803193 0.082873814 -0.058416158 -0.02719165
0.052289635 -0.04397626 -0.07359879 -0.06787559 -0.03195044 0.032498848 0.18099892 -0.014793756
0.15516946 -0.09534815 0.09150445 0.14748332 0.0085621625 0.040494412 0.13036579 0.037282534
-0.14711729 -0.10344776 0.060225125 -0.09437382 -0.007292893 -0.05598436 0.07735475 -0.06943724
-0.13241866 -0.026393771 0.07388334 0.0974184 0.0046916394 0.055965625 -0.09930941 0.030085918
-0.044405155 0.07003043 0.030458378 0.04158224 -0.034153916 -0.017874293 0.10946794 0.05429805
-0.101741396 0.13397488 0.0026814383 -0.105156325 -0.13213834 0.022926977 0.012221843 0.0052150227
-0.08732173 0.08257783 0.010559466 0.14774844 0.120643124 0.10956958 0.11151927 -0.021455389
-0.06776919 -0.0018071022 0.13326143 -0.1511752 -0.10347822 -0.004244064 0.1801887 -0.0094293915
-0.08638774 0.06520853 0.17404261 -0.081218556 -0.11239723 0.099318795 0.10878866 0.08633909
00000000: 3a3e f73d 1f1e 153e a49d 85bd 05f6 3ebd
00000010: 6f31 c43d 6b0d 153e 2225 b53d 8249 413d
00000020: ed55 a13d fe08 8c3d 081f 623c e002 303e
00000030: 4008 81bd 1aab 03be e35a 273e eb99 a3bd
00000040: 638f c9bb a837 89bd bddd 92bd f1ef da3d
00000050: 536c 063e 1364 1b3e 6ea7 30bd 8e3c 053e
00000060: 6968 adbd 7808 17bc 7b17 d13d bb6b a13d
00000070: a33a c8bd 6c6e c03d 7689 523d 70b6 013d
00000080: c3c8 2f3d 033e 183e 2b1a a13d b3db 943d
00000090: 40ea 4bbd 21c5 12be e1ea 18bd e526 5b3d
000000a0: 472d 21bd a2cf e9bd 63cd 6d3c 1c3d 9ebc
000000b0: 3513 e2bd 3fcc 90bc 6b87 e4bb 968b fc3d
000000c0: 06c4 15bd 818f d63c 2cb7 1cbd 518d 64bc
000000d0: 727e a4bd bfb9 a93d c845 6fbd 06c1 debc
000000e0: a82d 563d 7320 34bd f6ba 96bd 5b02 8bbd
000000f0: 77de 02bd 831d 053d c857 393e 8361 72bc
00000100: bee4 1e3e e445 c3bd af66 bb3d de05 173e
00000110: 5048 0c3c 78dd 253d 9c7e 053e 92b5 183d
00000120: eaa5 16be 6bdc d3bd 9fae 763d 1047 c1bd
00000130: 38f9 eebb db4f 65bd 2b6c 9e3d 1d35 8ebd
00000140: c298 07be c037 d8bc 2650 973d 4c83 c73d
00000150: 53bc 993b 363c 653d bb62 cbbd be76 f63c
00000160: 2ee2 35bd 1d6c 8f3d d983 f93c 2452 2a3d
00000170: fae4 0bbd 1c6d 92bc ba30 e03d a267 5e3d
00000180: cb5d d0bd b630 093e 12bb 2f3b 335c d7bd
00000190: 464f 07be 5bd1 bb3c 203e 483c c8e2 aa3b
000001a0: bcd5 b2bd 911e a93d 9c01 2d3c 5e4b 173e
000001b0: be13 f73d 0466 e03d 3764 e43d 36c3 afbc
000001c0: 93ca 8abd 4adc ecba af75 083e accd 1abe
000001d0: 64ec d3bd ca11 8bbb 6383 383e bc7d 1abc
000001e0: 0eec b0bd 0d8c 853d 3a38 323e ea55 a6bd
000001f0: 8530 e6bd a767 cb3d 97cc de3d 8cd2 b03d

encoder.2.weight f4 [128, 128]
-0.021301944 -0.0010316025 -0.008836936 0.0085033905 0.026177999 0.073890224 -0.026878115 -0.0694355
0.028017232 -0.0049997284 -0.023519836 -0.001403646 0.030128483 -0.03201598 0.019770335 0.029215662
-0.033987205 -0.01713635 -0.054572135 -0.013718637 -0.04565894 -0.009735595 -0.00557023 0.009156816
0.02352591 -0.0003024986 -0.0052287835 0.061072808 -0.03407164 0.061625592 0.07716143 0.030388575
0.013759841 0.03369789 -0.05497887 -0.033821486 0.023408167 -0.008747805 -0.035320573 0.031954482
-0.023124922 -0.0201211 0.018555047 0.038145974 -0.0057113967 0.016438039 0.035425097 0.079803534
-0.028394481 0.0041544344 -0.00039318894 -0.009217841 -0.019356262 0.0420454 0.027055863 0.01974555
0.016798018 0.03309752 0.016834352 -0.10649676 -0.002864286 0.026468566 0.029776756 0.060894206
0.024278264 -0.00804663 0.01621462 0.042634226 0.06857153 -0.00095530425 0.071331084 -0.01601822
-0.010635471 0.029616304 -0.01604518 0.04370312 -8.027068e-05 -0.0029740136 0.019947438 0.006033141
0.01857826 -0.013174358 -0.012457298 -0.05414036 0.043318138 0.013281293 -0.014980574 0.04826623
0.045883324 -0.03317864 -0.014817216 -0.094656035 0.0023174188 -0.0037383973 -0.025829447 0.03018288
-0.015750136 0.052077215 0.015261094 -0.022085266 -0.030905573 -0.06143867 0.003525246 0.043381806
-0.024357727 -0.027806364 -0.03238417 -0.019646691 0.035912205 -0.0126384925 0.01700738 -0.00096252764
0.029603899 -0.061124 -0.053621627 0.0042231544 -0.027461996 -0.010601853 -0.003029079 -0.016609179
-0.007023263 0.008894234 -0.0224847 -0.023598133 -0.017960722 -0.019908186 -0.007864444 0.0012861541
-2.2199826e-38 -7.9247206e-38 -3.3993203e-38 2.4506762e-38 -9.2373954e-38 -8.3739287e-38 -6.342533e-39 3.8686986e-38
1.6897663e-38 2.3318669e-38 -8.851674e-38 4.2613862e-38 -1.2976486e-38 9.75738e-39 -7.035485e-39 -1.3634442e-38
-1.6403205e-38 -8.170754e-38 2.411052e-38 -7.1869353e-38 5.0215805e-38 -1.1864e-40 -7.749715e-38 7.694721e-38
-2.1600821e-38 -1.5020587e-38 2.8643544e-38 -1.0107112e-38 -2.5863822e-38 -1.4875e-41 -5.506392e-38 -7.9763725e-38
-3.3395596e-38 -7.009232e-38 -8.7796747e-38 -6.820743e-39 -1.4814752e-38 2.773316e-38 3.9304987e-38 -1.3528121e-38
6.491038e-38 -1.7672771e-38 1.772447e-38 6.369953e-38 -1.0860681e-38 5.238156e-39 -3.66702e-40 -2.2282927e-38
-3.3099272e-38 -1.7528042e-38 -1.9632915e-38 9.520852e-39 2.711897e-38 -3.694053e-38 -3.2160926e-38 1.8286802e-38
1.294947e-38 4.16852e-38 -2.354428e-38 1.9441081e-38 -6.6381207e-38 7.3219403e-38 -6.9867463e-38 -3.4111596e-38
-6.4500827e-38 4.8879824e-38 -8.270203e-39 -2.1522483e-38 -9.0381016e-38 -1.7561543e-38 -3.4540555e-38 2.5666362e-38
-2.7767452e-38 5.1605955e-38 -8.0105103e-38 -1.7783613e-38 -1.391963e-38 -2.1897156e-38 -2.29473e-39 -6.525691e-39
3.582286e-38 -6.893959e-38 1.6418732e-38 -2.0150749e-38 -2.4678738e-38 -1.2422266e-38 -6.9397485e-38 2.6896063e-38
-2.889754e-38 7.478584e-38 -4.207867e-39 -3.078447e-38 7.971031e-39 -1.4779767e-38 1.8120503e-38 1.8475005e-38
4.764179e-38 -2.1106021e-38 -3.6044468e-38 -2.0088959e-38 1.0773031e-38 -8.269968e-38 2.4829742e-38 -5.1126363e-38
3.93051e-39 2.9442822e-38 -2.616078e-38 3.6897523e-38 -2.656562e-38 -1.79223e-40 -5.775149e-39 -1.4766006e-38
-7.914936e-38 1.3296981e-38 -8.5398727e-38 -1.3203768e-38 -6.8146e-40 -6.199245e-38 -1.9652303e-38 9.52363e-38
-2.6130312e-38 -4.3997723e-38 4.817514e-39 -7.1360794e-38 4.5721432e-38 -6.6351135e-38 -2.2288016e-38 -1.6693161e-38
00000000: 6a81 aebc d636 87ba ccc8 10bc ce51 0b3c
00000010: 3e73 d63c c253 973d 7e2f dcbc 3334 8ebd
00000020: 6584 e53c c3d4 a3bb acac c0bc 8bfa b7ba
00000030: 02d0 f63c 3023 03bd 66f5 a13c af55 ef3c
00000040: 2b36 0bbd 8861 8cbc 0887 5fbd 22c4 60bc
00000050: de04 3bbd 0c82 1fbc 7a86 b6bb 7806 163c
00000060: 69b9 c03c ad98 9eb9 3756 abbb 7b27 7a3d
00000070: b48e 0bbd 1e6b 7c3d d006 9e3d 76f1 f83c
00000080: f570 613c cc06 0a3d 8631 61bd 6688 0abd
00000090: 7cc2 bf3c f452 0fbc 4eac 10bd b4e2 023d
000000a0: 7a70 bdbc 01d5 a4bc c100 983c f43e 1c3d
000000b0: ab26 bbbb 11a9 863c e819 113d 0970 a33d
000000c0: 8b9b e8bc ec21 883b ed24 ceb9 6d06 17bc
000000d0: 0691 9ebc cc37 2c3d 42a4 dd3c 6bc1 a13c
000000e0: ff9b 893c 4491 073d 32e8 893c f91a dabd
000000f0: bfb6 3bbb 9bd4 d83c 62ee f33c 346c 793d
00000100: 36e3 c63c 03d6 03bc 86d4 843c 3aa1 2e3d
00000110: 3b6f 8c3d 626d 7aba 0816 923d a438 83bc
00000120: 6640 2ebc e49d f23c 2e71 83bc 0b02 333d
00000130: fe56 a8b8 abe7 42bb cf68 a33c a8b1 c53b
00000140: 6f31 983c 43d9 57bc b219 4cbc 48c2 5dbd
00000150: 5c6e 313d c899 593c 1571 75bc cfb2 453d
00000160: 27f0 3b3d 53e6 07bd e9c3 72bc 06db c1bd
00000170: d6df 173b e6ff 74bb 4798 d3bc 1642 f73c
00000180: 6e06 81bc eb4e 553d ab09 7a3c 29ec b4bc
00000190: af2d fdbc 1da7 7bbd d007 673b 1fb1 313d
000001a0: db89 c7bc 2cca e3bc 43a5 04bd 19f2 a0bc
000001b0: ad18 133d ae11 4fbc 1053 8b3c 2352 7cba
000001c0: e083 f23c 295d 7abd 5aa2 5bbd 6362 8a3b
000001d0: fbf7 e0bc 65b3 2dbc 8383 46bb f90f 88bc
000001e0: 6623 e6bb 1fb9 113c d531 b8bc df50 c1bc
000001f0: 5d22 93bc 7e16 a3bc ded9 00bc 2c94 a83a
00000200: 15bc f180 3ebb d781 9c13 3981 716d 0501
00000210: 4077 fb81 c4f5 e381 6710 4580 caa1 5201
00000220: cfff b700 f6ea fd00 2af7 f081 0e03 6801
00000230: 2a4d 8d80 9b3f 6a00 129c 4c80 4777 9480
00000240: 769d b280 d86d de81 2945 0301 a1a5 c381
00000250: 4fb3 8801 b84a 0180 a2f7 d281 6178 d101
00000260: 4d36 eb80 498f a380 46f3 1b01 840e 6e80
00000270: e8d0 0c81 7729 0080 f4e5 9581 3423 d981
00000280: abd2 3581 38cf be81 6701 ef81 7545 4a80
00000290: 8051 a180 62fe 1601 28ff 5501 e64e 9380
000002a0: efb3 b001 7f70 c080 9c00 c100 1868 ad01
000002b0: 2943 7680 d909 3900 37fe 0380 bca3 f280
000002c0: a735 3481 0ddd be80 94c8 d580 43ac 6700
000002d0: 54a6 1301 961f 4981 ca19 2f81 2a20 c700
000002e0: db01 8d00 b0f4 6201 f02f 0081 d3b1 d300
000002f0: f3b4 b481 7a52 c701 8432 be81 a0b8 3981
00000300: 8496 af81 4410 8501 f60d 5a80 ed5b ea80
00000310: 600a f681 703a bf80 820e 3c81 b0bd 0b01
00000320: 2e2e 1781 1a7c 8c01 1c11 da81 7aa5 c180
00000330: 4492 9780 5d70 ee80 c6fc 1880 f90e 4780
00000340: c809 4301 e2ab bb81 bfc8 b200 176c db80
00000350: 245d 0681 3944 8780 fdea bc81 a46f 1201
00000360: 4b55 1d81 2096 cb01 d2d1 2d80 4a9b 2781
00000370: fecb 5600 faef a080 9750 c500 cc2c c900
00000380: 7bb1 8101 00d3 e580 a83e 4481 d8bf da80
00000390: d44e 7500 4421 e181 9c2f 0701 e02d 8b81
000003a0: aacc 2a00 4e4d 2001 ce6e 0e81 a4e3 4801
000003b0: 12a3 1081 9af3 0180 c4e2 3e80 9ec9 a080
000003c0: 0e77 d781 93ca 9000 3a7a e881 bcc6 8f80
000003d0: a26b 0780 6fc2 a881 a0fe d580 02a1 0102
000003e0: 5744 0e81 e08b 6f81 4575 3400 3743 c281
000003f0: 60ee 7801 fe9f b481 ecb1 f280 bec5 b580

encoder.2.bias f4 [128]
0.12884672 -2.101189e-37 0.006785428 0.05467925 0.11008191 0.102809064 0.10555596 0.078139395
0.07358293 0.112599835 0.064174205 -0.044536844 -1.6519547e-05 0.03344157 -0.07818991 -1.543899e-37
0.038999964 -0.0025318104 0.035225537 0.091360755 0.054440517 0.107990265 0.009914757 0.078946866
0.028982127 0.08267149 -1.2562603e-07 -0.02237688 -0.048345078 0.06586485 -0.05187986 0.037475288
0.12644918 0.07830578 0.12750402 0.012262099 0.11342158 -0.0064637023 0.04013287 0.117319256
0.009001591 0.017821833 -0.025144301 0.119832925 0.0035205411 9.742001e-06 0.069463894 0.11642306
0.09203329 0.0546849 0.13085994 0.00078994513 -0.018377503 0.094200335 -3.6169377e-11 0.122554235
0.040820066 -0.16140667 -0.029283233 -0.0052291765 -0.00016025733 -0.014329409 0.0027210966 0.060827743
-0.017441439 -0.017606586 0.0765337 0.025180565 -1.9484168e-14 0.10234635 -0.007026988 -2.3991304e-11
-0.000926287 0.12915346 0.09962413 -0.011795582 -0.01463967 -8.9978816e-24 0.08703476 0.14058363
-0.11652722 0.012830548 -0.029708149 -0.021976007 0.005451836 -0.00442038 0.02800432 0.08257931
-1.3585654e-05 0.030348452 0.08501795 -2.4309091e-37 0.07833877 0.008732834 0.00816089 -0.006161877
0.090882845 -0.00040962064 0.046522096 0.031849086 0.068443954 0.024130022 0.08053252 -3.2707906e-17
0.048325904 -0.012033521 0.13804801 -0.004353459 -2.8472572e-08 -0.06287278 -0.02508284 -7.3451366e-22
0.0020781225 0.060759522 -0.17517802 -0.030642709 0.09506792 0.08359298 0.07355848 0.03115746
0.033689715 -0.004903143 -5.8841382e-05 0.10218551 0.15899825 0.09726782 0.03863431 0.0896532
00000000: 65f0 033e e0ff 8e82 4c58 de3b 59f7 5f3d
00000010: a072 e13d 8f8d d23d b92d d83d 8c07 a03d
00000020: a6b2 963d be9a e63d c46d 833d 446c 36bd
00000030: 7593 8ab7 07fa 083d 0822 a0bd 0725 5282
00000040: 6dbe 1f3d bbec 25bb a748 103d 591b bb3d
00000050: 05fd 5e3d 002a dd3d 8171 223c e5ae a13d
00000060: ed6b ed3c ac4f a93d d2e3 06b4 b84f b7bc
00000070: 7d05 46bd 27e4 863d fa7f 54bd b07f 193d
00000080: e57b 013e c85e a03d 6a90 023e f9e6 483c
00000090: 9349 e83d 77cd d3bb 5d62 243d 1445 f03d
000000a0: 697b 133c 18ff 913c 6cfb cdbc f76a f53d
000000b0: e1b8 663b 9371 2337 1643 8e3d 376f ee3d
000000c0: f37b bc3d 46fd 5f3d 2600 063e 5214 4f3a
000000d0: 6b8c 96bc 1bec c03d 1913 1fae b7fd fa3d
000000e0: f132 273d ca47 25be 64e3 efbc 8359 abbb
000000f0: c00a 28b9 e6c5 6abc 6d54 323b 8326 793d
00000100: 59e1 8ebc b03b 90bc b3bd 9c3d 7947 ce3c
00000110: 6f7f afa8 f79a d13d a642 e6bb 9d07 d3ad
00000120: 11d2 72ba ce40 043e bc07 cc3d 4242 41bc
00000130: 3adb 6fbc 5a0b 2e99 483f b23d 28f5 0f3e
00000140: d3a5 eebd 3837 523c 815e f3bc 0707 b4bc
00000150: 51a5 b23b d6d8 90bb 5169 e53c 571f a93d
00000160: f1ed 63b7 519d f83c e41d ae3d 6970 a582
00000170: 1470 a03d 2914 0f3c 41b5 053c 92e9 c9bb
00000180: c920 ba3d 5ac2 d6b9 f48d 3e3d 3074 023d
00000190: 582c 8c3d 53ac c53c 3cee a43d aed6 16a4
000001a0: 62f1 453d 3f28 45bc 755c 0d3e 76a7 8ebb
000001b0: d993 f4b2 72c3 80bd 877a cdbc 3efe 5d9c
000001c0: 1c31 083b fade 783d de61 33be 6b06 fbbc
000001d0: f8b2 c23d cc32 ab3d d4a5 963d ee3d ff3c
000001e0: 3afe 093d 8baa a0bb 74cc 76b8 a346 d13d
000001f0: 70d0 223e 5a34 c73d 033f 1e3d 199c b73d

fc_mu.weight f4 [8, 128]
-0.0031925563 -1.2643036e-38 0.003375394 -0.009381091 -0.0094805285 -0.0026923197 -0.008311786 -0.0033590724
-5.621332e-05 0.0041917665 -0.00027986616 0.0029982103 9.213183e-09 -0.0013872895 0.0011019439 -9.0150003e-38
0.0011957262 -1.7532175e-08 0.00076446956 -0.0006987618 0.01196925 0.0046564704 0.005554108 -0.008941443
0.0009830333 0.008546977 1.864943e-19 0.00787435 0.003939996 -0.0013796441 -0.001787879 0.00041519525
-0.0016498727 0.0012629619 -0.012491782 0.0072296723 -0.0017183878 0.0032644446 -0.0001291572 -0.0006904975
0.0026357814 -0.0001250288 0.0012374993 -0.0069818273 9.14487e-08 3.3225967e-07 -0.0031988686 -0.0004973815
0.004804974 -0.007443257 0.005649948 0.003612675 -0.0037044222 0.0120695615 -4.3100512e-16 -0.0030971456
0.00069902756 0.0024903542 -0.0036913203 0.0031091897 2.504039e-37 -0.003441358 0.002388689 -0.0028885046
-0.0032904092 -0.008379128 0.0015112899 0.006120161 -2.2782027e-23 -0.00034961067 -0.0049766093 -2.437105e-37
-5.3012874e-09 0.012617609 0.0031944148 -0.002099047 -0.00086788693 -3.6696224e-37 -0.0068667713 0.004300182
-0.0010919734 0.0018444257 0.017458241 0.004850801 -0.008010918 -0.0032261063 -1.426859e-06 0.0007027099
-2.6057951e-17 -0.0019721251 -0.00015203355 -2.1248416e-38 -0.0012372904 -0.0064895917 -0.011134302 -9.6557564e-08
-0.0010341106 -2.5515636e-37 0.0038806105 -0.0057228026 -0.0037470248 0.0124246515 -0.002371958 -1.9850997e-19
0.0030151973 -0.0015516849 0.0015406534 0.00652449 1.4331176e-37 0.003282751 -0.013620746 -5.764701e-38
4.6474695e-05 0.007884928 0.0019342721 -0.016059335 0.003592883 -0.00069761823 -0.0064940955 0.0048574875
0.0061844974 -0.003491318 2.0551678e-11 -0.0065268963 -0.0010011072 0.011218326 0.0047677034 -0.0004989141
0.003467914 -4.6804613e-38 0.005038486 0.017916223 -0.025276043 -2.5627724e-06 -0.013310421 0.001206633
0.0006138842 0.01003076 0.00097287 -0.009234972 4.970328e-06 -0.00967021 -0.0026152353 -6.773594e-38
0.007817858 -6.461489e-08 0.00079150934 -0.005503814 0.0068705413 -0.0014877726 0.0040452285 0.005544767
-0.019814286 0.0028893242 4.2335184e-09 -0.0013592825 -0.0013270365 -0.0019078774 -0.0031119788 0.003463769
0.0051243054 -0.0012562848 -0.0073966435 0.0144471945 -0.0021028446 -0.008223286 -0.0016624145 0.0040373593
0.005332284 -0.0007975608 -0.0012021213 0.0009480699 -0.0002465078 9.1848534e-07 0.00018811342 -0.00043484845
-0.009985088 -0.004709581 -0.004246515 -0.0073856916 0.0005609859 -0.015968524 -2.0139858e-10 -0.0139163695
-0.007860444 0.0010888118 0.0056169694 0.0039736875 1.0740234e-37 -0.0017152255 -0.0042109536 0.0015338344
0.009220003 0.01045933 0.0008276306 0.0024258122 -2.9200486e-13 -0.010172257 0.017103177 -7.191091e-38
5.193426e-06 -0.007993672 0.004260056 0.00924419 -0.0009244272 -5.9542853e-38 0.00235284 0.01187027
-0.0007386456 0.006594347 -0.006133291 -0.008149019 0.0032253119 0.0018764983 0.0007744885 0.0031102793
5.944148e-25 0.004071726 -0.002879613 -8.386518e-38 -0.0011070998 0.0027969428 0.012300214 3.3927125e-05
-0.0026107759 -1.1951842e-33 0.0038050597 -0.0035472189 -0.0039723865 -0.016397035 0.004448115 -2.6517118e-11
-9.575665e-05 -0.00020691835 0.0032899028 0.009093269 2.6877575e-33 -0.0021268555 0.011321355 -6.1322407e-38
0.0024098135 -0.007274916 0.0021753828 0.014359532 -0.0010403963 -0.0023581798 -0.00782641 0.0021487586
0.0073786443 -0.011795885 -2.7662221e-05 -0.020142006 0.0018046414 -0.0013610197 -0.005599679 1.5673668e-06
00000000: 353a 51bb a4ab 8980 b735 5d3b 26b3 19bc
00000010: 3854 1bbc a171 30bb 282e 08bc e223 5cbb
00000020: 98c6 6bb8 165b 893b 00bb 92b9 9f7d 443b
00000030: 0248 1e32 b6d5 b5ba 1a6f 903a 6269 f581
00000040: eab9 9c3a a999 96b2 af66 483a 1c2d 37ba
00000050: ac1a 443c 4e95 983b 3cff b53b 217f 12bc
00000060: 20d9 803a 9f08 0c3c 722c 5c20 6b03 013c
00000070: 151b 813b 2dd5 b4ba 4457 eaba 90ae d939
00000080: 8b40 d8ba f889 a53a 55aa 4cbc e3e6 ec3b
00000090: 873b e1ba 4bf0 553b 5f6e 07b9 8102 35ba
000000a0: 13bd 2c3b 2a1a 03b9 9633 a23a d0c7 e4bb
000000b0: 7462 c433 6c61 b234 1ca4 51bb b562 02ba
000000c0: 0b73 9d3b 91e6 f3bb 3323 b93b a1c2 6c3b
000000d0: e4c5 72bb 69bf 453c 2175 f8a5 7bf9 4abb
000000e0: f23e 373a 3635 233b 14ea 71bb 8cc3 4b3b
000000f0: 836a aa02 6888 61bb 8d8b 1c3b 114d 3dbb
00000100: e8a3 57bb 9c48 09bc 7916 c63a a28b c83b
00000110: 9155 dc99 f34b b7b9 d312 a3bb 5cdc a582
00000120: 9e26 b6b1 17ba 4e3c 6359 513b 2a90 09bb
00000130: e882 63ba d7bd f982 a702 e1bb 8be8 8c3b
00000140: 8c20 8fba a8c0 f13a 9604 8f3c 78f3 9e3b
00000150: 3a40 03bc 156d 53bb 8082 bfb5 1036 383a
00000160: 9957 f0a3 c53e 01bb 326b 1fb9 f05f e780
00000170: 942c a2ba a4a6 d4bb a66c 36bc 155b cfb3
00000180: fe8a 87ba 82a6 ad82 d751 7e3b 5986 bbbb
00000190: a590 75bb c490 4b3c da72 1bbb f55b 6aa0
000001a0: 9e9a 453b e861 cbba c0ef c93a 64cb d53b
000001b0: dc10 4302 6c23 573b 8d29 5fbc 1aee 9c81
000001c0: d3ed 4238 c92f 013c 6787 fd3a de8e 83bc
000001d0: 9376 6b3b 5ee0 36ba 6ccc d4bb 8f2b 9f3b
000001e0: 53a7 ca3b 99ce 64bb 44c6 b42d 93df d5bb
000001f0: 9537 83ba 12cd 373c 653a 9c3b 8fc9 02ba
00000200: f145 633b 1cd4 7e81 e219 a53b 0bc5 923c
00000210: b40f cfbc 18fc 2bb6 f413 5abc e327 9e3a
00000220: 12ed 203a 0f58 243c 3308 7f3a 484e 17bc
00000230: cbc6 a636 cd6f 1ebc 5e64 2bbb 1065 b881
00000240: 7916 003c 69c2 8ab3 4b7d 4f3a 5759 b4bb
00000250: 4722 e13b 5d01 c3ba d68d 843b e0b0 b53b
00000260: 9251 a2bc d15a 3d3b 6c76 9131 f429 b2ba
00000270: f5ef adba be11 faba 57f2 4bbb 6700 633b
00000280: cae9 a73b eca9 a4ba 8b5f f2bb edb3 6c3c
00000290: e1cf 09bb f6ba 06bc 60e5 d9ba d34b 843b
000002a0: 71ba ae3b 6613 51ba 7f90 9dba e587 783a
000002b0: b83d 81b9 d58d 7635 5040 4539 5ffc e3b9
000002c0: 7f98 23bc d452 9abb 5a26 8bbb ac03 f2bb
000002d0: 200f 133a 6cd0 82bc a970 5daf 7c01 64bc
000002e0: 17c9 00bc 76b6 8e3a 8e0e b83b b535 823b
000002f0: 4130 1202 6bd1 e0ba 0afc 89bb f10a c93a
00000300: 7f0f 173c 9c5d 2b3c 59f5 583a 60fa 1e3b
00000310: 5662 a4aa 8aa9 26bc f61b 8c3c 97c2 c381
00000320: 3143 ae36 e4f7 02bc f197 8b3b f174 173c
00000330: 4255 72ba 5017 a281 1b32 1a3b 857b 423c
00000340: aba1 41ba 6415 d83b c6f9 c8bb 7783 05bc
00000350: c15f 533b d6f4 f53a 0b07 4b3a d4d5 4b3b
00000360: 64f6 3717 1d6c 853b e4b7 3cbb 804d e481
00000370: 1b1c 91ba ea4c 373b d686 493c f94c 0e38
00000380: 8d19 2bbb 8395 c688 4f5e 793b 7578 68bb
00000390: cb2a 82bb 1353 86bc 7ec1 913b 3e3f e9ad
000003a0: f6d0 c8b8 39f8 58b9 699b 573b effb 143c
000003b0: 484a 5f09 b762 0bbb 347d 393c 7bef a681
000003c0: f6ed 1d3b 6b62 eebb de90 0e3b 3e44 6b3c
000003d0: e85d 88ba b18b 1abb 583a 00bc 30d2 0c3b
000003e0: 8ec8 f13b 8743 41bc 2b0c e8b7 d900 a5bc
000003f0: b889 ec3a 3e64 b2ba 837d b7bb 505e d235

fc_mu.bias f4 [8]
0.0030600915 0.002697907 0.008414717 -0.0056642327 0.0009415959 -0.02468804 -0.019224001 -0.04737571
00000000: d18b 483b 5ecf 303b e2dd 093c 079b b9bb
00000010: 6ed5 763a 933e cabc a77b 9dbc 080d 42bd

fc_logvar.weight f4 [8, 128]
-0.00025877968 1.236461e-39 -8.6322834e-05 1.1076734e-05 0.00052221335 -4.7530564e-05 0.0002836224 -0.00047369153
9.132642e-05 0.00013953126 -0.0005456196 0.00053281855 -2.6035659e-17 0.00032603412 -0.00025387254 -1.685588e-39
-0.00024925056 -7.577047e-09 4.8594644e-05 0.00015172019 0.00038204333 -0.00013941455 9.478722e-05 -0.0005710281
-0.0002610428 -5.1536354e-06 -1.4448951e-37 -0.00053591415 -1.27434105e-05 -0.00015790212 2.9866693e-05 -7.763681e-05
0.00014818502 -0.0003789308 -0.0003428769 5.7212328e-05 -4.9455146e-05 4.187045e-05 6.214468e-05 -8.0337224e-05
3.3461092e-05 -0.00023135485 0.00047662607 -0.0005694386 -2.125936e-06 -2.0996544e-07 9.253808e-06 0.0004131336
-5.0030645e-05 0.0003047037 -0.0004506338 -0.0004045166 -0.00011467705 -2.8798397e-05 3.2193054e-37 -4.0833187e-05
3.6282472e-05 0.00040258947 -4.3747295e-05 0.0001745947 -1.1614066e-37 0.00019214457 0.00031633166 -0.00057804585
-0.00034633148 0.00013566173 -0.0001351586 0.00013065843 2.0619224e-37 -0.00013036768 0.0003110927 -1.718188e-39
-1.1937117e-30 -0.00041959417 -1.867138e-06 -0.00012856897 -0.0002257613 2.7912682e-37 -0.00040086766 -0.00011756663
2.2389073e-05 0.00013186275 0.00021303212 -6.431469e-05 0.00012759445 -6.262378e-05 0.00039014747 -0.0003450747
-5.29851e-39 -7.701761e-05 0.00023503545 5.205662e-38 -0.0005960237 -4.3055727e-05 0.0006417522 -2.3055569e-09
-0.00014793935 -2.677545e-37 0.00016887237 0.0002731554 -0.00024370434 -0.00072573934 -0.00013920243 -1.5361545e-37
0.00039166876 0.00024385212 0.0002795403 -6.600183e-05 -1.1948704e-38 0.00042132256 0.00025291424 -5.7595e-40
-9.924775e-05 -0.0001272084 0.001109551 0.0003004458 6.2368754e-06 -0.00023535524 0.00010483252 0.000102315964
-0.00013131971 0.00021914282 -5.6054263e-28 9.47733e-05 -2.1945561e-05 -0.00073448836 1.1813677e-05 0.00011360935
-0.00011767093 4.823908e-38 -7.5091375e-05 -0.0005477669 -0.00027948795 -0.00027109458 -0.00033444163 -0.00016863155
0.00015117762 -8.1315215e-05 0.00017891637 -0.0005752161 -5.373339e-17 -4.790711e-05 0.00018191687 -9.885183e-39
-0.0005178995 4.881878e-09 0.00021005819 0.0002865468 -0.000118332835 0.00051486143 -0.00028064233 0.00082483556
0.0004347819 -0.0001040629 -2.4121982e-35 -0.00027965754 -0.00042997216 0.00029552128 -9.832269e-05 3.5408688e-05
-0.000327927 -0.0007857426 -0.00029956189 -4.1658895e-05 0.00027701238 0.00013480881 -0.00014785546 -0.00030798328
0.00041689133 -5.3143034e-05 -0.0003129946 0.00011221896 6.4721706e-07 2.8252873e-07 0.0003458258 -0.0002152984
0.0001642468 -0.00023934929 7.8495694e-05 -9.473854e-06 -2.11027e-05 6.098368e-05 3.0582362e-31 6.928942e-05
0.0002581755 3.4189474e-05 -2.5910238e-05 0.00042344286 -7.4002477e-38 -0.00041911216 0.0005532246 0.0004779839
7.8237324e-05 -0.00039001682 -0.00034777887 -2.6072285e-05 4.0882445e-37 0.0004306813 -4.5688033e-05 5.181613e-38
1.9436675e-13 -0.00020899731 9.9057965e-05 -0.00054139446 -0.000276382 -3.945898e-37 4.594704e-05 0.00030167913
0.00024212315 0.00021687108 0.001278574 -0.00016438543 -0.0017808139 -0.0002931583 0.00021461846 0.0002555081
9.736391e-38 0.00017711539 -0.00019834259 -2.0843255e-38 -0.00046806718 6.6732055e-06 0.00025110037 2.4493005e-08
0.00027149337 -2.780768e-37 -0.00022480331 -0.00047115484 -0.0002740296 -0.0005132632 -0.0003997123 -7.044284e-24
0.00016677068 0.00033447228 -0.00024909788 -0.00026269435 3.6393574e-38 -0.00036152962 9.8230856e-05 -1.7404578e-38
2.0130741e-05 7.522175e-05 0.00024980374 0.00019601679 -9.651061e-05 0.00019663855 -0.0003596263 -0.00046399297
-0.00021114806 0.00021630475 -2.3061205e-13 -0.00013976476 4.728273e-05 1.7541599e-05 0.00039226605 0.00014210727
00000000: d2ac 87b9 c076 0d00 3808 b5b8 36d6 3937
00000010: 25e5 083a 8e5b 47b8 27b3 9439 cd59 f8b9
00000020: 8086 bf38 234f 1239 e907 0fba d9ac 0b3a
00000030: f622 f0a3 8fef aa39 321a 85b9 bc5a 1280
00000040: d8ad 82b9 352c 02b2 1ad2 4b38 1417 1f39
00000050: fd4c c839 cf2f 12b9 80c8 c638 0cb1 15ba
00000060: 92dc 88b9 64ed acb6 3fab 4482 977c 0cba
00000070: 88cc 55b7 8792 25b9 3c8a fa37 f2d0 a2b8
00000080: 1d62 1b39 3bab c6b9 29c4 b3b9 45f7 6f38
00000090: 0f6e 4fb8 0e9e 2f38 ac53 8238 b87a a8b8
000000a0: 9358 0c38 d897 72b9 abe3 f939 6146 15ba
000000b0: 4dab 0eb6 dc72 61b4 cd40 1b37 da99 d839
000000c0: ffd7 51b8 a3c0 9f39 0b43 ecb9 4d15 d4b9
000000d0: c67e f0b8 1694 f1b7 3618 db02 4d44 2bb8
000000e0: 022e 1838 a512 d339 4d7d 37b8 6813 3739
000000f0: 1d15 1e82 6a7a 4939 51d9 a539 0088 17ba
00000100: d393 b5b9 6b40 0e39 5cb9 0db9 5b01 0939
00000110: c153 8c02 4fb3 08b9 281a a339 9cb5 1280
00000120: d8b0 c18d fafc dbb9 609a fab5 78d0 06b9
00000130: 56ba 6cb9 c0f6 bd02 8c2b d2b9 1b8e f6b8
00000140: 2bd0 bb37 a344 0a39 6061 5f39 b0e0 86b8
00000150: e0ca 0539 e354 83b8 b58c cc39 24eb b4b9
00000160: 17b2 3980 8484 a1b8 d973 7639 2bb6 8d01
00000170: 793e 1cba bc96 34b8 433b 283a c96f 1eb1
00000180: 2b20 1bb9 6a39 b682 5513 3139 4c36 8f39
00000190: e38a 7fb9 8b3f 3eba def6 11b9 2c17 5182
000001a0: e458 cd39 8eb2 7f39 448f 9239 766a 8ab8
000001b0: 201c 8280 f5e4 dc39 9399 8439 8445 0680
000001c0: 3b23 d0b8 3f63 05b9 5b6e 913a 2785 9d39
000001d0: 5a46 d136 b1c9 76b9 88d9 db38 7792 d638
000001e0: deb2 09b9 b4c9 6539 9fa4 3192 07c1 c638
000001f0: bc17 b8b7 ae8a 40ba 5b33 4637 8e41 ee38
00000200: 19c6 f6b8 bb51 8301 607a 9db8 0498 0fba
00000210: 3d88 92b9 b321 8eb9 ff57 afb9 b0d2 30b9
00000220: 6f85 1e39 c687 aab8 7f9b 3b39 19ca 16ba
00000230: 31cd 77a4 deef 48b8 f0c0 3e39 dea3 6b80
00000240: a6c3 07ba 74bd a731 1143 5c39 a93b 9639
00000250: 7529 f8b8 c4f7 063a 2d23 93b9 c739 583a
00000260: 70f3 e339 583c dab8 2441 0086 009f 92b9
00000270: e36d e1b9 32f0 9a39 9832 ceb8 ca83 1438
00000280: 9eed abb9 4bfa 4dba 840e 9db9 e6ba 2eb8
00000290: f93b 9139 775b 0d39 a609 1bb9 d178 a1b9
000002a0: 3592 da39 e6e5 5eb8 6d19 a4b9 1857 eb38
000002b0: 6bbc 2d35 74ae 9734 f44f b539 b9c1 61b9
000002c0: aa39 2c39 d6f9 7ab9 0e9e a438 e5f1 1eb7
000002d0: b405 b1b7 bac8 7f38 aa7d c60c 794f 9138
000002e0: bb5b 8739 ab66 0f38 d059 d9b7 8a01 de39
000002f0: 3374 c981 48bc dbb9 4606 113a ea99 fa39
00000300: 5813 a438 2c7b ccb9 1756 b6b9 ceb5 dab7
00000310: a21d 0b03 11cd e139 27a1 3fb8 920e 8d01
00000320: 67d6 5a2a 4a26 5bb9 57bd cf38 5eec 0dba
00000330: 5de7 90b9 9f45 0683 42b7 4038 b02a 9e39
00000340: 70e2 7d39 e367 6339 d395 a73a e15e 2cb9
00000350: 336a e9ba 0ab3 99b9 340b 6139 b7f5 8539
00000360: 5f86 0402 0db8 3939 2ffa 4fb9 84f6 e280
00000370: ea66 f5b9 66ea df36 1fa6 8339 b064 d232
00000380: 3957 8e39 d03f bd82 2eb9 6bb9 5505 f7b9
00000390: a1ab 8fb9 838c 06ba 7a90 d1b9 9b41 0899
000003a0: 2adf 2e39 1c5c af39 5a99 82b9 3dba 89b9
000003b0: 3d25 4601 af8b bdb9 4a01 ce38 e284 bd80
000003c0: 70de a837 5fc0 9d38 17f8 8239 db89 4d39
000003d0: bd65 cab8 c230 4e39 3a8c bcb9 1544 f3b9
000003e0: a067 5db9 ddcf 6239 b3d2 81aa d18d 12b9
000003f0: 7251 4638 4c26 9337 0fa9 cd39 a102 1539

fc_logvar.bias f4 [8]
0.0015635593 0.00044696775 0.002884534 -0.00096783636 -0.003352082 -0.00084623427 -0.00063493673 -0.23954456
00000000: 58f0 cc3a ff56 ea39 730a 3d3b 66b6 7dba
00000010: 9bae 5bbb d2d5 5dba e271 26ba 2b4b 75be

decoder.0.weight f4 [128, 53]
0.0013117081 0.003730106 0.00041298225 0.011353453 -0.0033479445 0.0012140126 -0.0055635767 0.28507382
0.062032416 -0.018814826 0.12633193 0.03412331 0.022821145 0.02865253 0.05087953 0.041093454
-0.04966057 -0.036383018 0.07013945 -0.037915964 0.08702307 0.067922615 -0.00679666 -0.002801474
0.02435276 0.018491412 -0.041963987 -0.06832808 0.008378687 -0.05501254 -0.005813275 -0.05182805
0.0071865898 0.091216065 0.006752568 -0.004252011 0.09044642 0.0013012028 -0.0042508803 0.00024208357
0.0644939 0.12526046 -0.046474252 0.01062034 -0.0039675296 0.043842103 0.11744905 0.027258268
0.0069388514 -0.0993763 -0.018319435 -0.023787022 -0.051579442 -0.005028455 -0.004278868 0.00097532815
-0.0036830262 -0.007899427 -0.00093139696 -0.0015924601 0.18688828 0.066026114 0.03324808 0.120029986
-0.1225452 -0.12354197 -0.044405866 -0.005254801 0.01607783 0.07235261 -0.07765126 0.053989854
-0.11106158 -0.05271008 -0.05249512 -0.008096582 -0.0245295 -0.0049327635 -0.012182636 0.024895774
-0.0434774 0.0020921344 -0.016665064 0.067687795 -0.017336018 -0.03175124 0.06179356 -0.09716939
-0.054493856 0.00445036 -0.0014349545 6.5448407e-38 0.035472672 0.091166645 0.09030236 0.0036779367
0.0026455554 -4.3945286e-38 -5.9165522e-08 0.052469652 0.062951036 0.090100944 0.09248438 0.008367063
0.0038995065 -4.7630107e-38 -0.0011924275 0.00035244753 -0.002205336 0.0002476438 -0.005402154 0.0040796394
0.00235178 0.32821605 0.01804909 0.025719106 0.01234514 -0.024530713 0.0871892 0.10470821
0.043033738 -0.03203985 0.001084189 0.0061596385 0.066512726 -0.021983687 -0.021529997 0.019524718
-0.04500289 0.04051779 -0.015026071 -0.04930369 -0.022271954 -0.015186656 -0.034130298 0.07037159
-0.03514398 -0.071079604 -0.03146743 0.11066673 -0.107073896 -0.12434339 0.08085962 -0.07030086
0.0377043 -0.075930364 -0.0505876 -0.11263627 -0.09557596 0.003908257 -0.010209054 -0.052293617
0.04353392 0.023861 -0.04284857 0.10362507 0.023987396 0.056476485 -0.0014247863 0.0007073755
0.0002812949 -0.0020613095 0.0016795915 0.0031085007 8.137667e-05 0.000951515 -0.09839213 -0.06845133
-0.012518454 -0.44182837 0.06560189 0.028662493 0.0432853 0.007190818 -0.067961164 0.07817578
-0.025902117 0.021015966 -0.021352874 0.049823314 -0.056385547 0.027582854 -0.03853512 0.0039326968
0.07308271 -0.052712295 -0.012982304 0.085795715 -0.0077913855 -0.08594457 -0.010235155 -0.05563998
0.07380671 0.03408124 -0.10164762 -0.0126229655 -0.02275122 0.004495555 -0.07909183 0.09696282
-0.06790095 0.028177869 0.02329716 -0.0012382804 -0.088999085 0.08743767 0.043437023 0.0031554273
0.09937598 0.025543746 -0.025058517 -0.014605342 0.0027159366 -0.0019507552 0.000113132795 -0.0018975666
0.00042433024 0.0004858895 -0.0029901506 0.38283494 0.037125193 0.03631308 0.02828938 -0.01297684
0.1019473 -0.051262487 0.07768653 -0.047743507 0.02974428 -0.04002214 0.00093125436 -0.09285361
-0.03445199 0.054333284 0.011805984 -0.0117682405 -0.010074774 -0.027373802 -0.056134008 0.058854446
0.103081696 0.06861138 -0.09220857 -0.027318554 -0.003407543 0.18635249 -0.0061492566 -0.035288602
-0.08680958 0.04374986 0.009523235 -0.08490737 0.022011533 0.044107664 0.016136376 0.024057029
00000000: 9fed ab3a cb74 743b 8a85 d839 d503 3a3c
00000010: 3069 5bbb 811f 9f3a aa4e b6bb 32f5 913e
00000020: b415 7e3d 8d21 9abc 285d 013e e2c4 0b3d
00000030: 69f3 ba3c b6b8 ea3c 0e67 503d 9c51 283d
00000040: e268 4bbd 5c06 15bd 46a5 8f3d c54d 1bbd
00000050: 2739 b23d 031b 8b3d 84b6 debb ef98 37bb
00000060: 707f c73c 4d7b 973c 6ee2 2bbd 98ef 8bbd
00000070: c346 093c d454 61bd 497d bebb a649 54bd
00000080: 7c7d eb3b 7dcf ba3d a544 dd3b 7454 8bbb
00000090: f93b b93d 1f8d aa3a f84a 8bbb d0d7 7d39
000000a0: 6115 843d 4744 003e c95b 3ebd ef00 2e3c
000000b0: 0d02 82bb c793 333d 2189 f03d bb4c df3c
000000c0: 4e5f e33b cd85 cbbd a412 96bc 00dd c2bc
000000d0: f744 53bd bdc5 a4bb bf35 8cbb 2aad 7f3a
000000e0: ed5e 71bb 996c 01bc fe28 74ba 18ba d0ba
000000f0: a45f 3f3e b338 873d 242f 083d 48d2 f53d
00000100: faf8 fabd 9303 fdbd ede2 35bd 7730 acbb
00000110: a7b5 833c 9b2d 943d a007 9fbd 7724 5d3d
00000120: 4174 e3bd 86e6 57bd 1f05 57bd 87a7 04bc
00000130: 17f2 c8bc 05a3 a1bb ae99 47bc 39f2 cb3c
00000140: 5c15 32bd 311c 093b 2c85 88bc e69f 8a3d
00000150: 4404 8ebc 970d 02bd 3e1b 7d3d bf00 c7bd
00000160: f334 5fbd 53d4 913b 1515 bcba e22a b201
00000170: cb4b 113d 94b5 ba3d 72f0 b83d 8a09 713b
00000180: 0e61 2d3b ca42 6f81 2e1d 7eb3 6bea 563d
00000190: 79ec 803d d886 b83d 7368 bd3d 0116 093c
000001a0: dd8e 7f3b 57a9 8181 3a4b 9cba b5c8 b839
000001b0: 6687 10bb 30d6 8139 8d04 b1bb 7fae 853b
000001c0: 5220 1a3b ef0b a83e afdb 933c e0b0 d23c
000001d0: 4543 4a3c a2f4 c8bc 4090 b23d 4271 d63d
000001e0: 2544 303d 383c 03bd 591b 8e3a cbd6 c93b
000001f0: d337 883d 2217 b4bc ad5f b0bc 4df2 9f3c
00000200: f354 38bd fbf5 253d e92f 76bc abf2 49bd
00000210: ac73 b6bc 74d1 78bc 36cc 0bbd fb1e 903d
00000220: 22f3 0fbd 2f92 91bd fee3 00bd 3da5 e23d
00000230: 8f49 dbbd bfa7 febd ba99 a53d e6f9 8fbd
00000240: d36f 1a3d 6181 9bbd f134 4fbd d8ad e6bd
00000250: 54bd c3bd d610 803b e043 27bc d531 56bd
00000260: a050 323d 2578 c33c fb81 2fbd 6139 d43d
00000270: 3781 c43c e353 673d e5bf baba 2b6f 393a
00000280: c37a 9339 0917 07bb bd25 dc3a fdb7 4b3b
00000290: c4a8 aa38 176f 793a d081 c9bd 3630 8cbd
000002a0: 341a 4dbc 5437 e2be 495a 863d 9bcd ea3c
000002b0: ed4b 313d f4a0 eb3b 392f 8bbd a01a a03d
000002c0: ad30 d4bc ad29 ac3c 39ec aebc 8813 4c3d
000002d0: 88f4 66bd 70f5 e13c 01d7 1dbd dadd 803b
000002e0: 63ac 953d d9e8 57bd bbb3 54bc aab5 af3d
000002f0: e14e ffbb b503 b0bd 5ab1 27bc bfe6 63bd
00000300: f927 973d c598 0b3d a12c d0bd 8ed0 4ebc
00000310: c460 babc 734f 933b e6fa a1bd 7194 c63d
00000320: a70f 8bbd 46d5 e63c b0d9 be3c cc4d a2ba
00000330: 2745 b6bd 8512 b33d 05eb 313d 49cb 4e3b
00000340: a285 cb3d 1e41 d13c 8547 cdbc 3f4b 6fbc
00000350: dbfd 313b 7cb0 ffba b541 ed38 c5b7 f8ba
00000360: a478 de39 fcbe fe39 67f6 43bb f102 c43e
00000370: 9610 183d 06bd 143d 21bf e73c d09c 54bc
00000380: bfc9 d03d 9df8 51bd 1e1a 9f3d b28e 43bd
00000390: 47aa f33c 41ee 23bd 6c1f 743a 092a bebd
000003a0: 881d 0dbd 948c 5e3d e36d 413c 94cf 40bc
000003b0: aa10 25bc 063f e0bc c6ec 65bd 5c11 713d
000003c0: 7f1c d33d 2084 8c3d d9d7 bcbd 29cb dfbc
000003d0: 1651 5fbb 30d3 3e3e b47f c9bb c88a 10bd
000003e0: 39c9 b1bd 0e33 333d 5807 1c3c eae3 adbd
000003f0: 8851 b43c 3daa 343d 6f30 843c 3f13 c53c

decoder.0.bias f4 [128]
0.08194272 0.06735455 0.046124406 0.0040943613 -0.056340516 0.030892855 -0.063899435 -0.040962216
-0.06861979 -0.019315142 0.003477506 -0.0016361488 -0.0013550635 0.09799751 0.18307082 -0.06741877
0.0682263 0.06083884 0.11024867 0.20413451 -0.008844207 -0.02932362 -0.040235654 0.101131305
-0.001850225 0.08607447 -0.06660081 -0.041644365 0.09663301 -0.017816644 -0.043580793 0.020528102
0.034853682 -0.08877763 -0.06455609 0.094986044 0.08922656 -0.11490038 0.11971867 -0.057461552
-0.060617004 0.010018902 0.15925445 -0.112237774 -0.00093314156 0.00944036 -0.07743411 -0.052361824
-0.06244063 0.100530095 -0.077980325 -0.05179992 -0.0004216618 -0.06504543 -0.056044083 0.12653698
0.026216589 -0.11213741 -0.031621873 -0.07945544 -0.030590402 0.008850415 0.073579445 0.050366987
-0.11162442 0.035305277 0.022711018 0.1126752 0.16155504 -0.039682493 -0.0010924622 0.04710437
0.09408389 -0.045017477 -0.079692245 0.13889998 0.00045519194 -0.012829402 0.06034218 0.1312481
0.077286534 -0.076035514 -0.051049694 0.050745428 -0.008675468 -0.14781225 -0.07142026 -0.086278
0.017748006 0.02178842 0.030366795 -0.08614789 -0.030862482 -0.11566508 -0.096656695 -0.07609756
0.058064908 -0.07706379 0.13200328 -0.07568072 -0.020442283 0.15637167 -0.10921424 -0.13562454
-0.19042295 -0.06838991 -0.013654082 0.056656815 -0.03874214 -0.054016892 -0.045803193 0.053894866
-0.07971569 -0.119182296 -0.015382231 -0.018560188 0.14739247 0.1715999 0.038834397 -0.16097715
-0.063735686 0.09243175 0.07358297 -0.0125237685 0.011482646 -0.0132585075 -0.037011232 0.070228115
00000000: 96d1 a73d 2ff1 893d f2ec 3c3d fe29 863b
00000010: 50c5 66bd 0313 fd3c b5dd 82bd ffc7 27bd
00000020: 8888 8cbd ca3a 9ebc dfe6 633b 0b74 d6ba
00000030: 639c b1ba ebb2 c83d eb76 3b3e da12 8abd
00000040: 3bba 8b3d 2632 793d 0eca e13d a308 513e
00000050: 4be7 10bc 1738 f0bc 24ce 24bd ee1d cf3d
00000060: 4083 f2ba d047 b03d 0166 88bd 4893 2abd
00000070: 87e7 c53d 36f4 91bc c681 32bd 8d2a a83c
00000080: bcc2 0e3d 0cd1 b5bd fc35 84bd 0b88 c23d
00000090: 6abc b63d e450 ebbd 102f f53d ce5c 6bbd
000000a0: 8949 78bd 5226 243c 9913 233e ebdc e5bd
000000b0: 129e 74ba bdab 1a3c c695 9ebd 5a79 56bd
000000c0: bfc1 7fbd b9e2 cd3d 26b4 9fbd 272c 54bd
000000d0: 7d12 ddb9 8a36 85bd 7b8e 65bd e992 013e
000000e0: 2cc4 d63c 4ca8 e5bd f085 01bd 89b9 a2bd
000000f0: b998 fabc 5501 113c d2b0 963d 9d4d 4e3d
00000100: 589b e4bd 449c 103d 750c ba3c 41c2 e63d
00000110: af6e 253e 1c8a 22bd f330 8fba 83f0 403d
00000120: 0eaf c03d 3f64 38bd b035 a3bd cc3b 0e3e
00000130: d4a6 ee39 6a32 52bc 5d29 773d e765 063e
00000140: 6748 9e3d 82b8 9bbd 7c19 51bd 70da 4f3d
00000150: 8d23 0ebc 185c 17be c944 92bd 85b2 b0bd
00000160: 4464 913c a17d b23c c9c3 f83c 4e6e b0bd
00000170: 51d3 fcbc d0e1 ecbd f2f3 c5bd 0ad9 9bbd
00000180: 78d5 6d3d 9fd3 9dbd de2b 073e 7efe 9abd
00000190: 9376 a7bc e51f 203e b7ab dfbd 29e1 0abe
000001a0: 3cfe 42be 0210 8cbd 5fb5 5fbc fa10 683d
000001b0: 14b0 1ebd d140 5dbd 219c 3bbd ddc0 5c3d
000001c0: fb41 a3bd d915 f4bd c105 7cbc 890b 98bc
000001d0: 0dee 163e e2b7 2f3e d110 1f3d 32d7 24be
000001e0: db87 82bd db4c bd3d abb2 963d 7e30 4dbc
000001f0: b521 3c3c 363a 59bc 1799 17bd c2d3 8f3d

decoder.2.weight f4 [128, 128]
0.03135283 -0.01488198 0.050957747 0.055502366 -0.027208293 -0.0053997166 0.026389958 0.041279834
-0.00079187774 -0.011673202 0.03167877 -0.00038787152 -4.2294156e-05 0.051984422 -0.0549864 0.032169458
-0.017890023 0.06028503 0.122286774 0.025691418 6.5129956e-05 -0.030352207 -0.0080569945 -0.058737557
0.016304215 -0.00073188223 0.039240673 -0.0095918225 -0.049378213 -0.012587314 0.005500435 -0.008112179
0.018376295 0.00870985 -0.029466292 -0.022522945 -0.0049836617 0.0026272263 -0.07884034 0.002929929
0.050490808 -0.0072489246 -0.030322246 -0.020439997 -1.9936663e-06 -0.008231952 -0.006527938 -0.01594845
-0.01529728 -0.06550712 -0.020568518 -0.00900334 2.4606417e-05 0.05171982 0.005253823 -0.018281374
-0.004738075 -0.004752446 0.0014087216 0.02056827 0.0029297562 -0.04979025 -0.0068912017 0.06700954
0.0061764633 -0.010751341 -0.01391255 0.036503408 -0.063936196 -0.025989205 0.009896651 0.007561114
-0.037732236 -0.0148403905 0.03385512 0.0014930802 -0.021629477 -0.0005936452 -0.0551505 0.047967102
-0.0061247265 0.03235031 0.00017591927 -0.05236037 0.008792695 -0.038715523 0.0070703435 -0.0065364554
-0.017986009 -0.008044426 -0.018672863 -0.014527931 -0.0060126293 0.0032439772 -0.0031971943 0.051310785
-0.0031119417 0.0037407924 -0.023659104 -0.006694715 0.011107695 -0.009446415 -0.029934946 0.06765785
-0.049545214 0.037801024 -0.00019754941 -0.01311054 0.0006332494 0.02829356 0.0015608242 -0.040924437
-0.011955147 -4.5551038e-05 -0.04334491 -0.002412558 -0.023654034 0.018537708 0.05094838 -0.032813426
-0.009806552 0.058859017 -0.016400527 -0.005446606 0.005254391 0.07346999 -0.0017018373 -0.022597373
0.057281774 -0.0029693046 0.01888414 -0.0369899 -0.021161363 0.013441888 -0.048451256 -0.08486047
0.00387997 0.00984874 -0.0165509 -0.020569615 9.3631774e-05 0.049300753 0.111435615 -0.024490956
-0.025084857 -0.02854455 -0.07767974 -0.06542018 0.00018501242 0.010934776 0.00088338763 0.05847309
-0.00013421992 0.10752387 -0.01255346 -0.025956728 0.00684708 0.0634244 -0.004893885 -0.048412424
0.039650023 0.014659021 0.01936528 0.04496707 0.03159312 -0.022676574 0.03561545 -0.012450557
-0.040012766 0.01730599 -0.028482603 -0.066313475 -3.7913558e-06 -0.06792404 0.029947953 -0.024484418
0.0026554258 0.06053807 0.037423775 0.007915246 -3.5304893e-05 0.004443198 -0.0057733892 0.007877182
-0.0016844965 0.006551071 0.00539584 -0.005519642 -0.021020008 0.04295016 0.006170187 -0.02307948
-0.019538395 -0.04673941 -0.05193114 0.0030526998 0.047210902 0.012529677 -0.037704058 0.013759276
0.050203137 0.019373301 -0.00812154 -0.059908234 -0.0038523625 0.0009594871 -0.01447194 -0.05445313
0.0025474615 -0.0314525 -0.00057337387 0.06813007 0.013448441 0.0154945515 0.012367065 -0.015516595
0.04444216 -0.028701715 0.0062698396 0.053860255 0.0047417628 0.02993477 0.028964616 -0.05954324
0.06500158 0.029221138 0.0765452 0.0621448 -0.042725578 0.045675755 -0.0014180078 -0.04298784
0.07140983 -0.015449381 -0.00016359295 -0.03459024 -0.001930841 0.014859969 0.0047743698 -0.010109118
-0.025243651 -0.048951976 0.034664556 0.02456168 0.022355173 0.07599384 -0.028049607 -0.0097833015
0.008753744 -0.049363066 0.073098175 -0.046968438 0.05036236 -0.04330645 -0.027062228 -0.04024472
00000000: d36b 003d 8cd3 73bc 12b9 503d 7356 633d
00000010: ede3 debc 1bf0 b0bb c12f d83c 0b15 293d
00000020: 0496 4fba f540 3fbc 99c1 013d 3c5b cbb9
00000030: 0165 31b8 9eed 543d 6b39 61bd 1fc4 033d
00000040: 198e 92bc 70ed 763d 7d71 fa3d cf76 d23c
00000050: 6196 8838 31a5 f8bc 7c01 04bc cb96 70bd
00000060: 6b90 853c c9db 3fba d4ba 203d 0527 1dbc
00000070: cf40 4abd 053b 4ebc fe3c b43b f2e8 04bc
00000080: e289 963c c2b3 0e3c 4b63 f1bc 0a82 b8bc
00000090: fc4d a3bb 8b2d 2c3b 0b77 a1bd 0d04 403b
000000a0: 73cf 4e3d 6388 edbb 5c66 f8bc c871 a7bc
000000b0: edca 05b6 4fdf 06bc 50e8 d5bb 53a6 82bc
000000c0: 71a1 7abc 9928 86bd 4f7f a8bc bf82 13bc
000000d0: e169 ce37 29d8 533d 4328 ac3b d2c2 95bc
000000e0: db41 9bbb 68ba 9bbb daa4 b83a ca7e a83c
000000f0: 2701 403b dcf0 4bbd 97cf e1bb 4c3c 893d
00000100: ee63 ca3b 6426 30bc 77f1 63bc 9984 153d
00000110: fbf0 82bd 50e7 d4bc 9025 223c 39c3 f73b
00000120: 1e8d 1abd 1c25 73bc abab 0a3d 75b3 c33a
00000130: 4d30 b1bc db9e 1bba 7ee5 61bd 2779 443d
00000140: eeb1 c8bb c281 043d f876 3839 d477 56bd
00000150: 3c0f 103c 2b94 1ebd 57ae e73b c32f d6bb
00000160: 6557 93bc c5cc 03bc d5f7 98bc 8f06 6ebc
00000170: 9705 c5bb e898 543b 0588 51bb 422b 523d
00000180: b8f1 4bbb 1528 753b bdd0 c1bc 575f dbbb
00000190: 0dfd 353c 23c5 1abc 223a f5bc 3390 8a3d
000001a0: ecef 4abd 3fd5 1a3d 4425 4fb9 97cd 56bc
000001b0: a600 263a e5c7 e73c 9294 cc3a 62a0 27bd
000001c0: 85df 43bc 0e0e 3fb8 6f8a 31bd 021c 1ebb
000001d0: 1bc6 c1bc 64dc 973c 40af 503d 5f67 06bd
000001e0: a9ab 20bc 2716 713d 665a 86bc 7179 b2bb
000001f0: 072d ac3b 6f77 963d 2f10 dfba 201e b9bc
00000200: 4ba0 6a3d aa98 42bb e9b2 9a3c b982 17bd
00000210: 985a adbc 5d3b 5c3c d374 46bd 53cb adbd
00000220: 1847 7e3b 9c5c 213c c195 87bc 9c81 a8bc
00000230: 2d5c c438 96ef 493d 5b38 e43d 42a1 c8bc
00000240: c27e cdbc 43d6 e9bc 8e16 9fbd 04fb 85bd
00000250: e5ff 4139 c627 333c 2493 673a 7b81 6f3d
00000260: 63bd 0cb9 7a35 dc3d 07ad 4dbc 34a3 d4bc
00000270: 785d e03b a7e4 813d e25c a0bb 1b4c 46bd
00000280: 1068 223d 642c 703c f0a3 9e3c 642f 383d
00000290: ca67 013d 39c4 b9bc 82e1 113d 6cfd 4bbc
000002a0: 6de4 23bd 4bc5 8d3c 5954 e9bc 5ccf 87bd
000002b0: ff6e 7eb6 c21b 8bbd 6955 f53c 8c93 c8bc
000002c0: a706 2e3b c4f6 773d ac49 193d f3ae 013c
000002d0: 5714 14b8 3f98 913b b32e bdbb 4c0f 013c
000002e0: 53ca dcba 5eaa d63b 96cf b03b 1dde b4bb
000002f0: 2732 acbc 82ec 2f3d 482f ca3b 2d11 bdbc
00000300: fc0e a0bc d371 3fbd bfb5 54bd ce0f 483b
00000310: 3860 413d 4649 4d3c 926f 1abd 966e 613c
00000320: cea1 4d3d c2b4 9e3c 3510 05bc 5662 75bd
00000330: eb77 7cbb 1786 7b3a b71b 6dbc 3f0a 5fbd
00000340: 50f3 263b 56d4 00bd 784e 16ba c787 8b3d
00000350: da56 5c3c dcdc 7d3c 3b9f 4a3c 5139 7ebc
00000360: fb08 363d dc1f ebbc 3a73 cd3b 929c 5c3d
00000370: ca60 9b3b c339 f53c 3447 ed3c 9de3 73bd
00000380: 8c1f 853d 2b61 ef3c bbc3 9c3d 8c8b 7e3d
00000390: 0401 2fbd 8016 3b3d 72dc b9ba 0414 30bd
000003a0: 513f 923d 671f 7dbc 268a 2bb9 7fae 0dbd
000003b0: 4614 fdba 3a77 733c 5172 9c3b b7a0 25bc
000003c0: c6cb cebc de81 48bd 6cfc 0d3d 9435 c93c
000003d0: 3222 b73c a9a2 9b3d 4ac8 e5bc 244a 20bc
000003e0: dd6b 0f3c ed30 4abd 7fb4 953d fa61 40bd
000003f0: c348 4e3d 1b62 31bd 9bb1 ddbc a6d7 24bd
