models/cvae_L2_H16_B0.010_LR1e-03.pt (torch, 30773 bytes, 13 tensors)

encoder.0.weight f4 [16, 46]
00000000: 2153 a43e 3138 3dbd f4fa a03d c24b 19be
00000010: 5186 6cbc b8f9 353e 248f c53c 0310 dbbd
00000020: 9c35 35bd 0af0 ef3c 7ede 5e3b 53de bfbd
00000030: 21da fc3d 5b76 353d e815 b1bd 695b 943d
00000040: 37cd d5bd ea92 c0bc 9a86 1dbd 6a04 7d3c
00000050: 84d8 443d 8621 3bbd 88d8 8d3d e787 08bd
00000060: 5a4e 483e df09 103e f781 fb3c 9581 9e3e
00000070: 0479 8b3e b186 453d 06c6 513e a19e 2a3e
00000080: 7f78 613e 36ff 763e 2002 5e3e cd76 323e
00000090: 3bf3 053d d1a1 193e a0f7 9abd 8901 b33d
000000a0: a84e 853d 3288 9e3d d76e 783e 5347 653e
000000b0: a978 1d3e 24d3 12bd d837 8b3e f053 ce3c
000000c0: 0f79 d03c f7f8 aebd 0594 8ebd 2056 d2bc
000000d0: d77c 413e c974 b6bd 11a3 003d 3381 a23d
000000e0: 269d be3c 2c0d b6bc 7753 073e 67c9 0b3d
000000f0: 9855 823d 1004 a8bd af47 aa3d e8b6 1bbd
00000100: 64bf b33c b970 49bd 93d6 8e3c 15c2 733d
00000110: bc4f 93bd 3497 afbd 9e62 183e 5d3a c33d
00000120: 24f9 8ebd fd34 153e 5272 613e e2c8 913d
00000130: 16ad 8a3d 0fe2 4e3d 7345 493e 88ce fe3c
00000140: 47ca 3a3e 8bb7 793d 8fc1 1e3d 3e4e 303d
00000150: e391 efbc ce55 3abc af7c c9bd 7c55 713e
00000160: bcaf b23d bf9a 613d 083a 143e 1bf5 7c3d
00000170: 2a56 0d3e 8c3f 163d c3c6 73bc 60e1 9abb
00000180: 4a3e 0dbc a1fd 823d 985c e43c 2ef1 2abd
00000190: e759 703c e6e7 3b3c db66 b53c 9bfb 233e
000001a0: 8e91 0c3e e4a8 a5bd 01ff 79bc cc52 f93c
000001b0: 6120 8fbc f288 fdbb 633c b8bb d743 fe3b
000001c0: 7f92 9ebb d2c0 123d 6d7e 0cbd 3f64 ffba
000001d0: 0055 33bd 443c b6bd 5e95 f339 56d2 143c
000001e0: aa53 dfbd b133 353d 1cc1 2c3d 6f2a d4bb
000001f0: a5f3 8cbc 0f7a 67bd fcc7 09bd b209 cb3c
00000200: 0052 083d cea5 fbbb 24b4 bf3c 776c 82bc
00000210: b137 10bb f1d0 4dbd 579f 97bc dd22 80bc
00000220: 2efa b43c 961f fcbb 5a2f 353e 79a1 bd3c
00000230: 817e bdbd 96cc 24be 352b 0cbd fa33 383d
00000240: 72dc 3e3e 1e60 f93d 8b12 25be 23fc 173c
00000250: 669f 003c 039a 6ebb f3e2 38be ce6c 19bd
00000260: e4b8 c43c afde 453d 4e3d b3bd d358 623d
00000270: b082 2bbd 14a7 a53d 5f4e a9bd 186e 87bd
00000280: 1b7a b13b 7531 093d 4a1a 013e b61e 653e
00000290: d4c1 6d3e 28c8 273e f6eb ad3e 6013 913d
000002a0: 19c6 13bb 9c5a a83d 3964 923e 1dac 273e
000002b0: 3302 463d 279e ce3d ce66 ab3d 5b9f c33d
000002c0: 7220 a9bd c388 a03d e3b4 e03d 8ea2 633e
000002d0: 3d38 e63d cb85 c53d dbcd 123e cfd9 d9bc
000002e0: e62b d1bd 1139 d0ba 8529 123d 1a44 e83e
000002f0: 7aa7 763c 5c8a 77bc ea77 7cbc 4b7b c83c
00000300: d0a6 77bd b918 8e3d 6b1a c1bd 1d29 af3b
00000310: 1b7f 3a39 d7f6 923d cd4d 393d 2b74 433b
00000320: 2902 8ebc 1406 05bd 8fee 1bbd 1555 e13d
00000330: fa39 14bb 323d a4bd c150 253c 0892 893d
00000340: 5d8a 543e 1596 493e 262e 623e cc32 403e
00000350: 3030 fc3d c1d7 0e3e 5e6c 133d 21c5 2d3e
00000360: c473 223e 927b 8d3c ceca 483e 751f de3c
00000370: 6887 bb3d 68e3 303e 751e 813c 31f7 2c3e
00000380: 565f 333e bddd 273e 3b39 153e 47f1 7f3d
00000390: 2ffe fa3d 8cee 7b3c 1f28 913e 79ca 69bc
000003a0: 6e44 b3bc 70d1 a73e 1861 fa3b d180 883d
000003b0: a22e 0dbe e40a 4c3b 3846 acbb 3f85 a03c
000003c0: c391 eabc c290 253d 3047 ca3d ae1e 7d3d
000003d0: d187 ef3c 629a d33c e0a0 35bc f2f0 b5bc
000003e0: 366d b93c 3302 bd3c dbf5 75bc c071 5f3b
000003f0: 0d8a e5bd c373 a23d 76f2 cebd e502 a2bc
0.32094672 -0.046196166 0.078603655 -0.14970306 -0.01443632 0.17771041 0.024116106 -0.10696413
-0.04424058 0.029289264 0.0034007127 -0.09368577 0.12346292 0.044302326 -0.086467564 0.072439976
-0.10439532 -0.023507554 -0.038458444 0.015442947 0.048058048 -0.045686267 0.06926066 -0.03333273
0.19561139 0.14066266 0.03070162 0.30958238 0.27240765 0.048224155 0.20485696 0.16662075
0.22018622 0.24120793 0.21680498 0.17428131 0.032702666 0.15003134 -0.07566762 0.08740527
0.06509143 0.07740821 0.24261032 0.2239049 0.1537806 -0.03584589 0.27191043 0.025186509
0.02544835 -0.0854358 -0.06961826 -0.025675833 0.18895279 -0.08908994 0.031405512 0.07934799
0.023268294 -0.022223078 0.13215433 0.03412762 0.06363982 -0.082039 0.08314454 -0.03801623
0.021941848 -0.049179766 0.017436301 0.059511263 -0.071929425 -0.085737616 0.1488137 0.09532616
-0.069811136 0.14570995 0.22016266 0.071183935 0.06771295 0.050508555 0.19655399 0.031104341
0.18241225 0.060966056 0.03875881 0.043043368 -0.029244369 -0.0113729965 -0.09838235 0.23567766
0.08724925 0.055079218 0.14475262 0.06175719 0.138024 0.036681697 -0.014878931 -0.004726574
-0.008620808 0.06396032 0.027876183 -0.041733913 0.014669872 0.011468863 0.022143772 0.16013949
0.137274 -0.08088854 -0.015258552 0.030434988 -0.017471494 -0.0077372724 -0.005622433 0.007759552
-0.004839241 0.03582842 -0.034300257 -0.0019484832 -0.043782234 -0.088982135 0.0004645986 0.009083351
-0.109046295 0.04423875 0.04217635 -0.006474785 -0.017206023 -0.05651289 -0.033637986 0.024784897
0.033281326 -0.0076796776 0.023401327 -0.01592086 -0.002200585 -0.05024809 -0.018508596 -0.015641624
0.022091951 -0.007694195 0.17693844 0.023148285 -0.09252644 -0.16093668 -0.034220893 0.044971444
0.1863878 0.12176536 -0.16120355 0.009276423 0.007850504 -0.0036407716 -0.18055324 -0.03745728
0.024013944 0.04830807 -0.08751927 0.05526049 -0.04187268 0.08088508 -0.08266901 -0.066127956
0.0054161674 0.03349443 0.12607685 0.22374997 0.23218471 0.16384947 0.33969086 0.070837736
-0.0022548495 0.08220407 0.2859209 0.1637425 0.04834194 0.10088759 0.08369218 0.09551879
-0.082581416 0.07838585 0.109720014 0.22229978 0.11241195 0.096446596 0.1433634 -0.026593117
-0.10213451 -0.0015886148 0.035684127 0.45364457 0.015054578 -0.015108671 -0.015409449 0.024472853
-0.06046182 0.06938309 -0.09428867 0.0053454773 0.00017785693 0.07175987 0.045240212 0.002982388
-0.017335014 -0.0324765 -0.038069304 0.11002556 -0.0022617565 -0.080194846 0.010090054 0.067173064
0.20755906 0.19686158 0.22087917 0.18769377 0.123138785 0.13949491 0.03599202 0.1696973
0.15864474 0.017270837 0.19608614 0.02711461 0.09156686 0.17274249 0.015761593 0.16891171
0.17516837 0.1639318 0.14572613 0.06248596 0.12255513 0.015376698 0.28350922 -0.014269465
-0.021883216 0.32776976 0.007640969 0.06665195 -0.1378732 0.003113442 -0.005257394 0.019594787
-0.028633958 0.040421255 0.09876859 0.061796837 0.029239567 0.025830451 -0.011085719 -0.022209618
0.022635084 0.023072338 -0.01501223 0.00340949 -0.11207972 0.07932236 -0.101048395 -0.01977677

encoder.0.bias f4 [16]
00000000: 9622 423e 14f1 2c3e 5738 86bd 01b0 a33e
00000010: f4a7 a23c 195f 67bc d824 56b9 f4df 273d
00000020: d76a 9a3e 2f45 e73d 1802 883d 0c85 ff3d
00000030: 5ff1 19be bfe8 3f3e 19b1 0d3b 3442 ff3d
0.18958506 0.16888839 -0.06553715 0.31970218 0.019855477 -0.014121794 -0.00020422356 0.040985063
0.30159637 0.112924926 0.06641024 0.124765486 -0.15033482 0.1874113 0.002162045 0.12463799

encoder.2.weight f4 [16, 16]
00000000: 53de 023d 247f ab3e 1721 853e 6842 173e
00000010: 6484 a4bd ab43 6e3e 661f c43e 2a80 9d3e
00000020: edbe 9abd e30b d43d 0a4b 63be c0fb a73d
00000030: d548 923e 31ad 48bd 7d71 efbd 647d b93d
00000040: e819 d582 2033 ff81 f413 6202 3a85 e682
00000050: de01 f281 0235 4d00 f838 1582 d39a ef82
00000060: 02ce c687 b433 0783 d747 0583 9c89 de82
00000070: 742a 2c82 983a 0583 4424 3401 9fe8 1082
00000080: 9cc5 a03e 60b8 79bc d174 433d 4eb2 633e
00000090: af53 6cbe e425 813e bd63 6c3e 664d 8bbd
000000a0: 0d15 09be c2ac d8bc 321c e53d 24dd 683c
000000b0: 94a2 21bc 56c2 86bd 7d49 80be 6a3b 563e
000000c0: 9438 c53e f64d c03e c362 3bbd 4b01 023e
000000d0: b757 7bbe b16c 313e 521e 39bd 17da cb3e
000000e0: c47f 803b 551d e3bd e802 96bd f4ef 883e
000000f0: f96d 5e3e b0d8 50be e911 9dbe 4196 823e
00000100: eb07 073d 7f23 54bd 1914 fb3d 424e e83c
00000110: 017d f23d cc3f 36bd d395 57be 17b3 4e3e
00000120: fad3 813d c59a 423e bfa4 e83d da85 a43e
00000130: a09c 09be 7ce9 433e e9be cd3d ada5 dfbc
00000140: 5070 ce3d dd6d 21be 66f6 283e e029 143e
00000150: 17be 093f 0243 88be 1cef a3be 39dd 023d
00000160: 6ace 8b3e 4eb1 3b3e b925 773e c720 0a3e
00000170: c0c0 a6bd f92b 7e3e 77f0 4a3e 6161 2fbe
00000180: ac20 c03e 7251 733e c6f0 803d 7b9e 943e
00000190: 4d90 abbe 3ad2 e13d 3cd9 b93d 5938 be3e
000001a0: 746c cebd 6d49 933e d425 37be 7f7f a13e
000001b0: 94ca 083e c3b7 50be 59c5 6ebe 2884 033d
000001c0: 43c0 5e3e 2d4f b4bd 74e6 593e 5d2a 9cbd
000001d0: fe51 7f3e 5fe7 26be 07e4 8ebe 14fc b63d
000001e0: 9556 cb3e 95da a7bc 6f22 843e cc43 bd3d
000001f0: aff0 b23d 5a96 0e3e 90db 533e 90ea 8cbe
00000200: 4273 43be 98ce ab3e a5b4 c63c d2fe 883e
00000210: b850 663d 79af 60be 6126 9dbd 3e5a bfbd
00000220: fec9 b13e 0b50 2d3e 1525 5ebc a3b2 a43d
00000230: 104c d4bc 8991 8b3e dd10 013d ae4d 04be
00000240: 39d4 21bc 46d4 b73d a97a 27bb 4b0c 303e
00000250: ee45 dc3d 4e37 09be 3fa1 4ebe 37c8 7fbe
00000260: 0399 df3e 8ac0 1e3e 2852 06bc 64d3 a93c
00000270: bfbf 09be 4b8f 733e 17aa a93e f18f 5e3d
00000280: 9812 ca3e a23f 5d3c 73de 993e e6d7 a43e
00000290: 83ce c4be 2d55 e03d 20c0 9c3e e16a ba3e
000002a0: 26e7 213e 06b3 433e e521 abbd 7660 243d
000002b0: b609 673d ca7d 22be 3690 85be 6612 6d3e
000002c0: 2ddc 1d3e cb27 2f3e f12b 3fbc 1533 fd3d
000002d0: 82cd 9bbd a6b1 313e f7df c83e bc7e 733e
000002e0: 9724 60be 9c97 8c3e 9e78 95bd 1b1a 793d
000002f0: 282b 463d 4961 4b3d 143f 13be ee44 693d
00000300: cd77 c53e 291f 873c 8d1a e63d d24e 743e
00000310: c3bd c2bd ee72 cc3d cbf6 113e 3fb7 c53e
00000320: f975 9dbc b3ed 7abc 80a4 36bd 600d 8e3e
00000330: cbee 513e 6a3f 7e3e b286 b7be 31af 943d
00000340: f227 8339 3908 583e 76cf 54be 840e 9c3d
00000350: 0fe1 a63e ef89 ee3e 4228 cabd e581 34bc
00000360: 8726 51be 49f9 0f3e 6c13 67be ee2c fbbc
00000370: d969 443e 285a c3bd 4a24 75bd d650 03bf
00000380: e0ef b6bd d6d7 223e b3c9 d3bc 7e41 883d
00000390: a669 8e3e b36d 49be 06c2 d83b 61cb 4cbe
000003a0: d935 d23e 6db4 3e3e fd3d 213e 66c0 2f3c
000003b0: b06c 4d3d 3652 b43d c12a 733e cd1b adbb
000003c0: f6d6 85bd f356 36be 0539 983d 61ea 883e
000003d0: e02c 4e3e 60b0 85bd a7a6 30bd feed 0ebe
000003e0: 6f9d d53e 139f dbbd 3822 a13e 2068 8e3d
000003f0: 304f 90bd a7e6 833e 496f 213d e6ea 733c
0.031950306 0.33495438 0.26001808 0.14771426 -0.08033064 0.23268001 0.38305205 0.30761844
-0.075559475 0.1035383 -0.22196594 0.082023144 0.2857119 -0.048993293 -0.11691568 0.090571195
-3.1312407e-37 -9.3745567e-38 1.6609584e-37 -3.387193e-37 -8.889944e-38 7.090349e-39 -1.096314e-37 -3.5206758e-37
-2.991281e-34 -3.9732287e-37 -3.9167655e-37 -3.2698952e-37 -1.2648748e-37 -3.915245e-37 3.3086798e-38 -1.0646208e-37
0.31400764 -0.015241712 0.047718827 0.22235987 -0.23078798 0.2522422 0.23084922 -0.06801872
-0.13386936 -0.026449565 0.111870185 0.01421288 -0.009865422 -0.065800354 -0.25056067 0.20921102
0.38519728 0.3755948 -0.045748483 0.12695806 -0.2454518 0.17326619 -0.04519493 0.39814827
0.003921481 -0.11089579 -0.07324773 0.2674557 0.21721639 -0.2039516 -0.30677727 0.2550526
0.032966536 -0.051791664 0.12259693 0.028357629 0.11840249 -0.044494435 -0.21053247 0.20185505
0.063392594 0.19004352 0.11359548 0.3213337 -0.13438654 0.19132036 0.10046179 -0.02730068
0.10080016 -0.15764566 0.16500244 0.14469099 0.5380568 -0.26613623 -0.32018363 0.031949256
0.2730592 0.18329355 0.24135484 0.13489066 -0.08142233 0.24821462 0.19818293 -0.17126991
0.37524927 0.23761538 0.06295924 0.2902716 -0.3350853 0.11026426 0.09074637 0.37152365
-0.100792795 0.28766957 -0.17885524 0.31542584 0.13358527 -0.203826 -0.2331747 0.032108456
0.2175303 -0.08804164 0.21279317 -0.07625268 0.24933621 -0.16299199 -0.27908346 0.08934799
0.39714494 -0.02048997 0.2580752 0.09241447 0.08737313 0.13924542 0.20689225 -0.27522707
-0.19086936 0.33556056 0.02425606 0.26756912 0.056229323 -0.21941938 -0.07673336 -0.09343384
0.3472442 0.16925065 -0.013558646 0.08041885 -0.025915176 0.27259472 0.031510223 -0.12920257
-0.009877258 0.08976035 -0.002555529 0.1719219 0.107555255 -0.13400003 -0.20178698 -0.2497872
0.43671426 0.15503135 -0.0081982985 0.020730682 -0.13452052 0.2378513 0.3313758 0.054336492
0.3946731 0.013503941 0.30052528 0.32195967 -0.38438806 0.10953746 0.3061533 0.36409667
0.15810832 0.19111261 -0.08356074 0.040131055 0.056405745 -0.15868297 -0.26086587 0.2315155
0.15416022 0.17105024 -0.011668191 0.12363259 -0.07607557 0.17352924 0.39233372 0.23778814
-0.21888958 0.2745942 -0.072983965 0.06081591 0.048381 0.049653325 -0.14379531 0.056950502
0.38567963 0.01649435 0.11235533 0.23858193 -0.095088504 0.099828586 0.142543 0.38616368
-0.019221293 -0.015315461 -0.044590473 0.2774458 0.20501249 0.24828878 -0.35844952 0.072599776
0.0002501603 0.21096887 -0.20782265 0.07619956 0.3259358 0.4658961 -0.0987096 -0.011017297
-0.20424853 0.14059938 -0.22566003 -0.030661073 0.19181003 -0.0953868 -0.05984906 -0.5129522
-0.08932471 0.15902647 -0.025853014 0.06653117 0.27814978 -0.19670753 0.0066149263 -0.19999458
0.41056708 0.18623514 0.15746303 0.010727024 0.05015248 0.08804743 0.23746778 -0.005282855
-0.06535141 -0.17806606 0.074327506 0.26741317 0.20134306 -0.065277815 -0.043127682 -0.13957974
0.41721675 -0.107237004 0.3147142 0.06953454 -0.07046354 0.2576191 0.03941277 0.014887547

encoder.2.bias f4 [16]
00000000: a644 fe3d 6c8e e482 3ed3 c53e 140c d03e
00000010: 78b5 9b3e de91 483e 187f 9a3e 16f1 c03e
00000020: 3ff3 993d 7fcd c33e 2346 243e 0f39 b93e
00000030: 7681 853e ec68 86bd 6073 a33e f768 423e
0.124154374 -3.3583335e-37 0.38637727 0.40634215 0.30411887 0.19586894 0.3017509 0.37683934
0.07517099 0.3824272 0.1604238 0.36176345 0.26075333 -0.06562981 0.31923962 0.18985353

fc_mu.weight f4 [2, 16]
00000000: a917 dc3b 9840 8a81 5705 8ebc 2b8f dabc
00000010: 5735 ddbc 437d 87bc 8475 7f3d 9348 8bbb
00000020: aef2 11bd e6be 4f3c 998e 0dbd 6725 6abc
00000030: 86b5 843c f2ac a5bb 6ff2 c33c 9648 b43c
00000040: c710 a0be b5e4 8b37 daa2 7abe aa23 bbbe
00000050: 0cd4 8b3e 4be3 b33e debe 9cbe 475f cc3e
00000060: 6c84 a03e 313c e23e e622 b5be e492 8cbe
00000070: d680 72be aaa5 eabe 8caa 6a3e 471b 473d
0.0067166877 -5.078588e-38 -0.01733653 -0.026679596 -0.027002973 -0.016539222 0.06236793 -0.004250595
-0.035631828 0.012679791 -0.03455982 -0.014291144 0.016199838 -0.005056017 0.023919312 0.022007268
-0.312628 1.6676591e-05 -0.24476185 -0.36550647 0.27310216 0.35134348 -0.3061437 0.3991644
0.3135103 0.44186547 -0.35378188 -0.2745582 -0.2368196 -0.45829517 0.22916621 0.048609998

fc_mu.bias f4 [2]
00000000: c1fb ec3c c3e1 123e
0.02892864 0.14343934

fc_logvar.weight f4 [2, 16]
00000000: 2699 9637 ce76 dc01 08cf 85b9 75d7 6c3a
00000010: 1569 a239 68b1 0bba 9df6 9739 166a 773a
00000020: 4faf f838 3db2 0e3a 6b56 4ab9 0309 0c3b
00000030: 1118 45bb 3f9b da39 1c7b 10bb 761a be3a
00000040: aee0 35bd 3dce a600 cc09 5cbe fed3 a0be
00000050: 3905 d3be 9dbf 0fbe becb a1bd c8d7 8cbe
00000060: bb92 7bbe e69a 8abd 7434 a8be 105e 66be
00000070: a562 d6be 2a1e b43e 51aa 0bbe 6329 37bf
1.7952709e-05 8.0985713e-38 -0.00025521987 0.0009034791 0.0003097734 -0.0005328865 0.00028984706 0.000943811
0.00011858215 0.00054434297 -0.00019296414 0.0021367676 -0.003007416 0.00041695868 -0.0022046035 0.0014503736
-0.044403724 1.5318677e-38 -0.21488112 -0.31411737 -0.41214922 -0.14037938 -0.07900189 -0.27508378
-0.24567692 -0.06767826 -0.3285252 -0.2249682 -0.41872135 0.35179263 -0.1363919 -0.71547526

fc_logvar.bias f4 [2]
00000000: f923 cb3a 8803 a7bd
0.0015498392 -0.081549704

decoder.0.weight f4 [16, 47]
00000000: a73f 0c3b 23cc 8cbc 9f91 85ba 8672 23bc
00000010: ebbe a13e 03ae 66bc 23a3 eebc af59 e93b
00000020: 8819 b83c 99ea d3bc 4b11 1dbb dd1c 47bc
00000030: 91bb b13d 40a5 9c3d 802d 9f3b 7413 b93c
00000040: 8537 873d d75d 78bd 9ffc eabc 9919 2bbb
00000050: 4f1c bd3c b1a0 e0bc 378f e33c 1617 7dbc
00000060: f195 25bd bd70 9bbd 1ed1 ab3c c855 3a3d
00000070: 7b44 b03c 63df 15bd 6ae3 693d 8634 89bc
00000080: 0da0 0cbc 9c06 f4bc 4cb0 94bd 07fa a4bc
00000090: f2be 563d 2f2a 7d3c d36c 54bc f487 053c
000000a0: e651 073d c858 8bba 9968 e9bc 6770 8139
000000b0: 4ae7 f8bb f237 c53d d67d 51bd ec88 913a
000000c0: 5ea5 22bc c414 8cbb f83c 163c 0d7d 623e
000000d0: 6697 013d 7edd 69bd a9c1 15bd e0de 25bd
000000e0: d2f9 353d 91a3 9ebc 2c57 80ba 3273 20bd
000000f0: 0b67 c2bd 03c9 96bb 3045 ed3b 5cc1 adbd
00000100: 2f1f bd3d 559f 31bd 70eb 3bbd e415 44bd
00000110: 8dc8 923d 8357 7cbd 49b6 e63b 21ab 9f3c
00000120: 2562 7ebd dd9f 173e 89c6 3ebc 3789 253d
00000130: c78c 353e 2dc0 9dbc 8ebc 51ba e26b 943a
00000140: b8dd cabb 5b74 a63d 115b 843d 8877 93bc
00000150: 927c 8739 e16b 943a fe7a 57ba eca3 be3d
00000160: 33da f63c ca33 823d b210 653c 7570 95bb
00000170: fd8b 9ebc 49ee f839 c5c1 cb3b e275 8dbe
00000180: fd38 d83c f058 fb3c 45d4 703e 9a8d f4bc
00000190: c2b1 d0bb c2ab c33d 9351 bbbc f0a2 873c
000001a0: 9c66 b23c 1da9 5cbd f786 ae3d f251 dd3c
000001b0: 60e1 283d 26ba eb3a 5a5c 5dbc 842e 70bb
000001c0: 5bf9 40bb 2dec 82bc 3f5f 2f3d e3ae 02bc
000001d0: 4929 463d 363c 9bbc b2fa 023d 9352 8d3e
000001e0: 061e 383d 42e2 263e 3a37 1d3e 7276 403e
000001f0: 2753 4f3e 374d 9b3d 6efe cdbc 6ecc 443e
00000200: 04e2 b43d c5e2 d33d 5c89 aabc 0194 0c3d
00000210: 6681 823d 0794 5f3d faac 953d ada1 b53d
00000220: acd2 653e 1b90 413e 5475 1b3e bce9 e63d
00000230: 511b ebbd fdba 4eba 6a89 4dbe 7cae 06bd
00000240: 6ee8 8c3c 8bd0 503e 3c59 893c c823 c63d
00000250: ea78 cc3d a8a8 78bd e0a7 023d f332 18ba
00000260: 434a 633b d121 ca3a 476b de3d 925d 573d
00000270: 1122 91bd e458 ffbc 8c85 ee3c 1fee 4abc
00000280: 6907 eebc e6da 0b3d 2c55 253c c3f0 ec3c
00000290: 27c8 c5bc f3e6 143d 5755 17be 7a39 f3bd
000002a0: e6fb 873c cfa6 71bd 6254 e9bd 9ed1 88bc
000002b0: d455 a4bd cefb 5cbd 7557 03be 9e40 9fbd
000002c0: 8f43 32be 0b1f a73c 14d2 1d3e 0628 4abc
000002d0: a157 9abd 1a9c a9bd 4b72 4fbb 796c 10be
000002e0: 7a7f a6bd 61f2 85bd c0ea 9e3d 3220 c7bc
000002f0: 9164 923a d130 4f3e 4398 b8bd 8a35 d6bb
00000300: bd6d 8fbe a329 373d 4333 bb3c 0fba 443e
00000310: 14d3 e03c d189 17bd a193 3fbd 8244 643c
00000320: 202d 783c da02 fe3d 71e0 39bd ece1 623d
00000330: d038 32bd 15ce 393d 424d 5fbb d0b9 e6bb
00000340: 3f73 313d 3da8 6abd ba9f 283d 494a c93d
00000350: 395e 15be 4973 f93d b1dc 1b3e 7c72 0cbe
00000360: 290f c8bc 6424 043e e3a8 f23d 56fa b7bc
00000370: 6be9 8f3b 6ad9 393c b87c e3ba b9c7 ab3d
00000380: 4bd4 4c3d 1228 573c 3299 693d 6542 eb3d
00000390: 7cec 0e3e 7d74 4f3e 04ad 933d 585d e23c
000003a0: 462d 123e fc0c e0bb 281a e9b9 b1c0 44bb
000003b0: 24d5 32be 0ae4 203d 8f40 583d d3d8 4cbe
000003c0: 387a aebd 53bb fd3b 89ee 03be bf70 b73d
000003d0: 3160 26bd abcd 9c3c 695f 37bd 1893 e0bd
000003e0: 2569 a5bc 5c33 99bc 614a e1bb 8738 29bd
000003f0: 6dda b8bb a5c1 323d 37f6 4d3c 7ca8 573b
0.0021400244 -0.017187184 -0.0010190493 -0.009976035 0.3159097 -0.014079574 -0.029130524 0.007121287
0.022473112 -0.0258687 -0.0023966606 -0.012152878 0.086783536 0.076487064 0.004857719 0.022592284
0.066023864 -0.060636368 -0.028684912 -0.0026107787 0.023084788 -0.027420374 0.027778251 -0.015447399
-0.0404262 -0.075898625 0.020973738 0.045491964 0.021517029 -0.03658999 0.057101645 -0.016748678
-0.008583081 -0.029788308 -0.072601885 -0.020138754 0.052428193 0.015451952 -0.012965399 0.0081500895
0.03303709 -0.0010631317 -0.028492259 0.00024688544 -0.007595931 0.09629811 -0.051145397 0.0011103428
-0.009927122 -0.0042749364 0.0091698095 0.22118016 0.031638525 -0.057095997 -0.03656164 -0.040495753
0.0444277 -0.019365104 -0.0009791604 -0.03917236 -0.0949231 -0.004601599 0.007240914 -0.08484146
0.092344634 -0.04336484 -0.045878828 -0.04787244 0.07167158 -0.061606895 0.007040773 0.01949078
-0.062105317 0.14807077 -0.011644014 0.04041406 0.17729484 -0.019256676 -0.0008000814 0.0011323655
-0.0061909817 0.08127662 0.06462682 -0.018001333 0.0002584202 0.0011323654 -0.00082199264 0.09308609
0.030133342 0.06357534 0.013981031 -0.004560525 -0.019353861 0.00047479782 0.0062181675 -0.27629
0.026394362 0.030682057 0.23518474 -0.029852677 -0.0063688466 0.095542446 -0.022866046 0.016557187
0.021777444 -0.053872216 0.08521836 0.027016614 0.04123056 0.0017984554 -0.013510788 -0.003664882
-0.0029445502 -0.015981758 0.042815443 -0.007976267 0.048379216 -0.01894961 0.031977363 0.27602062
0.044950508 0.16297248 0.15353099 0.18795183 0.20246564 0.07583087 -0.025145736 0.19218609
0.088321716 0.10345987 -0.020817451 0.034320835 0.06372337 0.05458453 0.07308383 0.08868728
0.22443646 0.18902628 0.15181476 0.1127505 -0.114798196 -0.000788614 -0.2007195 -0.032881245
0.017200675 0.20392053 0.016766183 0.096747935 0.09984 -0.060707718 0.03189838 -0.0005805932
0.0034681715 0.0015421455 0.10860305 0.05257947 -0.07086576 -0.031170316 0.029116414 -0.012385874
-0.029056268 0.034144305 0.010091107 0.028923398 -0.024143292 0.036353063 -0.14778648 -0.11876197
0.016599607 -0.05899697 -0.11393048 -0.016701516 -0.08024183 -0.053951077 -0.12826331 -0.077759966
-0.17408584 0.020400545 0.1541217 -0.012338644 -0.07536245 -0.08281727 -0.0031653817 -0.14103879
-0.08129783 -0.06540371 0.07759619 -0.024307344 0.0011168887 0.20233466 -0.090134166 -0.006537144
-0.2801341 0.044717442 0.022851592 0.192116 0.0274444 -0.036996666 -0.04677165 0.013932349
0.015147477 0.12402888 -0.04538006 0.055391237 -0.043511212 0.04536255 -0.003407315 -0.0070411935
0.043322798 -0.05728935 0.041167952 0.09828622 -0.14586724 0.12180192 0.15220906 -0.13715547
-0.024421291 0.12904507 0.11848619 -0.022458237 0.0043918393 0.011343339 -0.0017355895 0.083877034
0.050007146 0.013132112 0.057030864 0.11487273 0.13957399 0.2025928 0.072107345 0.0276324
0.14275083 -0.0068374854 -0.0004446071 -0.003002208 -0.17464119 0.039279975 0.052795943 -0.20004587
-0.08519405 0.007743278 -0.12883963 0.089570515 -0.04061908 0.019141039 -0.044768725 -0.10965556
-0.020191738 -0.018701248 -0.0068753217 -0.041313674 -0.0056412728 0.043641705 0.012570909 0.003290682

decoder.0.bias f4 [16]
00000000: eaa7 a33d b22a b73d ed88 253e e099 20be
00000010: 425d 8ebd 0df7 f03d 0dab 193e f441 6f3e
00000020: ae31 45bd 53d4 d63d f885 d33d 06d9 633e
00000030: 9427 0b3e b099 763e 2e9f 083e 7d1d 473e
0.079910114 0.0894369 0.16165514 -0.15683699 -0.06951381 0.11765871 0.15006657 0.23365003
-0.04814308 0.104897164 0.10328287 0.22250757 0.13589317 0.24082065 0.13341972 0.19444843

decoder.2.weight f4 [16, 16]
00000000: 643a 6fbd d550 a3bc 2fa0 d0bc 6cbf 0bbd
00000010: 22fe 5b3e 064b b3bd 4cf7 28bb 59a9 d1bd
00000020: a034 cd3d bafa 2dbe 6e88 963b c280 283e
00000030: 5df3 2a3d 08a2 80be e3e1 6b3e 8bad cebc
00000040: 9316 4f3d d5e4 a63c b66d dfbc acb7 fbbd
00000050: f2db 863e cac0 2f3e 8c75 f0bd a5bd 2f3d
00000060: 1dae 393d e541 ce3b ba29 193e da84 9b3c
00000070: aae4 523e dc4a 39be 8628 8b3e a2bc a83e
00000080: 7ff3 5a3e 3a9f 143e 938e 00bd 077d 05be
00000090: 36db 91bd 6bfd 2f3e d51d 22be 4caa 253e
000000a0: 50e7 6f3d a880 633e 4f98 b0bd 7d9b 53bd
000000b0: d413 333c cc16 b73c b86e f13c 0ac9 a83e
000000c0: 8159 86bc ad40 a9bd f16a 123e bdb3 313e
000000d0: 075e 903e cf5f 903d ae98 e93d a5bd 46be
000000e0: e4f4 0ebe fbb0 ffbb b65c 223e f67d 60be
000000f0: e76c 693e eed5 7cbe 0a75 263e 9ddd 873d
00000100: 7a2d a23d 5005 823d 750b 253d a0d5 8c3e
00000110: 1c47 1b3e 8506 bfbd f2df 1d3d 8bd2 883d
00000120: 40e1 4e3d d0a0 453b 9c32 903e 5f40 223e
00000130: 2094 2ebe b29a c93e 27ca c5bb 2963 d83d
00000140: 6afd 34be d7c2 1fbe 7178 0bbe 5888 b4bd
00000150: a16c a13d 50f2 2f3e 8bc6 97be bbd0 2a3e
00000160: 5b1b d13d 62fb bfbe 0aa4 88be bfc1 e53d
00000170: 38a5 0b3e 6613 76bd 1a0d b93e 160d a03e
00000180: d883 5a3e 83a2 4ebd 0264 9fbd c3e9 343e
00000190: 8108 493d b292 29be 67df 92bc 92c3 a53d
000001a0: 949d 6d3e b3f5 11be 08b5 12be 3ad4 f43c
000001b0: 6d7a 06bd 2346 1f3e 86d5 91be a489 1ebe
000001c0: 38a9 06be 074c 083e eb9f cdbc 28c6 1d3d
000001d0: 4696 cb3c d18a f3bc f4ef 0a3e 2275 a83c
000001e0: 6810 3fbc 957d 5cbd b9b2 cf3d ceed 0b3e
000001f0: d6f3 753d 5c64 d6bd d111 54be 5e4e 1f3e
00000200: d8fa cdbd e253 193e f3f9 7abd 6f68 98bd
00000210: 08b9 cfbd 2d08 ab3d 5e4b 8a3e c438 a03d
00000220: 8cc6 3e3e 7b79 883e 001b cbbd 642d a83e
00000230: e33f 2cbe 9bae 143e 710c 493d c93b 60bd
00000240: ef3a b2bd 5399 95bd a252 833e 858e 803e
00000250: c8a7 8a3d f094 3e3e 12d1 083e ee5f 073e
00000260: 4885 14bd 1e68 f7bd e7f0 013e e61d ce3e
00000270: 4d72 75bd 930a 4e3d f24e 30be 320b 4a3d
00000280: 6748 213c 0154 853e a0ec 0e3e bae8 7cbc
00000290: 0f22 3d3e 61aa 2c3e b94b 1e3d fbf5 c5bd
000002a0: aa65 c33d 0e9f 67bd fbc3 673e 5ba1 643e
000002b0: a83b 0abe 1bb7 373d b103 7dbe a397 2a39
000002c0: e792 10be 58c6 0abe 1ed7 a23e b466 8a3d
000002d0: 3f93 88bd 9e0b 723e 1ce5 9f3e 2671 3f3e
000002e0: 5fd0 2f39 d277 e9bc 1866 af3d 8f2b e93d
000002f0: 69c8 75bd 46f6 e63d 41a5 6dbe b73e b63d
00000300: 48a1 b43d a8ee 6ebc c05b ab3c 798e 153e
00000310: 1b6f c4bd e9cd 723d 1a27 7d3d 10ec 5e3e
00000320: 2674 8b3d 1545 3e3e 964b c0bc 27b7 073e
00000330: 9ba6 70bd a245 913e 7b04 f13c 0b26 59bd
00000340: cbf2 34be f2bf 6b3e 010c a33e 19cd 5f3d
00000350: 58dc 1dbd 4782 31bc 3520 203e 5f60 453e
00000360: e915 ca3d 59c9 dcbd b9dc 08ba 404c 603e
00000370: 45b1 9dbe fd8c c13e 3f5a d8bd 7962 883d
00000380: 524a 483e 7230 cf3c 99b6 a23e fd73 b83d
00000390: 7f00 033e 46fe bd3d 1398 143b 5c75 483b
000003a0: 9bb2 253e 714b 0c3e 82ee 3f3e 0291 f73c
000003b0: b72b 263e 0288 993e e02b 1bbe 8db2 a4bd
000003c0: 4172 cfbb 3ead a23e 6aa2 2c3d 6e7c e3bc
000003d0: c190 0b3e 2194 df3d 4e93 a13d 039d bf3e
000003e0: c3cb 4b3d 469b e33c e1ae 46bd dc72 3fbe
000003f0: 776d 1d3e a639 cfbd 399d 0e3c 14b2 cc3e
-0.058405295 -0.019936005 -0.025467006 -0.0341181 0.21483663 -0.08754544 -0.0025782166 -0.102373786
0.10019803 -0.16990176 0.0045939004 0.16455367 0.041735996 -0.2512362 0.23035388 -0.025229236
0.050558638 0.020372787 -0.027273994 -0.12290892 0.2633968 0.17163387 -0.1174117 0.04290547
0.045332063 0.0062944763 0.14957324 0.018984247 0.20595041 -0.18094963 0.27179354 0.32956415
0.21381949 0.14513865 -0.03138597 -0.13035975 -0.07121889 0.17186515 -0.15831693 0.16178244
0.058570206 0.22217047 -0.086228006 -0.051661957 0.01093002 0.022349738 0.02947174 0.3296588
-0.0164001 -0.08264289 0.14298607 0.17353721 0.28196737 0.07049524 0.114060745 -0.19408281
-0.13960606 -0.00780308 0.15855679 -0.2192305 0.22795449 -0.24690983 0.16255584 0.06634066
0.0791883 0.063486695 0.04029413 0.27506733 0.15163845 -0.093274154 0.03854365 0.06680783
0.050507784 0.0030155666 0.28163612 0.15844868 -0.17048693 0.39375836 -0.0060360613 0.10565788
-0.17674795 -0.15601669 -0.13620164 -0.08815068 0.078820474 0.17182279 -0.29643664 0.16681187
0.10210296 -0.37496477 -0.26687652 0.11218595 0.13637245 -0.060077094 0.36142808 0.31259984
0.21339357 -0.050447952 -0.07782747 0.17667298 0.049080376 -0.16559866 -0.017928792 0.08093943
0.23204643 -0.14253883 -0.1432687 0.029886354 -0.032831598 0.15554099 -0.28483218 -0.15482193
-0.1315049 0.13310252 -0.025100669 0.038519055 0.02485193 -0.029729279 0.13568097 0.020563666
-0.011661626 -0.0538307 0.101415105 0.13664934 0.060046993 -0.10468361 -0.20709921 0.15557238
-0.1005761 0.14973405 -0.061273526 -0.07441794 -0.10142714 0.08351169 0.27010626 0.07823327
0.18630427 0.26655182 -0.09917259 0.3284713 -0.16821246 0.14519732 0.04908413 -0.054744516
-0.08702647 -0.07304635 0.2564898 0.25108734 0.06770283 0.18611503 0.13361004 0.13220188
-0.03625992 -0.12080406 0.12689553 0.40257186 -0.05992346 0.050303053 -0.17217615 0.049327083
0.009843922 0.26040652 0.13957453 -0.015436346 0.18470024 0.1686187 0.038646434 -0.09666058
0.09540875 -0.05654817 0.22633354 0.22327177 -0.1349932 0.044852357 -0.2470844 0.00016268952
-0.14118539 -0.13552225 0.31804746 0.0675787 -0.0666871 0.23637244 0.31229484 0.18695506
0.00016766925 -0.028499518 0.08564395 0.11385261 -0.06000558 0.11277442 -0.2320757 0.08898681
0.088198245 -0.014583267 0.020917773 0.1460513 -0.09591504 0.059278402 0.06180487 0.21769738
0.06809263 0.1858104 -0.023473542 0.13253461 -0.058752637 0.28373438 0.029421082 -0.053014796
-0.17670743 0.2302244 0.31845096 0.054638956 -0.038540214 -0.010834283 0.15637286 0.19275044
0.0986746 -0.107805915 -0.00052208785 0.21904087 -0.30799308 0.37802878 -0.10564088 0.06659407
0.19559601 0.025291655 0.31779936 0.09006498 0.12793158 0.092770144 0.002267365 0.003058753
0.16181414 0.13700654 0.18743327 0.030220512 0.16227613 0.29986578 -0.15153456 -0.08041868
-0.006330759 0.31772798 0.042147078 -0.027769294 0.13629438 0.10916925 0.07889424 0.37424478
0.04975487 0.027784001 -0.04850662 -0.18696159 0.15373789 -0.101184174 0.008704477 0.39979613

decoder.2.bias f4 [16]
00000000: 0f07 72be 1f80 a23e af3d dabc e9a4 68be
00000010: a146 7abe a78d 183e 9801 0fbe 0a3a 1bbe
00000020: bf52 5f3d db1f 50be 93af 283e 9df4 dbbc
00000030: 8e4b 44be eb8d b23d d6d2 a5bd 62f0 b3bd
-0.23635505 0.31738374 -0.026640741 -0.22719158 -0.24441005 0.14897786 -0.13965452 -0.15158859
0.054522272 -0.20324652 0.16473226 -0.02685004 -0.19169447 0.08718475 -0.080968544 -0.08786084

decoder.4.weight f4 [1, 16]
00000000: 8829 a0be a9a9 b0be 06d2 bebe 158b a5be
00000010: 702d 283e 9e9a 87be c4a8 8bbe 7dd3 803d
00000020: 46a9 853e 22b0 4f3e 6275 913e 6329 5b3e
00000030: a81f a53d d016 4f3e b400 b53e a201 bdbe
-0.31281686 -0.3450444 -0.3726961 -0.32332674 0.16423583 -0.2648515 -0.27277195 0.06290338
0.26105708 0.20282033 0.28409868 0.21402507 0.080626786 0.20223546 0.353521 -0.36915308
